lightning_logs/version_12/checkpoints/epoch=0.ckpt (torch_old, 359533 bytes, 51 tensors)

exp_avg f4 [8, 2, 11]
000000 be e6 09 3a cc e6 09 3a c6 44 76 3a d1 f7 9e 3a
       0.00052605185 0.00052605267 0.00093944033 0.0012128298
000010 43 f4 9e 3a 49 f4 9e 3a db e4 91 3a e0 e4 91 3a
       0.0012127239 0.0012127246 0.0011130826 0.0011130832
000020 e1 5e 85 3a 9d 01 34 3a 9d 01 34 3a 9d 65 a7 38
       0.0010175371 0.00068666955 0.00068666955 7.9821075e-05
000030 0d 66 a7 38 5c 02 16 39 df db 41 39 aa d7 41 39
       7.982189e-05 0.00014305994 0.00018487823 0.00018486255
000040 af d7 41 39 8f 03 32 39 88 03 32 39 7f d1 22 39
       0.00018486263 0.00016976729 0.00016976718 0.00015527567
000050 c8 47 dc 38 c4 47 dc 38 04 11 06 80 ba 7b 0a 39
       0.00010503788 0.00010503785 -5.57117e-40 0.00013206797
000060 5e 68 2d 3a 04 28 6f 3a 44 50 9d 3a 1a 54 bb 3a
       0.0006614978 0.0009123089 0.001200207 0.0014292032
000070 20 54 bb 3a 22 54 bb 3a 24 54 bb 3a 26 54 bb 3a
       0.0014292039 0.0014292041 0.0014292044 0.0014292046
000080 26 54 bb 3a 4f eb 00 80 5e 83 a9 37 5a 36 d4 38
       0.0014292046 -8.4413e-41 2.0207543e-05 0.000101190715
000090 2d 58 12 39 70 85 40 39 d1 40 65 39 e3 40 65 39
       0.00013956493 0.00018360256 0.00021863288 0.00021863314
0000a0 ea 40 65 39 dc 40 65 39 d4 40 65 39 ca 40 65 39
       0.00021863324 0.00021863304 0.00021863292 0.00021863278
0000b0 ed 81 7a b3 26 7b 6f 39 b5 4e 06 3a de a5 2c 3a
       -5.8325828e-08 0.00022838693 0.00051234226 0.00065859954
0000c0 2c 5f 7d 3a 91 be bb 3a 94 be bb 3a 98 be bb 3a
       0.0009665366 0.0014323761 0.0014323764 0.0014323769
0000d0 9a be bb 3a 9d be bb 3a f6 be bb 3a b8 d7 18 b2
       0.0014323771 0.0014323775 0.0014323879 -8.896613e-09
0000e0 3d 8a 12 38 53 64 a4 38 85 50 d3 38 c3 0c 1b 39
       3.4937857e-05 7.838816e-05 0.00010076262 0.00014786706
0000f0 75 c3 65 39 7e c3 65 39 85 c3 65 39 81 c3 65 39
       0.00021911955 0.00021911968 0.00021911979 0.00021911973
000100 84 c3 65 39 ea c3 65 39 e5 fa 04 3b 6f 22 0a 3b
       0.00021911977 0.00021912126 0.0020291146 0.0021077653
000110 0a 20 04 3b e6 6a 04 3b ea 6a 04 3b 4d 86 07 3b
       0.0020160698 0.0020205318 0.0020205327 0.0020679415
000120 c5 5b 08 3b 92 55 06 3b f8 ae 04 3b a7 dc 09 3b
       0.0020806652 0.0020497781 0.002024589 0.002103606
000130 d7 c8 03 3b b3 4d a8 39 d5 9c ae 39 21 42 a7 39
       0.0020108724 0.00032101347 0.00033304715 0.00031901992
000140 b9 9d a7 39 73 9d a7 39 69 6b ab 39 c9 6c ac 39
       0.00031970235 0.0003197003 0.00032695688 0.00032887448
000150 b8 f3 a9 39 58 ef a7 39 8a 38 ae 39 f5 d0 a6 39
       0.00032415777 0.00032031047 0.0003322999 0.00031817672
000160 00 00 00 00 00 00 00 00 00 00 00 00 00 00 00 00
       0.0 0.0 0.0 0.0
000170 00 00 00 00 00 00 00 00 00 00 00 00 00 00 00 00
       0.0 0.0 0.0 0.0
000180 00 00 00 00 00 00 00 00 00 00 00 00 00 00 00 00
       0.0 0.0 0.0 0.0
000190 00 00 00 00 00 00 00 00 00 00 00 00 00 00 00 00
       0.0 0.0 0.0 0.0
0001a0 00 00 00 00 00 00 00 00 00 00 00 00 00 00 00 00
       0.0 0.0 0.0 0.0
0001b0 00 00 00 00 00 00 00 00 c1 05 e0 39 ce 05 e0 39
       0.0 0.0 0.00042728896 0.00042728934
0001c0 db 05 e0 39 f4 05 e0 39 05 06 e0 39 26 06 e0 39
       0.00042728972 0.00042729045 0.00042729094 0.0004272919
0001d0 17 63 9d 39 f7 f9 9c 39 ff f9 9c 39 40 6c 68 39
       0.000300192 0.00029940877 0.000299409 0.0002216557
0001e0 7f ec ac b4 a7 f4 87 38 7e f5 87 38 cf f5 87 38
       -3.220957e-07 6.482872e-05 6.483028e-05 6.483087e-05
0001f0 6b f6 87 38 9b f6 87 38 bb f6 87 38 38 0d 3f 38
       6.4832006e-05 6.4832355e-05 6.483259e-05 4.555026e-05
000200 06 81 3e 38 ce 80 3e 38 45 41 0d 38 4c a6 50 b3
       4.5419692e-05 4.541949e-05 3.3677807e-05 -4.858002e-08
000210 f8 d9 7b 3b 7a 93 7c 3b 6d e6 83 3b b5 24 8c 3b
       0.003842948 0.0038540051 0.0040252716 0.0042768368
000220 a0 38 95 3b 5b 02 93 3b 54 02 93 3b 4e 02 93 3b
       0.0045538694 0.004486365 0.0044863615 0.0044863587
000230 49 02 93 3b 38 c5 95 3b 08 06 98 3b 33 e1 1d 3a
       0.0044863564 0.0045706294 0.004639391 0.0006022632
000240 87 52 1e 3a b3 30 25 3a f4 46 2f 3a a4 62 3a 3a
       0.0006039519 0.0006301507 0.0006686293 0.00071100355
000250 ad ad 37 3a dc ad 37 3a e3 ad 37 3a f9 ad 37 3a
       0.00070067757 0.0007006803 0.0007006807 0.000700682
000260 2b 09 3b 3a 28 c6 3d 3a fd d1 15 39 a4 6e 0f 39
       0.000713485 0.00072393054 0.00014287974 0.0001367876
000270 f6 26 ba 39 ec af b5 39 7e 07 42 39 c9 17 d6 39
       0.00035505713 0.00034654082 0.00018504073 0.00040834982
000280 d5 17 d6 39 da 17 d6 39 e0 17 d6 39 bb 2e 8b 39
       0.00040835017 0.00040835032 0.0004083505 0.00026546963
000290 bc 2e 8b 39 a8 3a b6 37 65 6a ae 37 b6 3a 63 38
       0.00026546966 2.1723405e-05 2.079196e-05 5.4175696e-05
0002a0 52 c8 5d 38 7f 4d ec 37 bc b7 82 38 c5 b7 82 38
       5.287707e-05 2.816948e-05 6.233106e-05 6.233113e-05
0002b0 d5 b7 82 38 9d b7 82 38 2a 51 2a 38 33 51 2a 38
       6.2331244e-05 6.233084e-05 4.060675e-05 4.060678e-05

exp_avg_sq f4 [8, 2, 11]
000000 83 c4 2a 38 d8 77 2b 38 2b 81 43 38 40 03 5e 38
       4.0714174e-05 4.088119e-05 4.661192e-05 5.293195e-05
000010 12 5a 6e 38 22 5a 6e 38 a6 f7 52 38 aa f7 52 38
       5.6827506e-05 5.6827565e-05 5.0298542e-05 5.0298557e-05
000020 05 76 39 38 ca 5e 0f 38 15 9c 03 38 d9 b0 7f 35
       4.421735e-05 3.4182136e-05 3.1378197e-05 9.525225e-07
000030 4e 5f 80 35 09 54 92 35 8b 21 a6 35 0d 58 b2 35
       9.56448e-07 1.0902305e-06 1.2377726e-06 1.328766e-06
000040 25 58 b2 35 43 de 9d 35 57 de 9d 35 f6 cb 8a 35
       1.3287687e-06 1.1762098e-06 1.1762121e-06 1.0341162e-06
000050 00 a9 56 35 21 0c 45 35 35 ee 43 39 30 90 44 39
       7.996714e-07 7.340587e-07 0.00018685388 0.0001874573
000060 ce b4 4a 39 63 d3 50 39 f8 ca 59 39 1a 10 62 39
       0.00019331576 0.00019915173 0.00020770344 0.00021559038
000070 37 10 62 39 55 10 62 39 6e 10 62 39 7f 10 62 39
       0.0002155908 0.00021559124 0.0002155916 0.00021559185
000080 1e 9d 60 39 d8 f1 8f 36 f4 69 90 36 ab ff 94 36
       0.00021420835 4.2898864e-06 4.303869e-06 4.4405074e-06
000090 5c 91 99 36 d1 43 a0 36 f3 70 a6 36 0b 71 a6 36
       4.5766774e-06 4.7762665e-06 4.9603345e-06 4.9603454e-06
0000a0 13 71 a6 36 31 71 a6 36 3e 71 a6 36 87 60 a5 36
       4.960349e-06 4.9603627e-06 4.9603686e-06 4.9286205e-06
0000b0 0c 21 a2 38 45 4f a6 38 98 06 b0 38 bf 3d b6 38
       7.7309174e-05 7.930262e-05 8.393562e-05 8.6899374e-05
0000c0 a4 4a c6 38 89 3d e7 38 94 3d e7 38 a1 3d e7 38
       9.4552786e-05 0.000110264 0.00011026408 0.000110264176
0000d0 a8 3d e7 38 26 0a e6 38 8f f3 e6 38 71 6e f0 35
       0.00011026423 0.00010969145 0.00011012621 1.7913536e-06
0000e0 9c b1 f6 35 5e 9d 02 36 11 43 07 36 5f 44 13 36
       1.8380119e-06 1.946311e-06 2.0155605e-06 2.1944504e-06
0000f0 08 e7 2b 36 0d e7 2b 36 2a e7 2b 36 31 e7 2b 36
       2.5615464e-06 2.5615475e-06 2.561554e-06 2.5615557e-06
000100 fc 03 2b 36 4c b3 2b 36 85 e2 5a 3a c4 c9 5c 3a
       2.5483305e-06 2.558535e-06 0.0008349794 0.00084223994
000110 db ba 5a 3a 03 5d 5b 3a 00 5d 5b 3a af e9 5c 3a
       0.00083438837 0.0008368047 0.0008368045 0.00084271556
000120 0f 85 5d 3a 2d c4 5c 3a 7c fa 5b 3a 50 ff 5f 3a
       0.0008450308 0.00084215665 0.0008391512 0.00085448194
000130 ac 96 5b 3a b7 5f a3 37 dc cb a4 37 31 42 a3 37
       0.0008376639 1.9475685e-05 1.9645253e-05 1.9461937e-05
000140 a0 bb a3 37 b1 bb a3 37 58 e4 a4 37 51 58 a5 37
       1.9518484e-05 1.9518515e-05 1.9656654e-05 1.9710658e-05
000150 81 c8 a4 37 d9 31 a4 37 84 32 a7 37 da e7 a3 37
       1.964369e-05 1.9573536e-05 1.9931475e-05 1.9539078e-05
000160 00 00 00 00 00 00 00 00 00 00 00 00 00 00 00 00
       0.0 0.0 0.0 0.0
000170 00 00 00 00 00 00 00 00 00 00 00 00 00 00 00 00
       0.0 0.0 0.0 0.0
000180 00 00 00 00 00 00 00 00 00 00 00 00 00 00 00 00
       0.0 0.0 0.0 0.0
000190 00 00 00 00 00 00 00 00 00 00 00 00 00 00 00 00
       0.0 0.0 0.0 0.0
0001a0 00 00 00 00 00 00 00 00 00 00 00 00 00 00 00 00
       0.0 0.0 0.0 0.0
0001b0 00 00 00 00 00 00 00 00 98 a4 57 38 9d a4 57 38
       0.0 0.0 5.1413284e-05 5.1413303e-05
0001c0 9d a4 57 38 99 a4 57 38 99 a4 57 38 91 a4 57 38
       5.1413303e-05 5.1413288e-05 5.1413288e-05 5.141326e-05
0001d0 fe 1c 48 38 cb 5f 48 38 c5 5f 48 38 6d 49 3f 38
       4.7710717e-05 4.777293e-05 4.7772908e-05 4.560633e-05
0001e0 b4 21 37 38 b7 9c a1 35 d3 9c a1 35 f1 9c a1 35
       4.366199e-05 1.2041045e-06 1.2041077e-06 1.2041111e-06
0001f0 23 9d a1 35 40 9d a1 35 73 9d a1 35 b7 fe 95 35
       1.2041168e-06 1.20412e-06 1.2041259e-06 1.1175497e-06
000200 18 31 96 35 52 31 96 35 6c 64 8f 35 6b 4b 89 35
       1.1190159e-06 1.1190225e-06 1.0683557e-06 1.0229245e-06
000210 3e 70 f5 3a 10 62 f6 3a 0d 68 fa 3a b3 05 00 3b
       0.0018725467 0.0018797535 0.0019104496 0.0019534647
000220 71 24 03 3b 9a 60 02 3b 9e 60 02 3b cd 5e 02 3b
       0.0020010734 0.0019894005 0.0019894014 0.0019892931
000230 d1 5e 02 3b cf 46 04 3b e4 dd 05 3b 86 1a 37 38
       0.001989294 0.0020183807 0.0020426447 4.3655302e-05
000240 95 cf 37 38 90 d1 3a 38 ab 08 3f 38 f3 b2 43 38
       4.3823926e-05 4.4541026e-05 4.554602e-05 4.6658282e-05
000250 39 8e 42 38 48 8e 42 38 c2 8b 42 38 e0 8b 42 38
       4.638566e-05 4.6385714e-05 4.6383364e-05 4.6383473e-05
000260 88 64 45 38 5c c4 47 38 ca 4e 7e 37 df 92 7f 37
       4.7062087e-05 4.762817e-05 1.5157924e-05 1.52333805e-05
000270 bb d8 86 37 86 75 87 37 6f ea 80 37 73 52 8b 37
       1.6074968e-05 1.614798e-05 1.5367956e-05 1.6608485e-05
000280 7b 52 8b 37 50 1f 8b 37 ae 0d 8d 37 2b 8b 80 37
       1.66085e-05 1.6584672e-05 1.681488e-05 1.5323594e-05
000290 57 80 81 37 bd 83 bc 34 72 73 bd 34 f9 fc c7 34
       1.5437761e-05 3.511358e-07 3.528799e-07 3.72507e-07
0002a0 1a e6 c8 34 ef 21 bf 34 fc aa ce 34 f0 aa ce 34
       3.7420324e-07 3.5601212e-07 3.8494898e-07 3.8494863e-07
0002b0 41 5f ce 34 4b 35 d1 34 43 a3 be 34 05 0e c0 34
       3.8439796e-07 3.896806e-07 3.5509046e-07 3.5772987e-07

exp_avg f4 [8]
000000 aa 99 83 b7 99 46 9b b7 3a 9f 9b b7 c7 28 e1 b7
       -1.5687972e-05 -1.8510314e-05 -1.8551586e-05 -2.6841079e-05
000010 00 00 00 00 0c 32 b9 b6 34 fd 73 b8 5d 4d b1 b6
       0.0 -5.519256e-06 -5.817153e-05 -5.2840173e-06

exp_avg_sq f4 [8]
000000 fd 14 23 32 c4 0f 1a 33 36 01 9e 32 75 32 17 34
       9.492621e-09 3.5870258e-08 1.8394172e-08 1.4081327e-07
000010 00 00 00 00 3f 97 13 32 d7 6b b2 34 b8 65 3e 31
       0.0 8.5909155e-09 3.3233547e-07 2.770646e-09

exp_avg f4 [8, 8, 11]
000000 c4 75 35 20 03 3c 8f 2e ce 46 a7 b5 65 dc 15 b7
       1.5370262e-19 6.513547e-11 -1.2463076e-06 -8.932407e-06
000010 ec 1c b1 b6 f1 71 a7 22 a5 07 2f b8 42 f6 55 b6
       -5.278378e-06 4.538608e-18 -4.173037e-05 -3.1882814e-06
000020 38 b2 7a b5 bf 88 6c b6 53 e7 19 34 72 5d d2 b6
       -9.33916e-07 -3.5246337e-06 1.433339e-07 -6.269366e-06
000030 8c c5 3e b8 82 ed 17 b8 63 0f 4a b8 69 97 e2 b8
       -4.548351e-05 -3.6222402e-05 -4.8174883e-05 -0.00010804722
000040 8a 11 e9 b7 69 0b 00 00 69 0b 00 00 97 0b 00 00
       -2.7783932e-05 4.093e-42 4.093e-42 4.158e-42
000050 50 0b 00 00 50 0b 00 00 60 a1 aa b7 57 4d 21 b9
       4.058e-42 4.058e-42 -2.0340725e-05 -0.00015382968
000060 15 a8 1f b9 ac 17 b0 b8 f9 58 4c b8 30 06 27 b8
       -0.00015226037 -8.396743e-05 -4.8720252e-05 -3.9821665e-05
000070 34 6f 9f 30 f3 72 9f 30 5b 4f 81 30 e7 73 ab 30
       1.1600378e-09 1.1601443e-09 9.40854e-10 1.2474829e-09
000080 39 e0 a8 30 53 77 1e b9 5b dd 32 b9 56 df 1f b9
       1.2287337e-09 -0.00015112506 -0.00017057864 -0.00015246621
000090 a6 ce 48 b9 c7 64 80 b9 d5 57 79 b9 df 2d 94 b9
       -0.00019150469 -0.00024489147 -0.0002377921 -0.00028262936
0000a0 7b 00 82 b9 a6 3a 7c b9 21 b3 82 b9 df 7a 34 b9
       -0.0002479589 -0.00024054441 -0.00024928994 -0.00017211911
0000b0 00 00 00 00 00 00 00 00 00 00 00 00 00 00 00 00
       0.0 0.0 0.0 0.0
0000c0 00 00 00 00 00 00 00 00 00 00 00 00 00 00 00 00
       0.0 0.0 0.0 0.0
0000d0 00 00 00 00 00 00 00 00 00 00 00 00 40 c3 87 2e
       0.0 0.0 0.0 6.1737726e-11
0000e0 e2 c7 87 2e ae d9 87 2e 49 14 88 2e ff 49 88 2e
       6.1745956e-11 6.177757e-11 6.188167e-11 6.197708e-11
0000f0 00 87 47 b8 9f 7c 73 34 94 dd 89 b5 d9 82 3f b7
       -4.7571026e-05 2.2676475e-07 -1.0271783e-06 -1.14149525e-05
000100 2d 74 42 b8 82 e7 36 b4 04 c9 50 b9 89 3e c3 b9
       -4.63614e-05 -1.7034293e-07 -0.0001991131 -0.0003723989
000110 63 4a ca b9 c4 f3 d4 b9 0c d4 cd b9 9b ef 9b b9
       -0.00038583865 -0.0004061741 -0.00039258634 -0.00029742424
000120 f8 72 64 b9 c9 59 5c b9 90 d3 51 b9 c0 b8 48 b9
       -0.00021786604 -0.00021014283 -0.00020010606 -0.00019142311
000130 83 08 48 b9 c9 b2 7d b7 cb 06 f8 b8 6c a7 15 b9
       -0.00019076657 -1.5121602e-05 -0.00011826827 -0.00014272117
000140 67 46 e2 b8 98 5d f3 b8 d9 69 54 b8 94 9d 99 b7
       -0.00010789633 -0.00011604576 -5.0643317e-05 -1.83124e-05
000150 94 0e 00 00 86 24 d4 b4 e3 87 02 b6 ad 18 90 b0
       5.23e-42 -3.9514651e-07 -1.9450606e-06 -1.0484392e-09
000160 d0 cb 24 b6 9e 96 c6 b6 ee 43 b4 34 69 65 07 36
       -2.4556539e-06 -5.918394e-06 3.3577038e-07 2.0175596e-06
000170 c1 bf 5a 21 f6 d4 5a 21 8a 56 34 22 85 d3 9e b7
       7.4115057e-19 7.4143124e-19 2.4440362e-18 -1.8933564e-05
000180 39 d2 43 b6 15 d9 18 33 4d 2b 03 36 48 27 99 b7
       -2.917963e-06 3.5587693e-08 1.9545726e-06 -1.8257313e-05
000190 e7 6e 1c b8 bc d3 5b b8 a9 85 d0 37 c4 a3 32 37
       -3.7296584e-05 -5.2410862e-05 2.4857773e-05 1.0647756e-05
0001a0 7e 06 00 00 f7 06 00 00 37 06 00 00 37 06 00 00
       2.329e-42 2.499e-42 2.23e-42 2.23e-42
0001b0 47 06 00 00 2e 06 00 00 06 1e 78 b8 86 aa 77 b5
       2.252e-42 2.217e-42 -5.915577e-05 -9.2262815e-07
0001c0 4e b1 b5 b6 8e 87 b0 b6 a1 07 80 37 c1 75 aa 31
       -5.4148613e-06 -5.2609894e-06 1.5262342e-05 4.9610382e-09
0001d0 e0 be a6 31 91 21 ab 31 a3 1e ab 31 fe 1b ab 31
       4.852936e-09 4.980571e-09 4.980238e-09 4.9799374e-09
0001e0 d4 98 ad 31 03 26 19 ba 2e 24 25 ba e9 e0 2b ba
       5.052337e-09 -0.0005842151 -0.00062996417 -0.00065566465
0001f0 7a 90 2e ba e9 ab 2d ba 3a 6f 2b ba cf db 25 ba
       -0.0006659102 -0.0006625043 -0.00065397064 -0.00063270045
000200 55 3d 28 ba ef 94 24 ba 9b 00 25 ba ed 2d 26 ba
       -0.00064178306 -0.00062782964 -0.0006294341 -0.0006339241
000210 00 00 00 00 00 00 00 00 00 00 00 00 00 00 00 00
       0.0 0.0 0.0 0.0
000220 00 00 00 00 00 00 00 00 00 00 00 00 00 00 00 00
       0.0 0.0 0.0 0.0
000230 00 00 00 00 00 00 00 00 00 00 00 00 36 ac 8a b0
       0.0 0.0 0.0 -1.0089767e-09
000240 26 e3 8a b0 61 ea 8a b0 c9 b4 8b b0 99 0e 8c b0
       -1.0105381e-09 -1.0107436e-09 -1.0164963e-09 -1.019049e-09
000250 4c 09 8c b0 cf d2 b0 b7 f5 44 aa b5 66 b9 d0 33
       -1.0188983e-09 -2.1079e-05 -1.2686056e-06 9.7194786e-08
000260 91 3d 21 b5 dc 78 92 b7 1e 30 51 ba 31 f8 51 ba
       -6.0066765e-07 -1.7460836e-05 -0.00079798873 -0.00080097007
000270 3a 8f 4c ba d1 05 4a ba ee 27 4b ba 38 db 4b ba
       -0.0007803325 -0.0007706555 -0.00077497854 -0.00077765016
000280 05 c3 43 ba 18 83 3b ba 94 a0 3a ba b5 b0 3b ba
       -0.000746772 -0.00071530184 -0.0007119265 -0.0007159815
000290 0d d3 3d ba 09 21 99 b8 8a 65 0b b8 7d 45 24 b8
       -0.0007241227 -7.301762e-05 -3.3234748e-05 -3.9165363e-05
0002a0 5d 72 6f 37 f3 a4 a3 37 1b 08 00 00 dc 07 00 00
       1.4272137e-05 1.9507925e-05 2.908e-42 2.82e-42
0002b0 35 e2 09 b7 d1 7d 27 b4 d7 07 00 00 eb c2 90 35
       -8.218504e-06 -1.5598859e-07 2.812e-42 1.0785565e-06
0002c0 95 83 2a 21 95 83 2a 21 c4 83 2a 21 87 9b 2d 30
       5.777239e-19 5.777239e-19 5.777263e-19 6.315805e-10
0002d0 ab ad f5 b6 f8 74 9f b6 e2 51 2c 21 2d c1 3b 2c
       -7.3217866e-06 -4.752186e-06 5.838424e-19 2.6681532e-12
0002e0 ce e4 82 35 ff 38 94 b3 7b f3 8c 37 aa 04 00 00
       9.752346e-07 -6.9021546e-08 1.680268e-05 1.673e-42
0002f0 aa 04 00 00 16 b5 19 b8 a9 3e ec b7 6c 94 f3 b7
       1.673e-42 -3.6646692e-05 -2.816257e-05 -2.9036972e-05
000300 f6 1f c4 b8 f5 22 d2 b7 76 04 00 00 c5 04 00 00
       -9.3519615e-05 -2.5050229e-05 1.6e-42 1.711e-42
000310 9f 04 00 00 db 04 00 00 86 87 b0 31 31 86 b0 31
       1.658e-42 1.742e-42 5.1376814e-09 5.13753e-09
000320 cb fe f9 b8 f0 a5 04 b9 59 4d 92 b8 91 ee 20 b8
       -0.00011920704 -0.00012650318 -6.9762296e-05 -3.8369155e-05
000330 62 9c 16 b8 4b be bc 31 be a3 b9 31 de 4f c0 31
       -3.590843e-05 5.493154e-09 5.402824e-09 5.5970153e-09
000340 04 9c b7 31 70 d6 37 ba 40 d6 37 ba 0c 3f 3d ba
       5.343738e-09 -0.00070128497 -0.0007012822 -0.00072191725
000350 2b d6 37 ba 9d 5b 3f ba 3c 87 4a ba ec f9 53 ba
       -0.00070128095 -0.0007299723 -0.000772584 -0.00080862525
000360 85 95 59 ba a0 6b 59 ba 80 aa 5e ba 87 6f 5c ba
       -0.0008300173 -0.00082939304 -0.00084940344 -0.0008408953
000370 00 00 00 00 00 00 00 00 00 00 00 00 00 00 00 00
       0.0 0.0 0.0 0.0
000380 00 00 00 00 00 00 00 00 00 00 00 00 00 00 00 00
       0.0 0.0 0.0 0.0
000390 00 00 00 00 00 00 00 00 00 00 00 00 ca f9 9c b0
       0.0 0.0 0.0 -1.1421488e-09
0003a0 f9 fb 9c b0 f8 fd 9c b0 0e 00 9d b0 22 ff 9c b0
       -1.1422109e-09 -1.1422676e-09 -1.1423269e-09 -1.1423007e-09
0003b0 15 03 9d b0 6f 94 9c b0 38 25 a8 35 2c fc a3 b3
       -1.1424129e-09 -1.1392681e-09 1.2527807e-06 -7.636149e-08
0003c0 8e dc 9d 37 c7 3f 60 35 83 fd 5a ba 55 fd 5a ba
       1.8818562e-05 8.353931e-07 -0.0008353816 -0.00083537895
0003d0 4b ca 81 ba 3a fb 82 ba d3 92 85 ba 57 5a 84 ba
       -0.0009902207 -0.0009993084 -0.0010190852 -0.0010097724
0003e0 18 dd 81 ba 00 50 81 ba f7 92 81 ba 19 39 85 ba
       -0.000990781 -0.0009865761 -0.0009885718 -0.0010164111
0003f0 3b d5 88 ba ee 03 00 00 ee 03 00 00 6b 3a ba b8
       -0.0010439524 1.41e-42 1.41e-42 -8.880052e-05

exp_avg_sq f4 [8, 8, 11]
000000 15 be b9 2d 01 ab 92 2e 09 9f 68 31 0b b7 30 32
       2.1116478e-11 6.669688e-11 3.3850844e-09 1.02861675e-08
000010 a6 e9 0b 32 6e 9b 1a 32 46 fd 54 34 c8 1f f9 32
       8.14399e-09 8.99932e-09 1.9836179e-07 2.9001868e-08
000020 92 72 21 30 b3 d9 2e 33 39 33 43 30 e3 cb 4d 32
       5.8734273e-10 4.071053e-08 7.101338e-10 1.1978929e-08
000030 08 3a 04 33 67 5b d0 32 6e cb 08 33 ae 71 00 34
       3.0786424e-08 2.4255952e-08 3.1849986e-08 1.1962285e-07
000040 aa 74 c4 32 36 52 33 32 45 52 33 32 e5 19 39 32
       2.2870456e-08 1.0437864e-08 1.0437877e-08 1.0774305e-08
000050 74 35 30 32 47 35 30 32 70 71 2a 35 ab d1 6d 35
       1.0256702e-08 1.0256662e-08 6.349501e-07 8.8594487e-07
000060 30 92 6e 35 ca 48 42 35 07 0d 34 35 35 33 32 35
       8.887464e-07 7.2376554e-07 6.707418e-07 6.6384683e-07
000070 24 98 23 35 4f fb 18 35 46 0e 19 35 31 1d 18 35
       6.0943626e-07 5.6990115e-07 5.701771e-07 5.666689e-07
000080 eb 4e 16 35 08 5e 5c 38 e8 8f 5e 38 0f 83 5c 38
       5.5994195e-07 5.253966e-05 5.3062948e-05 5.2574145e-05
000090 68 98 60 38 54 82 64 38 ba b7 5f 38 1e 04 64 38
       5.35477e-05 5.4480814e-05 5.3338452e-05 5.436327e-05
0000a0 78 ea 5e 38 a0 9e 5c 38 14 be 5d 38 19 50 52 38
       5.314729e-05 5.259982e-05 5.286753e-05 5.01425e-05
0000b0 00 00 00 00 00 00 00 00 00 00 00 00 00 00 00 00
       0.0 0.0 0.0 0.0
0000c0 00 00 00 00 00 00 00 00 00 00 00 00 00 00 00 00
       0.0 0.0 0.0 0.0
0000d0 00 00 00 00 00 00 00 00 00 00 00 00 c6 e4 f3 34
       0.0 0.0 0.0 4.5428732e-07
0000e0 06 e5 f3 34 27 e5 f3 34 63 e5 f3 34 9c e5 f3 34
       4.5428914e-07 4.5429007e-07 4.5429178e-07 4.542934e-07
0000f0 b9 73 3a 35 29 df 0c 35 49 63 fa 34 94 0a 0c 35
       6.94588e-07 5.2478805e-07 4.6638368e-07 5.216946e-07
000100 03 f0 35 35 91 54 01 35 4c e5 82 38 91 f3 89 38
       6.777702e-07 4.8179305e-07 6.241593e-05 6.578037e-05
000110 d0 97 8a 38 0b 8e 8b 38 40 14 8b 38 16 f9 83 38
       6.60863e-05 6.654494e-05 6.631808e-05 6.292963e-05
000120 3d 6f 7c 38 97 9a 78 38 f1 c3 76 38 18 a4 75 38
       6.018508e-05 5.927178e-05 5.8833455e-05 5.8565376e-05
000130 89 5c 75 38 84 3c 57 36 fb 4a 72 36 9c fd 7a 36
       5.8498732e-05 3.2072721e-06 3.6104454e-06 3.7400523e-06
000140 a5 6a 72 36 e9 5c 76 36 c4 25 64 36 55 1a 63 36
       3.6122885e-06 3.6710937e-06 3.399663e-06 3.3840963e-06
000150 a8 1e 5d 36 df aa 53 36 51 c0 50 36 b1 07 50 36
       3.294941e-06 3.154091e-06 3.1106358e-06 3.0998892e-06
000160 e6 37 c9 31 4d 1f 11 32 be dd e1 30 93 e7 dd 30
       5.856225e-09 8.447228e-09 1.6433928e-09 1.6145684e-09
000170 95 c7 5d 2f d8 e9 5d 2f 68 23 b6 30 3d 09 8a 32
       2.0170739e-10 2.0182911e-10 1.3252306e-09 1.6069515e-08
000180 b4 9a 6c 31 a8 92 9b 2f 25 30 db 30 00 c8 68 32
       3.4430458e-09 2.829854e-10 1.5948031e-09 1.3549652e-08
000190 4a bf 12 33 75 0b 82 33 88 a8 24 32 a2 44 b0 31
       3.416725e-08 6.055681e-08 9.584376e-09 5.130077e-09
0001a0 23 ce 8a 31 8e f9 9c 31 55 b1 81 31 13 b1 81 31
       4.0397636e-09 4.5685686e-09 3.7745544e-09 3.774525e-09
0001b0 95 bd 83 31 26 9d 80 31 c6 89 d0 34 8c f4 91 34
       3.8341548e-09 3.743156e-09 3.8843262e-07 2.7186286e-07
0001c0 42 42 8e 34 a8 17 8b 34 06 dd 82 34 59 a6 84 34
       2.649777e-07 2.590798e-07 2.4375203e-07 2.470795e-07
0001d0 9b 0c 85 34 f4 ba 81 34 59 48 78 34 00 5d 78 34
       2.4782352e-07 2.416415e-07 2.312312e-07 2.3130633e-07
0001e0 e5 82 77 34 09 40 36 39 7f 1f 3a 39 47 46 3c 39
       2.3051287e-07 0.00017380728 0.00017750075 0.00017955257
0001f0 0d b7 3d 39 20 08 3e 39 dd a5 3d 39 be df 3b 39
       0.00018092636 0.00018122839 0.00018086233 0.0001791706
000200 cc 82 3c 39 a8 54 3b 39 ca 05 3b 39 a7 55 3b 39
       0.00017977803 0.00017865247 0.00017835866 0.00017865618
000210 00 00 00 00 00 00 00 00 00 00 00 00 00 00 00 00
       0.0 0.0 0.0 0.0
000220 00 00 00 00 00 00 00 00 00 00 00 00 00 00 00 00
       0.0 0.0 0.0 0.0
000230 00 00 00 00 00 00 00 00 00 00 00 00 9b 28 23 35
       0.0 0.0 0.0 6.078132e-07
000240 78 92 26 35 9c 92 26 35 4d 73 28 35 37 36 2e 35
       6.205296e-07 6.2053164e-07 6.275266e-07 6.4898944e-07
000250 42 77 2d 35 8b 73 3d 35 83 85 2f 35 1f 18 28 35
       6.4621065e-07 7.0576124e-07 6.5386865e-07 6.261998e-07
000260 1b 4e 33 35 5d 01 39 35 1b 1f 65 39 df a8 65 39
       6.6796355e-07 6.8919854e-07 0.0002185073 0.00021902051
000270 c3 62 64 39 56 8d 63 39 a5 aa 63 39 3e c5 63 39
       0.00021780566 0.00021701059 0.00021711977 0.00021721885
000280 e9 01 61 39 1c 35 5e 39 cd 65 5d 39 54 2f 5d 39
       0.00021458384 0.00021191355 0.00021114126 0.00021093833
000290 f6 2d 5d 39 e4 24 b9 36 9f 45 b1 36 f5 df b1 36
       0.00021093324 5.5177243e-06 5.283116e-06 5.301083e-06
0002a0 cb 10 aa 36 03 ce a4 36 cb 0c a5 36 24 03 a3 36
       5.0683498e-06 4.911564e-06 4.9188725e-06 4.858144e-06
0002b0 66 3f a7 36 2b a1 a3 36 b4 34 a0 36 7c a3 a1 36
       4.9843684e-06 4.876541e-06 4.774507e-06 4.817206e-06
0002c0 91 11 18 2f 44 11 18 2f 6c 11 18 2f 3d 3d cb 30
       1.383056e-10 1.3830453e-10 1.3830509e-10 1.4787599e-09
0002d0 f3 42 b2 31 c3 2c ab 31 23 1c 20 2f a4 aa d4 2f
       5.188093e-09 4.981844e-09 1.4561911e-10 3.8683823e-10
0002e0 9b 04 66 31 90 e0 0c 31 f8 c1 32 32 b7 23 fc 30
       3.3472023e-09 2.050033e-09 1.0405067e-08 1.8345564e-09
0002f0 0f 25 fc 30 81 01 56 32 40 cb 0d 32 53 fe 15 32
       1.8345946e-09 1.2456781e-08 8.253494e-09 8.730768e-09
000300 98 4a 97 33 b2 07 fe 31 35 db e8 30 0c d9 03 31
       7.045054e-08 7.393248e-09 1.6942524e-09 1.9186386e-09
000310 5f a4 f6 30 3e 3e 08 31 98 cf 3a 34 d6 cf 3a 34
       1.7945573e-09 1.9825985e-09 1.7398122e-07 1.739821e-07
000320 01 8d ab 34 fe b0 b4 34 2d ae 7c 34 bf 83 57 34
       3.1953826e-07 3.3656391e-07 2.3532694e-07 2.0071364e-07
000330 de 35 56 34 c9 f1 3d 34 52 e5 3f 34 45 d9 42 34
       1.99499e-07 1.7689958e-07 1.7871687e-07 1.81467e-07
000340 1c 05 45 34 60 73 10 39 62 73 10 39 bb 5c 11 39
       1.8348913e-07 0.0001377589 0.00013775894 0.00013862822
000350 70 73 10 39 0b b5 11 39 17 0d 13 39 89 47 14 39
       0.00013775914 0.00013895721 0.00014023889 0.00014141029
000360 16 7c 15 39 2b 4e 15 39 a0 d3 16 39 74 64 16 39
       0.00014255973 0.00014238867 0.00014383951 0.00014342536
000370 00 00 00 00 00 00 00 00 00 00 00 00 00 00 00 00
       0.0 0.0 0.0 0.0
000380 00 00 00 00 00 00 00 00 00 00 00 00 00 00 00 00
       0.0 0.0 0.0 0.0
000390 00 00 00 00 00 00 00 00 00 00 00 00 f2 b0 b1 34
       0.0 0.0 0.0 3.3097564e-07
0003a0 04 b1 b1 34 05 b1 b1 34 04 b1 b1 34 ee b0 b1 34
       3.3097615e-07 3.3097618e-07 3.3097615e-07 3.3097552e-07
0003b0 e7 b0 b1 34 4f 5c af 34 e1 31 b5 34 ae e3 b6 34
       3.3097533e-07 3.2663453e-07 3.375017e-07 3.40658e-07
0003c0 56 70 b4 34 91 99 b3 34 16 9a 2e 39 21 9a 2e 39
       3.3609348e-07 3.3453082e-07 0.00016651335 0.0001665135
0003d0 28 09 34 39 15 64 34 39 c8 20 35 39 93 d6 34 39
       0.00017169549 0.00017203421 0.00017273717 0.00017246073
0003e0 e8 4d 34 39 3d 14 35 39 84 f8 35 39 73 fd 37 39
       0.0001719516 0.00017269044 0.00017354084 0.00017546657
0003f0 94 d7 39 39 74 9d a9 35 7a 9d a9 35 88 5d c1 35
       0.00017723284 1.2637306e-06 1.2637313e-06 1.4406842e-06

exp_avg f4 [8]
000000 80 68 22 b7 f2 d4 b8 b7 88 45 e9 b7 38 0d c5 b7
       -9.680283e-06 -2.203367e-05 -2.7808142e-05 -2.3490386e-05
000010 f7 b0 11 b9 64 bc df b7 00 00 00 00 04 00 00 00
       -0.00013894202 -2.6671398e-05 0.0 6e-45

exp_avg_sq f4 [8]
000000 eb eb 0f 33 c9 97 06 34 90 01 dc 33 6e 00 bf 33
       3.3509348e-08 1.2534942e-07 1.02448325e-07 8.894209e-08
000010 a6 73 c4 35 fe b8 86 32 00 00 00 00 c5 76 d4 2c
       1.4636796e-06 1.5683778e-08 0.0 6.0385885e-12

exp_avg f4 [16, 8, 11]
000000 e8 f1 bc 2f 25 bb fc 37 c6 82 2f 37 87 c5 23 37
       3.4368886e-10 3.0127887e-05 1.0461261e-05 9.7615475e-06
000010 59 d2 81 36 61 cf a8 36 44 5c 5c b7 aa f7 1e b8
       3.8689873e-06 5.0309322e-06 -1.3134504e-05 -3.790079e-05
000020 a7 0d b9 b7 6f 76 85 b7 d0 30 8e b7 18 e5 75 b7
       -2.2060076e-05 -1.5909985e-05 -1.695045e-05 -1.4656478e-05
000030 61 ed ba 37 7b b2 65 36 b4 41 72 b5 68 22 02 b7
       2.2283466e-05 3.4227548e-06 -9.0247636e-07 -7.756615e-06
000040 be c7 22 b7 f4 88 1f b7 b7 7c ba b7 33 89 0c b8
       -9.702459e-06 -9.509025e-06 -2.2231003e-05 -3.3506378e-05
000050 c8 d4 c7 b7 8d 87 b2 b7 f6 38 0b b8 d8 51 eb 37
       -2.3821733e-05 -2.1282374e-05 -3.319323e-05 2.8052295e-05
000060 8e 57 47 b7 bc c5 5c b7 34 08 c8 b7 04 df 95 b7
       -1.188171e-05 -1.31590605e-05 -2.3845678e-05 -1.7866034e-05
000070 a9 ce 40 b8 ec a5 e7 b7 68 00 d9 b7 8d a4 a7 b7
       -4.5968834e-05 -2.761461e-05 -2.5868605e-05 -1.9984576e-05
000080 46 25 3b b7 ac ce a8 30 73 66 0a 37 b7 4d ac 36
       -1.1154747e-05 1.2282348e-09 8.249294e-06 5.1350466e-06
000090 99 0b 3a 36 23 06 87 b5 0e 56 d2 b6 ea 0c f0 b7
       2.772291e-06 -1.006007e-06 -6.268506e-06 -2.8616243e-05
0000a0 6a 75 20 b8 60 1f 20 b8 18 d6 2a b8 ee ce fa b7
       -3.8256323e-05 -3.8176193e-05 -4.073055e-05 -2.9898682e-05
0000b0 8b 9e 7d b8 e0 3d 53 b7 d7 a7 37 b8 af 28 2c b8
       -6.0467555e-05 -1.2590986e-05 -4.3786913e-05 -4.1045885e-05
0000c0 37 04 4d b8 de 5b 45 b8 ba 53 61 b8 ea b4 5d b8
       -4.8879734e-05 -4.7054018e-05 -5.3722157e-05 -5.2858995e-05
0000d0 bc 5b 55 b8 66 c7 5d b8 26 9d 42 b8 1c 00 00 00
       -5.086859e-05 -5.287621e-05 -4.639956e-05 3.9e-44
0000e0 b9 5b 7b 38 cb a3 ae 37 8b 46 a3 37 b3 32 17 37
       5.9928487e-05 2.0818688e-05 1.9463963e-05 9.012106e-06
0000f0 63 78 78 37 bf 62 21 b8 ee 99 2d b7 74 94 a1 b6
       1.4809982e-05 -3.8477356e-05 -1.0347443e-05 -4.815456e-06
000100 6e c4 9b 36 a8 04 23 35 00 00 00 00 00 00 00 00
       4.6422274e-06 6.072901e-07 0.0 0.0
000110 00 00 00 00 00 00 00 00 00 00 00 00 00 00 00 00
       0.0 0.0 0.0 0.0
000120 00 00 00 00 00 00 00 00 00 00 00 00 00 00 00 00
       0.0 0.0 0.0 0.0
000130 00 00 00 00 04 00 00 00 04 00 00 00 04 00 00 80
       0.0 6e-45 6e-45 -6e-45
000140 04 00 00 80 04 00 00 80 04 00 00 80 04 00 00 80
       -6e-45 -6e-45 -6e-45 -6e-45
000150 04 00 00 80 04 00 00 00 04 00 00 00 04 00 00 00
       -6e-45 6e-45 6e-45 6e-45
000160 8a 90 26 b9 54 16 12 b9 ff 44 04 b9 f4 73 8c b8
       -0.00015884839 -0.00013931963 -0.00012614204 -6.697318e-05
000170 9b 8e 1d b8 59 02 b1 b7 59 23 10 b7 97 77 b5 b7
       -3.756453e-05 -2.1101137e-05 -8.591299e-06 -2.163257e-05
000180 c4 98 0e b8 c1 a4 82 b8 c2 d8 83 b8 b5 ed eb b9
       -3.3997712e-05 -6.229571e-05 -6.286941e-05 -0.00044999798
000190 49 3d e7 b9 46 d6 e4 b9 b8 b3 cf b9 2a db c3 b9
       -0.00044105414 -0.00043647195 -0.00039616018 -0.00037356588
0001a0 d3 88 bd b9 ad a3 b3 b9 9a 73 ad b9 ed 14 af b9
       -0.0003615083 -0.00034263488 -0.0003308326 -0.00033394192
0001b0 e2 ef b4 b9 8d a7 bc b9 74 1f 52 ba 84 70 4d ba
       -0.00034511002 -0.0003598299 -0.0008015551 -0.00078368955
0001c0 c1 8b 4a ba 79 ca 35 ba 88 78 33 ba 6e c6 2e ba
       -0.00077265134 -0.0006934773 -0.00068462687 -0.00066671416
0001d0 47 a2 2f ba 39 e3 2d ba fe 3f 33 ba ad f7 31 ba
       -0.00066999014 -0.0006633285 -0.00068378437 -0.0006788921
0001e0 f1 80 2c ba dc b5 6c b8 7e 4c 58 b8 42 1a 3e b8
       -0.0006580493 -5.6436154e-05 -5.1569652e-05 -4.5323985e-05
0001f0 83 59 cf b7 3f 72 66 b7 18 a3 86 b7 13 10 e6 b7
       -2.4718005e-05 -1.3735668e-05 -1.6049991e-05 -2.7425622e-05
000200 a9 a0 2c b8 2a 92 97 b8 b4 f1 e0 b8 fb 0a ef b8
       -4.1157622e-05 -7.227466e-05 -0.00010726173 -0.00011398453
000210 f3 70 94 ba df 05 95 ba e3 e0 97 ba 6f f8 93 ba
       -0.0011325165 -0.0011369548 -0.0011587407 -0.0011289249
000220 34 82 95 ba ef 65 97 ba fc d6 97 ba 8a 3c 98 ba
       -0.0011406601 -0.0011550764 -0.0011584456 -0.0011614722
000230 ea e8 99 ba 5f fe 9b ba 92 ae 9a ba ae ed 9b b9
       -0.0011742387 -0.001190137 -0.0011801294 -0.0002974099
000240 76 02 8a b9 b0 6b 68 b9 2e fe d8 b8 8e 33 8b b8
       -0.00026323245 -0.00022165361 -0.00010347027 -6.637639e-05
000250 96 f9 3c b7 88 91 db b6 13 87 24 37 58 2d d2 b7
       -1.12637845e-05 -6.5436507e-06 9.806611e-06 -2.5055066e-05
000260 ae 26 9d b7 c7 97 00 b6 00 00 00 00 00 00 00 00
       -1.873387e-05 -1.9161832e-06 0.0 0.0
000270 00 00 00 00 00 00 00 00 00 00 00 00 00 00 00 00
       0.0 0.0 0.0 0.0
000280 00 00 00 00 00 00 00 00 00 00 00 00 00 00 00 00
       0.0 0.0 0.0 0.0
000290 00 00 00 00 04 00 00 80 04 00 00 80 04 00 00 80
       0.0 -6e-45 -6e-45 -6e-45
0002a0 04 00 00 00 04 00 00 00 04 00 00 00 04 00 00 00
       6e-45 6e-45 6e-45 6e-45
0002b0 04 00 00 80 04 00 00 80 04 00 00 80 04 00 00 80
       -6e-45 -6e-45 -6e-45 -6e-45
0002c0 30 35 10 08 30 35 10 08 30 35 10 08 30 35 10 08
       4.3395945e-34 4.3395945e-34 4.3395945e-34 4.3395945e-34
0002d0 30 35 10 08 77 c1 ca 07 d5 ec b1 06 fa ec b1 06
       4.3395945e-34 3.050729e-34 6.6927993e-35 6.6928206e-35
0002e0 d5 ec b1 06 bd ec b1 06 ac ec b1 06 fa fc 58 08
       6.6927993e-35 6.6927856e-35 6.692776e-35 6.529751e-34
0002f0 92 b1 81 08 92 b1 81 08 92 b1 81 08 92 b1 81 08
       7.805652e-34 7.805652e-34 7.805652e-34 7.805652e-34
000300 92 b1 81 08 61 29 59 08 f3 5b 0a 08 fd 84 f2 07
       7.805652e-34 6.5349703e-34 4.163595e-34 3.6490276e-34
000310 fd 84 f2 07 16 85 f2 07 99 64 94 08 99 64 94 08
       3.6490276e-34 3.6490334e-34 8.931076e-34 8.931076e-34
000320 99 64 94 08 99 64 94 08 99 64 94 08 88 29 35 08
       8.931076e-34 8.931076e-34 8.931076e-34 5.4516526e-34
000330 a3 29 35 08 a3 29 35 08 a3 29 35 08 a3 29 35 08
       5.451665e-34 5.451665e-34 5.451665e-34 5.451665e-34
000340 a3 29 35 08 c8 82 8f 07 f9 75 9d 07 f9 75 9d 07
       5.451665e-34 2.1593115e-34 2.3692073e-34 2.3692073e-34
000350 f9 75 9d 07 f9 75 9d 07 f9 75 9d 07 2b e1 99 06
       2.3692073e-34 2.3692073e-34 2.3692073e-34 5.788306e-35
000360 00 00 00 00 00 00 00 00 00 00 00 00 00 00 00 00
       0.0 0.0 0.0 0.0
000370 24 6e 5d 08 24 6e 5d 08 24 6e 5d 08 24 6e 5d 08
       6.663424e-34 6.663424e-34 6.663424e-34 6.663424e-34
000380 24 6e 5d 08 2d c9 5c 08 3d c9 5c 08 47 c9 5c 08
       6.663424e-34 6.6440323e-34 6.6440396e-34 6.644044e-34
000390 47 c9 5c 08 5b c9 5c 08 6e c9 5c 08 3a a9 82 08
       6.644044e-34 6.6440534e-34 6.644062e-34 7.863875e-34
0003a0 3a a9 82 08 3a a9 82 08 3a a9 82 08 3a a9 82 08
       7.863875e-34 7.863875e-34 7.863875e-34 7.863875e-34
0003b0 d9 e9 be 06 00 00 00 00 00 00 00 00 00 00 00 00
       7.1813665e-35 0.0 0.0 0.0
0003c0 00 00 00 00 00 00 00 00 00 00 00 00 00 00 00 00
       0.0 0.0 0.0 0.0
0003d0 00 00 00 00 00 00 00 00 00 00 00 00 00 00 00 00
       0.0 0.0 0.0 0.0
0003e0 00 00 00 00 00 00 00 00 00 00 00 00 00 00 00 00
       0.0 0.0 0.0 0.0
0003f0 00 00 00 00 00 00 00 00 00 00 00 00 00 00 00 00
       0.0 0.0 0.0 0.0

exp_avg_sq f4 [16, 8, 11]
000000 05 cd 98 34 d9 9c 97 34 b2 83 9b 34 d4 31 9d 34
       2.8461378e-07 2.8240063e-07 2.896682e-07 2.9279784e-07
000010 72 8b 9e 34 48 52 9e 34 4e e0 a6 34 c9 d0 b5 34
       2.9531253e-07 2.948966e-07 3.1083113e-07 3.3865788e-07
000020 ff 32 ae 34 44 2e b0 34 f5 a7 b9 34 41 c5 17 36
       3.244713e-07 3.2816217e-07 3.458114e-07 2.261557e-06
000030 dd 91 0d 36 90 e8 12 36 b2 74 16 36 46 12 1a 36
       2.109554e-06 2.1891065e-06 2.2419667e-06 2.2958425e-06
000040 05 f1 1a 36 66 f1 1b 36 68 7e 1f 36 94 8d 21 36
       2.308808e-06 2.3237312e-06 2.3766424e-06 2.4073279e-06
000050 d4 99 22 36 94 30 24 36 d4 b5 8c 36 8b 24 85 36
       2.422942e-06 2.446618e-06 4.1934927e-06 3.967963e-06
000060 37 e1 8c 36 05 20 8f 36 bc 53 92 36 e6 85 91 36
       4.1985436e-06 4.2654597e-06 4.360887e-06 4.3369246e-06
000070 47 37 95 36 3a d9 92 36 e2 a0 92 36 df dc 91 36
       4.446981e-06 4.3764276e-06 4.3698683e-06 4.3470495e-06
000080 d5 f7 8f 36 22 7e d5 30 56 c4 42 31 25 7b 00 31
       4.2905835e-06 1.5533639e-09 2.834232e-09 1.869645e-09
000090 42 64 65 31 7e 3a b7 31 cc e8 9f 31 1c 28 31 32
       3.3380876e-09 5.3326508e-09 4.653975e-09 1.0311876e-08
0000a0 ce 30 90 32 1f 03 bc 32 8e 42 1d 33 73 3d 52 33
       1.6786e-08 2.18875e-08 3.6614942e-08 4.8950323e-08
0000b0 be 47 d7 36 6b 9f ce 36 64 fd d6 36 0d 31 d8 36
       6.415851e-06 6.157837e-06 6.4071955e-06 6.443012e-06
0000c0 ec ce da 36 e1 bd db 36 b8 79 de 36 1f 5e de 36
       6.520995e-06 6.5488134e-06 6.6302855e-06 6.6270727e-06
0000d0 29 da dd 36 0a 68 e5 36 62 7f e8 36 af 2f 50 31
       6.6117104e-06 6.8368436e-06 6.928968e-06 3.0295089e-09
0000e0 10 28 06 33 ac b4 da 31 ba 21 e8 31 0a 10 d0 31
       3.1235743e-08 6.365175e-09 6.755923e-09 6.05542e-09
0000f0 21 26 dd 31 0b 6e f3 32 05 f0 fd 31 4f 04 b2 31
       6.4362813e-09 2.8338965e-08 7.390556e-09 5.1809717e-09
000100 e3 70 69 31 96 37 6a 31 00 00 00 00 00 00 00 00
       3.3970131e-09 3.4083079e-09 0.0 0.0
000110 00 00 00 00 00 00 00 00 00 00 00 00 00 00 00 00
       0.0 0.0 0.0 0.0
000120 00 00 00 00 00 00 00 00 00 00 00 00 00 00 00 00
       0.0 0.0 0.0 0.0
000130 00 00 00 00 a1 d8 e8 2f ef 12 3b 2f 90 96 ba 2d
       0.0 4.2354478e-10 1.7014277e-10 2.1212615e-11
000140 49 37 67 2e c3 b1 ab 2e 7c 84 89 2e 81 d0 06 2d
       5.2572422e-11 7.8077565e-11 6.253573e-11 7.663315e-12
000150 c1 4b 29 2d 80 8b 90 2c ff d7 59 2c d1 c5 ac 2c
       9.6233585e-12 4.1082138e-12 3.0957457e-12 4.910496e-12
000160 07 a2 8c 36 d5 9f 86 36 9b 30 83 36 00 71 6e 36
       4.1911876e-06 4.012118e-06 3.9097627e-06 3.5530538e-06
000170 d4 0b 65 36 c6 0d 61 36 c2 e8 60 36 03 bf 68 36
       3.4130544e-06 3.353563e-06 3.3514084e-06 3.4681877e-06
000180 1b 6e 75 36 4b 3c 82 36 65 fc 84 36 e1 f6 28 38
       3.6571935e-06 3.881321e-06 3.963289e-06 4.0284245e-05
000190 0e 21 27 38 f9 f1 25 38 bb 82 20 38 09 a7 1d 38
       3.9846687e-05 3.956442e-05 3.8268725e-05 3.758728e-05
0001a0 4e 59 1c 38 12 bf 1a 38 c6 6b 1a 38 13 a0 1d 38
       3.727647e-05 3.689441e-05 3.6816833e-05 3.7580798e-05
0001b0 1a c5 20 38 21 2c 22 38 d6 45 b3 38 eb 9d b1 38
       3.8330538e-05 3.8664908e-05 8.548393e-05 8.469432e-05
0001c0 7e e9 b0 38 07 8b ab 38 4f 61 ab 38 ee 9c aa 38
       8.435825e-05 8.179811e-05 8.1720405e-05 8.135462e-05
0001d0 1d cc ab 38 2a 2c ac 38 6f 7f ae 38 52 0f af 38
       8.1919345e-05 8.209825e-05 8.320703e-05 8.347504e-05
0001e0 c7 dc ac 38 82 8a b4 34 33 24 ab 34 ca 3a a1 34
       8.242722e-05 3.362839e-07 3.187757e-07 3.0031362e-07
0001f0 c8 c9 90 34 b1 81 8a 34 02 5f 85 34 c8 4c 89 34
       2.6968905e-07 2.5798866e-07 2.4842308e-07 2.5574104e-07
000200 6a 75 99 34 d4 26 fb 34 c7 cc 44 35 0c 48 57 35
       2.85839e-07 4.6780644e-07 7.331368e-07 8.0198583e-07
000210 91 35 16 39 44 28 16 39 1b be 16 39 69 21 15 39
       0.0001432507 0.00014320115 0.00014375935 0.00014222194
000220 ed cf 15 39 81 8f 16 39 b2 65 17 39 0a ed 17 39
       0.00014287206 0.00014358574 0.00014438367 0.00014488786
000230 31 a4 1a 39 9f fb 1c 39 23 55 1c 39 d5 50 74 35
       0.0001474775 0.00014971055 0.00014909035 9.101471e-07
000240 5a 33 43 35 11 78 0a 35 78 88 17 34 38 c2 9c 33
       7.271789e-07 5.1583726e-07 1.4112618e-07 7.299644e-08
000250 74 e9 8d 32 22 79 8b 32 ad a0 87 32 ab 02 df 32
       1.6520723e-08 1.6236815e-08 1.5789135e-08 2.596183e-08
000260 05 2a d0 32 e3 1c c2 32 00 00 00 00 00 00 00 00
       2.4233495e-08 2.2597709e-08 0.0 0.0
000270 00 00 00 00 00 00 00 00 00 00 00 00 00 00 00 00
       0.0 0.0 0.0 0.0
000280 00 00 00 00 00 00 00 00 00 00 00 00 00 00 00 00
       0.0 0.0 0.0 0.0
000290 00 00 00 00 2b 24 13 30 95 79 bb 2e 88 13 bf 2e
       0.0 5.3529686e-10 8.525373e-11 8.689144e-11
0002a0 20 49 9e 2e f8 b2 40 2e 44 de 21 2d 38 1c 89 2c
       7.197998e-11 4.3814702e-11 9.201143e-12 3.896907e-12
0002b0 56 9a 9a 2c 52 28 26 2b fd 3b 84 2a 20 bb 8c 2b
       4.394078e-12 5.9031003e-13 2.3489536e-13 9.999536e-13
0002c0 1a 81 c3 2c 1a 81 c3 2c 1a 81 c3 2c 1a 81 c3 2c
       5.5565665e-12 5.5565665e-12 5.5565665e-12 5.5565665e-12
0002d0 1a 81 c3 2c 36 3d 41 2c ad ce 14 2a d5 ce 14 2a
       5.5565665e-12 2.7460928e-12 1.3216746e-13 1.32168e-13
0002e0 b2 ce 14 2a 7d ce 14 2a 64 ce 14 2a 01 52 5d 2d
       1.3216752e-13 1.321668e-13 1.3216647e-13 1.2580604e-11
0002f0 7b 21 9e 2d 7b 21 9e 2d 7b 21 9e 2d 7b 21 9e 2d
       1.7977389e-11 1.7977389e-11 1.7977389e-11 1.7977389e-11
000300 7b 21 9e 2d c9 ac 5d 2d df f7 b3 2c b6 3b 8a 2c
       1.7977389e-11 1.2600762e-11 5.115005e-12 3.928825e-12
000310 bf 3b 8a 2c c9 3b 8a 2c 5e 04 cf 2d 5e 04 cf 2d
       3.928829e-12 3.9288334e-12 2.3535115e-11 2.3535115e-11
000320 5e 04 cf 2d 5e 04 cf 2d 5e 04 cf 2d 61 45 1a 2d
       2.3535115e-11 2.3535115e-11 2.3535115e-11 8.769292e-12
000330 76 45 1a 2d 88 45 1a 2d 94 45 1a 2d 94 45 1a 2d
       8.76931e-12 8.7693255e-12 8.769336e-12 8.769336e-12
000340 8f 45 1a 2d 82 9e c1 2b 2f 17 e9 2b 2f 17 e9 2b
       8.769332e-12 1.375747e-12 1.656208e-12 1.656208e-12
000350 2f 17 e9 2b 2f 17 e9 2b 2f 17 e9 2b b7 9b de 29
       1.656208e-12 1.656208e-12 1.656208e-12 9.885793e-14
000360 00 00 00 00 00 00 00 00 00 00 00 00 00 00 00 00
       0.0 0.0 0.0 0.0
000370 9d 79 66 2d 9d 79 66 2d 9d 79 66 2d 9d 79 66 2d
       1.310099e-11 1.310099e-11 1.310099e-11 1.310099e-11
000380 9d 79 66 2d 9a 22 65 2d b5 22 65 2d cd 22 65 2d
       1.310099e-11 1.3024826e-11 1.3024849e-11 1.302487e-11
000390 e4 22 65 2d f6 22 65 2d 09 23 65 2d c3 7f a0 2d
       1.302489e-11 1.3024906e-11 1.3024922e-11 1.8246632e-11
0003a0 c3 7f a0 2d c3 7f a0 2d c3 7f a0 2d c3 7f a0 2d
       1.8246632e-11 1.8246632e-11 1.8246632e-11 1.8246632e-11
0003b0 67 53 2b 2a 00 00 00 00 00 00 00 00 00 00 00 00
       1.5216787e-13 0.0 0.0 0.0
0003c0 00 00 00 00 00 00 00 00 00 00 00 00 00 00 00 00
       0.0 0.0 0.0 0.0
0003d0 00 00 00 00 00 00 00 00 00 00 00 00 00 00 00 00
       0.0 0.0 0.0 0.0
0003e0 00 00 00 00 00 00 00 00 00 00 00 00 00 00 00 00
       0.0 0.0 0.0 0.0
0003f0 00 00 00 00 00 00 00 00 00 00 00 00 00 00 00 00
       0.0 0.0 0.0 0.0

exp_avg f4 [16]
000000 d2 06 50 b6 7b 06 88 b8 d8 3b 28 06 57 e1 5c b7
       -3.0998385e-06 -6.4861924e-05 3.1641254e-35 -1.3165488e-05
000010 68 cc 00 b8 48 4f 9b b6 75 26 ad b6 7f 1c 97 b8
       -3.0707946e-05 -4.6285895e-06 -5.1602788e-06 -7.205549e-05
000020 40 e4 46 36 9a c8 fe b8 61 31 5a b8 5c 56 cd b6
       2.9637158e-06 -0.00012149029 -5.2021238e-05 -6.1195296e-06
000030 d0 d8 20 34 47 61 83 1b 9c bd c2 b7 54 3b 82 b8
       1.4980037e-07 2.1734996e-22 -2.3214896e-05 -6.209934e-05

exp_avg_sq f4 [16]
000000 25 57 56 32 ed 3c 9d 34 b7 09 05 29 a3 52 17 32
       1.2476254e-08 2.9287858e-07 2.954036e-14 8.808146e-09
000010 a3 47 c2 33 f7 d9 a9 31 d6 ac ae 33 9f 57 bc 34
       9.0468596e-08 4.943327e-09 8.133945e-08 3.5081482e-07
000020 27 22 01 32 a8 1d 6b 35 ea 0f 87 34 73 55 8f 31
       7.516554e-09 8.758748e-07 2.5157289e-07 4.171562e-09
000030 6b 42 59 32 f5 a2 a4 25 dc 01 3a 32 3c c8 82 34
       1.2646164e-08 2.855989e-16 1.0827048e-08 2.4360077e-07

exp_avg f4 [16, 16, 11]
000000 66 75 85 b7 55 57 ab b7 44 02 8b b7 5c 5d 9a b7
       -1.5909503e-05 -2.0425456e-05 -1.6571146e-05 -1.8401704e-05
000010 89 c6 82 b7 ed 44 26 37 da 12 b8 36 1d 1b a6 36
       -1.5589658e-05 9.910419e-06 5.485822e-06 4.950342e-06
000020 72 8e 78 36 57 18 eb 34 81 b3 5c b5 78 3e 6b b8
       3.7037794e-06 4.378987e-07 -8.22176e-07 -5.6086545e-05
000030 f3 ed 7b b8 4c 8a 60 b8 38 9d 53 b8 c6 11 43 b8
       -6.006467e-05 -5.353456e-05 -5.045274e-05 -4.6508176e-05
000040 83 6a b0 b7 0f 6f b6 36 25 91 b4 37 05 34 bc 37
       -2.1030433e-05 5.4369516e-06 2.152526e-05 2.243557e-05
000050 29 6f aa 37 64 c8 80 37 c7 ec bc 03 00 00 00 00
       2.0317342e-05 1.5352103e-05 1.1104008e-36 0.0
000060 00 00 00 00 00 00 00 00 00 00 00 00 00 00 00 00
       0.0 0.0 0.0 0.0
000070 00 00 00 00 e0 02 00 03 00 00 00 00 9f d9 c6 03
       0.0 3.761912e-37 0.0 1.1687357e-36
000080 00 00 00 00 ec c4 64 24 65 e3 06 00 ec 5c ab 37
       0.0 4.960642e-17 6.32587e-40 2.0428059e-05
000090 04 12 c6 37 bd 1f d2 37 56 ef 8e 37 9c 2c 74 37
       2.3611829e-05 2.504873e-05 1.7039169e-05 1.455392e-05
0000a0 08 3c 71 36 7c 0a 89 30 21 b7 ea ad 34 7a 07 00
       3.5946741e-06 9.971042e-10 -2.6684046e-11 6.86687e-40
0000b0 fd 18 91 b7 4c 31 8b b7 5f 6f 20 b3 6d c0 87 36
       -1.7296983e-05 -1.6593047e-05 -3.7354194e-08 4.045715e-06
0000c0 3c e1 e7 35 14 91 d9 b4 6a 34 88 36 42 bd 80 b6
       1.7276393e-06 -4.0524958e-07 4.0592176e-06 -3.83673e-06
0000d0 98 7a 2e b6 dc 6d 04 b5 c4 68 96 b5 2b 8f 9f 07
       -2.599938e-06 -4.93337e-07 -1.1206362e-06 2.4007808e-34
0000e0 04 00 00 80 12 2a 95 a8 6e a9 f4 31 78 97 1f 33
       -6e-45 -1.6560568e-14 7.1205966e-09 3.7157832e-08
0000f0 78 5e dd b6 9b 91 33 34 86 e1 a6 35 b6 7d b0 32
       -6.597311e-06 1.6723645e-07 1.24336e-06 2.0546263e-08
000100 d9 28 0a 36 02 7f 44 2f bd 07 bd b6 35 bf 06 b7
       2.058738e-06 1.7871218e-10 -5.63354e-06 -8.031541e-06
000110 46 81 80 b7 45 6d a0 b7 6e 3c a1 b7 92 36 02 b7
       -1.5318987e-05 -1.9124369e-05 -1.9220835e-05 -7.7613095e-06
000120 90 e0 d7 b7 e4 70 b4 b6 6f 9f 35 b7 f5 c9 ec b6
       -2.5734567e-05 -5.3775602e-06 -1.0825562e-05 -7.056859e-06
000130 97 a4 09 37 a3 a1 53 b8 27 ee 54 b8 90 7f 4a b8
       8.204158e-06 -5.0456856e-05 -5.0766535e-05 -4.8279355e-05
000140 67 b8 44 b8 54 67 46 b8 e1 75 fa b7 04 b5 f1 b7
       -4.690178e-05 -4.730311e-05 -2.9857214e-05 -2.881373e-05
000150 3d b0 7e b7 c1 a5 46 b7 43 71 2f b7 27 94 d6 36
       -1.5180613e-05 -1.1840312e-05 -1.0457184e-05 6.394944e-06
000160 ae 98 9f b5 5e 35 82 b5 15 e4 b4 b5 7f 65 c8 b5
       -1.1890859e-06 -9.701287e-07 -1.3477426e-06 -1.49307e-06
000170 fc 7f ca b5 75 a1 4e 36 b6 33 b5 b7 38 62 56 b8
       -1.5087421e-06 3.0790372e-06 -2.1600961e-05 -5.111305e-05
000180 53 d8 80 b8 34 63 35 b8 fb 60 b8 36 52 77 94 b8
       -6.143809e-05 -4.3246153e-05 5.4949173e-06 -7.079415e-05
000190 88 1d 95 b8 7f ff 88 b8 50 0d 86 b8 95 4e 81 b8
       -7.110374e-05 -6.532575e-05 -6.3920976e-05 -6.1658364e-05
0001a0 4d 75 82 b8 38 b4 36 b8 75 6e 60 b8 5f af 5d b8
       -6.220732e-05 -4.3560023e-05 -5.3508633e-05 -5.2853833e-05
0001b0 68 ee 22 b8 0a 81 e8 37 ed 43 3c b8 2d 7d 6b b8
       -3.8845843e-05 2.7716644e-05 -4.4885954e-05 -5.6144945e-05
0001c0 2e d2 1d b8 cc 18 34 b8 b3 20 23 b8 2e 1b db b7
       -3.7627462e-05 -4.2938438e-05 -3.8892682e-05 -2.6119491e-05
0001d0 7d ef 72 b6 b8 84 37 37 9f 25 fe 36 2a de 5a b6
       -3.620021e-06 1.0938551e-05 7.5741696e-06 -3.2613848e-06
0001e0 7c 7c e5 36 35 0b 74 30 23 c1 e1 99 69 83 11 23
       6.8392237e-06 8.878261e-10 -2.3342462e-23 7.888293e-18
0001f0 e8 56 58 23 90 01 00 00 28 b3 96 35 0d 1e e1 b7
       1.17277866e-17 5.6e-43 1.1228012e-06 -2.6836084e-05
000200 d2 aa 25 b8 81 a0 2b b8 ec 0c 1a b8 f8 3b 07 37
       -3.9498154e-05 -4.0919058e-05 -3.6728496e-05 8.06059e-06
000210 04 00 00 80 04 00 00 80 c5 f9 3c 36 86 e4 51 1e
       -6e-45 -6e-45 2.8159568e-06 1.11116254e-20
000220 a7 15 69 2f 04 00 00 80 04 00 00 80 04 00 00 80
       2.1198919e-10 -6e-45 -6e-45 -6e-45
000230 04 00 00 80 04 00 00 80 04 00 00 80 00 00 00 00
       -6e-45 -6e-45 -6e-45 0.0
000240 00 00 00 00 00 00 00 00 00 00 00 00 00 00 00 00
       0.0 0.0 0.0 0.0
000250 00 00 00 00 00 00 00 00 99 9c c8 9b 00 00 00 00
       0.0 0.0 -3.3188423e-22 0.0
000260 28 e1 8e 9a 00 00 00 00 e1 d6 41 2c 22 5f 1c 2e
       -5.909358e-23 0.0 2.7546231e-12 3.555479e-11
000270 41 fd 62 37 51 17 9b 37 86 3c c4 37 0a 05 5e 37
       1.3529615e-05 1.8488297e-05 2.3393204e-05 1.3233404e-05
000280 56 4e be 36 23 d5 37 30 e8 7f 19 2f 65 a3 28 ae
       5.6715608e-06 6.68779e-10 1.396071e-10 -3.83439e-11
000290 13 c8 b6 ad 11 52 36 b8 1c af 54 b8 d3 60 49 b8
       -2.0779855e-11 -4.346861e-05 -5.0707822e-05 -4.801231e-05
0002a0 82 70 63 b8 d5 ad 5b b8 b7 8b 51 b8 3b 40 3a b8
       -5.42258e-05 -5.2375563e-05 -4.9959603e-05 -4.4405675e-05
0002b0 00 d7 05 b8 8f 4c b5 b7 a4 34 2d b8 c1 2d c7 37
       -3.1909905e-05 -2.1612532e-05 -4.129544e-05 2.3743954e-05
0002c0 f3 f0 d3 b8 a1 c3 17 b9 b2 ac dd b8 20 f0 0d b9
       -0.00010106144 -0.0001447336 -0.00010570268 -0.00013536261
0002d0 af 8d 87 b8 7c d0 8e b8 45 9d b0 b8 9f aa a5 b8
       -6.463692e-05 -6.809921e-05 -8.421628e-05 -7.899594e-05
0002e0 e0 cb 53 b8 02 de 27 b8 ce aa 28 b8 cc c7 f4 b9
       -5.0496194e-05 -4.0022664e-05 -4.0213396e-05 -0.00046688167
0002f0 29 36 05 ba 08 34 00 ba 5a 72 15 ba a5 bb 1b ba
       -0.0005081618 -0.0004890566 -0.00057009386 -0.0005940742
000300 8e fd 27 ba 25 f0 28 ba ca 41 24 ba 5a ec 18 ba
       -0.0006408327 -0.0006444476 -0.0006265907 -0.0005833559
000310 74 6d 05 ba 1e 1d f0 b9 00 00 00 00 82 db 1f 84
       -0.0005089857 -0.0004579806 0.0 -1.8791153e-36
000320 00 00 00 00 e4 42 1f 84 00 00 00 00 bb 2a 23 85
       0.0 -1.8721075e-36 0.0 -7.6720715e-36
000330 00 00 00 00 00 00 00 00 00 00 00 00 00 00 00 00
       0.0 0.0 0.0 0.0
000340 00 00 00 00 47 3c 51 b9 cd 9e 48 b9 27 f8 48 b9
       0.0 -0.00019954248 -0.00019132644 -0.0001916593
000350 65 22 fa b8 e2 e8 ca b8 87 0d c0 b7 04 8b 1e 00
       -0.000119273354 -9.6754884e-05 -2.2894483e-05 2.804934e-39
000360 03 dc 15 00 d7 40 19 00 7a 34 1e 00 7d 5d 1d 00
       2.007471e-39 2.319148e-39 2.77389e-39 2.696767e-39
000370 f6 0e 9f b9 74 54 98 b9 31 66 92 b9 da 44 81 b9
       -0.0003033799 -0.00029054622 -0.0002792343 -0.00024656096
000380 51 76 93 b9 1a 2d 63 b9 0c a5 65 b9 4b c4 6e b9
       -0.00028126177 -0.00021665209 -0.00021900627 -0.00022770574
000390 d1 ab 6a b9 9f af 57 b9 e6 d1 6f b9 ec 73 52 b2
       -0.00022379986 -0.00020569422 -0.0002287101 -1.2249966e-08
0003a0 67 2c 20 b6 36 76 73 b3 3c cf 26 b7 e6 b2 71 30
       -2.3867703e-06 -5.668536e-08 -9.942622e-06 8.792952e-10
0003b0 47 3b 4a 30 05 72 fd 31 4f 0f 71 b5 64 49 82 b7
       7.357141e-10 7.3762316e-09 -8.9801773e-07 -1.5531383e-05
0003c0 df dd 2e b6 cc cf 49 33 6c bc 44 b8 ea 00 ba b8
       -2.6057166e-06 4.698795e-08 -4.6905523e-05 -8.8693414e-05
0003d0 a4 53 0f b9 cd bf cc b8 a4 1c d2 b8 c3 fb eb b8
       -0.00013668701 -9.763204e-05 -0.00010018915 -0.000112525675
0003e0 2d 8f ca b8 cb 44 ac b8 fe 4c 93 b8 b5 90 db b8
       -9.658779e-05 -8.214413e-05 -7.023847e-05 -0.000104696875
0003f0 13 0b a7 b8 08 4e f0 b9 f8 88 f4 b9 d0 0c fa b9
       -7.965243e-05 -0.00045834505 -0.00046641356 -0.00047693262
