lightning_logs/version_11/checkpoints/epoch=0.ckpt (torch_old, 359533 bytes, 51 tensors)

exp_avg f4 [8, 2, 11]
00000000: d017 b591 d017 b591 d017 b591 d017 b591
00000010: d017 b591 cd17 b591 c685 b591 a839 b891
00000020: 0ea0 b791 4bcb b891 f6b0 b691 e04e 5c90
00000030: f84e 5c90 214f 5c90 2f4f 5c90 474f 5c90
00000040: 5a4f 5c90 3dd5 5c90 051f 6090 3f64 5f90
00000050: 60d0 6090 8341 5e90 3802 b291 3902 b291
00000060: 3802 b291 3802 b291 3802 b291 3802 b291
00000070: 3802 b291 3802 b291 3402 b291 6a33 b091
00000080: 9711 ae91 1c8e 5890 3a8e 5890 5f8e 5890
00000090: 7b8e 5890 998e 5890 ad8e 5890 c28e 5890
000000a0: da8e 5890 e78e 5890 f95b 5690 ffc3 5390
000000b0: edd3 858f dcd3 858f d8d3 858f d8d3 858f
000000c0: d8d3 858f dcd3 858f c1cb 6d8f 719f 7d8f
000000d0: 9633 638f c6f7 9d8e 0400 0080 23cf 228e
000000e0: 40cf 228e 51cf 228e 51cf 228e 5acf 228e
000000f0: 7acf 228e cfa5 108e 6246 1a8e 1034 0a8e
00000100: f12d 408d 0400 0080 c03b 9890 be3b 9890
00000110: ba3b 9890 be3b 9890 ba3b 9890 be3b 9890
00000120: c03b 9890 c03b 9890 bed7 9090 bcba 8890
00000130: 9560 8790 e232 398f ea32 398f 0c33 398f
00000140: 3033 398f 4f33 398f 8633 398f a333 398f
00000150: 9233 398f da35 308f 2b57 268f 0fb2 248f
00000160: 90f9 f791 8cf9 f791 8cf9 f791 8af9 f791
00000170: 8af9 f791 80f9 f791 6f60 f691 99d7 f391
00000180: 273b f391 ec92 f291 8b82 ef91 07d6 9690
00000190: 1bd6 9690 2ad6 9690 33d6 9690 3cd6 9690
000001a0: 50d6 9690 86dd 9590 e852 9490 d2f3 9390
000001b0: 8d8d 9390 77b0 9190 0000 0000 0000 0000
000001c0: 0000 0000 0000 0000 0000 0000 0000 0000
000001d0: 0000 0000 0000 0000 0000 0000 0000 0000
000001e0: 0000 0000 0000 0000 0000 0000 0000 0000
000001f0: 0000 0000 0000 0000 0000 0000 0000 0000
00000200: 0000 0000 0000 0000 0000 0000 0000 0000
00000210: 0000 0000 0000 0000 0000 0000 0000 0000
00000220: 0000 0000 0000 0000 0000 0000 0000 0000
00000230: 0000 0000 0000 0000 0000 0000 0000 0000
00000240: 0000 0000 0000 0000 0000 0000 0000 0000
00000250: 0000 0000 0000 0000 0000 0000 0000 0000
00000260: 0000 0000 0000 0000 ce82 d88f c882 d88f
00000270: c482 d88f c882 d88f be82 d88f c482 d88f
00000280: c482 d88f cc82 d88f e382 d88f 6c19 de8f
00000290: 1eb2 c08f 99b2 838e 8bb2 838e 77b2 838e
000002a0: 83b2 838e 9fb2 838e c3b2 838e feb2 838e
000002b0: 0fb3 838e 2eb3 838e 4819 878e eb6c 6a8e
-2.857144e-28 -2.857144e-28 -2.857144e-28 -2.857144e-28 -2.857144e-28 -2.8571433e-28 -2.863921e-28 -2.9065615e-28
-2.897095e-28 -2.915537e-28 -2.8823598e-28 -4.3448113e-29 -4.3448185e-29 -4.3448308e-29 -4.344835e-29 -4.3448423e-29
-4.344848e-29 -4.3551623e-29 -4.4200107e-29 -4.4056222e-29 -4.4336737e-29 -4.383225e-29 -2.8084816e-28 -2.8084818e-28
-2.8084816e-28 -2.8084816e-28 -2.8084816e-28 -2.8084816e-28 -2.8084816e-28 -2.8084816e-28 -2.8084806e-28 -2.779959e-28
-2.74632e-28 -4.2707966e-29 -4.2708056e-29 -4.2708168e-29 -4.2708252e-29 -4.2708342e-29 -4.2708402e-29 -4.2708466e-29
-4.2708538e-29 -4.2708577e-29 -4.2274912e-29 -4.1763403e-29 -1.3196443e-29 -1.3196418e-29 -1.3196412e-29 -1.3196412e-29
-1.3196412e-29 -1.3196418e-29 -1.1724244e-29 -1.250457e-29 -1.1201899e-29 -3.8942085e-30 -6e-45 -2.0067774e-30
-2.0067829e-30 -2.006786e-30 -2.006786e-30 -2.0067878e-30 -2.0067938e-30 -1.7829204e-30 -1.9015854e-30 -1.703488e-30
-5.921987e-31 -6e-45 -6.004549e-29 -6.0045476e-29 -6.004545e-29 -6.0045476e-29 -6.004545e-29 -6.0045476e-29
-6.004549e-29 -6.004549e-29 -5.713039e-29 -5.393025e-29 -5.339692e-29 -9.131004e-30 -9.13101e-30 -9.1310355e-30
-9.1310626e-30 -9.131086e-30 -9.131127e-30 -9.131149e-30 -9.131136e-30 -8.6878414e-30 -8.20122e-30 -8.120117e-30
-3.9123533e-28 -3.9123524e-28 -3.9123524e-28 -3.912352e-28 -3.912352e-28 -3.9123495e-28 -3.8871388e-28 -3.8471512e-28
-3.8375095e-28 -3.8271415e-28 -3.7788005e-28 -5.949433e-29 -5.949445e-29 -5.949454e-29 -5.9494594e-29 -5.949465e-29
-5.949477e-29 -5.911145e-29 -5.8503444e-29 -5.835694e-29 -5.819937e-29 -5.74643e-29 0.0 0.0
0.0 0.0 0.0 0.0 0.0 0.0 0.0 0.0
0.0 0.0 0.0 0.0 0.0 0.0 0.0 0.0
0.0 0.0 0.0 0.0 0.0 0.0 0.0 0.0
0.0 0.0 0.0 0.0 0.0 0.0 0.0 0.0
0.0 0.0 0.0 0.0 0.0 0.0 0.0 0.0
0.0 0.0 -2.1349629e-29 -2.134962e-29 -2.1349614e-29 -2.134962e-29 -2.1349604e-29 -2.1349614e-29
-2.1349614e-29 -2.1349626e-29 -2.134966e-29 -2.1900682e-29 -1.900127e-29 -3.2465977e-30 -3.2465924e-30 -3.246585e-30
-3.2465894e-30 -3.2466e-30 -3.2466135e-30 -3.2466357e-30 -3.246642e-30 -3.2466537e-30 -3.3304414e-30 -2.8895169e-30

exp_avg_sq f4 [8, 2, 11]
00000000: 0e70 a233 40af a333 e9dd a333 4604 a433
00000010: d020 a433 cb05 a633 a130 a633 ab88 a833
00000020: 0bb1 a733 94e7 a733 134f a733 465c f230
00000030: b038 f430 017e f430 3bb7 f430 d3e1 f430
00000040: f3b5 f730 c4f5 f730 8b74 fb30 b132 fa30
00000050: 4384 fa30 61a0 f930 416e 3b33 665d 3c33
00000060: 9680 3f33 7c6f 4033 6818 4333 0ede 4533
00000070: 0ede 4533 0ede 4533 1ede 4533 2bde 4533
00000080: bd51 4333 50d2 8b30 8284 8c30 46dc 8e30
00000090: 518e 8f30 de8a 9130 799c 9330 769c 9330
000000a0: 6d9c 9330 6d9c 9330 469c 9330 63b5 9130
000000b0: 96cf 522e a3cf 522e a8cf 522e adcf 522e
000000c0: adcf 522e adcf 522e 85e5 3f2e 6d57 422e
000000d0: 4afb 3b2e b48a 272e 1c8e 262e baa3 9b2b
000000e0: 45a4 9b2b a6a4 9b2b e8a4 9b2b 3fa5 9b2b
000000f0: a0a5 9b2b 7c89 8d2b 305c 8f2b 9ca0 8a2b
00000100: e9bc 762b ac45 752b b8a1 1f2f 7b27 332f
00000110: 28f2 472f 963b 602f b676 4e2f aa55 5d2f
00000120: b255 5d2f b255 5d2f 31c5 492f 7f81 432f
00000130: 1ed2 462f c2e6 6d2c d594 852c 932b 952c
00000140: 7059 a72c 2b0f 9a2c 2c34 a52c 3934 a52c
00000150: ed33 a52c 3e93 962c 50e3 912c 985d 942c
00000160: e378 b833 9956 b933 7dc8 bc33 014c be33
00000170: cfaa bc33 64f0 bb33 cee3 ba33 60e3 b933
00000180: 66de b933 428b b933 93b3 b733 24af 0931
00000190: ad54 0a31 38e7 0c31 9308 0e31 e8d0 0c31
000001a0: 9845 0c31 527d 0b31 f0bd 0a31 2fba 0a31
000001b0: 067c 0a31 491c 0931 0000 0000 0000 0000
000001c0: 0000 0000 0000 0000 0000 0000 0000 0000
000001d0: 0000 0000 0000 0000 0000 0000 0000 0000
000001e0: 0000 0000 0000 0000 0000 0000 0000 0000
000001f0: 0000 0000 0000 0000 0000 0000 0000 0000
00000200: 0000 0000 0000 0000 0000 0000 0000 0000
00000210: 0000 0000 0000 0000 0000 0000 0000 0000
00000220: 0000 0000 0000 0000 0000 0000 0000 0000
00000230: 0000 0000 0000 0000 0000 0000 0000 0000
00000240: 0000 0000 0000 0000 0000 0000 0000 0000
00000250: 0000 0000 0000 0000 0000 0000 0000 0000
00000260: 0000 0000 0000 0000 03d2 8a32 e3aa 8d32
00000270: 690a 9232 243d 9632 6fad 9132 8c70 8f32
00000280: 04b4 8e32 a8b0 8e32 96e9 8d32 d1e3 8f32
00000290: fadb 9032 1c28 cf2f f067 d32f 81ef d92f
000002a0: 1334 e02f 9464 d92f 210d d62f 93f3 d42f
000002b0: 62ee d42f efc4 d32f c4b8 d62f 8a2b d82f
7.5640955e-08 7.622157e-08 7.630644e-08 7.6376224e-08 7.642814e-08 7.731031e-08 7.738823e-08 7.8479694e-08
7.8087474e-08 7.818667e-08 7.790927e-08 1.7634043e-09 1.7769448e-09 1.7789149e-09 1.7805414e-09 1.781752e-09
1.8023328e-09 1.8041466e-09 1.8295777e-09 1.8204301e-09 1.8227485e-09 1.8162717e-09 4.3639606e-08 4.3857106e-08
4.45876e-08 4.4804878e-08 4.5424173e-08 4.6069594e-08 4.6069594e-08 4.6069594e-08 4.606965e-08 4.6069697e-08
4.5476316e-08 1.0173355e-09 1.0224002e-09 1.0394465e-09 1.0445068e-09 1.0589607e-09 1.074013e-09 1.0740127e-09
1.0740117e-09 1.0740117e-09 1.0740073e-09 1.0601692e-09 4.7932845e-11 4.793289e-11 4.7932908e-11 4.7932925e-11
4.7932925e-11 4.7932925e-11 4.3632226e-11 4.4188143e-11 4.2742067e-11 3.8094597e-11 3.787025e-11 1.1058856e-12
1.1059006e-12 1.1059112e-12 1.1059183e-12 1.1059277e-12 1.1059383e-12 1.0056812e-12 1.0186348e-12 9.850068e-13
8.765892e-13 8.7138174e-13 1.451842e-10 1.6293981e-10 1.8184976e-10 2.039385e-10 1.8777765e-10 2.0130267e-10
2.0130278e-10 2.0130278e-10 1.83509e-10 1.7781153e-10 1.8082644e-10 3.3807822e-12 3.796611e-12 4.2396724e-12
4.756355e-12 4.3786272e-12 4.6953743e-12 4.69538e-12 4.695347e-12 4.2796036e-12 4.1463846e-12 4.216804e-12
8.590157e-08 8.630486e-08 8.790901e-08 8.8613895e-08 8.785502e-08 8.751593e-08 8.7027374e-08 8.656093e-08
8.655188e-08 8.640065e-08 8.554266e-08 2.003568e-09 2.0129776e-09 2.0504114e-09 2.0668594e-09 2.049143e-09
2.041224e-09 2.0298399e-09 2.018961e-09 2.0187476e-09 2.0152142e-09 1.9952202e-09 0.0 0.0
0.0 0.0 0.0 0.0 0.0 0.0 0.0 0.0
0.0 0.0 0.0 0.0 0.0 0.0 0.0 0.0
0.0 0.0 0.0 0.0 0.0 0.0 0.0 0.0
0.0 0.0 0.0 0.0 0.0 0.0 0.0 0.0
0.0 0.0 0.0 0.0 0.0 0.0 0.0 0.0
0.0 0.0 1.6160817e-08 1.649227e-08 1.7001371e-08 1.7490102e-08 1.695909e-08 1.6698571e-08
1.6612837e-08 1.661131e-08 1.6520783e-08 1.675099e-08 1.686384e-08 3.768158e-10 3.8454528e-10 3.9642248e-10
4.0782364e-10 3.9543535e-10 3.8935702e-10 3.8735645e-10 3.8731957e-10 3.8520606e-10 3.9057657e-10 3.9321107e-10

exp_avg f4 [8]
00000000: e2d1 950e a944 930e 746f 5d0c 63e3 7b0d
00000010: d926 cd0e 0000 0000 0000 0000 6f1f b30c
3.6933446e-30 3.6304415e-30 1.705876e-31 7.7619053e-31 5.057381e-30 0.0 0.0 2.7598235e-31

exp_avg_sq f4 [8]
00000000: ca87 632d 4d99 072d 6986 1028 91dd 1729
00000010: 61c4 802d 0000 0000 0000 0000 208c 442c
1.2933607e-11 7.707901e-12 8.022751e-15 3.3720914e-14 1.4639125e-11 0.0 0.0 2.793106e-12

exp_avg f4 [8, 8, 11]
00000000: ad90 e610 5231 e710 c999 e310 89e3 df10
00000010: b445 dd10 a859 dd10 7945 db10 7645 db10
00000020: 7645 db10 7645 db10 7645 db10 5499 a710
00000030: b1e2 a410 6bb2 a010 a963 9f10 ab63 9f10
00000040: b263 9f10 bb63 9f10 bb63 9f10 bf63 9f10
00000050: c163 9f10 c163 9f10 0400 0000 d78b c20d
00000060: f04a 560e c901 920e ae1d 850e ab8c ae0e
00000070: 0400 0000 0400 0000 0400 0000 0400 0000
00000080: 0400 0000 1143 1d0f 3034 320f 913c 2d0f
00000090: df34 300f ed8e 150f df8e 150f c98e 150f
000000a0: c58e 150f cc8e 150f c98e 150f bd8e 150f
000000b0: 0e33 1411 de21 1411 841d 1211 827d 1311
000000c0: af76 1511 8997 1411 a8f0 0c11 a5f0 0c11
000000d0: a2f0 0c11 a2f0 0c11 a2f0 0c11 0000 0000
000000e0: 0000 0000 0000 0000 0000 0000 0000 0000
000000f0: 0000 0000 0000 0000 0000 0000 0000 0000
00000100: 0000 0000 0000 0000 0000 0000 0000 0000
00000110: 0000 0000 0000 0000 0000 0000 0000 0000
00000120: 0000 0000 0000 0000 0000 0000 0000 0000
00000130: 0000 0000 551d d20f aefd ce0f dbb0 c90f
00000140: 83d2 c70f 7ad2 c70f 7ad2 c70f 83d2 c70f
00000150: 8cd2 c70f 9fd2 c70f a4d2 c70f a4d2 c70f
00000160: 17c1 328f 17c1 328f 27c1 328f 23c1 328f
00000170: 1ac1 328f 17c1 328f 17c1 328f 1ac1 328f
00000180: 27c1 328f 3bc1 328f 9caf 3c8f 0bf0 018f
00000190: 08f0 018f 07f0 018f f6ef 018f f4ef 018f
000001a0: f6ef 018f 02f0 018f 16f0 018f 1df0 018f
000001b0: 2cf0 018f 73fb ad8e 0400 0000 0400 0000
000001c0: 0400 0000 0400 0000 0400 0000 0400 0000
000001d0: 0400 0000 0400 0000 0400 0000 0400 0000
000001e0: 4972 408e 37d9 738d fad8 738d 33d9 738d
000001f0: 21d9 738d 08d9 738d 64d8 738d 20d8 738d
00000200: 7ed7 738d a2d7 738d a2d7 738d faaf 628e
00000210: 66cb 658f 66cb 658f 66cb 658f 5ccb 658f
00000220: 60cb 658f 66cb 658f 6acb 658f 60cb 658f
00000230: 6acb 658f 60cb 658f 03ab 638f 0000 0000
00000240: 0000 0000 0000 0000 0000 0000 0000 0000
00000250: 0000 0000 0000 0000 0000 0000 0000 0000
00000260: 0000 0000 0000 0000 0000 0000 0000 0000
00000270: 0000 0000 0000 0000 0000 0000 0000 0000
00000280: 0000 0000 0000 0000 0000 0000 0000 0000
00000290: 0000 0000 61e6 228e 56e6 228e 48e6 228e
000002a0: 31e6 228e 13e6 228e 22e6 228e 2de6 228e
000002b0: 52e6 228e 81e6 228e a1e6 228e 3eeb e28d
000002c0: 0000 0000 0000 0000 0000 0000 0000 0000
000002d0: 0000 0000 0400 0000 0400 0000 0400 0000
000002e0: 0400 0000 0400 0000 0400 0000 0000 0000
000002f0: 0000 0000 0000 0000 0000 0000 0000 0000
00000300: 0400 0000 0400 0000 0400 0000 0400 0000
00000310: 0400 0000 0400 0000 0000 0000 0000 0000
00000320: 0000 0000 0000 0000 0000 0000 0000 0000
00000330: 0000 0000 0000 0000 0000 0000 0000 0000
00000340: 0000 0000 0000 0000 0000 0000 0000 0000
00000350: 0000 0000 0000 0000 0400 0000 0400 0000
00000360: 0400 0000 0400 0000 0400 0000 0400 0000
00000370: 0000 0000 0000 0000 0000 0000 0000 0000
00000380: 0000 0000 0400 0000 0400 0000 0400 0000
00000390: 0400 0000 0400 0000 0400 0000 0000 0000
000003a0: 0000 0000 0000 0000 0000 0000 0000 0000
000003b0: 0000 0000 0000 0000 0000 0000 0000 0000
000003c0: 0000 0000 0000 0000 0000 0000 0000 0000
000003d0: 0000 0000 0000 0000 0000 0000 0000 0000
000003e0: 0000 0000 0000 0000 0000 0000 0000 0000
000003f0: 0000 0000 0000 0000 0000 0000 0000 0000
9.094191e-29 9.1189425e-29 8.9772656e-29 8.8308564e-29 8.7276525e-29 8.730727e-29 8.648731e-29 8.648729e-29
8.648729e-29 8.648729e-29 8.648729e-29 6.6106125e-29 6.503587e-29 6.338377e-29 6.286799e-29 6.2868005e-29
6.2868047e-29 6.28681e-29 6.28681e-29 6.2868125e-29 6.286814e-29 6.286814e-29 6e-45 1.1989838e-30
2.6413618e-30 3.5993498e-30 3.281561e-30 4.302977e-30 6e-45 6e-45 6e-45 6e-45
6e-45 7.753614e-30 8.7861285e-30 8.541223e-30 8.6876526e-30 7.373794e-30 7.373783e-30 7.3737666e-30
7.3737636e-30 7.373769e-30 7.3737666e-30 7.3737576e-30 1.1690874e-28 1.1685578e-28 1.1526464e-28 1.163493e-28
1.17906e-28 1.1721837e-28 1.1118211e-28 1.1118207e-28 1.1118203e-28 1.1118203e-28 1.1118203e-28 0.0
0.0 0.0 0.0 0.0 0.0 0.0 0.0 0.0
0.0 0.0 0.0 0.0 0.0 0.0 0.0 0.0
0.0 0.0 0.0 0.0 0.0 2.0718897e-29 2.0410882e-29 1.9888252e-29
1.9704001e-29 1.9703988e-29 1.9703988e-29 1.9704001e-29 1.9704015e-29 1.9704043e-29 1.9704051e-29 1.9704051e-29
-8.813265e-30 -8.813265e-30 -8.813277e-30 -8.813274e-30 -8.8132676e-30 -8.813265e-30 -8.813265e-30 -8.8132676e-30
-8.813277e-30 -8.8132924e-30 -9.302937e-30 -6.406422e-30 -6.4064194e-30 -6.406419e-30 -6.406406e-30 -6.406404e-30
-6.406406e-30 -6.406415e-30 -6.40643e-30 -6.406435e-30 -6.4064465e-30 -4.288993e-30 6e-45 6e-45
6e-45 6e-45 6e-45 6e-45 6e-45 6e-45 6e-45 6e-45
-2.3720853e-30 -7.514162e-31 -7.514133e-31 -7.51416e-31 -7.5141516e-31 -7.51414e-31 -7.5140627e-31 -7.5140307e-31
-7.5139546e-31 -7.5139715e-31 -7.5139715e-31 -2.794138e-30 -1.1329745e-29 -1.1329745e-29 -1.1329745e-29 -1.1329737e-29
-1.132974e-29 -1.1329745e-29 -1.1329748e-29 -1.132974e-29 -1.1329748e-29 -1.132974e-29 -1.12249e-29 0.0
0.0 0.0 0.0 0.0 0.0 0.0 0.0 0.0
0.0 0.0 0.0 0.0 0.0 0.0 0.0 0.0
0.0 0.0 0.0 0.0 0.0 -2.0078965e-30 -2.0078944e-30 -2.0078918e-30
-2.0078875e-30 -2.0078818e-30 -2.0078847e-30 -2.0078867e-30 -2.0078937e-30 -2.0079025e-30 -2.0079085e-30 -1.3984958e-30
0.0 0.0 0.0 0.0 0.0 6e-45 6e-45 6e-45
6e-45 6e-45 6e-45 0.0 0.0 0.0 0.0 0.0
6e-45 6e-45 6e-45 6e-45 6e-45 6e-45 0.0 0.0
0.0 0.0 0.0 0.0 0.0 0.0 0.0 0.0
0.0 0.0 0.0 0.0 0.0 0.0 6e-45 6e-45
6e-45 6e-45 6e-45 6e-45 0.0 0.0 0.0 0.0
0.0 6e-45 6e-45 6e-45 6e-45 6e-45 6e-45 0.0
0.0 0.0 0.0 0.0 0.0 0.0 0.0 0.0
0.0 0.0 0.0 0.0 0.0 0.0 0.0 0.0
0.0 0.0 0.0 0.0 0.0 0.0 0.0 0.0

exp_avg_sq f4 [8, 8, 11]
00000000: db78 e531 97d4 e531 9a94 f731 4f4b f431
00000010: 582b ea31 30ee f031 cc26 f631 c830 ef31
00000020: d444 ef31 085b ef31 b7ed ee31 6f9a 4131
00000030: 207c 3e31 f735 4731 db88 5431 4b4a 4f31
00000040: 51df 5631 4e8d 4d31 d076 4a31 2b98 4a31
00000050: 016e 4a31 f396 4b31 381c cf2a d837 312b
00000060: 2e95 082c 850d 7b2c 8bc3 552c 151d b82c
00000070: 7997 cf2a bf87 cf2a 8189 cf2a ef87 cf2a
00000080: 4196 df2a 2383 7f2b c5ae ab2b 1d5d e92c
00000090: f332 322c 14a7 bd2b 5d04 d82c ff5d 562c
000000a0: 3894 852b fef3 ca2b 7eb4 a32b a1ea 7e2b
000000b0: e2b7 5332 0376 5332 0dca 5332 2362 5432
000000c0: 56b3 5b32 ac31 6032 7447 5c32 415a 5c32
000000d0: ba67 5c32 9475 5c32 3e6e 5c32 0000 0000
000000e0: 0000 0000 0000 0000 0000 0000 0000 0000
000000f0: 0000 0000 0000 0000 0000 0000 0000 0000
00000100: 0000 0000 0000 0000 0000 0000 0000 0000
00000110: 0000 0000 0000 0000 0000 0000 0000 0000
00000120: 0000 0000 0000 0000 0000 0000 0000 0000
00000130: 0000 0000 8172 2a31 3204 2931 060a 2d31
00000140: 0829 2531 43f5 2731 ab63 2d31 6489 2f31
00000150: f965 3131 e375 3131 3f7e 3131 e5fe 3131
00000160: df93 362d 35b9 362d 7544 b62d 0a68 b22d
00000170: d508 272d 6522 202d 9e58 492d d80f 392d
00000180: 83b5 112d 5a52 582c b4f5 812c 8fbd 922c
00000190: c0f2 922c 8e1a ec2c 8b02 3f2d 5681 922c
000001a0: 7b1f aa2c 6ec6 8e2c 2d78 f02c a0ae 422c
000001b0: 2049 d92b 3149 d92b 9efe 9a23 7501 9b23
000001c0: f6ff 9a23 c60a aa23 3509 aa23 9e0b aa23
000001d0: 190a aa23 6103 542b e72d ac2c 5f4e 332d
000001e0: cdfe 152d acc1 eb25 5ec4 d726 3e14 442b
000001f0: a41b cc29 6f5f 422c c271 9729 c610 5829
00000200: 0504 112c 592d 992b 888d 632b 12bc 3026
00000210: 76d7 ac2d 7af3 ac2d cb3f be2d b1d8 b52d
00000220: 1682 b62d 8ba4 ef2d e87b ca2d 6bc3 9f2d
00000230: 0cf8 222d b782 852d f2ac f62d 0000 0000
00000240: 0000 0000 0000 0000 0000 0000 0000 0000
00000250: 0000 0000 0000 0000 0000 0000 0000 0000
00000260: 0000 0000 0000 0000 0000 0000 0000 0000
00000270: 0000 0000 0000 0000 0000 0000 0000 0000
00000280: 0000 0000 0000 0000 0000 0000 0000 0000
00000290: 0000 0000 e322 af2c fe38 af2c 70ed e32c
000002a0: aedd b92c d999 882c 31eb ec2c 7068 cf2c
000002b0: cbe5 512c dc0a c72b dc0c d52b d827 df2b
000002c0: 0000 0000 0000 0000 0000 0000 0000 0000
000002d0: 0000 0000 dc77 892a b9b0 772a 9b04 8b29
000002e0: 23c8 372a 259c a62a d859 102a 0000 0000
000002f0: 0000 0000 0000 0000 0000 0000 0000 0000
00000300: c766 1a29 6656 582a abd4 ee29 f288 702a
00000310: a74a 9f29 1953 2f29 0000 0000 0000 0000
00000320: 0000 0000 0000 0000 0000 0000 0000 0000
00000330: 0000 0000 0000 0000 0000 0000 0000 0000
00000340: 0000 0000 0000 0000 0000 0000 0000 0000
00000350: 0000 0000 0000 0000 d728 bc29 eee3 8a28
00000360: bb24 6a28 6aa0 a629 2bb0 4529 fade 8026
00000370: 0000 0000 0000 0000 0000 0000 0000 0000
00000380: 0000 0000 75b2 c827 4c01 2626 6a8a 4129
00000390: 6e1d 3a2a 261a b52a 9454 b22a 0000 0000
000003a0: 0000 0000 0000 0000 0000 0000 0000 0000
000003b0: 0000 0000 0000 0000 0000 0000 0000 0000
000003c0: 0000 0000 0000 0000 0000 0000 0000 0000
000003d0: 0000 0000 0000 0000 0000 0000 0000 0000
000003e0: 0000 0000 0000 0000 0000 0000 0000 0000
000003f0: 0000 0000 0000 0000 0000 0000 0000 0000
6.678517e-09 6.688946e-09 7.20554e-09 7.1098962e-09 6.815224e-09 7.011998e-09 7.163953e-09 6.9613613e-09
6.9636403e-09 6.9661645e-09 6.9537367e-09 2.8172982e-09 2.7719196e-09 2.8988987e-09 3.0927854e-09 3.0164695e-09
3.126804e-09 2.9911749e-09 2.9462406e-09 2.9481366e-09 2.9457399e-09 2.9626193e-09 3.6790167e-13 6.296053e-13
1.9409574e-12 3.567675e-12 3.0377669e-12 5.2328233e-12 3.6875692e-13 3.686478e-13 3.6866e-13 3.686491e-13
3.9717017e-13 9.077619e-13 1.2198789e-12 6.632596e-12 2.5323604e-12 1.3475631e-12 6.1395737e-12 3.0463407e-12
9.491357e-13 1.4420685e-12 1.1631943e-12 9.056454e-13 1.2323627e-08 1.2308649e-08 1.23277575e-08 1.2362338e-08
1.2788254e-08 1.304981e-08 1.2821932e-08 1.2826207e-08 1.282927e-08 1.283242e-08 1.2830752e-08 0.0
0.0 0.0 0.0 0.0 0.0 0.0 0.0 0.0
0.0 0.0 0.0 0.0 0.0 0.0 0.0 0.0
0.0 0.0 0.0 0.0 0.0 2.4803344e-09 2.4595121e-09 2.518051e-09
2.4033984e-09 2.4441114e-09 2.5231468e-09 2.554395e-09 2.5814855e-09 2.58239e-09 2.5828653e-09 2.590178e-09
1.0378336e-11 1.03866265e-11 2.0721405e-11 2.028246e-11 9.494812e-12 9.102584e-12 1.1445204e-11 1.05195505e-11
8.282599e-12 3.074116e-12 3.693679e-12 4.170615e-12 4.1765202e-12 6.7104716e-12 1.0857658e-11 4.1639288e-12
4.8351856e-12 4.057913e-12 6.8345525e-12 2.7665994e-12 1.5439074e-12 1.5439092e-12 1.6804548e-17 1.680575e-17
1.6805117e-17 1.8436e-17 1.8435336e-17 1.8436357e-17 1.8435713e-17 7.532222e-13 4.89363e-12 1.0192374e-11
8.5262465e-12 4.089724e-16 1.4971847e-15 6.966128e-13 9.064215e-14 2.7622034e-12 6.725481e-14 4.7976183e-14
2.060797e-12 1.088389e-12 8.0843015e-13 6.131715e-16 1.964982e-11 1.9662261e-11 2.1628829e-11 2.0673548e-11
2.0748774e-11 2.7244226e-11 2.3019767e-11 1.816299e-11 9.263711e-12 1.5178398e-11 2.8043765e-11 0.0
0.0 0.0 0.0 0.0 0.0 0.0 0.0 0.0
0.0 0.0 0.0 0.0 0.0 0.0 0.0 0.0
0.0 0.0 0.0 0.0 0.0 4.9776724e-12 4.9801266e-12 6.478089e-12
5.2826276e-12 3.882433e-12 6.733635e-12 5.8948887e-12 2.9828247e-12 1.4142815e-12 1.513813e-12 1.5856162e-12
0.0 0.0 0.0 0.0 0.0 2.4419258e-13 2.199932e-13 6.173639e-14
1.6323101e-13 2.959587e-13 1.282094e-13 0.0 0.0 0.0 0.0 0.0
3.4284014e-14 1.921463e-13 1.0606215e-13 2.1363795e-13 7.0739686e-14 3.892988e-14 0.0 0.0
0.0 0.0 0.0 0.0 0.0 0.0 0.0 0.0
0.0 0.0 0.0 0.0 0.0 0.0 8.355962e-14 1.5419926e-14
1.2997574e-14 7.399708e-14 4.389559e-14 8.942222e-16 0.0 0.0 0.0 0.0
0.0 5.5704635e-15 5.7594577e-16 4.2974664e-14 1.6530329e-13 3.2170203e-13 3.167784e-13 0.0
0.0 0.0 0.0 0.0 0.0 0.0 0.0 0.0
0.0 0.0 0.0 0.0 0.0 0.0 0.0 0.0
0.0 0.0 0.0 0.0 0.0 0.0 0.0 0.0

exp_avg f4 [8]
00000000: db42 2d0e 0554 868c 0400 0000 bdbe 6c0e
00000010: 14a6 e50e 0000 0000 470f 980c 67c0 4d0e
2.1356086e-30 -2.0696536e-31 6e-45 2.9181083e-30 5.6612786e-30 0.0 2.3428503e-31 2.536084e-30

exp_avg_sq f4 [8]
00000000: 6a06 ec2c 17cd 1f28 5cfd 6525 14c8 032c
00000010: 101f 902e 0000 0000 6d4c 8327 1e09 0b2d
6.7082355e-12 8.870745e-15 1.9948425e-16 1.8727285e-12 6.55388e-11 0.0 3.6442665e-15 7.90326e-12

exp_avg f4 [16, 8, 11]
00000000: 0400 0080 0400 0000 0400 0000 0400 0000
00000010: 0400 0080 0400 0080 0400 0080 0400 0080
00000020: 0400 0000 0400 0080 0400 0000 0400 0000
00000030: 0400 0000 0400 0000 0400 0080 0000 0000
00000040: 0400 0080 0400 0080 0400 0080 0400 0080
00000050: 0000 0000 0000 0000 0400 0000 0400 0000
00000060: 0400 0080 0000 0000 0000 0000 0400 0080
00000070: 0400 0080 0400 0080 0000 0000 0000 0000
00000080: 0000 0000 0400 0000 0400 0000 0400 0000
00000090: 0400 0000 0400 0000 0400 0000 0400 0000
000000a0: 0400 0000 0400 0000 0400 0000 0400 0000
000000b0: 0400 0000 0400 0000 0400 0000 0400 0000
000000c0: 0400 0000 0400 0000 0400 0000 0400 0000
000000d0: 0400 0000 0400 0000 0400 0000 0000 0000
000000e0: 0000 0000 0000 0000 0000 0000 0000 0000
000000f0: 0000 0000 0000 0000 0000 0000 0000 0000
00000100: 0000 0000 0000 0000 0000 0000 0000 0000
00000110: 0000 0000 0000 0000 0000 0000 0000 0000
00000120: 0400 0080 0400 0080 0400 0000 0400 0080
00000130: 0400 0000 0400 0000 0400 0000 0400 0000
00000140: 0400 0000 0400 0000 0400 0000 0400 0000
00000150: 0400 0000 0400 0000 0400 0000 0400 0000
00000160: 7feb bf10 7feb bf10 7feb bf10 0afb bf10
00000170: 2519 c010 2d16 c010 4f55 bf10 b938 be10
00000180: 78ea be10 b648 be10 40e6 b710 12b3 f30a
00000190: 43d2 e30a 27a8 250b d7c3 fb0b 0906 4f0c
000001a0: 53aa 7f0c dd37 a00c 7796 b20c d791 b00c
000001b0: 584f c70c 678f d30c 0400 0000 0400 0080
000001c0: 0400 0000 0400 0000 0400 0000 0400 0000
000001d0: 0400 0000 0400 0000 0000 0000 0000 0000
000001e0: 0000 0000 fa92 3411 ebbe 3411 ff19 3511
000001f0: 0d1d 3511 c152 3511 3ac0 3611 7789 3711
00000200: e819 3711 4a78 3811 a549 3811 6b41 3211
00000210: 591c b211 591c b211 591c b211 591c b211
00000220: ac0f b211 eedf b111 ae22 b111 3dfb af11
00000230: 5093 af11 76af ad11 29e4 a711 0000 0000
00000240: 0000 0000 0000 0000 0000 0000 0000 0000
00000250: 0000 0000 0000 0000 0000 0000 0000 0000
00000260: 0000 0000 0000 0000 0000 0000 b56e 8609
00000270: a059 500b 7e9f ff0c 0159 9c0d 34a9 9d0d
00000280: 341c d10d 05bc 870e 05ea fc0e 36de 210f
00000290: ba3f 130f 622e 8511 eb41 8511 304a 8511
000002a0: 509b 8511 473d 8611 6ed4 8611 56b3 8611
000002b0: b9ef 8511 0282 8611 1382 8611 c769 8211
000002c0: 0000 0000 0000 0000 0000 0000 0000 0000
000002d0: 0000 0000 0000 0000 0000 0000 0000 0000
000002e0: 0000 0000 0000 0000 0000 0000 0000 0000
000002f0: 0000 0000 0000 0000 0000 0000 0000 0000
00000300: 0000 0000 0000 0000 0000 0000 0000 0000
00000310: 0000 0000 0000 0000 0000 0000 0000 0000
00000320: 0000 0000 0000 0000 0000 0000 0000 0000
00000330: 0000 0000 0000 0000 0000 0000 0000 0000
00000340: 0000 0000 0000 0000 0000 0000 0000 0000
00000350: 0000 0000 0000 0000 0000 0000 0000 0000
00000360: 0000 0000 0000 0000 0000 0000 0000 0000
00000370: 0000 0000 0000 0000 0000 0000 0000 0000
00000380: 0000 0000 0000 0000 0000 0000 0000 0000
00000390: 0000 0000 0000 0000 0000 0000 0000 0000
000003a0: 0000 0000 0000 0000 0000 0000 0000 0000
000003b0: 0000 0000 0000 0000 0000 0000 0000 0000
000003c0: 0000 0000 0000 0000 0000 0000 0000 0000
000003d0: 0000 0000 0000 0000 0000 0000 0000 0000
000003e0: 0000 0000 0000 0000 0000 0000 0000 0000
000003f0: 0000 0000 0000 0000 0000 0000 0000 0000
-6e-45 6e-45 6e-45 6e-45 -6e-45 -6e-45 -6e-45 -6e-45
6e-45 -6e-45 6e-45 6e-45 6e-45 6e-45 -6e-45 0.0
-6e-45 -6e-45 -6e-45 -6e-45 0.0 0.0 6e-45 6e-45
-6e-45 0.0 0.0 -6e-45 -6e-45 -6e-45 0.0 0.0
0.0 6e-45 6e-45 6e-45 6e-45 6e-45 6e-45 6e-45
6e-45 6e-45 6e-45 6e-45 6e-45 6e-45 6e-45 6e-45
6e-45 6e-45 6e-45 6e-45 6e-45 6e-45 6e-45 0.0
0.0 0.0 0.0 0.0 0.0 0.0 0.0 0.0
0.0 0.0 0.0 0.0 0.0 0.0 0.0 0.0
-6e-45 -6e-45 6e-45 -6e-45 6e-45 6e-45 6e-45 6e-45
6e-45 6e-45 6e-45 6e-45 6e-45 6e-45 6e-45 6e-45
7.5699056e-29 7.5699056e-29 7.5699056e-29 7.5723003e-29 7.576939e-29 7.5764814e-29 7.5467655e-29 7.502918e-29
7.530304e-29 7.5053815e-29 7.253553e-29 2.3467408e-32 2.1938397e-32 3.1904348e-32 9.697635e-32 1.5948516e-31
1.969574e-31 2.4685525e-31 2.75158e-31 2.7204868e-31 3.0708558e-31 3.2596005e-31 6e-45 -6e-45
6e-45 6e-45 6e-45 6e-45 6e-45 6e-45 0.0 0.0
0.0 1.4244787e-28 1.4258327e-28 1.4286393e-28 1.4287334e-28 1.4303883e-28 1.4416503e-28 1.4478514e-28
1.4444138e-28 1.4552108e-28 1.4537734e-28 1.4061883e-28 2.810092e-28 2.810092e-28 2.810092e-28 2.810092e-28
2.8093107e-28 2.8063683e-28 2.794705e-28 2.776497e-28 2.770092e-28 2.7402723e-28 2.6488569e-28 0.0
0.0 0.0 0.0 0.0 0.0 0.0 0.0 0.0
0.0 0.0 0.0 3.2363435e-33 4.012677e-32 3.9384962e-31 9.635669e-31 9.716606e-31
1.2887409e-30 3.3461126e-30 6.234815e-30 7.980709e-30 7.259933e-30 2.1012286e-28 2.1024325e-28 2.1029422e-28
2.107942e-28 2.1179237e-28 2.1272392e-28 2.1251997e-28 2.113144e-28 2.1221596e-28 2.1221637e-28 2.0575574e-28
0.0 0.0 0.0 0.0 0.0 0.0 0.0 0.0
0.0 0.0 0.0 0.0 0.0 0.0 0.0 0.0
0.0 0.0 0.0 0.0 0.0 0.0 0.0 0.0
0.0 0.0 0.0 0.0 0.0 0.0 0.0 0.0
0.0 0.0 0.0 0.0 0.0 0.0 0.0 0.0
0.0 0.0 0.0 0.0 0.0 0.0 0.0 0.0
0.0 0.0 0.0 0.0 0.0 0.0 0.0 0.0
0.0 0.0 0.0 0.0 0.0 0.0 0.0 0.0
0.0 0.0 0.0 0.0 0.0 0.0 0.0 0.0
0.0 0.0 0.0 0.0 0.0 0.0 0.0 0.0

exp_avg_sq f4 [16, 8, 11]
00000000: 6bcf 5727 92e2 6024 92e2 6024 92e2 6024
00000010: e1b8 d225 1d35 d424 152d 9827 df30 9c27
00000020: db82 c227 9b55 b628 bc7b 1628 d8c7 0b25
00000030: d8c7 0b25 d8c7 0b25 6cfa 8226 0000 0000
00000040: 7712 8925 7712 8925 7712 8925 7712 8925
00000050: 0000 0000 0000 0000 abaa 8721 abaa 8721
00000060: b83e fe22 0000 0000 0000 0000 c112 e521
00000070: c112 e521 c112 e521 0000 0000 0000 0000
00000080: 0000 0000 d84e b82d 261b b82d cb58 ba2d
00000090: 8a58 ba2d 33ae b92d 404f b82d 32fb b82d
000000a0: 887d b62d c77b b62d 12d4 b52d 199a b72d
000000b0: 2b38 3d2e 3cf6 3d2e 49f6 3d2e 27da 3b2e
000000c0: 3215 3d2e f7f5 3a2e e8f5 3a2e 4bc9 3a2e
000000d0: 8585 3a2e 98d1 3a2e 4347 3b2e 0000 0000
000000e0: 0000 0000 0000 0000 0000 0000 0000 0000
000000f0: 0000 0000 0000 0000 0000 0000 0000 0000
00000100: 0000 0000 0000 0000 0000 0000 0000 0000
00000110: 0000 0000 0000 0000 0000 0000 0000 0000
00000120: 3466 1427 0c72 2027 9689 4b27 a5c2 3328
00000130: c882 a427 6ffc 762e 8217 782e 0f0e 762e
00000140: 898c 762e 4036 772e e703 752e 9698 732e
00000150: 0be4 732e 97eb 742e c43a 752e 1b64 722e
00000160: 4ff3 3530 aba5 2b30 4b47 2f30 7aaa 3230
00000170: a704 3030 df7d 1f30 beef 1730 59c9 1430
00000180: 09db 2230 ba68 2f30 8927 2530 b8ed 882d
00000190: 94a4 612d aad2 a12d 6dee 182d 0f55 402b
000001a0: 19b8 042b f8da 742c 4630 2e2c 17c1 892b
000001b0: 580d de27 8d95 8227 bcbc 2e23 4084 f122
000001c0: fcd4 5d22 6a56 9724 73b2 6e25 265e 3a25
000001d0: c37c 4725 ade0 1e24 0000 0000 0000 0000
000001e0: 0000 0000 3d7d cf32 801f d032 70ba d432
000001f0: 977d d232 e3d6 cf32 e342 ce32 3dc9 ca32
00000200: ef8d cb32 02d4 ce32 8f87 ce32 4a70 cb32
00000210: d355 7034 620b 7134 6e56 7434 f20b 7334
00000220: d2e4 7034 f3cc 6d34 dabe 6b34 c250 6b34
00000230: 52b2 6b34 7a99 6a34 bcdf 6734 0000 0000
00000240: 0000 0000 0000 0000 0000 0000 0000 0000
00000250: 0000 0000 0000 0000 0000 0000 0000 0000
00000260: 0000 0000 0000 0000 0000 0000 a114 2e21
00000270: 1a57 4622 b90a 462b 62c2 bc2b ec12 352b
00000280: 497b 8529 ad65 472b ec0a 572c 7806 052d
00000290: df4a 372c 86f2 2b34 81ca 2c34 1400 2f34
000002a0: cad0 2e34 d8c8 2e34 09c3 2d34 715c 2b34
000002b0: 3719 2a34 d04b 2b34 285e 2b34 26aa 2934
000002c0: 0000 0000 0000 0000 0000 0000 0000 0000
000002d0: 0000 0000 0000 0000 0000 0000 0000 0000
000002e0: 0000 0000 0000 0000 0000 0000 0000 0000
000002f0: 0000 0000 0000 0000 0000 0000 0000 0000
00000300: 0000 0000 0000 0000 0000 0000 0000 0000
00000310: 0000 0000 0000 0000 0000 0000 0000 0000
00000320: 0000 0000 0000 0000 0000 0000 0000 0000
00000330: 0000 0000 0000 0000 0000 0000 0000 0000
00000340: 0000 0000 0000 0000 0000 0000 0000 0000
00000350: 0000 0000 0000 0000 0000 0000 0000 0000
00000360: 0000 0000 0000 0000 0000 0000 0000 0000
00000370: 0000 0000 0000 0000 0000 0000 0000 0000
00000380: 0000 0000 0000 0000 0000 0000 0000 0000
00000390: 0000 0000 0000 0000 0000 0000 0000 0000
000003a0: 0000 0000 0000 0000 0000 0000 0000 0000
000003b0: 0000 0000 0000 0000 0000 0000 0000 0000
000003c0: 0000 0000 0000 0000 0000 0000 0000 0000
000003d0: 0000 0000 0000 0000 0000 0000 0000 0000
000003e0: 0000 0000 0000 0000 0000 0000 0000 0000
000003f0: 0000 0000 0000 0000 0000 0000 0000 0000
2.9949685e-15 4.876417e-17 4.876417e-17 4.876417e-17 3.6554472e-16 9.203032e-17 4.2237353e-15 4.3351684e-15
5.398769e-15 2.0243185e-14 8.353503e-15 1.2124038e-16 1.2124038e-16 1.2124038e-16 9.088439e-16 0.0
2.3778224e-16 2.3778224e-16 2.3778224e-16 2.3778224e-16 0.0 0.0 9.193131e-19 9.193131e-19
6.8913244e-18 0.0 0.0 1.5522608e-18 1.5522608e-18 1.5522608e-18 0.0 0.0
0.0 2.0953392e-11 2.0930434e-11 2.1185184e-11 2.1185071e-11 2.1109425e-11 2.0953572e-11 2.1029931e-11
2.0746752e-11 2.0745973e-11 2.0671496e-11 2.0873124e-11 4.3023512e-11 4.3192325e-11 4.319237e-11 4.2712636e-11
4.299245e-11 4.2509964e-11 4.2509912e-11 4.2470288e-11 4.2410093e-11 4.247766e-11 4.258217e-11 0.0
0.0 0.0 0.0 0.0 0.0 0.0 0.0 0.0
0.0 0.0 0.0 0.0 0.0 0.0 0.0 0.0
2.059453e-15 2.2266285e-15 2.8246495e-15 9.978703e-15 4.5660937e-15 5.615813e-11 5.640955e-11 5.594641e-11
5.6058744e-11 5.620948e-11 5.5710016e-11 5.5387327e-11 5.5454346e-11 5.5688423e-11 5.5758745e-11 5.511334e-11
6.619318e-10 6.2444866e-10 6.376594e-10 6.4998285e-10 6.403504e-10 5.8022737e-10 5.5274174e-10 5.412822e-10
5.9246524e-10 6.3813455e-10 6.0082833e-10 1.5566978e-11 1.2826313e-11 1.8397135e-11 8.693141e-12 6.8330145e-13
4.715131e-13 3.4796038e-12 2.4753684e-12 9.788029e-13 6.1631845e-15 3.624439e-15 9.472525e-18 6.5463206e-18
3.0063838e-18 6.56322e-17 2.070367e-16 1.6164827e-16 1.730277e-16 3.4451096e-17 0.0 0.0
0.0 2.4154923e-08 2.4228711e-08 2.476483e-08 2.450433e-08 2.419569e-08 2.4011973e-08 2.3607408e-08
2.3696854e-08 2.4077966e-08 2.4043201e-08 2.3683373e-08 2.2382964e-07 2.2449015e-07 2.2755714e-07 2.2635484e-07
2.2434986e-07 2.2146905e-07 2.1955512e-07 2.191546e-07 2.1950953e-07 2.1848783e-07 2.1594946e-07 0.0
0.0 0.0 0.0 0.0 0.0 0.0 0.0 0.0
0.0 0.0 0.0 5.8980795e-19 2.6880115e-18 7.035861e-13 1.3412156e-12 6.4330377e-13
5.927773e-14 7.0840106e-13 3.05594e-12 7.561611e-12 2.6047426e-12 1.6013846e-07 1.6092419e-07 1.6298173e-07
1.628097e-07 1.627808e-07 1.6182834e-07 1.5959246e-07 1.5841657e-07 1.5953196e-07 1.595987e-07 1.5801251e-07
0.0 0.0 0.0 0.0 0.0 0.0 0.0 0.0
0.0 0.0 0.0 0.0 0.0 0.0 0.0 0.0
0.0 0.0 0.0 0.0 0.0 0.0 0.0 0.0
0.0 0.0 0.0 0.0 0.0 0.0 0.0 0.0
0.0 0.0 0.0 0.0 0.0 0.0 0.0 0.0
0.0 0.0 0.0 0.0 0.0 0.0 0.0 0.0
0.0 0.0 0.0 0.0 0.0 0.0 0.0 0.0
0.0 0.0 0.0 0.0 0.0 0.0 0.0 0.0
0.0 0.0 0.0 0.0 0.0 0.0 0.0 0.0
0.0 0.0 0.0 0.0 0.0 0.0 0.0 0.0

exp_avg f4 [16]
00000000: 0400 0000 51f9 c60e 0000 0000 e61e 940d
00000010: c6fe e70c 0000 0000 0400 0000 6f3b bc0e
00000020: 3043 180e 900b 860b 2c6d e20e 0400 0000
00000030: 5ebc dc0d 0400 0000 f7f5 920e 8418 730d
6e-45 4.905085e-30 0.0 9.128643e-31 3.5744522e-31 0.0 6e-45 4.640281e-30
1.8767796e-30 5.163232e-32 5.581843e-30 6e-45 1.3603895e-30 6e-45 3.6228634e-30 7.4909666e-31

exp_avg_sq f4 [16]
00000000: 111e 992a 7c87 a82f 0000 0000 0087 6928
00000010: 6e7d 3d28 0000 0000 54ad 9125 d89c 4f2e
00000020: aa5a 5b2c 5996 4a27 4dcf f12e aab5 042c
00000030: c1b0 7e27 1ed5 5825 42f4 332e b044 012b
2.7199122e-13 3.065529e-10 0.0 1.2963372e-14 1.0518806e-14 0.0 2.5270942e-16 4.7205656e-11
3.11721e-12 2.8114635e-15 1.0996235e-10 1.8859172e-12 3.53454e-15 1.880722e-16 4.0916832e-11 4.592533e-13

exp_avg f4 [16, 16, 11]
00000000: 0400 0080 0400 0080 0400 0080 0400 0080
00000010: 0400 0080 0400 0080 0400 0080 0400 0080
00000020: 0400 0080 0400 0080 0400 0080 bb89 2911
00000030: 5d96 2911 00c1 2911 cac2 2911 d401 2a11
00000040: 120f 2a11 15cd 2911 1daf 2a11 7b1b 2a11
00000050: 56d4 2411 6599 2211 0000 0000 0000 0000
00000060: 0000 0000 0000 0000 0000 0000 0000 0000
00000070: 0000 0000 0000 0000 0000 0000 0000 0000
00000080: 0000 0000 54c8 2b0f 7190 290f 94cb 240f
00000090: 05d7 240f 792d 220f 87df 180f f8c3 160f
000000a0: 1ec8 190f 66cc 460f fb22 6a0f 8bd5 890f
000000b0: 0c9d 670f 3e48 690f 9602 6a0f 5a1e 610f
000000c0: 824f 630f 542d 700f c0ab 700f 7b2e 6a0f
000000d0: 3fe4 400f 18b9 450f e634 910f 0000 0000
000000e0: 0000 0000 0000 0000 0000 0000 0000 0000
000000f0: 0000 0000 0000 0000 0000 0000 0000 0000
00000100: 0000 0000 0000 0000 0000 0000 0000 0000
00000110: 0000 0000 0000 0000 0000 0000 0000 0000
00000120: 0000 0000 0000 0000 0400 0000 0000 0000
00000130: 0000 0000 c590 a510 4cd2 a510 5a06 a610
00000140: 3e98 a510 dfa6 a510 cc3b a510 c35a a410
00000150: e306 a610 55ad 9c10 6e6c 9910 94b2 9a10
00000160: a803 930f 7ede 920f c8a7 910f 1397 900f
00000170: e739 8d0f a5e8 850f 07fb 7a0f 008b 740f
00000180: 261c 6e0f d861 8f0f b7e6 a90f 0000 0000
00000190: 0000 0000 0000 0000 0000 0000 0400 0080
000001a0: 0400 0080 0400 0080 0000 0000 0000 0000
000001b0: 5c11 0b0a 968c 1c0d 2c1e 8f10 4d58 8f10
000001c0: 2bb8 8f10 0ca0 9010 3e6b 9110 4ce3 9010
000001d0: 1546 9110 24aa 9210 3532 8b10 d768 8b10
000001e0: e098 8710 0400 0080 0400 0080 0400 0080
000001f0: 0400 0080 0400 0080 0400 0080 0400 0080
00000200: 0400 0080 0400 0080 0400 0080 0400 0080
00000210: 4b72 f709 7fc2 ce09 69cb bb09 ac79 680a
00000220: 1120 120d 9f63 aa0d 0ac9 090e cccc 200e
00000230: 1ac3 000e e31a b30d ab58 980d 0400 0000
00000240: 0000 0000 0400 0000 0400 0000 0400 0000
00000250: 0400 0000 0400 0080 0400 0080 0400 0080
00000260: 0400 0080 0400 0080 e2d3 7810 1b89 7810
00000270: c0dc 7810 4572 7910 22fb 7a10 b88e 7d10
00000280: 38b3 8010 4b0a 8210 dcf1 8610 f2d7 8410
00000290: 4214 7510 0dc6 7f0e 6834 790e 31ce 6c0e
000002a0: 92c0 4d0e 7c82 460e 8a3d 3e0e 444d 380e
000002b0: cf09 840e 2e29 1f0f 2d7d 1f0f c299 fb0e
000002c0: 0400 0080 0400 0080 0400 0080 0400 0080
000002d0: 0400 0080 0400 0080 0400 0080 0400 0080
000002e0: 0400 0080 0400 0080 0400 0080 5f64 3811
000002f0: 1865 3811 e265 3811 d977 3811 afa3 3811
00000300: d6a5 3811 b8ed 3811 60ec 3811 f59d 3811
00000310: 5985 3911 da7a 3811 0000 0000 0000 0000
00000320: 0000 0000 0000 0000 0000 0000 0000 0000
00000330: 0000 0000 0000 0000 0000 0000 0000 0000
00000340: 0000 0000 f9d3 3a0f 3dc1 3a0f 3097 3a0f
00000350: c2d1 370f 5ccd 320f c410 330f 57a8 2f0f
00000360: 9dc4 260f e0d4 250f 2581 2d0f 2386 5f0f
00000370: 1de9 7b0f 90e9 7b0f 70e4 7b0f 6bd6 7d0f
00000380: affe 7d0f 8799 740f 4e74 780f 8ba1 820f
00000390: 0467 820f 0137 7c0f 2615 510f 0000 0000
000003a0: 0000 0000 0000 0000 0000 0000 0000 0000
000003b0: 0000 0000 0000 0000 0000 0000 0000 0000
000003c0: 0000 0000 0000 0000 0000 0000 0000 0000
000003d0: 0000 0000 0000 0000 0000 0000 0400 0080
000003e0: 0000 0000 0000 0000 0400 0080 0000 0000
000003f0: 0000 0000 6e12 b410 e012 b410 8e16 b410
-6e-45 -6e-45 -6e-45 -6e-45 -6e-45 -6e-45 -6e-45 -6e-45
-6e-45 -6e-45 -6e-45 1.3374191e-28 1.3378084e-28 1.3391222e-28 1.3391773e-28 1.3411199e-28
1.3415279e-28 1.3394945e-28 1.3464596e-28 1.3419103e-28 1.300275e-28 1.2826815e-28 0.0 0.0
0.0 0.0 0.0 0.0 0.0 0.0 0.0 0.0
0.0 8.469533e-30 8.360162e-30 8.125032e-30 8.1272355e-30 7.9959744e-30 7.5372284e-30 7.433313e-30
7.5820236e-30 9.8015194e-30 1.1543828e-29 1.3591497e-29 1.14194254e-29 1.15017e-29 1.1537589e-29 1.1099202e-29
1.1207277e-29 1.18416435e-29 1.18659914e-29 1.15460426e-29 9.5102895e-30 9.748498e-30 1.431848e-29 0.0
0.0 0.0 0.0 0.0 0.0 0.0 0.0 0.0
0.0 0.0 0.0 0.0 0.0 0.0 0.0 0.0
0.0 0.0 6e-45 0.0 0.0 6.530408e-29 6.540504e-29 6.548524e-29
6.531559e-29 6.533813e-29 6.5173156e-29 6.4826435e-29 6.5486066e-29 6.179821e-29 6.051492e-29 6.101743e-29
1.4496727e-29 1.4482412e-29 1.4362731e-29 1.4257688e-29 1.3925977e-29 1.3204424e-29 1.2374298e-29 1.2056899e-29
1.1739727e-29 1.4138577e-29 1.6753555e-29 0.0 0.0 0.0 0.0 -6e-45
-6e-45 -6e-45 0.0 0.0 6.6958715e-33 4.8240436e-31 5.645004e-29 5.6539604e-29
5.668731e-29 5.7044576e-29 5.735765e-29 5.714819e-29 5.7300394e-29 5.784899e-29 5.490319e-29 5.4987364e-29
5.348365e-29 -6e-45 -6e-45 -6e-45 -6e-45 -6e-45 -6e-45 -6e-45
-6e-45 -6e-45 -6e-45 -6e-45 5.9570568e-33 4.97756e-33 4.52099e-33 1.11932776e-32
4.502832e-31 1.0501042e-30 1.698335e-30 1.9820129e-30 1.5871156e-30 1.1038199e-30 9.389069e-31 6e-45
0.0 6e-45 6e-45 6e-45 6e-45 -6e-45 -6e-45 -6e-45
-6e-45 -6e-45 4.9072605e-29 4.9014998e-29 4.9079436e-29 4.919462e-29 4.9497272e-29 5.00054e-29
5.076323e-29 5.129182e-29 5.3226324e-29 5.2397536e-29 4.8333336e-29 3.1526535e-30 3.0716852e-30 2.9188523e-30
2.536092e-30 2.446821e-30 2.3448938e-30 2.2716953e-30 3.2549958e-30 7.847236e-30 7.863413e-30 6.202434e-30
-6e-45 -6e-45 -6e-45 -6e-45 -6e-45 -6e-45 -6e-45 -6e-45
-6e-45 -6e-45 -6e-45 1.454597e-28 1.4546193e-28 1.4546436e-28 1.4551972e-28 1.456548e-28
1.4566143e-28 1.4588293e-28 1.4587879e-28 1.4563715e-28 1.4635018e-28 1.4552897e-28 0.0 0.0
0.0 0.0 0.0 0.0 0.0 0.0 0.0 0.0
0.0 9.2113325e-30 9.207724e-30 9.199626e-30 9.0629945e-30 8.815628e-30 8.82861e-30 8.660587e-30
8.222298e-30 8.176126e-30 8.554431e-30 1.1020583e-29 1.24201514e-29 1.2420238e-29 1.2419251e-29 1.25151585e-29
1.2522913e-29 1.2059697e-29 1.22497435e-29 1.2881214e-29 1.285867e-29 1.2435153e-29 1.03085686e-29 0.0
0.0 0.0 0.0 0.0 0.0 0.0 0.0 0.0
0.0 0.0 0.0 0.0 0.0 0.0 0.0 -6e-45
0.0 0.0 -6e-45 0.0 0.0 7.1025877e-29 7.1026563e-29 7.103223e-29

exp_avg_sq f4 [16, 16, 11]
00000000: a210 d728 f190 bb28 2a72 b328 82d2 b428
00000010: 62ef f828 9b5e ee28 8578 e928 8666 5729
00000020: 5d77 c929 be8a 262a 918f 1c2a 24a7 3033
00000030: 261f 3233 9074 3133 1f62 2f33 60b2 2f33
00000040: 2796 3033 fb22 2f33 ebd2 2933 bfdf 2933
00000050: 5ac2 2633 dcff 2533 0000 0000 0000 0000
00000060: 0000 0000 0000 0000 0000 0000 0000 0000
00000070: 0000 0000 0000 0000 0000 0000 0000 0000
00000080: 0000 0000 0a4b 8701 c7bb 7e01 3c32 5e01
00000090: 0131 5f01 7604 fe25 e569 f62a 0252 112b
000000a0: 6f06 8e0e e796 b421 453b 3a24 48c1 1029
000000b0: 1cd0 a029 3b49 1928 2e46 e526 2485 e426
000000c0: a04e 1b2b 7b26 6128 dc7b b228 c21b 4c28
000000d0: 654e 8c26 3174 e322 75b8 bc2b 0000 0000
000000e0: 0000 0000 0000 0000 0000 0000 0000 0000
000000f0: 0000 0000 0000 0000 0000 0000 0000 0000
00000100: 0000 0000 0000 0000 0000 0000 0000 0000
00000110: 0000 0000 0000 0000 0000 0000 0000 0000
00000120: 0000 0000 0000 0000 1ae5 bf22 0000 0000
00000130: 0000 0000 392a 9e31 8f2d 9d31 77ce 9531
00000140: 15fb 9531 945f 9531 47b6 9a31 9fff 9331
00000150: d3a7 9231 a21a 8c31 a75e 8831 d268 8b31
00000160: a406 a02c 740c 272c a9de 1d2c d508 192c
00000170: d8c2 1d2c 3eba b52c 3e9c 152c c200 152c
00000180: 864f 152c ba10 222c 3695 712c 0000 0000
00000190: 0000 0000 0000 0000 0000 0000 a8ad a027
000001a0: 78fb 8d2b aa13 be2c 0000 0000 0000 0000
000001b0: c76a d224 96f9 f128 f357 0731 2441 0c31
000001c0: ac8c 0931 e6c8 0f31 c471 0e31 cee9 0a31
000001d0: c14c 0631 d172 0431 fc4d fc30 4ead ff30
000001e0: 5da6 fa30 93b2 8c29 9c07 e429 5055 7c2a
000001f0: 2fbc 2f2a dada b829 9a58 102b d81d 5c2a
00000200: da4f 8629 b07d 122a 1cf7 8429 d688 7629
00000210: 36b7 5128 52b4 4128 f69a 6827 e9e9 f025
00000220: ef71 5629 f81d 8929 5366 b628 4f8e 9e26
00000230: 486d 8325 3f99 330d 5942 7c0d 9cf8 0422
00000240: 0000 0000 3437 8e1f 1ef1 a523 440f 1f23
00000250: 0a87 3723 cc72 2324 f216 9427 b29e 1727
00000260: 585a af27 0634 8625 d85c 0830 f2d0 1030
00000270: b831 1d30 4dfc 1730 4310 1330 a036 1230
00000280: 0814 1c30 3aaa 1f30 7284 3630 3c55 3b30
00000290: e5c4 2330 9651 2b2c c96d 2b2c b0dc a12c
000002a0: 83f7 412c 6d87 362c 220e 452c dab5 422c
000002b0: 4f9d 2c2c c593 322d c0f7 252d 5b1c a02c
000002c0: 35e6 5b29 ff76 6929 e54e 7e29 7449 4b29
000002d0: d5a8 4f29 c836 4d29 7a2d 4629 94c4 3529
000002e0: e023 1029 c8db c628 a028 0e29 e251 9333
000002f0: 5d99 9833 6f38 9633 205d 9733 5933 9833
00000300: 66e2 9733 8635 9733 8b0c 9833 baa5 9733
00000310: b57a 9733 894d 9733 0000 0000 0000 0000
00000320: 0000 0000 0000 0000 0000 0000 0000 0000
00000330: 0000 0000 0000 0000 0000 0000 0000 0000
00000340: 0000 0000 033c 9f01 15fc 9e01 e058 9e01
00000350: 33d1 9301 17a4 8101 d7f5 8522 c9b8 1525
00000360: 6be4 8126 f114 bb26 90a0 7124 7de2 4026
00000370: 8500 dd2d 722e 562c 6914 5e2a 922e 662a
00000380: 4ca7 8e29 6374 3829 ffc5 b127 3e8a 8f24
00000390: 15be d410 85bd 5326 ee02 5727 0000 0000
000003a0: 0000 0000 0000 0000 0000 0000 0000 0000
000003b0: 0000 0000 0000 0000 0000 0000 0000 0000
000003c0: 0000 0000 0000 0000 0000 0000 0000 0000
000003d0: 0000 0000 0000 0000 0000 0000 debd 8e23
000003e0: 0000 0000 0000 0000 205a 9e22 0000 0000
000003f0: 0000 0000 2751 f031 8c57 ff31 bb5b 0532
2.3877008e-14 2.0824029e-14 1.9922503e-14 2.0075308e-14 2.7637347e-14 2.6464337e-14 2.5920463e-14 4.7828515e-14
8.9468993e-14 1.4791898e-13 1.3905393e-13 4.1130207e-08 4.1472184e-08 4.1317037e-08 4.0834603e-08 4.0907594e-08
4.1114756e-08 4.0777177e-08 3.9540208e-08 3.9551875e-08 3.882665e-08 3.864976e-08 0.0 0.0
0.0 0.0 0.0 0.0 0.0 0.0 0.0 0.0
0.0 4.9698844e-38 4.6787156e-38 4.0811002e-38 4.099379e-38 4.4065e-16 4.3771857e-13 5.1628157e-13
3.5011898e-30 1.2237218e-18 4.0382524e-17 3.2142068e-14 7.1415286e-14 8.5090855e-15 1.5909089e-15 1.5856766e-15
5.5176176e-13 1.2498353e-14 1.9815685e-14 1.1330294e-14 9.7357e-16 6.1651496e-18 1.3409401e-12 0.0
0.0 0.0 0.0 0.0 0.0 0.0 0.0 0.0
0.0 0.0 0.0 0.0 0.0 0.0 0.0 0.0
0.0 0.0 5.2013224e-18 0.0 0.0 4.6032054e-09 4.574481e-09 4.359943e-09
4.3650155e-09 4.3473367e-09 4.5027124e-09 4.307324e-09 4.2682387e-09 4.077564e-09 3.9688817e-09 4.057349e-09
4.5482108e-12 2.373904e-12 2.2434643e-12 2.174751e-12 2.2419202e-12 5.1650064e-12 2.1260905e-12 2.1174594e-12
2.1218318e-12 2.303087e-12 3.4330989e-12 0.0 0.0 0.0 0.0 4.45972e-15
1.0088449e-12 5.402308e-12 0.0 0.0 9.125387e-17 2.6864616e-14 1.969508e-09 2.040971e-09
2.0016087e-09 2.0923436e-09 2.0728388e-09 2.0214546e-09 1.9543196e-09 1.9273794e-09 1.8357578e-09 1.8602948e-09
1.8237177e-09 6.2482266e-14 1.0126554e-13 2.2411695e-13 1.5608412e-13 8.209206e-14 5.1282036e-13 1.955028e-13
5.9646474e-14 1.3011012e-13 5.904844e-14 5.474166e-14 1.1641558e-14 1.0752753e-14 3.2280472e-15 4.1791867e-16
4.7616367e-14 6.089221e-14 2.0250435e-14 1.1002025e-15 2.279893e-16 5.5343097e-31 7.773336e-31 1.8020949e-18
0.0 6.0230665e-20 1.7991453e-17 8.62264e-18 9.9490455e-18 3.5442228e-17 4.110313e-15 2.1041488e-15
4.867021e-15 2.3280547e-16 4.960845e-10 5.2683824e-10 5.718692e-10 5.529202e-10 5.35014e-10 5.319212e-10
5.6780936e-10 5.808577e-10 6.639943e-10 6.815133e-10 5.957886e-10 2.434585e-12 2.4361505e-12 4.6003965e-12
2.7564346e-12 2.5938932e-12 2.800323e-12 2.7670006e-12 2.4529994e-12 1.015094e-11 9.434176e-12 4.5506216e-12
4.882744e-14 5.1839606e-14 5.646776e-14 4.5138765e-14 4.610967e-14 4.556666e-14 4.4004276e-14 4.0360578e-14
3.200554e-14 2.207773e-14 3.156557e-14 6.860115e-08 7.105948e-08 6.9951845e-08 7.048425e-08 7.087392e-08
7.072667e-08 7.041221e-08 7.080333e-08 7.061631e-08 7.053806e-08 7.045589e-08 0.0 0.0
0.0 0.0 0.0 0.0 0.0 0.0 0.0 0.0
0.0 5.849349e-38 5.8401754e-38 5.8167563e-38 5.429946e-38 4.7622573e-38 3.6310015e-18 1.2986298e-16
9.013086e-16 1.2981408e-15 5.2394546e-17 6.692033e-16 2.5125022e-11 3.0437011e-12 1.9724642e-13 2.0444261e-13
6.335088e-14 4.0957157e-14 4.9342037e-15 6.2250556e-17 8.3912124e-29 7.346218e-16 2.9838832e-15 0.0
0.0 0.0 0.0 0.0 0.0 0.0 0.0 0.0
0.0 0.0 0.0 0.0 0.0 0.0 0.0 1.5476083e-17
0.0 0.0 4.292141e-18 0.0 0.0 6.9941453e-09 7.4314297e-09 7.762476e-09

exp_avg f4 [16]
00000000: 709e 5c0e bcf2 6f0e 0400 0000 0ffd 6f0e
00000010: 0400 0000 3e59 c00d be8d db0d e3bf 690e
00000020: a3dc 1c0e 0400 0000 92aa 540e 2e90 5b0e
00000030: b8a2 d40d fd4f 1e0e c30c ae0d 060d f50d
2.7193378e-30 2.9575897e-30 6e-45 2.9580868e-30 6e-45 1.1854398e-30 1.353104e-30 2.8811857e-30
1.9334717e-30 6e-45 2.6213144e-30 2.7063254e-30 1.3104682e-30 1.9513517e-30 1.072665e-30 1.5102426e-30

exp_avg_sq f4 [16]
00000000: 49c8 852f 1ed1 f62f 4d7a 8d28 3fdb cb2f
00000010: 27c5 6c29 f4aa b52c 5e4a 132e 76c5 9c2f
00000020: ff84 462a 9b37 bc27 5934 a62f 39d3 632f
00000030: 3694 c52c 0f2d 002e cafd 862c 7262 6e2b
2.433487e-10 4.4895726e-10 1.5707184e-14 3.7081269e-10 5.257353e-14 5.163309e-12 3.348998e-11 2.851654e-10
1.7632075e-13 5.224077e-15 3.023242e-10 2.0720571e-10 5.6155315e-12 2.914385e-11 3.8366853e-12 8.4691206e-13
