results/LB_unet_matrixlonlatcov_5s.pt (torch, 103705 bytes, 49 tensors)

weight f4 [8, 1, 1, 1]
00000000: 7eba 4f3e ef1a f8be fc8e 3d3f 1902 0b3e
00000010: 30b5 b8be 95c4 503f 6351 153f 9cb0 793e
0.20285985 -0.4845805 0.740463 0.13575019 -0.36075735 0.8154996 0.5832731 0.24383777

bias f4 [8]
00000000: 5f0a 80bf a9a1 223e e9f6 0c3d f86c 14bf
00000010: 2c87 14bf f427 353d dd70 6abf 3b17 043f
-1.0003165 0.15881981 0.03441516 -0.57978773 -0.58018756 0.044227555 -0.91578466 0.51597947

weight f4 [11]
00000000: 0389 713f 5920 6d3f e733 6b3f 8edc 763f
00000010: 0000 803f 7258 6f3f 2e3e 843f c3ee 6a3f
00000020: a4a1 483f ab57 3e3f a51e 9d3f
0.9434969 0.92627484 0.9187607 0.9643029 1.0 0.9349433 1.0331476 0.9177057
0.78371644 0.7435252 1.2274977

bias f4 [11]
00000000: 180c 4fbc c7e1 d7bd edf8 fd3c 0f9f 303d
00000010: 42ce 083e ff33 59bd f624 0abe 566a c7bd
00000020: 1ee7 92bd 11c8 abbc 925b 1fbe
-0.012637161 -0.105411105 0.031002486 0.04312044 0.13359931 -0.053028103 -0.13490662 -0.09737079
-0.07172988 -0.020969423 -0.15562275

running_mean f4 [11]
00000000: 26c6 b639 f625 c140 7c15 ad40 5112 993a
00000010: 0000 0000 9ae9 bf40 8db8 5d3f b186 2241
00000020: 49a6 e4bc 4044 b9bc bc62 d63e
0.00034861377 6.035884 5.4088726 0.0011678432 0.0 5.997266 0.8660973 10.157884
-0.027911322 -0.022615552 0.41872203

running_var f4 [11]
00000000: b6d0 0c39 69c0 2741 6cb1 6742 590b da39
00000010: 0400 0000 f5c5 8d42 c346 7f40 ee52 3d41
00000020: 769a 6c3f 8ad0 723f 5687 303e
0.00013429191 10.484475 57.923264 0.00041588655 6e-45 70.886635 3.988694 11.8327465
0.9242319 0.94849455 0.17239127

weight f4 [8, 11, 5]
00000000: 09e6 db3d a6aa bbbd 18ab 3bbc 8fcb 033e
00000010: 82b7 78bd 3d63 e2bc 3d1c 963d 68cf 30be
00000020: 3b61 d4bd 622e b93d 3ffc 0e3d 10b1 753d
00000030: b88a aabd f0c4 eb3b a022 713c 448e fdbd
00000040: a644 3c3d 8b7d 17bd 5e12 a5bd aad5 a4bd
00000050: 84c9 dfbd 113e c23d fd3d b2bd 852e debc
00000060: 11b5 513d 33bf b43d 63c3 22bd 5462 eabd
00000070: 60c7 b7bd 25b9 a0ba ebeb b83c 765b 97bc
00000080: aed8 ae3d d49e 113e a374 e93d c084 433d
00000090: 14dc 913d 0c7a c1bc a232 f6bd 68cb a4bd
000000a0: 2332 113d 5d2f 0a3e daf3 a93d 0cd7 ed3d
000000b0: 830a e53c 8c5b 3ebe ac1b 0c3c 0bdf 79bd
000000c0: 5895 30be 0da4 b13c f01d 2f3c d992 5abd
000000d0: 74d1 833c 8a72 b6bd 7343 953d 1dee 533d
000000e0: ae59 8f3a 1905 583d c389 5c3d ec38 c53d
000000f0: cd12 d3bd 5ed5 b2bd ca92 963d 9d27 cb3d
00000100: f67b f53c ed11 17be 93a6 c63c a524 88bd
00000110: a67d 46bc ebeb 9f3d 3198 793d caab d53b
00000120: d15f 903c 92c9 1ebc f03c 66bc d74c fabc
00000130: 973d c3bd a103 5dbd 71a3 993d 00f8 3e3c
00000140: 24c2 c0bd 4603 cd3d b591 d83c ff37 653d
00000150: 63d1 543c 77a6 b4bd 2b50 3f3d 1a54 f63d
00000160: dbc0 28be cf43 893d 4987 be3b 7b92 a4bd
00000170: 42e6 2c3d f696 ccbd ae62 593d 3fa1 6ebd
00000180: e51b ea3c 5a20 d3bd db81 8b3d 07c1 fdbc
00000190: facb b03d db98 f13d f5f3 adbd 590f 8fbc
000001a0: b1f4 c63d f6b3 42be d9c2 c13d 0cdd ebba
000001b0: 84d9 06be f436 223d 34b9 1b3d 46ee 34be
000001c0: 9e30 1cbe 366f edbd 3c44 80bd cf13 b2bd
000001d0: 0215 10bd bae7 03bc 9d16 8ebd b13e 093e
000001e0: f7ac a1bd 5093 2ebe d452 723d e09b 24be
000001f0: 1eeb a8bb aaed 193d e918 0cbe bf8d 8c3c
00000200: 69b4 f5bd f3e7 993c e3f1 6c3d b848 133e
00000210: e6eb 163d b50d 223e db88 263d 55bd 1bbe
00000220: 253e 18be 3dd4 2f3a fe16 1dbd a0b0 83bd
00000230: 7b9d 63bd cff0 35be e48e 163d 61b9 2dbe
00000240: c107 103d 09b3 bf3d fe6c efbd 2957 cc3c
00000250: 7c75 4c3c ea05 5f3d bbfe b93c 7de1 453d
00000260: 307e 913d c1d6 f3bc 70db 79bd 94d4 6bbd
00000270: d324 b83d 957c 3cbd 9fbd 82bd b7c1 8c3d
00000280: 05ca fcbc 806f e03c 1848 1cbe 4f62 16be
00000290: ab9d 17be 1d56 cd3d 0849 25be 6696 09bd
000002a0: ac71 9e3c 1002 0abe 6f78 833d 02c2 d63d
000002b0: dd1d 92bd 69f5 10bd 5d6d 163d e8fe 8ebc
000002c0: ec17 a3bd 5123 04bd 6fe0 0bbb 7229 f63c
000002d0: bbbc 01bd c531 e6bc f716 58be 3615 483c
000002e0: a912 e5bd a7c2 7abe 3806 babc 0125 d2bd
000002f0: 33e5 29be 9e29 38be 3961 173e 02fa 8bbb
00000300: 6674 8dbd 725a ba3c a8df 98bd 44d4 703d
00000310: fa0e df3c bd25 fabd 997d 6f3d 7a86 e23d
00000320: eaf0 01bc 237e 793d 06b1 aabc 655a bf3d
00000330: 33de 5ebd 345f 463d f22e 013e 3c4d c0bd
00000340: 846c 743c f456 7cbd 3b35 db3d 5848 fbbd
00000350: 5104 093c 118e 9bbc f7af 40bc 312d f53d
00000360: 5c26 c53e 6f3f e93d df79 2fbe 4c3e 0d3d
00000370: aae8 0abd 342f 34be d8bd 673c 5c84 26be
00000380: 2637 f93c cace 463a 7e02 26bd a97e 21bd
00000390: 261f 983d f2eb 28bd 26c2 65bd 88d5 1dbd
000003a0: 803a 1d3d 4507 d9bd b1e3 ad3d c7d8 b03c
000003b0: e595 12be abc1 6bbe b22e f3bc 1207 22be
000003c0: 5606 b0be 57fb 2c3d e5b1 4cbe 8b7f 28bc
000003d0: 257f d4bd e42a a53d 4605 d6bd 8ccb 2dbd
000003e0: d98d 7d3d 0769 77bc 8124 4b3e 0554 2ebd
000003f0: ebb5 233e 3540 a13d 9ac6 d0bc 009b 043e
0.10737235 -0.09163408 -0.011454366 0.1287062 -0.06072188 -0.027635211 0.07329605 -0.17266619
-0.10370108 0.0904205 0.03490853 0.059983313 -0.0832724 0.0071951076 0.014717728 -0.12380651
0.045963906 -0.03698496 -0.08060144 -0.08048566 -0.10927108 0.094844945 -0.087032296 -0.027121792
0.05119807 0.08825531 -0.039737117 -0.11444536 -0.08973575 -0.0012262209 0.022573432 -0.01847623
0.08537422 0.14220744 0.113992 0.047734022 0.07122055 -0.023617767 -0.12021376 -0.08046609
0.035448205 0.1349463 0.08298464 0.116132826 0.027959114 -0.1858961 0.008551519 -0.061003726
-0.1724447 0.02168467 0.01068829 -0.0533627 0.016091086 -0.08908565 0.072882555 0.051740754
0.0010936761 0.052739237 0.053842317 0.096299976 -0.1030632 -0.08732103 0.073522165 0.09919665
0.029966336 -0.14752932 0.02424935 -0.066476144 -0.012114918 0.0780867 0.060936157 0.006520723
0.017623814 -0.009691613 -0.014052615 -0.030554218 -0.09533232 -0.05395854 0.07501877 0.0116558075
-0.094120294 0.1001039 0.026436666 0.055961605 0.012989375 -0.08820813 0.046707314 0.1202776
-0.16479819 0.067023866 0.005814467 -0.080357514 0.04221178 -0.09989731 0.053072624 -0.058259245
0.028577754 -0.10308905 0.06811877 -0.030975832 0.086326554 0.11796733 -0.08493797 -0.017463373
0.0971464 -0.19013962 0.09460992 -0.0017994954 -0.13168913 0.03960319 0.03801842 -0.17669019
-0.15252921 -0.115934774 -0.06263015 -0.086951844 -0.035176285 -0.008050853 -0.06937907 0.13402821
-0.078943186 -0.17048383 0.059161022 -0.16075087 -0.0051549813 0.03758017 -0.13681377 0.017157434
-0.11997301 0.01878736 0.05784787 0.14383209 0.036846064 0.15825541 0.04065786 -0.15208943
-0.14867456 0.0006707346 -0.038352005 -0.06430173 -0.055570107 -0.17767642 0.036757365 -0.16965248
0.035163645 0.0936032 -0.116907105 0.024943905 0.012479182 0.054449 0.022704473 0.048310746
0.071041465 -0.029765489 -0.061000288 -0.057575777 0.08991399 -0.04601725 -0.063838236 0.06872886
-0.03085805 0.027396917 -0.15261877 -0.14685939 -0.1480624 0.100261904 -0.1614114 -0.033590697
0.019341312 -0.1347735 0.06419455 0.10486223 -0.07134602 -0.03539029 0.03672539 -0.017455533
-0.07963547 -0.032260243 -0.002134349 0.03004906 -0.031674128 -0.028099904 -0.2110251 0.012212088
-0.111852 -0.24488316 -0.022708043 -0.10260964 -0.16591339 -0.17984626 0.14783181 -0.0042717466
-0.06906967 0.022748206 -0.07464534 0.058796182 0.027228821 -0.12214229 0.05846939 0.110608056
-0.007930974 0.06091131 -0.020836364 0.09343413 -0.054411124 0.048430637 0.12615564 -0.09389731
0.01491845 -0.061606362 0.10703512 -0.12269658 0.0083628455 -0.018988641 -0.011760703 0.1197151
0.38505828 0.11389052 -0.17136334 0.03448324 -0.033913292 -0.17596132 0.014144383 -0.16261429
0.030421805 0.00075839146 -0.04052972 -0.039427433 0.07427816 -0.04124064 -0.056093358 -0.038533717
0.038385868 -0.1059709 0.08490694 0.021587742 -0.14314993 -0.23023097 -0.029685352 -0.1582301
-0.34379834 0.042231884 -0.19989736 -0.010284315 -0.103758134 0.08064821 -0.104502246 -0.042430446
0.061902855 -0.015100724 0.19838144 -0.042560596 0.15987365 0.07873575 -0.025485326 0.12949753

bias f4 [8]
00000000: 2555 dabd 8a58 1abd c540 183e 25c8 07bc
00000010: fe9e 47bd 28df a23c e40e 14be 8148 223d
-0.10660771 -0.037682094 0.14868458 -0.008287464 -0.04873561 0.0198818 -0.14458805 0.039619926

weight f4 [8, 8, 5]
00000000: 0bbd 743d 71af 4cbd 0ef5 fbbd 479f 003e
00000010: 07c9 553d ca02 6bbd 7601 61bd e5df 583d
00000020: cec2 943d dd88 36bd 53d6 2c3e c755 4f3c
00000030: 90cb 18bd e679 e93d 5d2a 6abd d72a 603d
00000040: 33c7 06bd fc90 e9bd 8f57 bf3d 568e 5b3e
00000050: 1b1a e33c 327d 5a3c fdfc 42be 018e cc3d
00000060: 5165 b93d 818d 833d cfde 283d 104c c6bd
00000070: e564 753d e912 293d 549b 54be dd86 c1bd
00000080: 8088 22bd e7cd ed3c d26a 303d f4a5 063c
00000090: 2129 6e3d 2c31 4e3e 1abf fdbd da58 873d
000000a0: 49a3 4d3e 51a5 c9bd 9b42 96bc d126 3fbd
000000b0: fe46 29bd d8b3 39bd 2331 053d d0c8 15be
000000c0: 3c8b dc3c 8975 8cbd 1617 2d3d 05c7 f6bd
000000d0: dad7 cbbc 8b46 6fbd ae1c 29be 3965 7abd
000000e0: aa8f 07be ed30 b7bd 750d 583e 5fc3 1c3e
000000f0: f83b ef3c 7f68 19be 4c3a d2bb 18e2 263e
00000100: cbff 413e db8a 963d 10c7 dcbc 8b31 253c
00000110: 5a63 f6bd d649 38be cf12 803c 9873 d5bc
00000120: 7500 afbb 8992 5a3c 000a 18be 434c 1d3d
00000130: beb9 2a3e 3677 e6bd 24f1 ccbd a209 a2bd
00000140: 3788 5ebc 82b5 383e d641 053e c633 253c
00000150: 4aa1 6ebc db66 003e 0afe db3d 452e 323d
00000160: a937 e3bc ffbf 063e bdc3 07be 7121 b8bd
00000170: 0750 b53d 82c0 463d 3123 f8bc 49ba e83a
00000180: 749a 19be 9b8c c8bd 67c2 a73d 30b1 94bb
00000190: 8537 e8bd ce73 b3bd 58fc 05be 088e 6cbc
000001a0: a787 193e 583f c73d c5c4 efbc dcd7 253e
000001b0: cb7f 64bd 6293 763e 4ec5 18be 849c 173e
000001c0: 36e3 4f3c 9b36 033d 6894 49bd d946 db3d
000001d0: bad4 afbd ee2f f03d a743 a03d ac0b 2e3e
000001e0: b828 d03c cb4e afbc df99 88bc c314 13be
000001f0: c500 263d ad6e 79bd 8e56 f23c 00c1 1c3c
00000200: 1332 593a f81d 4abe ebd5 dfbc 3661 24be
00000210: 7d36 1fbe 9f2e 193e 5aea b83c c451 84bd
00000220: 1863 e83d 7d42 273e 41fa 233e 9637 e7bc
00000230: 3cc1 d93d be81 1d3d 55dd 2e3d 522e 743e
00000240: 9a95 023e 620c dfbd a948 89bd 95b7 0bbd
00000250: 2fe8 14bd 3fcd dc3c 72bf 3dbe e8f4 203d
00000260: 29f1 e03d 45e7 3cbc 9f47 96bd 3a65 303d
00000270: 81af 7f3b df39 3cbd 9a2a 9bba 82e6 08bd
00000280: 8fa2 03be ef0a 33bc 059e 8f3c 8747 173d
00000290: 9a52 9f3c 0434 4abd 932d c3bc c1f3 b9bd
000002a0: 6ede 1cbb f6bc 22be 9d8e cbbd 09a5 ddbc
000002b0: 85c8 373d d61c 03be 0450 07be 28fd b43d
000002c0: 7346 c53d 8ff0 b03d 200d 533e 6c90 1f3d
000002d0: 549c 413d 47de 0b3e 5e14 293e 5b19 973d
000002e0: 9359 b9bd 2ea6 94bb 89ed 653c ad4c 58bd
000002f0: 45fd dfbd adfa 553d b487 5c3d 26a9 873d
00000300: 43c1 23be c8df b7bd acd9 c53d d80f 55be
00000310: c853 f4bd 2130 e2bb a1a3 c53b e2d7 dd3c
00000320: ee3e e3bd bfe7 0dbe 912a 6b3c 41fc a7bc
00000330: ce55 503c 2767 bbbd 5f8f 0e3d a558 81bc
00000340: d826 d0bd 1855 c8bd be33 37bd 23dc 1b3e
00000350: 6b32 c93d ffe9 603d d862 84bd 1baf ebbd
00000360: 106c e63d d9df 35be 938a 04be 1957 ee3d
00000370: 2d3a b83d d893 a03d 12a6 0ebe 2c2c 31bd
00000380: 18de 273c bdfd 90bb a7cb 153e fd85 87bd
00000390: 1d14 403d 5b29 53bc 7b51 713d 9856 f63c
000003a0: f6db 083e 884f 6e3c d8a8 54be d1eb 39bd
000003b0: c525 f4bd 38b9 40bd 77ab c5bb d729 7f3d
000003c0: f50e a13d 30a8 08be 8385 083e fdbd e23c
000003d0: c3b2 113e 7044 27be ea8b f13d 44c2 283e
000003e0: c551 0d3e 1b86 a8bd 66b2 7c3d 18dc 643d
000003f0: 0d13 eb3a 2e53 0d3c 5674 2ebd f184 b4bd
0.059750598 -0.049972 -0.123026 0.1256076 0.052193668 -0.057375707 -0.054933034 0.052947897
0.072637185 -0.044564117 0.16878633 0.012654728 -0.037303507 0.114002034 -0.057169307 0.054728355
-0.032904815 -0.11404607 0.09342872 0.21441016 0.027722409 0.013335513 -0.1904182 0.099880226
0.09052528 0.06423474 0.04122811 -0.096824765 0.059910674 0.0412778 -0.20762378 -0.09449551
-0.039680958 0.029028846 0.04307062 0.008218277 0.058144692 0.20135945 -0.12389965 0.06608744
0.2008182 -0.09845985 -0.018342307 -0.046667878 -0.04132747 -0.045337528 0.032517564 -0.14627385
0.02692186 -0.068583556 0.042258345 -0.12049679 -0.0248832 -0.058416884 -0.16514847 -0.06113169
-0.13238397 -0.08944879 0.21098883 0.15308903 0.0292034 -0.14981268 -0.006415641 0.16297185
0.18945234 0.07350703 -0.02695039 0.010082613 -0.120306686 -0.17996916 0.015633969 -0.026056096
-0.0053406307 0.013340601 -0.14847565 0.038402807 0.16672418 -0.112532064 -0.100069314 -0.079119936
-0.013582281 0.1803799 0.13013396 0.0100831445 -0.0145648215 0.12539236 0.107418135 0.043501157
-0.027736502 0.13159178 -0.13258262 -0.089907534 0.08853155 0.048523434 -0.030290218 0.0017755713
-0.15000325 -0.09792443 0.08191376 -0.004537724 -0.113387145 -0.08762322 -0.13084543 -0.01443816
0.14993154 0.09728879 -0.029268632 0.16195625 -0.055785935 0.2407966 -0.14919016 0.148058
0.012688449 0.032034498 -0.049213797 0.107068725 -0.08585496 0.11727892 0.07825404 0.1699664
0.025410041 -0.021399876 -0.016674934 -0.14363389 0.040528078 -0.060896564 0.029582288 0.009567499
0.00082853547 -0.19737995 -0.027323684 -0.16052708 -0.1554813 0.14959191 0.022572685 -0.06460908
0.11347026 0.16333957 0.16013433 -0.028224748 0.1063256 0.03845381 0.042691547 0.23845795
0.12752381 -0.10891034 -0.06703312 -0.034110624 -0.03635424 0.026953338 -0.18530062 0.03929606
0.10983498 -0.011529748 -0.073378794 0.043065287 0.003901452 -0.045953628 -0.0011838258 -0.033422954
-0.1285498 -0.0109279 0.017531404 0.03693345 0.019448567 -0.049366012 -0.023825442 -0.090796955
-0.002393629 -0.15892395 -0.09939311 -0.027056234 0.044868965 -0.12803969 -0.13214117 0.08837348
0.09632578 0.08639633 0.20610476 0.03895609 0.047268227 0.13659011 0.16511676 0.07377883
-0.09050288 -0.0045364117 0.014033684 -0.0528075 -0.10936979 0.052241016 0.053840354 0.066240594
-0.15991692 -0.0897823 0.09660658 -0.20806825 -0.119300425 -0.00690271 0.006031469 0.02708048
-0.11095987 -0.13857935 0.01435341 -0.020506026 0.01271577 -0.09150534 0.034804698 -0.01578934
-0.10163659 -0.09781855 -0.04472708 0.15220694 0.098240696 0.054910656 -0.064641654 -0.11508008
0.1125108 -0.17761172 -0.12943487 0.11637706 0.08995471 0.07840699 -0.13930538 -0.043255016
0.010245822 -0.004424779 0.14628468 -0.06617353 0.04689418 -0.012888278 0.058915596 0.030070588
0.13365158 0.014545329 -0.20767534 -0.045390908 -0.119212665 -0.04705164 -0.006032403 0.06229576
0.07864181 -0.13345408 0.1333218 0.027678484 0.14228348 -0.163347 0.117942646 0.16480356
0.13800724 -0.082287036 0.06169357 0.05587396 0.0017934755 0.008625789 -0.042591415 -0.08814419

bias f4 [8]
00000000: 2089 623e 0cea a13d c6ce 4c3d 631e a53d
00000010: 17ce 913d 2259 f83c b5c3 cb3d a4ac 163e
0.22122622 0.07905969 0.050001882 0.080624364 0.07119387 0.03031594 0.099494375 0.14714295

weight f4 [8]
00000000: e222 663f 560b 893f ac6b 783f ac3a 8b3f
00000010: 47d5 813f 1a4a 793f f547 7b3f 2451 763f
0.89896977 1.0706584 0.97039294 1.087728 1.0143212 0.97378695 0.9815667 0.9621756

bias f4 [8]
00000000: 85c6 2c3d 77d6 54bd b286 e13c 9a65 13bd
00000010: 64f7 96bd 2554 0fbd 140c ad3c 1c5a a8bb
0.04218151 -0.051962342 0.027530048 -0.035985567 -0.07371405 -0.034992356 0.021123923 -0.005137695

running_mean f4 [8]
00000000: 50a6 0b3f de87 0b3e 842b d43e 271f 763e
00000010: 35a9 203e 2aae 1f3e 2a4f c63e f0e0 553f
0.5455065 0.13626048 0.4143945 0.24035321 0.15689547 0.15593782 0.38732272 0.8354635

running_var f4 [8]
00000000: faff 1e3c b13f ed3c db36 4e3e 8ab0 9d3d
00000010: 743c 223d d33a 463c 22ae 6f3d cd5e ae3d
0.009704584 0.028961034 0.20138113 0.07699688 0.039608434 0.012098986 0.058515675 0.085141756

weight f4 [16, 8, 5]
00000000: 78a2 3d3c 6160 e9bd 2b1c 31bd 80f5 e03d
00000010: 32ad 8fbd 3c9a a03d 0af2 9f3d 48d0 5b3e
00000020: 104d 183e cd05 4b3d dbe2 96bd e554 79bd
00000030: c3b6 91bd 8b24 033d 99e3 a33d 1b1c 07bd
00000040: 2166 4ebe 8ef3 12be 1d97 dcbd 8ba0 013d
00000050: 0feb e23d ec3d 043c 7d00 83bd b5fc 1bbb
00000060: b88f f5bd b807 20bd 6378 023d 590f d53d
00000070: 0bfb f7bc db39 df3d 9a59 663c e5ea e23d
00000080: d77d 803d a584 a53d 95b4 ac3c d09e 9c3d
00000090: 6cc2 083e 913d 22be 70e2 50bd ee58 76bd
000000a0: 1f30 e6bd 0dcc 9b3d c798 9ebd 75dd 0abe
000000b0: 98c8 e0bd 8519 16bd b05b 83bc fe3e 323e
000000c0: f0a1 31be d1cb 4fbd 7e8f 273e 06e5 d53d
000000d0: 1c2f cc3c e4ca d63d c455 0c3e d2c6 a83d
000000e0: 9936 6d3c 8628 823e 6fa9 843d e899 083d
000000f0: 33d5 9fbd cf18 563e d9e7 153e 2b0f 8cbd
00000100: ba6b aa3d ed57 31bc 4475 11be caa3 efbc
00000110: 576f 133e 5860 2dbd 11c3 c8bc 74b9 24bd
00000120: 34c5 00be 8ae9 0e3e 8a60 65bd e386 02bd
00000130: f1cd a3bd 2bd7 9a3d 644c 623d eb75 9b3d
00000140: ecd6 e0bc dad4 313d 168b 0d3e dbd3 3abd
00000150: 8e41 873c 4b1b b8bb 4c73 1cbd cf75 b0bd
00000160: 673d 1d3e 44c0 f5bd f90c 813d 9f36 b93d
00000170: d6c6 863d 8b1a aa3d ac8f 13bc 16ae d33c
00000180: ab07 18be 0fdd babd cd94 193e d763 493d
00000190: 03a4 8d3d 3e28 2b3e 75fe b6bd 83dd b1bb
000001a0: b269 f4bd a58d 7dbd 4358 e73d fc25 103e
000001b0: 42d6 a13d 423a 9d3d 8b74 0d3e 31a4 633d
000001c0: c18d 653d b9f5 633d 32da ea3d ccf7 25be
000001d0: facc a73d 26a2 393d f517 163e 3950 de3d
000001e0: bed4 593c ede9 163e 5ab4 fa3d 5ca2 643d
000001f0: a1ca f73d 4e50 13bd 768c 3a3e 75b3 833e
00000200: 1e07 383e 6665 1fbe dbb9 51bd 0bbe 0f3e
00000210: c1b7 54bc e3da a73d 0383 0d3e b9eb 22bd
00000220: e727 a63b 9a1b 033e 1d8c 0c3e ab60 5cbd
00000230: 792a 00be c1b6 83be 8e79 27bd 29c1 943d
00000240: d5dc b63d c3b7 493d 452d d03c 5f77 f53c
00000250: cf90 6f3c e471 4f3d 0b4a 0d3e ea17 a0bd
00000260: 1d63 bebd 2c79 a3bd 836d ad3c 3a56 443d
00000270: 09a4 e43d c511 56bd 5b13 3e3e dcf9 de3b
00000280: b6a6 babd 758b b43d 7205 61be 08b8 6b3d
00000290: 8804 88bd 1fd8 27be 3e3a 613c 5eb7 b2bd
000002a0: a9f3 aebd 0016 1d3e a5c0 043e 2214 903b
000002b0: 9ac4 1bbd 8494 c8bd 06fa 84bd 78a9 333c
000002c0: 28fd 1dbe 66b7 3abe b70c 72bc 9b35 11bd
000002d0: 3a9a 12be 4e9f d6bd 9b59 2bbe 8551 f1bc
000002e0: a10a 64bd 733d 06be 59aa 8cbd 5165 31be
000002f0: c446 7b3d c40e fabd 6ed3 e33d 56dc d8bd
00000300: 1219 8dbd b6ee bebd 9e8e 083e 7517 033d
00000310: 2e04 1cbe f2fb a8bd f9fa 8b3d 5b40 f7bc
00000320: 0397 b23b 8147 583d 0a51 0dbd 0f47 393d
00000330: 3cc2 08be 630d 8dbd c731 55bc 2502 01be
00000340: a82c 823c 4992 0bbe 2d31 993d 9c69 07be
00000350: 7ebb abbd 101c 22be bf6b 0f3d 9695 0a3c
00000360: 2c04 01be 73ba dabc 60f8 2f3d edfc 053e
00000370: b8aa 93bb 5e67 833d 1a1d b23d 30ad 993d
00000380: 6f45 f1bd ff70 62bd 709f c33d 2338 ffbd
00000390: e42c 0ebe 2d40 013e 8511 e4bd d7ae 03be
000003a0: e50f c33d 8708 d0bd 0c0e ecbd 94d3 e83c
000003b0: 554f 28bd 8fcd 913d 8af9 e7bd c382 8ebc
000003c0: 05b9 343e 3047 643d 1d48 4ebd 7d4e e3bc
000003d0: 371d ca3d 4195 913d 1514 9a3d 6b76 84be
000003e0: 4b6d 12be d331 babd 6cae dfbd 2363 14be
000003f0: d6a8 02be b0ed 41bd 6f77 0bbc b1c4 3e3e
0.01157438 -0.11395336 -0.043239754 0.109843254 -0.07015456 0.07841918 0.07809837 0.21466172
0.14873147 0.04956608 -0.07367488 -0.060871977 -0.07114937 0.032017272 0.08002395 -0.032985788
-0.20156147 -0.14350721 -0.1077101 0.031647246 0.1107999 0.008071404 -0.063965775 -0.0023801748
-0.11990303 -0.03906986 0.03185309 0.10403318 -0.030271074 0.10899707 0.014059449 0.11079959
0.06274002 0.080819406 0.021082202 0.076474786 0.13355416 -0.15843798 -0.050997198 -0.060143404
-0.11239647 0.07607279 -0.07743984 -0.13561042 -0.1097576 -0.03664543 -0.016034931 0.17406842
-0.1734693 -0.050731484 0.16363332 0.104440734 0.024924807 0.10487917 0.13704592 0.08241047
0.014478349 0.25421542 0.064776294 0.0333499 -0.078043364 0.20907901 0.14639224 -0.068388306
0.083213285 -0.010824186 -0.1420489 -0.029252905 0.14397942 -0.04232821 -0.024507077 -0.040215924
-0.12575227 0.13956276 -0.05600027 -0.03186692 -0.079982646 0.07560571 0.055248633 0.075908504
-0.027446233 0.04341588 0.13822588 -0.045612197 0.016510751 -0.005618488 -0.038195893 -0.0861622
0.15355454 -0.119995624 0.063013025 0.09043621 0.06580894 0.08305844 -0.009006422 0.025839847
-0.14846675 -0.09124195 0.14998169 0.04916748 0.069160484 0.1671457 -0.089352526 -0.0054280176
-0.11934222 -0.06190266 0.112961315 0.1407699 0.079021946 0.076771274 0.13813989 0.055576507
0.05604339 0.05565426 0.11467399 -0.16207808 0.08193393 0.045320652 0.14657576 0.10855145
0.013295351 0.14737673 0.122414306 0.0558189 0.12099195 -0.035965256 0.18217644 0.25722852
0.17971465 -0.15566024 -0.051202636 0.1403734 -0.0129832635 0.08196046 0.13819508 -0.039775584
0.0050706747 0.12803498 0.13725324 -0.053803127 -0.12516202 -0.25725368 -0.040887408 0.07263405
0.08928839 0.049247514 0.025412211 0.029964147 0.014621927 0.050645724 0.13797776 -0.07817061
-0.09296248 -0.07982096 0.021170383 0.047933795 0.111641 -0.05226304 0.18562071 0.006804688
-0.09113829 0.08815662 -0.21974733 0.057548553 -0.06641489 -0.16391037 0.013746796 -0.08726381
-0.08542568 0.15340424 0.12964113 0.0043969313 -0.03802929 -0.09793952 -0.06493001 0.0109656975
-0.15428603 -0.18234023 -0.014773539 -0.035451513 -0.14316645 -0.10479604 -0.167334 -0.029457817
-0.0556742 -0.13109379 -0.06868429 -0.17323805 0.061346784 -0.122098476 0.111243114 -0.10588901
-0.068895474 -0.09322874 0.13335654 0.032004792 -0.1523597 -0.0825118 0.068349786 -0.030182054
0.005450131 0.052802566 -0.034501113 0.045233782 -0.13355345 -0.06887319 -0.013012356 -0.12598474
0.015890434 -0.13630022 0.07480083 -0.1322388 -0.08385371 -0.15831017 0.035014864 0.008458516
-0.12599248 -0.026700234 0.04296148 0.13084765 -0.0045064352 0.064162 0.08696957 0.07503736
-0.117808215 -0.055283543 0.09551895 -0.12461879 -0.13884312 0.12622137 -0.11136154 -0.12859665
0.09524516 -0.101578765 -0.11526117 0.0284212 -0.041091282 0.07119285 -0.11326893 -0.017396336
0.17648704 0.055731952 -0.05036174 -0.027747387 0.098688535 0.07108546 0.075233616 -0.25871596
-0.14299504 -0.090915345 -0.1092194 -0.14490943 -0.12759718 -0.047345817 -0.008512362 0.1862972

bias f4 [16]
00000000: 85b8 87bd 9579 fd3d 1323 323d d104 9c3d
00000010: 2c8b ab3d 01a2 9a3c 6b7c edbc d4b4 38be
00000020: 4104 0e3d d77d eabd dbc0 da3c efa3 83be
00000030: 4a43 133e 9e42 b33d 7d5c 9f3d 985d d1bc
-0.06626991 0.123767056 0.04349048 0.07618106 0.08376154 0.018876078 -0.028989991 -0.1803773
0.034672026 -0.11449783 0.026703289 -0.2571101 0.14381137 0.087529406 0.077813126 -0.025557324

weight f4 [16, 16, 5]
00000000: 713d e8bd 3bd6 9fbc 76a1 15be 4a9d 6cbe
00000010: d98e ccbd 0b86 0f3d 3f69 be3d 617f 73bc
00000020: 2256 103e 014a 9a3d 4efa 083c ca8d 12be
00000030: 73cd 74bd 1185 81bc 0db0 803d 5567 133d
00000040: 11fc 09bc 0a3e 343e 84ad 96bc f0c4 19be
00000050: f5ce a6bd f882 abbc 8f89 60bd 9733 77be
00000060: 540b 9abb 67f1 993c 6863 5c3a da2b 3fbd
00000070: df4d bc3d bbe9 9c3a 6ff5 1a3d 11a0 5bbe
00000080: e55d aebd 329c 20bc 79e4 77bd aca0 39be
00000090: 7812 26ba 77ec efbd b2fe 0cbe 620b b5bd
000000a0: 9007 403c 6c7f b8bd fd50 75bd fdb8 743d
000000b0: 393f 26bd 7ee8 383d 1cf8 19be 5b86 35be
000000c0: 0c4a 3abd 31f5 793d 3eba c33c 28e8 bb3c
000000d0: 1e4f 1ebe ec72 55bd f60a fbbd 5e4b 0f3d
000000e0: bfca 453d baff 513e 239d 063e de43 973d
000000f0: 97bc 283d 8ba4 fbbd e712 f3bd e701 e0bc
00000100: f250 6abc 2bc8 d13c 627c b53b e8b2 08be
00000110: 8751 04be 8079 963d b42e f83b 5b25 09bc
00000120: 858e aebd 0f26 913d b215 df3c 7fc7 bb3c
00000130: 9f4c b53c a950 5d3d 60e5 853d ce45 b03c
00000140: 0d34 c23d 8d55 94bd 988e b23c 55d6 55bd
00000150: 837e ffbc 6365 c7bc 3e82 463d 38a6 c5bd
00000160: f41c ed3d 74c1 b33d c454 b2bd 5a34 3abd
00000170: 6172 9a3b f629 ff3c be19 a6bd 47f7 a53c
00000180: 74bd 70bd 386d 683d 905f 5f3e 204c 133e
00000190: 59d6 80bb 5243 f33c 6f3d a83c 883b e03d
000001a0: f528 a7bd 03c2 e83c b38f 473d 515b 71bd
000001b0: 1962 a2bd ad42 0fbd f0e2 103e 7923 cd3d
000001c0: e450 5cbd 591a cdbd 28ee b93d f3da ddbd
000001d0: 0d15 3e3c 44a1 c1bd 66b3 30be 58bb b63b
000001e0: 84ba 013e 1e51 66bd a55e 283d bb38 2c3d
000001f0: 71f4 2d3c 3de5 37ba dbd1 813d 1cff 16bd
00000200: 6fde 423d f8c6 003e c107 543c 5a70 6f3d
00000210: ee93 7dbd 8ad6 6f3c ed1f d2bd 1355 733d
00000220: 1533 50bc d0c4 c7bc 0229 d63d f705 dc3c
00000230: 4714 cfbc 958d a6bd bc76 a7bd dfa1 ce3b
00000240: 54cb 8a3d 5ca3 f03d bb43 89bd 82c4 81bd
00000250: a5cf b1bb a126 0f3c 4795 3e3d 1200 913c
00000260: c908 acbd 00e2 273d 5726 0ebe 2dfe debd
00000270: 8634 52bc 6789 ae3d f520 393d 7ebb 003e
00000280: 7806 ed3d b550 ab3c b8c9 9dbd f162 df3c
00000290: 50de f13c 5e85 c6bd 0ade 6e3d 3e86 eb3c
000002a0: 9cda 623d d3c9 d4bc 6646 9dbb 5fa6 b33d
000002b0: e62e eb3c 017d 593d b846 383c a389 cd3d
000002c0: 5bd1 de3d 2b2f d5bd 44f7 60bd f5b7 f63c
000002d0: d843 273d c6dc be3d a670 c43d 9854 813d
000002e0: 1b1b 473d 2798 52bc 9a86 1f3d a588 353c
000002f0: 2379 7f3d 9903 f73c f90c 123e 5040 1a3e
00000300: eae7 41bc 0da8 dabd ced2 b03d 3cf8 873d
00000310: 3f87 f53d 4529 edbd ba4e 973c 8106 163d
00000320: 4596 95bc 771c 4d3d c717 043e 25ed 90bd
00000330: 1dee 16be fb11 64bb d004 303d df1c b33c
00000340: c8e1 52bd eefe 833c 64ca b7bd 29fb f9bb
00000350: 798e d0bd eea5 2a3d 66cf 70bc 8c3d 01be
00000360: ef5d abbd c36e 36be b52c 18bc 3b9f 693d
00000370: be47 103e a8c4 153e 94a6 18bd 0901 ad3c
00000380: f257 013e 7249 b93d 9471 c23d 47ec 2b3d
00000390: 2ac7 06be abe7 25bd ed47 b73d 74eb 0abc
000003a0: 9efc b63d e0b1 233e 29c3 313e e9f7 703d
000003b0: 9235 463d ab15 f73c 6013 53bc b786 6e3d
000003c0: bd4e 863d 51c4 113d 7240 21be 3572 25be
000003d0: 88c8 1cbe 0b10 743d 4856 06be 6385 f5bd
000003e0: 9580 afbc 7469 953c 6d60 9a3c 8e9e 8abc
000003f0: 5965 933d 59cd aa3d 2cdc 98bd 977f 2e3d
-0.11339844 -0.019511333 -0.14612374 -0.23106876 -0.099881835 0.035039943 0.09297418 -0.0148619125
0.14095357 0.075336464 0.008360459 -0.143119 -0.059766244 -0.015810521 0.06283579 0.035987217
-0.008421914 0.17601791 -0.018393286 -0.15016532 -0.08144943 -0.020936474 -0.054818686 -0.24140774
-0.0047010574 0.018791867 0.00084071467 -0.04667268 0.0919454 0.0011971513 0.03783172 -0.21447779
-0.08514003 -0.009802865 -0.060520623 -0.18127698 -0.00063351495 -0.11715024 -0.13769034 -0.08840062
0.011720553 -0.09008679 -0.05989169 0.05974673 -0.040587638 0.045143597 -0.15036052 -0.17727034
-0.045480773 0.06102485 0.023892518 0.02293785 -0.15459868 -0.05211155 -0.1225795 0.034983985
0.048289057 0.20507708 0.1314588 0.073859915 0.04119548 -0.122872435 -0.1186884 -0.027344657
-0.014301525 0.025608143 0.005538509 -0.13349497 -0.12921725 0.07347393 0.007573927 -0.008370723
-0.08523277 0.07087337 0.027232025 0.022922276 0.022131262 0.054032 0.065378904 0.02151766
0.09482584 -0.0724288 0.02179651 -0.052206356 -0.031188255 -0.024340337 0.048464052 -0.09650844
0.11577788 0.08777133 -0.08707574 -0.045460083 0.004713342 0.031147938 -0.08110379 0.020259513
-0.058774427 0.056744784 0.21813798 0.14384508 -0.003931802 0.029695187 0.020537106 0.10948855
-0.08162109 0.028412824 0.048721027 -0.058924977 -0.07928867 -0.034975696 0.1414907 0.100165315
-0.05378808 -0.10014791 0.09078628 -0.10832777 0.011601699 -0.09454587 -0.17255935 0.0055765323
0.12668806 -0.056229703 0.041105885 0.04204629 0.010617361 -0.0007015055 0.06338855 -0.036864385
0.04757541 0.125759 0.012941302 0.058456756 -0.061908655 0.014638552 -0.102599956 0.059407305
-0.012707491 -0.02438584 0.1045704 0.026858313 -0.025278224 -0.081324734 -0.08176944 0.0063059176
0.06777063 0.11749908 -0.06702372 -0.06336309 -0.0054263645 0.008737237 0.04652908 0.017700229
-0.08400113 0.040987015 -0.13881813 -0.10888324 -0.012829905 0.08522301 0.045197446 0.12571523
0.115734994 0.020912508 -0.077044904 0.027268859 0.029524952 -0.096934065 0.05831722 0.028750535
0.055384263 -0.025975144 -0.004799652 0.08771967 0.028708886 0.05309773 0.011247329 0.10036018
0.10879775 -0.10409387 -0.05492331 0.030117014 0.040836185 0.09319453 0.095917985 0.06314963
0.048609834 -0.012853659 0.038946725 0.011079942 0.062371384 0.030153083 0.14262761 0.15063596
-0.011835078 -0.106765844 0.08633958 0.06639144 0.11988687 -0.11580137 0.018470157 0.036627296
-0.01826013 0.050075974 0.12899695 -0.07076482 -0.1473927 -0.0034800756 0.04297334 0.021864353
-0.051484853 0.01611277 -0.0897415 -0.0076288176 -0.101834245 0.04166215 -0.014697885 -0.12621135
-0.08367526 -0.1781569 -0.009288003 0.05703662 0.14089867 0.146258 -0.037268236 0.021118658
0.12631205 0.09047212 0.094943196 0.04197338 -0.13161913 -0.04050414 0.08949266 -0.008478988
0.08934902 0.15985823 0.17359604 0.058830176 0.048390932 0.0301617 -0.012883037 0.058233943
0.06557987 0.035587613 -0.1574724 -0.16156848 -0.15310872 0.059585612 -0.13118851 -0.11988332
-0.021423617 0.01823876 0.018844808 -0.016921308 0.07197065 0.08339948 -0.074638695 0.042602148

bias f4 [16]
00000000: d80b e7bc e048 d1bd f765 cebc faf3 73bd
00000010: 3b04 123c 2f01 a13d fe34 13be b0dc ad3d
00000020: 206d 77bd c9f7 723d faa3 5c3d a268 953d
00000030: 7a16 443d 3bb2 9fbc ddce 863d e07d 563d
-0.02820389 -0.10218978 -0.025195105 -0.059558846 0.008912141 0.07861554 -0.14375684 0.084893584
-0.060406804 0.059318338 0.053867318 0.07295348 0.047872998 -0.019494167 0.06582425 0.052366138

weight f4 [16]
00000000: 513e 833f 2061 8a3f ff28 6e3f f9f0 753f
00000010: 8764 7b3f afb5 793f aa39 7f3f 9c20 813f
00000020: bc05 7b3f 48b7 823f dc2c 863f e031 853f
00000030: 4018 733f e497 713f a4fb 773f c431 753f
1.0253392 1.081089 0.93031305 0.9607082 0.9820027 0.9754285 0.99697363 1.0088077
0.98055625 1.0212183 1.048244 1.0405846 0.9495888 0.9437239 0.9686835 0.9577906

bias f4 [16]
00000000: 4aff e13b f5d1 a3bb 380c 283d 4c22 3a3d
00000010: 9103 71bc 6e49 123d f2cc 05bd cbc7 5abd
00000020: 597e f0bc 433b bdbc a3ed f6bc 2882 04bd
00000030: c572 e439 abdd 223c 3309 493b 29d6 ce3c
0.006896888 -0.004999394 0.041027278 0.045442864 -0.014710323 0.03571456 -0.032666154 -0.053413194
-0.029357122 -0.023099547 -0.03014261 -0.03235069 0.0004357306 0.009940545 0.003067565 0.025248604

running_mean f4 [16]
00000000: 48fc 933e 9abf 923e d1fc 473f 34c3 a03c
00000010: 1ce5 6f3f d98e 1b3f 3b90 9d3d 1247 113e
00000020: b2a2 b53d 18db 693e b5c9 343e ac8e 583e
00000030: 6fb5 0e3e 9edd 273e bf39 0d3e 9ece be3e
0.28903413 0.28661805 0.7812014 0.01962433 0.9370897 0.60764843 0.076935254 0.14187267
0.08868922 0.22837484 0.1765507 0.21148175 0.13936399 0.16393134 0.1379156 0.3726701

running_var f4 [16]
00000000: cd2c 103e d4c8 e13d 16d7 073e d9de 6d3b
00000010: e153 933d 8966 063e 18c8 633c ee26 153d
00000020: 7f56 893c 22a1 693d 1813 343d 881a 6b3d
00000030: 3182 023d 2d90 b23c 7b68 323d 3b4a 293d
0.1407959 0.11024633 0.13265643 0.0036296158 0.07193733 0.13125052 0.013902687 0.03641408
0.016764877 0.057038434 0.04396352 0.05739835 0.03186244 0.021797264 0.04355667 0.041330557

weight f4 [32, 16, 5]
00000000: e0ec a23d 6bb9 98bd 5115 2c3d 41e7 efbb
00000010: 97be 793d 57f8 f13d 3b75 80bd c023 b7bc
00000020: c00a 8b3c 6f7e cabd a121 9a3d 8670 c4bd
00000030: 61aa 393c af14 96bd ad07 6ebc 6462 86bd
00000040: 4ab4 863d 5f8f 29bd 02a5 a73d 96c8 713b
00000050: 7879 00b8 4c38 e3bb 636f a83d 3f96 983d
00000060: d01a 85bd da84 ac3b 37bf 88bd 351c a0bd
00000070: 1bb8 67bd af7f acbd aad7 74bd 89dc be3b
00000080: 1529 063e 44c1 ff3c bdd3 9e3c fe3a c3bd
00000090: 3485 26bd e1c9 eebb 8271 57bd 5f4f 53bd
000000a0: b679 803d a94d a5bd 9468 353d 4bfb d8bd
000000b0: ec20 573d 9964 a73d d1bd 1cbd fcf7 623c
000000c0: 25d3 93bc 9496 42bd 44d8 dd3d 8d48 99bd
000000d0: 5097 fcbd 15c6 20be c3e6 bebd c935 25bd
000000e0: 7017 18bc 232e 9ebd c9c7 863d d506 98bd
000000f0: ec0d cdbd 8ee1 f7bb 9a08 3b3d 429f 31bd
00000100: 6837 d7bb 8255 cfbd fa49 0b3d 6f7a ac3c
00000110: 276b 92bd d845 84bd b976 af3d 72e7 bd3d
00000120: 16fa 93bd 7249 cf3d 1f6d 9e3d f7eb 9ebd
00000130: 170f 1d3c 8cf3 08bd 87a5 8c3d 76c6 2bbd
00000140: 6e1a b5bd 0de1 e13d ec1d 053d ba17 87bd
00000150: ecd8 8bbd 8345 a2bd 33e8 703d 6d46 b0bd
00000160: 617f b1bd df57 053d d171 5a3d 6c86 8a3d
00000170: 7d21 9bbc 5503 e7bc b96c 293d c72a f63c
00000180: 882d c7b9 2c39 543d 79d6 0fbd e989 9f3c
00000190: 1289 973d 9042 6fbd b2d8 9abc ba32 51bd
000001a0: c220 f53d e233 0a3e 4e4d 62bd fd43 5ebd
000001b0: f353 163c 836e 043d b667 56bd 505c 91bd
000001c0: be3d ab3d 9189 323d 31ed bf3d f2c2 083a
000001d0: b9bf febc 0ef0 9fbc ec42 20bd 3117 f3bc
000001e0: 5577 e7bd 131d 95bd 208c b2bd e930 fcbd
000001f0: 6e28 d63d 3e01 84bd ad51 0abd dc13 7dbd
00000200: 16c3 c4bd 656a a2b9 ce09 d8bd 9236 dabd
00000210: e6e5 d4bd ab0f 5d3c 2384 123d 3102 bcbd
00000220: 8392 c8bd d19d 9abd c51a 5cbd dd25 b6bd
00000230: 4a44 b53d e9d2 0b3d 4844 e7bd ac1f 72bd
00000240: 11ee fe3d 1f87 423d 8fc5 903d 4eb0 52bd
00000250: e68f b83d 2168 9abd 9421 6cbd 269b d33d
00000260: e3ff 823d aed0 f93d aa25 853d 6377 babd
00000270: 2265 5b3d cbda 933d 5d1f be3d a338 2dbd
00000280: f2cb 69bd 7467 e6bd 21d4 e8bc 974d 06bc
00000290: f9ba 55bd a3ce 0c3e 35c3 a93c f210 553d
000002a0: 7d78 e8bd 432d 033b c466 5a3d 03c9 51bb
000002b0: b58c a7bd 79b9 6fbb aa7f d4bc 5fdf 083e
000002c0: 811d b4bd d1a6 303c 2307 81bd afcf b83d
000002d0: 3f04 993d bca7 873d c42e 1b3d 92b9 a8bd
000002e0: ac64 fd3b 6cb2 da3d e5b5 bfbd 581d 1ebd
000002f0: 14e0 f23c ba67 333b f241 28bc 6b60 02bd
00000300: 6e0c 5abd a511 e4ba 3d78 643d 5bb8 623c
00000310: 0ca2 cfbd c0df 1cbd 7f82 f33d 06a1 44bd
00000320: 4be8 80bd b0f7 59bc 8388 94bd a750 e83d
00000330: a3a3 213d fba7 68bd 0edb a43b cddc bcbd
00000340: eeb6 103e 5867 fa3d 8f61 753d 2747 893d
00000350: 2f52 f53c ccdb d83d ccdc 1b3d 6a25 c53d
00000360: 3419 85bd 2bd2 d6bd 67e5 9e3c 96a4 9d3b
00000370: 725e e3bd 446b 463c dd7b 8dbb c25a 2a3e
00000380: f543 d33c 5868 003c 686b d83d f0d2 883d
00000390: 9b85 06bc 20fd 81bd d6e2 c33d a1c6 cabd
000003a0: 26a0 f63c 4008 403d 9af4 753d b1c0 5a3d
000003b0: 7f03 0ebc 1b03 a93d 8511 aa3c 6ae9 a13b
000003c0: 387e 043d 14b0 073e 2019 073b 5147 66bc
000003d0: 675c 123d 91b7 b33d 9bd8 453e 1a71 5c3e
000003e0: 3379 983c 360a d73c 773f fa3b ade9 ab3d
000003f0: bdd4 663d 8760 30bc 6788 053e a070 eb3d
0.079553366 -0.07457241 0.042012516 -0.007321269 0.060972776 0.11814945 -0.0627236 -0.022355914
0.0169729 -0.098873965 0.075259455 -0.09591775 0.011332125 -0.07328164 -0.014528197 -0.06561735
0.06577356 -0.041396495 0.081857696 0.003689324 -3.0630705e-05 -0.0069342013 0.0822437 0.07450532
-0.06499255 0.0052648606 -0.06677096 -0.0781788 -0.05657206 -0.08422791 -0.059775986 0.0058246297
0.13101609 0.031220086 0.019388074 -0.09532736 -0.040654376 -0.0072872494 -0.052598484 -0.051589366
0.062732145 -0.08071453 0.044289187 -0.10594805 0.05252163 0.08173484 -0.03826696 0.013853069
-0.018045017 -0.047506884 0.10832265 -0.07484541 -0.12333548 -0.15700562 -0.09321358 -0.040334497
-0.009282932 -0.07723644 0.06581075 -0.07423178 -0.10012421 -0.00756473 0.0456625 -0.04336477
-0.0065678842 -0.10123731 0.034006096 0.021054475 -0.07149344 -0.06458634 0.085675664 0.0927266
-0.072254345 0.101214305 0.07735657 -0.077598505 0.009586117 -0.03343539 0.06867509 -0.041937314
-0.08842932 0.11029253 0.03249924 -0.06596322 -0.06828484 -0.079234146 0.058815192 -0.08607183
-0.08666874 0.032554504 0.0533312 0.0676392 -0.018936867 -0.028199831 0.04136345 0.030049695
-0.0003799016 0.051812336 -0.035116646 0.01947494 0.07399191 -0.05841309 -0.018902157 -0.051073767
0.11969139 0.13496354 -0.055249505 -0.054264057 0.0091752885 0.032331955 -0.052345 -0.07097685
0.08361386 0.043588225 0.093714125 0.00052170374 -0.03109728 -0.019523647 -0.03912632 -0.029674144
-0.11302058 -0.07280936 -0.08718133 -0.12314016 0.1045693 -0.064455494 -0.0337693 -0.061786518
-0.09607522 -0.00030978318 -0.10548745 -0.1065494 -0.10395412 0.013492505 0.035770547 -0.091801055
-0.0979357 -0.07549632 -0.053736467 -0.088939406 0.08850916 0.034136686 -0.112923205 -0.059112236
0.12447751 0.047492143 0.07068931 -0.05143767 0.090118214 -0.07539392 -0.05764921 0.103323266
0.06396463 0.121980056 0.065013245 -0.091048025 0.053563245 0.07219466 0.09283326 -0.04229034
-0.057079263 -0.11250201 -0.028421463 -0.00819721 -0.052180264 0.137507 0.020722965 0.052018113
-0.11351106 0.0020015992 0.05332066 -0.0032010681 -0.081811346 -0.0036579056 -0.025939781 0.1336646
-0.0879469 0.01078196 -0.06300189 0.090239875 0.07471513 0.0662379 0.037886396 -0.0823852
0.0077329483 0.106785625 -0.093608655 -0.038602203 0.029647864 0.0027375058 -0.010269629 -0.031830233
-0.05323451 -0.0017400278 0.05577873 0.013837899 -0.1013833 -0.038299322 0.118901245 -0.048005126
-0.06294306 -0.013303682 -0.072526 0.11343508 0.039462697 -0.056800824 0.005030996 -0.09221802
0.14132282 0.122267425 0.059907492 0.06703024 0.029946415 0.10588798 0.038052365 0.09626277
-0.06498948 -0.10489305 0.019396497 0.00481088 -0.111019984 0.012110535 -0.004317744 0.16636184
0.02578924 0.0078373775 0.10567361 0.06680858 -0.008210565 -0.06347108 0.0956475 -0.09901167
0.030105662 0.046882868 0.060047723 0.05340642 -0.008667826 0.082525454 0.020760307 0.004941155
0.032346934 0.13250762 0.002061434 -0.014055089 0.035732653 0.08775247 0.1932091 0.2152752
0.01861248 0.026249986 0.00763696 0.083941795 0.056355227 -0.010765201 0.13040315 0.11496091

bias f4 [32]
00000000: 944e 0bbd 1a6f d0bd d60f 2e3d f5d1 1fbe
00000010: 3069 51bc e60b 8b3d 70e2 a33d 5f5d 063c
00000020: c75c cd3d b70a ef3d 78a1 bcbd 9832 c0bb
00000030: 3128 2ebd b1a7 e23d 2671 043e 0770 d53d
00000040: 9d67 233c 54e6 b0bd 1f81 92bd 65ed 92bc
00000050: e9e5 04be c29d d3bd 36ce 6bbd 8d33 013e
00000060: 8e05 2ebd 1d22 77bc 525e d73d 5ee4 0bbc
00000070: 88c8 89bd 3850 41bd f5ab 73bd 4c89 843d
-0.034010485 -0.10177441 0.04249557 -0.15607436 -0.012781426 0.06789379 0.08002174 0.008200972
0.100274615 0.116719656 -0.09210485 -0.0058654062 -0.0425188 0.11067141 0.12933788 0.10421758
0.009973434 -0.086376816 -0.07153534 -0.017935464 -0.12978329 -0.10332824 -0.057569705 0.12617321
-0.042485766 -0.015083817 0.10516037 -0.008538334 -0.067277014 -0.047195643 -0.059490163 0.064715

weight f4 [32, 32, 5]
00000000: a343 44bd 84bd 8dbc 8883 9f3b 1b1f 143e
00000010: 4246 aebc 0f0b c0bd 863c 83bc 66f6 04bd
00000020: 2f0e 0f3c dc73 ed3c cac4 66bb 9ad9 b73c
00000030: 8fea 273c 0317 89bc eafe 7cbd 4eae afbd
00000040: 6a98 37bd 5c0b c03c 58c3 9ebd 3dca 64bd
00000050: a265 dcbd 4053 96bc cb01 36bc 80ab e13c
00000060: 8004 abbb bc91 00be 3cc9 0dbd 48be 033e
00000070: 1d16 2bbc adf6 09be b595 6f3d deb3 e13b
00000080: 46fd 97bd 174c 9cbd 6495 7b3d b033 a8bd
00000090: c4e5 1bbd a349 6b3d 767f 26bc cabf 843c
000000a0: b921 7fba cda5 c1bd 38d3 d6bc 0cc2 afbd
000000b0: edc4 063d 7b7c bebd 4228 3b3d 13c8 4f3d
000000c0: 9d3e 0ebc a9c7 4dbc 9662 983d ff8a e93d
000000d0: e3f0 7e3d 1ad4 593c f86f 68bd c8be 8e3d
000000e0: b793 5d3d 2c1e a6bd a48b df3c 7e78 683d
000000f0: 634e 46bd ef5e 44bc 3aa8 fcbd b426 3ebd
00000100: 5f27 9a3d e81f 153d b47c 29bc 3b6e c5bc
00000110: 153e a33d 65e3 053e 3166 4cbb 4712 53bd
00000120: 00a5 963c f2c4 41bb 500d 7fbd 48cf 52bc
00000130: 2e03 3c3d 5246 d73b 29d0 2dbd cc24 7b3d
00000140: 797b 693d f70d 6e3d 476e c23c bbef 0d3d
00000150: 876d 0d3d aeeb cbbd 35e8 85bc a483 0abd
00000160: bc26 ae3c fbb4 eb37 d9f6 a4bc e001 cabd
00000170: d2d9 1ebd 564a 19bd 3833 e03d ba91 cabc
00000180: 7451 973d de79 b1bd 6acf 9bbd 7395 c6bc
00000190: b230 6ebc 84ed babc 073e 203d 4ebd 9b3d
000001a0: 3ace cebc c487 d43c 411a 54bc 1db1 b4bc
000001b0: e066 933d b101 0e3c b82c a93c 9f36 173c
000001c0: 23c7 ce3c 5b7f 79bc 34d8 b1bd ae47 ddbd
000001d0: 6dd4 01bd de35 7f3c d876 623d 2c2f adbd
000001e0: e159 1b3a 6a2c 8d3d 3e55 593d b22c 813c
000001f0: 080e 3c3c 3aa1 793c 2b25 a6bd 8cc3 b03d
00000200: 1fdf d83b 3456 b83c fae3 afbb e605 413d
00000210: 7b40 053e ae53 2d3d aabe cabd 3c0a 09bd
00000220: 82a4 d53c d368 2e3d af28 4c3d 39cc 36bd
00000230: a927 bc3c 7af5 5dbd 7133 e1bc ddaf 363c
00000240: 67fb 9e3c d9bd 30bc ba8f 3ebc 5477 a9bd
00000250: 2cd5 383c 8ab6 773d 4a9a abbc 43d3 463d
00000260: 9895 04bd 5c4b a1bc 13ee d9bd 2601 35bd
00000270: 5d13 a3bc 605f 83bd f234 d9bd 9fb4 a8bd
00000280: 29ce 49bd af44 91bc 05e2 243d 51c2 ff3b
00000290: c83d a93c e20d 83bd 313e 8a3c fa63 e3bd
000002a0: a830 82bd 977c 83bd 2397 8bbc d158 8e3d
000002b0: d2c7 c4bd 9942 4bbd 09be 493d 4449 d13b
000002c0: 275c 46bd 0406 8ebd ac92 b3bd 992d cdbc
000002d0: 0bbb 903d 6aa9 263d 4afd 693d 3900 78bb
000002e0: feb0 88bd 8619 4b3d f279 b2bd 6f63 5cbd
000002f0: 22e2 e4bb 5ce1 debc 2ec4 433d 6bd8 7a3d
00000300: 9a35 5f3c 5c15 eebc 5390 a3bd dca2 b9bd
00000310: fc80 ddbc c859 6f3b b960 fcbd 2922 f8bc
00000320: 002f 8b3a 5383 ca3c 4fa4 693c 1f92 cebd
00000330: 6b0d dabd bbd9 a53d c45f aa3d d7f9 8ebc
00000340: 424f b43d e0fd 2f3d 8940 b13d 1712 043d
00000350: 2258 c63d a7ab 823d 24ed ecbc ebe7 233d
00000360: 1f14 c03d 3357 5e3d ab75 68bc 1628 10bd
00000370: 403c 033e e04c ff3d 36b1 7cbd 196e 8fbb
00000380: 0feb 503c 508c ecbc f936 07bd 7aed 723d
00000390: e9dd 123d 06e2 b4bc d830 dabd 7a04 81bb
000003a0: d34a 79bd 6af8 a53d da43 08bd 1fdf 53bd
000003b0: ac9a 72bc 5502 ca3d 2a4b 3b3d a0a8 653d
000003c0: 9b80 67bc 6f33 053e ef78 2c3d eab0 c83d
000003d0: 9370 e53a b041 8cbd 8fc7 8cbd e358 453d
000003e0: 51ea f63c 6d21 dcbd 048e 8d3d 3042 43bd
000003f0: f679 1b3d d242 ee3b febf 363c c170 6a3d
-0.047916066 -0.017302282 0.0048679747 0.14464991 -0.021273736 -0.09377109 -0.01602007 -0.032461546
0.008731409 0.02898591 -0.003521251 0.022442628 0.010248794 -0.016734606 -0.061766542 -0.08578168
-0.044823088 0.023442917 -0.077521026 -0.055856932 -0.107615724 -0.018350244 -0.011108826 0.027547598
-0.0052190423 -0.12555593 -0.03461574 0.12865555 -0.010442284 -0.13473006 0.05849238 0.006887897
-0.07421355 -0.076317005 0.061421767 -0.082129836 -0.03806092 0.057443272 -0.010162225 0.016204733
-0.0009732503 -0.09455452 -0.026223764 -0.085819334 0.032902647 -0.093010865 0.04569269 0.050727915
-0.00868192 -0.01255981 0.07440679 0.114034645 0.062241446 0.013295198 -0.056747407 0.069699824
0.05409595 -0.081112236 0.027288266 0.056755535 -0.0484146 -0.011985525 -0.12336774 -0.04642363
0.07527041 0.03640738 -0.010344673 -0.024100414 0.079708256 0.13075025 -0.003118884 -0.051531103
0.018389225 -0.0029566851 -0.062268555 -0.0128668025 0.04590147 0.006569662 -0.042434845 0.06131439
0.05700252 0.058118787 0.023734225 0.034652453 0.03452828 -0.09957062 -0.016346077 -0.03381695
0.021258704 2.8098459e-05 -0.020137237 -0.09863639 -0.03878195 -0.037424408 0.10947269 -0.024727691
0.07388583 -0.086658224 -0.076079205 -0.024241185 -0.014537977 -0.022818334 0.039121654 0.076044664
-0.02524482 0.025943644 -0.012945713 -0.02205711 0.07197356 0.008667395 0.020651206 0.009229331
0.02524144 -0.015228118 -0.086838156 -0.108046874 -0.031696726 0.015576808 0.05528912 -0.08456263
0.0005926174 0.06893237 0.05305981 0.015768383 0.011477955 0.015236193 -0.08112558 0.086310476
0.006618395 0.022502042 -0.005367753 0.047124766 0.13012879 0.04231613 -0.098996475 -0.033457026
0.02607942 0.042580437 0.049843486 -0.044628356 0.02296813 -0.054189183 -0.02749035 0.0111503275
0.019406987 -0.010787451 -0.011630947 -0.08274713 0.011281293 0.060476817 -0.020947594 0.04854132
-0.032369226 -0.019689254 -0.10641112 -0.04419055 -0.019906694 -0.06414676 -0.10605802 -0.08237576
-0.049268875 -0.017732946 0.04025461 0.0078051467 0.020659342 -0.06399132 0.016875358 -0.111030534
-0.06356937 -0.06420248 -0.017039841 0.06950534 -0.09608425 -0.04962406 0.049253497 0.006386908
-0.048427727 -0.06934741 -0.0876821 -0.025046157 0.070669256 0.04068891 0.05712632 -0.003784193
-0.066743836 0.049584888 -0.087146655 -0.053805765 -0.006984965 -0.02720707 0.047794513 0.06124155
0.013623619 -0.02906292 -0.07986512 -0.09064266 -0.027039044 0.003652202 -0.12323136 -0.030289726
0.0010618865 0.024720823 0.014260366 -0.10086464 -0.106470905 0.080981694 0.08319047 -0.017453117
0.0880418 0.042966723 0.08654887 0.032243814 0.09684779 0.06380396 -0.028921671 0.040016096
0.09378838 0.05428238 -0.0141882105 -0.03519448 0.12815952 0.124658346 -0.06169244 -0.0043771383
0.012751355 -0.0288755 -0.03301141 0.059308507 0.03585616 -0.022080433 -0.106538475 -0.003937301
-0.060862374 0.08104022 -0.033267833 -0.051726457 -0.014807384 0.09863726 0.04572598 0.056069016
-0.014129783 0.13007902 0.04210752 0.09799369 0.0017504863 -0.068484664 -0.06874 0.048180472
0.030141028 -0.10748563 0.06911853 -0.047670543 0.037958108 0.007271149 0.011154173 0.057236437

bias f4 [32]
00000000: adca 40bb 8706 7b3c 0227 98bd 3b60 023d
00000010: c621 2ebd 8ecc 91bd ddca 77bd f996 16bd
00000020: d04e 44bd 330b 613d d7b4 97bc 33cb 8b3d
00000030: b045 e73c 127b b73b e87a e6bc 685f 703b
00000040: 7ffc 913a 914d 05bd 584e 803d c6ea 8e3d
00000050: f433 073d eff0 aa3d e1b1 f43c 9805 d43d
00000060: 6484 fcbc d870 4f3d b96e 6c3d adb7 04bd
00000070: add7 9cbd 0da1 e5bc 75ef 2ebd cd5f b4bd
-0.002941768 0.01532138 -0.07429315 0.031830054 -0.042512678 -0.07119094 -0.0604962 -0.036765072
-0.047926724 0.05494232 -0.018518848 0.068258666 0.028231472 0.005599388 -0.028134778 0.003667796
0.0011137872 -0.032544676 0.06264943 0.06978373 0.03300853 0.08346736 0.029869976 0.103526294
-0.030824848 0.050644726 0.05772278 -0.03240173 -0.076583244 -0.028030897 -0.042708833 -0.08807335
