results/LB_unet_matrixlonlatcov_30s.pt (torch, 103587 bytes, 49 tensors)

weight f4 [8, 1, 1, 1]
0.047630478 0.9605733 -0.11236858 0.53655124 -0.12115455 -0.14244854 -0.5665306 0.25863403
00000000: 2d18 433d 22e8 753f 8021 e6bd 6c5b 093f
00000010: e01f f8bd 08de 11be 2608 11bf ae6b 843e

bias f4 [8]
0.3468986 -0.37448752 -0.60994554 0.5568772 -0.19750643 -0.85394263 -0.79367304 -0.66342235
00000000: b19c b13e d4bc bfbe 6425 1cbf 818f 0e3f
00000010: 203f 4abe fc9b 5abf 282e 4bbf 0cd6 29bf

weight f4 [11]
1.0111498 1.0239285 1.0 0.9943109 1.0 1.0 1.0 1.0000569
0.8887461 0.8961994 1.0832329
00000000: 5b6d 813f 1710 833f 0000 803f 298b 7e3f
00000010: 0000 803f 0000 803f 0000 803f dd01 803f
00000020: dd84 633f 536d 653f 60a7 8a3f

bias f4 [11]
-0.030257521 -0.058677845 0.041234784 0.017217034 0.045332253 -0.042997237 -0.028908558 -0.05342551
-0.038450032 0.011936021 -0.037489705
00000000: 9fde f7bc 2e58 70bd cee5 283d bd0a 8d3c
00000010: 50ae 393d df1d 30bd a4d1 ecbc b5d4 5abd
00000020: c87d 1dbd 4d8f 433c ce8e 19bd

running_mean f4 [11]
6.966955 5.0234594 0.0 11.463884 0.0 0.0 0.0 0.1898284
-0.09559048 0.035200633 0.44167095
00000000: 4cf1 de40 2ec0 a040 0000 0000 126c 3741
00000010: 0000 0000 0000 0000 0000 0000 6062 423e
00000020: f1c4 c3bd 8a2e 103d b222 e23e

running_var f4 [11]
0.4757801 84.647385 3.105901e-36 60.373264 3.105901e-36 3.105901e-36 3.105901e-36 0.39462718
0.8270309 0.76190597 0.11547516
00000000: 7399 f33e 764b a942 441c 8404 397e 7142
00000010: 441c 8404 441c 8404 441c 8404 930c ca3e
00000020: 4cb8 533f 450c 433f 3e7e ec3d

weight f4 [8, 11, 5]
-0.057107504 0.07240815 0.09872667 0.022106012 0.04505305 0.12941204 -0.048115876 -0.1285986
0.041654304 0.1204551 -0.011362697 -0.0326273 0.026325269 -0.008841593 0.023446944 -0.07330597
0.109959565 0.04525883 0.16565353 0.08451167 -0.04423304 0.025506169 -0.04171579 -0.09501769
-0.012959637 0.08246044 0.12086193 -0.049892187 -0.09080568 0.055294745 0.07723834 -0.039334048
0.0037616673 0.099512026 0.039244924 0.049584232 0.090620786 -0.011304153 -0.007231007 -0.034655455
0.069179624 -0.00816799 -0.04769042 0.12670387 0.042728875 -0.05593152 -0.009225431 -0.07197003
0.010942241 0.09614954 0.045215286 -0.11826295 -0.08204733 -0.065594725 0.011662263 -0.08174405
0.0034260913 -0.13942428 0.023943176 0.04485751 0.0015795998 -0.033981573 -0.09755894 -0.07875529
-0.08365372 0.1174855 0.15348509 -0.072281346 0.035386577 -0.04417558 -0.13743633 -0.07674931
0.025807912 0.016590193 0.047925774 -0.11169353 -0.074053675 0.030992707 -0.011239968 0.06032819
-0.09241876 0.07731087 -0.056219507 -0.06156156 -0.023170326 -0.11732449 -0.13294989 0.08493631
-0.12828626 -0.0060823215 -0.06895561 -0.010162202 0.08422211 -0.13093685 -0.07829331 0.03412128
-0.07251915 -0.052783433 -0.06954025 0.00400357 -0.05659538 -0.040113416 -0.01185361 0.100937426
0.08015748 0.00028441034 0.15782042 -0.06981952 0.13404116 0.054601617 0.037027974 0.039293077
0.00013175905 0.0436498 -0.009024241 0.056265984 0.073105305 -0.14891346 0.030147698 -0.15982188
0.08028941 -0.032016907 0.06204719 0.07100963 0.037699256 -0.07459425 -0.0004908667 -0.07465504
-0.062348485 0.012864974 0.009858256 0.12107971 0.052191906 0.14867868 0.1396547 -0.09607282
-0.019874336 0.013953557 0.01660186 -0.0372687 0.005647829 0.098438025 -0.09999562 0.104451194
-0.1010404 -0.13549006 -0.1107399 -0.14979905 0.037503805 -0.17620018 -0.046481393 0.08117891
0.020360246 0.07020364 -0.05834125 0.018144919 0.07319312 0.047669347 -0.053990822 0.0039526704
0.16274211 -0.070835255 -0.051536277 0.04538424 -0.10070359 -0.06370705 0.047315896 -0.11335325
-0.02931026 0.06022573 -0.13685796 -0.07603014 0.067663565 -0.13477316 0.057049718 0.10539198
-0.02024464 -0.08529007 0.12667593 0.15917994 0.09681092 0.12760442 -0.10261091 0.119249195
0.052783005 -0.07481442 0.106511876 0.05055319 -0.08747616 -0.018089889 0.073567785 0.038281627
-0.037128236 0.04647374 -0.12507734 -0.04500682 -0.029330743 0.09746618 0.1012362 -0.014109987
-0.12641409 0.05471068 0.033408348 0.022995573 -0.013760927 0.086787105 0.02347719 -0.08600449
-0.06628898 -0.011391084 -0.04079694 -0.07009878 0.084310435 0.0684644 -0.045039926 -0.013365517
0.07585457 -0.08922796 -0.17445907 -0.020855483 0.043311566 0.059987273 -0.06390993 -0.05030385
0.085018344 -0.04106432 -0.114074126 0.048197743 -0.011219013 0.002431316 -0.08574462 0.06609037
0.00964117 -0.04323886 -0.004521707 -0.10034674 0.039287228 -0.09466746 -0.022060916 0.008029361
0.010431841 0.047528777 0.0020286045 0.010157882 0.098233104 -0.061109617 0.05015768 0.062093046
-0.114791475 -0.096594244 -0.10134804 -0.12454389 -0.03715391 -0.06705253 -0.04213205 -0.13594759
00000000: 8fe9 69bd b94a 943d 3531 ca3d ab17 b53c
00000010: 8c89 383d 9784 043e 2715 45bd 5aaf 03be
00000020: b49d 2a3d 2ab1 f63d 9b2a 3abc 34a4 05bd
00000030: 17a8 d73c 54dc 10bc ce13 c03c 7121 96bd
00000040: 7b32 e13d 5361 393d 14a1 293e 7414 ad3d
00000050: b42d 35bd 50f2 d03c 2dde 2abd a298 c2bd
00000060: a854 54bc 05e1 a83d 7686 f73d c05b 4cbd
00000070: 54f8 b9bd be7c 623d 232f 9e3d bd1c 21bd
00000080: 4e86 763b f6cc cb3d 49bf 203d d618 4b3d
00000090: 6497 b93d 0e35 39bc 15f2 ecbb e1f2 0dbd
000000a0: 0cae 8d3d 08d3 05bc 0857 43bd a9be 013e
000000b0: 7904 2f3d 7318 65bd 4326 17bc 0665 93bd
000000c0: 1647 333c 0dea c43d aa33 393d d833 f2bd
000000d0: 6e08 a8bd 8756 86bd 1413 3f3c 6d69 a7bd
000000e0: 4688 603b 3dc5 0ebe 7b24 c43c 82bc 373d
000000f0: 930a cf3a 4330 0bbd fbcc c7bd 744a a1bd
00000100: a452 abbd 3d9c f03d 322b 1d3e 3e08 94bd
00000110: 84f1 103d 74f1 34bd 1cbc 0cbe be2e 9dbd
00000120: 1d6b d33c 28e8 873c d14d 443d 94bf e4bd
00000130: 74a9 97bd 6be4 fd3c d827 38bc b11a 773d
00000140: 0c46 bdbd 2955 9e3d 6d46 66bd f927 7cbd
00000150: b2cf bdbc d247 f0bd 0424 08be 17f3 ad3d
00000160: 795d 03be 364e c7bb 9938 8dbd 5d7f 26bc
00000170: a47c ac3d 4f14 06be 3e58 a0bd c1c2 0b3d
00000180: ec84 94bd 7133 58bd 1e6b 8ebd 6130 833b
00000190: 8fd0 67bd f74d 24bd a535 42bc 48b8 ce3d
000001a0: 9b29 a43d e91c 9539 ad9b 213e 89fd 8ebd
000001b0: 1642 093e f2a5 5f3d a5aa 173d c7f1 203d
000001c0: cd28 0a39 22ca 323d 69da 13bc 2977 663d
000001d0: 3cb8 953d c57c 18be 4ef8 f63c 59a8 23be
000001e0: c66e a43d 2924 03bd 3225 7e3d 7f6d 913d
000001f0: 896a 1a3d dfc4 98bd 82ad 00ba bee4 98bd
00000200: 2061 7fbd 9dc7 523c 8684 213c a4f8 f73d
00000210: 2ec7 553d 393f 183e a401 0f3e d4c1 c4bd
00000220: 81cf a2bc 769d 643c a000 883c 10a7 18bd
00000230: 6c11 b93b e099 c93d 81ca ccbd 82ea d53d
00000240: 45ee cebd e8bd 0abe 9acb e2bd ec64 19be
00000250: 979d 193d d26d 34be 4663 3ebd 2141 a63d
00000260: 88ca a63c edc6 8f3d 3cf7 6ebd a7a4 943c
00000270: 46e6 953d ef40 433d 7b25 5dbd 6785 813b
00000280: dea5 263e 1312 91bd b417 53bd d3e4 393d
00000290: af3d cebd d878 82bd 50ce 413d c025 e8bd
000002a0: 121c f0bc 41af 763d 7e24 0cbe b1b5 9bbd
000002b0: 3293 8a3d fa01 0abe f7ac 693d c0d7 d73d
000002c0: 16d8 a5bc 8fac aebd 56b7 013e 1100 233e
000002d0: ce44 c63d bcaa 023e ab25 d2bd ec38 f43d
000002e0: fe32 583d 4d38 99bd e622 da3d dd10 4f3d
000002f0: b326 b3bd 3f31 94bc b5aa 963d 32cd 1c3d
00000300: c713 18bd 405b 3e3d 4614 00be 1259 38bd
00000310: 0747 f0bc 599c c73d ed54 cf3d 932d 67bc
00000320: b272 01be 4e18 603d 31d7 083d 3661 bc3c
00000330: 8375 61bc 70bd b13d 3c53 c03c 1f23 b0bd
00000340: 84c2 87bd aba1 3abc b11a 27bd f38f 8fbd
00000350: f3aa ac3d 1037 8c3d c97b 38bd 0bfb 5abc
00000360: a459 9b3d 26bd b6bd 66a5 32be 1ed9 aabc
00000370: 7867 313d 37b5 753d 36e3 82bd 690b 4ebd
00000380: 191e ae3d 0f33 28bd b29f e9bd ff6a 453d
00000390: f3cf 37bc b756 1f3b e09a afbd 635a 873d
000003a0: fff5 1d3c 3b1b 31bd d42a 94bb 9782 cdbd
000003b0: a5eb 203d 03e1 c1bd 18b9 b4bc 958d 033c
000003c0: 50ea 2a3c 89ad 423d 56f2 043b 3f6d 263c
000003d0: 702e c93d 144e 7abd 2472 4d3d 4755 7e3d
000003e0: cb17 ebbd 34d3 c5bd 908f cfbd de10 ffbd
000003f0: b32e 18bd d652 89bd a892 2cbd d835 0bbe

bias f4 [8]
0.032989237 -0.09073105 0.09483823 0.14868028 0.16561949 0.084835 0.025883347 0.026647888
00000000: b91f 073d 33d1 b9bd 8c3a c23d a53f 183e
00000010: 2898 293e f9bd ad3d 5009 d43c ac4c da3c

weight f4 [8, 8, 5]
0.015237087 0.09450122 0.034610666 -0.14414744 -0.17359152 0.026876245 0.078037836 -0.08233287
0.054120935 0.15568995 0.12701666 -0.07762282 0.10464368 0.095615506 0.12817988 -0.008557521
0.1300197 -0.02761285 -0.017265834 -0.008294324 -0.0891863 -0.0041946224 -0.13440695 0.053835634
0.08321836 -0.18264377 0.13532327 -0.01647054 0.021031369 -0.11448421 -0.044698916 -0.02614339
-0.114074275 0.13917466 -0.09818297 -0.06832985 0.104518756 -0.09310487 0.0918388 -0.05896727
0.007603748 -0.09636335 -0.012676245 -0.009358043 -0.07446218 0.08440395 0.16754669 0.14154616
0.04038501 0.11691576 0.06342328 -0.04851456 0.019280642 0.13994399 -0.038474925 0.09037465
-0.112122 -0.120431356 -0.08318571 0.03854714 0.017049799 0.09640574 -0.07310346 0.115096405
-0.1670634 0.1131382 0.04867584 -0.10116412 -0.15751599 -0.12241191 -0.016056 0.021014351
-0.03309203 0.07266278 0.15824097 0.11339197 0.019473735 -0.0149002755 -0.10098468 0.14225425
0.00938926 0.16971797 0.076612405 0.106054634 0.12424205 0.06453258 0.10980734 -0.12141961
0.09493572 0.12774777 0.0990944 0.023637159 -0.066936076 -0.11248519 -0.10851094 -0.11880262
-0.09430008 -0.14122899 -0.14443469 -0.05307914 -0.13352817 0.11431463 0.005490189 -0.16303681
0.07927395 0.020344792 -0.058387913 -0.002063844 -0.111498505 0.13317683 0.071451746 -0.099131994
-0.024390006 -0.04615487 0.0012328116 0.0343079 -0.15879567 -0.002670949 -0.14538649 -0.025816333
-0.08279328 0.021732723 -0.036484357 -0.028642979 0.13181601 0.11760201 0.061545566 -0.0016136994
-0.0794425 -0.10172748 -0.106939755 -0.062977895 0.117401056 0.085605405 0.08872628 -0.1336751
-0.13724251 0.0022319886 0.16220507 0.16370204 0.1605446 -0.037672363 -0.10987409 -0.044762544
0.098640256 0.041002527 -0.01513143 -0.15471819 -0.051240865 0.17379393 0.08573101 -0.15002896
0.048693143 -0.16687907 0.05839701 -0.040288914 -0.16366327 0.12339268 0.04217609 0.047065593
0.113979 0.036118153 -0.010395064 0.11914396 0.057659477 0.15990974 0.15205236 -0.06410487
-0.15970819 -0.02734192 0.13366261 -0.12645489 0.14348675 -0.0026280188 0.144742 -0.055221613
0.17918165 0.04882784 0.15070307 -0.022749554 -0.14240044 0.09140568 -0.07511785 -0.1258167
0.060370233 -0.10950493 0.12183547 0.039404765 0.09345672 -0.07558361 -0.063287064 -0.11848539
-0.021053236 -0.09987294 0.14006701 0.053999625 -0.05062212 -0.040030967 0.0858181 -0.056010947
-0.07554757 -0.040128663 0.023259845 0.03385174 -0.0901685 0.101902805 0.11051181 0.07316694
-0.0342261 0.14072925 -0.118294954 0.0043344907 -0.020038316 0.046789095 0.04247796 0.17049602
-0.1540378 0.08677789 0.1598075 0.15817128 0.053366974 -0.19785494 -0.042114165 0.03327331
0.010198857 -0.1786987 -0.0832624 -0.19405107 -0.07736095 -0.055991393 -0.0027281747 0.07502053
-0.09126991 -0.090816736 0.11414645 -0.12675811 -0.109656714 0.041422658 -0.07027486 0.039810874
-0.007551757 0.11752875 0.051703855 0.06999301 -0.0042729555 0.032980137 -0.14565015 -0.13399227
-0.041215617 0.056641176 0.092586845 0.0996773 0.035679694 -0.05507744 -0.04651113 -0.08268196
00000000: faa4 793c db89 c13d eac3 0d3d 639b 13be
00000010: fac1 31be 922b dc3c 4dd2 9f3d 239e a8bd
00000020: eaad 5d3d 306d 1f3e a810 023e b7f8 9ebd
00000030: 6d4f d63d 10d2 c33d 9641 033e d834 0cbc
00000040: e223 053e 5834 e2bc 1471 8dbc ebe4 07bc
00000050: 4fa7 b6bd 0b73 89bb faa1 09be c182 5c3d
00000060: 636e aa3d f806 3bbe 2f92 0a3e 3aed 86bc
00000070: fa49 ac3c b376 eabd 3616 37bd aa2a d6bc
00000080: c69f e9bd cd83 0e3e 2714 c9bd 85f0 8bbd
00000090: ee0d d63d c4ad bebd fb15 bc3d aa87 71bd
000000a0: dc28 f93b 265a c5bd 06b0 4fbc 7a52 19bc
000000b0: a17f 98bd fadb ac3d 5c91 2b3e 7af1 103e
000000c0: c16a 253d 8871 ef3d 11e4 813d 34b7 46bd
000000d0: 70f2 9d3c 7a4d 0f3e e297 1dbd 5816 b93d
000000e0: 38a0 e5bd b7a4 f6bd 455d aabd 9be3 1d3d
000000f0: 05ac 8b3c 5f70 c53d 44b7 95bd aab7 eb3d
00000100: ab12 2bbe 00b5 e73d 5160 473d 222f cfbd
00000110: df4b 21be 18b3 fabd df87 83bc 4a26 ac3c
00000120: 828b 07bd 39d0 943d ec09 223e 0d3a e83d
00000130: 6287 9f3c 4920 74bc 0ed1 cebd 19ab 113e
00000140: 69d5 193c 8cca 2d3e f7e6 9c3d 2c33 d93d
00000150: 9e72 fe3d a829 843d ace2 e03d d8aa f8bd
00000160: a96d c23d 50d0 023e 01f2 ca3d b7a2 c13c
00000170: c815 89bd a35e e6bd fc3a debd ca4e f3bd
00000180: 6620 c1bd 559e 10be b0e6 13be 8369 59bd
00000190: 9cbb 08be ca1d ea3d 0be7 b33b 1ff3 26be
000001a0: 615a a23d 1faa a63c 2a28 6fbd 8e41 07bb
000001b0: 5459 e4bd 825f 083e 4b55 923d b705 cbbd
000001c0: 8dcd c7bc e40c 3dbd 4b96 a13a 7186 0c3d
000001d0: 559b 22be 170b 2fbb 32e0 14be c67c d3bc
000001e0: 868f a9bd d308 b23c 9f70 15bd aea4 eabc
000001f0: c7fa 063e 53d9 f03d 3417 7c3d c482 d3ba
00000200: c0b2 a2bd 7f56 d0bd 3b03 dbbd 8efa 80bd
00000210: f76f f03d e351 af3d 20b6 b53d 20e2 08be
00000220: 4d89 0cbe 8e46 123b 1619 263e 82a1 273e
00000230: ce65 243e 564e 1abd ab05 e1bd ee58 37bd
00000240: e703 ca3d 44f2 273d d1e9 77bc 726e 1ebe
00000250: f1e1 51bd 09f7 313e bd93 af3d 31a1 19be
00000260: 7672 473d 59e2 2abe b431 6f3d fd05 25bd
00000270: 5897 27be 4db5 fc3d d6c0 2c3d dac7 403d
00000280: d26d e93d a1f0 133d 0f50 2abc c001 f43d
00000290: 582c 6c3d 61bf 233e 9db3 1b3e 6a49 83bd
000002a0: 8b8a 23be 2afc dfbc dade 083e 647d 01be
000002b0: 31ee 123e d73a 2cbb 3f37 143e 0f30 62bd
000002c0: 657b 373e b3ff 473d e851 1a3e 465d babc
000002d0: 6cd1 11be e732 bb3d 63d7 99bd 18d6 00be
000002e0: c746 773d 1f44 e0bd e084 f93d e466 213d
000002f0: 3d66 bf3d 94cb 9abd a69c 81bd 78a8 f2bd
00000300: d677 acbc 2f8a ccbd ba6d 0f3e b62e 5d3d
00000310: 2459 4fbd 83f7 23bd 66c1 af3d bc6b 65bd
00000320: afb8 9abd f45d 24bd 6e8b be3c 1fa8 0a3d
00000330: 43aa b8bd 6bb2 d03d 0454 e23d 8cd8 953d
00000340: ab30 0cbd 541b 103e a044 f2bd 5808 8e3b
00000350: 6527 a4bc eca5 3f3d 5ffd 2d3d 8296 2e3e
00000360: 16bc 1dbe 9bb8 b13d 94a4 233e a7f7 213e
00000370: 5497 5a3d 7c9a 4abe e77f 2cbd 9849 083d
00000380: 1b19 273c cbfc 36be 7a85 aabd 53b5 46be
00000390: 6b6f 9ebd 3b57 65bd 2dcb 32bb 5da4 993d
000003a0: b8eb babd 20fe b9bd 9dc5 e93d e1cc 01be
000003b0: b393 e0bd ceaa 293d 44ec 8fbd ba10 233d
000003c0: bb74 f7bb eab2 f03d 6cc7 533d 7f58 8f3d
000003d0: 2604 8cbb 2e16 073d 5025 15be 4535 09be
000003e0: b5d1 28bd 9400 683d 2c9e bd3d 9d23 cc3d
000003f0: df24 123d e298 61bd 7482 3ebd 2955 a9bd

bias f4 [8]
0.13158686 -0.08612797 -0.065445356 0.016235927 -0.046417985 0.095320195 0.016599132 0.07015069
00000000: b5be 063e dc63 b0bd 3708 86bd 3501 853c
00000010: c920 3ebd 3c37 c33d e7fa 873c 2aab 8f3d

weight f4 [8]
0.9894548 0.9988002 0.9619796 0.9709666 0.99472135 0.9505416 1.0198336 1.0577501
00000000: e94c 7d3f 5fb1 7f3f 4c44 763f 4491 783f
00000010: 0fa6 7e3f b256 733f e889 823f 5b64 873f

bias f4 [8]
-0.0061712926 -0.013825481 0.008176874 0.005084269 0.0001438782 0.010837096 -0.016277306 -0.008333611
00000000: 8e38 cabb 4584 62bc 4cf8 053c f199 a63b
00000010: 03de 1639 138e 313c fc57 85bc b389 08bc

running_mean f4 [8]
0.30002552 0.2723194 0.08435156 0.24628429 0.23763216 0.102534294 0.26305607 0.17110012
00000000: f29c 993e 736d 8b3e 83c0 ac3d f331 7c3e
00000010: d855 733e 80fd d13d 49af 863e df34 2f3e

running_var f4 [8]
0.0243712 0.05332965 0.034569852 0.02527752 0.031076202 0.0076233684 0.018537434 0.018132586
00000000: 1ca6 c73c 3170 5a3d 1e99 0d3d cd12 cf3c
00000010: 8593 fe3c 73cd f93b d1db 973c ca8a 943c

weight f4 [16, 8, 5]
-0.12553409 -0.1504445 0.07896698 0.037911408 0.13583133 0.055725046 0.14296009 -0.0452591
-0.14811414 -0.042255796 -0.043391425 0.092840195 -0.14876276 -0.060458228 -0.14006956 0.09631057
-0.16426234 0.055456758 -0.038296185 0.10761301 0.19258645 0.050035026 -0.10645531 0.11354193
-0.1244595 0.09905894 -0.057145245 0.059268583 -0.009791548 0.13407895 -0.07079283 0.050128154
-0.19622754 -0.086194046 -0.00040580455 -0.120967545 0.09518805 0.01776514 0.13671155 0.10942555
0.10283148 0.109630875 0.14248638 0.14940113 -0.021204356 -0.049611498 -0.13587667 -0.08944541
0.012697447 -0.139328 -0.0872356 0.042539284 0.057725932 0.102455944 -0.008554704 -0.13055907
-0.032866575 -0.10803384 -0.016388096 0.010642997 -0.09859149 0.058115795 -0.043234587 0.037210766
-0.15799078 -0.0682654 0.030559883 0.105127774 0.013363868 0.0036120424 0.02606971 -0.05710024
0.08092349 0.03554884 -0.0036124988 -0.13297954 0.020280965 0.01295311 -0.009977422 0.043815047
-0.13653499 0.059623897 -0.050054822 0.126603 -0.049429707 -0.15523702 -0.15488467 0.014898674
-0.1250408 0.059877813 0.13793378 0.03139934 -0.124790795 -0.14982212 -0.1251331 -0.023755614
-0.060969703 0.057856005 0.08347906 0.0560348 0.05641476 0.020682044 -0.1169411 0.12680444
0.0046233954 -0.16341944 -0.1330344 0.051351354 0.09562076 -0.1404431 -0.04547484 -0.16079316
-0.0023316196 0.11847623 0.09964995 0.11999661 -0.04568581 -0.10473234 -0.03388887 0.02478622
-0.028977333 0.042153515 0.13438877 0.104843944 -0.030499976 0.0033135945 -0.035492584 -0.035988443
-0.08641772 -0.14936453 -0.034369346 0.033225548 -0.023302536 -0.076621585 0.005486031 0.015770905
-0.1340663 -0.114130445 0.13288167 0.10105256 0.03471038 -0.018035429 0.05186055 0.06784752
-0.030326352 -0.04213332 0.11456792 0.043805514 -0.043530058 -0.12494625 0.12849025 0.1197123
0.1643501 0.09811273 0.15815231 0.15174197 -0.07372854 -0.15596746 0.01071074 0.11275746
-0.020620786 -0.10094258 -0.022010501 0.021520037 -0.007114828 -0.14267568 -0.07869522 -0.10603446
-0.108395144 0.02784717 -0.08608925 -0.13560426 0.13461727 -0.14766628 0.14526656 -0.020087704
-0.11365415 0.04132116 0.085184634 0.11527805 0.05336898 0.0036790008 0.12774082 -0.09785644
0.013847626 0.05422521 0.08238138 0.038951293 0.08943507 -0.046739582 -0.11831224 0.124460086
-0.22014314 -0.03160027 -0.08383093 0.012650946 0.1484794 0.13533832 0.16718811 -0.133585
-0.11755821 0.07646228 0.11259955 0.10364538 0.12510717 0.021748308 0.15786943 -0.0860582
-0.02561943 -0.0048132045 0.07013206 -0.0010452798 0.12535138 -0.03336566 0.15365219 -0.05844715
0.19563225 0.096446894 -0.021099322 0.040069584 0.11890896 0.04165132 -0.023215778 0.12794356
0.095262595 0.06194517 -0.07387409 0.1293704 -0.0050664814 -0.038653404 -0.009775567 0.087241426
-0.079768546 0.0191425 -0.059189476 -0.053900562 0.025661118 0.14129506 -0.045503195 -0.103767864
0.08230423 -0.031728815 -0.11286814 0.14772563 0.126719 -0.027802464 0.06868176 0.097082965
-0.10053251 0.0003921611 -0.12245269 -0.12955837 -0.13358964 -0.0047637722 0.08209129 0.083498694
00000000: 028c 00be 1f0e 1abe 71b9 a13d fe48 1b3d
00000010: 5e17 0b3e f23f 643d 2164 123e 9b61 39bd
00000020: 3cab 17be 6a14 2dbd 35bb 31bd 0023 be3d
00000030: 4455 18be 0ca3 77bd 656e 0fbe 7a3e c53d
00000040: 6334 28be a026 633d 76dc 1cbd 3664 dc3d
00000050: 6235 453e 87f1 4c3d 3e05 dabd ac88 e83d
00000060: 9fe4 febd 6adf ca3d 2211 6abd 9dc3 723d
00000070: bb6c 20bc fe4b 093e d5fb 90bd 2e53 4d3d
00000080: dfef 48be 8186 b0bd 2ac2 d4b9 d5bd f7bd
00000090: f4f1 c23d 3388 913c 1dfe 0b3e 811a e03d
000000a0: 5099 d23d 2786 e03d f3e7 113e 9cfc 183e
000000b0: c2b4 adbc 6d35 4bbd 4123 0bbe 282f b7bd
000000c0: f408 503c 00ac 0ebe 94a8 b2bd ac3d 2e3d
000000d0: 0772 6c3d 6cd4 d13d 0729 0cbc 47b1 05be
000000e0: 1a9f 06bd d940 ddbd 5440 86bc f75f 2e3c
000000f0: 56ea c9bd d40a 6e3d c016 31bd 516a 183d
00000100: 56c8 21be bbce 8bbd b858 fa3c 3b4d d73d
00000110: 20f4 5a3c 04b8 6c3b 2590 d53c f1e1 69bd
00000120: 37bb a53d a99b 113d acbf 6cbb ca2b 08be
00000130: 4424 a63c 4839 543c 5778 23bc 6877 333d
00000140: d4cf 0bbe 3038 743d 4906 4dbd 38a4 013e
00000150: ce76 4abd 74f6 1ebe 169a 1ebe 9119 743c
00000160: b20a 00be 7042 753d 833e 0d3e 989c 003d
00000170: 5192 ffbd f86a 19be e422 00be 229b c2bc
00000180: 5ebb 79bd 6bfa 6c3d 12f7 aa3d bf84 653d
00000190: 2a13 673d 646d a93c d17e efbd 06d9 013e
000001a0: da7f 973b 6d57 27be 2b3a 08be cc55 523d
000001b0: d1d4 c33d 51d0 0fbe d343 3abd f6a6 24be
000001c0: 16ce 18bb aaa3 f23d 4615 cc3d c8c0 f53d
000001d0: 0b21 3bbd e97d d6bd 0ecf 0abd 790c cb3c
000001e0: df61 edbc 2aa9 2c3d 369d 093e 6cb8 d63d
000001f0: 16db f9bc e428 593b ac60 11bd 9e68 13bd
00000200: c6fb b0bd 04f3 18be dfc6 0cbd 8317 083d
00000210: f6e4 bebc c7eb 9cbd 2ac4 b33b fc31 813c
00000220: ad48 09be 39bd e9bd 2212 083e a5f4 ce3d
00000230: 792c 0e3d 09bf 93bc ba6b 543d a4f3 8a3d
00000240: f86e f8bc fd93 2cbd 96a2 ea3d 696d 333d
00000250: 934c 32bd d2e3 ffbd f392 033e b92b f53d
00000260: 654b 283e 54ef c83d aef2 213e 3f62 1b3e
00000270: fdfe 96bd efb5 1fbe 1a7c 2f3c 62ed e63d
00000280: ecec a8bc fcba cebd 5e4f b4bc ca4a b03c
00000290: 8123 e9bb 9319 12be f62a a1bd 9828 d9bd
000002a0: 46fe ddbd c01f e43c 904f b0bd d8db 0abe
000002b0: 1cd9 093e d435 17be c2c0 143e f88e a4bc
000002c0: 82c3 e8bd 6040 293d 4875 ae3d e616 ec3d
000002d0: 6e99 5a3d 641b 713b 7dce 023e f568 c8bd
000002e0: 27e1 623c 411b 5e3d 92b7 a83d 648b 1f3d
000002f0: bc29 b73d 0172 3fbd b04d f2bd eee4 fe3d
00000300: 346d 61be 496f 01bd 8daf abbd ea45 4f3c
00000310: fc0a 183e 2196 0a3e 5c33 2b3e 82ca 08be
00000320: 5cc2 f0bd 4198 9c3d 989a e63d 0744 d43d
00000330: 181c 003e 8229 b23c 86a8 213e 483f b0bd
00000340: d7df d1bc 16b8 9dbb 66a1 8f3d c501 89ba
00000350: 1d5c 003e 6eaa 08bd 0057 1d3e 4766 6fbd
00000360: d253 483e f385 c53d 7cd8 acbc 0120 243d
00000370: 8a86 f33d 939a 2a3d 042f bebc a303 033e
00000380: 0919 c33d 38ba 7d3d 4d4b 97bd ad79 043e
00000390: ba04 a6bb 0853 1ebd b329 20bc a2ab b23d
000003a0: b15d a3bd bbd0 9c3c aa70 72bd d6c6 5cbd
000003b0: 4437 d23c a7af 103e 8f61 3abd 3f84 d4bd
000003c0: 1f8f a83d 13f6 01bd 6927 e7bd 6345 173e
000003d0: a0c2 013e fec1 e3bc 06a9 8c3d 6fd3 c63d
000003e0: fde3 cdbd f99a cd39 7ac8 fabd f3aa 04be
000003f0: b9cb 08be 6b19 9cbb 7a1f a83d 5d01 ab3d

bias f4 [16]
0.047041886 0.16122252 -0.04373893 0.054436527 0.17186098 -0.0955411 -0.09415549 -0.085656
0.10002664 0.0362464 0.1275393 -0.09472352 -0.109097295 0.14934841 0.13007405 -0.05573591
00000000: feae 403d 8417 253e 9827 33bd d6f8 5e3d
00000010: 53fc 2f3e 0dab c3bd 98d4 c0bd 6a6c afbd
00000020: c4da cc3d 1b77 143d aa99 023e 68fe c1bd
00000030: 676e dfbd caee 183e 2232 053e 564b 64bd

weight f4 [16, 16, 5]
-0.04501593 -0.0741695 -0.016039377 -0.017208388 0.013876899 0.0298966 -0.012038822 0.10935229
-0.037525237 0.10226024 -0.03560063 0.026925778 0.025210595 -0.014271019 -0.036053516 -0.07329723
-0.008479814 0.03719788 0.043110218 -0.10571665 -0.10843216 -0.042656854 0.0074161375 -0.09358919
-0.04221936 0.04316233 -0.03668913 -0.012665662 0.04191497 -0.10496939 -0.021862857 -0.015471775
-0.069307566 -0.022934379 -0.0042136754 0.011042118 0.12198664 0.13336262 0.096092865 0.050774276
0.06307809 -0.024054395 0.07467822 -0.08647219 -0.060095634 0.0714243 -0.036679998 0.028252698
0.061258417 0.029979223 0.06326672 -0.050693654 -0.007186277 0.03711285 0.02484038 -0.050050437
0.013228028 0.03946595 0.06184003 0.005860071 0.025121083 -0.10577581 -0.085515484 -0.07598299
-0.017704047 0.012601912 0.04230201 -0.06535877 -0.055470996 -0.07157462 -0.09273663 -0.12814412
-0.0011172467 -0.04370097 -0.001327044 -0.042007003 0.06577727 0.06971081 -0.07235823 -0.03078836
-0.040813226 -0.05655073 -0.07637503 0.061357137 -0.014514387 0.056356687 0.008527165 -0.07513311
-0.07954722 0.016050259 -0.039682742 -0.0855581 -0.049551662 0.030814776 -0.054638695 -0.07601388
-0.029693821 -0.09132405 0.082771815 -0.010575905 -0.12536027 0.033525836 0.0847047 -0.11118785
-0.12048009 -0.076353975 -0.05658912 -0.012524764 0.018304173 -0.08366925 0.023985974 0.07220768
-0.10096943 -0.043358523 -0.04689781 -0.060617127 -0.12429363 0.055326026 -0.038647898 0.119744815
-0.01989735 0.013576606 0.021216096 0.11366187 0.06755337 -0.0031689978 -0.055516835 -0.01783195
-0.09248071 0.011763355 -0.022640157 -0.02753149 -0.09729113 0.05817593 -0.024108939 -0.11415344
0.055108365 0.075482436 0.09015845 0.021699362 -0.088546105 -0.03672841 -0.08735548 -0.08751792
0.011019803 -0.04041701 0.03318593 -0.1024624 -0.028226804 -0.07571887 -0.1113424 0.027388053
-0.08570077 -0.10484407 0.09293508 -0.07925254 0.053579133 -0.07409733 -0.06625269 0.037313357
0.09531282 -0.0530461 -0.06931676 0.057030182 0.011261312 0.042670246 0.04223682 0.12389667
-0.08859392 -0.12709035 0.032325637 0.110115886 -0.0034550654 0.0045672054 0.08081086 0.050124213
0.05491038 0.07152701 -0.0647648 -0.0013064283 0.084621325 0.077788465 0.039525107 -0.030357197
0.0773222 -0.079714715 0.123987995 -0.056754623 0.068302035 -0.06788188 0.016554285 0.06079217
0.10741933 0.030921603 0.026108744 0.11995873 0.09328215 0.06826735 -0.0862144 0.115185104
-0.02712259 0.04910004 0.016339418 -0.09198517 0.024001425 0.06910303 0.016140297 -0.06411394
0.0771888 0.065400906 -0.048624672 -0.0076842983 0.04062191 0.07649147 0.035859395 0.014846644
-0.097202115 0.027222844 -0.06408544 -0.017088363 -0.06420019 -0.114328384 0.06719779 0.08772846
-0.10654247 -0.045034412 0.027550818 0.13173829 -0.026120115 -0.03043955 -0.04187605 0.06461148
0.08025201 0.09647988 -0.037664965 0.056837354 0.083398275 -0.06880292 -0.049656205 0.027683685
-0.077062055 0.01974474 0.03209221 0.07792335 0.12010044 -0.080661446 -0.065682694 -0.015325016
-0.027678365 0.13460037 0.054503035 -0.102756396 0.008645512 0.10185118 -0.036141187 0.02447174
00000000: a062 38bd 2ee6 97bd 0365 83bc 9bf8 8cbc
00000010: ef5b 633c b7e9 f43c 7b3e 45bc 18f4 df3d
00000020: 10b4 19bd d16d d13d f7d1 11bd 7393 dc3c
00000030: 7386 ce3c fed0 69bc daac 13bd dc1c 96bd
00000040: ebee 0abc ce5c 183d 5794 303d f981 d8bd
00000050: ae11 debd f4b8 2ebd 1203 f33b b0ab bfbd
00000060: 35ee 2cbd fcca 303d 5747 16bd a383 4fbc
00000070: 08af 2b3d 31fa d6bd bc19 b3bc 547d 7dbc
00000080: 20f1 8dbd e1e0 bbbc df12 8abb 00ea 343c
00000090: 22d4 f93d 3690 083e 56cc c43d b0f8 4f3d
000000a0: 162f 813d b90d c5bc e5f0 983d 5518 b1bd
000000b0: d726 76bd e746 923d c43d 16bd 3472 e73c
000000c0: 1bea 7a3d fd96 f53c fb91 813d 26a4 4fbd
000000d0: dc7a ebbb a503 183d 0d7e cb3c b001 4dbd
000000e0: 5fba 583c 0ca7 213d f94b 7d3d d705 c03b
000000f0: bbca cd3c fda0 d8bd be22 afbd f89c 9bbd
00000100: 1408 91bc 4078 4e3c df44 2d3d d2da 85bd
00000110: 8e35 63bd b795 92bd b4ec bdbd 3638 03be
00000120: 9470 92ba caff 32bd 35f0 adba 890f 2cbd
00000130: 3cb6 863d 8bc4 8e3d 8d30 94bd df37 fcbc
00000140: c52b 27bd bda1 67bd 836a 9cbd 9f51 7b3d
00000150: c0cd 6dbc 45d6 663d 86b5 0b3c 63df 99bd
00000160: a7e9 a2bd d57b 833c 5f8a 22bd 1639 afbd
00000170: aff6 4abd 456f fc3c d3cc 5fbd 2aad 9bbd
00000180: 7540 f3bc 1b08 bbbd 4584 a93d 9046 2dbc
00000190: 715e 00be 6352 093d a879 ad3d 75b6 e3bd
000001a0: 44be f6bd 795f 9cbd fec9 67bd ab34 4dbc
000001b0: a2f2 953c c95a abbd 3c7e c43c 9fe1 933d
000001c0: 0fc9 cebd b598 31bd eb17 40bd aa49 78bd
000001d0: a98d febd 8b9d 623d 424d 1ebd c53c f53d
000001e0: c4ff a2bc 6a70 5e3c 61cd ad3c 8ec7 e83d
000001f0: 6c59 8a3d f6ae 4fbb 9f65 63bd 4f14 92bc
00000200: 8766 bdbd 16bb 403c da77 b9bc b889 e1bc
00000210: 9240 c7bd e249 6e3d 1c80 c5bc 47c9 e9bd
00000220: 4fb9 613d 8996 9a3d fea4 b83d dcc2 b13c
00000230: a957 b5bd 8770 16bd 6ee7 b2bd 983c b3bd
00000240: 678c 343c 4f8c 25bd f8ed 073d cfd7 d1bd
00000250: e63b e7bc 7f12 9bbd 7c07 e4bd e95c e03c
00000260: e383 afbd 7db8 d6bd bf54 be3d 284f a2bd
00000270: cb75 5b3d 57c0 97bd 7eaf 87bd e4d5 183d
00000280: 5e33 c33d de46 59bd f2f5 8dbd 7b98 693d
00000290: 5e81 383c ffc6 2e3d 8400 2d3d 8abd fd3d
000002a0: bb70 b5bd f923 02be e367 043d 7084 e13d
000002b0: 616e 62bb 7fa8 953b 2a80 a53d 0c4f 4d3d
000002c0: b5e9 603d c17c 923d 68a3 84bd 763c abba
000002d0: f24d ad3d 8f4f 9f3d 14e5 213d a8af f8bc
000002e0: 1a5b 9e3d 7841 a3bd 6bed fd3d 8977 68bd
000002f0: f0e1 8b3d a805 8bbd da9c 873c 3601 793d
00000300: aafe db3d 4d4f fd3c 01e2 d53c ecac f53d
00000310: b60a bf3d c1cf 8b3d 2d91 b0bd 2be6 eb3d
00000320: 3230 debc 201d 493d 3eda 853c b962 bcbd
00000330: a39e c43c e485 8d3d a838 843c 2b4e 83bd
00000340: 2915 9e3d e9f0 853d aa2a 47bd 91cc fbbb
00000350: 2963 263d 8fa7 9c3d 4de1 123d 573f 733c
00000360: e711 c7bd 7102 df3c 3a3f 83bd e5fc 8bbc
00000370: 647b 83bd 0025 eabd ff9e 893d fbaa b33d
00000380: f032 dabd 0176 38bd 41b2 e13c 67e6 063e
00000390: daf9 d5bc 5d5c f9bc 3986 2bbd 0653 843d
000003a0: 2a5b a43d 3e97 c53d 9446 1abd 49ce 683d
000003b0: b7cc aa3d 8ce8 8cbd 4e64 4bbd e5c8 e23c
000003c0: b6d2 9dbd b9bf a13c 1f73 033d 4796 9f3d
000003d0: 38f7 f53d d431 a5bd a684 86bd c715 7bbc
000003e0: bdbd e2bc aed4 093e 933e 5f3d f271 d2bd
000003f0: e8a5 0d3c 5a97 d03d c808 14bd f578 c83c

bias f4 [16]
0.043402568 -0.07507564 -0.07468461 0.10041743 -0.0993438 -0.03862064 0.030695058 0.014803479
0.05927802 -0.029036164 -0.06809743 0.047602795 -0.049290784 0.018028066 0.08749838 -0.025730899
00000000: e4c6 313d 42c1 99bd 3ff4 98bd a7a7 cd3d
00000010: c374 cbbd ad30 1ebd 3474 fb3c 4b8a 723c
00000020: 82cd 723d 40dd edbc aa76 8bbd 26fb 423d
00000030: 22e5 49bd 98af 933c 5a32 b33d 9bc9 d2bc

weight f4 [16]
0.97349304 0.96460295 1.0041957 0.97899973 1.0068669 1.0145837 1.0196035 0.98050857
1.0181533 1.0284332 1.0011119 1.0014864 1.0108654 0.9925678 0.99329937 1.0019181
00000000: d736 793f 38f0 763f 7c89 803f ba9f 7a3f
00000010: 04e1 803f e1dd 813f 5e82 823f 9c02 7b3f
00000020: d952 823f b3a3 833f 6f24 803f b530 803f
00000030: 0a64 813f ec18 7e3f de48 7e3f da3e 803f

bias f4 [16]
0.00074711745 0.010700741 -0.041903637 -0.0229964 -0.026469875 -0.04678362 0.03322831 -0.03393823
0.05894753 -0.024263168 -0.027059266 -0.05179097 0.031753823 -0.027972918 -0.014233477 0.019062929
00000000: 34da 433a 2952 2f3c 26a3 2bbd f262 bcbc
00000010: 5ad7 d8bc 2ea0 3fbd 691a 083d d002 0bbd
00000020: f772 713d 8dc3 c6bc 65ab ddbc c522 54bd
00000030: 4c10 023d 7627 e5bc 8833 69bc dc29 9c3c

running_mean f4 [16]
0.088563375 0.00013868176 0.4028458 0.40991154 0.21926437 0.10593051 0.18552709 0.19826274
0.14755946 0.28823397 0.20548105 0.18936682 0.22310294 0.43978313 0.18806598 0.101624206
00000000: b760 b53d 1a6b 1139 ce41 ce3e eddf d13e
00000010: d786 603e 18f2 d83d d0fa 3d3e 6305 4b3e
00000020: d419 173e 6793 933e a069 523e 60e9 413e
00000030: 1975 643e 412b e13e 5e94 403e 5a20 d03d

running_var f4 [16]
0.011861829 6.527699e-06 0.019028002 0.053080022 0.015024566 0.022225512 0.018783195 0.024601933
0.015753223 0.03971806 0.027295638 0.039674845 0.0228655 0.03714668 0.034460418 0.013660545
00000000: 1e58 423c 8208 db36 9de0 9b3c 706a 593d
00000010: 9929 763c 4712 b63c 37df 993c fe89 c93c
00000020: e70c 813c 68af 223d 1a9b df3c 1782 223d
00000030: 6e50 bb3c 1e27 183d 5e26 0d3d 7bd0 5f3c

weight f4 [32, 16, 5]
0.0048344713 0.04880585 0.038267016 0.10693266 0.014158167 0.06520333 0.11151071 -0.038904298
0.13461585 -0.040111307 0.11100156 -0.11641483 0.020626005 0.024106374 0.041799787 0.03630726
0.07897956 0.057715546 0.006661746 -0.09021932 -0.06423282 -0.067387536 0.09990129 -0.07271653
0.0754727 -0.009654195 -0.089861736 -0.044162307 -0.08820419 0.117987886 0.13337132 -0.08098534
-0.05131463 0.05255787 0.054452006 -0.03770548 0.10079014 0.0668251 0.01612805 0.08626961
0.004664035 0.0026943462 -0.053558182 0.046934277 0.069959015 -0.045789115 0.097333804 -0.005336251
-0.06701863 0.08664565 0.052584894 0.09463056 -0.104261465 -0.10448433 -0.09095598 0.07758224
0.033119626 -0.061732713 -0.049598023 0.045617998 -0.047291394 0.02096633 -0.002053653 0.05012246
-0.06441936 0.049623933 0.09698027 -0.096753456 -0.041661695 -0.10082724 -0.006522464 0.0732485
0.0762842 -0.054009184 0.08731892 -0.07931305 -0.065198675 -0.036006443 0.04018948 0.018940952
-0.10183845 -0.035711307 -0.041527577 0.026267305 0.04599318 0.024644233 -0.10927359 0.033060897
-0.06326847 -0.007898834 0.019796954 0.011668247 0.05731472 -0.038158976 0.0043678125 -0.070488244
0.03680093 -0.03778571 -0.09011539 0.03709668 0.057293136 -0.08671152 -0.04115831 -0.10829212
0.105021045 -0.07345794 -0.057921927 0.008096517 0.070800796 0.063989006 0.018237373 0.05742339
-0.095707625 0.09260264 0.08001192 0.06459793 0.0878565 0.00093969767 0.06292887 0.097444355
-0.016179495 -0.051881958 0.020582283 0.051509473 0.08798205 0.0289161 0.011216877 -0.019293344
0.066842645 0.094622 -0.030343872 0.0305933 -0.11381096 0.059765056 0.078866206 0.09673211
0.032192763 0.08046643 -0.0010096661 -0.0050649066 0.080181114 -0.0037607392 -0.028737422 -0.08285441
0.0840938 0.03593045 -0.07336574 0.025193429 -0.096125886 0.081948325 0.10555525 -0.10064848
0.06503508 0.09825572 0.039372254 -0.031273972 -0.018973334 0.08067035 0.038257085 0.046828233
-0.06299947 0.005752254 0.121463574 0.01347006 -0.088652164 0.07169031 -0.023535034 -0.08119173
0.048256505 -0.06833846 -0.03896907 0.07868109 -0.03886182 0.08177646 -0.097098544 -0.069399826
0.019495565 0.09198226 0.024795067 -0.019190801 -0.07714189 0.022836175 0.010731918 -0.10564454
0.09076609 -0.0072241863 0.015633298 -0.02876884 -0.09262101 0.054321088 -0.022182379 -0.06500977
0.072798036 -0.04459987 0.040599845 0.09591409 0.11119725 -0.07998705 0.0334124 -0.06804443
0.08219115 0.013325518 0.08964281 0.01189784 -0.055652317 -0.06927267 0.00085171126 -0.082152374
0.08359761 -0.02589789 -0.03937083 0.10623274 0.11704159 0.0817187 -0.043202985 -0.118535995
-0.12519069 -0.022057721 -0.038334 -0.08693743 0.09951813 -0.09638014 -0.006185745 -0.025082024
0.059305802 0.06263871 0.07061624 -0.10257867 0.03958944 -0.053802498 0.04353741 -0.10929998
-0.016144445 -0.019524155 -0.11905711 0.08164237 0.03976548 -0.039101228 -0.120047234 0.045038536
0.04830822 0.065829776 0.0065486976 -0.018762596 0.03963742 0.046712723 0.0030696152 0.010168608
0.015793428 0.091147184 0.093242705 -0.048446417 -0.087256394 0.0021606996 -0.09858023 0.026477303
00000000: 7c6a 9e3b a5e8 473d e0bd 1c3d 83ff da3d
00000010: a8f7 673c 5389 853d ba5f e43d 1d5a 1fbd
00000020: bdd8 093e c14b 24bd c954 e33d e66a eebd
00000030: def7 a83c bb7a c53c 4136 2b3d ecb6 143d
00000040: 09c0 a13d 2367 6c3d c74a da3b e8c4 b8bd
00000050: 7f8c 83bd 7a02 8abd 0c99 cc3d 67ec 94bd
00000060: 6e91 9a3d a12c 1ebc 6e09 b8bd 89e3 34bd
00000070: 66a4 b4bd a2a3 f13d 7e92 083e a4db a5bd
00000080: 4a2f 52bd ec46 573d 1109 5f3d 1071 1abd
00000090: 106b ce3d 99db 883d f91e 843c 1fae b03d
000000a0: c3d4 983b a193 303b d35f 5bbd 283e 403d
000000b0: ac46 8f3d 5e8d 3bbd f256 c73d b8db aebb
000000c0: 1041 89bd 4673 b13d 4263 573d abcd c13d
000000d0: 0987 d5bd e1fb d5bd 2147 babd 70e3 9e3d
000000e0: 72a8 073d 71db 7cbd 4c27 4bbd f0d9 3a3d
000000f0: 9fb4 41bd 95c1 ab3c 9496 06bb 354d 4d3d
00000100: 4cee 83bd 7742 4b3d 989d c63d ad26 c6bd
00000110: 74a5 2abd 837e cebd 65ba d5bb 4f03 963d
00000120: e43a 9c3d bc38 5dbd 43d4 b23d e16e a2bd
00000130: e286 85bd 7e7b 13bd b99d 243d 0e2a 9b3c
00000140: ad90 d0bd 0546 12bd d218 2abd 882e d73c
00000150: 5863 3c3d b4e2 c93c d5ca dfbd dd6a 073d
00000160: e692 81bd 1c6a 01bc 392d a23c 2d2c 3f3c
00000170: d7c2 6a3d 964c 1cbd de1f 8f3b 245c 90bd
00000180: 92bc 163d 30c5 1abd 6b8e b8bd b0f2 173d
00000190: 35ac 6a3d cf95 b1bd 9e95 28bd 42c8 ddbd
000001a0: 4615 d73d 1e71 96bd 8b3f 6dbd 41a7 043c
000001b0: 0200 913d ab0c 833d 8b66 953c ca34 6b3d
000001c0: 5c02 c4bd 74a6 bd3d 4add a33d eb4b 843d
000001d0: 1cee b33d 0b56 763a dae0 803d e890 c73d
000001e0: dc8a 84bc 2d82 54bd 2d9c a83c 99fb 523d
000001f0: ef2f b43d 75e1 ec3c fec6 373c 130d 9ebc
00000200: cce4 883d 2ec9 c13d b693 f8bc cd9e fa3c
00000210: b815 e9bd 34cc 743d 9b84 a13d 7c1b c63d
00000220: 8fdc 033d 95cb a43d c656 84ba 84f7 a5bb
00000230: ff35 a43d bc76 76bb be6a ebbc 93af a9bd
00000240: 5f39 ac3d cf2b 133d c740 96bd 7362 ce3c
00000250: a6dd c4bd 86d4 a73d 5a2d d83d ca20 cebd
00000260: 1d31 853d 4c3a c93d cd44 213d 2319 00bd
00000270: f76d 9bbc 7f36 a53d 76b3 1c3d f6ce 3f3d
00000280: de05 81bd 677d bc3b e5c1 f83d 87b1 5c3c
00000290: 448f b5bd 5fd2 923d 8bcc c0bc da47 a6bd
000002a0: 9da8 453d 09f5 8bbd 089e 1fbd 8d23 a13d
000002b0: 922d 1fbd 6b7a a73d 9adb c6bd 7f21 8ebd
000002c0: 2ab5 9f3c 3261 bc3d 061f cb3c 0736 9dbc
000002d0: 91fc 9dbd ee12 bb3c edd4 2f3c 2a5c d8bd
000002e0: 92e3 b93d deb8 ecbb 6711 803c a1ac ebbc
000002f0: 16b0 bdbd ca7f 5e3d d2b7 b5bc d823 85bd
00000300: 2317 953d 5aae 36bd 064c 263d 9b6e c43d
00000310: 62bb e33d 40d0 a3bd 71db 083d e15a 8bbd
00000320: d553 a83d 4653 5a3c a696 b73d 28ef 423c
00000330: aff3 63bd d4de 8dbd 6045 5f3a 813f a8bd
00000340: 3935 ab3d d027 d4bc 4f43 21bd 8d90 d93d
00000350: 80b3 ef3d 225c a73d 9df5 30bd 00c3 f2bd
00000360: fd31 00be 65b2 b4bc 1d04 1dbd 400c b2bd
00000370: 29d0 cb3d f362 c5bd cab1 cabb d178 cdbc
00000380: a4ea 723d b948 803d 3f9f 903d c414 d2bd
00000390: 8928 223d 0260 5cbd 4954 323d abd8 dfbd
000003a0: 5b41 84bc 1ff1 9fbc 37d4 f3bd 1d34 a73d
000003b0: 21e1 223d 9c28 20bd 53db f5bd 547a 383d
000003c0: d7de 453d c3d1 863d 7596 d63b 04b4 99bc
000003d0: d95a 223d d755 3f3d 992b 493b 3c9a 263c
000003e0: 3861 813c 60ab ba3d 08f6 be3d c06f 46bd
000003f0: 7bb3 b2bd 869a 0d3b 6ee4 c9bd eee6 d83c

bias f4 [32]
-0.10430733 0.060420163 -0.037011705 -0.014188565 0.00070913514 0.150297 -0.054631393 0.040916696
0.051308166 0.00674921 0.00254368 0.084893055 0.005031734 0.06232032 0.014301863 -0.08416968
-0.112725906 0.059899807 -0.10845861 -0.053809803 -0.004295562 0.15081948 0.08734853 -0.0845207
-0.09075309 0.0025182208 0.06276639 -0.0566049 -0.06934598 -0.012881738 0.014942598 0.01654447
00000000: 159f d5bd 227b 773d 9699 17bd 2877 68bc
00000010: 41e5 393a 75e7 193e 2bc5 5fbd 4498 273d
00000020: 8328 523d 7a28 dd3b deb3 263b 69dc ad3d
00000030: 3ee1 a43b 9843 7f3d 5c52 6a3c 2761 acbd
00000040: d7dc e6bd 8059 753d 8c1f debd ab67 5cbd
00000050: c9c1 8cbb 6c70 1a3e c9e3 b23d 3019 adbd
00000060: c2dc b9bd bc08 253b aa8b 803d 8ada 67bd
00000070: 4405 8ebd ed0d 53bc ccd1 743c 4588 873c

weight f4 [32, 32, 5]
-0.0022448665 -0.010453756 0.03001523 0.05197915 0.035162218 -0.017790856 0.037363518 -0.009037404
0.056100328 0.030898137 -0.06290107 0.04592828 0.05080599 -0.062628195 -0.043427575 0.033212755
-0.006185812 -0.012069323 0.011096904 0.057528254 0.025122754 0.00925124 0.020385258 0.0205552
0.05149418 -0.009399727 0.049389318 0.005930452 -0.050730437 -0.023788603 -0.052998856 -0.0769393
0.0043748957 -0.039917335 -0.084587894 0.04316929 0.040957622 -0.065485284 -0.071054175 -0.08068791
0.054051217 -0.07253241 -0.009326529 -0.03493987 -0.07496968 -0.018091636 -0.029443717 -0.06583086
-0.07225266 0.0009547096 -0.06543729 0.04441793 -0.060726684 0.007682688 0.012701889 0.006797335
0.039252914 0.04370444 0.0013099212 -0.037247647 0.056598317 0.06766353 0.032466587 -0.05493016
0.008112292 -0.05209557 0.07081345 -0.021027146 -0.048267342 -0.037839618 -0.027813075 0.007999425
-0.066117145 -0.08452375 0.005150015 -0.033883005 -0.0010803713 -0.003497631 -0.02597648 0.015153348
0.031280983 -0.09727662 -0.08224892 0.045328323 -0.033774428 -0.079672195 -0.029539738 0.053213004
-0.011757311 0.040584676 0.021054454 -0.05153445 -0.011001712 -0.08932764 -0.021836005 0.050895873
0.008035028 -0.08948099 0.07181925 0.03779467 0.009871459 -0.0013767882 -0.04605373 -0.055726375
-0.052444916 -0.056843925 -0.0355545 -0.027698971 -0.0098274145 0.029498378 -0.0060933065 -0.023674592
-0.08642965 0.014864326 0.034790516 -0.04644411 -0.0052313926 -0.06599209 -0.070529245 -0.08421832
0.0356361 -0.033460267 -0.015100866 0.051293183 0.029235234 -0.092048444 -0.056237448 0.052618723
-0.04371349 -0.053796295 0.017286597 -0.04761036 -0.032596827 0.02688223 -0.037087593 -0.028688738
0.051719762 0.06487175 -0.050543435 -0.04112437 -0.06313119 0.050414525 0.02295251 -0.008416543
-0.01943245 -0.024637839 -0.058603983 -0.087891184 -0.0036084405 -0.061003335 -0.071681894 0.07409254
0.043562174 -0.06890036 0.008136363 -0.07250151 -0.0842116 0.016694194 0.01902946 0.021160377
-0.02969655 0.044646658 -0.05055058 -0.024149489 0.050985854 -0.06887629 0.038695443 -0.0080951555
-0.0041819746 -0.08962603 0.0003954801 -0.024965558 0.06517898 0.03570717 -0.016526185 0.06158487
-0.010009343 -0.011222257 0.014588422 0.011802279 0.054734476 0.011831246 0.098761916 0.007804415
-0.023742776 -0.048957203 -0.08641379 -0.05581548 0.058422346 0.006798545 -0.06564873 -0.015675107
-0.006772399 0.0424166 0.042586192 0.0073173065 0.0018102181 -0.0020295358 -0.090917334 -0.014466909
0.0024188845 0.04493811 -0.057831753 0.03909599 0.019519117 0.017352434 -0.038172647 -0.035319973
0.008279261 0.035704736 -0.034073446 -0.0605433 -0.09021061 -0.020628104 -0.09114664 -0.005517323
0.016616507 0.07688941 0.024071662 0.0426071 -0.03476356 -0.0549694 -0.0037465743 -0.009128602
-0.076543145 0.008462416 -0.073434055 0.027955499 -0.03589554 0.00078313274 -0.07380557 0.021128105
0.04750303 -0.043806877 -0.021052526 0.0053383354 0.0024540646 0.019787246 -0.045027263 -0.024633737
0.038480736 -0.057270277 0.05223739 -0.042384736 -0.042865053 -0.07895792 -0.011839746 0.011127192
0.06743136 -0.0018424614 -0.0048237164 -0.077155754 0.013925901 0.03680841 0.0325356 0.0046617393
00000000: 9c1e 13bb 3b46 2bbc 80e2 f53c 17e8 543d
00000010: 4206 103d 21be 91bc 7d0a 193d 9f11 14bc
00000020: 75c9 653d 171e fd3c 47d2 80bd 4b1f 3c3d
00000030: f119 503d 3643 80bd 1de1 31bd 190a 083d
00000040: 5ab2 cabb 69be 45bc cacf 353c bfa2 6b3d
00000050: 3cce cd3c 8392 173c fcfe a63c 6163 a83c
00000060: 90eb 523d 5001 1abc 744c 4a3d 3d54 c23b
00000070: b8ca 4fbd 51e0 c2bc 5415 59bd 5a92 9dbd
00000080: 495b 8f3b 5c80 23bd 6b3c adbd 48d2 303d
00000090: 2ec3 273d 261d 86bd da84 91bd b43f a5bd
000000a0: cf64 5d3d df8b 94bd 4cce 18bc 1c1d 0fbd
000000b0: b489 99bd e934 94bc f333 f1bc 54d2 86bd
000000c0: 34f9 93bd 7a45 7a3a fc03 86bd 93ef 353d
000000d0: 8bbc 78bd 0fbf fb3b 951b 503c 2ebc de3b
000000e0: aac7 203d 6d03 333d a9b1 ab3a fd90 18bd
000000f0: a3d3 673d 2d93 8a3d affb 043d 73fe 60bd
00000100: 6be9 043c 2a62 55bd a406 913d 1f41 acbc
00000110: fab3 45bd b7fd 1abd 3fd8 e3bc 0510 033c
00000120: 6d68 87bd ca1a adbd 75c1 a83b e8c8 0abd
00000130: 3f9b 8dba 8338 65bb a1cc d4bc c045 783c
00000140: 7d20 003d f738 c7bd 1f72 a8bd 31aa 393d
00000150: 0e57 0abd 2d2b a3bd 52fd f1bc e1f5 593d
00000160: bda1 40bc 1e3c 263d 647a ac3c ca15 53bd
00000170: 8640 34bc 69f1 b6bd 6ce1 b2bc 3178 503d
00000180: 5aa5 033c cf41 b7bd f915 933d 95ce 1a3d
00000190: e6bb 213c 5975 b4ba d6a2 3cbd 5741 64bd
000001a0: 7bd0 56bd 2dd5 68bd 98a1 11bd f4e8 e2bc
000001b0: 2a03 21bc 95a6 f13c 5caa c7bb 38f1 c1bc
000001c0: 0702 b1bd 8189 733c 8080 0e3d 2e3c 3ebd
000001d0: 1a6c abbb dc26 87bd a371 90bd a87a acbd
000001e0: 29f7 113d a20d 09bd 9f69 77bc cd18 523d
000001f0: bb7e ef3c e583 bcbd 3d59 66bd bb86 573d
00000200: eb0c 33bd 8159 5cbd 9f9c 8d3c 1503 43bd
00000210: 4084 05bd 1f38 dc3c 29e9 17bd a504 ebbc
00000220: 1ad8 533d 7bdb 843d a206 4fbd 0772 28bd
00000230: ed4a 81bd 767f 4e3d e706 bc3c 8ae5 09bc
00000240: cd30 9fbc 4bd5 c9bc bb0a 70bd 4b00 b4bd
00000250: 967b 6cbb a2de 79bd f5cd 92bd d4bd 973d
00000260: 406e 323d a21b 8dbd 614e 053c ac7b 94bd
00000270: 2277 acbd 43c2 883c ace3 9b3c 8758 ad3c
00000280: 2e46 f3bc 6adf 363d 200e 4fbd 26d5 c5bc
00000290: 8bd6 503d 030f 8dbd 1d7f 1e3d 8ba1 04bc
000002a0: f208 89bb da8d b7bd 7158 cf39 9284 ccbc
000002b0: 8f7c 853d ae41 123d ec61 87bc 6b40 7c3d
000002c0: 3afe 23bc 8fdd 37bc 4704 6f3c 595e 413c
000002d0: 4231 603d d8d7 413c b043 ca3d 2ebc ff3b
000002e0: 3680 c2bc 5987 48bd b7f9 b0bd c69e 64bd
000002f0: 454c 6f3d 54c6 de3b d772 86bd 1569 80bc
00000300: 00eb ddbb 07bd 2d3d dc6e 2e3d 04c6 ef3b
00000310: d744 ed3a f601 05bb de32 babd 9d06 6dbc
00000320: 2686 1e3b 0611 383d fde0 6cbd 1e23 203d
00000330: 8ee6 9f3c b126 8e3c ec5a 1cbd adab 10bd
00000340: bda5 073c 213f 123d 9990 0bbd 40fc 77bd
00000350: 57c0 b8bd 45fc a8bc 17ab babd a9ca b4bb
00000360: 571f 883c 3278 9d3d ef31 c53c c884 2e3d
00000370: 3c64 0ebd 9827 61bd 1689 75bb 2290 15bc
00000380: a7c2 9cbd f2a5 0a3c 9864 96bd ee02 e53c
00000390: 3407 13bd 264b 4d3a 6027 97bd d914 ad3c
000003a0: 8a92 423d d76e 33bd 5976 acbc 34ed ae3b
000003b0: 5fd4 203b dd18 a23c 826e 38bd b1cc c9bc
000003c0: fa9d 1d3d 3d94 6abd e0f6 553d 9e9b 2dbd
000003d0: 4493 2fbd b1b4 a1bd 7efb 41bc d34e 363c
000003e0: 7419 8a3d bf7e f1ba 4410 9ebb d603 9ebd
000003f0: 7629 643c 6ac4 163d 0d44 053d 81c1 983b

bias f4 [32]
-0.05359045 0.042675816 -0.018213142 -0.0543317 -0.03744945 -0.027675873 0.07846493 -0.02403212
-0.013721675 -0.012902992 0.036634702 0.019442165 -0.018337967 -0.024028346 -0.004643624 -0.0097269
-0.06846261 -0.023924338 0.005385307 0.04248779 0.02482167 0.05240766 -0.00026733227 0.002027641
0.040927738 0.019499766 0.06336094 0.0214669 0.05475657 -0.048850663 0.06686475 0.019517992
00000000: a981 5bbd d6cc 2e3d ba33 95bc eb8a 5ebd
00000010: 9864 19bd 83b8 e2bc 39b2 a03d 02df c4bc
00000020: e0d0 60bc 1267 53bc 450e 163d 2d45 9f3c
00000030: 8139 96bc 18d7 c4bc 8b29 98bb 935d 1fbc
00000040: 2036 8cbd f9fc c3bc 3b77 b03b ad07 2e3d
00000050: d156 cb3c 6aa9 563d bb28 8cb9 2ce2 043b
00000060: d8a3 273d f9bd 9f3c 61c3 813d 5adb af3c
00000070: 6d48 603d a217 48bd 63f0 883d 32e4 9f3c
