results/LB_unet_matrixlonlatcov_15s.pt (torch, 103711 bytes, 49 tensors)

weight f4 [8, 1, 1, 1]
0	0xbf773a5d	-0.9657343
1	0xbf075709	-0.5286718
2	0x3f42d1dd	0.76101476
3	0xbf5c2787	-0.85997814
4	0xbb23ec3a	-0.0025012628
5	0xbed47b4b	-0.41500315
6	0xbed98194	-0.42481673
7	0x3f44a0b2	0.768077

bias f4 [8]
0	0xbf0665ff	-0.52499384
1	0x3f2acb6b	0.6671664
2	0xbe2c8f7d	-0.16851611
3	0x3f4f8883	0.81067675
4	0x3e73488a	0.2375814
5	0xbe2260b6	-0.15857205
6	0xbf5c00fc	-0.85939
7	0x3e8bc59d	0.27299204

weight f4 [11]
0	0x3f5d40e2	0.8642713
1	0x3f70ec6d	0.9411076
2	0x3f7845fb	0.9698178
3	0x3f74e965	0.9566863
4	0x3f639d01	0.88911444
5	0x3f7c37cf	0.9852266
6	0x3f800000	1.0
7	0x3f6f0f3a	0.9338261
8	0x3f59f1dc	0.85134673
9	0x3f4eb102	0.8073884
10	0x3fa1576b	1.2604803

bias f4 [11]
0	0xbba044af	-0.004891
1	0x3d268a3d	0.040659178
2	0xbcc6b585	-0.024256477
3	0x3d17cad2	0.03705866
4	0x3d8fdd29	0.07024605
5	0xbc678aca	-0.014132211
6	0x3d5f6f52	0.054549523
7	0xbd42bd29	-0.04754368
8	0xbd735271	-0.059404794
9	0xbc5e339d	-0.01356211
10	0xbc8868c2	-0.016651515

running_mean f4 [11]
0	0x3f004016	0.5009779
1	0x41629f2c	14.16386
2	0x4098088a	4.7510424
3	0x41923f08	18.280777
4	0x4097f931	4.749169
5	0x3f51124d	0.8166855
6	0x00000000	0.0
7	0x40fe071d	7.9383683
8	0xbd3206b6	-0.04346343
9	0x3d59252e	0.053013973
10	0x3edcd791	0.43133214

running_var f4 [11]
0	0x3e3b9137	0.18317114
1	0x41e0ef11	28.116732
2	0x4264eb7d	57.22997
3	0x42665ba9	57.58951
4	0x3aab0db6	0.0013050351
5	0x3ec5e362	0.38650042
6	0x00000004	6e-45
7	0x42cc65ed	102.19907
8	0x3f5ca40b	0.8618781
9	0x3f5949a4	0.8487799
10	0x3e110bec	0.14164704

weight f4 [8, 11, 5]
0	0xbdcfd4b3	-0.10147991
1	0xbceba138	-0.028763399
2	0x3db356bb	0.08756777
3	0xbd18c8d0	-0.037300885
4	0xbc3ff075	-0.011715044
5	0xbc37059a	-0.011170769
6	0xbe0b4819	-0.13601722
7	0x3c17893b	0.009249027
8	0x3cdc6c1c	0.02690702
9	0xbcde3643	-0.027125483
10	0x3dec745a	0.1154563
11	0xbb9daa37	-0.004811551
12	0xbde54c3e	-0.11196183
13	0x3c0786a7	0.00827185
14	0xbd2e77b2	-0.04259462
15	0xbd1e205a	-0.03860507
16	0xbdf669c6	-0.120318934
17	0xbdab308e	-0.083588704
18	0xbd975c69	-0.07390673
19	0xba93ad79	-0.0011266909
20	0xbe013ae3	-0.1262012
21	0xbbf757bd	-0.007548301
22	0xbde86985	-0.11348251
23	0x3a3308c9	0.0006829617
24	0xbc03ec36	-0.008051923
25	0xbdc5af18	-0.09652537
26	0x3d890728	0.06690818
27	0x3d1f21bc	0.03885053
28	0x3d65740e	0.05601888
29	0x3d3b7137	0.045762267
30	0xbe26b5b2	-0.16280249
31	0x3c4278c3	0.011869612
32	0xbd22632c	-0.03964536
33	0xbdf334f2	-0.11875333
34	0xbd02280c	-0.031776473
35	0x3d09309a	0.033493616
36	0x3d8e32bc	0.069432706
37	0xbd0b6278	-0.034029454
38	0x3ccee644	0.025256284
39	0x3cf00e70	0.02930376
40	0x3e055b37	0.13023077
41	0xbd31050c	-0.043217704
42	0xbd72684b	-0.059181493
43	0x3e126549	0.1429645
44	0xbdcd1eaa	-0.10015614
45	0x3cf4d413	0.029886281
46	0x3d8bf216	0.068332836
47	0xbe0e131f	-0.13874482
48	0x3de40c52	0.111351624
49	0xbdacabe0	-0.0843122
50	0x3c337535	0.010953237
51	0x3dccd5f5	0.100017466
52	0x3d9227ed	0.071365215
53	0xbcdfe4f9	-0.027330862
54	0x3ca179ed	0.019711459
55	0xbd51ee1b	-0.051252466
56	0xbbfbbd8c	-0.007682508
57	0xbdcff424	-0.10153988
58	0xbcd17e24	-0.025572844
59	0x3e0613ae	0.13093445
60	0x3d517ecb	0.05114631
61	0xbd1b4b66	-0.037913702
62	0x3c6fce63	0.014636609
63	0xbe14224c	-0.14466208
64	0x3c24406f	0.010025128
65	0xbd50e72d	-0.051001716
66	0xbcd5ae69	-0.026084142
67	0xbc853213	-0.016259229
68	0x3d5e4e5e	0.054273956
69	0x3c932241	0.01796067
70	0xbdb9a45a	-0.09064551
71	0x3c4be80e	0.012445463
72	0xbd4bf31a	-0.049792387
73	0x3db8a3f9	0.0901565
74	0xbd5195b0	-0.051168144
75	0xbd31e4d8	-0.043431133
76	0x3dc14d37	0.09438556
77	0x3cd9f820	0.026607573
78	0xbe0ed41e	-0.13948104
79	0x3d10b3c2	0.03532768
80	0xbdfb0235	-0.1225628
81	0xbd958ff1	-0.07302845
82	0x3d41219b	0.04715119
83	0x3cb6f803	0.022335058
84	0x3d5ab7a4	0.05339779
85	0x3dba7326	0.09103994
86	0x3d935620	0.071941614
87	0x3e21b27b	0.15790741
88	0x3e472d43	0.1945086
89	0x3d37f9c1	0.04491592
90	0xbd7e2658	-0.062048286
91	0xbe14562b	-0.14485995
92	0xbc80747d	-0.015680546
93	0x3c988688	0.018618837
94	0x3cef7c2c	0.029234014
95	0x3ac38cae	0.0014919245
96	0x3bbf2832	0.005833649
97	0x3d9ec079	0.07751555
98	0x3cb40181	0.021973373
99	0xbd19136d	-0.03737204
100	0x3dd4e273	0.10394754
101	0xbcbd8b6d	-0.023137772
102	0xbb8009f5	-0.003907437
103	0xbd8185c7	-0.06324344
104	0x3d0e44c4	0.03473355
105	0xbe3db02c	-0.18524235
106	0xbe915c46	-0.28390712
107	0xbe16c5ae	-0.14723846
108	0x3e195c2c	0.14976567
109	0x3de48eae	0.111600265
110	0x3c81774f	0.015803961
111	0x3e073884	0.13205153
112	0x3d95d4ae	0.07315956
113	0x3c8927b3	0.016742563
114	0xbd727145	-0.059190053
115	0x3c4b97da	0.012426341
116	0x3e1a5077	0.15069757
117	0x3dfb5ebd	0.12273929
118	0x3d3c59b8	0.045984
119	0x3d80f24b	0.06296214
120	0x3d2c981a	0.042137243
121	0x3c73e25f	0.014885514
122	0x3c351094	0.011051316
123	0xbca82a31	-0.02052793
124	0xbe112560	-0.14174414
125	0xbbb38b9a	-0.0054792883
126	0xbd816bd7	-0.06319397
127	0x3d96b6b7	0.07359069
128	0x3e14ce94	0.14531928
129	0x3cfe16a0	0.031016648
130	0x3dd0ff48	0.10204941
131	0xb99256e3	-0.00027912026
132	0x3e11f599	0.14253844
133	0xbd99e169	-0.07513697
134	0xbcf7ce90	-0.030249864
135	0x3d549019	0.051895235
136	0xbdd96bd4	-0.1061627
137	0x3c8a0fdc	0.016853265
138	0x3d6d7d5c	0.05798088
139	0xbd9fb46d	-0.07798085
140	0x3d3dbc5a	0.046322204
141	0xbd9e7c6e	-0.07738577
142	0xbcd36bf1	-0.025808306
143	0xbe192029	-0.14953674
144	0xbe050caf	-0.1299312
145	0x3d46730a	0.048449554
146	0xbd106474	-0.03525205
147	0x3cc43105	0.023949156
148	0x3d85ffb3	0.065429114
149	0x3d57b154	0.052659348
150	0xbd2878e2	-0.041130908
151	0xbb632e71	-0.0034665132
152	0xbb5fdd19	-0.0034158884
153	0xbd90f8ad	-0.07078681
154	0xbcc2356c	-0.023707114
155	0xbd86e4d5	-0.06586615
156	0x3d87f2eb	0.0663813
157	0xbd7be9f2	-0.061502405
158	0x3d72ef6d	0.059310365
159	0x3c645d97	0.013938329
160	0xbe194b15	-0.14970048
161	0xbe321932	-0.17392424
162	0x3d43d236	0.047807895
163	0xbe38ba46	-0.18039808
164	0xbcd2b3df	-0.025720535
165	0x3dbf08ff	0.09327888
166	0xbdf6fa78	-0.12059492
167	0x3c80480d	0.015659356
168	0xbd62c0a4	-0.055359498
169	0x3db6bcf3	0.08922758
170	0x3d5751cf	0.052568253
171	0xbe01dfbc	-0.12683004
172	0x3d496ae2	0.049174197
173	0x3cff30af	0.031151144
174	0xbd316ac2	-0.043314703
175	0xbda19d6b	-0.07891353
176	0x3db57681	0.088604935
177	0x3d8fa099	0.070130534
178	0xbda9a273	-0.08282938
179	0x3d5d05e8	0.05396071
180	0x3e01f1f0	0.12689948
181	0xbdba892e	-0.09108196
182	0x3d1625b6	0.036657058
183	0xbc718dd9	-0.014743292
184	0x3d77d7d2	0.060508557
185	0x3df5f260	0.1200912
186	0xbd8cfa57	-0.06883686
187	0xbc281d92	-0.010260956
188	0xbddb0833	-0.10694923
189	0x3de2d732	0.110762015
190	0xbe2f4a53	-0.17118196
191	0x3d7729bd	0.06034254
192	0x3dad302f	0.08456456
193	0xbbfa2ba0	-0.007634595
194	0xbd05b347	-0.032641675
195	0x3dc36fcf	0.0954281
196	0x3d93eb0c	0.07222566
197	0x3e0497ae	0.12948486
198	0x3c2b7e36	0.010467103
199	0x3dd72101	0.10504342
200	0xbdd33677	-0.10313123
201	0x3dfdf953	0.124010704
202	0xbd7a6814	-0.061134413
203	0x3c4345c2	0.011918487
204	0xbdb2a754	-0.087233216
205	0xbda76105	-0.08172802
206	0x3d0435d3	0.032277893
207	0xbd876153	-0.0661036
208	0x3de36a7a	0.11104293
209	0xbd692930	-0.056924045
210	0xbd29e73b	-0.041480284
211	0x3dacdbf4	0.0844039
212	0xbd90a670	-0.070629954
213	0xbcd6c10e	-0.026215103
214	0xbd88b3bd	-0.06674907
215	0xbc812886	-0.015766393
216	0x3e2cfd2c	0.16893452
217	0x3e0d70bf	0.1381254
218	0x3d9fb741	0.07798625
219	0x3d57feb2	0.05273313
220	0xbd932d04	-0.071863204
221	0xbdc9522a	-0.09830125
222	0x3b826ed6	0.003980498
223	0x3d234be0	0.039867282
224	0xbd7221f7	-0.059114423
225	0x3db04cf8	0.086084306
226	0x3d9c926d	0.07645116
227	0xbcfd0d88	-0.030890241
228	0xbde4e190	-0.11175835
229	0xbde30a43	-0.11085942
230	0x3c68b988	0.01420439
231	0x3cbf0ac0	0.023320556
232	0x3cfe3c67	0.031034661
233	0xbdac7521	-0.08420778
234	0xbd859f04	-0.065244704
235	0x3d62a8c6	0.055336736
236	0xbddd37f9	-0.108016916
237	0xbc939870	-0.018017024
238	0xbe072b29	-0.13200058
239	0x3cb63998	0.02224426
240	0xbd7f2003	-0.062286388
241	0xbd063005	-0.03276064
242	0xbd971b49	-0.07378251
243	0xbbdf5ffd	-0.0068168626
244	0x3ba2ddff	0.0049703117
245	0x3d689b0e	0.056788497
246	0xbd0a024f	-0.033693608
247	0xbd4be226	-0.04977622
248	0xbd74d7d3	-0.05977614
249	0xbe043e30	-0.12914348
250	0x3e1080a2	0.1411157
251	0xbd8fdb48	-0.070242465
252	0xbcddb5c8	-0.02706422
253	0xbdf6ba71	-0.120472796
254	0x3d3f5baa	0.046718277
255	0x3da78e54	0.08181444

bias f4 [8]
0	0x3da7d3e5	0.081947125
1	0x3e2b4010	0.16723657
2	0xbdce4708	-0.10072142
3	0xbd24b1aa	-0.040208496
4	0x3d3e39d2	0.04644186
5	0xbdb49188	-0.088168204
6	0xbd7eef82	-0.06224013
7	0x3c5cf4ed	0.013486129

weight f4 [8, 8, 5]
0	0x3d51fc63	0.051266085
1	0xbd96536f	-0.073401324
2	0xbde6e2e6	-0.11273746
3	0x3cd2202e	0.02565011
4	0xbd4c1036	-0.049820147
5	0xbb64d438	-0.0034916531
6	0x3e2f0590	0.17091966
7	0x3e6875a2	0.22701123
8	0x3c2d10a9	0.010563054
9	0xbe15cc99	-0.14628829
10	0xbdbe5389	-0.09293277
11	0x3cee8d73	0.029120183
12	0xbd59bf88	-0.053161174
13	0x3dcdcee3	0.10049226
14	0x3c643a3e	0.013929902
15	0xbd8c0d2b	-0.06838449
16	0x3cda2cf6	0.026632767
17	0x3deb3597	0.11484831
18	0x3d938a6e	0.07204138
19	0x3d8d87c3	0.0691066
20	0x3d7cedc1	0.061750177
21	0x3e08cf51	0.13360335
22	0xbe1faaa8	-0.15592444
23	0xbd4d3749	-0.050101552
24	0x3d5f6b39	0.054545615
25	0x3bae0978	0.0053111874
26	0xbe00ea0e	-0.12589285
27	0x3d02edd1	0.03196508
28	0xbd0d090c	-0.034432456
29	0x3d42f89f	0.047600385
30	0xbdcb2297	-0.09918707
31	0x3d86a4e4	0.06574419
32	0x3d8920dd	0.06695721
33	0x3cd74129	0.026276188
34	0xbc1b6545	-0.009484594
35	0x3db17796	0.08665387
36	0x3e05eda9	0.13078941
37	0xbd56598e	-0.0523315
38	0x3c084086	0.008316165
39	0x3a9fb2d1	0.0012184029
40	0xbd99e1b7	-0.07513755
41	0x3dbd3ea8	0.09240466
42	0xbd12f112	-0.035874434
43	0x3d93a1b8	0.0720858
44	0xbd48c3ba	-0.049014784
45	0x3db7ace1	0.08968521
46	0x3d0ed5fc	0.03487204
47	0x3e0883ab	0.13331477
48	0x3d2349ca	0.039865293
49	0x3d1ee58e	0.03879314
50	0x3de77de9	0.11303312
51	0xbc6838a9	-0.014173665
52	0x3ccba117	0.024857087
53	0x3e3c47f2	0.1838682
54	0x3bff1dd4	0.007785538
55	0xbd946faf	-0.072478645
56	0xbd02ae6b	-0.03190462
57	0xbcdc102f	-0.026863186
58	0xbcbdcebf	-0.023169873
59	0xbd913391	-0.07089914
60	0x3dda2b02	0.10652734
61	0x3e1655fb	0.14681236
62	0x3df7b47f	0.12094974
63	0xbc182608	-0.009286411
64	0xbdf428f7	-0.11921876
65	0xbda9865f	-0.082775824
66	0xbe19d854	-0.15023929
67	0x3da83f25	0.08215169
68	0x3d42c40c	0.047550246
69	0xbe1f6bac	-0.15568417
70	0x3dbe859e	0.09302829
71	0xbde97aef	-0.11400401
72	0x3df30b0f	0.11867344
73	0xbd5c773e	-0.053824656
74	0xbccca579	-0.024981247
75	0xbdcbf863	-0.099594854
76	0xbe07f872	-0.13278368
77	0x3e163f24	0.14672524
78	0x3d6bd0f8	0.057572335
79	0x3dcd287f	0.1001749
80	0x3ceeb992	0.029141221
81	0x3d06e84b	0.032936376
82	0x3e10a635	0.14125903
83	0x3d90a2e3	0.07062318
84	0x3d914f0e	0.070951566
85	0x3d13d875	0.0360951
86	0x3dbb447d	0.091439225
87	0xbd928bb5	-0.07155553
88	0xbe2fe145	-0.17175777
89	0xbdae3b8c	-0.085074514
90	0xbd04c6f0	-0.032416284
91	0xbd307423	-0.043079507
92	0xbc4aac5f	-0.012370198
93	0x3c6df689	0.014524111
94	0xbd1c4ec5	-0.038161058
95	0x3db0339b	0.08603593
96	0x3d1eb8d4	0.038750485
97	0xbd7275d8	-0.059194416
98	0x3e2ec33d	0.17066665
99	0x3d06d959	0.032922123
100	0xbdf681d5	-0.12036482
101	0x3d7417f4	0.059593156
102	0xbe290244	-0.1650477
103	0xbd9d88d1	-0.07692111
104	0xbda59a17	-0.08086031
105	0xb90dde74	-0.00013529678
106	0x3d497762	0.049186118
107	0x3e3133c5	0.17304905
108	0x3de72144	0.11285642
109	0xbded71a9	-0.115939446
110	0x3dbe4c59	0.09291906
111	0xbe2189a6	-0.15775165
112	0x3ca1a7f4	0.019733407
113	0x3cc9d1e1	0.02463621
114	0x3c1c6d8a	0.0095476005
115	0x3da16363	0.07880285
116	0xbe25c4e0	-0.16188383
117	0x3d5825e3	0.052770507
118	0x3dbd6645	0.09248022
119	0x3dddba1d	0.10826514
120	0x3d9c61b7	0.07635825
121	0xbd3501ea	-0.04419128
122	0xbdb1d557	-0.086832695
123	0x3dc2602d	0.09491
124	0x389f5bc6	7.598805e-05
125	0xbe21fc54	-0.15818912
126	0xbd39bf4e	-0.045348458
127	0xbcd15d1e	-0.025557097
128	0xbdfc4329	-0.12317497
129	0xbd7ead45	-0.06217696
130	0x3dadb75f	0.08482241
131	0xbdfc8223	-0.12329509
132	0xbc00e216	-0.007866403
133	0xbe017ebc	-0.12646002
134	0x3d73cf00	0.059523582
135	0xbbafaccd	-0.0053611756
136	0xbc9634d7	-0.018335743
137	0x3de8124a	0.11331613
138	0x3d049808	0.03237155
139	0x3b6e294f	0.003634054
140	0x3bab0eb2	0.0052202577
141	0x3d9d2ef9	0.07674975
142	0x3d82f833	0.063949965
143	0x3d8f76e6	0.070051
144	0x3c99aa0d	0.018757844
145	0xbd3372e4	-0.04381074
146	0x3ba2a0d2	0.004963019
147	0xbdfe4397	-0.124152355
148	0x3d0e55a8	0.034749657
149	0xbd1ebc76	-0.03875395
150	0xbb5791f9	-0.0032893403
151	0xbe54e2f0	-0.20789695
152	0x3d3467b1	0.0440442
153	0xbe51bb9c	-0.20481724
154	0x3d01598b	0.031579535
155	0xbe0e2e5b	-0.1388487
156	0xbd3e927e	-0.046526425
157	0xbdc35983	-0.095385574
158	0x3dc05416	0.09391038
159	0xbdeb7cbd	-0.11498401
160	0x3d6b0476	0.0573773
161	0xbd3ac7ff	-0.045600887
162	0x3d04d4ae	0.03242939
163	0xbe186b66	-0.14884719
164	0xbd898b4f	-0.06716024
165	0xbd2662f7	-0.040621724
166	0x3df49233	0.11941948
167	0xbdfb6951	-0.12275947
168	0xbe00e89b	-0.12588732
169	0xbd293967	-0.04131451
170	0xbd36cddf	-0.044629928
171	0xbcddcd56	-0.02707545
172	0x3b874fec	0.0041294005
173	0xbda7f03d	-0.08200119
174	0x3d44e70a	0.0480719
175	0xbd8ef1e7	-0.06979733
176	0x3d0b6751	0.034034077
177	0x3dab0be6	0.08351879
178	0x3cfc49d3	0.03079692
179	0xba8e966e	-0.0010878572
180	0xbd3ed744	-0.046592012
181	0xbc850c2f	-0.016241161
182	0x3dab7697	0.083722286
183	0x3dac661b	0.084179126
184	0xbdc37906	-0.09544568
185	0xbd22cc77	-0.039745774
186	0x3e536799	0.20644988
187	0x3ea122b7	0.31471798
188	0x3e2ebc2d	0.17063971
189	0x3cbe5b67	0.023236943
190	0xbd4fbe8a	-0.05071882
191	0x3c689e70	0.014197931
192	0x3dfc1017	0.123077564
193	0x3e26bd04	0.16283041
194	0xbc692037	-0.014228872
195	0xbc2a70e0	-0.010402888
196	0xbcfc26a3	-0.030780142
197	0x3d58365b	0.052786212
198	0x3dd19fa8	0.1023553
199	0xbe2037c4	-0.15646273
200	0xbd083acc	-0.033259198
201	0x3ddfdca6	0.10930757
202	0xbe2a4844	-0.1662913
203	0x3d6c426e	0.05768054
204	0x3c53762f	0.012906595
205	0x3d08026a	0.033205427
206	0xbdbf8495	-0.0935146
207	0xbd5bafa8	-0.053634316
208	0xbd67d87a	-0.056602933
209	0xbd51a816	-0.05118569
210	0xbd96fe99	-0.073727794
211	0x3cf5b401	0.02999306
212	0xbdab0f66	-0.083525464
213	0xbd3442c4	-0.044008985
214	0xbdb79a61	-0.08964992
215	0x3d4f07e6	0.050544642
216	0x3d836e0a	0.06417473
217	0xbdb91149	-0.090365
218	0xbdcb36fd	-0.099225976
219	0x3c7f7784	0.01559246
220	0x3df72801	0.12068177
221	0x3d7d5e57	0.061857548
222	0x3dd5373c	0.10410926
223	0x3e11fb42	0.14256003
224	0x3b4aff58	0.003097495
225	0x3be69445	0.007036718
226	0xbd96a574	-0.073557764
227	0xbe03c96b	-0.12869804
228	0x3d29b1fb	0.0414295
229	0x3c76e59c	0.015069392
230	0xbddd883e	-0.10817002
231	0xbe002606	-0.12514505
232	0xbd0f09a1	-0.034921292
233	0xbdcd1997	-0.100146465
234	0x3dcea20c	0.10089502
235	0xbd94568e	-0.072430715
236	0x3ccb39e3	0.024807876
237	0xbd07be16	-0.033140264
238	0xbdd46e0c	-0.10372552
239	0xbd16fa79	-0.036859963
240	0xbdabadde	-0.08382772
241	0xbde2f6ef	-0.11082255
242	0x3d2cf494	0.042225435
243	0x3e1decab	0.15422313
244	0x3c958894	0.018253602
245	0xbd6216e0	-0.055197597
246	0x3c580874	0.013185609
247	0xbd8a4f7f	-0.06753444
248	0xbd9de603	-0.07709887
249	0xbba95a1e	-0.0051682135
250	0x3c9cea4f	0.019154696
251	0xbcef751b	-0.029230645
252	0xbe082b7d	-0.1329784
253	0xbd82cc0c	-0.06386575
254	0x3c885b97	0.016645236
255	0x3cc2e5a4	0.023791142

bias f4 [8]
0	0x3e444714	0.19167739
1	0x3bc3db7d	0.005977093
2	0x3d962d12	0.07332815
3	0xbe1dd43d	-0.15412994
4	0x3d68109b	0.05665646
5	0xbdea3a69	-0.11436922
6	0x3e2306a9	0.1592051
7	0xbce81a56	-0.02833287

weight f4 [8]
0	0x3f74ebad	0.9567211
1	0x3f74207a	0.95362055
2	0x3f886dc9	1.0658504
3	0x3f7d5ff2	0.98974526
4	0x3f852656	1.0402324
5	0x3f814df0	1.010191
6	0x3f7d4d79	0.9894634
7	0x3f77651e	0.9663867

bias f4 [8]
0	0x3cb59ef4	0.022170521
1	0xbcde9840	-0.027172208
2	0x3c0e42ca	0.008682916
3	0x3cd7b098	0.026329324
4	0x3d1f0a35	0.038828094
5	0x3bdb6bf3	0.006696218
6	0xbd1ce118	-0.038300604
7	0x3d38e1c2	0.045137174

running_mean f4 [8]
0	0x3ef17b93	0.47164592
1	0x3ec6cda0	0.38828754
2	0x3e53f39c	0.20698398
3	0x3c76a319	0.015053534
4	0x3e6fe800	0.23428345
5	0x3de496d0	0.11161578
6	0x3e3eb453	0.18623476
7	0x3e84e7ae	0.25958008

running_var f4 [8]
0	0x3ceb8819	0.02875142
1	0x3db713a2	0.089392915
2	0x3d0b4195	0.03399809
3	0x3b490c05	0.003067733
4	0x3d2e8d6f	0.04261535
5	0x3d0f63ae	0.03500717
6	0x3d507c6c	0.050899908
7	0x3d260f11	0.040541712

weight f4 [16, 8, 5]
0	0x3d7a8429	0.061161194
1	0x3d985862	0.07438733
2	0xbdfcb564	-0.12339285
3	0x3d3f5fa2	0.046722062
4	0xbdbbf78b	-0.091780744
5	0xbde64e80	-0.112454414
6	0xbd80ab2d	-0.06282649
7	0xbe0e93b9	-0.13923539
8	0xbc7706a6	-0.015077269
9	0xbcad018b	-0.0211189
10	0xbde38998	-0.11110228
11	0xbe10d8d7	-0.14145218
12	0xbe81796b	-0.25287947
13	0xbe1a1616	-0.15047488
14	0x3e05c959	0.1306509
15	0xbdeb831f	-0.11499619
16	0xbd580630	-0.052740276
17	0x3cb0d2e0	0.021584928
18	0xbe116fe8	-0.14202845
19	0x3d4ac3a6	0.04950299
20	0x3dd5cb6b	0.104391895
21	0x3b46273e	0.0030235793
22	0xbe6234dd	-0.22090478
23	0xbe1bd910	-0.15219522
24	0x3c2a3a82	0.010389926
25	0xbd03435f	-0.032046672
26	0xbdca614a	-0.09881838
27	0xbdcbd8a9	-0.09953434
28	0xbe33300b	-0.17498796
29	0x3e0e9704	0.13924795
30	0xbda38544	-0.07984403
31	0x3e0c1963	0.1368156
32	0x3e27a333	0.1637085
33	0x3df43c48	0.1192556
34	0x3da97b10	0.082754254
35	0x3de660d0	0.11248934
36	0xbd9594e5	-0.0730379
37	0xbb86711c	-0.004102839
38	0xbe107b48	-0.14109528
39	0xbcda003a	-0.026611436
40	0x3e241ac2	0.16025832
41	0x3dfbccb0	0.122949004
42	0x3dd2405f	0.10266184
43	0xbd143f73	-0.036193322
44	0x3e0283d0	0.12745595
45	0x3de263fe	0.11054228
46	0xbcae02fe	-0.021241661
47	0x3ca319cd	0.019909764
48	0x3d93a9dd	0.07210133
49	0x3cbdfe8e	0.02319267
50	0x3e186788	0.14883244
51	0x3a83e588	0.0010062912
52	0xbdf1dcb1	-0.11809672
53	0xbda61ee1	-0.081113584
54	0xbc3778e9	-0.011198261
55	0xbcf5fcd9	-0.030027794
56	0xbe34b799	-0.17648162
57	0xbced67df	-0.028980194
58	0x3dd979e6	0.106189534
59	0xbe192919	-0.14957084
60	0xbe2af9f6	-0.16696915
61	0xbd031122	-0.03199876
62	0x3dfe9996	0.12431638
63	0x3c6523ef	0.013985618
64	0x3d9fa629	0.077953644
65	0xbd8401df	-0.064456694
66	0xbdb6ba0b	-0.08922204
67	0xbe45e40c	-0.19325274
68	0xbcc4c45a	-0.024019409
69	0xbe3e0c59	-0.18559398
70	0xbcced689	-0.025248783
71	0xb9f09a82	-0.00045891484
72	0x3d73d033	0.059524726
73	0xbe0766ca	-0.13222805
74	0xbd0f830c	-0.035037085
75	0x3deb3767	0.114851765
76	0xbcb7f794	-0.022456922
77	0xbdae4af8	-0.08510393
78	0x3db147e6	0.08656292
79	0xbe2ef1c6	-0.17084417
80	0x3dc582dc	0.096441
81	0x3e052dea	0.13005796
82	0xbd2f0b6c	-0.042735502
83	0xbe00b6c3	-0.12569718
84	0xbd7b1254	-0.061296776
85	0xbdf631df	-0.12021231
86	0x3d425a15	0.04744919
87	0xbc571213	-0.013126868
88	0xbdcded06	-0.10054974
89	0x3d1ee1ba	0.03878949
90	0xbe4d1e11	-0.20031
91	0x3dadeebb	0.084928
92	0xbe06b40a	-0.13154617
93	0x3e0fed64	0.14055401
94	0xbcbbd88b	-0.022930404
95	0xbb4d52f0	-0.0031329952
96	0xbbb17f8c	-0.005416816
97	0x3d9709de	0.07374929
98	0x3e131d1a	0.1436657
99	0x3ddafb57	0.106924705
100	0x3df32992	0.11873163
101	0xbdb398f5	-0.087694086
102	0x3dca1b9c	0.09868547
103	0xbc916099	-0.017746257
104	0xbd5526d5	-0.052038986
105	0xbe0007e9	-0.12503017
106	0x3e102d0b	0.14079683
107	0x3d622fa3	0.05522121
108	0x3ddef498	0.10886496
109	0xbcd1bef3	-0.025603747
110	0x3db0dfed	0.086364605
111	0xbd594423	-0.053043496
112	0xbdafb4f8	-0.08579439
113	0x3cc1c014	0.02365116
114	0xbc002d31	-0.0078232745
115	0xbe00cbc2	-0.12577727
116	0xbd9bcc40	-0.07607317
117	0x3e125e8a	0.14293876
118	0xbdc53c85	-0.09630684
119	0xbdfd1fb7	-0.12359565
120	0xbddb430e	-0.10706149
121	0x3da33e30	0.07970846
122	0x3dfb7093	0.12277331
123	0x3e193f71	0.14965607
124	0x3d2cae06	0.04215815
125	0xbe2b6f8f	-0.16741775
126	0x3de81acd	0.11333237
127	0x3d4949ca	0.049142636
128	0x3dd1ac50	0.10237944
129	0xbcd769d8	-0.026295587
130	0xbe0b6eb7	-0.13616453
131	0x3daf1ede	0.08550809
132	0xbe199eea	-0.15002027
133	0x3e0d4806	0.13797006
134	0x3c4c73a5	0.012478744
135	0x3e119571	0.14217164
136	0xbc572a50	-0.013132647
137	0xbe081a47	-0.13291274
138	0x3d32faf9	0.043696377
139	0x3d35525c	0.044267997
140	0x3d63ccb4	0.055615142
141	0x3dff5705	0.124677695
142	0xbb541dd9	-0.0032366423
143	0x3daf6990	0.08565056
144	0xbd95abc6	-0.07308154
145	0x3da70861	0.08155895
146	0xbb085240	-0.0020800978
147	0xbdcbe4b4	-0.09955731
148	0xbde60da3	-0.1123307
149	0x3dbdabe9	0.09261305
150	0x3d8affac	0.06787047
151	0xbdfb1b17	-0.12261026
152	0x3d5cd35c	0.053912506
153	0x3dcde12c	0.10052714
154	0x3de90bef	0.11379229
155	0xbd43f5aa	-0.047841705
156	0x3dd53aa4	0.104115754
157	0x3de5eb57	0.11226528
158	0x3b1c3b12	0.002383892
159	0xbdf90db6	-0.12160818
160	0xbdb40bc0	-0.08791304
161	0x3d2fc3b5	0.04291125
162	0x3c221ad5	0.009894093
163	0x3daf1e89	0.08550746
164	0x3d3a0a14	0.045419767
165	0xbd61c552	-0.05511982
166	0x3d495d20	0.049161077
167	0xbd4356c6	-0.047690175
168	0x3d68b717	0.056815233
169	0xbe2ff04e	-0.17181513
170	0xbb0f00d9	-0.0021820574
171	0xbe020f29	-0.12701096
172	0xbdf34222	-0.11877848
173	0xbc3cd799	-0.011526012
174	0x3cc5cec2	0.024146441
175	0xbc9ba572	-0.018999789
176	0x3e11b689	0.14229788
177	0x3d2e0ca7	0.042492535
178	0x3e1d34ef	0.15352224
179	0x3daad45d	0.08341286
180	0x3e05bcba	0.13060275
181	0xbdd8a306	-0.10577969
182	0xbd61318e	-0.0549789
183	0x3d026834	0.031837657
184	0x3dc38d9c	0.09548494
185	0x3d567b25	0.052363534
186	0x3dd9ec23	0.10640743
187	0x3d8ffa59	0.07030172
188	0x3d8d4d6a	0.06899531
189	0x3d846dfc	0.0646629
190	0xbd8b7645	-0.068096675
191	0x3df66a1f	0.1203196
192	0xbd83b9f9	-0.06431956
193	0x3df6714b	0.12033328
194	0x3c8682bd	0.016419763
195	0x3e143bcc	0.14475936
196	0xbe1794a3	-0.14802794
197	0xbe065872	-0.13119677
198	0xbe2ae52d	-0.16688986
199	0xbc910a82	-0.017705206
200	0xbe21f4c4	-0.15816027
201	0x3ce0a508	0.027422443
202	0x3dd86b7d	0.10567377
203	0x3cd409cd	0.02588358
204	0xbd7834f4	-0.060597375
205	0x3d9549f8	0.07289499
206	0x3dea1fe7	0.11431866
207	0x3d6875b9	0.056752894
208	0x3db1ca57	0.086811714
209	0x3b20fe57	0.002456566
210	0x3dd16980	0.10225201
211	0x3d936bca	0.071982935
212	0xbd9b0b03	-0.0757046
213	0x3c788aef	0.015169843
214	0x3d9ba001	0.07598878
215	0xbd8d8e0e	-0.069118604
216	0xbd4225d4	-0.047399357
217	0xbd08f936	-0.03344079
218	0xbe0e219d	-0.1388001
219	0x3d538a20	0.0516454
220	0x3df8fa3b	0.12157103
221	0x3d079e93	0.033110213
222	0x3db89db7	0.09014457
223	0x3e20814d	0.15674324
224	0x3d4ae221	0.04953206
225	0xbd12a166	-0.035798453
226	0x3d57c4c6	0.052677892
227	0x3df371ca	0.11886938
228	0xbe073436	-0.1320351
229	0xbe0767f6	-0.13223252
230	0x3e00857f	0.12550925
231	0x3d2b072d	0.04175489
232	0xb9d745dc	-0.00041060045
233	0xbe24ff76	-0.16113076
234	0x3dda9a13	0.106739186
235	0x3d4d1a0f	0.05007368
236	0xbd4bb689	-0.049734626
237	0xbda9e60b	-0.0829583
238	0xbd6e29db	-0.058145385
239	0x3dba5a70	0.09099281
240	0x3da569e8	0.08076841
241	0xbc9945cc	-0.01871004
242	0xbe03bd3f	-0.1286516
243	0x3e049ce1	0.1295047
244	0xbde851da	-0.11343737
245	0x3d7171bc	0.058946356
246	0xbe1888c1	-0.14895917
247	0x3d8bf6b6	0.06834166
248	0x3ddd0af7	0.10793107
249	0xbda4fb11	-0.080556996
250	0xbcba8ab5	-0.022771219
251	0xbdeca61d	-0.11555121
252	0xbe42abd7	-0.19010864
253	0x3dbc087f	0.09181308
254	0x3dc27d8d	0.09496603
255	0x3d9d6eea	0.07687171

bias f4 [16]
0	0x3d88567d	0.06657121
1	0xbdcd93fc	-0.100379914
2	0x3c1dfe19	0.009643101
3	0xbdfccd4a	-0.12343843
4	0x3dfab652	0.12241806
5	0x3d145824	0.03621687
6	0xbd9e7f8e	-0.07739173
7	0x3d385137	0.044999328
8	0xbd8d965e	-0.06913446
9	0x3d6d525d	0.057939876
10	0x3deacdd9	0.114650436
11	0xbdc075c6	-0.093974635
12	0x3d158f66	0.03651371
13	0x3e1ba4db	0.15199606
14	0x3b4400d0	0.002990771
15	0xbda8373f	-0.08213662

weight f4 [16, 16, 5]
0	0xbdbb47bd	-0.09144542
1	0x3c7f50e0	0.015583247
2	0xbdd949bf	-0.10609769
3	0xbe0743a6	-0.132094
4	0x3d6f2a77	0.058390107
5	0xbd53f6c7	-0.051749017
6	0xbd365873	-0.044517945
7	0x3d6239cf	0.05523091
8	0x3b51d10b	0.0032015468
9	0xbdb2acc4	-0.08724359
10	0x3d3e5e8b	0.046476882
11	0x3cf87789	0.030330436
12	0x3da99701	0.08280755
13	0xbd8fe870	-0.07026756
14	0xbd010c74	-0.031506017
15	0x3cd279d6	0.025692862
16	0x3d576b7f	0.05259275
17	0xbda49bfe	-0.08037566
18	0xbdac114b	-0.08401736
19	0xbd679d32	-0.056546398
20	0xbd8b0ee1	-0.06789947
21	0x3babd8d6	0.0052443547
22	0xbd136dec	-0.0359935
23	0x3d6b31c3	0.057420503
24	0xbdc6ae7d	-0.0970125
25	0xbc5b65b6	-0.013390949
26	0xbd2d1362	-0.042254813
27	0x3d0f54db	0.034993034
28	0xbde77ef9	-0.11303515
29	0xbd158fb9	-0.036514018
30	0x3cacc0ee	0.02108809
31	0x3ca3b2c4	0.019982703
32	0x3d7e66a3	0.0621096
33	0xbd84f282	-0.06491567
34	0xbd97e164	-0.07416037
35	0x3cef4e85	0.029212246
36	0xbd06e03e	-0.032928698
37	0x3c76382c	0.015028041
38	0x3ac307ac	0.0014879606
39	0xbe03ea99	-0.1288246
40	0x3dc10f7d	0.09426782
41	0x3d73729f	0.059435483
42	0xbde02c84	-0.10945991
43	0xbdad0c16	-0.08449571
44	0xbd5e498d	-0.054269362
45	0x3d815e22	0.063167825
46	0x3d1a055a	0.03760276
47	0xbd83ce81	-0.06435872
48	0xbd29a06b	-0.041412752
49	0xbd2609b2	-0.04053659
50	0x3d5fbf06	0.054625534
51	0xbb8ba9a2	-0.004262165
52	0xbcb66f5e	-0.0222699
53	0x3dbdeb0e	0.09273349
54	0xbd4db5e2	-0.050222285
55	0x3d15b772	0.0365519
56	0xbd0f5f4a	-0.035002984
57	0xbc99ed95	-0.018790046
58	0x3d8298a1	0.06376768
59	0x3ce5ee39	0.028067695
60	0x3c2d8045	0.010589664
61	0xbb266d97	-0.002539491
62	0xbd3f539f	-0.046710607
63	0xbdbad01a	-0.091217235
64	0x3dbaf32b	0.09128412
65	0x3d6ebf25	0.05828776
66	0xbc9fbd77	-0.019499524
67	0xbda714e0	-0.081582785
68	0x3bdca6f6	0.0067337705
69	0xbd5c99bd	-0.053857554
70	0x3d2093cc	0.03920345
71	0x3c972dec	0.018454514
72	0x3dd55c86	0.10418038
73	0x3db0ea4a	0.08638437
74	0x3d6839de	0.05669581
75	0xbd8d08f8	-0.06886476
76	0x3d174f96	0.036941133
77	0xbd38c626	-0.045110844
78	0xbcc050bc	-0.023475997
79	0x3d1188d6	0.035530888
80	0x3dc36d12	0.09542288
81	0x3d9beaeb	0.076131664
82	0x3d56ef02	0.05247403
83	0xbb15abf3	-0.0022838085
84	0x3d9647c3	0.07337906
85	0x3d438b19	0.047740076
86	0x3d15e03d	0.036590803
87	0x3d4dc1be	0.050233595
88	0x3d039207	0.032121684
89	0x3c14f0bf	0.0090906015
90	0x3d18d5bc	0.037313208
91	0xbcc146a5	-0.023593256
92	0x3c6bc650	0.014390543
93	0xbd124ac4	-0.035715833
94	0xbd81cad2	-0.06337513
95	0x3c3daed5	0.011577328
96	0x3ca31a74	0.019910075
97	0xbda9333e	-0.08261727
98	0x3cf2b4ba	0.029627193
99	0x3d2aed4e	0.041730218
100	0xbd284a60	-0.041086555
101	0xbd1b13a8	-0.037860543
102	0x3cb64951	0.022251757
103	0x3d84cee1	0.064847715
104	0xbd8268c2	-0.06367637
105	0x3d78bcba	0.06072686
106	0x3df3e729	0.11909325
107	0xbc8340bd	-0.01602208
108	0x3d242fe7	0.040084746
109	0x3ddb5c2b	0.10710939
110	0x3dc29b6f	0.09502303
111	0xbdbb067b	-0.091320954
112	0xbc969db6	-0.01838575
113	0xbd9d29db	-0.07673999
114	0x3c8bedb9	0.017081128
115	0x3d8f29e2	0.069904104
116	0x3dcd9f54	0.10040155
117	0x3db36515	0.08759514
118	0xbd888547	-0.06666046
119	0x3d3695a0	0.044576287
120	0xbda1fc33	-0.07909431
121	0x3dfa7474	0.12229243
122	0x3c40e330	0.011772916
123	0xbd0080f2	-0.03137297
124	0x3de75c9e	0.11296962
125	0xbdbe03d3	-0.09278073
126	0x3db5dd89	0.08880145
127	0xbd9bbf87	-0.0760489
128	0x3cea9f8b	0.02864053
129	0xbdbf4a3c	-0.09340331
130	0x3d33ffbc	0.04394506
131	0x3dc2d451	0.095131524
132	0x3d623139	0.055222724
133	0x3cc03695	0.023463527
134	0x3d8eb91b	0.069689
135	0x3df5bc7d	0.11998842
136	0x3d4a38b4	0.049370483
137	0xbdd852b3	-0.105626486
138	0x3d559b79	0.052150223
139	0xbd8fddee	-0.070247516
140	0xbda2760f	-0.07932674
141	0xbd948851	-0.07252563
142	0xbd4c3361	-0.049853686
143	0xbd51fe12	-0.05126769
144	0x3e06017e	0.13086507
145	0x3cd3b138	0.02584134
146	0xbd6d0919	-0.057870004
147	0x3e1bfb56	0.15232596
148	0x3cf617a9	0.030040579
149	0x3dc4e2c1	0.096135624
150	0xbd7db6e5	-0.061942
151	0xbd3b85df	-0.045781966
152	0xbcf8dffb	-0.03038024
153	0xbc89f4f6	-0.01684044
154	0x3da441c9	0.0802036
155	0xbd666303	-0.05624677
156	0xbd5b543f	-0.05354714
157	0xbddbe4f5	-0.107370295
158	0xbcf62ee7	-0.030051662
159	0x3d084ecf	0.033278283
160	0x3c97f0af	0.018547384
161	0xbd10a354	-0.03531201
162	0xbd9cc1b5	-0.07654134
163	0xbd84692c	-0.064653724
164	0xbda81cc8	-0.082086146
165	0xbcb18e9a	-0.021674443
166	0x3d0a41ce	0.033754162
167	0xbc0124aa	-0.007882277
168	0xbd9f5128	-0.07779151
169	0xbdbe806f	-0.093018405
170	0x3d833293	0.06406131
171	0x3ba89063	0.0051441654
172	0x3dd29fc4	0.10284379
173	0x3c89c0bc	0.016815536
174	0x3d46f19f	0.04857027
175	0x3d9f0ded	0.07766328
176	0xbd378887	-0.044807937
177	0x3cb6d1c8	0.022316828
178	0x3b838000	0.0040130615
179	0xbd90a090	-0.07061875
180	0x3a4d71aa	0.00078370667
181	0x3d885e39	0.066585965
182	0x3c59d6d6	0.01329585
183	0xbde54e18	-0.11196536
184	0xbd4cdaf1	-0.050013486
185	0x3d4b9006	0.0496979
186	0xbc748d6c	-0.014926296
187	0x3dc135ed	0.09434114
188	0x3d0e2330	0.034701526
189	0x3af47e2b	0.0018653324
190	0x3acb10ed	0.0015492715
191	0xbdc82ee8	-0.09774572
192	0xbb9c957d	-0.0047785626
193	0x3d303cac	0.04302661
194	0xbd843745	-0.06455854
195	0x3c674155	0.014114697
196	0x3d90a868	0.07063371
197	0xbd361fc2	-0.04446388
198	0xbe1b6d7c	-0.15178484
199	0x3ca35e27	0.019942356
200	0x3dbdcc3b	0.092674695
201	0xbd497f53	-0.04919369
202	0xbc25c327	-0.010117329
203	0xbe2b2853	-0.16714601
204	0xbd385af9	-0.045008633
205	0x3d67bda9	0.05657736
206	0xbd492f6e	-0.049117498
207	0x3daa2361	0.08307529
208	0xbd024a08	-0.031808883
209	0xbd061f38	-0.032744616
210	0xbd0a972c	-0.033835575
211	0x3be00d65	0.0068375343
212	0xbe1248c2	-0.14285567
213	0xbde1bcd0	-0.11022341
214	0xbca03c67	-0.019560052
215	0xbd12502d	-0.035720993
216	0xbc083922	-0.008314403
217	0xbdaab983	-0.08336165
218	0x3d1d2284	0.038362995
219	0x3d358ef1	0.044325773
220	0x3db4ef16	0.088346645
221	0xbdd5ef2d	-0.1044601
222	0xbd4cfdc3	-0.050046694
223	0x3ae92a18	0.0017789034
224	0xbd5eef13	-0.054427218
225	0xbdd70d5d	-0.10500596
226	0xbc8c4d78	-0.017126784
227	0x3d840d89	0.06447894
228	0xbdef7997	-0.11693113
229	0x3dcb9941	0.0994134
230	0xbddc038a	-0.107428625
231	0xbc83f5e7	-0.016108466
232	0x3d59c9bc	0.053170905
233	0x3d49ae03	0.049238216
234	0xbba6edc1	-0.0050942604
235	0xbde9a58e	-0.1140853
236	0xbd588cc8	-0.052868634
237	0x3e096568	0.1341759
238	0x3d5fd3e6	0.05464544
239	0xbcf65d7e	-0.030073877
240	0x3dc9e526	0.0985816
241	0x3c676230	0.014122531
242	0x3d8281f3	0.06372442
243	0xbd7945cc	-0.06085758
244	0xbd619de8	-0.05508223
245	0x3deee759	0.1166522
246	0x3d74ceca	0.059767522
247	0x3c1da57b	0.009621973
248	0x3e0becca	0.13664547
249	0x3e075e96	0.13219675
250	0xbd8c74d3	-0.0685822
251	0x3d7b46af	0.061346706
252	0x3d431d15	0.047635157
253	0x3dd7f91c	0.10545561
254	0x3d1c3bbe	0.038142912
255	0xbdacb0a9	-0.08432133

bias f4 [16]
0	0x3d9e6f72	0.077361
1	0x3cdc727e	0.026910063
2	0x3dba6afa	0.091024354
3	0x3c0d2679	0.00861513
4	0xbbb518d1	-0.00552664
5	0x3d932d1e	0.0718634
6	0x3cc76cfb	0.024343958
7	0x3dea6b65	0.11446265
8	0xbb8ce8c5	-0.004300209
9	0xbc7cfbeb	-0.015440921
10	0xbd9cf63a	-0.076641515
11	0xbde2b506	-0.11069684
12	0x3cefd8b2	0.029278133
13	0x3d811602	0.06303026
14	0x3da7c153	0.081911705
15	0xbd5d489d	-0.054024328

weight f4 [16]
0	0x3f833a4d	1.0252167
1	0x3f83671a	1.0265839
2	0x3f80d5d7	1.0065259
3	0x3f7a1523	0.976885
4	0x3f81e05a	1.0146592
5	0x3f7ea6c1	0.99473196
6	0x3f7d03c4	0.9883387
7	0x3f7e7137	0.993915
8	0x3f7df79c	0.99205947
9	0x3f78b854	0.9715626
10	0x3f83d77a	1.0300133
11	0x3f746a52	0.9547473
12	0x3f81e3a9	1.0147601
13	0x3f780ec7	0.9689755
14	0x3f7f02d8	0.99613714
15	0x3f7b1ec0	0.98093796

bias f4 [16]
0	0xbbafef38	-0.0053690933
1	0xbd3e7054	-0.046493843
2	0xbbf1a8fd	-0.0073748813
3	0x39b6f0f0	0.00034893258
4	0xbd718fb7	-0.058974948
5	0x3d442856	0.04789003
6	0x3c832d75	0.016012887
7	0x3bc3c5ea	0.005974521
8	0xbce4a871	-0.02791235
9	0xbcb30340	-0.021852136
10	0xbc6e24ee	-0.014535172
11	0xbcf51784	-0.02991844
12	0x3cf0172a	0.02930792
13	0x3b6956f8	0.0035604816
14	0x3c820802	0.015872959
15	0x3d077306	0.03306868

running_mean f4 [16]
0	0x3d3d2843	0.046180975
1	0x3eec9b28	0.46212125
2	0x3dc8e41c	0.098091334
3	0x3ee996d0	0.45622873
4	0x3d22efdd	0.039779533
5	0x3e9b0668	0.30278325
6	0x3f01e0c3	0.50733584
7	0x3e3a24fa	0.18178168
8	0x3e1ca48c	0.15297145
9	0x3e2511f2	0.16120127
10	0x3e561939	0.20908059
11	0x3b85de45	0.0040853345
12	0x3e20548a	0.15657249
13	0x3e9e3078	0.30896354
14	0x3ef4b8f2	0.47797352
15	0x3db1cc9a	0.08681603

running_var f4 [16]
0	0x3b78962f	0.0037931313
1	0x3c8b0d26	0.016974043
2	0x3c418a66	0.011812782
3	0x3da6ef50	0.08151114
4	0x3c350f78	0.011051051
5	0x3d15a1b2	0.036531158
6	0x3dcd12cd	0.100133516
7	0x3c8bb7cf	0.01705542
8	0x3d1744a2	0.036930688
9	0x3d1228ea	0.03568355
10	0x3ce0f819	0.027462052
11	0x39a9b2ad	0.00032367316
12	0x3cad58dc	0.021160536
13	0x3cc70e92	0.02429894
14	0x3d20ef27	0.039290573
15	0x3c875061	0.01651782

weight f4 [32, 16, 5]
0	0x3d899e4f	0.06719648
1	0x3d3ac127	0.04559436
2	0x3ad2ce38	0.0016083186
3	0xbd41f202	-0.047349937
4	0x3da84e85	0.082181014
5	0xbd33c9e6	-0.043893717
6	0xbb8b9cd3	-0.0042606383
7	0xbdeb6a37	-0.11494868
8	0xbd7ac750	-0.061225235
9	0x3dc1538e	0.09439765
10	0x3db92219	0.09039707
11	0x3dfb6294	0.12274662
12	0xbda95ff0	-0.08270252
13	0x3d1c1804	0.03810884
14	0x3de20a45	0.11037115
15	0xbd681b4e	-0.056666665
16	0x3da94e22	0.08266856
17	0x3dc1a099	0.0945446
18	0x3da8ae59	0.08236379
19	0xbc048cb9	-0.0080901915
20	0xbd9ae208	-0.07562643
21	0x3c92f124	0.01793725
22	0xbc05fc09	-0.008177766
23	0x3d0de59c	0.0346428
24	0x3c8483c5	0.016176114
25	0x3dcda482	0.10041143
26	0x3daf14d3	0.08548894
27	0x3d843fa6	0.064574525
28	0xbd9e048d	-0.07715712
29	0x3e055a10	0.13022637
30	0x3cfed4c9	0.031107323
31	0xbdd2f9aa	-0.10301526
32	0x3cf92a5f	0.030415712
33	0xbca23a13	-0.019803083
34	0x3d3fa32e	0.04678648
35	0xbdc440dd	-0.09582684
36	0x3d8bf6c5	0.06834177
37	0xbc37efda	-0.011226619
38	0x3df6f543	0.12058499
39	0xbc40f166	-0.011776304
40	0xbceea064	-0.029129215
41	0xbcc3b3bb	-0.023889413
42	0xbd81eeb8	-0.0634436
43	0x3dd7a0c5	0.10528711
44	0xbccd8129	-0.025086002
45	0xbd8a3b75	-0.06749622
46	0x3dbc86e5	0.092054166
47	0x3c2ea523	0.010659489
48	0xbd0b5343	-0.03401495
49	0x3dac46b6	0.084119245
50	0x3daafb17	0.08348673
51	0x3d010bc2	0.031505354
52	0xbd74ebfa	-0.059795357
53	0x3d2de239	0.04245207
54	0x3d62294b	0.05521516
55	0x3e094b9d	0.1340775
56	0xbcd73f3e	-0.026275273
57	0xbd2b2ba0	-0.04178965
58	0xbced1d53	-0.028944647
59	0xbdffb4b7	-0.124856405
60	0xbc9445ee	-0.018099751
61	0xbb8c6ec8	-0.004285667
62	0x3dca55a9	0.0987962
63	0x3df16cf0	0.11788356
64	0xbd9e1697	-0.077191524
65	0xbdb844f9	-0.089975305
66	0x3d4b8d76	0.049695455
67	0x3d2b598c	0.041833445
68	0xbd379def	-0.04482835
69	0x3cdb6d0b	0.026785394
70	0xbd916158	-0.07098645
71	0xbe02ed54	-0.12785846
72	0xbd98f3a0	-0.07468343
73	0x3a1bec9f	0.000594804
74	0x3def33aa	0.11679776
75	0xbcf73a5d	-0.030179197
76	0xbd1c3449	-0.0381358
77	0x3c5f453e	0.0136273485
78	0xbc883a40	-0.016629338
79	0xbd9aad1b	-0.075525485
80	0xbd24782d	-0.04015367
81	0x3d7faed5	0.062422592
82	0xbd6c1a30	-0.05764216
83	0xbd9d6496	-0.07685201
84	0x3c5381a4	0.012909327
85	0x3d15226b	0.036409777
86	0x3dbaa4b4	0.09113446
87	0xbc1dc8e0	-0.009630412
88	0x3dad9373	0.08475389
89	0x3d276f1c	0.040877447
90	0x3c4f5365	0.01265416
91	0xbda5260e	-0.08063899
92	0x3da04d2d	0.0782722
93	0xbcfe0119	-0.031006383
94	0xbde88ddf	-0.11355185
95	0x3da97ba4	0.08275536
96	0x3d9ccc64	0.07656172
97	0xbd34f31f	-0.04417717
98	0x3d196083	0.037445556
99	0x3d16fb4d	0.036860753
100	0xbd626782	-0.055274494
101	0xbd6decc4	-0.058087125
102	0xbd954246	-0.07288031
103	0xbda66725	-0.08125142
104	0x3e012826	0.12612972
105	0x3d8df345	0.069311656
106	0x3b8c6b46	0.004285249
107	0x3d9caaed	0.07649789
108	0xbd5269da	-0.05137048
109	0xbd82e5a9	-0.063914604
110	0x3d1bd48d	0.0380445
111	0xbd06d4ab	-0.03291766
112	0x3dee6116	0.116396114
113	0xbdb0a7fc	-0.086257905
114	0xbd906b91	-0.07051767
115	0x3d92ca8e	0.071675405
116	0x3c0bffa9	0.008544841
117	0x3d9fb7f3	0.077987574
118	0x3dc6bfe8	0.09704572
119	0xbc7c3bbb	-0.0153951
120	0x3c67aff1	0.014141069
121	0xbd06251b	-0.03275023
122	0xba40d7a0	-0.00073563494
123	0x3c6f34c4	0.014599983
124	0x3ce12e6a	0.027487952
125	0x3e013808	0.1261903
126	0x3d9ca23f	0.076481335
127	0x3d4ff85d	0.050773967
128	0x3c54de1b	0.012992407
129	0xbd882129	-0.0664695
130	0xbbab901f	-0.0052356864
131	0x3d3faa9d	0.04679357
132	0xbd27640a	-0.04086689
133	0x3defbe0a	0.11706169
134	0x3dc81ccb	0.09771117
135	0x3dc23fa1	0.094847925
136	0xbccae6a0	-0.024768174
137	0xbd126e41	-0.035749678
138	0x3d76a18f	0.060212668
139	0x3bf03394	0.0073303673
140	0x3b761970	0.0037551783
141	0x3d42fcd2	0.04760439
142	0x3d107acf	0.03527337
143	0x3da78eb1	0.08181513
144	0x3d50b093	0.050949644
145	0x3debcdca	0.115138605
146	0x3dc8cf69	0.09805185
147	0xbdc2075f	-0.09474062
148	0xbd98e11f	-0.074648134
149	0x3c2d8cab	0.01059262
150	0x3de20126	0.11035375
151	0xbd997c54	-0.07494417
152	0x3d21201d	0.039337266
153	0x3d858362	0.065192
154	0xbc9418b9	-0.018078195
155	0x3c81628c	0.015794061
156	0xbcca2636	-0.024676424
157	0xbd962652	-0.07331528
158	0x3dcca694	0.0999271
159	0xbd158a4b	-0.03650884
160	0xbb5536e8	-0.0032533947
161	0x3c3056f3	0.010762918
162	0x3c9382d0	0.018006712
163	0xbdabc02c	-0.08386263
164	0xbdd42761	-0.103590734
165	0x3d64e4f3	0.055882405
166	0xbbd289cd	-0.0064251185
167	0x3df5fa23	0.120106004
168	0x3d8b3ece	0.067990884
169	0xbcb0e65f	-0.021594224
170	0x3d458c83	0.048229706
171	0xbdbcd3ae	-0.09220062
172	0xbd2710c4	-0.040787473
173	0x3c191edd	0.009345737
174	0x3bebc5fa	0.0071952315
175	0xbd6d5a3d	-0.057947386
176	0xbc4c034c	-0.012451958
177	0x3ceefdea	0.02917381
178	0x3d913b58	0.07091397
179	0x3db9af79	0.09066672
180	0xbde010ff	-0.10940742
181	0x3d212d9b	0.039350133
182	0x3db462b1	0.088078864
183	0xbd853239	-0.0650372
184	0xbd1966a5	-0.037451405
185	0x3c663ea8	0.014053024
186	0x3dae60d3	0.085145615
187	0xbbaac48d	-0.005211419
188	0xbdc02564	-0.09382132
189	0xbccb788a	-0.024837751
190	0x3c2ddeb2	0.010612177
191	0xbd2397eb	-0.039939802
192	0x3dd02c87	0.10164743
193	0x3dbb469a	0.091443256
194	0x3d208a59	0.03919444
195	0x3d7889c1	0.060678247
196	0x3e0ad44c	0.13557547
197	0xbd91b018	-0.07113665
198	0x3c9b0902	0.018925194
199	0xbdd171db	-0.10226794
200	0xbda4bc4d	-0.08043728
201	0x3d989ce5	0.074518
202	0xbc022d56	-0.007945379
203	0x3d973ebc	0.073850125
204	0xbb8f19bd	-0.004367082
205	0x3dee542c	0.11637148
206	0xbd7b91f7	-0.0614185
207	0xbccab058	-0.02474229
208	0x3c4ca374	0.012490142
209	0xbd8c42ce	-0.068486795
210	0x3d484d44	0.04890181
211	0xbd90e8a7	-0.07075625
212	0xbc96fd3f	-0.018431304
213	0x3c70f60b	0.014707099
214	0x3cca4bf6	0.024694424
215	0x3dabf91c	0.08397123
216	0xbd469698	-0.04848346
217	0xbce4cbff	-0.027929304
218	0x3da07193	0.078341626
219	0x3d9c4a51	0.07631362
220	0x3d71411c	0.058899984
221	0xbd969ec0	-0.07354498
222	0xbd84691b	-0.0646536
223	0x3d77f3c3	0.060535204
224	0x3c86ce32	0.016455743
225	0xbd3260fe	-0.04354953
226	0xbd637e68	-0.055540472
227	0xbddffd34	-0.109369665
228	0xbddcd00d	-0.1078187
229	0xbd9eb03b	-0.07748457
230	0xbda2db95	-0.07952038
231	0x3d8d4ab1	0.06899012
232	0xbcb9f848	-0.022701398
233	0xbd4fcacc	-0.05073051
234	0x3c9f89ee	0.01947495
235	0x3dfce4ed	0.12348352
236	0x3cc0ab60	0.023519218
237	0xbd98564a	-0.07438333
238	0x3d5919e7	0.053003218
239	0x3c794b5a	0.015215719
240	0x3de9b293	0.114110135
241	0x3daa0d74	0.08303347
242	0x3dd79d26	0.105280206
243	0x3dae22d1	0.085027345
244	0xbc9446de	-0.018100198
245	0xbd10f7ec	-0.035392687
246	0x3d2efaf7	0.042719807
247	0x3cd69e84	0.026198633
248	0xbe0593a7	-0.13044606
249	0xbe0fdbff	-0.14048766
250	0x3e00b507	0.12569056
251	0x3d5ef69b	0.0544344
252	0xbcca72fd	-0.024713034
253	0x3d788178	0.060670346
254	0xbd622de3	-0.055219542
255	0x3d64d61c	0.055868253

bias f4 [32]
0	0xbd3ba0b2	-0.045807548
1	0x3c99d32e	0.018777456
2	0x3c1ade59	0.009452426
3	0x3d9e0ab7	0.077168874
4	0x3df4ef90	0.119597554
5	0x3d79dd61	0.06100214
6	0x3c93fc7c	0.01806473
7	0x3c74f26d	0.014950377
8	0x3d3c1ced	0.045926023
9	0x3c972f96	0.018455308
10	0x3db9860f	0.09058773
11	0x3ced94b5	0.029001573
12	0x3dc61753	0.096724175
13	0xbdfc856a	-0.12330134
14	0x3dc6546f	0.09684073
15	0x3b04720c	0.0020209579
16	0x3d6bcb52	0.05756695
17	0xbe22359b	-0.15840761
18	0x3b868eae	0.004106364
19	0xbb0ae288	-0.0021192152
20	0x3d3b4219	0.045717333
21	0xbd9f86e7	-0.077894025
22	0x3e34565c	0.17611068
23	0x3db75139	0.08951039
24	0xbd795adf	-0.060877677
25	0x3dc7f022	0.097625986
26	0x3cd11e3d	0.025527114
27	0x3da3cd46	0.07998137
28	0xbd79f7d9	-0.06102738
29	0x3de72909	0.11287124
30	0x3d37a876	0.04483839
31	0x3d547e09	0.05187801

weight f4 [32, 32, 5]
0	0xbccac6b7	-0.024752958
1	0xbb7f8402	-0.0038988595
2	0x3cb7cf84	0.022437818
3	0xb999d3a3	-0.00029340116
4	0xbc992366	-0.018693637
5	0xbb765919	-0.0037589727
6	0x3c2b5737	0.010457805
7	0xbd3f47f6	-0.046699487
8	0xbd7e2bc1	-0.062053446
9	0xbb755a1e	-0.0037437747
10	0x3c52585d	0.01283845
11	0xbca915ec	-0.020640336
12	0x3b654ede	0.0034989635
13	0x3d1e2a85	0.03861477
14	0x3da94ed0	0.082669854
15	0x3d73fc8f	0.05956703
16	0xbd1cb5cc	-0.038259313
17	0xbd2d99f2	-0.04238314
18	0x3c80d29a	0.015725423
19	0xbd0b47df	-0.03400409
20	0xbd95e46d	-0.073189594
21	0xbd92552c	-0.071451515
22	0xbdc1bf94	-0.09460369
23	0xbcd19ebd	-0.025588388
24	0x3cb98914	0.022648372
25	0xbd005a7e	-0.0313363
26	0x3c01b665	0.007917021
27	0xbd055de0	-0.03256023
28	0x3cc8ca0d	0.024510408
29	0xbcd836a8	-0.02639325
30	0xbdb0bc16	-0.086296245
31	0x3db826bb	0.08991762
32	0x3b8f9dda	0.004382831
33	0xbc8f3447	-0.017480982
34	0xbd0467aa	-0.032325424
35	0xbdc48ce4	-0.09597185
36	0xbc05f248	-0.00817544
37	0x3d30cd77	0.043164697
38	0xbdb2404a	-0.087036684
39	0xbd4255ad	-0.047444988
40	0xbd0f11db	-0.034929138
41	0xbc732fbd	-0.014842925
42	0xbd6a61ad	-0.057222057
43	0xbacc6b8f	-0.001559602
44	0xbc4c8e1c	-0.012485053
45	0xbd2ee0d3	-0.042694878
46	0xbcd87c79	-0.02642654
47	0xbd853aed	-0.0650538
48	0x3dc88ee9	0.09792883
49	0x3d9444fc	0.0723972
50	0x3d9aba3d	0.075550534
51	0xbd961130	-0.07327497
52	0x3d5546f0	0.052069604
53	0xbc91ee80	-0.017813921
54	0xbc1c7217	-0.0095486855
55	0x3d00e2df	0.03146636
56	0x3d88e6ab	0.066846214
57	0x3d6e51fa	0.058183648
58	0x39939e19	0.00028155817
59	0x3d3d4c0c	0.046215102
60	0x3cb802f8	0.022462353
61	0x3d994e47	0.07485633
62	0xbc44856a	-0.011994699
63	0x3b2ea57b	0.0026648927
64	0xbd3bd051	-0.045852963
65	0xbd505257	-0.050859775
66	0xbd8d9f04	-0.069150954
67	0xbd8cd31e	-0.06876205
68	0xbd68fde6	-0.05688276
69	0x3d311166	0.043229483
70	0xbd227865	-0.0396656
71	0x3d83832a	0.06421502
72	0xbd1a0182	-0.037599094
73	0xbcb6f036	-0.022331338
74	0x3d428c22	0.047496922
75	0x3d9ee93d	0.077593304
76	0x3da0a0c2	0.07843162
77	0xbd827902	-0.06370737
78	0xbd7a71b4	-0.061143592
79	0xbd866c67	-0.06563645
80	0x3da324e4	0.07966021
81	0x3d3a5008	0.04548648
82	0x3d47805e	0.048706405
83	0x3d10b40f	0.035327967
84	0xbceabe49	-0.028655188
85	0x3ccd06f8	0.025027737
86	0x3d1a0d19	0.037610147
87	0xbca0a281	-0.019608738
88	0xbc64fc7f	-0.013976215
89	0x3d03f4a2	0.032215722
90	0xbc29bfa7	-0.010360635
91	0xbd8149b6	-0.06312887
92	0x3db451e2	0.088046804
93	0x3d318fa0	0.043349862
94	0xbc332763	-0.0109346835
95	0xbd8add2c	-0.067804664
96	0x3d32cabb	0.04365037
97	0xbd85b6f0	-0.06529033
98	0xbc37fc10	-0.01122953
99	0xbda1c89e	-0.07899593
100	0xba07e1cf	-0.00051834894
101	0xbd8e20ae	-0.06939827
102	0xbcdfbdb3	-0.027312135
103	0x3d8580de	0.0651872
104	0x3d1e1102	0.03859044
105	0x3d5c3a60	0.05376661
106	0xbca31128	-0.019905642
107	0xbd73ec44	-0.059551492
108	0x3cf775bb	0.030207505
109	0x3cacacb8	0.021078452
110	0xbc5932c7	-0.013256735
111	0xbd21513a	-0.039384104
112	0xbc8b7db5	-0.017027715
113	0xbcd2a861	-0.025715055
114	0x3a91cce6	0.0011123687
115	0x3d4fce57	0.05073389
116	0xbd302104	-0.043000236
117	0xbc4ef0c6	-0.012630647
118	0xbdd8df75	-0.10589496
119	0x3d652903	0.055947315
120	0x3c879841	0.016552093
121	0xbd95740b	-0.07297524
122	0x3da6b221	0.08139444
123	0x3d0f4042	0.03497339
124	0xbbfa7ad3	-0.0076440363
125	0x3ce85a88	0.028363481
126	0xbd8efd1d	-0.06981871
127	0xbd22fc87	-0.03979161
128	0x3d9c1851	0.076218255
129	0x3dec33fa	0.11533351
130	0x3d4d31d4	0.050096348
131	0xbc0361e6	-0.008018946
132	0x3db6f7f8	0.08934015
133	0x3b74afd7	0.0037336254
134	0x3ba41dbf	0.005008429
135	0x3db213c1	0.08695174
136	0x3c6704e7	0.01410029
137	0x3dab1ae8	0.08354741
138	0xbd319018	-0.04335031
139	0x3cf8e6f9	0.030383574
140	0x3b30f175	0.0026999388
141	0x3deea563	0.11652639
142	0xbd0f3aaf	-0.034968074
143	0x3d76c5cb	0.060247224
144	0x3dc1054b	0.09424838
145	0xbd610883	-0.054939758
146	0x3c988d84	0.018622167
147	0xbb726f78	-0.003699271
148	0xba48faa5	-0.00076667435
149	0xbdade0ac	-0.084901184
150	0xbc7ba329	-0.015358725
151	0xbd090ea9	-0.033461247
152	0x3c1466a4	0.009057675
153	0x3daf96a9	0.08573658
154	0x3ad87123	0.001651321
155	0x3d46e66c	0.04855959
156	0x3d398abc	0.045298323
157	0x3dab088c	0.083512396
158	0x3dab43d5	0.08362547
159	0x3dce401f	0.10070824
160	0x3ca0ab93	0.019613063
161	0xbccf0c9a	-0.025274564
162	0xbd0f4f29	-0.034987602
163	0xbd0dfe45	-0.03466632
164	0xbd97b555	-0.07407633
165	0xbd15908e	-0.03651481
166	0x3b8e806e	0.004348806
167	0x3d7f57b4	0.0623395
168	0x3daf3462	0.08554913
169	0xbcea0344	-0.02856601
170	0xbce26d4a	-0.027640004
171	0x3ae5adf4	0.0017523156
172	0xbc38e64a	-0.011285374
173	0x3d3ad472	0.04561276
174	0x3d932827	0.07185393
175	0xbc83da5a	-0.01609533
176	0xbda09a37	-0.07841914
177	0xbd1bb87f	-0.038017746
178	0xbde62f9b	-0.11239549
179	0xbcee6270	-0.029099673
180	0x3d36f6e1	0.044669036
181	0xbda7e530	-0.08198011
182	0xbd9ad9eb	-0.07561096
183	0xbcf2707f	-0.029594658
184	0x3d09ce19	0.033643816
185	0xbd17a401	-0.03702164
186	0xbccb2f06	-0.024802696
187	0x3bc14358	0.0058979206
188	0xbd40869d	-0.047003377
189	0xbdd5b2af	-0.10434472
190	0x3d3f396c	0.04668562
191	0x3ba9f95f	0.005187198
192	0x3cb43fd8	0.0220031
193	0x3da1c9a5	0.07899789
194	0x3d0a9402	0.033832557
195	0xbdcb5793	-0.09928813
196	0xbcdd391d	-0.027004773
197	0xbd7874c4	-0.06065823
198	0xbb79a02f	-0.0038089862
199	0xbd6ce3be	-0.05783438
200	0xbd0f32a7	-0.034960415
201	0xbafc0905	-0.0019228762
202	0xbcbc3251	-0.022973211
203	0x3ba085b0	0.0048987493
204	0xbd6fbbb5	-0.05852862
205	0x3da31399	0.07962722
206	0x3d91c6d1	0.07117999
207	0xbdbcc100	-0.09216499
208	0xbc8cd8d3	-0.017193234
209	0x3bcfdbd4	0.006343344
210	0x3dd0936c	0.101843685
211	0x3d96c737	0.07362216
212	0xbd8a1413	-0.0674211
213	0xbb94f252	-0.0045454884
214	0x3d59c615	0.05316742
215	0x3da7b134	0.08188096
216	0x3d163df7	0.036680188
217	0xbc735997	-0.014852903
218	0xbd91b5a3	-0.071147226
219	0x3ae107f5	0.0017168509
220	0x3dd66e59	0.10470266
221	0x3d240051	0.040039364
222	0x3d910c0c	0.07082376
223	0xbd358f94	-0.04432638
224	0xbd63981b	-0.05556498
225	0xbd64db10	-0.055872977
226	0x3d7aaacc	0.06119804
227	0x3cce90ef	0.025215594
228	0x3d459e43	0.048246633
229	0x3d0154c6	0.031574987
230	0xbdcbddf5	-0.09954444
231	0xbdec62e4	-0.115422994
232	0x3d7e4f13	0.06208713
233	0xbd0e2c9f	-0.034710523
234	0xb9b535b0	-0.0003456301
235	0xbd21719d	-0.03941499
236	0xbdb286d4	-0.08717123
237	0x3c19e07d	0.009391901
238	0x3dcdc83e	0.10047959
239	0xbd217df0	-0.039426744
240	0xbd4b5853	-0.04964478
241	0xbd740fda	-0.05958543
242	0xbd5a4190	-0.05328518
243	0x3decb591	0.115580685
244	0x3d739383	0.05946685
245	0x3d7cca19	0.061716173
246	0x3d4c4a9e	0.049875848
247	0x3d59b9d1	0.053155724
248	0x3d50b62f	0.050954994
249	0xbddc34d9	-0.107522674
250	0x3d59e98d	0.053201247
251	0xbce6a022	-0.02815253
252	0xbcaee1f9	-0.021347987
253	0x3ddb9650	0.10722029
254	0x3c6933f3	0.014233577
255	0x3c3ca02f	0.0115128

bias f4 [32]
0	0x3d81d327	0.06339102
1	0xbd973a5a	-0.073841766
2	0x3c47d5ff	0.012197017
3	0xbd5ed507	-0.054402377
4	0x3cefb801	0.029262545
5	0xbc03faf6	-0.008055439
6	0x3d71c300	0.059023857
7	0xbc0cf870	-0.008604154
8	0x3dea351b	0.1143591
9	0x3d92bd51	0.071650155
10	0x3d7f4139	0.06231806
11	0x3c3674eb	0.011136274
12	0x3c657384	0.014004592
13	0xbd44799f	-0.04796755
14	0xbd433b47	-0.047663953
15	0xbca4802a	-0.020080645
16	0xbdc2d64c	-0.0951353
17	0xbd02d109	-0.031937633
18	0x3d63da2a	0.05562798
19	0x3cab5e77	0.020919068
20	0xbd2f90f0	-0.042862833
21	0x3d679563	0.05653895
22	0xbda0a7ec	-0.078445286
23	0xbdad00ae	-0.08447395
24	0x3de1ac27	0.110191636
25	0x3d368442	0.044559725
26	0xbd4f5a38	-0.05062315
27	0x3b9c5dce	0.0047719246
28	0x3cf0ac2f	0.029378979
29	0x3da16d22	0.078821436
30	0xbd40b4ee	-0.047047548
31	0xbc6e8521	-0.014558108
