results/SD_unet_matrixlonlatcov_15s.pt (torch, 101780 bytes, 49 tensors)

weight f4 [8, 1, 1, 1]
000000 2e a8 54 bc f6 e4 66 bf 84 02 dc 3c 53 a3 5a bf
       -0.01297955 -0.90193117 0.026856668 -0.85405463
000010 06 79 90 3e 82 6f 5c bf f0 40 43 3f 03 1b e1 3e
       0.28217334 -0.8610765 0.7627096 0.4396592

bias f4 [8]
000000 f9 15 ed 3d 04 dc d5 3e 45 f3 7c bf 10 17 d4 3d
       0.115764566 0.4176942 -0.988087 0.10355961
000010 92 d7 de 3e 00 2a 17 bc c1 f5 2d bf 41 f1 16 3f
       0.43523842 -0.009226322 -0.67953116 0.58961874

weight f4 [11]
000000 46 47 7e 3f dc 6a 7d 3f 98 19 7e 3f b8 95 69 3f
       0.99327505 0.9899118 0.992578 0.9124408
000010 a1 f3 79 3f 00 00 80 3f 05 74 6d 3f 7f b1 80 3f
       0.97637373 1.0 0.92755157 1.0054168
000020 18 85 5c 3f fa 3a 55 3f 36 76 a2 3f
       0.86140585 0.83293116 1.2692325

bias f4 [11]
000000 33 51 48 3b 55 1c 39 bd 3e 11 51 bd 89 c3 b1 bd
       0.0030565977 -0.045193035 -0.051041834 -0.086798735
000010 f6 89 6d 3c da 3f 37 3a 7f 2c 37 3d 75 78 39 3d
       0.0144982245 0.00069904106 0.04472017 0.045280892
000020 55 67 88 bd 68 33 4b bc 57 af e0 3d
       -0.06660334 -0.012402393 0.109709434

running_mean f4 [11]
000000 9c 44 db 3d 5c 0a e1 3e dc 43 bb 43 92 e7 ef 3d
       0.107064456 0.43953216 374.53015 0.117140904
000010 fa f2 99 45 00 00 00 00 3c bb 5b 46 ca 4c f5 45
       4926.372 0.0 14062.809 7849.5986
000020 6c 9a b2 bd 7f 87 3e 3d be dc 11 3e
       -0.0872086 0.046515938 0.14244363

running_var f4 [11]
000000 f8 52 23 3b 72 7d 2b 3d ae e7 2f 47 40 2c 42 3b
       0.002492128 0.04186768 45031.68 0.0029628426
000010 dd 62 d7 4a 04 00 00 00 9e 8c 5c 4c 2b c5 88 4b
       7.0577745e+06 6e-45 5.781567e+07 1.7926742e+07
000020 9c 18 5a 3f e8 dc 65 3f a5 d5 6b 3d
       0.851938 0.897902 0.057576794

weight f4 [8, 11, 5]
000000 a5 c6 1b be a6 b3 d0 bd 8c 69 15 be 64 09 eb bd
       -0.15212496 -0.10190515 -0.14591044 -0.114764005
000010 e1 ab be bd dc 81 a9 3d c2 d0 f6 3c 4b 3a b5 bc
       -0.09310127 0.08276722 0.03012884 -0.022122523
000020 4f e7 2a bd ce 85 14 3e b7 1a 33 bd 3a 54 13 3e
       -0.0417245 0.14504167 -0.04372665 0.14387599
000030 b6 cb 2c 3d 39 f8 8c 3d 14 6d 60 bc 2d 1e cf 3b
       0.04218646 0.06883282 -0.013697881 0.006320736
000040 fc ce e7 bd 4c 11 8d 3d df 3e 9f 3d bc 2c fe 3d
       -0.11318776 0.06888065 0.077756636 0.12410876
000050 fa 49 ec bc f6 67 c8 bc 35 9b 69 bd 42 e1 80 bc
       -0.028843869 -0.024463635 -0.057032783 -0.015732411
000060 2e 4b 16 3e 7a e1 40 3d f9 33 48 3d e7 8e c1 3d
       0.14677116 0.04709003 0.04887769 0.094510846
000070 0b 4a f8 3d 06 61 ad 3d ce 9f 07 be 85 3a f6 bc
       0.121234976 0.084657714 -0.13244554 -0.030057201
000080 bf 0f c0 3d ee a6 ca bd b8 b5 bf bd 5e 85 a4 bb
       0.09378003 -0.098951206 -0.09360832 -0.0050207814
000090 ad aa ae 3d 05 90 ef bd 91 e5 b3 3c 76 e6 aa 3d
       0.085286476 -0.116973914 0.021960052 0.08344738
0000a0 43 84 80 bb 49 01 09 bc 83 6b 41 3d f0 c2 4b bc
       -0.003922017 -0.008362123 0.04722167 -0.012436613
0000b0 bb bd c1 3d 8d 7d ad bd bb 4b c6 bd fe e4 ae 3c
       0.09460016 -0.084712125 -0.09682413 0.021349426
0000c0 e9 f1 65 3d b3 8f 14 bd 65 60 b9 bd 15 3e c5 3d
       0.056138907 -0.036269855 -0.09051589 0.09630982
0000d0 6d d1 bb 3d 35 95 56 3e fb 40 5f 3d d3 da 56 3c
       0.09170804 0.20955355 0.05450533 0.013113695
0000e0 e3 c4 fc bd f7 97 9b 3d 7d ea 7d 3d a5 40 00 3e
       -0.12342241 0.07597344 0.061991204 0.1252466
0000f0 16 45 8a bd 09 38 cc bb 2b 20 cc bd 58 b6 86 3d
       -0.06751458 -0.006232266 -0.09967073 0.06577748
000100 57 76 31 3d ee 57 37 bd eb 33 cc bd af 27 10 be
       0.04332575 -0.04476159 -0.0997084 -0.14077638
000110 d1 d8 99 bd 49 df 92 bd 5c 07 0c 3d b6 30 8b 3d
       -0.075120576 -0.071714945 0.034186706 0.067964
000120 55 ef e8 bd d7 1d a9 bd f6 3f 21 3d 24 40 9a 3c
       -0.11373774 -0.082576446 0.03936764 0.018829413
000130 a2 38 ee ba ea 77 06 bd 10 43 c9 bd be 1c df bb
       -0.0018174837 -0.032829203 -0.09827244 -0.0068088463
000140 82 ac fb bb 3a 8c e2 3d 9a 3c 17 3d 5c e2 21 3d
       -0.0076804766 0.11061902 0.03692303 0.039522514
000150 ce 99 60 bd c0 37 4c 3d 13 f0 25 3d 1b e5 36 bd
       -0.05483418 0.049857855 0.040512156 -0.044652086
000160 0b 7d a3 3d 6b f4 87 3d f4 ae c8 bd 0b e3 cf 3d
       0.079828344 0.06638416 -0.09798995 0.10150727
000170 df aa 9b bd a4 00 bd bd 4d 45 ff bd b5 93 7f bd
       -0.076009504 -0.09228638 -0.1246439 -0.062396724
000180 6b a3 ff bc 2e fc 5b 3d bd fc 10 bd 86 28 45 bd
       -0.031205853 0.053707294 -0.03539728 -0.04813435
000190 4c 75 b1 3d 44 02 85 bd 3e 66 e7 3c 38 a0 29 bd
       0.08664951 -0.06494573 0.028246995 -0.041412562
0001a0 63 3b a4 bd a3 ad 6f be e2 ad 6c 3e 2d 6d 44 3e
       -0.080191396 -0.23406081 0.23113206 0.19182272
0001b0 39 7a bb 3c b5 3d 8f bd 72 c1 86 3d 8a be b6 bc
       0.022885429 -0.069941916 0.065798655 -0.022307653
0001c0 67 37 8c bd 3a 64 61 bd f0 22 8c bd eb a6 b2 bd
       -0.06846505 -0.055027224 -0.06842601 -0.08723243
0001d0 89 e1 00 3e 30 64 b9 bd 16 39 35 bd 4c 22 20 bd
       0.12586035 -0.090523124 -0.044243895 -0.039095208
0001e0 f3 48 60 bd 4d d0 6d bd 7e af e5 3d 75 c4 2e 3e
       -0.05475707 -0.05805998 0.11215113 0.1706713
0001f0 64 87 4b 3d d3 16 a9 bd 3c be db 3c 00 67 a3 bd
       0.049689665 -0.082563065 0.02682411 -0.0797863
000200 58 26 21 bd 4b df da 3d 1a 61 2f 3c d1 11 60 3d
       -0.039343208 0.10687121 0.010704303 0.05470449
000210 72 aa 2e bd 9e ca c4 bc 4e c8 f6 3d cf 1a cb 3d
       -0.042643018 -0.024022397 0.12049924 0.09917223
000220 0e 14 6d 3d 4a 26 b4 bd 82 44 c1 bd 9e 05 a1 3d
       0.057880454 -0.087963656 -0.09436895 0.078623995
000230 d2 c5 cd 3d 2c 00 b3 3d f8 56 61 bd aa 2e fc bc
       0.10047497 0.08740267 -0.05501458 -0.03078397
000240 0b 0f 8f bd eb eb 88 3d 55 00 8f bd 32 ae 03 3e
       -0.06985291 0.06685623 -0.06982485 0.12859419
000250 eb 78 04 bd a6 54 e0 3d 4f 34 df bc 5e af 0f 3d
       -0.03234188 0.109536454 -0.027246622 0.035079353
000260 23 f9 44 bd 37 aa f9 bc 7a 19 24 bd bf 70 0e 3c
       -0.048089158 -0.030476673 -0.04006336 0.008693873
000270 73 ad ea bb a3 3e 94 bd 2e 9e 1f 3e e2 6d a3 b9
       -0.00716179 -0.072385095 0.15587685 -0.00031171652
000280 34 1c 8b 3e 1f 94 e9 bc a8 77 48 be 25 ca bc bd
       0.27169955 -0.028513012 -0.19576895 -0.092182435
000290 4c ba 28 3e f6 2b 84 bd 30 74 f5 bd 00 0c 12 be
       0.16477317 -0.064536974 -0.11985052 -0.1426239
0002a0 84 67 f7 3b 30 ac 96 b8 75 9f 05 3c 8c c6 40 3c
       0.007550182 -7.18463e-05 0.008155693 0.011766087
0002b0 7e 96 6b be ec 89 5f be 6b 20 a9 3c d9 4f 95 bb
       -0.23006627 -0.21829957 0.02064534 -0.0045566377
0002c0 6f 97 ff 3d 16 ea c6 bd b7 19 ea 3c 91 25 b4 bd
       0.124800555 -0.09712617 0.028576715 -0.08796228
0002d0 9b f3 53 bd e2 ee 54 be c1 24 45 be 5f 72 4b be
       -0.051745992 -0.20794252 -0.19252302 -0.19867848
0002e0 75 09 37 be 70 88 a2 bd 38 86 c3 bc 17 f0 29 bd
       -0.17874701 -0.0793618 -0.023867711 -0.041488733
0002f0 a3 4f d9 bd 0a 35 25 3d e6 35 98 3d 6f 2b 8e bb
       -0.106108926 0.040333785 0.07432155 -0.004338674
000300 70 f1 0d 3e 01 9a df bd 1a f7 56 bd ad 36 ba 3d
       0.13861632 -0.10918046 -0.05248175 0.0909246
000310 91 45 59 3c 84 12 09 3e fd b6 c1 3c 66 af 9c 3d
       0.013261215 0.1338597 0.023646826 0.07650642
000320 c6 bf 91 bc 31 0e 29 bd 1e c4 a6 3c 52 a6 79 39
       -0.01779164 -0.0412733 0.020357188 0.0002380845
000330 6b ab e2 3c 8a 44 ba 3c 2e 5c d8 3c 9a 60 09 3d
       0.02766963 0.02273776 0.026411142 0.033539392
000340 15 ab df 3d 50 b5 c5 bd fd 0d d5 bd 81 d1 9e 3b
       0.10921303 -0.09653723 -0.10403059 0.004846752
000350 0f f6 15 3e 5a 57 ba bd 0d 66 1a 3d 7f f3 8a be
       0.14644645 -0.09098692 0.03769498 -0.27138898
000360 5d e8 b7 bd a7 d0 48 3e 0c 0b a6 bc 07 f4 b7 3d
       -0.08979867 0.19610845 -0.02026894 0.089820914
000370 1a 66 c1 3a e4 85 ea 3c f9 2c 3e bd 1f 14 cf bd
       0.001475516 0.028628297 -0.046429608 -0.1011126
000380 b4 60 6b 3d ce 0d 80 3d 34 61 be 3c a1 9e 92 bd
       0.05746527 0.06252633 0.02323971 -0.07159162
000390 d6 02 a2 bd 40 5a 08 be a3 0c 62 3b 64 6b b3 3d
       -0.07910697 -0.13315678 0.0034492395 0.087607175
0003a0 16 c4 04 3e 43 a9 e1 bd 1b 96 7a 3d 10 b0 ef bc
       0.12965426 -0.11018612 0.061178308 -0.029258758
0003b0 5b f4 85 bd 72 d3 99 3c 94 f9 0e 3d 97 37 32 bb
       -0.06540748 0.018777583 0.034905985 -0.0027193779
0003c0 53 b9 0b be ae bd 20 bd ea 8e f0 bd be e5 a7 bc
       -0.13644914 -0.039243393 -0.11746009 -0.020495292
0003d0 4d d5 b4 bd f2 7f f3 3d c1 be ad bd e6 54 85 bc
       -0.088297464 0.11889638 -0.08483649 -0.016275834
0003e0 d1 00 a0 bc 07 19 d6 bd 4b 2b 27 3d 36 f7 91 3c
       -0.01953164 -0.10453992 0.04081277 0.017818075
0003f0 dc ed 9b bd 20 58 16 bd d7 2f b8 bd 1e be 9c bd
       -0.076137275 -0.036705136 -0.089935 -0.076534495

bias f4 [8]
000000 28 c8 0c 3d 15 61 94 3d 26 63 29 3c 9a 41 e8 3d
       0.03437057 0.072450794 0.01033858 0.113406375
000010 99 d8 19 be 65 2e 6a bd de 87 34 3d 82 52 60 bc
       -0.15024032 -0.05717315 0.044074886 -0.013691546

weight f4 [8, 8, 5]
000000 89 2f da 3d 27 a6 2e 3e fa b0 b7 bc 39 4d 8a bd
       0.10653598 0.1705557 -0.022423256 -0.0675301
000010 ea 0c 17 3d 97 7d 38 3e 93 fc 79 bd e0 63 1a be
       0.03687755 0.18016659 -0.06103189 -0.15077162
000020 8e 35 9c bd 85 c9 0a be 62 46 17 be f9 1d ec bc
       -0.07627402 -0.13553436 -0.14772943 -0.028822886
000030 4f 59 2e 3d 87 25 c1 3d 3a 09 21 3e df fe 8b bd
       0.04256564 0.09430986 0.15726176 -0.06835722
000040 18 6e 8f 3d 86 4e a9 3d 69 b4 a9 3a 81 36 38 3e
       0.070034206 0.0826693 0.0012947443 0.17989542
000050 72 cb c1 3d 4e 29 01 bd c7 fe 10 be b2 65 2e be
       0.09462632 -0.03153353 -0.1415969 -0.17030981
000060 64 d1 bb 3d 3d 22 b0 3d 32 05 6c 3d d9 98 0b 3e
       0.091707975 0.086002804 0.057622142 0.13632526
000070 f3 e1 6e 3e e3 24 09 3e 7b 3f c6 bd 73 0f be bd
       0.2332838 0.13392977 -0.09680077 -0.092802905
000080 54 c2 85 3d b1 82 94 bc e4 ff 88 3d dd 06 fe bd
       0.06531206 -0.018128725 0.06689432 -0.12403653
000090 da 10 07 3d 46 46 39 bc 9b ea 2c bb dc c1 c9 3c
       0.032975055 -0.011308258 -0.0026384953 0.024628572
0000a0 6a b6 11 3e aa 56 2c bd 55 f1 5a 3c 2d 57 11 3e
       0.14229742 -0.042074837 0.013363202 0.14193411
0000b0 b2 af ea bd 0a f7 34 bd 4c 6f 95 3d 18 d0 00 be
       -0.114592925 -0.044180907 0.07296619 -0.12579381
0000c0 59 11 06 be b2 c9 5e bc 4c 7f 89 3d 1d 1b 2e 3e
       -0.13092555 -0.013597893 0.06713733 0.1700253
0000d0 6d 39 0e 3e 9c da 26 bd 2a c8 a8 bd 96 ca 48 be
       0.13889094 -0.040735826 -0.08241303 -0.1960853
0000e0 80 39 ef 3c 06 21 a9 3c 16 35 85 bc e6 34 1b bd
       0.029202223 0.02064563 -0.016260665 -0.037892245
0000f0 93 ff f9 bc 38 83 45 bd 7a 85 ce 3d 94 78 89 bd
       -0.030517375 -0.048220843 0.100840524 -0.067124516
000100 62 0a fa bd 78 2c 53 3e f2 2f 15 3d 73 f5 2c 3e
       -0.122090116 0.20622432 0.036422677 0.16890506
000110 09 cd 5f 3e fa d1 77 bc 01 81 13 be 20 68 53 3d
       0.21855558 -0.015125746 -0.1440468 0.051612973
000120 10 52 77 3c ef 33 0c bd 87 1b 5f 3d 55 cf d1 3d
       0.015095249 -0.034229215 0.05446961 0.102446236
000130 cf 43 96 3d 44 ab e2 bd e4 89 29 3d 13 1e 0f 3e
       0.07337152 -0.110678226 0.04139127 0.13976316
000140 a5 37 8e bd da 1d 26 3d f2 6c 91 bc fb bc aa bc
       -0.06944207 0.040555812 -0.017752144 -0.020842066
000150 ee 65 fe bd a2 78 d6 bd 7f 0c 07 3e 54 3d 56 3d
       -0.12421785 -0.10472228 0.1318836 0.05230458
000160 e8 f9 48 bc 1e 96 c3 bd 21 8e 07 bd 53 c4 22 3e
       -0.012266614 -0.09550117 -0.03309453 0.15895204
000170 6e 0f 3a be f3 86 72 3d 88 42 05 3c 1a 3b 4f bd
       -0.18169948 0.05921073 0.008133538 -0.050593473
000180 16 59 22 3e 06 a0 f7 bc ec b7 25 bc b9 b0 ce bd
       0.15854296 -0.030227672 -0.010114651 -0.10092301
000190 5d 50 bc bb 48 1f 80 bd bd 16 d9 bd 2d 85 11 bc
       -0.0057468847 -0.062559664 -0.1060004 -0.008881849
0001a0 cb 73 48 ba 97 d1 51 3d 54 05 d0 3d 6b 0a 02 be
       -0.0007646649 0.05122527 0.10157266 -0.12699287
0001b0 3d 38 f1 3d cd f1 01 3d d9 0b 05 3e c7 ae 4a 3d
       0.11778305 0.03172474 0.12992801 0.049483087
0001c0 27 77 da bd de 31 23 3e 59 a8 50 bd 98 77 38 3d
       -0.10667258 0.15936992 -0.0509418 0.04503593
0001d0 9f 09 ff bc 38 f2 df bd c4 5c 9c 3d bd 88 5b bc
       -0.031132517 -0.109348714 0.07634881 -0.0133993
0001e0 15 46 bc bd 14 ca 02 3d 9f 78 04 be 9a 25 8f 3d
       -0.091930546 0.031930998 -0.12936638 0.06989594
0001f0 0b b4 8c bd 7d 10 21 3e c4 f9 80 bd d9 49 65 bd
       -0.06870278 0.15728946 -0.06297639 -0.05597863
000200 7c ce 45 3d ce bd d3 bc 83 4e f7 bd 4d ab 01 bd
       0.048292622 -0.025847342 -0.12075522 -0.031657506
000210 3a 9d 45 3e 24 d9 2f 3d 91 b9 86 bd 74 93 8b 3d
       0.19298258 0.04293169 -0.06578363 0.06815234
000220 fc 1e 0e be 13 50 0a be 23 09 0c 3e 0a e4 72 3c
       -0.13879007 -0.13507108 0.1367536 0.014824877
000230 8d 13 e0 3b e0 e3 dd 3d c4 d6 d3 bd c4 58 2e bc
       0.006838268 0.10834479 -0.10343698 -0.010641281
000240 46 41 8e 3d 00 0d 99 3d cd 24 aa 3d 85 0f a2 bd
       0.06946044 0.07473183 0.083078004 -0.07913116
000250 8e 08 c2 bd 36 a2 89 3c 94 dd 51 bd d8 17 1f 3b
       -0.09474288 0.016800981 -0.051236704 0.0024275687
000260 74 e8 1d bc ca 45 cd bd 65 aa 26 3d 51 78 d8 3b
       -0.009637941 -0.10023077 0.040689845 0.0066061397
000270 a2 d9 20 be b1 28 7a 3d 4c 50 fa 3d eb ff ab bd
       -0.1570802 0.061073963 0.12222347 -0.08398422
000280 e4 96 09 3e cb 0c 20 3e c2 b9 ed bc f9 8e 39 bc
       0.13436466 0.1562988 -0.02901924 -0.011325591
000290 aa 81 46 bd d1 bc b2 3d 41 5b 2c bd c1 75 e0 3d
       -0.0484635 0.0872742 -0.042079214 0.1095996
0002a0 47 a6 0a bc 65 13 03 bd 3d af 97 bd a8 e8 b8 3d
       -0.008462495 -0.032000918 -0.07406471 0.09028751
0002b0 b1 81 18 3d 80 52 a8 3d 4e 13 74 3d 5f 93 b0 3d
       0.03723306 0.082188606 0.059588723 0.08621859
0002c0 f1 cd 82 3d 33 fe a8 3c a7 6c ec bd 85 48 eb bd
       0.063869365 0.020629024 -0.11544161 -0.114884414
0002d0 c2 9d 7d bd 87 66 7a 3d 52 b7 01 3e 15 43 28 3e
       -0.061918028 0.061132934 0.12667587 0.1643184
0002e0 5b dc 00 3e 6a 8c 0f be 30 6b 52 3d 44 57 e0 3d
       0.12584059 -0.14018407 0.051371753 0.109541446
0002f0 01 98 28 3e 26 d9 39 be a6 27 e6 bb d0 87 52 3d
       0.16464235 -0.18149242 -0.0070237694 0.051399052
000300 75 f5 89 bc cd 78 a6 bd 2d 4b 08 be 60 d7 13 3e
       -0.016840676 -0.0812851 -0.13309927 0.14437628
000310 05 0a 12 be a5 7e 68 bd e3 26 df 3d d1 e5 ce 3c
       -0.14261635 -0.056761403 0.10896089 0.02525607
000320 55 55 77 3e a1 4b b5 bc df 1c 31 3e c4 02 2a 3d
       0.24153645 -0.02213079 0.1729617 0.041506544
000330 eb 7b b5 3d f2 23 cf 3d 50 d0 42 3c e5 7c de bd
       0.08861526 0.10114278 0.011890486 -0.108636655
000340 f9 e2 85 bc 41 8f 0c 3e 38 42 59 be a5 6f 03 bc
       -0.01634358 0.13726522 -0.21216667 -0.008022224
000350 c5 7a fd 3d 03 dd 16 be 6c e8 c8 3d ef dd 33 bd
       0.12376932 -0.14732747 0.09809956 -0.043912824
000360 a3 b6 4f 3d a9 37 b4 bc ae 6b 6c 3e 80 1a f3 bd
       0.050711285 -0.021999197 0.23087952 -0.11870289
000370 72 5a 0e be 07 b4 f2 bc f8 3d 0d 3e e6 64 3a be
       -0.1390169 -0.02962686 0.1379317 -0.18202552
000380 ca 60 ef 3c 9a 09 9d bd 9d b1 ef bc f7 00 eb bd
       0.029220957 -0.07667847 -0.029259497 -0.114747934
000390 b5 6b c5 bc b9 4a cb bd 09 eb 02 bd 37 b0 d4 3d
       -0.02409921 -0.099263616 -0.03196243 0.10385173
0003a0 24 a7 60 bd 88 69 13 be bc 62 93 bd 37 57 61 3d
       -0.054846898 -0.14395726 -0.071965665 0.055014815
0003b0 13 7c 36 3e 46 8d f3 3c 0d 96 98 3d ac 21 8f 3d
       0.17820768 0.02973045 0.07450495 0.06988844
0003c0 3a f4 4b bd 9e c7 7d 3d 78 f6 84 3d 28 45 1b 3e
       -0.04979346 0.061957948 0.06492323 0.151631
0003d0 26 16 4e 3d 29 8c 72 bd 83 fe f9 bc 2e 41 92 bd
       0.05031409 -0.0592157 -0.030516868 -0.07141338
0003e0 02 8c 17 3e 1c 0a 2c bd 4e ca 6a 3b b3 c0 0c be
       0.14799502 -0.04200183 0.003582615 -0.13745384
0003f0 45 61 99 bd 47 13 a4 3c 33 ba b9 3d fe 31 2e 3e
       -0.07489256 0.020028723 0.09068718 0.17011258

bias f4 [8]
000000 b4 1d 7f 3d d0 fd 87 3c 77 a1 2c ba 86 f9 fa 3c
       0.062284186 0.01660052 -0.00065853394 0.03063656
000010 72 67 09 3e 52 b7 31 bd b5 69 de 3d 73 99 a4 bd
       0.13418368 -0.04338772 0.10860006 -0.080370806

weight f4 [8]
000000 08 42 7f 3f 4b 0b 7b 3f 44 5d 77 3f d2 71 88 3f
       0.9971013 0.98064107 0.9662669 1.0659735
000010 97 75 74 3f 7d 0a 6b 3f 55 e6 7e 3f 04 5f 82 3f
       0.9549193 0.9181288 0.9957021 1.0185246

bias f4 [8]
000000 78 75 00 3d 42 49 82 bc 37 1a 10 bd 2d 9d d3 bc
       0.031362027 -0.015904073 -0.03518125 -0.025831783
000010 ac 30 f7 bc 58 46 c2 bb 76 42 2f bd e4 b2 a4 bc
       -0.030174576 -0.005928796 -0.04278799 -0.020104833

running_mean f4 [8]
000000 c6 63 60 3e 9e 1e 22 3e 45 1e db 3d aa 7f c0 3d
       0.2191306 0.15831992 0.10699133 0.0939935
000010 04 d1 e1 3e d7 b0 8e 3d 7e 15 d1 3e e0 3d 9d 3d
       0.4410478 0.06967323 0.4083671 0.07677817

running_var f4 [8]
000000 2a 9d 49 3d 07 40 32 3d 39 dd 17 3c 3f db de 3b
       0.04922215 0.043518092 0.009269052 0.0068010385
000010 cb 24 17 3d 42 6a 4e 3c 6d 59 f4 3c 5b 17 77 3c
       0.036900323 0.012598576 0.029827798 0.015081252

weight f4 [16, 8, 5]
000000 12 04 d6 3d 66 64 13 3e 07 5c f4 bd 18 15 38 3d
       0.10449995 0.14393768 -0.11931615 0.04494199
000010 ce f2 2c be 4f 2b 28 3d 23 28 c4 bd be 4f c1 bd
       -0.16889498 0.041056927 -0.09577968 -0.09439038
000020 ec 36 df bd 92 8f 23 bc 4c 2b 3f 3d 82 20 91 ba
       -0.108991474 -0.00998296 0.04667215 -0.001107231
000030 b9 d1 0e 3d f6 f5 09 3e b6 4a 34 3d 8e 6a e7 bd
       0.034867976 0.13472733 0.044016562 -0.112996206
000040 64 90 f1 3c c8 5f ef bc 31 f9 0b 3e b5 37 96 3c
       0.029487796 -0.029220477 0.13669278 0.01833711
000050 5c 19 f4 bd 9c 1b 99 bd 54 d3 a3 bd 75 ff 93 bd
       -0.119188994 -0.07475969 -0.07999292 -0.07226459
000060 db f8 8a bc 46 45 2d be 63 2f c4 bd d7 fa 34 be
       -0.016964367 -0.16920957 -0.09579351 -0.17673813
000070 55 8c 8d bd b1 fe 96 3d 1a 43 b0 3c 14 01 3c 3c
       -0.06911532 0.07372797 0.021516372 0.011474866
000080 fc 19 87 bc b2 5c 6f 3a a8 7b 5d bc c5 78 6f be
       -0.016491883 0.0009130939 -0.0135182515 -0.23385914
000090 d9 52 18 bc fa 39 a1 bd 39 af 82 3b 8d 68 3a be
       -0.009297096 -0.07872386 0.0039881733 -0.18203945
0000a0 6e 71 df bd ba 1a 8e 3d 14 a2 88 bc 74 b6 24 bc
       -0.10910307 0.069386914 -0.016678847 -0.010053266
0000b0 2e aa 08 be bd cd 0e be 7d 4c 77 3d dc 0a ee bc
       -0.13346168 -0.1394567 0.06037568 -0.029057913
0000c0 4c 44 7b bc 56 81 86 3d 3c bb e3 3b 1a f1 3d 3d
       -0.015336107 0.065676376 0.0069498103 0.04637251
0000d0 46 f2 65 3d b4 15 51 3c f9 b0 51 bb 4b ef fc bd
       0.056139253 0.012761522 -0.0031996353 -0.12350329
0000e0 46 77 da ba 0b fa d6 bb 7a 2d 20 3e 4e 2d 12 3e
       -0.0016667626 -0.006560569 0.15642348 0.14275095
0000f0 d7 14 e9 bd 7a cb 1a 3d f2 d0 00 be e8 93 81 bd
       -0.11380928 0.037791707 -0.12579706 -0.06327039
000100 fe 0c 64 bc aa 33 07 3d 99 01 65 bd 27 53 94 3d
       -0.013919113 0.033008255 -0.055909727 0.072424226
000110 ff 34 b1 bd 5d d3 30 bd 7e a3 3d 3b 6f 25 2f 3d
       -0.08652686 -0.04317032 0.002893656 0.04276031
000120 44 3e 83 3d 51 a4 1f be 04 73 c6 bd 4c 8d 13 bd
       0.064083606 -0.15590025 -0.09689906 -0.036023423
000130 63 e5 af bd 7f 18 0d bd 40 86 42 3e ea af 0a 3e
       -0.08588674 -0.03444719 0.18996525 0.13543668
000140 a0 dd 14 be 2d bf 8a 3c 25 5b af 3d 96 95 41 3d
       -0.14537668 0.016936863 0.08562306 0.047261797
000150 5f 07 a5 bd a3 b4 c4 bd d1 98 d7 3d 8b 97 d5 3d
       -0.080580465 -0.09604766 0.10527194 0.10429295
000160 8c f2 5b bd df 38 79 3d 5f 0b d6 3d b8 44 a6 3d
       -0.053698108 0.060845252 0.104513876 0.08118576
000170 d6 2f c6 3d 31 80 52 bc b7 68 2c 3d 0e a8 e4 bd
       0.09677093 -0.012847946 0.04209205 -0.111648664
000180 fd a6 dd 3d 4a fa 1c 3e a9 f6 18 3e 25 8d 28 be
       0.10822866 0.15329853 0.14937843 -0.16460092
000190 87 f2 cd bd 86 24 75 bd 3c 96 cd 3d c8 c0 12 3c
       -0.10056024 -0.059849285 0.100384206 0.008957095
0001a0 a6 ec 0c 3e 22 52 18 3d 26 02 2b 3d ce 8f 0d be
       0.13762149 0.037187703 0.041750096 -0.13824388
0001b0 ff ad 8f bb d4 3d a6 3c c4 55 c9 3d e1 76 a4 bd
       -0.0043847556 0.020293154 0.098308116 -0.08030487
0001c0 3c 35 9a bd 1c 92 45 be f3 78 fa bd dd 43 e4 bc
       -0.07529685 -0.19294018 -0.122301005 -0.027864391
0001d0 35 c8 97 3d 22 1e 93 3d 03 5c 8b 3d 70 ef 86 3b
       0.07411233 0.07183482 0.06804659 0.0041178986
0001e0 b8 fe 43 3e d0 3a 8d bd 16 6a ab bd f5 1b 9f bd
       0.19140136 -0.06895983 -0.08369844 -0.07769004
0001f0 0a 1a f3 bd 7a 6a 39 3e 68 1a e2 3d a3 31 89 3d
       -0.11870201 0.18107024 0.11040193 0.066989206
000200 dc 13 ca 3b 99 39 af 3d 88 65 e9 bd 28 02 be bd
       0.006166918 0.08555908 -0.11396319 -0.09277755
000210 c5 89 e6 bd df e5 bf bd 10 81 87 3d 2f 76 40 3d
       -0.11256746 -0.09370016 0.066164136 0.04698771
000220 53 67 cc bd 7f 5e 57 bd 61 94 5d bd b2 b0 03 3c
       -0.09980645 -0.052580353 -0.054096583 0.008037733
000230 51 6c 69 bd ca 9c bc 3c 10 1f a5 bd 8c ee 2d bd
       -0.056988064 0.023023982 -0.08062565 -0.042463824
000240 9c 32 e9 3d 8b 44 23 be 7b 97 80 bd 7e 25 a8 3b
       0.11386606 -0.15944116 -0.062788926 0.0051314225
000250 cf 32 a2 3d 56 41 7e 3d 8b 2d de bd 4b fe 0d 3e
       0.07919847 0.062074028 -0.108485304 0.13866536
000260 eb a8 32 bc 01 aa 35 3e a2 55 0a 3e 3a 0c e2 bd
       -0.010904531 0.17740633 0.13509229 -0.11037488
000270 2c 1c dc bd bd 5d c2 bd ed a5 79 3c 2f c4 03 3e
       -0.10747561 -0.094905354 0.015237314 0.12867807
000280 2c 47 55 3d 7b fe 8e 3d c6 35 37 3e f5 00 a4 3c
       0.052069828 0.06982132 0.17891607 0.020019988
000290 d5 35 f6 bd 28 79 a6 3d ed 44 97 bd a0 65 2f 3e
       -0.120219864 0.081285775 -0.073861934 0.1712861
0002a0 05 68 c4 3b d0 1b 86 3d 18 56 00 3e 07 6c 01 be
       0.0059938454 0.065482736 0.12532842 -0.12638865
0002b0 7c 22 c4 bd c5 fd 32 bd 5a 9b 13 3e b3 bc 42 bd
       -0.0957689 -0.043699045 0.1441473 -0.04754324
0002c0 52 92 f1 bd 8a 00 6a be cc c8 2b be d6 7a d2 3d
       -0.117954865 -0.22851768 -0.16775817 0.10277335
0002d0 60 10 10 be c1 d0 e0 bd 84 d0 40 3e fb 07 c7 3d
       -0.14068747 -0.10977317 0.18829542 0.09718319
0002e0 ca ea 2c bd b7 f9 04 be 9c 8a 75 3d 8b d4 13 bd
       -0.0422161 -0.12985884 0.05994664 -0.03609137
0002f0 ce 8f 85 3c 97 b2 7b bd a2 ef d0 bd 97 b6 15 be
       0.016303923 -0.061449613 -0.10201956 -0.14620434
000300 fc dd cd bd b1 76 84 bd 49 7c 8f bd bf d0 2e be
       -0.10052106 -0.06467951 -0.070061274 -0.17071818
000310 bd 6f e0 3d f8 43 97 3d cd 42 06 bc 71 9e 55 3e
       0.109588124 0.07386011 -0.0081946375 0.20861222
000320 64 44 f7 3c 50 e0 fe bd ae da a6 bd 45 15 00 3e
       0.030183978 -0.12445128 -0.081471786 0.12508114
000330 f9 cb 1e 3d 80 1d ac bd 80 8f e7 bd 94 bc bd bd
       0.038768742 -0.08404064 -0.11306667 -0.09264484
000340 97 ef 6b bd 8c 42 6b 3c 99 7a 38 be 96 72 85 bd
       -0.057601538 0.014359128 -0.18015517 -0.06515996
000350 82 09 b0 3c b1 67 e7 3d 02 15 97 3d 90 fd 52 3d
       0.021488909 0.112990744 0.07377054 0.051511347
000360 5d 05 0d 3e 1c 00 4e 3e e8 04 57 3e a0 c0 8c 3d
       0.13771577 0.20117229 0.20997965 0.06872678
000370 8e 56 aa bd 42 bc 00 be 24 76 18 3e cc 38 20 bb
       -0.0831729 -0.12571815 0.14888817 -0.0024447916
000380 af 22 10 bc 11 45 95 3c 7f db b1 3d c3 81 19 3e
       -0.008797332 0.01822141 0.08684444 0.14990906
000390 7a f4 90 3d 35 df a1 3d 47 ba 44 3d 74 92 9e bc
       0.0707788 0.079039015 0.04802921 -0.019356944
0003a0 63 28 11 3e f3 61 1d 3d f4 ec ff 3c 07 1c 13 be
       0.14175563 0.03842349 0.031240918 -0.1436616
0003b0 a6 7b 62 bd 6f db 7d 3c 0a 08 de 3d 1f c1 42 3d
       -0.0552937 0.015494212 0.10841377 0.047547456
0003c0 0d eb e3 3b 40 a9 b3 3d 67 89 06 3e 83 a3 91 3d
       0.0069555105 0.08772516 0.13138352 0.071112655
0003d0 e0 5f b3 3d ad 76 d3 3c 96 f2 2c be 86 23 dc bc
       0.08758521 0.025813425 -0.16889414 -0.026872408
0003e0 a0 26 89 3b 31 8e 9d bd 02 0b b2 bd fe 60 65 be
       0.0041855127 -0.076931365 -0.08693506 -0.22400281
0003f0 bd 91 92 bd f1 6a af bc eb 28 ff bb 83 04 ce bd
       -0.071567036 -0.021413298 -0.00778686 -0.10059454

bias f4 [16]
000000 97 09 dc bd f6 77 06 be 13 5a 16 3e 12 7e 0d 3e
       -0.107440166 -0.13131699 0.14682798 0.13817623
000010 b1 09 47 3d 6f 1e d0 3d 71 4c c9 bd d0 cf ed 3d
       0.048593227 0.10162055 -0.09829033 0.11611903
000020 54 73 a6 3d 53 7a 50 3d 31 f3 25 3d 36 22 25 be
       0.08127466 0.050897907 0.04051513 -0.16126332
000030 2b aa 50 bc ce cb ab bc 00 7f 13 bc 82 bb 3a be
       -0.012735884 -0.020971205 -0.009002447 -0.18235591

weight f4 [16, 16, 5]
000000 5c e4 29 3b fc 67 52 bd 4b c1 60 3d 78 7e 97 3d
       0.0025923466 -0.0513687 0.05487184 0.07397169
000010 8f d0 31 bd 62 f7 78 bd 80 2d 3f bd 60 5c 48 bd
       -0.043411788 -0.060782798 -0.04667425 -0.04891622
000020 97 32 39 bb 6b ca 67 3d aa db d3 3c c1 4d e1 3c
       -0.0028258914 0.056589525 0.02586158 0.027502896
000030 3a 33 46 bd dd f8 c3 bc a1 ed f6 bc e0 4f b9 3c
       -0.048388697 -0.023922378 -0.030142607 0.022621095
000040 11 09 0b be 44 3f 3e 3c e4 46 db 39 d0 4f a2 3d
       -0.13577677 0.011611763 0.00041823753 0.07925379
000050 a4 c7 ff bd 55 e7 72 3d c7 c1 00 3e b8 b8 c5 3d
       -0.1248925 0.059302647 0.1257392 0.09654373
000060 42 72 f0 3d 91 fb ad 3d bb e9 c7 bd 47 af 05 be
       0.11740543 0.08495248 -0.097613774 -0.13055144
000070 f3 7b 8d 3d 76 58 b9 bd 40 7d e8 bd 90 9f 52 bd
       0.06908407 -0.09050076 -0.113520145 -0.051421702
000080 15 83 1c 3e ce 71 0b 3e 9b 44 bb bd ed 6f 10 3d
       0.15284379 0.13617632 -0.09143945 0.03526299
000090 b8 2c b8 3d 59 bf 3b 3d dc 60 39 bd b6 82 99 3d
       0.089929044 0.04583678 -0.045258388 0.07495634
0000a0 91 27 ca bd ff d3 8a 3d 5a b1 ec bd 0a ce 29 bd
       -0.09870828 0.06778716 -0.115572646 -0.04145626
0000b0 cb 24 9e bd a9 7b e9 bc 68 00 f6 bd 9b e1 07 3d
       -0.077218615 -0.028501349 -0.12011796 0.03317414
0000c0 fd 25 81 bd 93 b4 1d bd 59 ec 8d 3d 75 34 9d 3d
       -0.06306074 -0.038502287 0.06929845 0.07676021
0000d0 c2 58 89 3d 5e bb 3b 3d fa 9b bf 3d be 2f 01 be
       0.06706382 0.045832984 0.09355922 -0.12615868
0000e0 cb 17 b2 bc bf 12 87 bd 15 ea 87 3d 09 51 e2 bd
       -0.021739861 -0.065953724 0.066364445 -0.110506125
0000f0 e1 25 db 3c 22 c6 5f bc 64 87 12 bd 1c 45 32 bd
       0.02675146 -0.013658078 -0.03577365 -0.04352294
000100 7e e0 a7 3c 4c 9b 10 3d 94 22 cf bd 60 ee bd bc
       0.020492788 0.035304353 -0.10114017 -0.023184955
000110 e8 3b ad bd d0 ed cd 3d 74 b8 f3 bc fc 73 a4 bd
       -0.08458692 0.10055125 -0.02975104 -0.08029935
000120 35 fd 4d bd ba 42 0c bd 1d b7 c9 3d 63 f0 56 bd
       -0.050290305 -0.034243323 0.09849379 -0.052475344
000130 b7 2f a3 bd c5 38 f4 3c a1 bf d5 3d 03 fa 59 3d
       -0.07968085 0.029812226 0.10436941 0.053216945
000140 fd 4f 9f 3d 9d 8c 00 3d b4 35 61 3d e1 a7 90 bd
       0.077789284 0.0313841 0.054982856 -0.0706327
000150 bb 6d f2 3d 26 41 c2 bd ca 76 19 3e 27 10 84 bd
       0.11837336 -0.09485082 0.1498672 -0.06448393
000160 91 1a fd bd 62 5b e9 bc b8 db 38 3d b7 26 96 bd
       -0.12358583 -0.028485958 0.045131415 -0.07331603
000170 e9 80 9c bc 7c d5 6e bc 12 c5 39 3d 1b b1 1a be
       -0.019104438 -0.014577266 0.045353957 -0.15106623
000180 62 32 d2 bd 9f 5b 97 bd 98 ab 0f bc 06 a8 00 3d
       -0.10263516 -0.07390522 -0.0087689385 0.03141024
000190 b9 db d3 bd ea f6 a0 bd 78 dc c0 b8 6e 56 d5 3a
       -0.10344643 -0.07859595 -9.196339e-05 0.0016276368
0001a0 25 38 6e 3d 9f 27 6f 3c 75 77 8d bd 17 92 b9 bd
       0.058159012 0.014596849 -0.0690755 -0.090610676
0001b0 96 7f ca bd 3c 6d 8d bd 3d bc 22 bc 4e c3 82 3d
       -0.09887616 -0.069056004 -0.009932575 0.06384908
0001c0 69 ff f4 3c be 18 6b bc d3 78 fc bb 84 0e d0 3d
       0.029906945 -0.014349161 -0.007704833 0.10159019
0001d0 d6 a2 c6 3c 95 b1 b8 3d 6d 85 71 3d 4e 1f a8 bd
       0.024247568 0.09018246 0.058965135 -0.08209096
0001e0 9d f7 f8 3d 1f c8 0e 3d 90 12 dc bc d7 0c eb 3c
       0.121566035 0.03485882 -0.02686432 0.028692646
0001f0 a5 ec 8a 3c bd ff 09 bd bd 78 c8 b9 f7 26 c8 bc
       0.016958544 -0.033691157 -0.0003823693 -0.024432642
000200 a0 59 84 3d 5d b8 8a 3c ec 90 b9 bc 25 b9 a0 bb
       0.06462407 0.016933614 -0.022652112 -0.0049048834
000210 69 1b ce 3d d1 f9 46 bd fc 02 99 bd bb 54 8e 3d
       0.10063822 -0.048578087 -0.07471272 0.06949755
000220 dd d5 2e 3e 36 15 1f bd 15 5c e9 3c 39 ee 59 3d
       0.1707377 -0.038838588 0.028486291 0.053205702
000230 18 f7 2a 3d 15 1a db 3c 0a dd ac 3d ed 32 5d 3d
       0.041739553 0.026745835 0.08440597 0.054003645
000240 63 af a8 3d 7c a7 ab bd 9c 22 6e bd 9f 3d 42 3c
       0.08236577 -0.083815545 -0.058138475 0.011855512
000250 82 34 e3 3d 2e 1b 9c 3c b4 be 12 3d 9c 25 b3 3d
       0.110939994 0.019055929 0.0358264 0.08747408
000260 cf 86 da 3d c6 56 d7 39 ac 4c b0 3a dc 7c 02 bb
       0.10670244 0.00041072647 0.0013450584 -0.0019910848
000270 dc 91 11 bc 6d 06 0a be b9 4a b8 bd 27 ce 0f 3e
       -0.008884873 -0.13479014 -0.08998627 0.14043485
000280 2d ff f2 bc 80 ef db bd f3 66 2f 3c 76 b6 d4 bd
       -0.029662693 -0.107390404 0.010705697 -0.10386364
000290 82 22 d6 bd 64 13 da bd 29 60 db bc 9f 00 a0 bd
       -0.104558006 -0.1064823 -0.026779251 -0.078126185
0002a0 99 32 b7 3c ac 0d b2 bd 26 fe 4f bd 04 b3 bb bd
       0.022362994 -0.08694014 -0.050779484 -0.09165004
0002b0 02 32 9f bc ca 78 ed 3d 59 8e 47 bd 63 ba 3b 3d
       -0.019433025 0.11595304 -0.048719738 0.04583205
0002c0 ac 82 2e bc 45 a1 b6 bd a9 ba 45 3c 78 22 00 3d
       -0.010651272 -0.089174785 0.012068429 0.031282872
0002d0 9e 13 f8 3c ff 5f ae bd 0d fe f8 bd 8d ae d2 3d
       0.030282792 -0.085144036 -0.12157831 0.10287199
0002e0 c6 6e c2 3c 3c 44 d2 bd 93 2c 17 be 8d 62 53 bd
       0.023734462 -0.10266921 -0.14763097 -0.051607657
0002f0 40 42 54 bc 76 89 04 be 10 c4 b7 bc 17 fe 64 3d
       -0.012955248 -0.12943062 -0.022432357 0.05590638
000300 77 42 bb 3d 96 7a c0 3d a1 b3 ee 3c a1 bc bf 3d
       0.091435365 0.093983814 0.029138388 0.0936215
000310 28 02 20 bd 00 c5 a2 bc 6d 0c 3c 3d 61 3e a3 3d
       -0.039064556 -0.019869328 0.045910288 0.07970882
000320 62 d1 49 3d 2e 22 51 3d 9d 9d 31 3d c6 4b 93 3d
       0.04927195 0.051057987 0.043363202 0.07192187
000330 db 9c af bd 08 fc f7 bc 28 20 54 bd 16 b9 00 3e
       -0.0857484 -0.030271545 -0.05178848 0.12570605
000340 45 8f f7 bc 6d 98 44 bd e0 b9 80 3d 41 ea 30 3d
       -0.030219683 -0.047996927 0.06285453 0.043192152
000350 9c ce 15 3e 6d 1f 20 bd 5a d6 6c bc 2e f8 35 bd
       0.14629596 -0.03909247 -0.014455402 -0.044426136
000360 7a 9b 81 3c 78 be ba 3d 94 61 62 bd bb 54 5f bc
       0.015821207 0.0911836 -0.05526884 -0.013631041
000370 20 bd b2 3d 33 9d b8 3c 92 ab 02 bc 97 2e e6 bd
       0.08727479 0.022535896 -0.007975476 -0.11239355
000380 d4 65 a9 bd 8d 99 d6 3c ae c1 c4 bb 24 e7 bf bd
       -0.08271375 0.026196266 -0.0060045337 -0.093702585
000390 3f b4 08 bd 62 5f 15 bd 44 43 b4 3d fe 5f cb 3d
       -0.03337502 -0.036467917 0.088018924 0.099304184
0003a0 17 f6 88 bc d8 3f 40 bd 2a b2 63 3c e4 ab 5e bd
       -0.016718907 -0.046935886 0.013897458 -0.054363146
0003b0 fd 73 e7 bd cc fa c0 3d bb f5 ea bb 99 52 e6 bd
       -0.1130142 0.09422836 -0.0071704066 -0.11246223
0003c0 c0 1c 02 3d 00 c5 88 3d 9a 95 04 be ac fa d4 bb
       0.0317657 0.066782 -0.12947693 -0.006499609
0003d0 88 59 ce 3d df e7 76 bd 6f 44 ac bc 80 50 c9 bd
       0.100756705 -0.060279723 -0.021028725 -0.09829807
0003e0 77 67 0d 3e 68 40 c0 3d 31 41 13 3d 34 5d af 3d
       0.13809 0.093872845 0.035950843 0.08562699
0003f0 6d 74 50 bc 73 2f b5 3d 53 56 ff 3c 4a d7 f7 3c
       -0.012723071 0.08846941 0.031169092 0.030254025

bias f4 [16]
000000 ec ea ab 3d 53 b3 38 bc 9c 14 4e 3c d0 ca dc bc
       0.08394417 -0.011273223 0.012578156 -0.026952177
000010 31 15 35 3b c5 25 c1 3d cc 64 0c 3d c4 fd bf 3d
       0.002763104 0.09431032 0.034275815 0.09374574
000020 23 02 b1 bd 9a 44 5b bc bb cb f8 3d 39 a7 fc 3d
       -0.08642986 -0.013383055 0.121482335 0.12336583
000030 2e 9e b8 3d 3b c3 a2 bd 66 3e a6 bd 87 75 b4 3c
       0.090145454 -0.079473935 -0.0811737 0.022028698

weight f4 [16]
000000 7d 6d 7e 3f a0 74 80 3f 9c 3a 7b 3f ec ce 83 3f
       0.99385816 1.0035591 0.98136306 1.0297523
000010 c9 bc 7b 3f a0 4a 7b 3f 08 f4 7c 3f 46 0d 84 3f
       0.9833494 0.98160744 0.9880986 1.0316551
000020 b6 b5 80 3f 1e b3 7e 3f 3d 2b 76 3f 98 7f 80 3f
       1.0055454 0.9949206 0.96159726 1.0038939
000030 57 de 78 3f e2 4a 81 3f 0d a6 78 3f 78 b9 76 3f
       0.97214264 1.0100977 0.97128373 0.9637675

bias f4 [16]
000000 2e 2e 30 bc 65 1e be bc bb 96 c0 3b 63 ab ba 3c
       -0.010753198 -0.023207853 0.0058773435 0.022786802
000010 19 59 af bc 82 f4 19 bd 5b 40 a2 3c a9 da c0 3a
       -0.02140479 -0.037586696 0.019806078 0.0014713603
000020 ae ab 1b bd fd cd a2 3c c1 97 80 bc 10 04 dd bc
       -0.038005523 0.019873613 -0.015697362 -0.026979476
000030 99 ae 2c 3b b2 71 17 bd 5d 08 06 bd 47 c5 fc 3a
       0.0026349186 -0.036973663 -0.03272282 0.0019284867

running_mean f4 [16]
000000 51 70 0f 3f b9 65 cc 3e 2c 62 8d 3e c4 f5 42 3e
       0.56030756 0.39921358 0.27613962 0.19039065
000010 6c ff c7 3c 6a 51 a0 3e 56 a4 7f 3e 3f c2 45 3f
       0.024413787 0.31312114 0.24965033 0.7724952
000020 2c 4f b4 3e 5a fb 13 3e 66 01 8e 3e 3c f9 07 3f
       0.35216653 0.14451352 0.27735442 0.53114676
000030 96 4e 2f 3e b7 4b c2 3c 14 84 33 3e c8 6e db 3e
       0.17119822 0.023717744 0.17530853 0.42857957

running_var f4 [16]
000000 56 ea 30 3e 46 81 4f 3d a5 9e 94 3d f7 34 ad 3c
       0.17276892 0.050660394 0.072568215 0.02114342
000010 38 60 67 3b fa b0 b6 3d 3e 2b 80 3d af fc 01 3e
       0.0035305154 0.08920474 0.06258248 0.12694047
000020 28 7f 41 3d d4 34 8f 3d a2 7b ec 3d c0 e1 79 3e
       0.047240406 0.06992498 0.115470186 0.24402523
000030 c5 c8 8f 3c 23 77 8a 3b dc 39 75 3d 94 d3 0c 3d
       0.017551789 0.004225628 0.059869632 0.034381464

weight f4 [32, 16, 5]
000000 18 e6 c3 3c 47 35 9b 3d de c0 b3 3d 9d 75 c7 3d
       0.023913428 0.07578521 0.08777021 0.0973923
000010 2c e8 fc 3d d3 57 a6 bd 42 ff 86 3b c1 28 05 3d
       0.12348971 -0.0812222 0.0041197846 0.03250957
000020 08 5c 2e 3d eb 84 c2 bd 71 2f 9c bd f5 77 16 bd
       0.042568237 -0.09498008 -0.07626236 -0.036735494
000030 99 3d 80 3d ca e6 dc 3d 40 02 28 3d 5c e1 4f 3c
       0.06261749 0.10786207 0.04101777 0.012688007
000040 52 8a d2 bc 54 69 0a bc 35 08 d1 3d de 89 f4 3b
       -0.025700722 -0.008447964 0.102066435 0.007462724
000050 a3 66 d6 bd ac 2d 91 bd 0b d9 b3 bd 87 06 b0 bc
       -0.10468795 -0.07088789 -0.08781632 -0.021487487
000060 e1 1d 51 bc 99 f6 20 bd 58 f8 dd bd e9 7e 81 3d
       -0.012763471 -0.039297674 -0.108383834 0.06323034
000070 84 4a 58 bd 5f 5b c6 bd ba 94 40 3d fb 9f 76 bc
       -0.05280544 -0.096853964 0.047016837 -0.015052791
000080 84 44 be ba 9f a9 98 3d 0e 12 ca 3d 97 c0 75 3c
       -0.0014516269 0.07454228 0.09866725 0.01499953
000090 a7 f6 01 be 20 ab b1 3d 00 98 07 3c cc 2d fe 3c
       -0.12691747 0.08675218 0.008275986 0.031027697
0000a0 ad c9 52 bd 86 75 d5 bd ee 34 48 3d be 63 c3 3d
       -0.051461864 -0.104228064 0.048878603 0.09540509
0000b0 9d 08 eb bc 1f 08 ce 3d fa d2 fb 3a f2 ba fe bc
       -0.02869063 0.10060143 0.0019212656 -0.031095002
0000c0 01 93 00 be 60 24 11 be 6d b5 13 3d ab 12 b6 bd
       -0.12556078 -0.14174032 0.036061693 -0.088902794
0000d0 a6 30 ca bd 45 d9 78 bd c3 5c 19 3d 00 fa fe bd
       -0.0987256 -0.06075408 0.03744198 -0.124500275
0000e0 1e 0e 0e be 72 2d d6 3c bd e8 91 bd dd 96 53 3d
       -0.13872573 0.026144717 -0.071244694 0.051657546
0000f0 2b d6 93 3d a2 cc 1d 3d 60 c5 99 bc f4 59 ec 3c
       0.07218584 0.03852523 -0.018770874 0.028851487
000100 09 0b ab bd 28 5b 94 3d 6a cb 81 3d 9d 7f a0 3d
       -0.08351714 0.07243949 0.06337626 0.0783684
000110 fe 78 8d 3d cf 83 90 bd ba f2 c0 bc c2 68 a1 bd
       0.06907843 -0.070563905 -0.023553241 -0.07881309
000120 af 56 58 3d 0a 00 f1 bd d3 cd 5c bd 35 21 5d bb
       0.052817043 -0.117675856 -0.053907227 -0.0033741717
000130 e7 2d 7b 3d c2 59 c6 3c a8 37 f0 bc c4 05 15 be
       0.061323073 0.024212722 -0.029323414 -0.1455298
000140 8f 8b 2d 3c 4e c1 88 bd f2 bb 38 bd ce 50 d3 bd
       0.010592355 -0.06677495 -0.045101114 -0.10318147
000150 f6 f1 9b 3d 19 55 a3 bd f5 2c a1 3d 7a 45 9a bd
       0.0761451 -0.079752155 0.07869903 -0.07532783
000160 ce 36 80 bd b2 6a ec bd bd 2d d8 3d fd f6 cb 3c
       -0.06260453 -0.11543788 0.10555599 0.024898047
000170 52 d3 40 3d 30 9e 79 bd 43 11 5d bd 27 45 53 bc
       0.04707653 -0.060941875 -0.05397154 -0.012894905
000180 96 51 cf bd 3f 29 1a bd 46 64 0a 3d e8 f2 df bd
       -0.10122983 -0.03763699 0.033787034 -0.109350026
000190 4d 88 6c 3c a0 03 89 bc b1 e4 ac 3d 7f 76 f6 3c
       0.0144367935 -0.016725361 0.08442057 0.0300858
0001a0 73 86 f6 bd 34 4b 8b 3d 07 24 67 3c 49 f5 a3 3d
       -0.12037363 0.06801453 0.014107711 0.08005769
0001b0 20 af 03 3d aa 9c 7d bb 63 bd fb 3c af f3 df 3d
       0.032149434 -0.0038698115 0.030729955 0.10935151
0001c0 6e 78 f0 bc 9f 5b 75 bd fa 0c 84 3c 14 c9 cf bc
       -0.0293543 -0.05990183 0.016119469 -0.025364436
0001d0 7e 6b 56 bd 5f 10 21 bd b2 60 88 bd 31 3b 63 3d
       -0.052348606 -0.039322253 -0.06659068 0.05547637
0001e0 c8 72 05 be 20 c1 00 bd f4 e1 01 3e ac a0 18 bd
       -0.13032067 -0.03143418 0.1268385 -0.037262604
0001f0 01 bb 66 bd 6c f4 b9 3c 06 fe 0f 3d f4 06 09 bc
       -0.056330685 0.022699557 0.035154365 -0.008363474
000200 b1 9b 7a 3d 8a fb 22 be 36 88 80 bd 7e cc c1 3d
       0.061183635 -0.15916267 -0.0627598 0.09462832
000210 56 1a ce 3c f8 0a 7a bd 1a 52 8a 3d 43 2c c2 3c
       0.025159042 -0.061045617 0.06753941 0.023702746
000220 fa 3c 6e 3b eb 91 1a bc bb 27 e4 bd ce ac bb bd
       0.0036352263 -0.009434204 -0.111403905 -0.09163819
000230 a5 79 09 3e 61 62 2c 3d a5 c4 2f 3d e7 9e ec 3c
       0.1342531 0.04208601 0.042912144 0.028884364
000240 66 0e 71 bd 83 e7 cd bd bf e8 ba 3d 6e f1 e9 3d
       -0.058851622 -0.10053923 0.09126424 0.11423002
000250 3e d3 03 3e 9e 9f 55 3d 41 b0 0d 3e 1f 85 c5 bc
       0.12873551 0.052154176 0.13836767 -0.024111329
000260 e4 c5 e1 3d ef bc 4b bc 2c 1f 7f b9 bb 62 d9 bd
       0.11024073 -0.012435182 -0.00024330307 -0.106145345
000270 6c 8b af bd 95 9f 04 3e b9 e4 f2 bd 9e e0 96 bd
       -0.085715145 0.129515 -0.11860032 -0.07367061
000280 46 f1 28 bd 3c fc 3d 3d c2 b3 80 3d 58 1d f6 3d
       -0.04124572 0.046383128 0.06284286 0.120173156
000290 fc c2 01 3e 3d 8f 04 3e f6 95 43 3d bd d0 04 3e
       0.12672037 0.12945266 0.047750436 0.12970252
0002a0 66 e5 54 3c b0 2b 00 ba aa be 99 3d b6 a5 51 bd
       0.012994146 -0.00048893224 0.075070694 -0.051183425
0002b0 22 72 e4 3d 62 9e 26 3c 65 65 d6 3d 7b 19 ee bb
       0.111545816 0.010169597 0.10468558 -0.007266221
0002c0 48 c2 cc 3d 6b c7 d5 3d 14 69 1e bd 71 f6 c2 3d
       0.09997994 0.104384266 -0.03867443 0.09519661
0002d0 10 ef 2c 3d 5c 3e db bc 69 d9 d6 3d 0d 1b aa 3d
       0.042220175 -0.026763134 0.104906864 0.08305941
0002e0 26 4f 62 bc 63 b5 fa bc 0f ba 6a 3d 87 0c 12 bc
       -0.013812816 -0.03060407 0.057306346 -0.00891412
0002f0 b8 7d f3 bc 96 98 bf 3d 73 2c c7 3d d9 ad 73 bd
       -0.029723033 0.09355275 0.09725275 -0.059491966
000300 53 95 1c 3c 0d ed 8f bc 51 e9 ea 3d f2 34 0c 3e
       0.009557086 -0.01756909 0.11470283 0.13692072
000310 db 1d 0a bd 9c b3 1c 3d 54 65 e1 bd bb a5 9e bd
       -0.03371988 0.038257226 -0.11005655 -0.07746454
000320 dc 40 e8 3c 64 26 1a 3e 17 61 79 bc 36 82 ce 3d
       0.02835124 0.15053707 -0.015220902 0.100834295
000330 d0 5c 88 3c 93 52 88 bd ae 55 b7 bd 28 b2 93 3d
       0.016645819 -0.06656375 -0.08951889 0.07211715
000340 d1 21 95 3d d1 4f d5 3d 12 62 7a bd 4d 2a 9f bd
       0.072818406 0.104156144 -0.061128683 -0.0777174
000350 9d 4a ce 3d 75 7d 62 bd 38 fe 9f bd 33 cb 9c bb
       0.10072825 -0.055295426 -0.0781216 -0.0047849654
000360 c4 a3 c8 3d f3 cb b5 3d 94 df 72 bc c1 90 a3 3d
       0.09796861 0.08876791 -0.014823813 0.07986594
000370 2f d4 fb 3d 4f 4e 80 3c 28 2f 12 3b 6b 9d 15 bd
       0.1229633 0.01566234 0.002230594 -0.03652708
000380 92 c3 88 3d 23 db 23 3e ba ae a3 3d 6b 1e a1 3d
       0.06677927 0.16001563 0.07992311 0.0786713
000390 7b f1 a5 bc 8b f1 6a bd ec 60 94 bc c5 92 cc 3c
       -0.020256748 -0.05735926 -0.018112622 0.024972329
0003a0 08 41 fc 3d f5 62 aa bb e3 03 42 3d 30 2e 1d 3d
       0.12317091 -0.005199785 0.047366988 0.038374126
0003b0 2d fa c3 3d 15 aa fc 3b 7d 5a a3 bd ef 7e a8 bc
       0.095692016 0.007710705 -0.07976244 -0.02056834
0003c0 ca 41 99 bc b5 ed 3c bd 15 e3 37 3d 34 50 fa 3d
       -0.018708128 -0.046125133 0.044894297 0.12222329
0003d0 04 50 32 38 41 56 d6 3d 4f 8e c1 3d c9 28 d3 bd
       4.2513027e-05 0.104656704 0.09450971 -0.103105135
0003e0 c3 52 05 bd be 86 9a bd d6 e4 02 bd e7 69 cc 3d
       -0.03254963 -0.07545231 -0.031956516 0.09981137
0003f0 31 7e e3 3d cd 5e c2 bb d6 d3 32 3d b2 eb 07 bd
       0.111080535 -0.0059317113 0.043659054 -0.03318376

bias f4 [32]
000000 d1 3f 3d bd ac 37 0d be 23 52 d8 bd ae a1 e0 bd
       -0.04620344 -0.13790768 -0.10562541 -0.10968338
000010 30 45 30 bc 44 12 b8 bd 42 29 15 bd cd c5 de bc
       -0.010758683 -0.08987859 -0.0364163 -0.027193928
000020 59 ea de bc b8 77 3c bd 1e 10 46 bc 25 11 58 3d
       -0.027211355 -0.04601261 -0.012088804 0.052750725
000030 d3 83 20 3d f6 4a f3 3d f8 a6 b4 3d b3 2d 3a 3d
       0.039188217 0.11879532 0.08820909 0.04545374
000040 eb ef 8b 3d bf 78 e7 bd 9c ab aa bd 2f bb ef bd
       0.0683287 -0.11302327 -0.08333513 -0.11705624
000050 1f 70 c2 3d cf a5 11 bd 77 e8 8b 3d 69 da 2b bd
       0.09494042 -0.035558518 0.068314485 -0.04195634
000060 c3 1d ba 3d 31 7a 7c bc 40 e4 cb 3d a0 70 87 3d
       0.09087708 -0.015409992 0.099556446 0.066132784
000070 b9 7b 2d 3d 86 9a 31 bd 41 0d c5 3d 1e b0 d0 bd
       0.04235432 -0.043360256 0.096216686 -0.10189842

weight f4 [32, 32, 5]
000000 b6 a2 9a 3d ce b0 e1 3c 15 66 b2 3d 93 6a b2 3c
       0.07550566 0.027550127 0.08710877 0.021779334
000010 6e ae 22 bd 6e a2 a0 bd 75 be 80 bd 32 05 9e 3d
       -0.03971713 -0.07843481 -0.06286327 0.07715835
000020 17 26 20 bd 27 af 3b bd be 66 ca 3c 4c 6b 18 3d
       -0.039098825 -0.045821335 0.024707194 0.0372117
000030 0d b5 ff 3d 7b a6 57 3d fa 6a a6 bb 8f f2 12 bc
       0.124857046 0.052649003 -0.0050786706 -0.008968963
000040 04 2d d3 bc 39 97 5d 3d f7 0f 23 bc 56 d7 57 bd
       -0.025778301 0.054099295 -0.009952537 -0.052695595
000050 f6 bd 45 bd a3 24 2d 3c 96 23 a2 3d 1d 44 a7 3c
       -0.048276864 0.010567817 0.07916944 0.020418221
000060 20 da aa 3d 83 b4 af bd 99 c1 4f bd ce 48 ae bd
       0.08342385 -0.08579352 -0.05072174 -0.0850998
000070 3f 2c d8 bb ed 6a 9f 3c 06 8a 75 bd 8e 2f 98 3c
       -0.0065970714 0.019460166 -0.059946083 0.018577363
000080 e3 83 99 3d 7b ad 31 3d dd 70 ff 3c ca 28 72 bc
       0.074958585 0.043378334 0.031181747 -0.014780233
000090 8c 4a 6e 3b 3f 5d cd bc 11 9b 7a 3d d9 e9 a9 bd
       0.0036360351 -0.025068877 0.06118304 -0.08296556
0000a0 e7 47 61 bc 57 79 16 3d d6 ec 3a bd e6 3c 2e bd
       -0.013750053 0.036736812 -0.04563602 -0.042538546
0000b0 e8 39 e3 bc 37 a7 07 3d 9a 74 66 bd 94 b9 b9 bc
       -0.027737573 0.033118453 -0.056263544 -0.022671498
0000c0 91 05 a9 3b 2a 81 79 bd 0f 7f b4 3d 89 fb e4 3b
       0.0051581343 -0.060914196 0.08813297 0.006987993
0000d0 2b b0 f4 bc 7e 0c a5 bd 57 17 00 3d 40 1b 14 ba
       -0.02986916 -0.08059023 0.03127226 -0.00056498125
0000e0 f4 ac 2b bd 10 d1 8f 3d 62 f5 61 bc d7 99 32 bd
       -0.041912988 0.070222974 -0.013791414 -0.043603744
0000f0 9d 1f 8b 3c 0c e1 8f bd e3 7a d4 3c bf 84 8a bd
       0.016982848 -0.07025346 0.025937503 -0.067636006
000100 b7 5d 7f 3d b0 00 fc 3c ca 5d b2 bd e8 25 8f bd
       0.062345233 0.030762047 -0.08709295 -0.06989652
000110 b8 8c 7d 3c 58 9e e6 ba 2e 58 3a 3d 47 ce 57 3d
       0.0154754445 -0.0017594798 0.04549425 0.052686956
000120 07 6c 33 3d cf d0 6a bd 01 33 51 3c c6 9c e2 bc
       0.043804195 -0.05732804 0.012768508 -0.027662646
000130 50 b2 e5 3c ae 73 67 bc 29 ee ad bc 22 b5 52 bd
       0.028039128 -0.014126701 -0.021231728 -0.051442273
000140 48 1d a0 bc 72 79 09 bd 2a 1a aa bd d0 ec 30 bd
       -0.019545212 -0.033563085 -0.08305772 -0.043194592
000150 0d 9c 19 3c 79 06 6d bc 00 4f dc 3c ae 27 8a 3c
       0.009375584 -0.014466875 0.026893139 0.016864624
000160 fe 47 55 bd 0b 66 3b 3d 3d 21 f9 3c 46 4f 79 bc
       -0.05207061 0.045751613 0.030411357 -0.015216654
000170 37 12 18 bd 32 58 8d 3d 20 f4 1b 3d 7a 33 52 bd
       -0.037126746 0.069015875 0.038074613 -0.051318623
000180 25 e4 68 3d a7 1a c5 3d 23 6b ad 3d 3a 22 03 3d
       0.0568582 0.09624224 0.084677 0.032015063
000190 01 d5 c7 bc 77 cc 40 3d 1c 1c 9a 3d 11 dc 7e 3d
       -0.02439356 0.047069993 0.07524893 0.06222159
0001a0 fe b8 72 bd a6 3d a1 3c 6d 20 23 3d 1f 13 a6 3c
       -0.059258454 0.019682717 0.039825846 0.02027279
0001b0 8f 5c 15 be 46 ff b7 bc 88 13 8e bc eb b8 f3 bc
       -0.1458609 -0.022460591 -0.017343298 -0.029751262
0001c0 fa b4 67 bd 0d 25 f2 3c 3a 96 d2 3c f1 c6 28 bd
       -0.056569077 0.029558683 0.0257064 -0.04120535
0001d0 eb ad 74 3d 3f 91 c5 bc 4a 33 46 3d 1b bc 65 3d
       0.059736174 -0.02411711 0.048388757 0.056087594
0001e0 09 70 58 bd cc 67 b7 bd f1 20 16 be 58 b8 8c bd
       -0.05284122 -0.089553446 -0.14661004 -0.06871098
0001f0 e7 89 1f bc a2 6f c0 bc 4e c6 f5 3c 5a bd e4 bd
       -0.009737468 -0.02349073 0.030001786 -0.111689284
000200 33 8d 05 3d db 55 d1 bd bc f6 4c bd 0c 7f b4 3c
       0.03260536 -0.10221454 -0.05003999 0.022033237
000210 7c cd ac bb 4d 48 27 3c 57 6b 62 bd 2a d0 db 3b
       -0.005273519 0.010210109 -0.05527815 0.0067081647
000220 65 c2 4d bd 5b 78 de bc 7a 77 b9 bd e4 ff dd bd
       -0.050234217 -0.027157 -0.090559915 -0.10839823
000230 81 b2 89 bc ed 3d 52 bd b7 4d ae 3d f2 f4 5d bc
       -0.01680875 -0.05132859 0.08510917 -0.013547169
000240 03 33 b1 bd e3 6c 00 3d d8 b3 b3 bd 0d 1a b0 3b
       -0.08652308 0.031353842 -0.08774537 0.0053741992
000250 54 71 65 3d a4 de a8 bc d9 76 bf 3d 61 fe 86 bd
       0.05601628 -0.020613976 0.0934884 -0.06591488
000260 f7 a5 b0 3d cb a9 a3 bc 3b 9b 89 3d de 8e 91 3d
       0.08625405 -0.019978425 0.06719061 0.07107328
000270 6f 48 f3 3d ab 5a 2d 3d b2 80 0b 3d cf b6 18 bd
       0.1187905 0.042322796 0.03405828 -0.037283715
000280 b2 ee e9 bd 0e ea 5a bd 83 a7 15 bd fb c5 86 bd
       -0.11422481 -0.05344587 -0.036536705 -0.065807305
000290 95 6a a7 3c cd 95 9d 3d f7 f5 e3 3c fa 92 5e 3d
       0.020436564 0.07694588 0.027827246 0.054339387
0002a0 44 d4 2c bd 6a a5 f0 3c 35 e1 81 3d d6 81 f8 3b
       -0.04219462 0.02937575 0.06341783 0.007583837
0002b0 31 22 e3 3c b4 78 70 3a 89 42 42 3d dc 40 e0 bc
       0.027726265 0.00091732596 0.047426734 -0.027374677
0002c0 3a 81 2f 3d b1 0a 72 bd c7 0e 40 bd 34 21 91 bc
       0.04284785 -0.059092227 -0.046889093 -0.017716028
0002d0 02 68 bb bd e9 60 94 3d 24 2c 54 bc 9e ef ab bd
       -0.09150697 0.07245047 -0.012949977 -0.08395313
0002e0 81 cf 79 3d a3 a4 e5 3b 89 16 68 3c 19 d6 79 3d
       0.060988907 0.0070081516 0.014165529 0.060995195
0002f0 d5 ce 13 3c aa 3a 4f 3c 98 bb 6e bd ff ff 8a bd
       0.009021481 0.012648264 -0.058284372 -0.06787109
000300 2e 7c d2 bc 37 b6 0c bd 33 b6 32 3d c6 0b 29 3d
       -0.02569398 -0.03435346 0.04363079 0.041270994
000310 43 bc c7 bc 9f 0d 16 3d 6e cf 22 3d 5f 7e 46 bd
       -0.024381762 0.036634084 0.0397486 -0.04846036
000320 65 4f f0 3c b4 5e 86 bb 45 02 87 3d e6 29 4e bd
       0.029334733 -0.004100645 0.0659223 -0.050332926
000330 ac b2 8f 3c 79 74 4a 3d ce f7 4b bb 15 97 59 3d
       0.017541252 0.049427483 -0.0031123045 0.0531226
000340 25 65 c3 bb b9 29 93 bc b5 11 01 3d 7c c6 b5 3c
       -0.005962985 -0.01796423 0.031511027 0.022189371
000350 56 8d d1 ba 2f d0 08 3d d9 bc 8a 3c 68 b1 8c bd
       -0.0015987556 0.033401664 0.016935753 -0.06869775
000360 c2 7c 0b 3d f8 44 b5 3d b3 3b 28 3d d7 ec b3 3d
       0.034054525 0.08851045 0.04107256 0.08785408
000370 b1 d5 f3 bb 1f 1a 7b bd d0 83 14 ba 8c e9 9e 3d
       -0.0074412455 -0.061304208 -0.00056653935 0.07759389
000380 11 f0 e5 3d 73 2f 8b bd 68 84 9a bd d8 e5 f9 3c
       0.1122743 -0.067961596 -0.07544786 0.030505106
000390 48 28 12 bd 5f 57 be bd 86 d2 bc bd 82 65 60 bd
       -0.035682946 -0.092940085 -0.09219842 -0.054784305
0003a0 81 d7 1f 3d aa 0e 97 3c 96 94 17 bd c9 c1 d3 bd
       0.03902388 0.01843961 -0.037006937 -0.10339696
0003b0 31 f8 19 3d 0f cf 12 3d c8 97 e1 b9 e6 4e ed bd
       0.03759021 0.035841998 -0.0004302843 -0.11587314
0003c0 b0 7c 8a bd 55 46 61 3d 63 5e 99 bd 60 21 7a bc
       -0.067620635 0.054998714 -0.07488706 -0.015266746
0003d0 f0 04 72 3d a6 4a be bc ca 93 c5 3d ee 64 e0 3c
       0.05908674 -0.023228955 0.09647329 0.027391877
0003e0 c0 9c 85 3c db 3a c6 bd 76 b4 bd 3d 84 06 a3 3c
       0.016310096 -0.096791945 0.09262936 0.019900568
0003f0 b7 b5 00 3c 4c 7d c0 bd 11 5e cc 3d a0 09 89 bd
       0.007855824 -0.093988985 0.09978879 -0.06691289

bias f4 [32]
000000 29 2f 29 3a 21 c3 07 3d 16 96 15 bd 1d 24 b4 bd
       0.0006453866 0.033145074 -0.036520086 -0.087959506
000010 77 40 d4 bd a7 d7 90 3c 68 cb c8 bd a0 eb 1f 3d
       -0.10363858 0.017680956 -0.09804422 0.03904307
000020 1f 96 60 bd 8f 6d 69 3d a3 3a 84 bd de 68 ab 3d
       -0.054830667 0.05698925 -0.064564966 0.08369611
000030 ff c3 0f bd 82 b0 46 bd e5 6c 94 3d 30 3f 1a 3d
       -0.035099026 -0.048508175 0.072473325 0.037657917
000040 a5 db 8e 3c 7b e5 87 bd a1 c7 e7 3a 4b 5c 08 bd
       0.017438719 -0.06635567 0.0017683395 -0.033291142
000050 3a 28 fe 3c b5 10 1d 3d 68 33 b7 3d 1b 02 7f bd
       0.03102504 0.03834601 0.08945352 -0.062257867
000060 03 7e f3 bd 5e a1 ee 3c 4f db d6 ba b2 cc 4b 3c
       -0.11889269 0.02912968 -0.0016392263 0.01243894
000070 45 86 f2 3d 94 63 93 3d 26 61 20 bc c1 1a b2 bd
       0.11842016 0.071967274 -0.009788787 -0.08696509
