results/SS_unet_matrixlonlatcov_15s.pt (torch, 102036 bytes, 49 tensors)

weight f4 [8, 1, 1, 1]
000000 c5 46 cd bb 86 2e 4b bf c2 6e fa 3c 10 cf 50 bf
       -0.00626454 -0.79367864 0.030570392 -0.8156595
000010 92 53 89 3e 82 6f 5c bf b1 f1 45 3f 0c cd d2 3e
       0.26821572 -0.8610765 0.77321917 0.41172063

bias f4 [8]
000000 48 07 f1 3d 4a 1b d7 3e 35 2b 8f bf 88 45 d9 3d
       0.11768967 0.42013007 -1.1185061 0.10608965
000010 62 ab db 3e 00 2a 17 bc 9c 5f 2d bf 26 b4 13 3f
       0.42904192 -0.009226322 -0.67724013 0.5769676

weight f4 [11]
000000 58 9f 81 3f 2b a4 84 3f 07 d1 7f 3f 1a fc 6c 3f
       1.0126753 1.03626 0.99928325 0.92572176
000010 21 0c 78 3f 00 00 80 3f 20 f4 6d 3f 7c b1 7e 3f
       0.9689351 1.0 0.9295063 0.9948957
000020 3f fd 59 3f 2b 41 67 3f e4 02 91 3f
       0.8515205 0.90333813 1.1329007

bias f4 [11]
000000 ce ce 15 bc b9 11 4c bd 68 45 2c bd d2 14 af bd
       -0.009143544 -0.04982159 -0.04205838 -0.08548893
000010 4e 9e 06 3c 60 2a c8 bb 40 67 3a 3d a3 bb 05 3d
       0.008216454 -0.006108567 0.045508623 0.032649647
000020 8c ce 7d bd 49 12 fa 3a bd 91 cd 3d
       -0.061964557 0.0019078936 0.10037563

running_mean f4 [11]
000000 9c 44 db 3d 5c 0a e1 3e dc 43 bb 43 92 e7 ef 3d
       0.107064456 0.43953216 374.53015 0.117140904
000010 fa f2 99 45 00 00 00 00 3c bb 5b 46 ca 4c f5 45
       4926.372 0.0 14062.809 7849.5986
000020 6c 9a b2 bd 7f 87 3e 3d be dc 11 3e
       -0.0872086 0.046515938 0.14244363

running_var f4 [11]
000000 f8 52 23 3b 72 7d 2b 3d ae e7 2f 47 40 2c 42 3b
       0.002492128 0.04186768 45031.68 0.0029628426
000010 dd 62 d7 4a 04 00 00 00 9e 8c 5c 4c 2b c5 88 4b
       7.0577745e+06 6e-45 5.781567e+07 1.7926742e+07
000020 9c 18 5a 3f e8 dc 65 3f a5 d5 6b 3d
       0.851938 0.897902 0.057576794

weight f4 [8, 11, 5]
000000 f5 cc 99 bd 2b 6d b9 bd 7d f3 db bd f4 f3 9c bd
       -0.075097956 -0.09054025 -0.10739801 -0.07663718
000010 b1 de 06 be 60 61 1c 3e 65 a4 36 3d 43 22 1c bb
       -0.13170888 0.1527152 0.044590373 -0.0023824133
000020 6c e7 39 bc a2 a9 d5 3d 8b 59 38 bd 3d 9f 0e 3e
       -0.011346679 0.104327455 -0.04500727 0.13927932
000030 25 32 21 3d 2c fa 93 3d 22 09 71 bc bb d9 7a 3d
       0.039354462 0.07225451 -0.01471165 0.0612428
000040 49 51 d6 bd 50 37 a1 3d 67 b5 d0 3d db 5a a5 3d
       -0.10464723 0.07871878 0.1019085 0.0807397
000050 01 5c 02 bd 3a f8 f4 bc c1 89 7f bd 7e a6 85 bc
       -0.031826023 -0.02990352 -0.06238723 -0.016314741
000060 07 6a 11 3e c7 09 4b 3d 85 a7 4d 3d d1 d2 bf 3d
       0.14200602 0.04956987 0.050208587 0.09366382
000070 47 28 d0 3d 83 64 8f 3d 22 d7 0a be ff 32 13 bd
       0.10163932 0.07001593 -0.13558629 -0.035937306
000080 ec f5 b3 3d 62 0e cd bd 11 6d ca bd cf 86 09 bc
       0.0878714 -0.10012509 -0.09884084 -0.008393957
000090 58 f6 a1 3d c4 cb fb bd db ba ab 3c d9 a2 a0 3d
       0.079083145 -0.122947246 0.020963123 0.07843561
0000a0 b6 91 57 bd 01 1f 8c bd b2 b1 c6 3b 25 fe 0e bd
       -0.052629195 -0.06841851 0.0060636634 -0.03491034
0000b0 22 8c 88 3d 76 d6 8f bc 1c 40 e2 bc 72 36 c1 3d
       0.06667353 -0.017558318 -0.02761846 0.09434213
0000c0 bb 92 0d 3e 47 5e cb 3c be d7 0c be 59 6d fe 3c
       0.13825504 0.024825228 -0.13754174 0.031058
0000d0 76 d9 1e 3d 77 44 3b 3e 8e 91 36 3c 9e a2 a2 bb
       0.038781606 0.18287836 0.011143101 -0.004963233
0000e0 a9 7e 18 be 9b d4 54 bd a0 71 2e bd 5b 23 32 3d
       -0.14892067 -0.05196057 -0.04258883 0.04349075
0000f0 15 04 42 bd f1 21 72 3c 9a 8c 14 be 71 e4 e9 3c
       -0.047367174 0.0147786 -0.1450676 0.028551312
000100 87 04 c4 3c 1a c1 1d bd 00 14 d5 bd d5 0b 03 be
       0.02392794 -0.038514234 -0.10404205 -0.12797482
000110 7e bd 8a bd 8a 98 6f bd 12 75 85 3d 95 f8 80 3d
       -0.06774424 -0.058495082 0.0651647 0.06297413
000120 d7 73 07 be ff 4d d8 bd 96 79 66 3c c0 a1 ef 3c
       -0.13227783 -0.105617516 0.014067074 0.029251933
000130 de e4 31 b9 b4 2f 3c bc 8e b6 a6 bd c5 23 76 3c
       -0.00016965295 -0.011485983 -0.08140288 0.015023177
000140 3a bd cc bb 29 a4 f4 3d 74 2a 14 3d 0c c2 0d 3d
       -0.0062481435 0.119453736 0.0361733 0.034608886
000150 4b 1b 75 bd 58 71 78 3d 3b 06 2e 3d c2 9d bb bc
       -0.05984048 0.060654968 0.04248641 -0.022902373
000160 43 bf c6 3d 6e 9f b5 3d 39 17 b0 bd 14 6f d6 3d
       0.09704449 0.088682994 -0.08598179 0.10470405
000170 dd c2 59 bd 4e a9 97 bd ba a9 ce bd 73 03 48 bd
       -0.05316435 -0.07405339 -0.100909665 -0.048831414
000180 fa 70 dd bb a3 04 95 3d d6 5d 5a bc 72 44 a3 bc
       -0.0067578526 0.07276275 -0.013328036 -0.019930098
000190 53 11 87 3d 25 e7 97 bd 95 2f 1a 3d 5b 7c f1 bc
       0.06595101 -0.07417134 0.037643034 -0.029478243
0001a0 ec c5 91 bd 3e be 59 be 23 fd 59 3e f7 b2 f3 3d
       -0.07117829 -0.21263978 0.2128797 0.11899369
0001b0 ed 1d 80 3c c6 e4 df bd cc 29 a5 3d 56 a5 9d bc
       0.01563927 -0.10932307 0.08064613 -0.019243877
0001c0 46 57 ab bd 0f ac dd bc f9 1b 5f bd e0 1f a0 bd
       -0.083662555 -0.027059583 -0.054470036 -0.0781858
0001d0 d1 b8 f9 3d 4d 29 d7 bd be 46 81 bd 2d 7a 7f bd
       0.12193454 -0.105059244 -0.06312321 -0.062372375
0001e0 75 ae 7c bd 2e 70 1a bd 4e f4 e7 3d e2 2b 2a 3e
       -0.061689813 -0.03770464 0.11325894 0.16618302
0001f0 5c 27 b7 3c bf 1f ad bd 58 b7 0a 3c 31 d6 d0 bd
       0.022357635 -0.08453321 0.008466564 -0.10197104
000200 fe dd 85 bd 16 c1 a6 3d 91 c9 e3 bb 57 7b 4e 3d
       -0.06536482 0.08142297 -0.006951519 0.050410595
000210 80 6f 83 bd 32 5e 35 bd 70 53 bc 3d 7f 17 9d 3d
       -0.06417751 -0.044279285 0.09195602 0.07670497
000220 18 60 23 3d 6a ea c2 bd b2 98 c3 bd 8e b4 96 3d
       0.039886564 -0.09517367 -0.09550609 0.07358657
000230 60 5f a8 3d 41 c7 a9 3d 3e c5 9c bd 4f ec 4f bd
       0.08221316 0.08289958 -0.076548085 -0.05076247
000240 df 97 c8 bd db 9b 4d 3d 90 d9 91 bd 05 0b df 3d
       -0.09794592 0.050197463 -0.07121575 0.10890774
000250 8a 5f 4f bd 05 0d a8 3d 5f c0 da 3c 2f 25 93 3d
       -0.050628223 0.08205608 0.026703058 0.071848266
000260 cb 50 ba bc 55 d7 3d bb c2 c1 75 bc 2b a6 5e 3c
       -0.022743603 -0.002896746 -0.014999809 0.013589422
000270 46 ba 7b bb 58 4c 78 bd ea 3b 2b 3e 63 5d 24 3a
       -0.0038410588 -0.060619682 0.16722074 0.0006270019
000280 24 5b 49 3e 01 ea ec bc 0b 19 33 be 22 94 9f bd
       0.19663674 -0.028920176 -0.17490022 -0.07791926
000290 6f af 47 3e 85 cb 43 bb ac 65 e8 bd b3 9f 0c be
       0.19500516 -0.0029875946 -0.11347517 -0.13732795
0002a0 9d 3f 57 bd 31 61 31 bd 26 1f 8e 3d 35 f6 48 3b
       -0.0525509 -0.04330558 0.06939535 0.003066433
0002b0 e8 3f 6b be cd f5 61 be 0c 70 ce 3c 9c 68 c7 bb
       -0.22973597 -0.22066422 0.025199912 -0.0060854685
0002c0 8a cf e3 3d a7 94 e0 bd 4e 51 2f 3c 86 88 d9 bd
       0.11123569 -0.10965853 0.010700537 -0.10621743
0002d0 b2 0a da 3c b3 51 5a be 79 02 42 be b8 ef 3c be
       0.026616428 -0.21320228 -0.18946256 -0.1845082
0002e0 da 5a 2a be 38 8c a0 bd b9 c5 0e bd 5f ec 48 bd
       -0.1663622 -0.078392446 -0.03485653 -0.049053546
0002f0 54 2e ec bd 82 52 05 3d 10 d1 91 3d 92 a7 6a 3b
       -0.11532274 0.03254939 0.07119954 0.0035805446
000300 95 1f 13 3e ff b1 da bd f0 5b 3b bd 7d 87 bd 3d
       0.14367516 -0.10678481 -0.045741975 0.09254358
000310 e4 e6 40 3b f7 28 02 3e 72 53 7c 3c a0 1a 8e 3d
       0.0029434497 0.1271094 0.015400754 0.06938672
000320 4c 85 88 bc ec 71 56 bd 38 18 4c 3c 9a ac 1b bc
       -0.016665123 -0.052354738 0.012456946 -0.009501601
000330 20 e9 9c 3c 1f c4 7f 3c fb 39 cd 3c 46 94 e6 3c
       0.019154131 0.015610724 0.025052061 0.028146874
000340 da 1e df 3d bb cd e9 bd a2 ae 0b be 04 ea ad bc
       0.10894556 -0.11416193 -0.13640836 -0.021229751
000350 c4 aa 10 3e ab 3c bc bd 6a 3c 47 3d 6a c4 49 be
       0.14127642 -0.09191259 0.0486416 -0.19703832
000360 8c 77 75 bc f6 c4 3c 3e 15 e7 04 3d 16 5c d6 3d
       -0.0149821155 0.1843451 0.03244694 0.10466783
000370 4f 37 d3 bd 7b 62 5d bd 4a 0b 09 be 34 0d 26 be
       -0.10313284 -0.054048996 -0.13383213 -0.16215974
000380 d4 98 91 bc 7a 34 d5 3a 07 dc 28 bd 16 4c d9 bd
       -0.01777307 0.001626625 -0.04122546 -0.10610215
000390 19 67 cf bd 53 f1 3f be 9b 8f 1f 3c fb 77 bc 3d
       -0.10127086 -0.18744402 0.009738828 0.09202572
0003a0 1f 5c 09 3e 6a 0e e4 bd ca 38 5a 3d d4 8a 69 bd
       0.13414048 -0.11135562 0.053276815 -0.057017162
0003b0 0b 57 b2 bd 94 b6 39 3c 48 21 bf 3c 79 25 6f bc
       -0.087080084 0.011335034 0.0233313 -0.0145963365
0003c0 65 53 04 be 07 aa 00 bd b6 6f df bd 28 15 8d bc
       -0.12922437 -0.03141215 -0.10909979 -0.017222002
0003d0 50 51 b9 bd d9 03 cd 3d 8c 4b dd bd 70 ba 2f bd
       -0.09048712 0.100104995 -0.10805425 -0.04290241
0003e0 3d a9 35 bd 61 4c 09 be 08 31 47 3d c9 69 d6 3c
       -0.04435085 -0.13408042 0.048630744 0.02617349
0003f0 28 c6 89 bd 72 b2 06 bd cd 66 bb bd b1 81 8a bd
       -0.067272484 -0.032885022 -0.09150467 -0.06763018

bias f4 [8]
000000 cd 4b 01 3d 2b f5 a5 3d cc 79 0b 3d 86 7a e5 3d
       0.03156643 0.08103403 0.0340517 0.1120501
000010 e8 00 02 be ff 79 79 bd 11 52 7f 3d 80 18 27 bc
       -0.12695658 -0.06090736 0.062334124 -0.010198712

weight f4 [8, 8, 5]
000000 ab 94 9b 3d cc 65 fc 3d 13 84 0a bd 45 17 05 be
       0.075967155 0.12324104 -0.033817362 -0.12997158
000010 13 c3 f6 3b 66 9e 37 3e e3 b9 07 bd f8 4a a5 bd
       0.007530579 0.17931518 -0.03313626 -0.0807094
000020 99 f3 9b bd c3 ff 06 be eb ae 18 be e2 2b b5 bc
       -0.07614822 -0.13183503 -0.14910476 -0.022115652
000030 a6 10 0d 3c 2a 35 a5 3d b7 8b 08 3e 11 f7 b0 bd
       0.008609926 0.08066781 0.13334547 -0.08640874
000040 19 c0 9c 3d 93 45 cb 3d 69 05 0a bb 8b ea 21 3e
       0.07653827 0.099253796 -0.0021060354 0.15812127
000050 43 44 09 3e d0 8a 28 3c 68 49 ee bd d7 13 10 be
       0.13404946 0.010287002 -0.11635095 -0.14070068
000060 63 25 c5 3d 79 d1 e4 3c bb d3 fb 3c 9c 14 f0 3d
       0.096262716 0.027931916 0.03074061 0.11722681
000070 93 e0 58 3e 67 59 ed 3d 60 95 d7 bd 44 a6 96 bd
       0.21179418 0.11589318 -0.10526538 -0.073559314
000080 83 45 bd 3d 8e da 11 bd 5f 7b 95 3d 7a 22 bc bd
       0.09241774 -0.03560882 0.07298922 -0.091862634
000090 0b 95 a0 3d 48 91 d4 3c 51 5d 4b 3c 26 4b ad 3c
       0.07840928 0.025948182 0.012412385 0.021153998
0000a0 9d 71 ca 3d f7 5f 67 bd a7 48 da b9 7b e6 1a 3e
       0.09884951 -0.056488004 -0.0004163433 0.15126984
0000b0 c4 76 a4 bd 47 e6 0e bd 8b 8a c6 3d dd c6 11 be
       -0.08030465 -0.03488758 0.09694394 -0.14236017
0000c0 ef a5 de bd 2d a4 60 3c 76 23 69 3d 5e 75 21 3e
       -0.10871493 0.013711018 0.056918584 0.15767428
0000d0 de 5c 07 3e a0 7d 58 bd 0c 79 8f bd f6 22 3b be
       0.1321902 -0.05285418 -0.0700551 -0.18275055
0000e0 dd fd 5d 3d dc 4d 80 3d 72 8d de 3c eb a7 b4 bb
       0.05419718 0.062648505 0.027167056 -0.0055131814
0000f0 92 90 45 bd 1e 17 a7 bc b7 91 0c 3e c5 f4 f1 bc
       -0.048233576 -0.020396765 0.13727461 -0.02953566
000100 95 96 82 bd 67 63 22 3e 0f 76 22 ba 1d 79 09 3e
       -0.063763775 0.15858231 -0.00061974017 0.13425107
000110 6b e4 4d 3e 06 4d be bc ee 5b 28 be 2e 91 08 3d
       0.20106666 -0.023230087 -0.16441318 0.03334158
000120 ed 93 85 3c ec 30 51 3c c7 6b be 3d 67 fc d2 3d
       0.016305888 0.012768012 0.09297901 0.10302048
000130 b0 c6 c8 3d af 4a 6c bd 20 08 f2 3d b0 fa 2c 3e
       0.09803522 -0.05768841 0.11817956 0.16892505
000140 2a 0f 9e bd 86 fa 2a 3d 5b dc 68 bc f3 b0 c9 bc
       -0.07717736 0.041742824 -0.014212693 -0.024620509
000150 c4 18 db bd 37 d4 c5 bd b5 20 f6 3d 14 be 4e 3d
       -0.10698083 -0.096596174 0.12017957 0.05047424
000160 ab 95 3a bc a9 33 bf bd 29 d0 0d bd 7e eb 1a 3e
       -0.011388223 -0.09336025 -0.034622345 0.15128896
000170 e9 42 3b be 9a b7 83 3d e3 0b 24 3d c8 5a 55 bd
       -0.18287243 0.064315036 0.0400504 -0.05208853
000180 83 2a 24 3e 96 76 0b bb 87 1f c0 3b d9 ab a8 bd
       0.16031842 -0.00212804 0.0058631334 -0.08235902
000190 24 a7 90 39 17 41 95 bd c7 65 a8 bd eb d7 78 bb
       0.0002759035 -0.072878055 -0.082225375 -0.0037970494
0001a0 8b 65 aa 3c b6 03 d5 3c 7c 79 06 3d 07 81 0c be
       0.020800373 0.026002746 0.0328307 -0.13721095
0001b0 e9 6b 13 3e 98 f4 16 3c ab 30 24 3e 3c 1d 77 3d
       0.14396633 0.009213589 0.1603419 0.060330614
0001c0 27 39 cc bd 1b e9 1f 3e 26 7f 2b bd 19 1f 0d 3d
       -0.099718384 0.15616266 -0.041869305 0.034453485
0001d0 f3 08 f3 bc 11 2c df bd 44 f6 69 3d 29 76 fe bc
       -0.029667353 -0.10897077 0.057119623 -0.031062203
0001e0 e3 e1 9d bd bc 4f 50 3c 82 32 01 be c7 01 a9 3d
       -0.077091 0.012714323 -0.12616923 0.08252292
0001f0 bc 93 63 bd c5 06 1d 3e 95 83 a0 bd dd 1e 68 bd
       -0.055560812 0.15334614 -0.07837597 -0.05667006
000200 20 1b 23 3d 04 e1 e6 bc 52 48 0c be a9 c8 3d bd
       0.03982079 -0.028183468 -0.13699463 -0.046333943
000210 ef be 31 3e e5 c6 07 3d b4 ca b9 bd 3d 72 82 3d
       0.17357992 0.033148665 -0.09071866 0.063694455
000220 97 3f fc bd e5 bf bc bd fa 74 25 3e 76 ef 2d 3d
       -0.12316816 -0.092162885 0.16157904 0.042464696
000230 b2 5a 86 3b fc 8e c0 3d 8a fc dc bd fc ba 5e bc
       0.004100167 0.09402272 -0.107903555 -0.013594385
000240 4c 8c 94 3d 75 b3 6f 3d 47 53 66 3d 17 85 aa bd
       0.07253322 0.058520753 0.056231763 -0.08326166
000250 8f 71 ed bd 55 f2 de bc fe 46 07 bd 31 16 3e 3c
       -0.11593925 -0.027215162 -0.033026688 0.0116019705
000260 13 9d d1 bc 05 3b c4 bd a6 ed e6 3c fd cf 12 bc
       -0.025587594 -0.095815696 0.028189491 -0.008960721
000270 92 6d 2a be 2c 33 53 3d be fb f0 3d a8 56 af bd
       -0.1664336 0.051562473 0.11766766 -0.0856145
000280 06 de 08 3e a3 11 23 3e c7 af 01 bc 1f 64 f0 ba
       0.13365945 0.15924697 -0.007915444 -0.0018340385
000290 01 98 0e bd fc 2f 99 3d e7 71 40 bd ec 99 ec 3d
       -0.03481293 0.074798554 -0.046983626 0.11552796
0002a0 15 ab 89 bb 92 26 01 bd 8b 31 9b 3c 2f 68 08 3e
       -0.004201303 -0.031530924 0.018944522 0.13320993
0002b0 e6 68 36 3d 45 22 bd 3d ca 1f 75 3d 59 42 a1 3d
       0.044533633 0.09235052 0.05984477 0.07873983
0002c0 02 57 84 3d a6 7c 01 3d 27 99 ea bd 10 8f d0 bd
       0.06461908 0.031613015 -0.11454993 -0.10183537
0002d0 50 d5 8a bd bb de 79 3d a0 f4 06 3e b8 91 2f 3e
       -0.067789674 0.061003428 0.13179255 0.17145431
0002e0 92 c6 07 3e 44 9c b1 bd 70 93 b2 3d 6b 91 0f 3e
       0.13259342 -0.086723834 0.08719528 0.14020316
0002f0 4b 52 29 3e b0 e8 2d be 5a b5 b5 3c 80 6d 56 3d
       0.16535299 -0.16983294 0.022181202 0.05235052
000300 3c 70 3d bd 48 4e b9 bd 8c 62 12 be 09 23 30 3e
       -0.046249613 -0.09048134 -0.14295405 0.17200865
000310 44 95 01 be 6c 2c 0b bd a3 4a 08 3e 86 08 34 3d
       -0.12654597 -0.03397791 0.13309722 0.04395344
000320 2d 76 1c 3e 95 2f c7 bd 66 57 0c 3e 17 41 9e bb
       0.15279455 -0.097258724 0.13705215 -0.0048295367
000330 d6 b3 d5 3c 1e 00 b4 3d c0 e5 c5 bb 3b b5 0c be
       0.026086729 0.08789085 -0.006039351 -0.13741009
000340 39 06 00 bd 19 0b 07 3e ed 51 4f be e6 eb 27 bd
       -0.031255934 0.13187827 -0.20246096 -0.040996455
000350 4d 07 d9 3d 37 60 0e be 6b 77 f1 3d bb 37 58 bd
       0.10597096 -0.1390389 0.11790355 -0.052787524
000360 b5 6b 70 3c 3d ac ee bc b3 e4 50 3e b5 fe 00 be
       0.014674117 -0.029134864 0.20399742 -0.12597163
000370 e5 9a 36 be 10 a8 89 bd 51 7e d4 3d 62 6b 49 be
       -0.17832525 -0.067215085 0.103756554 -0.1966987
000380 18 a8 61 b9 62 0c b1 bd 24 2c 5f bd 27 61 0f be
       -0.00021520292 -0.0864494 -0.054485455 -0.14001904
000390 5e 44 93 bd b6 b0 ff bd 3d 7e a1 bd 75 ab 8e 3d
       -0.071907744 -0.12484877 -0.07885406 0.069662966
0003a0 0e 65 9f bd e5 ce 1e be 97 e4 76 bd 78 e7 cb 3c
       -0.077829465 -0.15508612 -0.060276594 0.024890646
0003b0 76 f3 02 3e 5e 27 69 bc cd 5d 2c 3d ab 50 11 3d
       0.12788185 -0.014230577 0.042081643 0.03547732
0003c0 39 fa 83 bd 9c e8 80 3d bd 9a 85 3d 6d 65 0d 3e
       -0.064442106 0.06294367 0.065236546 0.13808222
0003d0 3a 2a 04 3d dd 01 90 bd cf 62 04 bd 85 b7 8c bd
       0.032266833 -0.070316054 -0.032320794 -0.06870941
0003e0 92 d0 0f 3e d8 88 50 bd 2b ad 0d bc f7 b0 1b be
       0.14044407 -0.050911754 -0.0086472435 -0.15204225
0003f0 8f c1 93 bd 6a ad 0a 3d 84 30 d6 3d 36 66 38 3e
       -0.07214653 0.033856787 0.10458472 0.1800774

bias f4 [8]
000000 0a cf 9f 3d aa 27 42 3d 8f 78 1b bc 05 0d 04 3d
       0.078031614 0.047401108 -0.009489193 0.03223898
000010 51 e9 05 3e 33 76 8b bd e1 67 cc 3d 22 87 5b bd
       0.13077284 -0.06809654 0.09980751 -0.05359567

weight f4 [8]
000000 d7 0f 7d 3f 8f 9d 7b 3f 2e 78 76 3f df 35 88 3f
       0.98852295 0.9828729 0.9627713 1.064144
000010 00 25 7a 3f 95 4d 79 3f ea 18 80 3f e2 7d 81 3f
       0.9771271 0.97384006 1.0007603 1.0116541

bias f4 [8]
000000 84 65 0a 3d c2 d5 3c bc 00 6c 0c bd b5 f1 03 bd
       0.03378822 -0.011525573 -0.034282684 -0.03221293
000010 a9 60 10 bd e7 02 18 bd 47 db 51 bd af 24 d4 bb
       -0.035248432 -0.037112143 -0.05123451 -0.0064740996

running_mean f4 [8]
000000 c6 63 60 3e 9e 1e 22 3e 45 1e db 3d aa 7f c0 3d
       0.2191306 0.15831992 0.10699133 0.0939935
000010 04 d1 e1 3e d7 b0 8e 3d 7e 15 d1 3e e0 3d 9d 3d
       0.4410478 0.06967323 0.4083671 0.07677817

running_var f4 [8]
000000 2a 9d 49 3d 07 40 32 3d 39 dd 17 3c 3f db de 3b
       0.04922215 0.043518092 0.009269052 0.0068010385
000010 cb 24 17 3d 42 6a 4e 3c 6d 59 f4 3c 5b 17 77 3c
       0.036900323 0.012598576 0.029827798 0.015081252

weight f4 [16, 8, 5]
000000 c1 9a f4 3d 59 4d 39 3e db 10 62 bd aa 8a d2 3d
       0.119435795 0.18095912 -0.055191856 0.10280354
000010 d4 44 f3 bd 89 ff 51 3d ab 4e c6 bd 53 75 96 bd
       -0.11878362 0.051269088 -0.096829735 -0.073465966
000020 00 1d 8b bd 85 68 b9 3c da 9e 86 3d 62 05 ad 3c
       -0.06792641 0.022632847 0.06573267 0.02112073
000030 47 ea 47 3d b1 95 22 3e c3 c6 ad 3d 0e 02 cd bd
       0.04880741 0.15877415 0.084851764 -0.100101575
000040 44 56 55 3d dd 93 15 bd 70 06 ae 3d 3e ec 5f 3c
       0.052084222 -0.036517967 0.084973216 0.013667164
000050 3e 0e ea bd 32 84 53 bd 8d f1 2f bd 91 e7 13 bd
       -0.11428498 -0.051639743 -0.04295497 -0.03610951
000060 31 9c 0c 3b f1 6b 32 be d0 0a d5 bd 18 16 26 be
       0.0021455402 -0.17423989 -0.10402453 -0.16219366
000070 7b e8 52 bd c7 c6 91 3d a0 8d 00 3d 54 37 67 3c
       -0.051491242 0.07117992 0.031385064 0.014112312
000080 93 5e 6c bc f6 41 67 3c a3 ac 52 3c b1 88 30 be
       -0.014426845 0.014114847 0.012858543 -0.17239644
000090 ee 44 2d 3d 56 b9 75 bd d4 cb 67 3c 89 92 24 be
       0.042302065 -0.059991203 0.0141477175 -0.16071524
0000a0 2c f3 37 bd 63 e6 f2 3d 18 69 c6 3c 20 6e 8e ba
       -0.04490964 0.11860349 0.024220034 -0.001086656
0000b0 e6 50 e7 bd 12 29 bb bd e8 17 b3 3d de 47 73 bc
       -0.11294727 -0.09138693 0.08744794 -0.014848677
0000c0 66 31 00 bc b4 78 9d 3d cb 4c 60 3d e8 df bc 3d
       -0.0078242775 0.07689038 0.054760735 0.09222394
0000d0 e8 a9 b0 3d 68 4a d2 ba 7c 85 33 bd 86 8e 54 bd
       0.08626157 -0.0016043903 -0.043828472 -0.051893733
0000e0 92 19 92 3d fd 08 34 3d b7 4b 1d 3e 92 42 fa 3d
       0.071337834 0.043953884 0.15360914 0.122197285
0000f0 49 ad b1 bd 60 e4 72 3d c7 15 ea bd f4 3a 67 bd
       -0.0867563 0.059299827 -0.11429935 -0.056452706
000100 2a 5b e5 bc 3c ae 99 3d b1 f6 49 bd 87 59 8d 3d
       -0.027997572 0.07503936 -0.04930753 0.069018416
000110 2b 85 7e bd ac 3c 2b b9 0b 53 3c 3d fc 34 a0 3d
       -0.062138718 -0.00016330433 0.045977633 0.07822606
000120 ee bf c2 3d 52 92 10 be 7f 41 83 bd 7c e7 18 bd
       0.09509264 -0.14118317 -0.06408977 -0.037330136
000130 7f a2 ac bd c2 f3 67 bd d8 37 0a 3e 09 ed 31 3d
       -0.08429431 -0.05662895 0.13497865 0.043438945
000140 41 34 f6 bd 8c 2e 74 3d fd 0f 0a 3e 10 80 c4 3d
       -0.120216854 0.059614703 0.13482662 0.095947385
000150 9e 3c c6 bc 24 f2 b9 bd db e6 e2 3d 29 c3 02 3e
       -0.024198826 -0.09079388 0.110791884 0.1276976
000160 a1 60 a3 bc 4f b5 c1 3d 89 73 c8 3d a2 93 bd 3d
       -0.019943537 0.0945841 0.097876616 0.09256674
000170 98 4c fe 3d ef c7 fe 3c 35 d8 ca 3d 77 08 91 bd
       0.12416953 0.031101195 0.099045195 -0.07081693
000180 f1 5e 0a 3e ff 2a 36 3e d1 03 32 3e 2a 0c 08 be
       0.1351278 0.17789839 0.17384268 -0.1328589
000190 30 c9 9b bd 86 85 30 bd 31 c9 ce 3d 47 14 02 3c
       -0.07606733 -0.043096088 0.10096968 0.007939405
0001a0 a6 c4 17 3e 80 77 ec 3c d1 ee ea 3c f8 14 16 be
       0.14821109 0.028865576 0.02867833 -0.14656436
0001b0 d1 9e 8e 3b a5 7f 29 3d 9b 60 e5 3d ac a7 96 bd
       0.0043524285 0.041381497 0.11200067 -0.073561996
0001c0 e2 02 8f bd 5c f0 27 be d6 3c 8f bd 2e b8 9d b9
       -0.06982972 -0.16400284 -0.069940254 -0.00030082598
0001d0 3b 20 b0 3d 69 38 4f 3d 65 36 05 3d f7 d6 e5 bc
       0.085998975 0.050590906 0.032522578 -0.028056605
0001e0 4b 25 41 3e 59 e6 83 bd 10 8e a7 bd a9 28 88 bd
       0.18861882 -0.0644042 -0.08181393 -0.0664838
0001f0 1c 65 d2 bd 06 45 31 3e 87 a8 e6 3d e1 71 9b 3d
       -0.10273191 0.17311487 0.11262613 0.0759008
000200 7e 97 78 3c c0 3a ba 3d 79 dc c6 bd ba 68 9c bd
       0.015172837 0.09093237 -0.097100206 -0.076371625
000210 0f c2 b4 bd 88 0f 88 bd 54 ad a9 3d f7 46 6f 3d
       -0.08826076 -0.06643587 0.08285013 0.058417287
000220 16 d3 d8 bd 7a 94 8e bd ca 7a 63 bd c2 0a 51 3b
       -0.105871364 -0.069619134 -0.055537023 0.0031897281
000230 48 5c d3 bc 46 c5 fe 3c 0f 63 b0 bd c1 9f 4d bd
       -0.025800839 0.031099927 -0.08612644 -0.05020118
000240 95 fc ec 3d 66 41 25 be b1 d5 8f bd ea 2a 92 bb
       0.11571614 -0.16138229 -0.0702318 -0.004460682
000250 42 88 92 3d fc 1f 6e 3d 9f 03 c3 bd 7c 6a ef 3d
       0.07154895 0.05813597 -0.09522175 0.11690232
000260 f1 2e df bc ce 86 31 3e ac 7e 00 3e 3a c9 d1 bd
       -0.027244063 0.1733658 0.12548321 -0.10243459
000270 b8 00 f0 bd 8e 91 eb bd 9d 05 4c ba 11 a8 dd 3d
       -0.11718887 -0.11502372 -0.0007782819 0.10823072
000280 03 b3 07 3d 17 bf 78 3d 8c 15 31 3e f7 83 c8 3c
       0.033129703 0.060729112 0.17293376 0.024476988
000290 22 18 e6 bd a9 54 76 3d ab 5d 9b bd aa d5 26 3e
       -0.11235072 0.060139332 -0.07586225 0.16292444
0002a0 94 1d 21 bc 07 8a 46 3d 72 56 f9 3d f3 bf eb bd
       -0.009833712 0.048471477 0.12174691 -0.11511221
0002b0 8f 4c 84 bd 37 66 b5 bc a0 7b 0f 3e a7 60 81 bd
       -0.06459915 -0.022143466 0.14012003 -0.06317263
0002c0 08 24 09 be dd be 64 be 8d ae 07 be 25 8a f9 3d
       -0.13392651 -0.22338434 -0.1325018 0.12184552
0002d0 5f 20 35 be 7f 7c 22 be 84 e3 06 3e f4 37 99 3d
       -0.1768813 -0.15867804 0.13172728 0.07481375
0002e0 53 66 49 bd 92 0d 26 be 25 c2 13 3d fc 20 8f bd
       -0.04916985 -0.16216114 0.036073823 -0.06988713
0002f0 3a 57 5a 3c b3 e7 d5 bc d4 42 0c be 57 ef 36 be
       0.0133264605 -0.02611146 -0.13697368 -0.17864738
000300 6d 75 01 be 2d 37 92 bd 23 68 8f bd 6e 4c 28 be
       -0.1264245 -0.0713943 -0.070022844 -0.16435406
000310 12 ea e4 3d f9 3c ba 3d 17 72 0c 3b 32 99 50 3e
       0.11177458 0.09093661 0.0021430308 0.2037094
000320 d0 ae 78 3d c5 46 cc bd 0c 54 98 bd be 14 ef 3d
       0.06071359 -0.09974436 -0.07437906 0.11673878
000330 33 4a c9 3c 6a e3 80 bd 1b 01 cc bd d7 e1 b5 bd
       0.024571514 -0.06293376 -0.09961148 -0.08880966
000340 92 d5 5f bd a3 7c e8 3b a1 6d 32 be 0e 38 b8 bd
       -0.054647036 0.007094936 -0.17424633 -0.089950666
000350 dd 37 23 3a 4d fe c8 3d 37 e6 7f 3d d1 d8 74 3d
       0.0006226281 0.09814129 0.06247541 0.059777085
000360 45 59 0c 3e da 92 2e 3e 57 b6 31 3e 2d d2 3c 3d
       0.13705929 0.17048207 0.17354713 0.046098877
000370 94 70 b0 bd 6a 6f 04 be 30 ce 14 3e 48 60 e6 ba
       -0.086152226 -0.12933126 0.1453178 -0.0017576301
000380 6c 47 aa bc be e6 93 3c 81 ec 9b 3d 6f de 12 3e
       -0.02078601 0.018054362 0.07613469 0.14342664
000390 b9 0a 91 3d 69 9c a5 3d 58 2d 80 3d e1 bf e6 bb
       0.07082123 0.080864735 0.06258649 -0.0070419167
0003a0 71 3d 22 3e 52 4e 5d 3d 2e 95 4d 3d 1a 1a 1a be
       0.1584375 0.05402977 0.050191097 -0.1504902
0003b0 8a 33 70 bd 04 c8 8b 3c 9a 3c 00 3e 96 73 9b 3d
       -0.0586429 0.017063148 0.12523118 0.07590406
0003c0 f0 dc 4b 3b 96 17 a1 3d 6e bc fe 3d 11 26 92 3d
       0.003110703 0.07865827 0.12438284 0.07136167
0003d0 b2 af c3 3d 83 c0 c8 3c f0 8d 2e be 55 36 0e bd
       0.095549956 0.02450586 -0.17046332 -0.034719784
0003e0 41 ad fe ba 46 59 9e bd aa 24 b5 bd f3 a2 64 be
       -0.0019430296 -0.07731871 -0.08844884 -0.22327785
0003f0 df 2b 7f bd 15 5e 55 bc 05 91 26 3a 12 f5 d7 bd
       -0.062297698 -0.013022919 0.0006354007 -0.1054479

bias f4 [16]
000000 ff f1 04 be 29 61 12 be b1 d1 1a 3e 62 3c 1b 3e
       -0.12982939 -0.14294876 0.15119053 0.15159753
000010 cf a3 8e 3d 3f b5 b9 3d 81 82 bf bd cb 0c f5 3d
       0.06964838 0.09067773 -0.093510635 0.11965331
000020 e0 cc b3 3d 0c 74 e3 3c 8e e7 3b 3d 0a d7 15 be
       0.08779311 0.027765296 0.045875125 -0.14632812
000030 0b fe c2 bc 21 44 3e 3d 5a b5 96 bc 53 33 3c be
       -0.023802778 0.04645169 -0.018397022 -0.18378954

weight f4 [16, 16, 5]
000000 4e 21 63 3c 99 39 d2 bc 39 3f af 3d 85 40 ce 3d
       0.013862921 -0.02566223 0.08556981 0.100709
000010 4f db 23 bd 8d 83 1f bd d6 17 17 bd 39 27 00 bd
       -0.04000407 -0.038943816 -0.036887966 -0.031287406
000020 77 02 1b 3c 15 29 09 3d 66 46 39 3d e0 9b 53 3d
       0.009461037 0.033486445 0.045233153 0.051662326
000030 0a d6 ca bc bb 67 f6 bb 31 ff 5e bc df 70 be 3c
       -0.024760265 -0.00751969 -0.013610647 0.02324718
000040 d5 17 00 be a0 81 db 3c 64 34 af bb bc 2d 6e 3d
       -0.12509091 0.026795208 -0.0053468216 0.058149084
000050 a8 9f e2 bd 1f 80 81 3d ce 5d 03 3e 38 6e c7 3d
       -0.11065608 0.06323265 0.12828752 0.097378194
000060 55 08 de 3d 61 6b a9 3d ec 17 c0 bd 4c 4a e6 bd
       0.10841433 0.08272434 -0.09379563 -0.1124464
000070 6a d7 a9 3d 0d 7d b9 bd ee 5b f6 bd ae 62 60 bd
       0.0829304 -0.09057055 -0.12029253 -0.05478161
000080 84 f0 19 3e fd 0c 0a 3e ad 27 c6 bd 12 ba a8 3c
       0.15033156 0.13481517 -0.09675536 0.020596538
000090 92 24 97 3d 9c a6 01 3d c2 14 77 bd 84 ff 7c 3d
       0.07380022 0.03165303 -0.06032253 0.061767116
0000a0 4f 55 aa bd 6d 86 b9 3d 1b fa c8 bd b4 f6 2a bd
       -0.083170526 0.09058843 -0.09813329 -0.04173918
0000b0 b6 78 b1 bd 78 c9 b4 bc 2b c6 da bd e2 d4 33 3d
       -0.08665602 -0.022068724 -0.10682329 0.043904193
0000c0 a2 e7 22 bd 39 ad 15 bd 3c df 6c 3d bb d7 7a 3d
       -0.039771684 -0.03654215 0.05783008 0.061240893
0000d0 c3 3d 75 3d f7 11 69 3d be 6a f3 3d 1e fb be bd
       0.059873354 0.0569019 0.11885594 -0.093252406
0000e0 e9 26 35 3b 74 21 19 bd b4 d5 a6 3d 2b db e0 bd
       0.00276416 -0.03738542 0.081462294 -0.10979303
0000f0 78 66 e0 3c 06 ed 85 bc 40 29 4a bd 47 0b 43 bd
       0.02739261 -0.016348373 -0.049355745 -0.047618177
000100 89 f2 62 3d 70 64 38 3d 94 d2 b3 bd 33 e7 52 b9
       0.05540708 0.04501766 -0.08780399 -0.00020113289
000110 be 0f 62 bd c9 51 14 3e b0 34 ca bb ed 03 32 bd
       -0.055190794 0.14484324 -0.0061708316 -0.043460775
000120 d9 15 08 3b 71 1c 96 bb d6 48 d1 3d 5f b5 3a bd
       0.0020764975 -0.004581027 0.102189705 -0.045583125
000130 a7 fa c9 bc 36 8f 89 3d e0 0e d2 3d 9f 91 b3 3d
       -0.024655653 0.067167684 0.102567434 0.087680094
000140 1b 4f 81 3d f7 8f e3 3b a9 64 a9 3c 73 36 bc bd
       0.06313916 0.006944652 0.020677881 -0.09190073
000150 cf 17 db 3d 2a 90 8a bd a2 8f 33 3e 97 6f e1 bc
       0.106979005 -0.06765778 0.1753526 -0.02751903
000160 d9 86 99 bd bc 0f df 3b 7d c8 2f 3d 60 e3 a0 bd
       -0.07496423 0.0068072956 0.04291581 -0.07855868
000170 bf 53 83 bb 71 fd 92 3c a4 30 ad 3d da 4b ad bd
       -0.004007786 0.017943116 0.08456543 -0.08461733
000180 3f 67 79 bd 99 49 77 bd a2 07 d0 3b 8b 48 59 3d
       -0.06088948 -0.060372923 0.006348566 0.053047698
000190 f3 36 96 bd ed 3f 5a bd 1a 36 a5 3c 0d 7b 83 3c
       -0.073346995 -0.05328362 0.0201674 0.016049886
0001a0 62 31 91 3d 35 1e 3d 3d 13 a9 31 bd c3 18 88 bd
       0.07089497 0.046171386 -0.043374132 -0.06645348
0001b0 87 ea 90 bd 0d d6 21 bd ce b9 c7 bc 05 2e 57 3d
       -0.070759825 -0.039510775 -0.02438059 0.052534122
0001c0 24 b8 9d 3c 26 21 d6 bc ad d4 97 bc c6 34 dc 3d
       0.019252844 -0.026138853 -0.018534029 0.10752253
0001d0 55 9d f4 3c 92 99 bf 3d 56 66 78 3d 80 8d a3 bd
       0.029860178 0.09355463 0.06064447 -0.07985973
0001e0 af 0b 15 3e a1 78 63 3d 61 57 54 bb 80 d0 75 3d
       0.14555238 0.055534963 -0.0032400715 0.060013294
0001f0 0a 00 67 3d 32 31 0f bd a8 01 1a bb 4c a7 e2 bc
       0.05639652 -0.034959026 -0.0023499522 -0.027667664
000200 60 1e 65 3d ca 4d f2 3b 23 1b a6 bc 90 e4 c1 3b
       0.05593717 0.007394527 -0.020276612 0.0059171394
000210 b7 95 ee 3d 5a 13 0c bd 8a 15 82 bd d6 18 9e 3d
       0.116496496 -0.034198143 -0.063517645 0.07719581
000220 ea 7b 51 3e bf 65 24 bc 41 12 64 3d 80 9c b5 3d
       0.20457426 -0.010034024 0.05568147 0.08867741
000230 57 06 63 3d f7 5d 1c 3d 45 d7 b9 3d fe 9f 6d 3d
       0.055425968 0.03817555 0.090742625 0.05801391
000240 69 07 ce 3d 76 c4 cd bd d5 c2 8a bd b9 6c 6c 3c
       0.10060007 -0.100472376 -0.067754425 0.014430218
000250 7f 3e 01 3e eb 30 ea 3c 67 42 9a 3c 42 47 99 3d
       0.12621497 0.028587779 0.018830491 0.074842945
000260 54 ea c9 3d 10 93 8b 3b 14 90 8c 3c 12 fd e9 bc
       0.09859148 0.0042594746 0.017158546 -0.028563056
000270 47 56 1f bd cb 27 01 be 65 3c b5 bd 58 0b fe 3d
       -0.03890064 -0.12612836 -0.0884941 0.124045074
000280 3c 5f 60 bd 80 e9 f5 bd 29 c5 3f 3c d5 f5 af bd
       -0.054778323 -0.12007427 0.0117047215 -0.085918106
000290 12 1a 85 bd 0d c5 bb bd 80 d8 a2 3b 8e 30 15 bd
       -0.06499113 -0.09168444 0.0049696565 -0.03642326
0002a0 44 3f 9f 3d c7 7a 10 bd e7 62 2c bd 9f 51 56 bd
       0.07775739 -0.03527334 -0.042086508 -0.052323934
0002b0 b7 8d 20 3c ba 46 0e 3e ec 83 fb bc 93 4b 79 3d
       0.009799412 0.13894168 -0.030702554 0.06086309
0002c0 28 39 b5 3b 7b ee 8f bd 2a 6d 14 3d b2 dc 58 3d
       0.005530495 -0.070279084 0.03623692 0.052944846
0002d0 9f fe 03 3d 9b ab a2 bd 7e 23 ea bd 68 ec e7 3d
       0.032225247 -0.079428874 -0.11432551 0.11324388
0002e0 e6 0b 0a 3d b9 06 62 bd 61 72 c5 bd 79 85 03 bc
       0.033702753 -0.055182192 -0.09640957 -0.008027428
0002f0 7d eb c9 3c 9e 2a c7 bd 5e 85 04 bd 4f f6 4a 3d
       0.024648422 -0.097249255 -0.03235375 0.049551304
000300 c4 20 b5 3d 1b 59 bb 3d 90 cb e5 3c 0a 34 be 3d
       0.0884414 0.09147855 0.028051168 0.092872694
000310 75 7c 2e bd 0d 70 c4 bc 98 ef 29 3d e1 1d 9d 3d
       -0.04259916 -0.023979211 0.04148826 0.076717146
000320 8e 47 77 3d 2f 4b 83 3d 96 4f 7b 3d 17 83 b5 3d
       0.060370974 0.064108245 0.061355196 0.08862894
000330 fa c7 90 bd 6a 06 d6 bc 89 0e 3c bd 29 c7 05 3e
       -0.070693925 -0.026126105 -0.0459123 0.13064255
000340 4a ee e7 bc e6 91 37 bd 18 8f 81 3d d1 31 31 3d
       -0.028311867 -0.044816874 0.06326121 0.0432604
000350 0f d9 1c 3e a5 c3 0a bd 92 31 70 bb 80 9a 97 bc
       0.15317176 -0.033877987 -0.003665064 -0.018506289
000360 ac ca 14 3d 46 2b ee 3d 79 d2 d2 bc 9e 17 5b 3c
       0.036326095 0.116293475 -0.025735127 0.01337233
000370 bb f3 c3 3d 71 a7 04 3d 01 43 3c 3b 37 e2 c5 bd
       0.09567972 0.032386247 0.002872646 -0.09662288
000380 59 19 90 bd 33 2c 2a bc e5 02 f8 bc 93 99 ca bd
       -0.07036085 -0.0103865145 -0.030274818 -0.09892573
000390 ea 14 d5 bc d1 3a f3 bc e1 5c 96 3d a7 08 c1 3d
       -0.02601095 -0.029691132 0.07341934 0.094254784
0003a0 de ca 2c bc fe ed 06 bd 58 b9 aa 3b 99 c2 04 bd
       -0.010546414 -0.03294181 0.005210083 -0.032412145
0003b0 38 01 2c bd 8e 03 19 3e 3b 89 33 3d a8 3a 9f bd
       -0.04199335 0.14942762 0.043832045 -0.0777486
0003c0 5b 1e d1 3c bb 66 b0 3d 26 e5 b7 bd 71 5c c9 3c
       0.02552717 0.08613344 -0.089792535 0.024580212
0003d0 3a 54 d0 3d d0 55 8c bd fc 50 78 bc 5b e9 ca bd
       0.10172315 -0.06852305 -0.015156027 -0.0990779
0003e0 dd 26 07 3e 2e ac 5b 3d 16 71 1a 3d bf 01 d0 3d
       0.13198419 0.053631 0.037705503 0.10156583
0003f0 22 27 9d 3c ae 5e fe 3d 54 40 3c 3d 45 cb c4 3c
       0.019183699 0.124204025 0.045959786 0.024022708

bias f4 [16]
000000 77 94 b7 3d bf f1 a0 3a 39 e4 8c 3c ef 00 fd bb
       0.08963864 0.0012279077 0.017198669 -0.0077210586
000010 16 b6 11 bd 48 dc 9e 3d 45 0c b6 3c 8b 60 d4 3d
       -0.03557404 0.07756859 0.022222647 0.103699766
000020 73 9b ae bd 3c 61 20 bd 82 18 bf 3d 7e 7d ef 3d
       -0.08525743 -0.03915523 0.09330846 0.116938576
000030 e4 8a c7 3d be 08 d1 bd 85 6b 8e bd ad 24 e4 3c
       0.09743288 -0.102067456 -0.069541015 0.02784952

weight f4 [16]
000000 83 bf 80 3f 6d 13 7e 3f 76 f1 7d 3f cd 50 81 3f
       1.0058445 0.9924839 0.99196565 1.0102783
000010 24 61 80 3f 63 c3 7e 3f e1 81 77 3f 90 88 85 3f
       1.0029645 0.99516886 0.96682554 1.04323
000020 b1 66 7b 3f 3c 06 81 3f a0 5b 78 3f 20 1e 7e 3f
       0.9820357 1.0080028 0.9701481 0.9926472
000030 bf bc 7a 3f f8 84 7e 3f c5 47 7c 3f 04 1d 76 3f
       0.97944254 0.99421644 0.9854701 0.96138024

bias f4 [16]
000000 79 9b c8 bc 87 32 92 bc 43 79 97 3b 18 95 5e 3c
       -0.024488198 -0.017846359 0.00462261 0.013585351
000010 eb 0e a6 bc 6f 13 14 bd 27 da 03 3c 5d 50 88 bc
       -0.020270785 -0.036151346 0.008047617 -0.016639883
000020 ea 39 d9 bc 55 c3 d1 3c 2a 8d 6d bc 3c 87 b5 bc
       -0.026516873 0.025605837 -0.014498988 -0.022159211
000030 30 d0 75 bc e2 5f 54 bd 5e fc 0e bd c9 5a 05 bb
       -0.015003249 -0.051849253 -0.034908645 -0.0020348302

running_mean f4 [16]
000000 51 70 0f 3f b9 65 cc 3e 2c 62 8d 3e c4 f5 42 3e
       0.56030756 0.39921358 0.27613962 0.19039065
000010 6c ff c7 3c 6a 51 a0 3e 56 a4 7f 3e 3f c2 45 3f
       0.024413787 0.31312114 0.24965033 0.7724952
000020 2c 4f b4 3e 5a fb 13 3e 66 01 8e 3e 3c f9 07 3f
       0.35216653 0.14451352 0.27735442 0.53114676
000030 96 4e 2f 3e b7 4b c2 3c 14 84 33 3e c8 6e db 3e
       0.17119822 0.023717744 0.17530853 0.42857957

running_var f4 [16]
000000 56 ea 30 3e 46 81 4f 3d a5 9e 94 3d f7 34 ad 3c
       0.17276892 0.050660394 0.072568215 0.02114342
000010 38 60 67 3b fa b0 b6 3d 3e 2b 80 3d af fc 01 3e
       0.0035305154 0.08920474 0.06258248 0.12694047
000020 28 7f 41 3d d4 34 8f 3d a2 7b ec 3d c0 e1 79 3e
       0.047240406 0.06992498 0.115470186 0.24402523
000030 c5 c8 8f 3c 23 77 8a 3b dc 39 75 3d 94 d3 0c 3d
       0.017551789 0.004225628 0.059869632 0.034381464

weight f4 [32, 16, 5]
000000 ec d1 06 3d 0e 37 84 3d 89 d8 aa 3d 07 3d d6 3d
       0.03291504 0.06455813 0.08342082 0.10460859
000010 63 0b 14 3e 4e 32 ca bd db b2 64 bb e6 53 15 3d
       0.14457469 -0.09872876 -0.0034896645 0.036456965
000020 f5 b9 74 3d 91 ca 93 bd d8 c3 9b bd bb 01 0f bd
       0.059747655 -0.07216371 -0.076057136 -0.03491376
000030 33 5c 84 3d 26 5e e3 3d 51 55 4b 3d 07 43 1c 3d
       0.06462898 0.11101942 0.04964191 0.03814986
000040 a9 29 fd bb ac 1c a1 b9 8a 40 d8 3d 98 d7 74 3c
       -0.0077259135 -0.00030729675 0.10559185 0.01494398
000050 9d d8 a0 bc 04 f3 f4 bc 4c 5e 87 bd cf 67 fb bb
       -0.01963454 -0.029901035 -0.066097826 -0.007672287
000060 cb 39 12 bd 21 fe 32 bd a0 08 d6 bd 93 7d 84 3d
       -0.035699647 -0.043699387 -0.10450864 0.06469264
000070 92 39 40 bd 97 a5 b6 bd 75 2b c6 3c 2f 4e 1e bd
       -0.046929903 -0.089183025 0.024190644 -0.03864878
000080 1a 26 cf bc fe 5f 66 3d 8e 27 bb 3d db 91 63 3d
       -0.025286723 0.05624389 0.09138404 0.05555902
000090 64 88 db bd 5c 70 bf 3d 17 61 9c 3c 69 68 22 3d
       -0.10719374 0.09347603 0.019089265 0.039650355
0000a0 1d 07 18 bd c4 a4 d7 bd 58 4e 34 3d f4 88 d9 3d
       -0.03711616 -0.105294734 0.044020027 0.10621825
0000b0 67 b4 5d bc 5c 5d bd 3d d3 47 f9 3b a9 6e cc bc
       -0.013531781 0.092463225 0.007607439 -0.02495511
0000c0 c9 77 f0 bd 0b cc 0a be 42 17 37 3d 77 59 b3 bd
       -0.11741597 -0.13554399 0.044699915 -0.087572984
0000d0 2f 3e c5 bd 42 30 6c bd ac 8d 25 3d f7 73 e0 bd
       -0.09631001 -0.05766321 0.040418312 -0.109596185
0000e0 46 8d f1 bd c4 d5 1c 3d 73 1c 83 bd b7 53 5e 3d
       -0.11794524 0.0382898 -0.06401911 0.054279055
0000f0 e0 5b bc 3d dd 0d 4f 3d ee 21 c6 bb 19 fe 91 3d
       0.09197211 0.05055033 -0.006046525 0.071285434
000100 66 24 08 bd 43 c6 af 3d bc 4d 87 3d d8 c2 67 3d
       -0.033237837 0.08582737 0.066066235 0.0565823
000110 1f 57 43 3d cd 89 8b bd 04 23 eb bc 1d 65 b2 bd
       0.047690507 -0.06813393 -0.02870322 -0.08710692
000120 a9 36 3b 3d ce 5c 02 be 8d e8 63 bd bf ea 7d 3c
       0.045706425 -0.12730715 -0.0556417 0.015497862
000130 c6 ea 7d 3d 3f 7b 8d 3b cf f4 ab bc 14 da f5 bd
       0.061991476 0.0043176706 -0.020990757 -0.12004486
000140 0b b9 17 3c 51 26 6f bd 39 1d 02 bd ca 66 c4 bd
       0.009260426 -0.05838615 -0.03176615 -0.09589918
000150 ab fc 99 3d 75 47 8c bd 8f 39 84 3d 10 5e 9c bd
       0.07518896 -0.06849567 0.06456291 -0.076351285
000160 b0 9a 2f bd 9f ce aa bd e6 b8 f6 3d 77 ee 6b 3d
       -0.04287213 -0.08340191 0.12046985 0.057600465
000170 b5 3a 85 3d 5b 89 7e bd 6f 35 53 bd 67 a1 05 bb
       0.06505338 -0.06214271 -0.05156463 -0.0020390393
000180 10 f3 84 bd df 21 dd bb 96 f0 87 3d a8 db bc bd
       -0.06491673 -0.0067484225 0.06637685 -0.092215836
000190 e9 09 b0 3d 22 f2 23 3d 86 cf ef 3d da f3 51 3d
       0.0859564 0.040025838 0.11709504 0.051257946
0001a0 00 e1 02 be a6 51 c3 3d e2 3c 1c 3d c9 ee c2 3d
       -0.12781143 0.095370576 0.038144 0.09518201
0001b0 bb b3 ac 3c 37 17 15 bc 8b c1 31 bb bf 44 b9 3d
       0.021081796 -0.009099773 -0.0027123417 0.090463154
0001c0 2c 1e f0 bc 9a c8 14 bd 8b 18 2a 3c 55 71 94 3b
       -0.029311262 -0.03632412 0.010381828 0.004530112
0001d0 4e ee ce bc 0f b7 0b bd 41 a5 55 bd fe 46 6a 3d
       -0.025260117 -0.034110125 -0.05215955 0.05719661
0001e0 ba 43 a3 bd ca 6a 30 bc ac 37 e6 3d f1 93 54 bd
       -0.07971902 -0.010767648 0.11241087 -0.0518989
0001f0 de 7e 75 bd ec 6c cd 3c 17 c0 37 3d 46 6a 3e 3c
       -0.059935443 0.025076352 0.044860926 0.011622017
000200 7a ec d4 3d e7 3d c7 bd 24 f0 60 bd 31 bd cf 3d
       0.10396667 -0.09728604 -0.054916516 0.10143507
000210 f5 5c d4 3c ee b1 6d bd cb c1 a1 3d cb d2 05 3d
       0.025923232 -0.058031015 0.07898291 0.03267173
000220 cc b1 ff 3b f0 42 0d bc 6c 92 b3 bd f2 8d 91 bd
       0.0078031775 -0.008621916 -0.08768162 -0.07107152
000230 89 f2 e9 3d 0f 95 fb 3c f1 6c 03 3d a3 be 41 3d
       0.11423213 0.030710725 0.032086316 0.047300946
000240 bb 49 1e bd 1c fc 5d bd 72 bf 01 3e 9a 17 f3 3d
       -0.038644534 -0.05419551 0.12670687 0.11869736
000250 b6 0b fc 3d fa 1d a7 3d 73 9e e0 3d fa e2 4c bd
       0.12306921 0.081600145 0.10967722 -0.05002115
000260 0b 78 ed 3d 4a 02 72 3b 91 fe 9b 3c 34 0d 3c bd
       0.11595162 0.0036927634 0.019042285 -0.04591103
000270 73 b4 7f bd 27 df 07 3e 8f 50 db bd 5a ef af bd
       -0.06242795 0.1326872 -0.10708725 -0.085905746
000280 d4 09 ba bd e8 e8 a2 3c 74 18 4c 3d 20 ad b8 3d
       -0.09083906 0.019886449 0.049828008 0.09017396
000290 06 2c b2 3d af f7 b9 3d 31 31 2e bb 34 f5 a2 3d
       0.08699803 0.09080445 -0.0026579613 0.07956925
0002a0 97 19 a0 bc b3 f8 20 bd aa a7 61 3d 94 66 8d bd
       -0.019543452 -0.039299678 0.055091538 -0.06904331
0002b0 4e 34 b5 3d 84 a4 8e bc 75 22 95 3d c8 a4 b2 bc
       0.08847867 -0.017412432 0.07281963 -0.02180709
0002c0 f8 6d 98 3d e3 f6 57 3d 65 18 a9 bd 47 4b 65 3d
       0.0744285 0.052725684 -0.08256606 0.055979993
0002d0 29 70 84 3d 5d ff b8 3b 75 5d ff 3d 86 f7 c1 3d
       0.06466705 0.005645676 0.124689974 0.094710395
0002e0 94 8f 51 bb 38 aa be bc a2 aa 44 3d d3 ae ef bc
       -0.0031976448 -0.023274526 0.04801429 -0.029258167
0002f0 8d 32 15 bd c2 6f a5 3d d4 5c e9 3d 07 5e 32 bd
       -0.036425162 0.08077957 0.11394659 -0.043546703
000300 8a 83 18 3d 26 1d 35 bc 82 b3 9d 3d fd 28 e6 3d
       0.03723482 -0.011054313 0.07700254 0.11238287
000310 d8 46 96 bd 5c 14 a4 3c 53 d9 19 be bb 5f 10 be
       -0.07337731 0.02002924 -0.15024309 -0.14099018
000320 f0 bf 30 bd b7 f6 dc 3d b4 d0 9a bd 3d 46 6a 3d
       -0.043151796 0.107892446 -0.07559338 0.05719589
000330 33 ea 1c bd b2 33 b8 bd 1b a9 0b be 8d 1f f2 3c
       -0.038309287 -0.08994235 -0.13638727 0.02955606
000340 bd 0c 82 3d 6d 3f a9 3d 0f ff 9b bd 99 d7 c1 bd
       0.06350086 0.08264051 -0.07617008 -0.0946495
000350 90 5f cc 3d 74 67 53 bd 5f 6a 90 bd 47 fd 8c bb
       0.099791646 -0.051612332 -0.07051539 -0.004302654
000360 33 09 88 3d 1f d7 8e 3d aa 55 0d bd a6 84 58 3d
       0.066423796 0.06974625 -0.034505524 0.05286088
000370 b6 52 dc 3d 3a 2a bc bc 07 56 36 bd 4b af c7 bd
       0.10757963 -0.022969354 -0.044515636 -0.09750231
000380 e4 ce cc 3c 00 0a 16 3e e2 ff 13 3d fe e2 36 3d
       0.025000997 0.14652252 0.0361327 0.04465007
000390 f4 91 b7 bc 39 bd 12 bd d4 c6 55 bc 53 43 b2 3b
       -0.022408463 -0.035824988 -0.013047893 0.0054401546
0003a0 28 c7 e2 3d 2a f4 7d 3b 81 5d 4d 3d b4 ec a3 3c
       0.11073142 0.003875027 0.050138 0.02001033
0003b0 3f b6 90 3d 70 40 94 3a c0 71 a3 bd 20 52 a2 bd
       0.07066011 0.0011310708 -0.079806805 -0.0792582
0003c0 cd b7 44 3d e4 d3 1a bd f6 3a 3a 3d 6b 2e e5 3d
       0.04802685 -0.03779973 0.045466386 0.11190494
0003d0 76 ed 27 3c 11 d6 72 3d eb 6c 89 3d 4d 3f 06 be
       0.010249486 0.05928618 0.067102276 -0.13110085
0003e0 9a 6a 6e bd a0 08 85 bd c5 a4 74 bb 69 04 b1 3d
       -0.058207132 -0.06495786 -0.0037329656 0.08643419
0003f0 ee 4e 98 3d b4 0b 15 bd e8 b0 2b 3d 91 03 af bc
       0.0743693 -0.036388114 0.041916758 -0.021364005

bias f4 [32]
000000 58 c7 50 bd d1 59 10 be b0 76 e4 bd 09 07 03 be
       -0.05097136 -0.14096762 -0.1115545 -0.12795652
000010 f7 a3 de bc ef f7 c5 bd c5 a0 f6 bc 44 eb 49 bc
       -0.027177794 -0.0966643 -0.030105958 -0.012324158
000020 f4 32 33 bd 38 8a c3 bc 55 99 e7 bc e6 fa 6f 3d
       -0.043749765 -0.023869619 -0.028271357 0.058588885
000030 6f f8 72 3d 48 06 16 3e 2a f6 ac 3d 92 e7 44 3d
       0.059318956 0.14650834 0.084453896 0.048072405
000040 e8 a0 c8 3d 48 75 e4 bd 93 97 7c bd 25 45 fe bd
       0.097963154 -0.11155182 -0.06166799 -0.12415532
000050 b3 29 ba 3d 26 88 b3 bc cc ad 9f 3d 91 e2 66 bd
       0.09089985 -0.021915507 0.07796821 -0.056368414
000060 8a 90 ee 3d 70 bb c4 bc bd 30 7d 3d fe e7 6e 3d
       0.116486624 -0.024015158 0.06181406 0.058326714
000070 06 cd be 3c e2 6b 4a bd 25 f1 ba 3d ad 28 e2 bd
       0.023291122 -0.04941929 0.09128026 -0.110429145

weight f4 [32, 32, 5]
000000 a8 c1 16 3d f6 af f4 3a 94 59 9a 3d fe 8e 02 3d
       0.03680578 0.0018668163 0.07536617 0.03187465
000010 f9 ec 47 bc b7 30 6b bd 89 39 c2 bd 3b 64 28 3d
       -0.012202495 -0.057419505 -0.0948363 0.041111212
000020 a1 58 93 bc 21 a5 d9 3c 03 43 c1 3b d2 05 b2 3c
       -0.017986597 0.026567997 0.005897881 0.021731291
000030 ae 3d dd 3d 9d 7b 72 3d 93 5d 3c 3d bd e1 7e 39
       0.1080278 0.059199918 0.045987677 0.00024307422
000040 2f 9a 30 bd fe c6 93 3d 0e a8 c8 bc e4 19 f4 bc
       -0.04311579 0.07215689 -0.024494197 -0.029797502
000050 a4 be 7d bd 77 a0 85 3c 6d bd 80 3d a3 36 bb 3b
       -0.061949387 0.016311867 0.0628613 0.0057133003
000060 a3 b1 b6 3d d5 22 9c bd 03 c8 58 bd 44 77 a7 bd
       0.089206 -0.07623831 -0.05292512 -0.08177045
000070 b0 f9 f5 3b 81 11 cb 3c 6a c6 8b bd 95 45 d1 3c
       0.0075065717 0.02478862 -0.06824954 0.025545875
000080 a6 79 a8 3d 54 26 59 3d 5c 4d 3e 3d 07 4c 73 ba
       0.082263276 0.05301507 0.046460494 -0.00092810433
000090 34 29 7b 3c 28 80 00 bd 19 c6 4b 3d c2 20 2e bd
       0.015329648 -0.03137222 0.049749468 -0.04251171
0000a0 0e 01 91 bc 41 6d db 3c 7b df 31 bd 61 6d c2 bc
       -0.017700698 0.026785495 -0.04342602 -0.023733797
0000b0 c9 3b 92 bc 45 e1 2b bd 0b e7 91 bd 78 f9 31 bc
       -0.017850773 -0.04196288 -0.07124146 -0.010862701
0000c0 0d c2 9f 3c b8 89 a6 bc 38 bc a8 3d 10 2e 1f 3c
       0.01950171 -0.020329341 0.08239025 0.009715572
0000d0 69 b6 4d bc 67 ea 88 bd a4 c0 35 3d ae d9 43 bc
       -0.012555697 -0.06685334 0.04437317 -0.011953754
0000e0 10 22 61 bd 2d bb 78 3d 00 71 98 bc 2d df 07 bd
       -0.054964125 0.06072538 -0.01860857 -0.03317182
0000f0 e3 98 31 bc 64 d9 97 bd 49 49 e1 3c 9e 9e 86 bd
       -0.010839674 -0.07414511 0.027500765 -0.065732226
000100 48 98 8d 3d 66 44 51 ba b6 b0 d8 bd 92 26 ab bd
       0.06913811 -0.00079829094 -0.1058058 -0.08356966
000110 c8 bb ae ba c6 e5 d4 bb cc ca 47 3c d3 96 19 bb
       -0.001333111 -0.0064971177 0.012194347 -0.0023435846
000120 e1 87 af 3c 26 61 8b bd ac 90 d1 3c b9 46 60 bd
       0.021427097 -0.06805639 0.02558168 -0.054754946
000130 f6 26 ac 3c c8 58 88 b9 7c db 33 b8 42 70 fb bc
       0.021014672 -0.0002600609 -4.2881336e-05 -0.030693177
000140 c1 5e 92 bc ff 29 07 bd 7f 35 bc bd 31 28 9b bd
       -0.017867448 -0.032999035 -0.09189891 -0.07576025
000150 a6 df 44 3b 12 2e 82 bc 14 14 02 3d e0 65 05 3d
       0.0030040531 -0.015891109 0.03175743 0.03256786
000160 8f 09 22 bd a4 51 86 3d a3 48 13 bd a1 72 99 bd
       -0.039559897 0.065585405 -0.035957944 -0.07492567
000170 ff 5f 7a bd bf 82 8f 3d e2 ae 87 3d ac ed 7e bd
       -0.061126705 0.0700736 0.06625153 -0.06223838
000180 0b 51 3d 3d 2a 62 ae 3d c2 44 b7 3d 6a 2d 85 3d
       0.046219867 0.08514817 0.089486614 0.06502803
000190 da db f8 bc 36 3e 0d 3d 19 7b 4e 3d 5d 24 15 3d
       -0.03037827 0.034483157 0.050410364 0.03641163
0001a0 7b 70 75 bd 45 f2 ab bc 6f 11 13 bd 7a d1 2b 3c
       -0.059921723 -0.020989547 -0.035905298 0.010486955
0001b0 ff 7c c6 bd 55 5c f6 3c 7b 84 c3 bc c0 bb 09 bd
       -0.0969181 0.030073324 -0.023866883 -0.033626318
0001c0 0f 5d 57 bd c7 6b d7 3c de 43 db 3c 3c 50 4d bd
       -0.052578982 0.02629651 0.02676576 -0.050125346
0001d0 97 1f 2d 3d 9e e0 27 bd 04 d4 10 3d 73 ef 6f 3d
       0.042266455 -0.040985696 0.035358444 0.058577966
0001e0 69 5f ab bd b7 66 82 bd 59 bc a3 bd 6f cd 5d bd
       -0.083678074 -0.063672476 -0.07994909 -0.054150995
0001f0 ee 13 dd 3a 87 ad f9 bc 2d 88 bb 3c 00 a0 e4 bd
       0.0016866901 -0.030478252 0.022892082 -0.1116333
000200 da de 0a 3d 9d 89 d2 bd 84 2f 57 bd e4 19 ca 3c
       0.033903934 -0.10280154 -0.05253555 0.024670549
000210 e7 10 4f 3b 3e 0c 10 3d f4 c9 5f bc 88 4a 9f bc
       0.0031595768 0.035167925 -0.013658989 -0.019444719
000220 e3 eb 63 bd 78 b7 2f bc 83 25 b7 bd b3 7c a1 bd
       -0.05564488 -0.010724895 -0.08942702 -0.078851126
000230 d3 a4 78 bd d8 f4 a3 bd ec 50 a1 3d 48 47 26 3c
       -0.060704064 -0.080056846 0.07876763 0.010148831
000240 68 68 1a bd 37 be 43 3d 8c 50 93 bd 50 dc 8e 3c
       -0.037697226 0.047788825 -0.071930975 0.017439038
000250 16 cb 5c 3d 09 83 63 bc 11 2e 96 3d ee ae 9d bd
       0.053904615 -0.013886222 0.07333005 -0.07699381
000260 43 56 a9 3d 5d 18 58 bc bc 3f b4 3d 3e 70 3f 3d
       0.08268406 -0.013189402 0.08801219 0.046737902
000270 cf 2b ea 3d 3f 8d 47 3d 33 b3 76 3d d5 65 34 bc
       0.11434137 0.048718687 0.06022949 -0.011010607
000280 7c 35 c6 bd c3 63 cc bc a1 df 6e 3b 28 1d f0 bc
       -0.0967817 -0.024949914 0.0036449211 -0.029310778
000290 1d 5c ac 3c d0 bf 42 3d 0f b4 cf 3c c2 68 90 3d
       0.021040017 0.047546208 0.025354413 0.07051231
0002a0 d9 20 17 bd 22 fe 15 3d 47 58 a8 3c 45 00 79 bc
       -0.03689656 0.036619313 0.020549906 -0.015197818
0002b0 b1 20 28 bb 65 86 00 bd 64 da 44 3d a7 a2 dc ba
       -0.0025654251 -0.03137817 0.048059836 -0.0016833142
0002c0 56 70 b6 3d 69 f9 0d bd 1b 01 4b bd 22 17 33 bc
       0.08908145 -0.034661684 -0.0495616 -0.010930808
0002d0 be a3 9d bd b8 c6 78 3d c5 3c f3 bc fb 52 c9 bd
       -0.07697247 0.060736388 -0.029692063 -0.098302804
0002e0 f2 21 a1 3d 02 11 40 bc 81 c9 8b 3c b1 33 d3 3b
       0.07867803 -0.011722805 0.017063858 0.006445371
0002f0 c0 73 99 bc 66 0b 86 3c 21 d0 7e bd 89 c8 8f bd
       -0.018731952 0.016362857 -0.062210206 -0.07020671
000300 d0 63 2f bd 17 f1 23 bd 2e a6 3a 3d 8d 17 fd 3c
       -0.042819798 -0.040024843 0.045568638 0.030895019
000310 7e ac 47 bc df 86 1c 3d f2 35 df 3c 24 7f 5a bd
       -0.012187121 0.03821456 0.027247403 -0.053343907
000320 8f c6 d7 3c 62 2c b5 bc f7 77 eb 3c 77 ea ac bd
       0.026339797 -0.02211589 0.028743727 -0.08443158
000330 38 c3 c7 3c d8 51 46 3d e5 ce 77 bc 58 fb 51 3d
       0.02438508 0.048417896 -0.015125011 0.05126509
000340 c3 c7 1e 3c 5d 0f 69 3c 36 34 fa 3c 93 8b a0 3c
       0.009691182 0.014224854 0.030542474 0.019597804
000350 41 d0 b8 3c df 7e b8 3d 80 80 55 3d e9 89 a1 bd
       0.02256024 0.09008574 0.0521245 -0.078876324
000360 6d 9c b9 3c b0 69 c0 3d c7 5a 30 3d 13 aa a6 3d
       0.022657597 0.09395158 0.043055322 0.08137908
000370 39 5b 98 bb 60 84 7f bd b5 4b c7 3c f7 22 d3 3d
       -0.0046495465 -0.062382102 0.024328092 0.103094034
000380 c8 82 f0 3d 1b be ab bd 0d 8b d2 bd 05 d6 6f 3c
       0.117436945 -0.08385869 -0.10280428 0.014638429
000390 0e 29 38 bd 88 1e 9e bd 64 b7 72 bd 1e 6e 8e bd
       -0.044961028 -0.07720667 -0.059256926 -0.06954597
0003a0 c7 44 b5 3c b1 96 2e 3c e8 d5 30 bd c2 38 ca bd
       0.022127522 0.010656045 -0.043172747 -0.09874107
0003b0 20 7f 55 3d c7 49 91 3d 68 1d 3f 3d f7 45 6a bd
       0.05212319 0.0709415 0.046658903 -0.05719563
0003c0 1c 7c 87 bd 09 b2 b2 3d ac 51 6d bd a1 15 b9 bc
       -0.06615469 0.08725364 -0.057939216 -0.022593321
0003d0 09 6f b1 3c 4d 8e cf bc b2 f2 2c 3d da d1 fa 3c
       0.021659391 -0.025336409 0.04222364 0.030617643
0003e0 62 a0 05 3d c3 59 93 bd b7 dc 16 3d 67 db 78 3c
       0.032623656 -0.07194855 0.036831584 0.015189028
0003f0 7a a5 a7 3a 91 3c c1 bd e7 48 ad 3d 5b fa 3d bd
       0.0012790405 -0.0943538 0.08461171 -0.046381336

bias f4 [32]
000000 75 a2 b9 bb 2c c5 d4 3c 31 7e 42 bd 1b b4 c1 bd
       -0.0056651183 0.025972925 -0.047483627 -0.094581805
000010 83 96 cb bd 83 be 34 3b bb ec dd bd c5 c3 15 3d
       -0.09940817 0.0027579374 -0.108361684 0.036563653
000020 7d 49 09 bd 0f 1e 85 3d 9a ad a2 bd 90 45 90 3d
       -0.03351735 0.06499874 -0.07943268 0.07044518
000030 77 2d 9a bd 60 a9 5a bd 9a 66 8e 3d c6 fb 70 3d
       -0.07528203 -0.053384185 0.069531634 0.05883386
000040 82 27 02 3c 21 ee 19 bd 80 fd 9e 3a 77 e3 14 bd
       0.00794399 -0.037580613 0.0012129992 -0.03634974
000050 8f 59 1a 3d 4e a8 f2 3c 4c be c6 3d 99 24 99 bd
       0.037683066 0.02962127 0.09704265 -0.074776836
000060 0b 3e cf bd b1 8f 50 3d 95 cb 1e 3d d1 e0 cb bc
       -0.10119256 0.050918285 0.03876837 -0.024887474
000070 9a 9f f0 3d 73 cd bb 3d d9 53 92 bc 0c b5 88 bd
       0.117491916 0.09170046 -0.017862247 -0.06675157
