results/SV_unet_lonlatcov_5s.pt (torch, 92622 bytes, 47 tensors)

weight f4 [3]
0.85277617 0.8216175 1.211943
00000000: 8a4f 5a3f 8655 523f f320 9b3f

bias f4 [3]
-0.029902507 0.038267914 0.06435251
00000000: 1af6 f4bc d1be 1c3d 40cb 833d

running_mean f4 [3]
0.0004998239 -0.027212733 0.14726308
00000000: 9d06 033a 3ded debc 22cc 163e

running_var f4 [3]
0.9645142 0.98720384 0.073693335
00000000: 67ea 763f 64b9 7c3f 88ec 963d

weight f4 [8, 3, 5]
0.21628433 -0.1530837 -0.05877378 0.010195726 0.11004777 0.06473798 -0.1967268 0.021096265
0.2251022 0.0061320066 -0.20029104 -0.15302104 0.2821423 0.14689346 -0.004145709 0.0894855
0.14464162 -0.27206284 0.0690612 0.17628965 -0.16933289 0.13281295 -0.06528575 0.08314325
-0.040111743 -0.15527736 0.11093808 -0.27516207 -0.10199793 -0.00435271 -0.14807573 0.19832359
-0.0144628165 0.21580733 -0.15038952 0.10270052 0.14583388 0.11331869 -0.26061225 -0.13132904
-0.023801416 0.04076663 -0.004023643 0.3040332 -0.061520077 -0.16720113 0.00964487 0.1335593
0.095697366 -0.0498055 0.13068032 0.022338139 0.01147075 -0.19440497 0.056803662 0.1750713
0.3428268 0.23776825 -0.2731302 -0.22274193 -0.06917395 0.06633146 -0.014523533 -0.13961808
0.031355172 -0.27002072 0.21565479 -0.15270522 0.14633721 0.06527169 -0.21717758 0.15446697
-0.13330486 -0.05506445 0.25839025 -0.010014585 -0.06290342 0.15699287 -0.017776491 0.17135324
-0.16016649 0.14733163 0.11928885 0.16045223 0.05686901 -0.0057512894 -0.19046596 0.21292567
0.009200615 0.22540635 0.055842876 -0.17587635 -0.1395632 -0.21763411 -0.0008759277 0.15052363
0.090549976 0.02365327 -0.27802566 -0.0051196124 -0.02565632 -0.31115806 0.03684326 -0.21290745
0.048812844 -0.25912082 0.046940338 -0.066996954 0.14667195 -0.12012461 -0.1659771 -0.0016807318
0.2033194 0.05594701 0.042152014 0.036789745 -0.07095901 -0.087675095 -0.06509285 0.32477888
00000000: a479 5d3e f9c1 1cbe c6bc 70bd f90b 273c
00000010: ba60 e13d 5995 843d c072 49be 13d2 ac3c
00000020: 3181 663e 00ef c83b 1819 4dbe 8cb1 1cbe
00000030: f574 903e 3d6b 163e bad8 87bb 2c44 b73d
00000040: ef1c 143e d24b 8bbe f56f 8d3d 4685 343e
00000050: 9a65 2dbe 1e00 083e 89b4 85bd 0247 aa3d
00000060: 364c 24bd 0701 1fbe 8133 e33d 0be2 8cbe
00000070: 4ae4 d0bd 2ea1 8ebb 2aa1 17be 5715 4b3e
00000080: 73f5 6cbc 99fc 5c3e b6ff 19be a654 d23d
00000090: 7a55 153e a113 e83d f86e 85be 1f7b 06be
000000a0: 30fb c2bc e9fa 263d c4d8 83bb 3daa 9b3e
000000b0: 7afc 7bbd c636 2bbe 8405 1e3c c5c3 083e
000000c0: fbfc c33d da00 4cbd 10d1 053e 79fe b63c
000000d0: d0ef 3b3c 1912 47be f5aa 683d e445 333e
000000e0: ff86 af3e 8579 733e b9d7 8bbe 7616 64be
000000f0: 12ab 8dbd cad8 873d 1df4 6dbc 0bf8 0ebe
00000100: 486e 003d 2840 8abe 9cd4 5c3e c25e 1cbe
00000110: 6cd9 153e 2aad 853d cd63 5ebe 972c 1e3e
00000120: 1281 08be 438b 61bd ba4b 843e 3714 24bc
00000130: 82d3 80bd bdc2 203e 01a0 91bc 3977 2f3e
00000140: af02 24be 1ade 163e b64d f43d 974d 243e
00000150: 7bef 683d 5075 bcbb 8209 43be 3009 5a3e
00000160: 2dbe 163c ecd0 663e 80bb 643d ee18 34be
00000170: a8e9 0ebe 7adb 5ebe 839e 65ba de22 1a3e
00000180: 4472 b93d 81c4 c13c 6159 8ebe 6cc2 a7bb
00000190: 342d d2bc 1c50 9fbe f5e8 163d 6904 5abe
000001a0: faef 473d 7cab 84be 8344 403d b335 89bd
000001b0: 2c31 163e e403 f6bd e7f5 29be 004c dcba
000001c0: f632 503e b128 653d 97a7 2c3d d8b0 163d
000001d0: f552 91bd 008f b3bd 664f 85bd 6b49 a63e

bias f4 [8]
-0.13060574 0.07541974 0.16502666 0.1417646 0.2391576 0.13270073 -0.10213379 -0.14804883
00000000: 83bd 05be aa75 9a3d c0fc 283e bd2a 113e
00000010: bbe5 743e b3e2 073e 852b d1bd 1d9a 17be

weight f4 [8, 8, 5]
0.072420456 -0.076753266 0.046270624 -0.042776 0.09756673 0.06002678 -0.0074189114 -0.08440226
-0.08559588 0.1186724 0.016635053 0.045539677 -0.076553494 0.08739932 -0.012820086 -0.050672982
-0.022739025 -0.13374625 -0.07085729 0.13071118 -0.13365388 0.1496323 0.1495193 -0.1529297
-0.15524794 -0.013691314 -0.12590769 -0.07420599 0.05630872 0.08339659 -0.004194094 0.018340053
0.058277335 0.049365945 -0.11378841 -0.05870258 0.1648607 -0.019785015 -0.11278108 -0.18602
-0.011289257 -0.14576255 0.1720543 0.07265839 0.13493839 -0.0036612684 0.006318069 0.06951465
0.017395241 0.07311157 -0.18365835 0.009544461 0.15009639 0.17807329 -0.14874102 0.06632567
-0.18905336 0.00985039 0.07464409 0.12692703 0.12248694 0.18822052 0.11202103 0.03307183
0.074152194 -0.0042310534 -0.012626473 -0.044498794 0.17411609 -0.08284801 -0.12563396 0.06710164
0.03740866 -0.14447497 0.0002441872 -0.03593572 -0.065424666 0.012550651 -0.023762025 0.10401459
-0.05318726 -0.010567159 -0.16750431 0.0857024 -0.18301558 0.12056966 0.110875994 -0.07037077
0.04638441 0.029409856 -0.16295788 0.00706404 0.040030956 -0.14831063 0.087344766 0.13977255
0.14327887 0.051698726 -0.18975165 -0.15731429 0.18291797 -0.053755544 0.011750578 0.111001596
0.16327806 -0.0011369538 -0.13051029 0.12646505 0.07520353 0.12602231 0.065901056 0.09966607
0.12672634 -0.0151651455 -0.03637549 -0.0568774 -0.040990137 -0.10723864 0.123695955 0.15837285
-0.037460707 0.1448181 -0.03607688 -0.1559776 0.07686001 -0.014030682 0.019214367 -0.079119705
0.025996162 0.03008591 0.116686456 0.09998043 -0.12940368 -0.008079584 -0.12751232 -0.15403725
-0.09359715 0.0866362 0.02140896 -0.07880934 0.028300794 -0.14287627 -0.08076342 0.086888134
-0.10860004 0.06978866 0.07655699 -0.044181768 -0.06983627 -0.1984514 -0.053205796 0.12700416
-0.12928197 0.03753902 0.020757353 0.16887037 -0.15156035 -0.0006729816 -0.04890264 -0.07800078
-0.060338654 -0.017441878 -0.16026384 -0.10696682 -0.182455 0.051032275 -0.11562836 0.09427543
0.1703978 0.13043603 -0.116993494 0.06369509 0.025741965 0.11938129 0.21081375 0.15243053
0.033970155 -0.03901397 -0.06499468 0.0128041655 0.08085702 0.06989168 -0.06850368 -0.0020161313
-0.10624318 0.17725992 0.157357 0.01092017 0.102170005 0.082076795 0.09861286 0.1404308
-0.009175596 0.110326685 0.049328443 -0.121655405 0.100678965 -0.099958874 0.03727977 0.10351807
0.036392614 -0.07623359 0.005931056 -0.08049184 0.05601681 0.11127776 0.031854518 0.009632828
-0.025314907 -0.0704646 -0.030643882 0.14507322 -0.100744665 0.08823476 0.0389576 -0.09280404
-0.09399658 -0.1028781 -0.0363669 -0.20247602 0.10291681 -0.15045148 -0.19605827 -0.10732281
0.23287655 -0.070588626 0.022742918 -0.052421182 0.10706043 0.1731563 0.06673662 -0.10105271
-0.011918984 0.012078213 0.04140474 0.0087784035 0.022783024 -0.08162798 -0.04433527 0.21938738
-0.0024704763 -0.12518172 -0.035741355 -0.041248612 -0.057076775 0.019438356 -0.13250403 0.0331908
0.00556245 0.092330754 -0.008278559 -0.08174185 -0.0968164 -0.028008288 -0.12282889 0.113951266
00000000: 2d51 943d d130 9dbd 4486 3d3d e335 2fbd
00000010: 11d1 c73d a4de 753d 571a f3bb 18db acbd
00000020: e54c afbd 840a f33d 3c46 883c d087 3a3d
00000030: 14c8 9cbd 6afe b23d 570b 52bc 798e 4fbd
00000040: 3147 babc c7f4 08be a01d 91bd 27d9 053e
00000050: 90dc 08be 3639 193e 961b 193e 9a99 1cbe
00000060: 51f9 1ebe 8851 60bc f2ed 00be 4ff9 97bd
00000070: f9a3 663d d5cb aa3d 9c6e 89bb e13d 963c
00000080: 37b4 6e3d f233 4a3d e609 e9bd 1e72 70bd
00000090: 3ed1 283e 2f14 a2bc c4f9 e6bd 077c 3ebe
000000a0: 93f6 38bc c742 15be 012f 303e eccd 943d
000000b0: 4a2d 0a3e e4f1 6fbb ce07 cf3b b25d 8e3d
000000c0: 7780 8e3c 85bb 953d ef10 3cbe 5f60 1c3c
000000d0: deb2 193e d858 363e 914f 18be c1d5 873d
000000e0: 3497 41be 8863 213c 00df 983d 29f9 013e
000000f0: 6fda fa3d e1bc 403e 486b e53d 5476 073d
00000100: 1bdd 973d a6a4 8abb 44df 4ebc 5e44 36bd
00000110: 7d4b 323e 38ac a9bd 30a6 00be 966c 893d
00000120: d339 193d 3ff1 13be 4006 8039 5531 13bd
00000130: 5efd 85bd 3fa1 4d3c 94a8 c2bc 9a05 d53d
00000140: e2da 59bd e121 2dbc 4086 2bbe bd84 af3d
00000150: 7068 3bbe 3aed f63d f412 e33d 8d1e 90bd
00000160: 94fd 3d3d f0ec f03c 6ede 26be 7679 e73b
00000170: 80f7 233d bede 17be d0e1 b23d 8920 0f3e
00000180: b2b7 123e 0bc2 533d 424e 42be ff16 21be
00000190: d94e 3b3e c62e 5cbd 7f85 403c ce54 e33d
000001a0: 5d32 273e d705 95ba 7da4 05be 0e80 013e
000001b0: 4f04 9a3d fe0b 013e 22f7 863d b91d cc3d
000001c0: 8dc4 013e 3b77 78bc 77fe 14bd 47f8 68bd
000001d0: 46e5 27bd ef9f dbbd 4e54 fd3d 7e2c 223e
000001e0: 6670 19bd 324b 143e 5ac5 13bd 98b8 1fbe
000001f0: c868 9d3d f2e0 65bc 7367 9d3c 8309 a2bd
00000200: e7f5 d43c ba76 f63c 4ff9 ee3d 8ac2 cc3d
00000210: 6682 04be 3b60 04bc 9792 02be f1bb 1dbe
00000220: ddaf bfbd 526e b13d d861 af3c cb66 a1bd
00000230: 11d7 e73c 284e 12be 4b67 a5bd 68f2 b13d
00000240: b369 debd 5bed 8e3d e9c9 9c3d f1f7 34bd
00000250: 5106 8fbd d836 4bbe 52ee 59bd 610d 023e
00000260: 7e62 04be 84c2 193d 530b aa3c 5bec 2c3e
00000270: a332 1bbe 086b 30ba 224e 48bd dfbe 9fbd
00000280: aa25 77bd 45e2 8ebc 341c 24be 6c11 dbbd
00000290: 7cd5 3abe 3807 513d 90ce ecbd 7a13 c13d
000002a0: c37c 2e3e 0691 053e 499a efbd 9272 823d
000002b0: d0e0 d23c 2e7e f43d 8fdf 573e c016 1c3e
000002c0: 4a24 0b3d 1dcd 1fbd ee1b 85bd 90c8 513c
000002d0: 5e98 a53d 5e23 8f3d a84b 8cbd 1221 04bb
000002e0: 0696 d9bd a083 353e 3222 213e 83ea 323c
000002f0: 823e d13d e117 a83d 8af5 c93d 17cd 0f3e
00000300: 3d55 16bc f5f2 e13d 9f0c 4a3d 7826 f9bd
00000310: c630 ce3d 3db7 ccbd acb2 183d 4801 d43d
00000320: 6c10 153d 5b20 9cbd 4e59 c23b e8d8 a4bd
00000330: e271 653d 98e5 e33d e279 023d 02d3 1d3c
00000340: 3561 cfbc bf4f 90bd e108 fbbc 138e 143e
00000350: 3853 cebd 6db4 b43d 0192 1f3d 0b10 bebd
00000360: 4781 c0bd c1b1 d2bd 75f5 14bd e055 4fbe
00000370: 0cc6 d23d f40f 1abe 80c3 48be 10cc dbbd
00000380: 3177 6e3e c590 90bd 5b4f ba3c 98b7 56bd
00000390: 8042 db3d e34f 313e 36ad 883d b9f4 cebd
000003a0: d847 43bc b2e3 453c 0498 293d 4bd3 0f3c
000003b0: 77a3 ba3c 922c a7bd e698 35bd 16a7 603e
000003c0: b7e7 21bb a32f 00be 8765 12bd 4ef4 28bd
000003d0: 56c9 69bd 303d 9f3c 23af 07be 14f3 073d
000003e0: 3645 b63b e817 bd3d cba2 07bc 4568 a7bd
000003f0: ad47 c6bd a371 e5bc b78d fbbd 485f e93d

bias f4 [8]
-0.076735474 0.04225024 0.02237714 -0.049031824 0.15552486 0.07262806 -0.01191251 -0.13977477
00000000: 7d27 9dbd 960e 2d3d 4450 b73c 98d5 48bd
00000010: e941 1f3e 05be 943d b02c 43bc 1e21 0fbe

weight f4 [8]
1.0311476 1.0474476 0.9579502 1.0024717 0.9359742 0.9674058 0.95374125 1.1097705
00000000: a5fc 833f c312 863f 393c 753f fe50 803f
00000010: 019c 6f3f e8a7 773f 6328 743f f60c 8e3f

bias f4 [8]
-0.03227706 -0.010916998 -0.031812675 0.010029826 -0.06164674 -0.05037852 -0.055796217 -0.0012196654
00000000: f334 04bd 35dd 32bc 024e 02bd 2454 243c
00000010: 4b81 7cbd b559 4ebd 938a 64bd 2edd 9fba

running_mean f4 [8]
0.046630222 0.3749948 0.3859547 0.056143053 0.5673883 0.14016068 0.13790429 0.07769299
00000000: 55ff 3e3d 52ff bf3e db9b c53e 42f6 653d
00000010: 5c40 113f 4886 0f3e c836 0d3e 811d 9f3d

running_var f4 [8]
0.014331952 0.06795971 0.04917112 0.021230135 0.031104205 0.025442384 0.020762678 0.031297337
00000000: 90d0 6a3c 762e 8b3d a867 493d d2ea ad3c
00000010: 3fce fe3c 8c6c d03c 7e16 aa3c a331 003d

weight f4 [16, 8, 5]
0.029103745 -0.094643764 0.15312454 -0.06806577 0.121185966 0.06182294 -0.13717785 0.054712273
0.24379377 -0.056658667 0.06994616 0.02094381 -0.0004639924 -0.06841414 0.017597005 -0.100521475
0.058516927 0.123595275 0.22705418 0.17827603 -0.094076276 -0.036096822 -0.009610848 -0.03445958
-0.053281818 -0.058232483 0.022965796 0.1846416 -0.11456875 -0.07287578 -0.05994709 0.07150236
-0.0039369524 -0.044442803 0.12896192 -0.098762885 -0.06746896 0.076215304 0.15278372 0.11892434
-0.067206755 -0.059936654 -0.17349163 0.0025365306 -0.061337203 0.20061073 0.10674869 -0.043958783
-0.036848925 0.09903446 -0.11487805 -0.027274039 -0.16982277 -0.0074910577 -0.004221177 0.039950665
0.14563671 0.005464346 -0.04053389 -0.060589474 -0.14805266 -0.017073432 0.065892905 -0.077159524
0.10261988 0.004911545 0.08951626 -0.16890866 -0.04702504 0.00040754542 -0.12189004 0.10070225
-0.15653242 0.035231 -0.08970786 -0.103495024 -0.04261155 -0.10728537 -0.044794153 0.11723535
-0.13312691 0.08420848 0.058518317 0.12564288 0.014997689 0.12412737 0.056035627 -0.06633564
-0.0044076093 0.05140551 -0.041540172 0.01937193 -0.11086319 0.11625763 -0.0742552 -0.10337651
0.027310595 0.1833421 -0.031747665 -0.07877332 -0.018673869 -0.09483067 -0.03438166 0.111918814
0.097838044 -0.008237329 0.09204157 -0.16350766 0.101238884 0.017248305 0.13478029 -0.07007299
0.113636345 0.015395476 -0.17723136 -0.10687649 -0.17693569 0.09338284 -0.15402198 -0.03376706
0.00038649308 0.04280119 -0.02465343 -0.01941276 -0.14096853 0.07149217 -0.06548182 -0.10386677
0.050545923 -0.09607642 -0.05007224 -0.077418074 -0.11478029 0.0561863 -0.049780384 -0.19491582
-0.098620355 -0.0969894 0.14685635 0.09800596 0.12448543 0.10363476 0.09106559 0.07739479
-0.13433684 -0.015880868 0.09889768 0.0074299304 -0.0069433474 -0.07370168 -0.16730614 0.10035375
-0.09674851 -0.14652444 -0.035999227 0.06891175 0.03191968 0.040469147 0.11750849 0.0662183
-0.022222418 -0.036760975 0.13282886 -0.06160443 -0.17810321 0.15928505 -0.07202527 -0.10013457
-0.0015526648 -0.0066974545 0.009651996 0.16943322 -0.07972332 0.006671869 0.039787587 -0.09594934
-0.06763746 0.020119479 0.033073787 0.10853546 -0.07659827 -0.06884177 0.13552545 -0.19597934
-0.12937567 0.058693122 -0.096265085 -0.007868218 0.0458334 0.10430588 -0.13650446 0.0063277567
-0.10629683 -0.15069194 0.11822961 -0.015251732 -0.15221444 0.095475405 -0.012346961 -0.0067966194
0.029491624 0.13086921 -0.2017728 -0.057121422 0.1356144 0.14888208 -0.08061828 -0.05301452
-0.09043335 0.10117461 0.09176655 -0.092705026 0.091658786 -0.1054281 -0.089312136 0.11714622
-0.05510203 0.036641136 -0.18763499 -0.07160464 0.03205834 -0.10891136 -0.023690386 0.07489554
0.11828334 0.06826696 0.0425287 -0.09364873 -0.15542147 0.012425606 0.068118684 -0.109537184
0.08601828 0.0911111 0.0404943 -0.15482107 0.204428 0.1555343 0.123169266 0.05998807
0.114970855 0.18210535 0.054002307 -0.15792423 -0.05670736 -0.06927622 0.04987955 -0.09633504
-0.005667888 -0.03924362 0.07967602 0.08558047 -0.0723723 -0.011230366 0.04090723 0.06734455
00000000: fa6a ee3c 97d4 c1bd aecc 1c3e 1166 8bbd
00000010: 5930 f83d 0d3a 7d3d 5a78 0cbe fa19 603d
00000020: 13a5 793e eb12 68bd ef3f 8f3d 5a92 ab3c
00000030: 0144 f3b9 b61c 8cbd 9827 903c 34de cdbd
00000040: 72af 6f3d 851f fd3d e480 683e fe8d 363e
00000050: 10ab c0bd 43da 13bd d176 1dbc 7d25 0dbd
00000060: 093e 5abd 2f85 6ebd c422 bc3c b012 3d3e
00000070: 05a3 eabd e63f 95bd 148b 75bd d46f 923d
00000080: 8d01 81bb a809 36bd 980e 043e 3244 cabd
00000090: 2b2d 8abd c516 9c3d 5673 1c3e 9b8e f33d
000000a0: b2a3 89bd 2380 75bd caa7 31be ec3b 263b
000000b0: b83c 7bbd e66c 4d3e 0f9f da3d 200e 34bd
000000c0: e6ee 16bd 94d2 ca3d 2f45 ebbd ce6d dfbc
000000d0: 05e6 2dbe 8c77 f5bb cd51 8abb 4fa3 233d
000000e0: ca21 153e 420e b33b dd06 26bd ab2c 78bd
000000f0: 1e9b 17be 95dd 8bbc dcf2 863d d005 9ebd
00000100: 5f2a d23d 07f1 a03b 4d54 b73d 64f6 2cbe
00000110: 549d 40bd d2ab d539 7ca1 f9bd fb3c ce3d
00000120: 094a 20be 624e 103d c1b8 b7bd 33f5 d3bd
00000130: 7389 2ebd 6fb8 dbbd 137a 37bd 1619 f03d
00000140: 6c52 08be 7f75 ac3d e7b0 6f3d 87a8 003e
00000150: deb8 753c 7e36 fe3d 9d85 653d fbda 87bd
00000160: b56d 90bb 968e 523d 0726 2abd e2b1 9e3c
00000170: 3d0c e3bd 7b18 ee3d 1c13 98bd 10b7 d3bd
00000180: 78ba df3c 08be 3b3e d709 02bd e853 a1bd
00000190: f1f9 98bc 9536 c2bd c9d3 0cbd b135 e53d
000001a0: 505f c83d ddf5 06bc 4a80 bc3d 8d6e 27be
000001b0: 5556 cf3d 514c 8d3c d803 0a3e 6e82 8fbd
000001c0: 2cba e83d 4e3d 7c3c 237c 35be 10e2 dabd
000001d0: a12e 35be 813f bf3d f0b7 1dbe 544f 0abd
000001e0: 39a2 ca39 4d50 2f3d fdf5 c9bc 8207 9fbc
000001f0: 0e5a 10be 7d6a 923d 551b 86bd 1ab8 d4bd
00000200: 3e09 4f3d b7c3 c4bd 8d18 4dbd 5e8d 9ebd
00000210: ee11 ebbd 9b23 663d 84e6 4bbd 0398 47be
00000220: 78f9 c9bd 61a2 c6bd 8361 163e 59b7 c83d
00000230: 38f2 fe3d 763e d43d 9980 ba3d 2981 9e3d
00000240: 998f 09be 9818 82bc de8a ca3d c676 f33b
00000250: 0585 e3bb e8f0 96bd 4d52 2bbe 4486 cd3d
00000260: 1524 c6bd 810a 16be ed73 13bd 9b21 8d3d
00000270: 36be 023d fac2 253d 4ba8 f03d 769d 873d
00000280: ca0b b6bc ad92 16bd 4a04 083e ed54 7cbd
00000290: b060 36be 9f1b 233e fc81 93bd 5a13 cdbd
000002a0: c982 cbba 5276 dbbb 6823 1e3c e77f 2d3e
000002b0: fb45 a3bd b29f da3b 4ff8 223d 1681 c4bd
000002c0: 8285 8abd 9bd1 a43c 6178 073d d747 de3d
000002d0: 8edf 9cbd eafc 8cbd 2fc7 0a3e cfae 48be
000002e0: 0e7b 04be 3368 703d a126 c5bd b3e9 00bc
000002f0: cebb 3b3d 529e d53d d3c7 0bbe 1259 cf3b
00000300: 27b2 d9bd fd4e 1abe 5e22 f23d 67e2 79bc
00000310: 1ade 1bbe 9c88 c33d e84a 4abc 2db6 debb
00000320: 6b98 f13c 9402 063e 879d 4ebe 27f8 69bd
00000330: 80de 0a3e 8b74 183e 321b a5bd c125 59bd
00000340: 1f35 b9bd a234 cf3d 1af0 bb3d 22dc bdbd
00000350: 9ab7 bb3d b0ea d7bd 48e9 b6bd 5bea ef3d
00000360: abb2 61bd 0415 163d 6323 40be 74a5 92bd
00000370: 9b4f 033d eb0c dfbd 5712 c2bc d562 993d
00000380: 893e f23d 8ccf 8b3d 9332 2e3d e8ca bfbd
00000390: ce26 1fbe c594 4b3c cf81 8b3d 0855 e0bd
000003a0: 5a2a b03d 7598 ba3d 5add 253d 6a89 1ebe
000003b0: 9355 513e 6244 1f3e 2b40 fc3d 0db6 753d
000003c0: d775 eb3d d379 3a3e 8631 5d3d e4b6 21be
000003d0: fa45 68bd b1e0 8dbd 804e 4c3d 4e4b c5bd
000003e0: b1b9 b9bb ebbd 20bd 2e2d a33d d044 af3d
000003f0: ee37 94bd 92ff 37bc 578e 273d f0eb 893d

bias f4 [16]
-0.11077896 0.06443775 -0.038629036 0.0093732 0.07922269 -0.071278304 -0.014815412 0.15629715
0.017707298 0.06697402 0.09178544 0.10995004 0.122820824 0.07232557 0.048427045 0.030100308
00000000: 14e0 e2bd f0f7 833d 7b39 1ebd 0d92 193c
00000010: 813f a23d 5cfa 91bd 58bc 72bc 5c0c 203e
00000020: e50e 913c ad29 893d 01fa bb3d 7d2d e13d
00000030: 7c89 fb3d 6e1f 943d 705b 463d ec94 f63c

weight f4 [16, 16, 5]
-0.04329566 0.06982861 0.04444068 0.077122286 -0.07436378 -0.098444924 -0.035668936 -0.12951304
0.096710324 0.017245935 0.095718935 0.10296457 0.19947153 -0.08723453 -0.11609436 0.012893909
-0.02058736 -0.049693532 0.0639292 0.108056724 -0.07132789 -0.018146738 0.034207705 -0.05393065
-0.0829978 0.12651257 -0.08871044 0.019427022 0.043380037 -0.020394344 0.03375879 0.049937006
0.018323418 -0.08718558 -0.0707976 -0.025356218 -0.0077993874 -0.07875686 0.08698097 -0.16000894
-0.07725863 -0.01744673 0.06569723 -0.075623 -0.11597255 -0.06987105 0.045208108 0.10901063
0.061412267 -0.064296365 0.091720216 0.14395183 -0.0906799 -0.014522932 -0.01772942 -0.090812884
-0.013885701 0.11066987 -0.060804628 -0.1401643 -0.093713336 0.015924674 0.08230724 -0.13536343
0.067203216 -0.11484309 -0.033353 -0.11345651 -0.027411925 -0.08941782 0.024718983 -0.07207585
-0.13050067 -0.06493349 0.078490295 -0.10835548 0.023093354 0.007569352 0.08457944 -0.038189184
-0.024659371 -0.041784022 -0.051018912 -0.010129086 0.0299983 -0.14504986 -0.045252264 0.073232226
-0.012187323 0.0029189398 0.035874985 0.09476771 0.028584644 -0.05426661 -0.019092893 0.004357415
-0.062208716 0.047619093 0.035797372 0.038915604 -0.17834851 0.039846297 -0.12708507 0.07277093
-0.09641142 -0.07791969 -0.07508114 0.11043235 0.00019670614 0.0048972317 -0.08502701 0.097248524
0.13144802 -0.007976847 0.024371348 -0.20625724 0.0019733873 0.123330235 -0.0551238 -0.10430717
-0.035563845 0.054337613 0.06201223 0.06594884 -0.06839179 -0.062498055 0.07690274 0.041401736
0.12818539 0.05247877 0.07533523 0.08369501 -0.1276315 0.054534473 0.046433832 -0.083339766
0.049828544 -0.11665845 0.014747916 0.0700149 -0.031208921 -0.0024048684 -0.10065713 -0.044613257
0.04659823 -0.13866495 0.024388028 0.014527398 -0.023383422 -0.097627014 -0.009177958 0.017692534
-0.14201035 0.027181223 0.033501394 0.06440727 -0.025501804 -0.004392944 0.05239609 -0.069862574
-0.045606647 0.07426882 0.13255204 0.052498106 0.033996925 0.012204188 0.04088078 -0.017970592
-0.16621563 -0.09907936 0.09856073 -0.033892687 -0.08672157 0.006304722 -0.013086847 0.04632577
-0.093924955 -0.010336048 -0.00012704564 -0.029597014 0.052764986 -0.005843999 -0.08744873 -0.08584106
0.08152354 0.006965148 -0.005917646 -0.089052804 -0.084610924 0.0032239628 0.12419132 -0.0153897405
-0.051261913 -0.04951879 0.031845096 0.13637425 0.08444755 -0.09414258 0.051677752 0.06276066
0.116946 0.015452945 0.04745527 0.042260382 -0.040537737 0.1324283 0.054482747 -0.07934337
-0.042227007 0.13838837 0.047700033 0.060757324 0.1390009 0.08013062 -0.0058674444 0.010812515
0.09639574 -0.0036447337 0.03316306 -0.060130436 0.12868904 -0.03945827 0.08612522 -0.011179261
0.1230529 -0.029059393 -0.035226777 -0.03834993 0.006056187 -0.072088435 0.013084878 -0.0036396512
0.12780625 0.09750929 -0.07440149 0.021787507 -0.07342779 -0.0280382 -0.024160625 0.112230964
-0.032303154 0.021149244 -0.059006162 -0.10564036 -0.124778084 -0.061307892 -0.03726284 -0.09565309
0.06642262 0.055092484 0.052051757 -0.015832495 -0.10452362 0.011363301 0.11036199 -0.032475155
00000000: ca56 31bd 4d02 8f3d 6e07 363d 4af2 9d3d
00000010: 0a4c 98bd 7e9d c9bd 9719 12bd 119f 04be
00000020: 1010 c63d 5947 8d3c 4a08 c43d 17df d23d
00000030: 4442 4c3e 04a8 b2bd e1c2 edbd f940 533c
00000040: d3a6 a8bc 728b 4bbd 50ed 823d d84c dd3d
00000050: 5b14 92bd 78a8 94bc 611d 0c3d 63e6 5cbd
00000060: c0fa a9bd 838c 013e d2ad b5bd 6b25 9f3c
00000070: 44af 313d 0a12 a7bc a846 0a3d bf8a 4c3d
00000080: fe1a 963c 5a8e b2bd 55fe 90bd d8b7 cfbc
00000090: 0192 ffbb 474b a1bd 1423 b23d 62d9 23be
000000a0: c639 9ebd 72ec 8ebc 458c 863d 3be0 9abd
000000b0: 0483 edbd 8e18 8fbd 232c 393d f740 df3d
000000c0: 6e8b 7b3d d0ad 83bd cfd7 bb3d 1c68 133e
000000d0: 62b6 b9bd 97f1 6dbc 4a3d 91bc 1bfc b9bd
000000e0: da80 63bc e3a6 e23d 460e 79bd 3b87 0fbe
000000f0: c7ec bfbd 7674 823c b390 a83d b69c 0abe
00000100: d7a1 893d db32 ebbd 289d 08bd e35b e8bd
00000110: f98e e0bc b120 b7bd 777f ca3c 819c 93bd
00000120: f8a1 05be d9fb 84bd 85bf a03d 7ae9 ddbd
00000130: 462e bd3c 5408 f83b fc37 ad3d 436c 1cbd
00000140: 7302 cabc b925 2bbd 35f9 50bd 77f4 25bc
00000150: ffbe f53c f387 14be 705a 39bd c7fa 953d
00000160: 56ad 47bc af4b 3f3b a6f1 123d 9315 c23d
00000170: 582a ea3c aa46 5ebd b368 9cbc a5c8 8e3b
00000180: 91ce 7ebd 3d0c 433d 44a0 123d f865 1f3d
00000190: fea0 36be df35 233d 9722 02be ed08 953d
000001a0: 5a73 c5bd 5c94 9fbd 24c4 99bd 5b2a e23d
000001b0: e742 4e39 f578 a03b a422 aebd 3c2a c73d
000001c0: 4f9a 063e 52b1 02bc 6ca6 c73c 1935 53be
000001d0: f253 013b 9094 fc3d 7ec9 61bd ff9e d5bd
000001e0: 65ab 11bd 1e91 5e3d 8900 7e3d 2f10 873d
000001f0: ff10 8cbd f6fd 7fbd 2f7f 9d3d de94 293d
00000200: 0843 033e fbf3 563d 5b49 9a3d 4a68 ab3d
00000210: d5b1 02be 8a5f 5f3d 6731 3e3d 0aae aabd
00000220: 0419 4c3d a0ea eebd 3ea1 713c f963 8f3d
00000230: daa9 ffbc ff9a 1dbb 5325 cebd 64bc 36bd
00000240: c9dd 3e3d 2ffe 0dbe 67c9 c73c 5304 6e3c
00000250: 978e bfbc acf0 c7bd 255f 16bc efef 903c
00000260: 296b 11be 28ab de3c c238 093d f5e7 833d
00000270: 29e9 d0bc aff2 8fbb 489d 563d 1c14 8fbd
00000280: 09ce 3abd 401a 983d b9bb 073e 4108 573d
00000290: 5c40 0b3d 13f4 473c 9b72 273d 1037 93bc
000002a0: 6e34 2abe 1fea cabd 35da c93d 0fd3 0abd
000002b0: 149b b1bd d797 ce3b 376a 56bc 17c0 3d3d
000002c0: ba5b c0bd 8758 29bc 8e37 05b9 7075 f2bc
000002d0: 1920 583d 047f bfbb 5218 b3bd 70cd afbd
000002e0: d0f5 a63d e53b e43b d0e8 c1bb 5161 b6bd
000002f0: 7e48 adbd 1f49 533b 0558 fe3d 4025 7cbc
00000300: 03f8 51bd 37d4 4abd 0170 023d b1a5 0b3e
00000310: d6f2 ac3d d3cd c0bd 0dac 533d a988 803d
00000320: 6281 ef3d 592e 7d3c 7560 423d 3919 2d3d
00000330: e60a 26bd 499b 073e 4d29 5f3d c77e a2bd
00000340: 3af6 2cbd aeb5 0d3e 1c61 433d acdc 783d
00000350: 4056 0e3e 861b a43d b143 c0bb fa26 313c
00000360: 216b c53d 7cdc 6ebb fdd5 073d 554b 76bd
00000370: 0fc7 033e ff9e 21bd 6b62 b03d 3829 37bc
00000380: 2903 fc3d f70d eebc f449 10bd d114 1dbd
00000390: fb72 c63b 1aa3 93bd f561 563c 3787 6ebb
000003a0: a4df 023e f3b2 c73d cf5f 98bd b77b b23c
000003b0: 4f61 96bd 5eb0 e5bc 81ec c5bc 59d9 e53d
000003c0: 5050 04bd 2e41 ad3c 72b0 71bd f959 d8bd
000003d0: a78b ffbd fc1d 7bbd eba0 18bd c4e5 c3bd
000003e0: 9508 883d a8a8 613d 3934 553d 26b3 81bc
000003f0: 7b10 d6bd 242d 3a3c 7805 e23d ab04 05bd

bias f4 [16]
0.04476274 -0.041792724 0.050959084 0.13179584 0.046776548 -0.009599377 -0.024431119 -0.047500495
-0.03261001 0.08538682 0.041474655 0.13728859 -0.08915008 0.02223356 -0.09084522 0.11897897
00000000: 2359 373d d92e 2bbd 79ba 503d 7df5 063e
00000010: c498 3f3d b546 1dbc c523 c8bc e18f 42bd
00000020: 1392 05bd 49df ae3d 54e1 293d 6195 0c3e
00000030: 5194 b6bd 2823 b63c 0f0d babd 3fab f33d

weight f4 [16]
1.0010935 1.1025132 0.9679473 0.98331755 0.96723163 0.96847737 1.0463637 0.97115254
1.0229467 1.0208228 1.0160449 1.0483474 0.90055037 0.95109046 1.0081483 0.955386
00000000: d523 803f 271f 8d3f 65cb 773f b3ba 7b3f
00000010: 7e9c 773f 22ee 773f 3fef 853f 749d 783f
00000020: ebef 823f 52aa 823f c20d 823f 3f30 863f
00000030: 788a 663f aa7a 733f 010b 813f 2d94 743f

bias f4 [16]
-0.038669318 -0.028937252 -0.049908623 0.024437957 0.03959258 0.017321764 -0.02689487 -0.0030295544
0.006158267 -0.033240248 -0.0301971 -0.039701827 0.026224058 0.048783604 -0.039617527 0.016089525
00000000: b863 1ebd d10d edbc fc6c 4cbd 1c32 c83c
00000010: d42b 223d 5fe6 8d3c a152 dcbc 7d8b 46bb
00000020: 4acb c93b ed26 08bd e95f f7bc 629e 22bd
00000030: d6d3 d63c 51d1 473d fd45 22bd 2ece 833c

running_mean f4 [16]
0.19732207 0.2672529 0.7102399 0.19368207 0.40244192 0.39839947 0.55631953 0.20750557
0.22411412 0.4461086 0.40368062 0.38125625 0.094695166 0.15439738 0.15709145 0.48751983
00000000: cc0e 4a3e 5fd5 883e 48d2 353f 9854 463e
00000010: de0c ce3e 04fb cb3e f56a 0e3f 577c 543e
00000020: 2c7e 653e 5968 e43e 3aaf ce3e 0534 c33e
00000030: 8aef c13d 591a 1e3e 95dc 203e 339c f93e

running_var f4 [16]
0.1564873 0.22780499 0.81034505 0.03143276 0.069138005 0.063268624 0.5943902 0.06829788
0.1548289 0.38775182 0.32234815 0.39948365 0.04240478 0.018749217 0.09572487 0.062447418
00000000: 353e 203e b645 693e c672 4f3f a3bf 003d
00000010: 3a98 8d3d fb92 813d f529 183f c2df 8b3d
00000020: 788b 1e3e 6887 c63e d10a a53e 1f89 cc3e
00000030: a2b0 2d3d f597 993c 670b c43d ddc8 7f3d

weight f4 [32, 16, 5]
-0.043374944 -0.034858182 0.07775474 -0.02732329 -0.13897642 -0.05340892 0.11091521 0.0909941
-0.013637577 -0.16169964 0.044497162 0.05297185 0.0067433924 -0.12599616 0.05938504 0.045027327
0.02154085 0.113152705 -0.06636011 -0.015104663 -0.008000448 -0.02923272 0.11896972 0.055088393
0.10348308 0.06800662 0.08355551 0.13665804 0.037473045 -0.031064285 0.09161664 -0.083439164
0.08233285 0.054331977 0.1036072 0.03997205 -0.0113545135 0.10744375 0.05950005 -0.07909959
0.04278513 -0.13549653 -0.11867035 -0.06883746 -0.073325016 -0.06956157 0.10899234 0.082193345
-0.06796446 -0.098699816 0.061947133 -0.0050018053 0.027221123 -0.058074377 -0.08610176 0.1184945
0.031603225 -0.014046878 0.0023240787 -0.16116297 -0.04076485 -0.058659036 0.0075113145 -0.0020253675
0.004254044 0.06592674 -0.08171642 -0.0965574 -0.07086784 0.1007446 -0.03630797 -0.0035826177
-0.028125372 0.06985261 0.030542549 -0.09291974 -0.031189732 -0.033466082 -0.0205557 -0.0004430339
-0.06662969 -0.013317116 -0.12409948 -0.11698253 -0.073778905 -0.027777493 0.014450322 0.05484272
-0.03767753 -0.04620119 0.020544585 -0.031026071 -0.061097283 0.017176686 -0.08119007 -0.040581625
-0.09592218 0.035816114 0.042526793 -0.046761658 0.008741833 -0.021471769 0.061491553 -0.058477197
-0.05254794 0.10211902 -0.10084044 0.09106164 0.04676402 -0.10428632 0.05253952 0.0077040833
-0.09566106 -0.016516382 -0.044150326 0.1114869 -0.08342413 -0.020094156 -0.071690775 0.09463071
-0.010174526 0.081002146 -0.07288771 -0.13979323 -0.076556005 0.008120777 -0.03602058 -0.031964432
-0.10834566 -0.054474443 0.09011773 0.025178947 0.015045189 0.053914826 0.04243357 0.015438788
-0.1253883 -0.12042822 -0.13215835 -0.03504594 0.05914837 0.04557288 -0.06958144 0.05025763
-0.06844908 -0.087533996 -0.082466 -0.02202303 -0.06352716 0.097252846 -0.086814284 -0.055810157
0.00754437 -0.012957409 -0.08398258 -0.05226627 0.042457353 -0.055533525 -0.031756587 0.025954282
0.14936909 -0.08578665 0.087851495 0.07305926 -0.035470657 0.014295997 -0.106700875 0.058134183
0.06726257 0.07599125 0.011697039 -0.07311036 -0.027441548 0.050466985 0.02478466 0.07268387
0.110133454 0.10807458 -0.09001174 0.0802342 0.113772005 -0.023100408 0.010146872 -0.09825875
0.15223622 0.009822495 0.10737169 0.008189235 -0.044285994 0.087873034 -0.026076104 0.04087683
0.064688325 -0.07724584 -0.059167255 -0.019997975 -0.007043313 0.034293372 0.026060896 0.08641364
0.10181212 0.116644256 0.017685732 -0.018527975 0.1010049 0.061327994 0.018436234 -0.043107666
0.029063025 -0.016608234 -0.04269937 0.045934133 -0.022332482 0.12970564 0.054376237 -0.03013253
-0.12536354 0.07400647 -0.09261222 -0.08794934 0.093977034 -0.04908265 0.030312365 -0.111806765
-0.049065053 0.13842717 -0.031709205 -0.065949604 0.035178937 -0.035414092 -0.00367896 -0.043671746
-0.023615414 -0.028529849 -0.036618534 0.01832409 0.03784193 -0.12457599 -0.050844368 0.0031158866
0.061599735 0.01842087 -0.017846957 -0.08304219 -0.026834426 -0.010709407 0.11965279 0.10794307
-0.03576031 -0.045139648 0.054255925 0.08637617 -0.10303274 -0.094329804 0.0922173 -0.07409698
00000000: eda9 31bd 74c7 0ebd e13d 9f3d 18d5 dfbc
00000010: d64f 0ebe 50c3 5abd 8327 e33d 1d5b ba3d
00000020: 2570 5fbc 9794 25be a842 363d 03f9 583d
00000030: adf7 dc3b 2305 01be ba3d 733d 936e 383d
00000040: 7076 b03c 9bbc e73d cfe7 87bd 8c79 77bc
00000050: 5014 03bc 7579 efbc 66a6 f33d 5ea4 613d
00000060: f0ee d33d 0e47 8b3d 271f ab3d 16f0 0b3e
00000070: 567d 193d 877a febc 81a1 bb3d 27e2 aabd
00000080: 209e a83d 358b 5e3d 0330 d43d bbb9 233d
00000090: 4808 3abc 780b dc3d 53b6 733d f7fe a1bd
000000a0: 763f 2f3d 9abf 0abe 7109 f3bd a7fa 8cbd
000000b0: 6d2b 96bd 4c76 8ebd 6037 df3d fc54 a83d
000000c0: f330 8bbd 2123 cabd 47bc 7d3d 2fe6 a3bb
000000d0: d5fe de3c 66df 6dbd 1f56 b0bd 3fad f23d
000000e0: 6272 013d e024 66bc 924f 183b e807 25be
000000f0: 0bf9 26bd 7544 70bd 7921 f63b 07bc 04bb
00000100: 8265 8b3b 9904 873d f05a a7bd e3bf c5bd
00000110: 2823 91bd 2f53 ce3d aab7 14bd 5aca 6abb
00000120: 2e67 e6bc e30e 8f3d 5e34 fa3c b44c bebd
00000130: 9c81 ffbc bb13 09bd 6d64 a8bc 0147 e8b9
00000140: 2675 88bd 0830 5abc de27 febd 8994 efbd
00000150: 6519 97bd a08d e3bc 0bc1 6c3c c3a2 603d
00000160: c153 1abd 763d 3dbd 1e4d a83c 632a febc
00000170: 2541 7abd 1fb6 8c3c fb46 a6bd eb38 26bd
00000180: d972 c4bd ebb3 123d 9330 2e3d 2789 3fbd
00000190: e839 0f3c 90e5 afbc 91de 7b3d c985 6fbd
000001a0: 823c 57bd c723 d13d 6f85 cebd 867e ba3d
000001b0: a18b 3f3d 1194 d5bd ae33 573d 8972 fc3b
000001c0: f2e9 c3bd 5d4d 87bc f9d6 34bd 3e53 e43d
000001d0: 45da aabd 809c a4bc 9dd2 92bd bfcd c13d
000001e0: 0eb3 26bc 74e4 a53d 2746 95bd f525 0fbe
000001f0: 65c9 9cbd 020d 053c 518a 13bd 23ed 02bd
00000200: 54e4 ddbd 9820 5fbd a58f b83d 1444 ce3c
00000210: 1980 763c cbd5 5c3d d3ce 2d3d f8f2 7c3c
00000220: ca65 00be 12a3 f6bd 8554 07be 558c 0fbd
00000230: 9045 723d a1aa 3a3d b780 8ebd f2da 4d3d
00000240: 082f 8cbd 0645 b3bd efe3 a8bd a469 b4bc
00000250: 871a 82bd 802c c73d b0cb b1bd 3199 64bd
00000260: c336 f73b 504b 54bc 0fff abbd 2815 56bd
00000270: c3e7 2d3d 1f77 63bd 3213 02bd 139e d43c
00000280: 36f4 183e e9b0 afbd 7ceb b33d 18a0 953d
00000290: ae49 11bd c239 6a3c fd85 dabd 1c1e 6e3d
000002a0: f5c0 893d 4da1 9b3d f0a4 3f3c e2ba 95bd
000002b0: 19cd e0bc 78b6 4e3d 3309 cb3c 48db 943d
000002c0: a68d e13d 3556 dd3d 1358 b8bd d451 a43d
000002d0: 4c01 e93d 113d bdbc 113f 263c e23b c9bd
000002e0: d0e3 1b3e 88ee 203c b0e5 db3d 242c 063c
000002f0: 3b65 35bd c7f6 b33d 8e9d d5bc 776e 273d
00000300: 507b 843d 1133 9ebd 5d59 72bd cbd2 a3bc
00000310: 97cb e6bb 3577 0c3d a97d d53c a2f9 b03d
00000320: df82 d03d 2fe3 ee3d abe1 903c fbc7 97bc
00000330: a8db ce3d 1033 7b3d 9607 973c aa91 30bd
00000340: 9515 ee3c fe0d 88bc 89e5 2ebd 6e25 3c3d
00000350: 9cf2 b6bc 8ed1 043e 9eb9 5e3d 7fd8 f6bc
00000360: 4d5f 00be b490 973d 7aab bdbd c91e b4bd
00000370: 0877 c03d e40a 49bd a351 f83c f2fa e4bd
00000380: 70f8 48bd dabf 0d3e 83e1 01bd 9610 87bd
00000390: ca17 103d 5e0e 11bd b51a 71bb 25e1 32bd
000003a0: 1d75 c1bc 6eb7 e9bc 51fd 15bd 671c 963c
000003b0: 2400 1b3d b221 ffbd 2f42 50bd e733 4c3b
000003c0: 0150 7c3d 5de7 963c c833 92bc 0612 aabd
000003d0: dfd3 dbbc 8276 2fbc 860c f53d 4211 dd3d
000003e0: 6779 12bd 5ae4 38bd 763b 5e3d fde5 b03d
000003f0: d402 d3bd fc2f c1bd 6cdc bc3d 28c0 97bd

bias f4 [32]
-0.050367255 0.11834203 0.030014852 0.053758234 -0.062412824 -0.13334414 0.07981791 0.08712387
0.118490025 0.075511076 0.08318195 -0.022470452 0.06895137 -0.117012694 -0.0024152154 0.08005723
0.06625358 -0.032583006 0.0677483 -0.10666357 0.13436693 0.027257405 0.07132098 -0.0069975113
-0.089215554 0.026402676 -0.005296306 0.054099165 0.056344982 0.065167725 0.07021393 0.12611227
00000000: e54d 4ebd 4e5d f23d b5e1 f53c 9831 5c3d
00000010: 97a4 7fbd 5e8b 08be 9377 a33d 006e b23d
00000020: e6aa f23d 8da5 9a3d 4c5b aa3d f413 b8bc
00000030: 6036 8d3d 5aa4 efbd 9748 1ebb 0cf5 a33d
00000040: f5af 873d c275 05bd 9fbf 8a3d 6e72 dabd
00000050: 7c97 093e ec4a df3c bc10 923d 614b e5bb
00000060: a5b6 b6bd 6d4a d83c a38c adbb 1697 5d3d
00000070: ffc9 663d a876 853d 52cc 8f3d 9323 013e

weight f4 [32, 32, 5]
-0.13723399 -0.055727642 -0.035546165 0.10119691 0.0943032 0.014350359 -0.06836804 -0.06915878
-0.067790866 -0.024916844 0.10302461 0.024032267 -0.028874971 0.016358145 -0.041851286 -0.023963718
-0.046559244 0.013121861 -0.020603187 0.065506294 0.094080545 0.03304932 -0.06964319 -0.039533373
0.05484662 0.009921047 0.0066025914 -0.0074452106 0.017985528 -0.10029016 -0.09266464 0.032876037
-0.009551527 0.04855673 0.04585158 -0.086729415 0.068516225 -0.055221137 0.025947962 0.0143952435
-0.015239478 -0.079851545 -0.012924416 -0.049646653 -0.07909208 0.010582707 -0.0031495953 -0.05013576
-0.05515482 -0.07083786 -0.0811488 -0.009190031 0.0032247342 -0.042925723 0.021508813 0.07106581
-0.054964546 0.00015834284 0.038975373 0.054092377 0.06391954 0.05185761 0.026145462 -0.103158526
-0.011760709 0.019239487 -0.030673217 0.021874694 0.007980908 0.039539926 0.050917696 0.035985764
-0.0007236392 0.022239646 -0.076698 -0.003331873 -0.034961287 -0.05664623 0.02608064 -0.03320892
-0.06195193 -0.106393814 -0.0015912511 0.05445413 -0.050413016 -0.042867158 0.03274607 -0.045952257
-0.0384752 -0.050405327 -0.08590081 0.036788955 -0.049352657 -0.10319102 0.0048282063 0.030912979
0.107392736 0.08646956 -0.042208478 0.06943424 -0.032966457 0.0559164 -0.09932537 -0.053598497
0.04657241 -0.06522578 -0.06312343 0.008100823 0.029811822 -0.034265168 -0.04503544 -0.059838817
-0.018257752 -0.04677836 0.005197608 0.04126155 -0.020095162 -0.0028606735 0.0018153662 -0.020400513
0.008746262 0.04001753 -0.009903775 -0.015193696 0.028251652 0.068011105 -0.003326272 -0.020498289
0.0828561 0.021184582 0.020586513 0.00020214503 0.01119703 -0.09521992 0.05990345 -0.07942815
0.03319636 -0.07845822 0.010836436 0.008898839 -0.028142622 -0.07980018 -0.0043385806 0.033030868
-0.0031105282 -0.018022554 -0.009363895 0.014554357 0.012267029 -0.08398658 -0.025126163 -0.022544686
-0.09086969 -0.03161949 0.037616152 -0.08319233 -0.12529153 0.047723606 0.06464025 -0.086799406
0.084092036 0.085379176 0.025514938 -0.00538676 -0.019796109 0.09453229 0.038689595 0.056370933
0.07468859 -0.01839473 0.060773246 0.059182808 -0.09156072 0.031395487 0.0068136123 0.08030498
0.05620272 0.06629731 0.035468392 -0.031540073 -0.07940059 0.056297533 -0.006488814 -0.04603177
-0.05903903 -0.013502588 -0.044792663 -0.008870187 0.015087176 -0.0103214355 0.077689484 0.06855097
0.10607977 0.053413816 0.018024573 -0.05124013 0.020999935 0.046232577 -0.040830195 0.029683433
0.061064083 0.004239878 0.10192366 0.1004487 0.0077323597 -0.090722084 0.02463593 -0.013229378
-0.058728516 0.07251353 0.10231084 0.040695507 -0.0026501557 0.036619138 0.009965159 0.06653869
-0.02109964 -0.015143524 -0.04534025 0.050711326 0.080108285 0.08443418 0.12392895 0.081297114
0.0091711115 0.02796525 -0.037582137 0.06731401 0.050170068 -0.016918592 0.06321899 -0.0511022
0.04834944 0.064108625 0.044721004 0.05788601 -0.02253851 0.11606945 -0.044187512 0.07624406
0.049885865 0.009885816 -0.0169471 0.03528285 0.009347261 0.05409479 0.0035705494 -0.06490684
-0.044242542 -0.010814535 0.035549898 -0.06867045 -0.007875568 -0.025843788 0.085087225 -0.005015927
00000000: 1187 0cbe ab42 64bd db98 11bd 5340 cf3d
00000010: 0922 c13d c51d 6b3c 8b04 8cbd 1ea3 8dbd
00000020: f0d5 8abd 691e ccbc 91fe d23d 51df c43c
00000030: 348b ecbc 8401 863c 416c 2bbd 8f4f c4bc
00000040: e8b4 3ebd 13fd 563c 04c8 a8bc 2a28 863d
00000050: 4dad c03d b95e 073d 17a1 8ebd bfed 21bd
00000060: d9a6 603d e38b 223c 8d5a d83b f4f6 f3bb
00000070: 6356 933c ed64 cdbd f5c6 bdbd 06a9 063d
00000080: 027e 1cbc 6ce3 463d dece 3b3d 319f b1bd
00000090: 3c52 8c3d 8f2f 62bd d290 d43c 07da 6b3c
000000a0: 01af 79bc 3589 a3bd eec0 53bc 4a5a 4bbd
000000b0: 07fb a1bd 1763 2d3c 7169 4ebb 285b 4dbd
000000c0: 05ea 61bd 7113 91bd 5831 a6bd c991 16bc
000000d0: 1056 533b e2d2 2fbd 4033 b03c f48a 913d
000000e0: 8122 61bd d508 2639 a4a4 1f3d f88f 5d3d
000000f0: 3fe8 823d a568 543d 022f d63c c744 d3bd
00000100: fdaf 40bc 219c 9d3c 6646 fbbc 8f32 b33c
00000110: 5bc2 023c 9ef4 213d 138f 503d cf65 133d
00000120: 9bb2 3dba eb2f b63c d713 9dbd 8e5b 5abb
00000130: 9133 0fbd e105 68bd 11a7 d53c 1406 08bd
00000140: 4fc1 7dbd 00e5 d9bd 8791 d0ba 4b0b 5f3d
00000150: e17d 4ebd 7995 2fbd be20 063d 6f38 3cbd
00000160: 2c98 1dbd d175 4ebd c4ec afbd 04b0 163d
00000170: 0326 4abd d055 d3bd ee35 9e3b 373d fd3c
00000180: b9f0 db3d f416 b13d cce2 2cbd 8a33 8e3d
00000190: d607 07bd 9808 653d 196b cbbd 198a 5bbd
000001a0: b6c2 3e3d 1895 85bd db46 81bd 50b9 043c
000001b0: ec37 f43c a259 0cbd 1577 38bd 8c19 75bd
000001c0: 4891 95bc aa9a 3fbd b250 aa3b df01 293d
000001d0: 9c9e a4bc 237a 3bbb 95f1 ed3a fa1e a7bc
000001e0: 7b4c 0f3c 6ce9 233d 7143 22bc fbee 78bc
000001f0: 0270 e73c 6849 8b3d 95fd 59bb 07ec a7bc
00000200: 75b0 a93d 4a8b ad3c 0ca5 a83c e5f6 5339
00000210: bf73 373c a902 c3bd 525d 753d 3aab a2bd
00000220: e8f8 073d b4ae a0bd 4f8b 313c 70cc 113c
00000230: 5b8b e6bc 476e a3bd a72a 8ebb 604b 073d
00000240: 01da 4bbb 09a4 93bc 066b 19bc 6675 6e3c
00000250: a6fb 483c 2801 acbd 62d5 cdbc a2af b8bc
00000260: e319 babd 7083 01bd 6513 1a3d be60 aabd
00000270: 6c4c 00be d479 433d 1b62 843d e3c3 b1bd
00000280: 7238 ac3d 47db ae3d b404 d13c 6b83 b0bb
00000290: 732b a2bc 259a c13d fb78 1e3d 35e5 663d
000002a0: 55f6 983d 8bb0 96bc 5eed 783d ac69 723d
000002b0: 3084 bbbd 8e98 003d b944 df3b f076 a43d
000002c0: d334 663d e2c6 873d 4e47 113d 2a30 01bd
000002d0: c79c a2bd 3e98 663d 1ea0 d4bb cf8b 3cbd
000002e0: e9d2 71bd f539 5dbc 8378 37bd 4354 11bc
000002f0: 3430 773c 3d1b 29bc aa1b 9f3d 7364 8c3d
00000300: 5a40 d93d 72c8 5a3d 45a8 933c 2ce1 51bd
00000310: 0e08 ac3c 5f5e 3d3d 903d 27bd ac2a f33c
00000320: 551e 7a3d adee 8a3b 5abd d03d 0cb8 cd3d
00000330: bc5f fd3b 80cc b9bd 4ad1 c93c 08c0 58bc
00000340: 508d 70bd f981 943d 5888 d13d 55b0 263d
00000350: 3cae 2dbb f3fd 153d e844 233c 7045 883d
00000360: 27d9 acbc 8b1c 78bc b3b6 39bd aeb6 4f3d
00000370: d00f a43d d4eb ac3d 76ce fd3d 1a7f a63d
00000380: 6e42 163c 6117 e53c baef 19bd eddb 893d
00000390: 217f 4d3d dc98 8abc f578 813d 8a50 51bd
000003a0: 100a 463d 624b 833d 5f2d 373d e119 6d3d
000003b0: aea2 b8bc d2b5 ed3d f7fd 34bd d925 9c3d
000003c0: 1f55 4c3d 1ef8 213c a5d4 8abc c084 103d
000003d0: 4125 193c 8092 5d3d e1ff 693b e1ed 84bd
000003e0: ab37 35bd 732f 31bc c59c 113d 18a3 8cbd
000003f0: 8708 01bc 5ab6 d3bc 3642 ae3d a55c a4bb

bias f4 [32]
0.021757701 0.04223137 -0.108131394 -0.009737535 0.08835262 -0.0027118542 -0.0700039 -0.050810654
0.1171944 -0.0913473 -0.027309265 -0.057988953 0.011786692 0.04106423 -0.0492498 0.024226386
0.09432984 -0.05215159 0.038917184 -0.006148772 -0.055494122 0.061568983 -0.035425775 0.00500219
0.15221901 -0.039092794 0.03083117 0.06352804 -0.018640416 0.040915456 -0.021854214 0.0017908975
00000000: 353d b23c cdfa 2c3d fe73 ddbd 2f8a 1fbc
00000010: 38f2 b43d 5db9 31bb 345e 8fbd d51e 50bd
00000020: 9e03 f03d 4b14 bbbd aeb7 dfbc d385 6dbd
00000030: f81c 413c f732 283d 29ba 49bd 6a76 c63c
00000040: 0130 c13d e89c 55bd a067 1f3d a37b c9bb
00000050: ce4d 63bd c22f 7c3d 9e1a 11bd 69e9 a33b
00000060: 4ddf 1b3e c41f 20bd a691 fc3c fd1a 823d
00000070: c9b3 98bc f796 273d 9c07 b3bc 8cbc ea3a

weight f4 [32, 16, 6]
0.0007116004 -0.008672976 0.11196808 -0.036023688 0.08489519 -0.08206077 0.032876715 0.029287541
-0.04285986 0.123492815 -0.036024176 0.08325478 -0.13966067 -0.03243845 -0.01840471 -0.093785726
-0.07080481 -0.11073889 0.019608332 -0.00666845 0.083659336 0.061250295 -0.039439272 -0.071451135
-0.010671961 -0.012305144 0.0063766404 -0.020480061 0.10092451 -0.094427146 -0.042246617 -0.007383796
0.011806918 0.09980318 0.07390165 -0.037131414 0.03990751 -0.0012295522 0.10632063 0.032852147
0.018787025 0.13037933 -0.028433036 -0.0028398095 -0.076673836 -0.005031895 -0.029981764 -0.0531019
-0.108631976 0.10783232 0.044011343 -0.06548299 0.029959274 0.02571297 -0.12362312 0.016615557
0.09275017 -0.079461865 0.10953244 -0.005622874 -0.008726177 0.036490913 0.102330126 0.023412053
0.08807975 -0.0058751656 -0.1215996 -0.053879626 -0.062092677 0.0933101 0.034698244 0.05025439
0.034895822 -0.07108345 -0.002765539 -0.017977044 0.01808982 0.06465135 -0.01589742 0.06545385
0.028071519 0.0855049 -0.09071618 -0.0444697 -0.032407183 -0.024510227 0.0094921095 -0.108331986
0.033602137 -0.027735801 0.0063960534 0.11678843 0.0700249 0.074850835 0.11393077 0.12932412
-0.040630523 -0.047713168 -0.083348766 0.06692584 -0.075086586 -0.020366173 0.0549768 -0.007996678
0.03298952 -0.11686412 0.014482955 -0.10242231 0.06726029 0.08262074 -0.06149989 -0.009923303
0.025114836 -0.026425855 0.059423577 -0.0678087 0.027672792 -0.03585881 0.12890333 -0.11488576
-0.0118698245 0.048270017 -0.0009738014 0.07302153 -0.062195964 -0.07172262 0.071254656 0.10305904
0.011032169 -0.028745992 -0.00067213457 0.10715008 -0.03862576 0.090845734 -0.041004308 0.05916975
-0.03158179 0.061626047 0.0029396652 -0.0005369745 0.017618667 0.061456 0.06533168 -0.12875009
-0.1562785 -0.050110273 -0.09758557 0.056356076 -0.03950174 -0.05436086 0.06201943 -0.0032559163
0.058180396 -0.03500166 0.09885784 0.020830818 -0.1524417 -0.01271273 0.025902886 -0.081513256
0.09014386 0.0481531 0.04849631 0.07180591 0.011843292 0.03219811 -0.10786979 0.06698891
-0.02199557 -0.0047404687 0.030759284 -0.053415794 0.0859841 -0.08144095 -0.08190159 -0.06881643
0.035591245 0.0130391065 0.101497 0.060767666 -0.11770261 -0.0080581745 -0.10040354 0.086499445
-0.076103106 -0.04395738 -0.013783696 -0.020754924 -0.058079425 -0.05447903 0.08752927 -0.0016950073
0.109250784 -0.015446892 0.051624168 -0.04144952 -0.09447817 0.09071697 0.0956354 -0.046097327
0.051813345 -0.03057647 0.05513487 -0.01363697 0.0018196268 -0.0064712656 -0.072897196 -0.02198483
-0.064057745 -0.04364829 -0.036859155 -0.043157276 0.040674023 -0.04894183 -0.042962547 -0.050683677
-0.0018999503 -0.035537902 0.03851049 -0.03874741 -0.025085837 -0.013618313 0.018477114 0.026523264
0.091817215 0.1026063 0.02116698 -0.07387466 0.0655351 -0.029854318 0.010875084 0.027120313
-0.052933596 -0.025690649 -0.077488 0.08012666 -0.03586406 0.07481092 -0.041616037 0.09401165
-0.08243581 -0.11761952 -0.033245716 -0.024492849 -0.016072646 0.0033849322 -0.050976235 0.06078259
-0.08302909 0.013730404 0.06997464 0.038961235 -0.022271719 -0.0028248653 0.091671266 -0.041953832
00000000: b28a 3a3a 1919 0ebc 854f e53d 938d 13bd
00000010: 88dd ad3d 7a0f a8bd bca9 063d 6dec ef3c
00000020: d28d 2fbd cde9 fc3d 168e 13bd 7b81 aa3d
00000030: 3503 0fbe 2ede 04bd 79c5 96bc bb12 c0bd
00000040: 1d02 91bd 12cb e2bd a7a1 a03c 0383 dabb
00000050: 9655 ab3d 97e1 7a3d 138b 21bd f954 92bd
00000060: 73d9 2ebc 849b 49bc 23f3 d03b cdc5 a7bc
00000070: 82b1 ce3d 0563 c1bd ca0a 2dbd c5f3 f1bb
00000080: ce71 413c 9c65 cc3d c059 973d 1c17 18bd
00000090: 0f76 233d ed28 a1ba a1be d93d f98f 063d
000000a0: 3fe7 993c 2982 053e 66ec e8bc 191c 3abb
000000b0: 2c07 9dbd 98e2 a4bb 519c f5bc 6181 59bd
000000c0: 717a debd 31d7 dc3d 3d45 343d f21b 86bd
000000d0: 276d f53c 02a4 d23c 1e2e fdbd 591d 883c
000000e0: cdf3 bd3d e7bc a2bd 8b52 e03d 1640 b8bb
000000f0: 3df8 0ebc 7f77 153d 7592 d13d a2ca bf3c
00000100: 2863 b43d 7684 c0bb 3609 f9bd e2b0 5cbd
00000110: e454 7ebd 5e19 bf3d bf1f 0e3d 8cd7 4d3d
00000120: ecee 0e3d 3394 91bd 0c3e 35bb 9844 93bc
00000130: 1a31 943c ed67 843d 4e3b 82bc ab0c 863d
00000140: 3ef6 e53c 311d af3d 68c9 b9bd dc25 36bd
00000150: 65bd 04bd acc9 c8bc cb84 1b3c 29dd ddbd
00000160: 65a2 093d 3136 e3bc fc95 d13b c62e ef3d
00000170: 3769 8f3d 654b 993d 8954 e93d 8b6d 043e
00000180: 316c 26bd e26e 43bd c2b2 aabd 6a10 893d
00000190: ffc6 99bd f6d6 a6bc 5a2f 613d 8004 03bc
000001a0: 0520 073d 7556 efbd eb49 6d3c cac2 d1bd
000001b0: c3bf 893d 1035 a93d 4fe7 7bbd 5995 22bc
000001c0: a1bd cd3c 097b d8bc 2366 733d 4adf 8abd
000001d0: 0db2 e23c b0e0 12bd 3cff 033e 3a49 ebbd
000001e0: a779 42bc c8b6 453d b546 7fba 508c 953d
000001f0: 32c1 7ebd 4fe3 92bd f6ed 913d 9e10 d33d
00000200: 45c0 343c b77c ebbc 3032 30ba 8071 db3d
00000210: 0b36 1ebd 540d ba3d 22f4 27bd fb5b 723d
00000220: e85b 01bd 986b 7c3d 66a7 403b c0c3 0cba
00000230: 0655 903c 49b9 7b3d 9ecc 853d 10d7 03be
00000240: 7907 20be 6e40 4dbd f1da c7bd a1d5 663d
00000250: 94cc 21bd 7ea9 5ebd 1608 7e3d 3661 55bb
00000260: 914e 6e3d e75d 0fbd fb75 ca3d 64a5 aa3c
00000270: ad19 1cbe 0e49 50bc 4a32 d43c 6cf0 a6bd
00000280: 589d b83d 2f3c 453d 11a4 463d fa0e 933d
00000290: 5e0a 423c 2ae2 033d d6ea dcbd 7b31 893d
000002a0: 0e30 b4bc ef55 9bbb e5fa fb3c 85ca 5abd
000002b0: 6f18 b03d 83ca a6bd 05bc a7bd a1ef 8cbd
000002c0: 20c8 113d faa1 553c a9dd cf3d 84e7 783d
000002d0: 110e f1bd 6f06 04bc 5fa0 cdbd 9f26 b13d
000002e0: f2db 9bbd a70c 34bd 03d5 61bc 3b06 aabc
000002f0: b1e4 6dbd 6725 5fbd 8c42 b33d 022b deba
00000300: e0be df3d f614 7dbc dd73 533d f9c6 29bd
00000310: c57d c1bd d2c9 b93d 7edc c33d 8dd0 3cbd
00000320: 3b3a 543d 817b fabc 1ad5 613d 996d 5fbc
00000330: 8b80 ee3a e90c d4bb 204b 95bd 8819 b4bc
00000340: b530 83bd 8dc8 32bd a0f9 16bd afc5 30bd
00000350: ce99 263d 3a77 48bd 7ff9 2fbd b099 4fbd
00000360: c107 f9ba 3190 11bd 2dbd 1d3d 9bb5 1ebd
00000370: d080 cdbc 581f 5fbc 515d 973c 5147 d93c
00000380: aa0a bc3d 4023 d23d 6066 ad3c 994b 97bd
00000390: 4437 863d 0b91 f4bc 692d 323c 6b2b de3c
000003a0: e6d0 58bd 3275 d2bc 07b2 9ebd 7219 a43d
000003b0: 31e6 12bd 7836 993d 9475 2abd 2e89 c03d
000003c0: 1bd4 a8bd 81e2 f0bd a92c 08bd 3aa5 c8bc
000003d0: c8aa 83bc bdd5 5d3b 75cc 50bd 2af7 783d
000003e0: 280b aabd 7df5 603c dd4e 8f3d d195 1f3d
000003f0: 2e73 b6bc 6021 39bb 25be bb3d c8d7 2bbd

bias f4 [16]
0.060498457 0.08177166 0.02617761 -0.0029991486 0.07241348 -0.030319361 0.07712398 -0.09347457
-0.0065107094 0.063375235 0.017429724 0.061040673 -0.02737712 -0.005509397 0.014822631 0.06115607
00000000: 3bcd 773d e677 a73d 6d72 d63c 5d8d 44bb
00000010: 854d 943d 4f60 f8bc 2df3 9d3d 986f bfbd
00000020: ca57 d5bb e0ca 813d c8c8 8e3c c905 7a3d
00000030: fb45 e0bc 2c88 b4bb 9fda 723c ca7e 7a3d

weight f4 [16]
0.9979832 0.97175664 1.0155889 1.0291461 1.0395904 1.0218121 0.99844426 0.97969824
0.9381514 1.07098 0.96086174 1.0167593 0.96793526 1.0172757 0.9785767 0.9347148
00000000: d47b 7f3f 0bc5 783f d1fe 813f 0fbb 833f
00000010: 4c11 853f bdca 823f 0b9a 7f3f 81cd 7a3f
00000020: b12a 703f df15 893f 09fb 753f 2b25 823f
00000030: 9bca 773f 1736 823f 0184 7a3f 7849 6f3f

bias f4 [16]
-0.026468452 -0.059434853 0.07836259 0.024973609 -0.003913933 -0.016601069 -0.030510677 0.04595423
0.054157447 -0.017182441 0.008357541 -0.0673631 0.039485715 0.012756052 0.053106204 -0.055653054
00000000: 5ed4 d8bc f671 73bd 917c a03d 7495 cc3c
00000010: 7340 80bb f7fe 87bc 87f1 f9bc 813a 3c3d
00000020: 33d4 5d3d 31c2 8cbc 11ee 083c aaf5 89bd
00000030: c6bb 213d c3fe 503c e485 593d 75f4 63bd

running_mean f4 [16]
0.3321881 0.097571485 0.01972196 0.28106534 0.076121874 -0.33618915 0.072145715 0.1747092
-0.29699963 -0.15480392 -0.5313444 0.014416889 -0.28658283 -0.2786804 0.23161164 0.020905055
00000000: 8f14 aa3e 8fd3 c73d f38f a13c cce7 8f3e
00000010: c9e5 9b3d fc20 acbe 22c1 933d f8e6 323e
00000020: 5610 98be eb84 1ebe 3006 08bf d134 6c3c
00000030: fcba 92be 33af 8ebe 9a2b 6d3e 1441 ab3c

running_var f4 [16]
0.521874 0.997973 0.16142376 0.6713232 0.2180925 0.13435441 0.36754578 0.4296371
1.0657389 0.17301342 0.29237932 0.9185982 0.9525198 0.298112 0.4313519 0.30518982
00000000: 8999 053f 297b 7f3f 454c 253e d6db 2b3f
00000010: a453 5f3e 3494 093e f62e bc3e 65f9 db3e
00000020: 226a 883f 6e2a 313e beb2 953e 4029 6b3f
00000030: 56d8 733f 23a2 983e 28da dc3e d741 9c3e
