results/SV_unet_matrixlonlatcov_15s.pt (torch, 101972 bytes, 49 tensors)

weight f4 [8, 1, 1, 1]
000000 60 e4 30 be 13 5f 5c bf 81 3b ac 3c 45 2a 57 bf
       -0.17274618 -0.8608257 0.021024467 -0.84048873
000010 c7 4c 86 3e 82 6f 5c bf 31 31 40 3f 49 09 d6 3e
       0.2623045 -0.8610765 0.7507506 0.4180396

bias f4 [8]
000000 73 21 d2 3d 0c ca d7 3e 49 36 89 bf 35 2b e6 3d
       0.10260286 0.42146337 -1.0719692 0.1123871
000010 4f 33 d6 3e 00 2a 17 bc 6e 5d 32 bf e7 50 14 3f
       0.4183602 -0.009226322 -0.6967381 0.5793595

weight f4 [11]
000000 6c 66 81 3f b3 8d 79 3f 9b 8a 80 3f ad e4 6c 3f
       1.0109382 0.9748184 1.0042299 0.9253643
000010 27 f3 7a 3f 00 00 80 3f 75 d9 71 3f 49 58 7f 3f
       0.9802727 1.0 0.9447244 0.9974409
000020 59 83 61 3f cb 9c 5b 3f 6a e9 91 3f
       0.88091046 0.8578612 1.1399357

bias f4 [11]
000000 99 30 0d bc 66 68 27 bd 3c a3 4f bd 45 f1 a0 bd
       -0.008617544 -0.040871046 -0.05069278 -0.078585185
000010 c5 f5 1a bb 2b 91 07 3b 43 89 e1 3c 9b 06 10 3d
       -0.0023645025 0.0020685892 0.027531272 0.03516255
000020 6b 35 6d bd b9 04 a5 3c fe 37 ee 3d
       -0.05791227 0.020143854 0.116317734

running_mean f4 [11]
000000 9c 44 db 3d 5c 0a e1 3e dc 43 bb 43 92 e7 ef 3d
       0.107064456 0.43953216 374.53015 0.117140904
000010 fa f2 99 45 00 00 00 00 3c bb 5b 46 ca 4c f5 45
       4926.372 0.0 14062.809 7849.5986
000020 6c 9a b2 bd 7f 87 3e 3d be dc 11 3e
       -0.0872086 0.046515938 0.14244363

running_var f4 [11]
000000 f8 52 23 3b 72 7d 2b 3d ae e7 2f 47 40 2c 42 3b
       0.002492128 0.04186768 45031.68 0.0029628426
000010 dd 62 d7 4a 04 00 00 00 9e 8c 5c 4c 2b c5 88 4b
       7.0577745e+06 6e-45 5.781567e+07 1.7926742e+07
000020 9c 18 5a 3f e8 dc 65 3f a5 d5 6b 3d
       0.851938 0.897902 0.057576794

weight f4 [8, 11, 5]
000000 e0 57 ef bd b2 74 ca bd 07 bd 01 be 28 e1 8d bd
       -0.11686683 -0.09885539 -0.12669764 -0.06927711
000010 2f b5 04 be f6 3d e4 3d cd 5a 0e 3d 69 a9 8a bc
       -0.12959741 0.111446306 0.034754563 -0.016926484
000020 e4 a3 2c bc 9a f3 d7 3d 22 bd 55 bd 82 70 09 3e
       -0.010537121 0.1054451 -0.052182324 0.13421825
000030 54 aa 0c 3d fc 5c 85 3d 35 5d 8c bc 39 74 b4 3c
       0.034342125 0.06511876 -0.017134288 0.022028076
000040 8a 93 e7 bd 76 ba 86 3d 84 0c ca 3d d6 01 a9 3d
       -0.11307438 0.06578533 0.098656684 0.08252303
000050 a8 d8 1e bd d4 b2 0f bd 9a 3a 8a bd a0 54 c0 bc
       -0.03878084 -0.035082653 -0.067494586 -0.023477852
000060 a1 d3 0e 3e 88 db 8b 3d 71 7d 8b 3d c4 a8 e8 3d
       0.13947918 0.06828982 0.068110354 0.113603145
000070 b1 9d fe 3d cd 00 c0 3d 7c de 11 be f0 55 27 bd
       0.12432421 0.09375153 -0.14245027 -0.04085344
000080 07 2a aa 3d 24 3e db bd 18 39 cf bd e2 f8 77 bc
       0.08308797 -0.10705212 -0.10118312 -0.015135022
000090 13 1b 98 3d 03 b8 02 be 33 17 67 3c 34 17 9c 3d
       0.07427039 -0.12765507 0.014104652 0.07621613
0000a0 14 79 4b bd 82 1e 89 bd 89 ac eb 3b f9 19 0e bd
       -0.049676016 -0.06695272 0.0071921987 -0.03469274
0000b0 b9 30 8a 3d 13 24 76 bd d9 6b 95 bd 48 87 4a 3d
       0.06747574 -0.060092997 -0.07295961 0.04944542
0000c0 dc 39 bb 3d 37 60 b2 bc 42 e7 08 be bc e0 54 3d
       0.09141895 -0.021774394 -0.13369468 0.051972136
0000d0 18 c0 28 3d 7c 36 3f 3e 19 c6 49 3c 3f 42 c5 bb
       0.04119882 0.18673128 0.012315297 -0.00601986
0000e0 af 08 19 be 60 a0 f6 3c e3 80 eb bb 5d 31 8b 3d
       -0.14944719 0.03010577 -0.0071869954 0.06796525
0000f0 99 99 82 bd 96 de 10 3c 73 4f dc bd c6 e8 31 3d
       -0.06376953 0.008842131 -0.10757341 0.04343488
000100 2d b2 0b 3d a5 1f 10 bd 7f 11 c6 bd aa 55 fe bd
       0.03410547 -0.03518643 -0.09671306 -0.12418683
000110 5e 79 84 bd 8d 27 65 bd 41 44 3b 3d 0c f6 9f 3d
       -0.064684615 -0.05594592 0.04571939 0.078106016
000120 b6 4d fb bd 47 38 d1 bd 47 f0 b1 3c c7 f0 ee 3c
       -0.122706816 -0.10215812 0.021721018 0.029167546
000130 24 6a 4a 3b 2f 12 40 bc 37 02 a9 bd 91 61 59 3c
       0.0030886019 -0.011723085 -0.082523756 0.013267891
000140 56 41 48 3c 48 97 0b 3e 30 c5 43 3d 7d 88 50 3d
       0.012222609 0.13631928 0.047795475 0.050911415
000150 fb 2e 23 bd 3e 65 79 3d 89 82 3d 3d 93 91 ba bc
       -0.039839726 0.060887568 0.046267066 -0.022774493
000160 95 fa c4 3d 2e 76 b2 3d 85 ce b0 bd 50 e1 dc 3d
       0.09618107 0.08713947 -0.086331405 0.107851624
000170 c6 ff 5b bd 5b ce 9a bd 57 59 d3 bd 61 b3 8b bd
       -0.05371072 -0.075588904 -0.103197746 -0.06821323
000180 ad 64 f1 bc 61 f2 4d 3d cd e0 18 bd 2d f6 3f bd
       -0.029466951 0.05027998 -0.03732376 -0.04686563
000190 47 6a af 3d 22 0e 88 bd 94 87 30 3d a8 64 06 bd
       0.08565193 -0.066433206 0.043098047 -0.032810837
0001a0 e0 04 a2 bd dc 37 6a be ee 05 43 3e 3f 1e 00 3e
       -0.07911086 -0.22872871 0.19045231 0.12511538
0001b0 d7 ec 3f 3c 10 c7 d2 bd 5f 27 97 3d 3e be bd bc
       0.011714182 -0.102918744 0.07380556 -0.023162004
0001c0 4d fb a7 bd 3e 90 68 bd 0d 0d a8 bd c3 b9 98 bd
       -0.08202229 -0.056778185 -0.08205614 -0.07457306
0001d0 7e e6 06 3e bf e0 bc bd 8a 85 51 bd df bb 47 bd
       0.13173863 -0.092225544 -0.051152743 -0.048763152
0001e0 23 39 20 bd 5c fb e4 bc 46 ce eb 3d dc b9 36 3e
       -0.03911699 -0.027951889 0.11513953 0.17844337
0001f0 0f 26 51 3d d3 2b 97 bd cd 21 cf 3c 66 57 a3 bd
       0.051061686 -0.07381406 0.025284672 -0.07975654
000200 d7 9e 2f bd 38 cd d2 3d c7 ef e8 3b 7b ea 65 3d
       -0.04287609 0.102930486 0.007108662 0.05613182
000210 4a 1a 82 bd c6 f2 1d bd 1d 71 e1 3d c2 d5 77 3d
       -0.063526705 -0.038561605 0.11007903 0.06050659
000220 7d dc c3 3c d0 48 e4 bd c5 65 e3 bd 84 0b 62 3d
       0.023908848 -0.111467004 -0.111033954 0.055186763
000230 1a 6c c6 3d 5e 95 b4 3d 92 0c 9e bd 38 56 3e bd
       0.096885875 0.08817552 -0.07717241 -0.046468943
000240 dd bd a4 bd d2 37 84 3d bd c0 86 bd e9 12 df 3d
       -0.08044026 0.064559594 -0.06579731 0.10892279
000250 62 2b 3b bd ac 07 cd 3d 8a ca 06 3d e8 9f a0 3d
       -0.04569567 0.10011229 0.032908 0.07843
000260 18 0e 36 bc 97 ab 4e 3c 2e 40 a1 bb 33 e6 67 bb
       -0.011111759 0.012614152 -0.004920981 -0.0035385012
000270 ab 8c ae bc 9d 35 9b bd 4c b0 21 3e 01 f1 1f bc
       -0.02130731 -0.07578585 0.15789908 -0.00976205
000280 a7 7e 41 3e 54 b8 bd bc 6a e6 0e be f8 d9 70 bd
       0.1889597 -0.023159184 -0.13955083 -0.05880162
000290 a1 bc 3d 3e 5d 13 f7 bc f7 27 a6 bd f5 eb c2 bd
       0.18528987 -0.0301606 -0.081130914 -0.095176615
0002a0 4c 6b d3 ba 2b c9 2b bd 3b 68 cd 3c 75 0a a1 3c
       -0.001613 -0.041939896 0.025074115 0.019658307
0002b0 5c 0a 61 be dc 0d 54 be b6 97 09 3d a5 a7 01 ba
       -0.21976608 -0.20708412 0.03359195 -0.00049459405
0002c0 3e 6e f9 3d da d0 ca bd ff 22 8f 3c 15 63 c9 bd
       0.1217923 -0.099031165 0.017472742 -0.098333515
0002d0 58 90 3e bd 8a dc 57 be b3 83 3f be fc 53 3f be
       -0.046524376 -0.21080223 -0.18702583 -0.18684381
0002e0 cd 48 2d be 9e 43 99 bd 35 4b d9 bc d2 86 27 bd
       -0.16922303 -0.074836 -0.02652512 -0.04090006
0002f0 ee 04 e4 bd b7 3d 1a 3d 5e b5 b9 3d 3e 20 ad 3c
       -0.11133753 0.037656512 0.09067796 0.021133538
000300 41 28 21 3e be 3a b8 bd 2b 48 ce bc ee b0 c4 3d
       0.15738012 -0.08995579 -0.025180897 0.09604059
000310 07 15 3a 3c 5d 9a 0a 3e 6a 00 a0 3c 22 30 99 3d
       0.011357552 0.13535447 0.019531447 0.07479884
000320 94 39 59 bc 31 0b 34 bd 02 da a9 3c 3d 14 b1 bb
       -0.013258357 -0.043955985 0.020733837 -0.005404024
000330 3c 55 c8 3c 10 2c 94 3b 0f c8 31 3c 09 c0 5a 3c
       0.024454705 0.004521854 0.01085092 0.013351449
000340 42 ef c2 3d 13 18 08 be bf fb fb bd d2 81 f9 bb
       0.09518291 -0.13290434 -0.12303876 -0.0076143527
000350 74 b9 1d 3e 01 76 a2 bd 96 2d 74 3d 67 45 54 be
       0.15402776 -0.07932664 0.059613787 -0.207296
000360 e3 08 06 bd 22 ca 2f 3e aa 2f 1a 3b 95 59 c1 3d
       -0.03272332 0.17166951 0.0023526945 0.094409145
000370 4e 92 ac bd de b1 85 ba bc 6d bc bd d3 3e 11 be
       -0.08426343 -0.0010200103 -0.09200618 -0.14184122
000380 02 0f f4 3c 6f c7 b2 3b ad db ca bb 71 e8 b7 bd
       0.029792313 0.0054559032 -0.006190738 -0.089798816
000390 37 f7 c0 bd f9 ac 15 be 37 2c ae 3c 5c bd ce 3d
       -0.094221525 -0.14616765 0.021261318 0.10094711
0003a0 95 de 0e 3e 61 54 dd bd 77 99 67 3d 53 62 8e bd
       0.13952096 -0.108071096 0.05654284 -0.069523476
0003b0 3d 84 af bd a8 cd 27 3c 6e 5e ae 3c 02 f4 80 bc
       -0.08570144 0.010241903 0.021285262 -0.015741352
0003c0 30 c6 fc bd 00 8a ec bc fb 2b e1 bd 17 0e a2 bc
       -0.12342489 -0.028874397 -0.10994717 -0.01978211
0003d0 fd 75 be bd 2c 5d f9 3d 89 82 b6 bd ec b9 d8 bc
       -0.09299848 0.12175974 -0.08911616 -0.026455842
0003e0 3f 3f e2 bc bd a5 ef bd 4f 12 5f 3d 08 c7 eb 3c
       -0.027618049 -0.11701534 0.05446082 0.028781429
0003f0 16 85 8b bd be e1 11 bd 41 fd c0 bd cb d9 7d bd
       -0.068124935 -0.035615675 -0.09423304 -0.06197528

bias f4 [8]
000000 b9 71 31 3d 83 0e a6 3d f5 40 45 3c 70 71 d2 3d
       0.043321345 0.08108237 0.012039413 0.10275543
000010 61 33 07 be 33 77 8d bd 78 5d ab 3d 4c 84 ad bb
       -0.13203193 -0.06907501 0.08367437 -0.005295312

weight f4 [8, 8, 5]
000000 fb 37 86 3d 2a ae b7 3d f6 de 97 bd 4e 1a 24 be
       0.06553646 0.08968766 -0.07415573 -0.1602566
000010 72 c2 0d bc 27 12 2a 3e 71 5f 78 bd 2b a3 03 be
       -0.008652316 0.16608487 -0.060637895 -0.12855212
000020 1a b3 b2 bd bb 4e 14 be 77 36 1c be 96 97 f3 bc
       -0.08725567 -0.14483158 -0.15255152 -0.029735368
000030 83 1d 94 3c 18 87 93 3d aa 3e 09 3e 1a 08 da bd
       0.018080479 0.072035015 0.1340281 -0.106460765
000040 c5 fc 26 3d 4d b4 5b 3d af c7 1d bd 66 35 0c 3e
       0.040768404 0.053638745 -0.03852051 0.13692245
000050 90 82 d3 3d dc ff a2 bc ef db 08 be d4 2d 25 be
       0.10327637 -0.019897394 -0.13365148 -0.16130763
000060 e0 0d aa 3d d1 b4 1c 3d 6c ae 0f 3d 62 26 d6 3d
       0.08303428 0.038258377 0.03507845 0.1045654
000070 3b 30 4a 3e f5 0c cc 3d 1e c5 ea bd 45 c3 cd bd
       0.19744961 0.09963409 -0.11463378 -0.1004701
000080 6f 67 81 3d 0f 80 34 bd fa ac 81 3d fa 67 d6 bd
       0.063185565 -0.04406744 0.06331821 -0.10469051
000090 80 f2 3e 3d 00 50 1c bc f6 4e 4b bb f2 08 2f 3c
       0.046617985 -0.009540558 -0.0031022406 0.010683285
0000a0 7f 6c a7 3d 19 30 ae bd d2 b9 f8 bc 15 cf e7 3d
       0.08174991 -0.08505268 -0.030362044 0.11318795
0000b0 22 8a f0 bd c2 e1 6b bd 92 8b 80 3d a1 c2 2b be
       -0.11745097 -0.057588346 0.06276621 -0.16773464
0000c0 b2 dd 12 be 19 08 d0 bc 00 27 70 3d 12 7e 1c 3e
       -0.14342383 -0.025394486 0.058630943 0.15282467
0000d0 f3 4f fc 3d 07 8e 42 bd c4 6a a9 bd 8d 94 4d be
       0.123199366 -0.04749873 -0.08272317 -0.20076199
0000e0 15 02 f8 3c b2 52 d2 3c d3 60 9b bc a4 bd 38 bd
       0.03027443 0.025674198 -0.018967068 -0.04510273
0000f0 60 b3 98 bd ed d3 5d bd 55 ba c4 3d 9a 5f 85 bd
       -0.07456088 -0.054157186 0.096058525 -0.06512375
000100 5b be e5 bd aa dd 22 3e dd 29 a4 bb 99 82 05 3e
       -0.11217948 0.1590487 -0.0050098733 0.130381
000110 85 6c 44 3e d3 57 e4 bc b7 22 35 be 06 a9 8e 3c
       0.19182022 -0.02787391 -0.17689024 0.017414581
000120 c3 53 d8 bb bd 2c e6 bc 33 b2 10 3d 05 d6 86 3d
       -0.006601782 -0.028097505 0.035326194 0.0658379
000130 4e ac 41 3d 76 83 f9 bd 89 9c 4e 3d 76 2f ff 3d
       0.047283463 -0.12183277 0.050442252 0.12460224
000140 cb 3c 99 bd 68 bc 19 3d a7 b0 3a bc 85 1b d3 bc
       -0.074822985 0.037533194 -0.011394656 -0.025769958
000150 d3 1d ef bd 24 49 ab bd 38 c0 04 3e 2a 24 60 3d
       -0.116756104 -0.0836356 0.1296395 0.05472199
000160 1d fc 6a bb a7 65 ab bd cf 6c 4e bd 8d 24 1d 3e
       -0.0035855838 -0.08368998 -0.050396737 0.15345974
000170 c2 82 2a be aa d4 75 3d e3 f6 89 3c 6f 45 29 bd
       -0.16651443 0.060017265 0.016841358 -0.041325983
000180 72 48 22 3e aa d7 75 bc 05 00 11 3c 63 2e bb bd
       0.15847948 -0.015005032 0.008850102 -0.09139707
000190 10 08 6a 3c c8 a8 85 bd 22 34 a1 bd be f2 f1 ba
       0.014284149 -0.06526333 -0.07871272 -0.0018459184
0001a0 7e a9 b7 3c df 69 86 3c f6 c4 4f 3d 4f 81 10 be
       0.022419687 0.016407905 0.050724946 -0.14111827
0001b0 4c 37 0b 3e 44 b1 ed bb 1c 9e 27 3e e3 0b 80 3d
       0.13595313 -0.0072537977 0.16368908 0.06252267
0001c0 52 44 d8 bd 0a aa 2a 3e 8a bc 2c bd 76 b1 4d 3d
       -0.10559906 0.16666427 -0.042171992 0.050218068
0001d0 f1 e3 be bc 6e 09 e8 bd 3e 53 a9 3d 50 95 86 bc
       -0.02330205 -0.113299236 0.0826783 -0.01642862
0001e0 e0 0f 93 bd af 4a 48 3d 96 81 f8 bd 59 15 94 3d
       -0.07180762 0.04889935 -0.121340916 0.07230634
0001f0 39 85 87 bd 49 d8 19 3e de 4d 98 bd 55 4a 62 bd
       -0.06617207 0.15023912 -0.07436727 -0.05524667
000200 c1 80 35 3d 02 3c ed bc 3e 7d f8 bd 98 68 18 bd
       0.044312242 -0.028959278 -0.12133263 -0.037209123
000210 10 24 2d 3e 20 ca 55 3d 46 79 5a bd f1 ef 83 3d
       0.16908288 0.052194715 -0.05333831 0.064422496
000220 ea 4f eb bd a3 b8 db bd e7 7f 19 3e 7b ed b3 3c
       -0.11489852 -0.10728576 0.14990197 0.021963825
000230 7d 10 95 3b 6a 5a cd 3d e3 c6 da bd 92 c0 3d bc
       0.0045490847 0.10027011 -0.10682466 -0.011581557
000240 76 e2 9d 3d fb a2 93 3d 5b ff 8a 3d 1f 6b a9 bd
       0.077092096 0.072088204 0.067869864 -0.08272385
000250 5d c5 d9 bd 6a 20 9b bb 40 2d bf bc b8 14 ea 3c
       -0.10633347 -0.0047340887 -0.023337007 0.028574333
000260 ab c3 f4 bb 9d dd ca bd 6e c3 02 3d bd 46 aa ba
       -0.0074696145 -0.09905551 0.031924658 -0.0012991052
000270 b3 40 21 be 75 1e 66 3d dd c7 fb 3d d7 3b c3 bd
       -0.15747337 0.05618139 0.1229398 -0.09532898
000280 04 69 06 3e 20 00 1c 3e 23 69 f3 bc cc 5c 9b bc
       0.13125998 0.15234423 -0.029713219 -0.018965147
000290 4b 52 51 bd 39 c2 b6 3d f2 dc 11 bd 95 cd f5 3d
       -0.05110387 0.08923764 -0.0356111 0.12002102
0002a0 f8 1a 1b ba 56 f2 ec bc 34 30 dc bc c1 c2 d0 3d
       -0.00059167994 -0.028924149 -0.026878454 0.10193396
0002b0 10 e6 08 3d 58 63 89 3d c6 7f 1c 3d c1 3a dc 3d
       0.03342253 0.067084014 0.03820779 0.10753394
0002c0 d4 24 af 3d 76 91 24 3d 30 82 d4 bd 92 63 c6 bd
       0.08551946 0.040177785 -0.10376394 -0.0968696
0002d0 3b 19 5b bd 72 20 97 3d 5c 19 0c 3e 57 27 32 3e
       -0.05349086 0.07379235 0.13681549 0.1739782
0002e0 01 11 07 3e 35 03 b9 bd 45 12 b4 3d ac 3d 08 3e
       0.1319008 -0.09033815 0.08792547 0.13304776
0002f0 d3 c9 1a 3e 73 7b 31 be 50 8b c8 bc 32 30 24 3d
       0.15116052 -0.17332248 -0.024480492 0.040085025
000300 36 23 85 bc f7 90 78 bd f8 0c fe bd 6e 32 20 3e
       -0.016252141 -0.060685124 -0.12404817 0.15644237
000310 92 db 04 be 84 df 31 bd 8f a1 ff 3d 42 92 01 3d
       -0.12974384 -0.04342605 0.12481987 0.031633623
000320 4f 6f 34 3e b9 a2 8c bd a2 43 29 3e d1 59 f9 3a
       0.17620586 -0.068669744 0.16529706 0.001902396
000330 03 fb 39 3d af 95 c5 3d 00 2f 39 3c fa 50 df bd
       0.0454054 0.096476905 0.01130271 -0.10904117
000340 7f 65 98 bc 76 72 14 3e 36 e5 46 be d7 6e 2d bd
       -0.018603085 0.14496788 -0.19423375 -0.042342033
000350 a9 52 f4 3d 80 05 01 be 04 d7 e9 3d 2f a1 56 bd
       0.11929829 -0.12599754 0.11417964 -0.05239981
000360 b9 34 42 3d 8d 90 9d bc 86 18 5b 3e 54 a0 f6 bd
       0.04741356 -0.019233966 0.21396074 -0.12042299
000370 19 01 1f be 22 8b 37 bd 65 c9 01 3e ee 3a 43 be
       -0.15527762 -0.04481042 0.12674482 -0.19065449
000380 19 70 9d 3c d0 44 98 bd a8 85 ed bc 10 07 cc bd
       0.019218491 -0.07435 -0.028994396 -0.099622846
000390 64 33 b9 bc 96 6d ec bd 81 a2 8e bd f3 c1 a1 3d
       -0.022607513 -0.11544339 -0.06964589 0.07898321
0003a0 67 70 9a bd b2 e3 11 be c9 4e 88 bd 97 79 a6 3c
       -0.0754097 -0.14247015 -0.06655652 0.02032165
0003b0 d5 f9 19 3e 31 24 3e 3c 6c 93 4d 3d 67 ec 40 3d
       0.1503671 0.011605308 0.05018942 0.04710045
0003c0 4c 14 80 bd 13 2d 7a 3d bf a1 52 3d fd f6 13 3e
       -0.06253871 0.061078142 0.051423784 0.14449687
0003d0 1e 1c 16 3d 2b 3f 85 bd 4f 99 00 bd 79 34 8f bd
       0.03664791 -0.06506189 -0.031396206 -0.0699243
0003e0 cb d6 12 3e 19 d6 3a bd d5 90 5a bc 09 c7 23 be
       0.1433975 -0.045614336 -0.013340195 -0.15993895
0003f0 9e 48 80 bd 2b 7a 0f 3d d6 34 d6 3d 98 be 32 3e
       -0.06263851 0.035028618 0.104592964 0.17455518

bias f4 [8]
000000 fb 4a 2b 3d e8 28 49 39 9b dd c0 37 9b b1 eb 3c
       0.041819554 0.00019184093 2.2991377e-05 0.028771212
000010 58 70 18 3e 2f 70 4f bd 00 59 d7 3d d0 02 93 bd
       0.14886606 -0.050644096 0.10515022 -0.07178271

weight f4 [8]
000000 28 c8 7d 3f 80 81 7e 3f 61 28 7d 3f 4b b5 88 3f
       0.9913354 0.9941635 0.9888974 1.0680326
000010 a4 90 75 3f 78 21 7a 3f a0 5b 81 3f f8 ca 80 3f
       0.9592383 0.9770732 1.0106087 1.0061941

bias f4 [8]
000000 2d 0d b5 3c cf 2f dc bc da f8 3b bd e8 43 16 bd
       0.02210101 -0.026878266 -0.04589162 -0.036685854
000010 cf a4 a3 bc 43 60 a2 bc 86 ed 31 bd 9c 1a ac bb
       -0.019976048 -0.019821292 -0.04343941 -0.0052521955

running_mean f4 [8]
000000 c6 63 60 3e 9e 1e 22 3e 45 1e db 3d aa 7f c0 3d
       0.2191306 0.15831992 0.10699133 0.0939935
000010 04 d1 e1 3e d7 b0 8e 3d 7e 15 d1 3e e0 3d 9d 3d
       0.4410478 0.06967323 0.4083671 0.07677817

running_var f4 [8]
000000 2a 9d 49 3d 07 40 32 3d 39 dd 17 3c 3f db de 3b
       0.04922215 0.043518092 0.009269052 0.0068010385
000010 cb 24 17 3d 42 6a 4e 3c 6d 59 f4 3c 5b 17 77 3c
       0.036900323 0.012598576 0.029827798 0.015081252

weight f4 [16, 8, 5]
000000 60 84 e7 3d ce 5b 2a 3e 1f 3b 89 bd 05 8c c8 3d
       0.113045454 0.16636583 -0.067007296 0.097923316
000010 6f 36 e3 bd 39 a5 47 3d a3 f7 e2 bd f9 b8 b8 bd
       -0.11094367 0.048741553 -0.11082389 -0.09019656
000020 c2 3c 9f bd 26 e2 cc 3c 71 e1 91 3d 13 5f ae 3c
       -0.077752605 0.02501018 0.07123078 0.02128557
000030 92 cc 5a 3d 67 ef 28 3e 76 9a b6 3d c0 41 e4 bd
       0.05341775 0.16497575 0.0891618 -0.11145353
000040 0a 53 37 3d b1 16 17 bd bd 9d b0 3d 53 8a a5 3b
       0.044756927 -0.036886875 0.08623836 0.00505189
000050 a3 01 ee bd 14 15 9a bd e5 92 87 bd 3c 8a 47 bd
       -0.11621406 -0.075235516 -0.06619815 -0.048715815
000060 c9 f7 02 3c 38 1c 36 be b4 4e eb bd 3a d2 32 be
       0.007993647 -0.17784202 -0.11489621 -0.17463008
000070 48 23 61 bd 42 48 96 3d 40 54 b2 3c da b8 aa bb
       -0.054965287 0.07338001 0.02176869 -0.0052100243
000080 de 27 c4 bc fb 6b c5 3c 0e 55 0e 3d 9a 09 2b be
       -0.023944791 0.02409934 0.034749083 -0.16702881
000090 0c fa 32 3d 48 ee 6f bd 00 23 a5 3c e3 82 23 be
       0.043695495 -0.058576852 0.02015829 -0.15967898
0000a0 be 16 83 bd 02 be c1 3d dc 63 98 3b 76 9d 92 bc
       -0.06400822 0.09460069 0.004650576 -0.017897349
0000b0 d0 73 0c be 4c 2a d0 bd 5f 58 88 3d 3d 1e 3d bd
       -0.13716054 -0.101643175 0.066574804 -0.046171416
0000c0 db fe 26 bd 57 54 41 3d 24 4b f5 3c a9 33 74 3d
       -0.040770393 0.047199573 0.029943056 0.05961958
0000d0 5c e5 71 3d cd 35 d0 bc b5 b9 94 bd d5 04 9b bd
       0.059056625 -0.02541628 -0.07261983 -0.07569281
0000e0 9f 39 40 3d 99 b8 be 3c 4c 21 0f 3e 9a ef ec 3d
       0.04692995 0.023281382 0.13977545 0.11569138
0000f0 d5 5c cb bd 87 2d 1c 3d 4c f3 fc bd 49 bb 74 bd
       -0.09929816 0.038129356 -0.12351093 -0.05974892
000100 1b 9b 35 bc 6d f2 8b 3d 28 57 4c bd d2 eb 88 3d
       -0.011084343 0.068333484 -0.049887806 0.06685604
000110 c3 4b 7b bd 3c 1d 82 bb a8 55 8e 3c ec 35 3d 3d
       -0.06135155 -0.00397077 0.017374828 0.046194002
000120 17 1b b1 3d ed bf 06 be e3 bb 57 bd d3 dc bc bc
       0.08647745 -0.13159151 -0.052669417 -0.023054516
000130 ee d4 ac bd 5c a7 2e bd e4 07 24 3e 39 79 a0 3d
       -0.084390506 -0.042640075 0.16018635 0.078356214
000140 4e 8c f9 bd 8d f0 5d 3d db a0 03 3e 9b b6 b1 3d
       -0.12184964 0.054184485 0.1285433 0.08677407
000150 9b 90 f3 bc 82 25 bf bd 7f f2 d9 3d 47 09 fa 3d
       -0.02973204 -0.09333326 0.106419556 0.12208801
000160 ec f3 dc bc 2f 78 b9 3d 78 fc d1 3d ea d6 b1 3d
       -0.02697178 0.09056126 0.10253233 0.0868357
000170 64 34 d5 3d f3 2b b6 3b dc 6b 9b 3d ab d2 a4 bd
       0.10410383 0.0055594384 0.07588932 -0.08047994
000180 55 05 05 3e 11 cd 2c 3e 46 42 23 3e 20 5d 1e be
       0.12990315 0.16875102 0.1594325 -0.15465212
000190 1b a2 d0 bd b6 62 7e bd ef c8 c3 3d 44 58 67 3c
       -0.10187169 -0.062105857 0.095598094 0.014120165
0001a0 96 90 1f 3e 6c 18 52 3c 2f 20 f2 3c cc 0e 0e be
       0.15582499 0.012823205 0.029556362 -0.13872832
0001b0 65 b8 ad 3b 32 df 0d 3d 6e c1 c6 3d 00 d8 a2 bd
       0.0053015226 0.034636684 0.097048625 -0.07951355
0001c0 0d 66 8f bd 79 17 2b be 2f 5b a2 bd a5 1e 01 3c
       -0.070018865 -0.16708173 -0.07927548 0.007880841
0001d0 6a 7b ca 3d 55 c7 89 3d ed 14 42 3d 60 59 9e bc
       0.098868206 0.06727473 0.047383238 -0.019329727
0001e0 a4 2e 3b 3e d4 35 72 bd 6d c7 99 bd c5 19 83 bd
       0.1827951 -0.059133366 -0.075087406 -0.064013995
0001f0 40 80 ca bd 6b 68 29 3e 94 f3 eb 3d be bc a6 3d
       -0.09887743 0.16543739 0.11521068 0.081414685
000200 73 e6 a5 3c a9 59 be 3d 7f 00 c5 bd eb af a0 bd
       0.020251488 0.09294445 -0.09619235 -0.07846054
000210 13 4e c4 bd dd 57 a1 bd d8 ff 96 3d c6 63 a0 3d
       -0.09585204 -0.07878087 0.07373017 0.0783153
000220 2d a4 94 bd 9d d2 0e bd 99 be 65 bd bb a2 07 bc
       -0.072578765 -0.034868825 -0.05608997 -0.008278544
000230 53 93 9e bc 9e 6a 27 3d bf 59 a1 bd e5 75 51 bd
       -0.019357359 0.040873162 -0.07878446 -0.051137824
000240 4f 52 e7 3d 5d ac 21 be ff a4 87 bd ae dc 4a bb
       0.11294996 -0.15788408 -0.066232674 -0.003095429
000250 74 18 8d 3d 71 a5 7c 3d b3 ee aa bd 22 6c 05 3e
       0.0688943 0.061681215 -0.083463095 0.1302953
000260 e9 c4 85 bc 13 92 38 3e ab 09 09 3e 97 0f 85 bd
       -0.016329246 0.18024473 0.13382594 -0.06497114
000270 32 55 a1 bd 05 b2 ba bd a9 a9 af ba 6a 28 d1 3d
       -0.07877578 -0.09115986 -0.0013402003 0.102127865
000280 1c 86 0d 3d af 98 76 3d 80 d7 32 3e cf 0d cf 3c
       0.034551725 0.060204204 0.17465019 0.02527514
000290 97 d9 e0 bd 7b b3 78 3d bc 98 95 bd 4c e8 2c 3e
       -0.10979002 0.06071804 -0.073045224 0.16885489
0002a0 23 ab d3 bb 5a 4e 5b 3d da dc e8 3d 34 64 f8 bd
       -0.00645961 0.05354152 0.11370249 -0.12128487
0002b0 b9 d1 a4 bd ca f6 0c bd 45 aa 0d 3e a9 f5 86 bd
       -0.08047814 -0.034415044 0.13834484 -0.06589825
0002c0 65 d3 03 be 00 44 5d be 24 4e 24 be e5 28 b9 3d
       -0.1287361 -0.21607971 -0.16045433 0.09041003
0002d0 20 99 1f be 81 a6 02 be c5 df 24 3e 3c fb a1 3d
       -0.15585756 -0.12758829 0.16100986 0.07909247
0002e0 0c 17 39 bd 3d 6f 22 be d3 a4 1f 3d fd 32 81 bd
       -0.045187995 -0.15862747 0.038975548 -0.06308553
0002f0 7a 02 92 3c c7 b5 8a bc 8f c3 08 be ba 19 30 be
       0.017823447 -0.016932381 -0.1335585 -0.17197314
000300 3f cd 03 be 83 e2 ae bd c3 91 9f bd f2 92 2b be
       -0.12871264 -0.085392974 -0.07791474 -0.16755274
000310 ec fc e1 3d d6 d0 8e 3d d0 85 dc bc e7 15 3e 3e
       0.11034569 0.06973426 -0.026919276 0.18563043
000320 b3 89 34 3d d3 f9 df bd 2e 18 a1 bd 80 14 dc 3d
       0.044076633 -0.10936322 -0.0786594 0.107460976
000330 55 57 b1 b9 dc 3e 96 bd be 30 dd bd c8 d8 be bd
       -0.00033825138 -0.07336208 -0.108003125 -0.093186915
000340 1b 4e 71 bd 3b 17 fc b9 32 6b 35 be da 36 87 bd
       -0.058912378 -0.00048082494 -0.17716673 -0.06602259
000350 f2 90 c2 3c af cd f8 3d 1d 58 a4 3d 52 f8 73 3d
       0.023750756 0.12148606 0.08024619 0.05956299
000360 22 35 10 3e 87 24 43 3e 94 7f 42 3e 98 37 9c 3d
       0.14082769 0.19056903 0.1899398 0.07627791
000370 38 ab b3 bd 77 e7 09 be 60 c1 0c 3e 1a 97 45 bc
       -0.08772892 -0.13467203 0.13745642 -0.012059951
000380 3b 33 f5 bc 9c 5d 1f 3d 8e 95 b2 3d 24 66 24 3e
       -0.029931655 0.038907632 0.087199315 0.16054589
000390 ed 6d cb 3d 04 f5 de 3d 16 a9 36 3d 68 ee 05 bd
       0.09933076 0.10886577 0.044594847 -0.032698065
0003a0 15 5f 07 3e af 49 0b 3d b6 d4 fb 3c 8c ec 16 be
       0.13219865 0.034005817 0.030741077 -0.14738673
0003b0 f4 1f 75 bd 46 ca 49 3c 03 70 ff 3d 27 2b a7 3d
       -0.059844926 0.012316292 0.124725364 0.081625275
0003c0 ad f0 de 39 c0 50 9c 3d d6 d9 f3 3d d9 26 87 3d
       0.00042522457 0.07632589 0.11906783 0.065992065
0003d0 c2 a3 bc 3d 54 a4 b4 3c d3 9d 2e be 3d 66 12 bd
       0.09210922 0.022051014 -0.17052393 -0.035742033
0003e0 70 ab be bb a1 7d aa bd 14 6b c8 bd 24 69 6b be
       -0.005818777 -0.08324743 -0.097860485 -0.22989327
0003f0 10 47 92 bd 97 89 b4 bc f0 a7 0a bc 2c 42 ec bd
       -0.0714246 -0.022038264 -0.008462891 -0.11536059

bias f4 [16]
000000 56 42 01 be dd 3c 08 be fe 93 15 3e d9 21 0e 3e
       -0.12622961 -0.13304467 0.14607236 0.138801
000010 e5 64 85 3d bb 31 d1 3d ef e2 be bd ef 53 06 3e
       0.06513385 0.102145635 -0.09320628 0.13117956
000020 8b b2 c4 3d c5 81 6d 3d c8 9d 64 3d d7 9e 15 be
       0.09604367 0.057985086 0.055814534 -0.14611374
000030 9c da 72 bc 87 8d 33 3d f5 d0 5b bb 9f 1d 3e be
       -0.014822628 0.043836143 -0.0033541296 -0.18565987

weight f4 [16, 16, 5]
000000 8f 3a b7 3c f6 ae dd bc 6c 58 a6 3d d8 91 c7 3d
       0.02236679 -0.027060967 0.08122334 0.09744614
000010 21 7d 13 bd e8 e5 d0 bc 5d be b0 bc ed 9d f8 bc
       -0.036008004 -0.025500253 -0.021575147 -0.030348742
000020 38 1f 5f bb 72 79 cf 3c bb bb 6a 3d c6 82 6c 3d
       -0.0034045707 0.025326464 0.05730794 0.057741903
000030 b6 64 c3 bc 18 ec 81 bc aa e3 d7 bc ec a7 bc 3c
       -0.023851734 -0.015859649 -0.026353676 0.02302929
000040 5d c4 09 be 9a 78 59 3c d4 a3 5c bb 4e 15 9c 3d
       -0.13453813 0.013273383 -0.0033666985 0.07621251
000050 4b 9e cf bd a5 03 91 3d 0d e6 06 3e 8d 40 d6 3d
       -0.10137614 0.07080773 0.13173695 0.10461531
000060 b1 09 f0 3d 06 38 be 3d b5 42 b5 bd a9 c4 e7 bd
       0.117205985 0.092880294 -0.08850614 -0.11316807
000070 55 50 b0 3d 6c f8 a4 bd 0e d3 e4 bd 7a dc 47 bd
       0.08609072 -0.08055195 -0.11173068 -0.048794247
000080 0d b7 21 3e a2 1e 17 3e af a6 a0 bd e2 7c 26 3d
       0.15792485 0.14757779 -0.07844292 0.04064644
000090 15 34 c1 3d cf e5 52 3d ab 3b 21 bd f9 a2 a7 3d
       0.09433762 0.051488694 -0.039363544 0.081853814
0000a0 c3 12 91 bd 2d f6 c6 3d e8 60 b2 bd 01 56 ad bc
       -0.07083657 0.09714923 -0.0870989 -0.021159174
0000b0 3d a4 8f bd 4b 22 e3 bc 0a ff e7 bd c6 4e 33 3d
       -0.07013748 -0.027726313 -0.11327942 0.043776296
0000c0 bb bb 4a bd 00 50 cd bc b2 26 9b 3d 11 ce a8 3d
       -0.04949544 -0.025062561 0.0757574 0.08242429
0000d0 ee bd 9b 3d 36 c1 90 3d 52 4a 07 3e c7 f7 b3 bd
       0.076045856 0.07068102 0.13211945 -0.08787494
0000e0 b1 49 85 3c b6 ac 94 bc 10 74 e0 3d f3 48 ab bd
       0.01627049 -0.018148761 0.10959637 -0.08363523
0000f0 ee f7 fa 3c 5b 3a 4a bc 36 4f 1d bd 1e c1 1d bd
       0.0306358 -0.012343015 -0.03840562 -0.03851425
000100 6f cb 63 3d 3a e5 5c 3d 4d 34 9d bd 9f 4d f9 3b
       0.05561393 0.053929545 -0.07675991 0.00760813
000110 3f 9c 6a bd d1 ee 05 3e 4b de cc 3b cc 41 1c bd
       -0.057277914 0.13079382 0.0062520853 -0.038148686
000120 13 5c 99 bb f2 af 29 bc 00 4a ba 3d 77 57 82 bd
       -0.0046801656 -0.01035689 0.09096146 -0.06364339
000130 b4 fe 68 bd ad 74 22 3d ea 28 bb 3d dd 64 84 3d
       -0.05688353 0.039662052 0.09138663 0.06464551
000140 d2 54 53 3d 5e 08 7e bb 22 e7 02 3c dd e8 d2 bd
       0.051594563 -0.0038762311 0.007989677 -0.102983214
000150 da 68 c1 3d f2 45 8d bd b1 79 2f 3e 54 c7 00 bd
       0.09443827 -0.06898107 0.17136265 -0.031440094
000160 c1 57 95 bd 04 44 29 3c f4 21 43 3d 5b 11 9c bd
       -0.07292128 0.010331158 0.047639802 -0.07620498
000170 d5 27 23 bc 46 a0 1f 3c 89 0d a3 3d ab c6 bd bd
       -0.009958227 0.009742802 0.07961566 -0.092664085
000180 8a 56 82 bd f1 df 79 bd a5 65 f0 3a 11 68 2f 3d
       -0.06364162 -0.061004583 0.0018340839 0.042823855
000190 ee d7 9c bd f2 d2 59 bd b5 2c a4 3c 40 e4 86 3c
       -0.07658373 -0.05317969 0.02004085 0.01646626
0001a0 ab 70 91 3d 30 9b 27 3d 58 87 4d bd a9 63 99 bd
       0.07101568 0.040919483 -0.050177902 -0.07489712
0001b0 4d 83 9e bd 78 4d 33 bd 55 b1 41 bc a0 bd 80 3d
       -0.077398874 -0.04377505 -0.011822064 0.06286168
0001c0 8d 85 e6 3c 21 11 8e bc 0b e9 39 bc f3 8a de 3d
       0.028139854 -0.017342152 -0.011347066 0.10866346
0001d0 e5 9d fc 3c 5c 0f c3 3d 43 1c 83 3d 2e ee 9a bd
       0.030837009 0.09524414 0.06401875 -0.075649604
0001e0 eb e2 0c 3e c5 d8 49 3d 46 ef e0 bb d7 09 5f 3d
       0.13758437 0.049278993 -0.006864461 0.054452743
0001f0 5f fb 53 3d 71 48 e3 bc 0e 5a 67 3b fc 4d b7 bc
       0.051753398 -0.027744504 0.003530148 -0.022376053
000200 8c 2e 85 3d 3c 0c 78 3c 43 56 91 bc 9a 31 9e 3a
       0.06503019 0.015139636 -0.017741328 0.0012069226
000210 33 9a d6 3d 6e 6f 2a bd 79 33 8a bd 4e 42 5d 3d
       0.1047863 -0.041610174 -0.06748099 0.05401831
000220 79 2c 3c 3e d5 ff c2 bc 85 ff 4c 3d e5 98 ae 3d
       0.1837634 -0.02380363 0.05004837 0.08525256
000230 37 ba 71 3d a8 91 28 3d 76 43 bf 3d db 52 7c 3d
       0.05901548 0.041154534 0.09339039 0.061602455
000240 dd a8 d3 3d 17 40 ab bd c4 cd 61 bd 43 d0 aa 3c
       0.103349425 -0.083618335 -0.055127874 0.02085126
000250 9e 80 05 3e ee f1 13 3d 02 cb cf 3c 18 32 a6 3d
       0.13037345 0.036119394 0.025365356 0.081150234
000260 8a 54 d0 3d f5 a3 f5 3b b9 e6 bf 3c 00 cd a1 bc
       0.101723745 0.007496352 0.023425447 -0.019751072
000270 d5 a2 ff bc 0c a8 f3 bd c0 55 b8 bd 1a 2e 09 3e
       -0.031205574 -0.11897287 -0.090007305 0.13396493
000280 b3 93 41 bd 40 a0 eb bd 2e 8d 74 3c 62 26 b3 bd
       -0.047259998 -0.11505175 0.014926238 -0.08747555
000290 1c ec 9a bd 6f fc cf bd b1 a5 0a bc 4e ee 58 bd
       -0.075645655 -0.1015557 -0.0084623555 -0.05296164
0002a0 6c e8 51 3d 80 52 7f bd da d8 29 bd 39 42 80 bd
       0.051247045 -0.062334538 -0.04146657 -0.06262631
0002b0 af 17 c0 bb 3d 09 01 3e 77 8b 1c bd 37 f2 57 3d
       -0.0058621983 0.1260118 -0.03821894 0.05272123
0002c0 5c 11 b3 bb 91 f3 a9 bd e4 a3 a6 3c 90 61 1c 3d
       -0.005464716 -0.0829841 0.020341821 0.03817898
0002d0 54 d0 29 3d c1 f9 93 bd bd c9 de bd 85 ea ef 3d
       0.041458443 -0.07225371 -0.10878322 0.11714653
0002e0 6b 39 0c 3d df f1 b7 bd 77 0c 03 be 0f cd 1b bd
       0.034234446 -0.0898168 -0.12797724 -0.038037356
0002f0 a5 b5 8e bb d7 c6 f1 bd 72 9a b0 bc e4 59 6f 3d
       -0.00435515 -0.11805504 -0.02155802 0.058435336
000300 57 87 c4 3d 70 44 cb 3d 9f 56 0f 3d 32 61 cd 3d
       0.095961265 0.09925163 0.034994718 0.10028304
000310 b0 f7 ff bc b2 c5 52 bc b7 4d 58 3d 2a b6 b3 3d
       -0.031246036 -0.012864517 0.05280849 0.087749794
000320 00 60 83 3d 70 8c 8a 3d c4 a7 80 3d 65 1a ba 3d
       0.06414795 0.067650676 0.06281999 0.090870656
000330 35 fb 86 bd 40 68 c8 bc 3f b5 3d bd b8 f8 08 3e
       -0.06590883 -0.024463773 -0.046315428 0.13376129
000340 a1 68 b6 bc f0 cd 13 bd 17 32 8d 3d 56 a7 53 3d
       -0.022266688 -0.03608507 0.068943195 0.051673256
000350 e6 ec 24 3e d5 38 e6 bc c3 a3 d9 37 34 89 40 bd
       0.16105995 -0.028103271 2.5944673e-05 -0.047005847
000360 d6 4f bb 3c 7e 67 db 3d a9 0b 0a bd f0 2d 13 3c
       0.022865217 0.10713099 -0.033702526 0.00898312
000370 03 65 c7 3d a0 91 0b 3d 77 0b fc 3a aa 6d c1 bd
       0.09736063 0.034074426 0.0019229491 -0.09444745
000380 46 dd 8f bd 4c e3 af 3a c9 3a c2 bc 63 80 be bd
       -0.070246264 0.001341918 -0.023709672 -0.093018316
000390 3c 74 a5 bc 9e ef c3 bc 68 ab 8d 3d dd e7 af 3d
       -0.020197026 -0.02391797 0.06917459 0.08589146
0003a0 57 a3 a4 bc d2 67 67 bd 94 84 13 3a 0c d0 57 bd
       -0.020097418 -0.056495495 0.00056273607 -0.052688643
0003b0 b3 e2 ed bd 72 0d d8 3d 91 58 d8 3b 2e d4 c3 bd
       -0.11615505 0.105494395 0.006602355 -0.095619544
0003c0 e0 7f ee 3c e2 1e a6 3d d8 3c d2 bd 74 9d b5 3c
       0.02911371 0.08111359 -0.10265511 0.022169806
0003d0 10 39 e3 3d 67 d3 4c bd d1 38 7f bb 5e 72 d7 bd
       0.11094868 -0.050006296 -0.0038943777 -0.10519861
0003e0 8a 50 f0 3d fb 48 23 3d 9c 44 33 3d ab d0 d0 3d
       0.117341116 0.03986452 0.043766603 0.1019605
0003f0 8d e9 b2 3c 51 9f ea 3d 9d 1d c6 3c d3 3a 5c bc
       0.021839881 0.114561684 0.024184043 -0.013441759

bias f4 [16]
000000 ac c2 bb 3d dc 65 cd b9 64 03 9e 3c 8e 16 02 bd
       0.0916799 -0.00039176538 0.019288726 -0.03175979
000010 a7 4f f5 bc 5a 5c bb 3d c1 94 cf 3c d0 dd c7 3d
       -0.029945208 0.09148474 0.025339486 0.09759104
000020 5f a8 aa bd 32 da b9 bc a4 41 e1 3d ef e0 eb 3d
       -0.083328955 -0.022687051 0.10998848 0.11517512
000030 30 99 c4 3d 5f f7 b9 bd 33 cb 94 bd 43 c9 9c 3c
       0.09599531 -0.090803854 -0.0726532 0.019138938

weight f4 [16]
000000 b4 dd 7d 3f ef 46 80 3f 2e bc 7e 3f 34 ac 81 3f
       0.9916642 1.0021647 0.9950589 1.0130677
000010 29 0a 82 3f 56 ce 7f 3f a5 b1 7c 3f be 07 84 3f
       1.0159351 0.9992422 0.98708564 1.0314863
000020 0d b7 7f 3f 5f 4f 82 3f 45 10 79 3f 1e c1 7e 3f
       0.9988869 1.0180472 0.9729045 0.99513423
000030 90 99 81 3f c7 89 80 3f b6 05 7c 3f 98 7c 79 3f
       1.0124989 1.0042046 0.98446214 0.9745574

bias f4 [16]
000000 82 41 9b bc ec ea b2 bc 38 6c ec ba 23 74 99 3c
       -0.018952135 -0.021840535 -0.0018037623 0.018732136
000010 b3 60 a5 bc f2 0b 0c bd 98 37 a1 3c 9f d4 b6 bc
       -0.020187711 -0.03419108 0.01967983 -0.022318183
000020 99 ca e0 bc 40 60 be 3c ec b6 a5 bc ac 76 d9 bc
       -0.027440356 0.023239255 -0.020228826 -0.026545845
000030 63 26 4d bc e9 0e 34 bd ff e8 e7 bc e3 db 14 bc
       -0.012521359 -0.043959532 -0.028309343 -0.009085628

running_mean f4 [16]
000000 51 70 0f 3f b9 65 cc 3e 2c 62 8d 3e c4 f5 42 3e
       0.56030756 0.39921358 0.27613962 0.19039065
000010 6c ff c7 3c 6a 51 a0 3e 56 a4 7f 3e 3f c2 45 3f
       0.024413787 0.31312114 0.24965033 0.7724952
000020 2c 4f b4 3e 5a fb 13 3e 66 01 8e 3e 3c f9 07 3f
       0.35216653 0.14451352 0.27735442 0.53114676
000030 96 4e 2f 3e b7 4b c2 3c 14 84 33 3e c8 6e db 3e
       0.17119822 0.023717744 0.17530853 0.42857957

running_var f4 [16]
000000 56 ea 30 3e 46 81 4f 3d a5 9e 94 3d f7 34 ad 3c
       0.17276892 0.050660394 0.072568215 0.02114342
000010 38 60 67 3b fa b0 b6 3d 3e 2b 80 3d af fc 01 3e
       0.0035305154 0.08920474 0.06258248 0.12694047
000020 28 7f 41 3d d4 34 8f 3d a2 7b ec 3d c0 e1 79 3e
       0.047240406 0.06992498 0.115470186 0.24402523
000030 c5 c8 8f 3c 23 77 8a 3b dc 39 75 3d 94 d3 0c 3d
       0.017551789 0.004225628 0.059869632 0.034381464

weight f4 [32, 16, 5]
000000 b0 3e b3 3c 67 3b 5f 3d 43 7a 8b 3d 49 d4 ac 3d
       0.021880478 0.05450001 0.06810429 0.08438928
000010 69 2c f5 3d a6 22 c4 bd 4f 89 9e bb 2b 8d fe 3c
       0.11971361 -0.09576921 -0.004838146 0.031073174
000020 f2 1c 53 3d 27 be b6 bd dd f5 a0 bd b4 a2 20 bd
       0.051541276 -0.089229874 -0.07859395 -0.039217666
000030 6a 25 73 3d cf ca d1 3d e1 17 19 3d e1 2a 25 3d
       0.059361853 0.10243761 0.03737629 0.040324096
000040 fd ae 35 bb fc c5 10 3c 8e 6f ed 3d 74 5d a9 3c
       -0.002772271 0.008836266 0.11593543 0.020674445
000050 2b d8 0b bd 4b 29 32 bd 57 f5 9a bd f8 8d 64 bc
       -0.0341417 -0.04349641 -0.07566326 -0.013949864
000060 42 9c fc bc 85 51 49 bd 70 72 d5 bd 30 b0 76 3d
       -0.030836228 -0.04915001 -0.10422218 0.06022662
000070 6a 82 62 bd ea c1 cb bd 22 71 49 3d cb 08 a6 bc
       -0.055300154 -0.099490955 0.049180157 -0.020267865
000080 77 b5 73 bc d1 59 75 3d ff 79 b2 3d 1d a2 5f 3d
       -0.014874808 0.05990011 0.08714675 0.054597963
000090 98 28 dd bd 57 30 bc 3d 4c 21 68 3c 31 89 dc 3c
       -0.10798758 0.091889076 0.014168095 0.026920887
0000a0 6b 13 13 bd 9d 81 cd bd 79 0a 38 3d 4e 5a d2 3d
       -0.03590719 -0.100344874 0.044931863 0.102711305
0000b0 66 17 e4 bc 66 e2 b5 3d cf f2 cd 3b 02 fe c5 bc
       -0.027843188 0.08881073 0.0062850486 -0.024168972
0000c0 af 8b eb bd 3b fa 06 be 8d b6 16 3d 77 25 b7 bd
       -0.11501252 -0.13181393 0.036795188 -0.08942693
0000d0 6c f5 c8 bd 56 c6 6c bd 4e 83 35 3d 2d e5 e7 bd
       -0.098124355 -0.057806335 0.044314675 -0.11323009
0000e0 cf d8 f4 bd 97 89 1d 3d a4 c9 83 bd 6e 99 62 3d
       -0.119554155 0.038461294 -0.06434944 0.055322103
0000f0 ae 2a d2 3d 09 61 5b 3d f3 65 57 bc d8 a8 64 3d
       0.10262047 0.053559337 -0.013146865 0.055825084
000100 08 5e 6a bd 2e 67 9b 3d 98 fb 72 3d 90 d8 65 3d
       -0.05721858 0.07588039 0.05932197 0.056114733
000110 c4 69 36 3d 3b 8c a8 bd 24 97 b9 bc d3 c6 a8 bd
       0.04453446 -0.08229872 -0.022655077 -0.08241048
000120 c8 10 47 3d 8b 3c 00 be d2 46 72 bd 95 61 39 3c
       0.04859999 -0.12523095 -0.05914957 0.011314769
000130 62 65 82 3d b3 49 43 3c f1 55 a4 bc 77 b6 03 be
       0.063669935 0.011919427 -0.020060511 -0.12862574
000140 08 88 c6 3c 00 c0 30 bd d7 df b2 bc b5 85 8e bd
       0.024234787 -0.043151855 -0.02183525 -0.06959096
000150 6b 4c ac 3d a0 76 87 bd 48 00 87 3d 57 01 a1 bd
       0.08413013 -0.06614423 0.065918505 -0.07861584
000160 54 a2 4c bd dc 9e 82 bd 20 83 02 3e 13 d4 61 3d
       -0.049959496 -0.06377956 0.12745333 0.05513389
000170 9c bb 90 3d fa 29 54 bd 74 ac 31 bd 72 f7 9a 3c
       0.07067034 -0.051797844 -0.043377355 0.01891682
000180 8c c6 66 bd f6 1d b3 bb 62 a3 81 3d 42 39 c4 bd
       -0.056341693 -0.005466218 0.06329991 -0.095812336
000190 52 ef 9c 3d 1d b8 3c 3d 19 ae 01 3e ed 4f 6b 3d
       0.07662834 0.04607402 0.12664069 0.05744927
0001a0 96 5a dc bd ed b3 95 3d 1a c0 7c 3c d4 4e a3 3d
       -0.107594654 0.07309709 0.01542666 0.0797402
0001b0 25 2f 8a 3c cd 43 3e 3c 90 a7 c9 3a 4b 3a ba 3d
       0.016868183 0.011612845 0.001538502 0.0909315
0001c0 96 90 12 bd 6b c8 54 bd 83 ed 23 3c de e0 d0 3c
       -0.03578242 -0.051948946 0.010005358 0.02549785
0001d0 86 0d de bb 84 f0 a3 bc e9 c0 16 bd b7 7c 91 3d
       -0.0067765145 -0.020012148 -0.036805067 0.071038656
0001e0 c7 62 9f bd a5 dd 92 bc 43 8b df 3d 7d 8d 0f bd
       -0.07782512 -0.017927954 0.10915234 -0.035047043
0001f0 b2 90 00 bd 65 7b 3a 3c 2e 9a cf 3c ff 0c 2d bc
       -0.031387992 0.011381959 0.025342073 -0.010562181
000200 b9 9b a6 3d 8d 93 f9 bd f5 93 95 bd 69 ae aa 3d
       0.081351705 -0.12186346 -0.07303611 0.08334047
000210 11 2e 03 3c 3d 29 8c bd ba e8 9e 3d f2 0b f1 3c
       0.008006589 -0.06843803 0.07759233 0.029424641
000220 f5 20 d9 3b 9e fc 6f bb 5c b1 98 bd 69 c0 52 bd
       0.0066262432 -0.0036619077 -0.074557036 -0.051453028
000230 6b c1 f3 3d d2 96 23 3d 63 32 22 3d cf b4 7d 3d
       0.11902126 0.039938755 0.039598834 0.06194001
000240 50 26 1f bd 2b 1f 85 bd ea 3b e7 3d de 40 de 3d
       -0.038854897 -0.065000854 0.112907246 0.10852216
000250 af 5f dc 3d eb e9 4e 3d e2 54 de 3d 4e d9 72 bd
       0.10760438 0.05051605 0.10856034 -0.05928927
000260 b3 98 db 3d 44 cc 1d bc 34 58 d4 3c d7 75 70 bd
       0.107224844 -0.00963122 0.025920965 -0.05870613
000270 5d 28 8d bd 0b 68 0c 3e 5d 24 ab bd f2 28 62 bd
       -0.06892464 0.13711564 -0.08356545 -0.05521483
000280 0a a4 ad bd 4f 5e f2 3c 7e c5 74 3d fe f5 da 3d
       -0.084785536 0.029585985 0.059758656 0.106914505
000290 55 c5 dd 3d ef cb bd 3d 97 56 e2 3b 88 23 cf 3d
       0.10828654 0.09267413 0.006907295 0.10114199
0002a0 df b7 83 3b cb 2e 7b bc 84 f3 68 3d 00 f8 82 bd
       0.004019722 -0.0153309805 0.05687286 -0.063949585
0002b0 92 d3 d3 3d 60 a8 57 3a 4b c3 bd 3d 5d b5 c3 bc
       0.10343088 0.0008226689 0.09265765 -0.023890192
0002c0 55 e6 aa 3d 5a 8e 87 3d 88 23 9a bd d8 ea 40 3d
       0.083447136 0.06618948 -0.07526308 0.047098964
0002d0 ed e4 6e 3d 6e 50 50 3b 2f 8f fc 3d 6b 10 bd 3d
       0.05832379 0.003178622 0.123319976 0.09231647
0002e0 8b fc 84 3a 80 8a 67 bd 89 1a 7d 3c 90 8d 3a bd
       0.0010146064 -0.05652857 0.015448221 -0.04554516
0002f0 93 a1 36 bd 41 f6 9e 3d bb 57 d2 3d 1c cd 40 bd
       -0.044587683 0.07761813 0.102706395 -0.047070608
000300 92 51 2e 3d 85 df 26 bb a2 b2 b9 3d d6 6d ef 3d
       0.04255826 -0.0025462818 0.09067275 0.116908714
000310 41 4b 6f bd ff 0b 2e 3d 51 23 fa bd c9 60 df bd
       -0.058421377 0.04249191 -0.12213767 -0.10907132
000320 84 69 17 bd 29 ac ec 3d c5 b5 72 bd aa 49 93 3d
       -0.036965862 0.115562744 -0.05925538 0.07191785
000330 9f 6d bc bc 5d 52 c0 bd 93 63 11 be 5c 88 b3 3c
       -0.02300149 -0.093907095 -0.14198141 0.021915607
000340 c8 bb 55 3d 5c 48 93 3d 66 6e c1 bd 02 96 f1 bd
       0.052181035 0.07191536 -0.09444885 -0.1179619
000350 9a c2 97 3d e2 0a 9f bd b5 b3 c9 bd ef dd b6 bc
       0.07410164 -0.077657476 -0.098487295 -0.022322623
000360 5e 7d 4c 3d 1a 91 75 3d 53 dd 2d bd 0a e8 48 3d
       0.049924247 0.059952833 -0.0424474 0.049049415
000370 0c 52 b4 3d ac 14 cb bc 5a 55 20 bd 96 d9 b2 bd
       0.08804712 -0.02479013 -0.039143898 -0.087329075
000380 b5 8f 17 3d 9b ad 07 3e 74 7e 88 3c 00 c9 c8 3c
       0.037002284 0.13249819 0.01666186 0.024509907
000390 5c 06 f3 bc 59 44 5e bd 7d 93 06 bd 75 5e 5f bc
       -0.029666118 -0.0542644 -0.0328555 -0.01363336
0003a0 03 e1 cb 3d 95 d2 b2 bb 0b 52 39 3d 6c 77 17 3b
       0.09955027 -0.0054572322 0.045244258 0.0023111952
0003b0 19 a0 4f 3d bf 4e 9a bc 4b eb aa bd b2 f6 89 bd
       0.05068979 -0.018836377 -0.0834566 -0.067365065
0003c0 0d 65 4d 3c fc f5 49 bd 41 12 08 3d 5e c5 c4 3d
       0.012536299 -0.049306855 0.033220533 0.09607957
0003d0 03 db e9 bb 16 ab 92 3d 09 2a 9e 3d 33 03 f0 bd
       -0.007136704 0.07161538 0.07722861 -0.1171936
0003e0 e1 f6 1e bd df 0d 93 bd 20 d2 11 3b fa 4b d2 3d
       -0.03880966 -0.0718038 0.0022250488 0.10268398
0003f0 c6 c6 bc 3d a2 17 b6 bc e2 ce 1e 3d aa c7 38 bd
       0.092176005 -0.022228066 0.038771518 -0.04511229

bias f4 [32]
000000 28 23 3f bd b5 02 00 be 5a 0e b6 bd cc b1 f7 bd
       -0.046664387 -0.12501033 -0.08889456 -0.12094459
000010 36 ec 89 bc 67 34 c5 bd af 88 e9 bc a8 44 00 bc
       -0.016836267 -0.096291356 -0.028507559 -0.007828869
000020 01 d4 19 bd bf 53 98 bc 18 10 80 bc 25 fd 58 3d
       -0.0375557 -0.01859462 -0.015632674 0.052975792
000030 34 09 42 3d 9e e7 05 3e cd ac bb 3d 60 16 50 3d
       0.047372058 0.13076636 0.091638185 0.05080259
000040 d9 aa c2 3d 93 2f da bd 5c 09 89 bd dc 8f f6 bd
       0.09505243 -0.10653605 -0.06691238 -0.12039158
000050 85 67 d3 3d 41 dc d9 bb be be 94 3d af 4b 54 bd
       0.10322479 -0.0066485708 0.07262944 -0.05182999
000060 9f 11 e8 3d ce da b7 ba cc 5d a3 3d 98 c7 b0 3d
       0.11331486 -0.0014027001 0.07976875 0.086318195
000070 1a ce 4d 3d b2 3c 03 bd 84 bb b9 3d 24 1e cc bd
       0.050245382 -0.032040305 0.09068969 -0.09966686

weight f4 [32, 32, 5]
000000 b9 4a 46 3d 0e 21 b3 3b 16 08 8e 3d 04 64 96 3c
       0.048411105 0.005466587 0.06935136 0.018358238
000010 3f a4 0b bd c5 ed 81 bd a8 ad a9 bd 31 e1 57 3d
       -0.034092184 -0.06344179 -0.082850754 0.052704994
000020 7b 5d 14 bd 12 72 7e 3a 86 37 12 3b 5f ba 02 3c
       -0.036221962 0.0009706329 0.0022310927 0.007979005
000030 7d b0 b9 3d aa 4e 1c 3d b1 de 8b 3c 8d e1 39 bc
       0.090668656 0.038160957 0.017073961 -0.011345279
000040 e0 86 67 bd 06 97 58 3d cc 93 2a bd 83 94 18 bd
       -0.05652511 0.052878402 -0.041644856 -0.037251007
000050 3b 3e 5b bd eb f4 0a 3c 39 6f 64 3d f7 ae b6 b9
       -0.053526144 0.008481245 0.055770133 -0.00034844104
000060 80 02 9a 3d 94 db 82 bd 59 4e 4d bd 61 4c a3 bd
       0.07520008 -0.063895375 -0.050123546 -0.079735525
000070 dc c5 2f 3c 35 35 c4 3c 6d b3 62 bd 4b 4d 81 3c
       0.010728326 0.023951152 -0.055346895 0.015783926
000080 1e 10 8e 3d 98 12 1f 3d 98 a2 e0 3c 4d ba e0 3a
       0.06936668 0.03883609 0.02742128 0.0017145366
000090 89 a3 49 3c 7f 47 0b bd 14 58 36 3d 0d 4a 54 bd
       0.012307056 -0.03400373 0.04451759 -0.051828433
0000a0 c8 84 01 bc b8 bb 09 3d 6d 5b 41 bd 8f cf 2e bd
       -0.007905193 0.03362629 -0.04720633 -0.042678412
0000b0 51 27 c6 bc 59 24 bf bc 80 8e a2 bd 10 16 bc bc
       -0.02418867 -0.023332762 -0.07937336 -0.022959739
0000c0 30 90 2a 3a 6a 78 2c bd 77 ce bf 3d 2f 40 0e 3c
       0.0006506471 -0.042107023 0.09365552 0.008682295
0000d0 ec 66 e1 bc c9 9f a9 bd 43 5c 2a 3d 4e 0d 85 b9
       -0.027514897 -0.0828243 0.041591894 -0.0002537765
0000e0 a9 74 31 bd 2c bb 91 3d f3 95 36 bc 86 5a 04 bd
       -0.043324146 0.07115778 -0.011144149 -0.032312892
0000f0 35 f2 53 3b 4f 5a 8f bd f5 cb c9 3c da 81 8c bd
       0.0032340412 -0.06999647 0.024633387 -0.06860705
000100 a5 84 82 3d da ff 89 3c d5 45 be bd 9e cc 97 bd
       0.06372956 0.016845632 -0.09290663 -0.074120745
000110 01 b9 9e 3b 5f 72 cb bb ec bc d8 3c 57 ea a9 3b
       0.0048438315 -0.0062087025 0.026457272 0.005185406
000120 ed b6 ce 3c 89 4f 87 bd 7c 8d 95 3c 0e c9 51 bd
       0.02523371 -0.06606967 0.018255942 -0.05121713
000130 cc 23 91 3c 9e 99 45 bc 50 f5 7b bc 19 f6 49 bd
       0.017717265 -0.012060551 -0.015378311 -0.049306963
000140 2a ce 18 bc 88 31 cf bc 2c e3 a4 bd 85 62 84 bd
       -0.009326497 -0.025292173 -0.08051142 -0.064641036
000150 01 ec a7 3b d9 41 9e bc fe 59 cf 3c 48 07 b1 3c
       0.0051245694 -0.019318508 0.025311466 0.021609917
000160 18 1d 40 bd 01 80 60 3d 09 f6 04 bd e0 3a 8a bd
       -0.046902746 0.054809574 -0.0324612 -0.06749511
000170 58 75 84 bd 26 ee 58 3d 9e 2f 16 3d f9 4e 66 bd
       -0.06467694 0.05296149 0.036666505 -0.056227658
000180 c9 b2 36 3d d7 65 a2 3d e7 ec 9b 3d b5 3e 26 3d
       0.044604097 0.07929581 0.07613545 0.040587146
000190 17 65 a3 bc 2d 97 2e 3d 3b ed 75 3d 2c ea 34 3d
       -0.019945664 0.04262464 0.060040694 0.044168636
0001a0 6b ab 84 bd 50 e0 0c 3d 1d 75 a3 3c e0 f3 3b 3d
       -0.06478008 0.03439361 0.019953305 0.045886874
0001b0 78 38 b2 bd 7c 42 15 3d 51 4a 8f bc 59 a2 c7 bc
       -0.08702177 0.036440358 -0.017491492 -0.024369406
0001c0 35 6f 28 bd 95 5b 17 3d 34 1b ce 3c 3f f4 ff bc
       -0.04112168 0.036952574 0.025159456 -0.031244395
0001d0 8e 3b 80 3d 51 5e b2 bc cd 24 44 3d 8d 97 80 3d
       0.06261359 -0.02177349 0.04788666 0.06278906
0001e0 3b 34 51 bd 4b b4 4f bd 2f ba 98 bd 91 d6 59 bd
       -0.0510752 -0.05070905 -0.07457387 -0.053183142
0001f0 06 ba 05 bc 79 2c c1 bb 28 ea 23 3d 14 cc bf bd
       -0.008162027 -0.005895194 0.04001823 -0.09365097
000200 28 ed 5c 3d 5e 26 be bd 80 43 6c bd 6d 20 2d 3c
       0.053937107 -0.09284662 -0.05768156 0.010566813
000210 57 fa a9 bc b0 f3 17 3b 3d cb 47 bd ae 1c ca bb
       -0.020749254 0.002318602 -0.048777808 -0.0061679697
000220 04 5c 56 bd b1 00 5d bc 6b 0c bc bd 42 7b ab bd
       -0.052333847 -0.013488934 -0.09182056 -0.08373119
000230 e9 1c 33 bd 4e 1a 90 bd 1c ec 9b 3d b1 51 94 3b
       -0.043728743 -0.07036267 0.07613394 0.00452634
000240 4b 20 68 bd 54 91 22 3d 58 fa a0 bd f5 61 9b 3c
       -0.056671422 0.039689377 -0.07860249 0.018967608
000250 5e 1d 89 3d 9a c9 24 bb d9 41 b5 3d 12 62 8a bd
       0.066950545 -0.0025144578 0.0885045 -0.06756987
000260 53 a6 aa 3d c0 a7 c6 bc 57 16 85 3d 92 95 46 3d
       0.08332505 -0.024249911 0.064984016 0.048482485
000270 8e 4c d8 3d b4 71 0b 3d 83 59 2a 3d 23 c0 01 bd
       0.10561477 0.034043983 0.04158927 -0.031677376
000280 26 a0 b4 bd 77 f1 c6 bc b9 b5 37 3a de e3 08 bd
       -0.088196084 -0.024285061 0.0007007975 -0.033420436
000290 08 0a 88 3c 64 4c 80 3d fd 83 1c 3d 80 15 9f 3d
       0.016606346 0.0626457 0.03821181 0.07767773
0002a0 26 1c fb bc 7d ca f1 3c 34 c2 6a 3d a4 bf 1a 3b
       -0.03065307 0.0295155 0.057314113 0.0023612762
0002b0 ef 43 1c 3c 30 f6 c0 bc c6 de 0d 3d 49 f6 05 bc
       0.009537681 -0.023554891 0.03463628 -0.008176395
0002c0 28 d1 92 3d 20 38 34 bd d7 05 6b bd 07 db 6c bb
       0.071688 -0.043998837 -0.057378616 -0.0036141293
0002d0 db 10 67 bd 7b b6 9a 3d 86 60 d9 bc ce c6 b0 bd
       -0.05641256 0.07554337 -0.026535284 -0.08631669
0002e0 0d 74 98 3d eb ef 54 3c 05 e2 2a 3d 89 5b b3 3c
       0.0744401 0.012996654 0.041719455 0.021894233
0002f0 1c 91 fc bb 3c 9d 8b 3a 49 9e 27 bd 16 c2 6b bd
       -0.007707728 0.0010651718 -0.040922437 -0.05755814
000300 c4 62 3e bd cc 25 36 bd 96 67 f3 3c c2 a1 5c 3d
       -0.04648091 -0.04446964 0.02971248 0.0538652
000310 fd 53 5d bc ea c9 08 3d 98 06 ab 3c cf fd 83 bd
       -0.013508794 0.033395685 0.020877168 -0.064448945
000320 bf e8 3a 3d 4c f4 46 bc 4c 59 2f 3d 72 4d a3 bd
       0.04563212 -0.012143206 0.04280977 -0.07973756
000330 7a 3b 2e bc c5 f4 93 3d da 51 cd ba a9 5a 71 3d
       -0.0106342975 0.072244205 -0.0015664652 0.05892435
000340 57 9e 6d 3c 29 30 94 ba c5 09 31 3d 25 df c2 3c
       0.014503083 -0.0011305857 0.043222208 0.023788044
000350 bf b1 96 3c dc 93 9a 3d e6 24 cc 3c bf 80 90 bd
       0.018395303 0.07547733 0.024919938 -0.07055806
000360 97 3e e0 3c a1 73 c6 3d 7a 7b 30 3d d6 ea 9c 3d
       0.027373595 0.09690023 0.043086506 0.07661979
000370 d5 60 6c 3c d9 6f 50 bd ba 3c ca 3c 39 02 ce 3d
       0.014427383 -0.050887916 0.02468716 0.10059018
000380 90 11 dc 3d 73 b3 4c bd 47 23 a2 bd 45 1f 0a 3d
       0.10745537 -0.049975824 -0.07916885 0.033721227
000390 5b cc 0b bd af eb a2 bd 63 89 58 bd ea 8f 67 bd
       -0.034130435 -0.07955109 -0.052865397 -0.05653373
0003a0 76 10 b9 3c 33 eb 8f 3c 7b aa 37 bd d9 d8 b2 bd
       0.022590857 0.017568206 -0.044840317 -0.08732767
0003b0 8f a5 6a 3d 83 3b 8b 3d 29 26 1f 3d bb c7 92 bd
       0.057286795 0.0679846 0.03885475 -0.07167002
0003c0 fc 77 7b bd 88 9e a5 3d 51 a9 81 bd b7 ff c1 bc
       -0.061393723 0.08086878 -0.06331123 -0.023681505
0003d0 f2 52 04 3d 41 f1 0d bd 86 bb 4b 3d 13 f0 bc 3c
       0.032305665 -0.034653906 0.049739383 0.023063695
0003e0 1b c5 e5 3c 35 50 a6 bd cd 0b 86 3d 69 0c 1e 3d
       0.028048089 -0.08120767 0.065452196 0.038586054
0003f0 78 54 c3 3c f3 36 a8 bd 3b bf ae 3d 3b 26 0b bd
       0.023843989 -0.08213606 0.08532568 -0.033972006

bias f4 [32]
000000 a7 ea b7 ba be 12 02 3d 89 57 26 bd a9 8c 9a bd
       -0.0014031724 0.031756155 -0.040610824 -0.0754636
000010 47 0a b6 bd 59 f4 1d 3b 2a 44 bc bd e6 17 14 3d
       -0.08888679 0.0024101941 -0.09192689 0.036155604
000020 8c 5e 2f bd f8 8d 8c 3d 6a 3c 94 bd 2e a3 af 3d
       -0.042814776 0.06863016 -0.072380856 0.08576046
000030 b6 c7 50 bd 60 12 22 bd 5d 55 8d 3d 6f 72 4e 3d
       -0.05097171 -0.039568305 0.069010474 0.0504021
000040 a6 71 05 3b 0b d0 28 bd c0 1a c6 3a 9a df fc bc
       0.002036193 -0.04121403 0.0015114173 -0.03086834
000050 ab 26 fb 3c 28 80 31 3d 34 8b c8 3d 53 22 7d bd
       0.030658087 0.04333511 0.09792176 -0.061800312
000060 2d 6d bd bd f4 4c 2d 3d 80 58 b9 3c 66 02 a3 bc
       -0.09249339 0.042309716 0.022625208 -0.019898605
000070 e9 84 e4 3d 74 9e ac 3d 16 21 3e bc af 51 6a bd
       0.11158163 0.0842866 -0.011604568 -0.057206806
