results/SV_unet_matrixlonlat_5s.pt (torch, 103569 bytes, 49 tensors)

weight f4 [8, 1, 1, 1]
0	0xbdce58f0	-0.10075557
1	0xbeb36fea	-0.3504632
2	0xbe734e99	-0.23760451
3	0xbf5454b5	-0.8294175
4	0xbf5b0ae9	-0.8556352
5	0xbe79ff82	-0.24413875
6	0x3f1b756a	0.60726035
7	0x3f62cedf	0.8859691

bias f4 [8]
0	0xbe379928	-0.17929518
1	0x3f191fd9	0.5981422
2	0xbd83255d	-0.06403611
3	0xbf3b9f30	-0.73289776
4	0xbf688258	-0.9082389
5	0x3f4ee96c	0.80824924
6	0x3f47b3bb	0.7800862
7	0x3c2b547d	0.010457155

weight f4 [10]
0	0x3f800000	1.0
1	0x3f80af63	1.0053524
2	0x3f7eab05	0.99479705
3	0x3f951b5c	1.1648974
4	0x3f8f542a	1.119756
5	0x3f71f88a	0.94519866
6	0x3f8264b7	1.0186986
7	0x3f71c10c	0.9443519
8	0x3f690e1f	0.9103717
9	0x3f5a8772	0.85362923

bias f4 [10]
0	0x3c125c18	0.00893309
1	0xbd0438a9	-0.032280598
2	0xbbd17677	-0.006392296
3	0xbbb5c744	-0.005547436
4	0x3d264820	0.040596128
5	0xbdf487c9	-0.119399615
6	0x3d419c12	0.04726798
7	0x3c91a117	0.017777009
8	0xbd5d33a7	-0.054004338
9	0xbb27df9b	-0.0025615457

running_mean f4 [10]
0	0x00000000	0.0
1	0x4144e4f5	12.305898
2	0x3f9e8dd4	1.2387033
3	0x3f13079c	0.57433486
4	0x3deab613	0.11460509
5	0x41812bc6	16.146374
6	0x417ac55c	15.673183
7	0x40ee8e2e	7.454856
8	0xbd02ce8e	-0.031935267
9	0x3d28d86e	0.04122203

running_var f4 [10]
0	0x00000004	6e-45
1	0x41514faa	13.081949
2	0x3f4b06f4	0.79307485
3	0x3f2a8649	0.6661115
4	0x3d393059	0.045212124
5	0x41055516	8.333273
6	0x42518cc9	52.387486
7	0x424c635e	51.09704
8	0x3f6d48fa	0.9268948
9	0x3f6be80b	0.92150944

weight f4 [8, 10, 5]
0	0xbd3b2798	-0.045692056
1	0xbc8b1d1d	-0.016981656
2	0xbdcd1d97	-0.100154094
3	0x39b77252	0.00034989655
4	0x3db9fe9e	0.090817675
5	0x3cdb011e	0.026733931
6	0x3ddff31d	0.10935042
7	0x3c9507e8	0.018192247
8	0x3e0be646	0.13662061
9	0x3d202f26	0.039107464
10	0xbddf5867	-0.10905533
11	0xbaba0177	-0.001419111
12	0xbd84a124	-0.06476048
13	0xbcfbd518	-0.03074126
14	0x3e2d2efd	0.16912456
15	0x3dfbea11	0.12300504
16	0xbce11b7c	-0.027478926
17	0xbd35abe0	-0.044353366
18	0x3d972aa5	0.07381181
19	0xbe254b75	-0.16142066
20	0x3e452de1	0.19255783
21	0x3d8c3acd	0.06847153
22	0x3d95f3f7	0.07321923
23	0xbdf98bc0	-0.12184858
24	0xbdb8522a	-0.090000466
25	0x3de1a382	0.11017515
26	0x3df4dda6	0.119563386
27	0x3c98fa29	0.018673973
28	0x3d2d3e37	0.04229566
29	0x3db6dec6	0.089292094
30	0xbd23217f	-0.039826866
31	0x3e003cc4	0.1252318
32	0x3e015dae	0.12633392
33	0xbc45d871	-0.012075529
34	0x3d1550d2	0.03645403
35	0xbcc1f619	-0.023676919
36	0xbdbbeee0	-0.09176421
37	0xbc9bda63	-0.019025033
38	0x3caf14db	0.02137225
39	0xbd944729	-0.07240135
40	0x3e06b2aa	0.13154092
41	0x3db4e522	0.08832766
42	0xbe137a43	-0.14402108
43	0xbe04ed4e	-0.1298115
44	0x3cf83eca	0.030303378
45	0xbdd825dc	-0.10554096
46	0x3e0314e6	0.12800941
47	0xbd8db0a8	-0.0691846
48	0xbd344e22	-0.044019826
49	0x3dd6a455	0.104805626
50	0x3dc0b725	0.09409932
51	0xbd2f82a4	-0.042849198
52	0xbc131f2b	-0.008979599
53	0x3ddc5012	0.1075746
54	0xbd30b5da	-0.043142177
55	0x3d96f0cb	0.07370146
56	0xbc29518d	-0.010334385
57	0xbde01f35	-0.10943452
58	0xbe14e984	-0.14542204
59	0x3d97fe72	0.074215785
60	0x3e056c18	0.13029516
61	0x3e089b03	0.13340382
62	0x3dfc19cd	0.123096086
63	0xbe0f9180	-0.14020348
64	0x3db9e4a6	0.09076814
65	0xbce880d7	-0.028381748
66	0x3bf377bf	0.0074300463
67	0xbcfde906	-0.030994903
68	0x3dcdeda5	0.10055093
69	0x3d491996	0.049096666
70	0xbe1bbe8c	-0.15209407
71	0x3d9efaf1	0.07762707
72	0xbde8ca7a	-0.11366744
73	0x3d717fb2	0.05895967
74	0xbdacafdf	-0.08431982
75	0xbd0839bd	-0.03325819
76	0x3e217664	0.15767819
77	0xbc5ec59a	-0.013596917
78	0xbdba9c60	-0.091118574
79	0x3cdf9377	0.027291996
80	0xbd101e52	-0.035185166
81	0x3db3fd08	0.08788496
82	0xbde2c097	-0.1107189
83	0x3ceb4eeb	0.028724154
84	0xbcf93258	-0.030419514
85	0x3dc14283	0.09436514
86	0x3cff2e44	0.03114999
87	0xbd8569f9	-0.06514353
88	0xbcb2a715	-0.021808187
89	0xbd9adef4	-0.07562056
90	0xbd76c307	-0.060244586
91	0x3e2761bc	0.16345876
92	0xbcbfe4e9	-0.023424583
93	0x3df66055	0.120300926
94	0x3dc6865b	0.09693595
95	0x3d90a50e	0.07062732
96	0xbc76c935	-0.01506262
97	0x3d27e5ec	0.040990755
98	0xbd5fff91	-0.054687086
99	0x3cf8149d	0.030283267
100	0xbc11f6eb	-0.0089089675
101	0x3d760b36	0.060069285
102	0x3e316488	0.17323506
103	0x3e3dd8f5	0.18539794
104	0x3d023b3e	0.03179478
105	0xbdd05907	-0.101732306
106	0x3c2e71ec	0.010647278
107	0x3e080705	0.13283928
108	0x3c53d3a5	0.012928878
109	0xbdf8e967	-0.12153893
110	0x3e21245b	0.15736525
111	0xbd1c962b	-0.03822915
112	0xbdc1a155	-0.094546
113	0xbd20ae61	-0.0392288
114	0xbe01c1c4	-0.12671572
115	0x3ddfa0ea	0.10919364
116	0xbdf56f73	-0.11984148
117	0xbe88d035	-0.2672135
118	0xbe9079fc	-0.28218067
119	0xbced3887	-0.028957618
120	0x3dc6d6cc	0.09708938
121	0xbde23923	-0.11046054
122	0xbdd653d2	-0.10465206
123	0xbe419dae	-0.18907806
124	0xbdfdfe86	-0.12402062
125	0x3b2bba67	0.0026203634
126	0xbd817b22	-0.06322314
127	0xbd93163b	-0.071819745
128	0xbd6e9655	-0.058248837
129	0xbca7eaeb	-0.02049776
130	0x3db6bb82	0.08922483
131	0xbd200d37	-0.039075103
132	0xbc592f4d	-0.013255906
133	0xbda1a02d	-0.07891879
134	0x3d5d339c	0.054004297
135	0xbe2ddffb	-0.16979973
136	0xbdd57682	-0.10422994
137	0x3c751fed	0.014961225
138	0x3d26843c	0.040653452
139	0xbd1a16da	-0.03761945
140	0xbda41f32	-0.080137625
141	0xbce5662f	-0.028002826
142	0xbd2e754f	-0.042592343
143	0x3d9bf5d8	0.0761525
144	0xbd51c5bd	-0.05121397
145	0x3d4807db	0.048835617
146	0xbd1da8c4	-0.038491026
147	0x3d8ecf95	0.06973187
148	0xbdc72f38	-0.09725803
149	0xbd9a6f4c	-0.075407594
150	0x3d642fbe	0.055709593
151	0x3ca63141	0.020287158
152	0x3c5821c6	0.013191646
153	0x3d16fada	0.036860324
154	0xbd7764cd	-0.060398865
155	0xbd7b9e8c	-0.0614305
156	0xbe1ef825	-0.15524347
157	0x3cd4f360	0.025994956
158	0x3e0cadbe	0.13738152
159	0xbcaa92a9	-0.020821886
160	0xbd920261	-0.0712936
161	0xbd9c99d5	-0.07646529
162	0xbde6c3f0	-0.11267841
163	0x3a71508d	0.00092054234
164	0xbe25215b	-0.16126005
165	0xbdd2031c	-0.10254499
166	0xbe83095e	-0.25593084
167	0xbdde85fa	-0.10865398
168	0xbea12cf7	-0.31479618
169	0xbeb3b41a	-0.35098344
170	0xbe02698c	-0.12735575
171	0xbdd218e8	-0.10258657
172	0xbe8cf0a6	-0.2752735
173	0xbe240d4e	-0.160207
174	0xbdf0316a	-0.11728175
175	0xbddb7d46	-0.107172534
176	0x3d00e5f5	0.031469304
177	0x3b057b04	0.0020367512
178	0x3d37191d	0.044701684
179	0x3d5e762d	0.05431192
180	0xbe001e24	-0.12511498
181	0xbd31c1e0	-0.043397784
182	0xbe19e846	-0.15030012
183	0xbe174278	-0.1477145
184	0x3e36b8cf	0.17843936
185	0x3d5cc5ff	0.05389976
186	0xbc4fb902	-0.012678387
187	0x3db54225	0.08850507
188	0xbcea37d1	-0.028591068
189	0x3d51c85d	0.051216472
190	0x3b2ce4e3	0.0026381544
191	0x3bdf70f4	0.006818885
192	0xbd35d0d4	-0.044388607
193	0x3d43f4d3	0.047840904
194	0xbd29f400	-0.041492462
195	0x3c31a0cc	0.01084156
196	0x3cb2a7b3	0.02180848
197	0x3d784119	0.060608957
198	0xbd87fd3d	-0.06640098
199	0x3d50e8d1	0.05100328
200	0xbdc3cc4f	-0.09560453
201	0xbc0eb023	-0.008708986
202	0x3dfe48f2	0.12416257
203	0x3cfb3660	0.030665576
204	0x3cedd9d2	0.029034529
205	0xbd93348d	-0.07187758
206	0xbde91fc4	-0.11383012
207	0xbba6bb90	-0.005088277
208	0xbbd811cd	-0.006593919
209	0xbe078680	-0.13234901
210	0xbdfe2748	-0.12409836
211	0xbd9cde3e	-0.07659577
212	0xbe333078	-0.17498958
213	0xbe4adeee	-0.19811603
214	0x3b55e96b	0.0032640349
215	0xbe35a5f3	-0.17739086
216	0xbdad6a7f	-0.08467578
217	0xbb96643d	-0.004589586
218	0xbdf4e06a	-0.11956866
219	0xbd91eaa0	-0.07124829
220	0xbdf551f6	-0.119785234
221	0xbe0d6b1a	-0.13810387
222	0xbe0f3426	-0.13984737
223	0xbd166b4f	-0.03672343
224	0xbe41e782	-0.1893597
225	0xbdd52725	-0.10407857
226	0x3de7f983	0.113268875
227	0x3e0dc62d	0.1384513
228	0x3e01a5c9	0.12660898
229	0xbe2a16ed	-0.16610308
230	0xbdb9ad3d	-0.09066246
231	0xbda36d26	-0.07979803
232	0xbca34e52	-0.019934807
233	0x3dedb55a	0.11606856
234	0xbbf7aa41	-0.0075581376
235	0x3e1a58f6	0.15072998
236	0x3b277695	0.0025552858
237	0xbdf9d84b	-0.12199458
238	0xbb80c773	-0.003930026
239	0x3c4ab670	0.012372598
240	0x3d0325f0	0.032018602
241	0x3d87026f	0.06592261
242	0xbdfa13d2	-0.12210812
243	0x3cc99f50	0.024612099
244	0x3da2d0e8	0.07950002
245	0x3c777766	0.01510415
246	0x3ca3b4f6	0.01998375
247	0xbc4f4f70	-0.012653217
248	0x3d5e2650	0.054235756
249	0x3d2da808	0.042396575
250	0xbdb9cec0	-0.090726376
251	0xbe2b5adc	-0.16733879
252	0x3d8d94b8	0.069131315
253	0xbd9c0e7c	-0.0761995
254	0x3c87c167	0.016571714
255	0xbdc7d9bb	-0.09758326

bias f4 [8]
0	0x3da88220	0.082279444
1	0x3c232d06	0.009959465
2	0x3c030e71	0.007999049
3	0x3b726ba9	0.003699044
4	0xbd6acda4	-0.05732502
5	0xbdaae625	-0.08344678
6	0xbd225077	-0.03962752
7	0x3db20255	0.08691851

weight f4 [8, 8, 5]
0	0x3cbbaf57	0.022910757
1	0xbd84e190	-0.06488335
2	0x3d5d75c0	0.054067373
3	0xbdd97364	-0.10617712
4	0x3db61d75	0.08892337
5	0x3d7fd07f	0.062454697
6	0xbc516a52	-0.012781696
7	0x3d9e312e	0.07724224
8	0x3dbe31cc	0.09286842
9	0xbccb9daa	-0.024855454
10	0xbd811ea2	-0.06304671
11	0x3dbf6ed5	0.093473114
12	0xbe1d815d	-0.1538138
13	0xbdc1e253	-0.09466996
14	0x3e24e78f	0.16103958
15	0xbe51c6df	-0.2048602
16	0xbe5548f5	-0.20828612
17	0x3da6e91d	0.081499316
18	0xbdd0abde	-0.10189031
19	0xbda2e078	-0.0795297
20	0x3dac78c1	0.084214695
21	0xbe0954e2	-0.13411286
22	0xbd291c8e	-0.041286997
23	0xbdfd965c	-0.123821944
24	0xbddf413a	-0.10901113
25	0xbe3968a8	-0.1810633
26	0xbe418fe3	-0.18902545
27	0x3cfab2a7	0.030602766
28	0xbd7d6b4a	-0.061869897
29	0x3db78f42	0.08962871
30	0xbdae8533	-0.085214995
31	0xbe1b4682	-0.15163615
32	0xbdcbb6ce	-0.099469766
33	0x3d1d47e0	0.038398623
34	0xbdf1a492	-0.117989674
35	0xbd687056	-0.056747757
36	0x3dd0fc3f	0.10204362
37	0xbe3fc599	-0.18727721
38	0xbd1a519a	-0.037675478
39	0xbdaa86d6	-0.08326499
40	0x3d93fbd0	0.07225764
41	0xbcb27f10	-0.021789104
42	0xbd9325b1	-0.071849234
43	0x3d3589ff	0.044321056
44	0x3a54495f	0.00080980913
45	0xbe1442c2	-0.14478591
46	0xbbe93a28	-0.0071175285
47	0x3c8e31aa	0.017357666
48	0x3dc92333	0.09821167
49	0x3d7b5ad9	0.061365936
50	0xbde5e81c	-0.11225912
51	0xbd06c5c2	-0.03290344
52	0x3e04c90d	0.1296732
53	0x3e2b89c8	0.16751778
54	0xbd8a9ecc	-0.06768569
55	0xbdc070f2	-0.093965426
56	0xbe082ef2	-0.13299158
57	0x3df40442	0.119148746
58	0x3e79627d	0.24353977
59	0xbdc0d8c5	-0.094163455
60	0xbe0a2bca	-0.13493267
61	0xbd8fd87c	-0.07023713
62	0x3e19aac1	0.15006544
63	0x3e88f3ce	0.26748508
64	0x3c4031d7	0.011730633
65	0xbe0d692b	-0.1380965
66	0x3bad0aa1	0.005280808
67	0xbce26af3	-0.027638888
68	0x3c56f26c	0.013119321
69	0x3c76e274	0.015068639
70	0xbb351431	-0.0027630443
71	0xbcddb3db	-0.0270633
72	0x3c842add	0.01613372
73	0x3a06dc11	0.0005144487
74	0xbd52e82a	-0.05149094
75	0xbd8b821e	-0.06811927
76	0xbcd8baf5	-0.026456336
77	0xbd1f4836	-0.038887225
78	0xbd388529	-0.045048866
79	0x3e1b774f	0.15182231
80	0x3cb22be5	0.021749446
81	0x3df9c88e	0.12196456
82	0x3dccdd74	0.10003176
83	0x3d5b0655	0.053472836
84	0xbe1ae261	-0.15125419
85	0xbd7db398	-0.061938852
86	0xbc428ba2	-0.011874111
87	0x3cc55d6a	0.024092395
88	0xbdb857d6	-0.090011284
89	0x3dc7677b	0.09736534
90	0xbd83fded	-0.06444917
91	0xbe62eb7c	-0.22160143
92	0x3d140948	0.036141664
93	0x3d81acee	0.06331812
94	0x3d28f1d7	0.04124626
95	0xbb1f0e6e	-0.0024270075
96	0xbe2802c1	-0.164073
97	0x3e01d07b	0.12677185
98	0x3e23ff60	0.16015387
99	0xbbb87f36	-0.005630399
100	0xbd0ac35d	-0.03387772
101	0xbe10cade	-0.14139888
102	0xbe1a7fd4	-0.15087825
103	0xbe056bba	-0.13029376
104	0x3e45203f	0.19250582
105	0x3d2d8dbc	0.042371497
106	0xbdeb8edb	-0.11501857
107	0xbd36dd17	-0.04464444
108	0xbe241fdf	-0.16027783
109	0x3dd057f5	0.101730265
110	0xbd0077dd	-0.03136431
111	0x3daaef86	0.08346467
112	0x3d4fbea2	0.05071891
113	0x3e186bf6	0.14884934
114	0xbdcf0515	-0.10108391
115	0x3bb3ae95	0.0054834583
116	0xbdfc6547	-0.123240046
117	0xbdba41b1	-0.09094561
118	0xbd34d0e5	-0.04414453
119	0x3e03815b	0.12842314
120	0x3b995aab	0.004679998
121	0xbca2be68	-0.019866183
122	0x3c318f61	0.010837407
123	0xbd9830ef	-0.07431208
124	0xbdd4a658	-0.1038329
125	0x3d7b8f37	0.061415877
126	0x3d34b913	0.044121813
127	0xbc02372d	-0.007947725
128	0xbd149b8a	-0.036281146
129	0x3e1b2409	0.15150465
130	0x3dcf0ffa	0.10110469
131	0x3ddd810d	0.1081563
132	0xbe141859	-0.14462413
133	0xbdd44aee	-0.10365854
134	0x3c987d5d	0.018614465
135	0x3d937584	0.07200149
136	0x3e328273	0.17432575
137	0x3e1b5b17	0.15171467
138	0x3dea8965	0.11451987
139	0x3d052645	0.0325072
140	0x3df30610	0.11866391
141	0x3d8a0ad2	0.06740345
142	0x3dbd3558	0.0923869
143	0x3d21c3dd	0.03949343
144	0x3d25f0d0	0.04051286
145	0xbdf3d313	-0.119054936
146	0x3ca4f844	0.020137914
147	0x3d4c66a7	0.049902584
148	0x3cf4da25	0.029889176
149	0x3d9bda39	0.07609982
150	0x3de4ac03	0.11165621
151	0x3d691307	0.05690291
152	0xbddf8ce6	-0.10915546
153	0x3d921b0a	0.071340635
154	0x3d374a43	0.044748556
155	0xbdfccdf2	-0.123439685
156	0xbdc21a17	-0.094776325
157	0x3d7e00c3	0.062012445
158	0x3e376120	0.17908144
159	0x3dbbbc2e	0.09166752
160	0x3b9316a4	0.004488783
161	0x3ce02cb3	0.027365064
162	0x3e0f7df7	0.14012896
163	0xbd1fe94c	-0.03904085
164	0xbe15e900	-0.14639664
165	0x3dec97d6	0.11552398
166	0xbe06489c	-0.13113636
167	0x3c881f99	0.01661663
168	0xbd161764	-0.0366434
169	0x3e1eb1f6	0.15497574
170	0xbb3423aa	-0.0027487078
171	0xbe3ba607	-0.18325053
172	0x3df3f611	0.11912168
173	0xbd748a26	-0.05970206
174	0xbcd015b5	-0.025400976
175	0xbe19aef7	-0.1500815
176	0xbdf0c772	-0.11756791
177	0xbd3128cd	-0.0432518
178	0x3d3ea331	0.04654235
179	0x3d308420	0.043094754
180	0x3de7e3bc	0.11322734
181	0x3d7efb48	0.06225136
182	0xbe4e652c	-0.20155782
183	0xbc0b037c	-0.008484717
184	0x3e2ad961	0.16684486
185	0x3e4d0563	0.20021586
186	0xbd2cfe6e	-0.04223483
187	0x3d9e33fa	0.077247575
188	0xbddd3b9e	-0.10802387
189	0xbdedb096	-0.11605947
190	0xbe0907b2	-0.13381842
191	0x3dc1caf5	0.09462539
192	0xbd7397a7	-0.0594708
193	0x3d298d5f	0.041394588
194	0x3d196da4	0.037458077
195	0x3d3df62f	0.046377357
196	0x3cf96ec1	0.03044832
197	0xbd21e412	-0.039524145
198	0xbd66280a	-0.056190528
199	0x3ddbb318	0.10727519
200	0x3b087571	0.0020821954
201	0x3dc69ab9	0.0969748
202	0x3d9f13c9	0.077674456
203	0x3cfe2ee1	0.031028213
204	0xbd681110	-0.056656897
205	0x3e13918e	0.14410993
206	0xbe0b792c	-0.13620442
207	0x3d9aa98b	0.07551869
208	0xbdaa024c	-0.08301219
209	0x3e063872	0.1310747
210	0xbdc1515e	-0.09439348
211	0x3a5a56bd	0.0008328965
212	0x3df88330	0.12134397
213	0x3d8ae8bc	0.06782672
214	0x3d6037d5	0.054740746
215	0x3e10d5ff	0.14144133
216	0x3e3e1563	0.18562846
217	0x3dabaab2	0.08382167
218	0x3e1dec7f	0.15422247
219	0xbe620911	-0.22073771
220	0x3d3fee3d	0.04685806
221	0x3dc7c093	0.097535275
222	0x3da3cb8b	0.07997807
223	0xbd10cb61	-0.035350207
224	0x3cf6dd55	0.030134836
225	0xbd759d9e	-0.05996477
226	0x3e32e19d	0.17468877
227	0xbde87d5e	-0.11352037
228	0xbce478e8	-0.027889684
229	0x3e0acdf8	0.13555133
230	0xbda33877	-0.07969754
231	0x3dde8f23	0.10867145
232	0xbe08f5dc	-0.13375038
233	0xbc7ffcef	-0.015624269
234	0xbd0b463e	-0.034002535
235	0xbd8efbc9	-0.06981618
236	0x3e3e2fa5	0.18572862
237	0x3c1798db	0.009252752
238	0x3c908c5f	0.01764506
239	0x3dd3cc3f	0.10341691
240	0x3dbafc81	0.091301925
241	0x3da12400	0.078681946
242	0xbe070f8c	-0.13189524
243	0xbd96ee26	-0.07369642
244	0x3c9a0570	0.01880142
245	0xbd98bf6f	-0.07458388
246	0x3dd52c8b	0.104088865
247	0xbcb69ca6	-0.022291493
248	0x3de5b532	0.11216201
249	0xbcf5a84e	-0.02998748
250	0x3dbf3ade	0.093374
251	0x3d8f94e2	0.07010819
252	0x3d55586e	0.052086286
253	0xbe7afe77	-0.24511133
254	0x3ce0ef84	0.02745796
255	0x3e0b631c	0.13612026

bias f4 [8]
0	0x3dffa649	0.12482888
1	0xbd779fa9	-0.060455
2	0x3dd2ee89	0.10299403
3	0x3e2186be	0.15774056
4	0x3c01c3e3	0.007920238
5	0xbdb82008	-0.089904845
6	0x3da417ab	0.08012327
7	0x3cf52aeb	0.029927691

weight f4 [8]
0	0x3f7bdd84	0.9838488
1	0x3f89cf4c	1.0766387
2	0x3f766f7e	0.96263874
3	0x3f75874b	0.95909566
4	0x3f815d7c	1.0106654
5	0x3f877a08	1.0584116
6	0x3f808aa2	1.0042307
7	0x3f754a2f	0.9581632

bias f4 [8]
0	0x3d0a8da9	0.033826504
1	0x3cd5b27b	0.026086083
2	0x3cb56491	0.02214268
3	0x3d1ec543	0.038762342
4	0x3d456345	0.048190374
5	0xbb6ee801	-0.0036454203
6	0x3d0f367f	0.03496408
7	0xbbc3c121	-0.0059739505

running_mean f4 [8]
0	0x3ca7e7f7	0.020496352
1	0x3e5e283f	0.2169504
2	0x3e10fa59	0.14158
3	0x3f42c6b4	0.76084447
4	0x3d78963c	0.06069015
5	0x3eecaf88	0.4622767
6	0x3e0f102d	0.13971014
7	0x3e6fafb2	0.23406866

running_var f4 [8]
0	0x3b82ed54	0.003995577
1	0x3cac5fec	0.021041833
2	0x3cdeb9c2	0.027188186
3	0x3de010db	0.10940715
4	0x3c69e316	0.014275333
5	0x3cdf3b27	0.027249886
6	0x3cb83248	0.022484913
7	0x3d58a2d6	0.052889667

weight f4 [16, 8, 5]
0	0x3bbb3468	0.0057130344
1	0x3d73bf2c	0.059508488
2	0x3db8098d	0.08986197
3	0xbdd39eeb	-0.103330456
4	0xbb59d8d0	-0.0033240803
5	0x3d760994	0.06006773
6	0x3e40f2b3	0.18842582
7	0x3e48369d	0.19552083
8	0xbd8992d9	-0.06717462
9	0xbe1f7f3b	-0.15575878
10	0xbda39536	-0.07987444
11	0xbd600b5e	-0.05469834
12	0x3e14ba35	0.14524157
13	0x3d00b569	0.031423006
14	0x3c039c47	0.008032865
15	0xbde7ead1	-0.113240846
16	0x3d5e42f6	0.054263078
17	0xbe00fa5a	-0.12595502
18	0xbd9eea7f	-0.0775957
19	0xbd0eef18	-0.034895986
20	0xbdf146bb	-0.11781069
21	0xbd098cb6	-0.033581458
22	0x3e3a643f	0.18202303
23	0x3b3b24cf	0.0028555875
24	0xbe1c0f8b	-0.15240304
25	0x3e0faa85	0.14029892
26	0x3cf7b556	0.030237835
27	0xbdcb27d3	-0.09919705
28	0xbe149405	-0.1450959
29	0xbdafe4fc	-0.08588597
30	0xbd319444	-0.043354288
31	0x3d9c43ff	0.07630157
32	0xbd37e0f0	-0.04489225
33	0xbe33ec53	-0.1757062
34	0x3dd559b5	0.10417501
35	0x3d116103	0.03549291
36	0x3dc438b7	0.0958113
37	0x3dc29aaa	0.09502156
38	0x3d91f9cd	0.07127724
39	0xbdeda6d3	-0.11604085
40	0x3da5148f	0.08060562
41	0x3d6f3eea	0.05840961
42	0xbb3f69a8	-0.0029207263
43	0xbd3a1070	-0.045425832
44	0xbccd2fcb	-0.025047204
45	0xbc9ec4c4	-0.019380935
46	0x3c99f6b9	0.018794404
47	0x3d301a9a	0.04299412
48	0x3e16c72f	0.1472442
49	0x3d3dd8a1	0.04634917
50	0x3daecb27	0.08534842
51	0xbd1626c6	-0.03665807
52	0xbdc885d2	-0.09791149
53	0x3d9c58bc	0.07634112
54	0x3dafa2e2	0.08575989
55	0xba3311da	-0.0006830968
56	0x3b9762a6	0.004619914
57	0x3d919d8c	0.07110128
58	0xbe16974c	-0.14706153
59	0x3d0bd611	0.034139697
60	0xbdd25728	-0.1027053
61	0x3ba1db17	0.0049394476
62	0xbdd70bd0	-0.105003
63	0x3d8268af	0.06367623
64	0x3dad8d65	0.084742345
65	0x3d975010	0.073883176
66	0x3d97080d	0.073745824
67	0xbdc3008c	-0.09521589
68	0xbe330420	-0.17482042
69	0xbe199848	-0.14999497
70	0x3e3567c1	0.1771536
71	0xbdd0218e	-0.1016265
72	0xbd4b99cb	-0.049707215
73	0x3e07f260	0.13276052
74	0xbd9382b1	-0.07202662
75	0xbd70b5a8	-0.05876699
76	0x3d6f305a	0.05839572
77	0xbd155bdc	-0.036464557
78	0x3d8bedc1	0.06832457
79	0x3e150e02	0.14556125
80	0x3c65fdd9	0.014037573
81	0x3d189f57	0.037261333
82	0x3e037873	0.12838916
83	0x3d1ff8c2	0.039055593
84	0xbdf4bfb9	-0.11950631
85	0x3cb3a39a	0.021928597
86	0x3d84725a	0.06467123
87	0x3deda97d	0.11604593
88	0xbdaafe2d	-0.083492614
89	0xbda3ad0d	-0.07991991
90	0xbceeae33	-0.029135799
91	0xbdf63e11	-0.12023557
92	0x3c9bf13b	0.019035926
93	0x3c3963c7	0.011315293
94	0x3df67676	0.120343134
95	0x3b8a98a5	0.0042296224
96	0x3dbc656e	0.09199034
97	0xbdd76a38	-0.105183065
98	0x3d1000ab	0.035156887
99	0x3e34411e	0.17602965
100	0x3da7ac46	0.081871554
101	0x3c28335c	0.010266151
102	0x3dcea962	0.10090901
103	0x3b3d6b5c	0.0028903103
104	0x3caf4cb7	0.021398885
105	0xbdc04b0e	-0.093893155
106	0xbc75d376	-0.0150040295
107	0x3d8c4efc	0.068510026
108	0x3dc7a070	0.09747398
109	0x3dda0997	0.1064636
110	0xbc6cec82	-0.014460685
111	0x3dbca1ee	0.09210573
112	0xbd46f47a	-0.048572995
113	0xbd976ca7	-0.07393771
114	0x3ddb2039	0.10699505
115	0x3dc4040f	0.095710866
116	0xbd23cfd9	-0.03999314
117	0x3d97ff4f	0.07421743
118	0xbd021c86	-0.031765483
119	0x3e0f1137	0.1397141
120	0x3d7b793f	0.061394926
121	0xbdd60929	-0.10450966
122	0xbc0d8204	-0.008636955
123	0xbdba4e3d	-0.09096954
124	0xbcff89a6	-0.031193566
125	0xbe34be46	-0.17650709
126	0xbc7bf9cc	-0.01537938
127	0xbded17f8	-0.11576837
128	0x3bf8a910	0.007588513
129	0xbd97bece	-0.0740944
130	0xbdc0f660	-0.09421992
131	0xbd8d4f64	-0.06899908
132	0xbd4165f5	-0.047216374
133	0xbd6e45ac	-0.058171913
134	0x3e1006ad	0.14065047
135	0x3dbfb689	0.09360988
136	0xbdbb2cfd	-0.0913944
137	0x3d806116	0.06268518
138	0x3c9a5841	0.01884091
139	0xbe193c29	-0.14964356
140	0xbc949b83	-0.01814056
141	0x3e17db64	0.14829785
142	0xbdae32b5	-0.08505765
143	0x3ddec878	0.1087808
144	0xbdc57792	-0.09641947
145	0xbe190b47	-0.14945708
146	0xbc7ec434	-0.015549708
147	0x3de99218	0.11404818
148	0x3e0ca366	0.13734207
149	0x3dba62e5	0.09100894
150	0x3d7c9200	0.061662674
151	0x3db202c6	0.08691935
152	0xbd156d06	-0.036480926
153	0xbd00ca61	-0.031443004
154	0xbc8552fd	-0.016274923
155	0xbcbe861d	-0.02325731
156	0x3d296988	0.041360408
157	0x3dee875a	0.1164691
158	0x3d80fc70	0.06298149
159	0x3daf3122	0.08554293
160	0xbd4997fc	-0.04921721
161	0x3a233319	0.00062255707
162	0xbdeedbc3	-0.1166301
163	0x3d34bafa	0.044123627
164	0x3db538bb	0.08848711
165	0x3e232b94	0.15934592
166	0xbe466f6d	-0.19378443
167	0x3e009500	0.12556839
168	0xbe11e252	-0.1424649
169	0x3d88d1e1	0.06680656
170	0xbd573c6f	-0.05254787
171	0xbda6e8a8	-0.081498444
172	0x3c336cf2	0.010951268
173	0x3d48b95e	0.049004905
174	0xbe003255	-0.125192
175	0xbc832e76	-0.016013365
176	0xbd63f019	-0.055648897
177	0xbd7bcdbf	-0.06147551
178	0x3dd2fda4	0.10302284
179	0x3e07f63f	0.13277529
180	0xbd48b69a	-0.049002267
181	0x3c5919be	0.013250766
182	0xbdfbb233	-0.12289848
183	0xbdf9f903	-0.12205698
184	0x3e43bd7d	0.19115253
185	0xbdc21c5e	-0.09478067
186	0xbe136d19	-0.14397086
187	0xbd5b0e74	-0.05348058
188	0x3e1d203c	0.15344328
189	0x3e0d9353	0.13825731
190	0xbcc2734d	-0.02373662
191	0x3d1d4e2f	0.03840464
192	0xbcf695c5	-0.030100713
193	0xbd0343ca	-0.03204707
194	0x3e0aacdd	0.13542505
195	0x3d909c4b	0.070610605
196	0xbe231081	-0.15924264
197	0xbdc3207c	-0.0952768
198	0x3e20893a	0.15677348
199	0xbc64e5a6	-0.013970768
200	0xbdd717b1	-0.10502566
201	0x3d7c671f	0.06162178
202	0x3d9dec90	0.07711136
203	0x3d96e00e	0.07366954
204	0x3db89469	0.09012682
205	0xbd36de5e	-0.04464566
206	0x3dd2a51c	0.10285398
207	0x3e5a0a1c	0.21292919
208	0x3e451a23	0.19248252
209	0x3d934413	0.071907185
210	0xbdf6cf08	-0.12051207
211	0xbd3951e8	-0.045244128
212	0xbdda4185	-0.10657028
213	0xbdb2027a	-0.086918786
214	0xbde0640e	-0.10956584
215	0xbcc4cd06	-0.024023544
216	0x3c7ec2d0	0.015549377
217	0xbdab4924	-0.0836356
218	0x3b837ef9	0.004012939
219	0x3de7389b	0.112900935
220	0x3e14fad8	0.14548814
221	0xb98453a4	-0.0002523932
222	0xbdf2a337	-0.11847537
223	0x3dcae132	0.09906234
224	0x3d190c80	0.037365437
225	0x3d2e566a	0.04256288
226	0x3b84518c	0.0040380415
227	0xbbf10b2c	-0.007356068
228	0xbc899682	-0.0167954
229	0x3d87a9a3	0.066241525
230	0x3da807c1	0.08204604
231	0x3db7bc34	0.08971444
232	0xbd6210ad	-0.055191685
233	0x3e36d1a0	0.17853403
234	0x3d875cd2	0.06609501
235	0xbce3eb1e	-0.027822074
236	0xbdbf35c5	-0.093364276
237	0x3cab9101	0.020943167
238	0xbc8db3cd	-0.01729765
239	0xbad3d5b6	-0.0016161713
240	0xbca54dd0	-0.020178705
241	0x3d7fd678	0.062460393
242	0xbdb6a682	-0.089184776
243	0xbe37c5ad	-0.17946501
244	0x3d854001	0.065063484
245	0xbe2e84b7	-0.17042814
246	0x3e51e301	0.20496751
247	0x3e6e5c1e	0.23277327
248	0xbda51b30	-0.08061826
249	0x3df584db	0.11988231
250	0xbd99d0fb	-0.07510563
251	0x3e05ba93	0.13059454
252	0xbd4836df	-0.048880454
253	0x3ddb7bdd	0.107169844
254	0x3d381345	0.04494025
255	0xbe3acd6d	-0.18242426

bias f4 [16]
0	0xbe1b9f19	-0.1519741
1	0x3e026305	0.12733085
2	0x3ccfa866	0.025348853
3	0xbdf54b37	-0.11977237
4	0x3e11ef23	0.1425138
5	0x3d99cc91	0.07509721
6	0x3e17f018	0.14837682
7	0xbdca52de	-0.09879087
8	0xbe0cbfb4	-0.13745004
9	0xbd51c139	-0.051209662
10	0x3c2dcadd	0.010607448
11	0xbd669a4a	-0.056299485
12	0xbd5f8b4d	-0.054576207
13	0xbc32308d	-0.010875833
14	0xbe147f65	-0.14501722
15	0xbd8002ed	-0.06250558

weight f4 [16, 16, 5]
0	0xbbd48c5d	-0.006486459
1	0x3b7b2acb	0.0038325067
2	0xbda2c143	-0.07947018
3	0x3e0d8692	0.13820866
4	0x3dc722d7	0.09723442
5	0xbd2179c2	-0.039422758
6	0xbd48bca0	-0.04900801
7	0xbd3a17c9	-0.04543284
8	0xbd849a8f	-0.06474792
9	0xbdfe576b	-0.124190174
10	0xbc637037	-0.013881735
11	0x3d7fa70e	0.062415175
12	0x3db85540	0.09000635
13	0xbd620276	-0.05517813
14	0x3dc4ec19	0.096153446
15	0xbced5adf	-0.028973995
16	0x3e052a1e	0.13004348
17	0x3dc6a39d	0.096991755
18	0xbdc548ed	-0.0963305
19	0xbc904e5b	-0.017615488
20	0xbdc24f23	-0.094877504
21	0x3e15e574	0.1463831
22	0xbd28f3a3	-0.041247975
23	0xbd264eb7	-0.040602412
24	0xbd66a622	-0.05631078
25	0xbc4bb3e2	-0.012433024
26	0x3d5441ee	0.051820688
27	0x3cb09941	0.021557452
28	0x3d65daef	0.056116994
29	0xbd9e781c	-0.07737753
30	0xbdcabe2d	-0.098995544
31	0x3d9666df	0.0734384
32	0xbc194af7	-0.009356252
33	0xbbff32cd	-0.0077880383
34	0x3d1b2d04	0.037884727
35	0xbd9b71db	-0.075900756
36	0x3da6d03e	0.08145188
37	0xbddfe8b0	-0.109330535
38	0x3d28f858	0.041252464
39	0x3cef8eb4	0.02924285
40	0x3c7b0214	0.01532032
41	0x3dfc4fe9	0.12319929
42	0x3e1140fe	0.14184949
43	0xbd26d377	-0.040729012
44	0x3d24cc50	0.04023391
45	0x3cabc7bd	0.020969266
46	0x3d8e0526	0.06934576
47	0xbd29e183	-0.04147483
48	0xbdee3277	-0.11630719
49	0xbdaaf151	-0.08346809
50	0x3e12829f	0.1430764
51	0xbd1f2a88	-0.03885892
52	0xbd0c8633	-0.03430767
53	0xbdf44e2d	-0.11928973
54	0xbe17bfeb	-0.14819305
55	0x3c942683	0.01808477
56	0xbdae37c1	-0.08506728
57	0xbe06ba20	-0.13156939
58	0xbd77bd18	-0.06048307
59	0xbe17f113	-0.14838056
60	0xbd38a825	-0.04508223
61	0x3e03890f	0.12845252
62	0xbdcd0c83	-0.10012152
63	0xbd2a3632	-0.04155559
64	0xbe0b5e1c	-0.13610119
65	0x3cf1c2a8	0.029511765
66	0xbc019b7c	-0.0079106055
67	0xbe02c1fc	-0.12769312
68	0xbd322fa1	-0.043502454
69	0xbe039ec1	-0.12853529
70	0x3e03fade	0.12888667
71	0xbd00f523	-0.03148378
72	0xbd9b6fcb	-0.07589682
73	0x3d8cef0c	0.06881532
74	0x3d9d630f	0.076849096
75	0x3d1e7e52	0.038694687
76	0xbbfd46c1	-0.007729382
77	0x3dd56f87	0.10421663
78	0x3d0999e1	0.033594016
79	0x3d5d84f9	0.05408189
80	0xbcbd957c	-0.023142569
81	0xbd8e4c58	-0.06948155
82	0x3d2db11c	0.042405233
83	0x3e10c9df	0.14139508
84	0xbb58492b	-0.0033002596
85	0x3e095606	0.13411722
86	0xbda3221c	-0.0796549
87	0x3dadf575	0.08494083
88	0x3d888f90	0.066680074
89	0x3df827c7	0.12116962
90	0xbdfa7839	-0.12229962
91	0xbdeac96c	-0.114641994
92	0x3d839844	0.06425527
93	0x3d23acf0	0.039959848
94	0x3d3857a7	0.045005467
95	0x3dda6323	0.1066344
96	0x3bac08de	0.0052500805
97	0xbdaebaec	-0.08531746
98	0xbe20e2d0	-0.15711522
99	0x3d8c929e	0.068639025
100	0x3d67b07f	0.056564804
101	0x3bf8ef06	0.007596853
102	0xbdbefbbc	-0.09325358
103	0x3d97b5db	0.07407733
104	0xbd6e0d39	-0.05811808
105	0xbdee0daa	-0.116237
106	0xbde56eea	-0.11202796
107	0x3e050888	0.12991536
108	0xba738cf0	-0.00092907157
109	0xbc98667b	-0.018603554
110	0xbb0eabf8	-0.0021769982
111	0x3ca7a0a3	0.02046234
112	0xbd16571b	-0.036704164
113	0xbd4e4610	-0.050359786
114	0xbdb2aa32	-0.087238684
115	0xbbed8c69	-0.007249404
116	0xbd0dab4f	-0.0345872
117	0x3e0a33ce	0.13496324
118	0x3d9693b6	0.073523924
119	0x3d2de5c5	0.042455453
120	0x3b89b5d1	0.0042025824
121	0xbd8cc494	-0.06873432
122	0x3d9532c4	0.072850734
123	0x3ca20879	0.01977943
124	0xbdc5dc41	-0.09661151
125	0xbddc4bf6	-0.10756676
126	0xbce540d5	-0.027985016
127	0x3d1f9f3a	0.03897021
128	0xbdd930e4	-0.10605028
129	0xbc87f056	-0.016594093
130	0xbd08f7f1	-0.03343958
131	0x3d656d50	0.05601245
132	0xbd2ebeb0	-0.042662323
133	0xbd8b652e	-0.06806408
134	0xbd0b8568	-0.034062773
135	0x3de4d3fb	0.111732446
136	0x3d9caae1	0.0764978
137	0xbdcfe8e8	-0.10151845
138	0xbddbc61c	-0.10731146
139	0x3cc509d1	0.024052532
140	0x3daf6011	0.08563245
141	0xbd5a70ba	-0.05333016
142	0xbd4a2088	-0.04934743
143	0xbd629dd2	-0.05532629
144	0xbd9c87ed	-0.07643113
145	0x3d4e5cbc	0.050381407
146	0xbd769098	-0.06019649
147	0x3cb5fb20	0.022214472
148	0x3a88624d	0.0010405272
149	0x3d2cd4cd	0.04219513
150	0xbcfee442	-0.031114701
151	0x3bbb9c9a	0.0057254555
152	0xbcfc25dd	-0.030779773
153	0xbb3ed128	-0.0029116366
154	0x3d7a6317	0.061129656
155	0x3b1296d3	0.002236773
156	0xbdd8d490	-0.10587418
157	0xbd918fb1	-0.07107485
158	0x3d82cf7f	0.06387233
159	0xbdb669f8	-0.08906931
160	0xbcfb9a47	-0.030713214
161	0x3d9c7a60	0.07640529
162	0xbd9d6aa7	-0.07686358
163	0x3d713e72	0.058897443
164	0x3d2fe035	0.04293843
165	0x3d686d14	0.05674465
166	0xbe06c7b6	-0.13162121
167	0x3c1572d7	0.009121618
168	0x3c760c1b	0.015017535
169	0x3cba858a	0.022768755
170	0x3e169c36	0.14708027
171	0xbda3dba5	-0.08000878
172	0xbbd9776a	-0.0066365497
173	0xbdb6bab5	-0.0892233
174	0x3d24c326	0.04022517
175	0xbd9f6c1c	-0.07784292
176	0xbdf31fd3	-0.11871304
177	0xbd7145b8	-0.05890438
178	0xbce56c5e	-0.028005775
179	0x3dc1d032	0.09463538
180	0xbd9d5ea6	-0.076840684
181	0xbdcc88a9	-0.09987003
182	0xbdbc6da5	-0.092006005
183	0x3d2d2bc4	0.042278066
184	0x3e008ae2	0.1255298
185	0xbd30e3e4	-0.043186083
186	0x3dc9758d	0.09836874
187	0xbc8e2390	-0.017350942
188	0x3cfebdbe	0.031096336
189	0x3d66f57f	0.056386467
190	0xbc4f0f1e	-0.012637882
191	0x3d0719e2	0.03298367
192	0x3cceadbc	0.025229327
193	0x39d66a04	0.00040896249
194	0xbe2380a9	-0.15967049
195	0x3db817e6	0.08988933
196	0x3db45365	0.08804969
197	0x3d8a66e4	0.06757906
198	0x3d384b74	0.044993833
199	0xbd9c9e2f	-0.076473586
200	0xbd935ec9	-0.07195813
201	0xbb524b50	-0.0032088347
202	0xbdc0f7a0	-0.09422231
203	0xbdcf87ca	-0.101333216
204	0xbd7e35a4	-0.062062874
205	0xbe05c139	-0.1306199
206	0xbdb38a15	-0.087665714
207	0xbcff5b5d	-0.031171495
208	0x3d770efb	0.06031702
209	0xbc7c5ceb	-0.015403013
210	0x3d808bbc	0.06276652
211	0x3d42df58	0.04757628
212	0xbd926c2e	-0.0714954
213	0xbd0b203e	-0.033966295
214	0xbdde812f	-0.108644836
215	0xbe0ea86b	-0.13931434
216	0x3d1264c9	0.035740647
217	0x3d7efc71	0.062252466
218	0x3df00749	0.117201395
219	0x3d984b47	0.07436233
220	0x3de02841	0.10945178
221	0xbce2bbe7	-0.02767749
222	0x3d5d3bfe	0.05401229
223	0xbd38895a	-0.045052864
224	0xbd19ceaa	-0.037550606
225	0x3e4c0580	0.19923973
226	0xbcba54e2	-0.022745553
227	0x3da5814e	0.080813035
228	0x3d0ba256	0.034090362
229	0xbcba0558	-0.022707626
230	0x3d80c08c	0.062867254
231	0x3d8bd6b8	0.06828064
232	0xbd86d98d	-0.06584463
233	0xbca6556d	-0.020304406
234	0xbdbf7a64	-0.09349516
235	0x3dce581f	0.100754015
236	0xbc79b6d0	-0.01524134
237	0xbdaa3920	-0.08311677
238	0xbe06fe5c	-0.13182968
239	0xbdf55b8f	-0.11980354
240	0x3cb154cf	0.021646885
241	0xbda50fc2	-0.08059646
242	0xbd571444	-0.05250956
243	0xbdbe03fc	-0.09278104
244	0x3d2f2438	0.04275915
245	0x3db27591	0.0871383
246	0x3d820d6a	0.06350215
247	0xbd8832ba	-0.066503
248	0x3cbd9475	0.023142079
249	0xbd2a4c95	-0.04157694
250	0x3cc48a0f	0.023991613
251	0x3ce7ff2e	0.028319921
252	0x3da30a4d	0.07960949
253	0x3dbe43bb	0.09290262
254	0x3de5957b	0.11210152
255	0x3ca2bd78	0.019865736

bias f4 [16]
0	0x3d97e69e	0.074170336
1	0xbc9d717b	-0.01921915
2	0x3d916f81	0.07101346
3	0x3db96b6b	0.090536915
4	0xbd41f1f2	-0.047349878
5	0x3d933442	0.07187702
6	0xbb8cecbd	-0.0043006823
7	0x3cb54a14	0.02213005
8	0x3d90d94d	0.07072697
9	0x3df94712	0.12171759
10	0x3db1977c	0.086714715
11	0x3da8a712	0.08234991
12	0xbd96ae5b	-0.073574744
13	0xbda312ad	-0.079625465
14	0x3e1c8d52	0.15288284
15	0x3c29758f	0.01034297

weight f4 [16]
0	0x3f7a0b67	0.9767365
1	0x3f77a510	0.9673624
2	0x3f74c7e0	0.95617485
3	0x3f74ca6f	0.9562139
4	0x3f7c569e	0.9856967
5	0x3f7d882a	0.99035895
6	0x3f74f3c3	0.9568445
7	0x3f81c38b	1.01378
8	0x3f713654	0.94223523
9	0x3f80029e	1.0000799
10	0x3f8b42ec	1.0879798
11	0x3f836cd2	1.0267584
12	0x3f7bae64	0.98312974
13	0x3f89b116	1.0757167
14	0x3f7b8a72	0.98258126
15	0x3f7d6217	0.989778

bias f4 [16]
0	0xbd80c8f8	-0.06288332
1	0x3cb9ba32	0.022671793
2	0x3bbb4116	0.005714546
3	0x3be1b2c4	0.0068877656
4	0x3d4e908b	0.050430816
5	0x3d121f84	0.035674587
6	0x3d733227	0.059374
7	0x3d9dddbd	0.07708309
8	0x3cd9da09	0.026593225
9	0xbc89608a	-0.016769666
10	0x3bc4cded	0.0060059936
11	0x3d63b42c	0.055591747
12	0x3bd1f25f	0.0064070667
13	0xbc31af87	-0.010845072
14	0xbccf93e2	-0.02533907
15	0x3cbf6c0f	0.023366956

running_mean f4 [16]
0	0x3e3b4495	0.1828788
1	0x3e0b26bb	0.13588993
2	0x3eab18ad	0.33417264
3	0x3ecb95ca	0.39762717
4	0x3ebef6f5	0.37297788
5	0x3ecd1562	0.40055376
6	0x3ea563df	0.32302758
7	0x3e62daab	0.22153728
8	0x3e700815	0.23440583
9	0x3eba23f4	0.36355555
10	0x3ea1b54c	0.3158363
11	0x3ea9abf0	0.3313899
12	0x00000004	6e-45
13	0x3e4687ee	0.1938779
14	0x3e0162a7	0.12635289
15	0x3f062875	0.5240548

running_var f4 [16]
0	0x3d656a29	0.056009445
1	0x3d16bc66	0.036800765
2	0x3d67dc8f	0.056606825
3	0x3d4996c8	0.04921606
4	0x3d375533	0.044758987
5	0x3d8db246	0.069187686
6	0x3d821197	0.06351011
7	0x3dad16d0	0.08451617
8	0x3d4a4e1c	0.049390897
9	0x3d3aa8cd	0.045571137
10	0x3d26c179	0.040711854
11	0x3da9baad	0.08287559
12	0x00000004	6e-45
13	0x3d566cf3	0.052349996
14	0x3c992ee9	0.018699126
15	0x3d86607c	0.06561372

weight f4 [32, 16, 5]
0	0xbe162221	-0.14661457
1	0x3cb4b4b9	0.022058832
2	0xbd6c7757	-0.057731
3	0xbd0e959e	-0.034810655
4	0xbc30e4b7	-0.010796717
5	0xbb048e3e	-0.0020226385
6	0xbe087b81	-0.13328363
7	0x3b5b0781	0.003342122
8	0x3c1f375f	0.009717791
9	0x3d60b1dd	0.054857124
10	0xbcf865d4	-0.030321993
11	0xbda3e175	-0.08001987
12	0x3c52ab78	0.012858264
13	0x3bfea5e8	0.0077712424
14	0x3d8c98b4	0.06865063
15	0xbdae62f0	-0.085149646
16	0xbdb3fab6	-0.08788054
17	0xbded45f3	-0.115856074
18	0xba8ecd45	-0.0010894915
19	0x3e182ee7	0.14861642
20	0xbe074a85	-0.1321202
21	0x3c3564d1	0.0110714
22	0x3d1309a2	0.03589786
23	0x3d51555c	0.051106796
24	0x3cd07690	0.02544716
25	0x3cf245fa	0.029574383
26	0x3d40872d	0.047003914
27	0xbe0e7f4c	-0.13915747
28	0xbe0a62c9	-0.13514246
29	0x3d663534	0.056203082
30	0xbcc523b2	-0.024064872
31	0xbd66d0e5	-0.05635156
32	0xbd91958a	-0.071086004
33	0xbbd01b8e	-0.006350941
34	0xbcb83fe7	-0.022491409
35	0x3d898b5e	0.06716035
36	0xbe0615d4	-0.13094264
37	0xbd31fdfe	-0.043455116
38	0xbd49e5a3	-0.049291264
39	0x3e075b18	0.13218343
40	0xbde953f2	-0.113929644
41	0xbe31896b	-0.17337577
42	0xbd8d6923	-0.06904819
43	0xbccd3681	-0.025050404
44	0x3d11f358	0.03563246
45	0xbdf7f25d	-0.12106774
46	0x3d0bec60	0.03416097
47	0xbd6909f4	-0.056894258
48	0x3db5b38a	0.08872135
49	0xbce4c13f	-0.027924178
50	0xbb25ae7d	-0.0025281005
51	0x3c3d3048	0.011547156
52	0x3c2e6317	0.010643742
53	0x3db89c9a	0.090142444
54	0xbe05b613	-0.13057737
55	0xbc30573a	-0.010762984
56	0xbbbccde9	-0.005761851
57	0xbdd73608	-0.105083525
58	0x3dd1f5ac	0.10251936
59	0xbd33aecc	-0.04386787
60	0xbd4ea0ce	-0.050446324
61	0xbdd385c9	-0.10328252
62	0xbdede34b	-0.11615618
63	0xbd6c847e	-0.057743542
64	0xbd42e8cf	-0.047585305
65	0xbe1111ba	-0.14166918
66	0xbd414f06	-0.047194503
67	0xbc7d6a78	-0.015467279
68	0x3d8cf1e9	0.06882078
69	0xbc8a0277	-0.016846878
70	0xbd6818e6	-0.05666437
71	0x3da79a9d	0.08183787
72	0x3da96b63	0.082724355
73	0xbd3aea0a	-0.045633353
74	0x3cf6d4be	0.03013074
75	0x3d93b0fc	0.072114915
76	0xbde245b0	-0.11048448
77	0xbdba44ad	-0.0909513
78	0xbd222e90	-0.039595187
79	0xbc429bd6	-0.0118779745
80	0xbcceec0e	-0.025259044
81	0xbdd0707a	-0.10177703
82	0xbda924a1	-0.082589395
83	0xbd7f2aca	-0.062296666
84	0x3da2a9b2	0.07942523
85	0x3b367654	0.0027841525
86	0xbc8a211a	-0.016861487
87	0x3c5c010f	0.013427987
88	0x3daa4a84	0.08314994
89	0x3d5e522a	0.054277577
90	0x3cf9f857	0.030513925
91	0x3d8cc19a	0.06872864
92	0x3d7358e1	0.059410933
93	0x3d8212da	0.06351252
94	0xbdd36f25	-0.103239335
95	0xbbcc3b93	-0.0062326877
96	0x3de23b1e	0.11046432
97	0xbe090dce	-0.13384172
98	0x3c0a0b12	0.008425491
99	0xbd63ed75	-0.05564638
100	0x3ca77f63	0.020446485
101	0xbda2974e	-0.07939015
102	0xbd3dcf2d	-0.046340156
103	0xbd49d545	-0.049275655
104	0x3d5851f2	0.052812524
105	0xbd8e3e4d	-0.06945477
106	0x3da8906b	0.082306705
107	0xbdd291aa	-0.102816895
108	0xbdecc415	-0.11560837
109	0x3c888240	0.01666367
110	0x3d6efe46	0.058347963
111	0xbd1c4204	-0.038148895
112	0xbdd75d5e	-0.10515855
113	0xbd37ae32	-0.04484386
114	0x3e2568d4	0.1615327
115	0x3d31aa3e	0.043375246
116	0xbc4a2c68	-0.012339689
117	0x3d6076e2	0.054800875
118	0xbd7e0dbe	-0.062024824
119	0x3e2db9db	0.1696543
120	0x3d982e26	0.07430677
121	0xbd2b0363	-0.041751277
122	0xbdc6eb18	-0.09712809
123	0x3d9dbbbc	0.07701823
124	0xbd31be6e	-0.0433945
125	0xbe139093	-0.1441062
126	0x3d57b5c2	0.052663572
127	0x3dc9cb8c	0.098532766
128	0x3cf619a7	0.030041529
129	0x3d73d2c6	0.05952718
130	0xbd1b8098	-0.037964433
131	0xbd841f59	-0.064512916
132	0x3d8e0299	0.06934089
133	0x3e154a6c	0.14579171
134	0x3e060668	0.13088381
135	0x3db213df	0.08695196
136	0xbc70933a	-0.014683539
137	0xbd72cc2b	-0.05927674
138	0xbdee23d8	-0.116279304
139	0xbd14434a	-0.036196984
140	0x3cbab8a3	0.02279312
141	0xbd6ffc27	-0.05859008
142	0x3d83b963	0.06431844
143	0xbde00bb0	-0.10939729
144	0x3d556f1b	0.05210791
145	0xbdd83e4f	-0.105587594
146	0xbe0f12ee	-0.13972065
147	0xbd283e4c	-0.041075036
148	0x3e1596cc	0.14608306
149	0x3e2e93a1	0.17048503
150	0xbca5ee9e	-0.020255383
151	0x3d1e915f	0.038712855
152	0xbcc04f91	-0.02347544
153	0xbda82304	-0.08209804
154	0xbbdaa579	-0.006672558
155	0xbd0b54a4	-0.034016266
156	0xbe37c851	-0.17947508
157	0x3de7fb75	0.113272585
158	0x3c473a76	0.012159934
159	0x3dc91474	0.09818354
160	0x3d07825f	0.033083316
161	0x3b9c6d40	0.004773766
162	0xbd727586	-0.05919411
163	0xbd2ab062	-0.041672118
164	0x3d1ddb09	0.038538966
165	0xbcdaf84e	-0.026729729
166	0x3dcd3e07	0.100215964
167	0x3e098d6f	0.13432859
168	0xbdc1e390	-0.09467232
169	0xbc19b8d1	-0.009382443
170	0xbcde140e	-0.027109172
171	0x3c012914	0.007883329
172	0xbdde6e72	-0.108609095
173	0x3c8c6445	0.017137656
174	0x3d6725f4	0.05643268
175	0xbd0754a6	-0.03303971
176	0x3d929cee	0.07158838
177	0x3de1bc8a	0.11022289
178	0xbd92b2d3	-0.07163014
179	0x3d44ed91	0.048078123
180	0xbd8e3695	-0.069440044
181	0xbdcc7087	-0.099824004
182	0xbcecdff2	-0.02891538
183	0x3e575737	0.21029364
184	0xbdb1baab	-0.08678182
185	0xbb5f08e2	-0.0034032394
186	0x3dbe1806	0.09281926
187	0x3d9fc17d	0.07800577
188	0x3be1bc65	0.0068889135
189	0x3d8b425d	0.06799767
190	0x3da50fdb	0.08059665
191	0x3d5e4057	0.054260578
192	0xbce8963c	-0.02839195
193	0x3cb55124	0.022133417
194	0x3bfe79bc	0.0077659767
195	0xbe239075	-0.15973075
196	0x3d86f69d	0.065900065
197	0x3cc6bb3f	0.024259208
198	0x3d9f6933	0.07783737
199	0x3ce643f2	0.02810857
200	0x3ce116bb	0.027476659
201	0x3b75f8bb	0.0037532288
202	0x3d6f8fd8	0.05848679
203	0xbd3343b6	-0.043765746
204	0xbca6255e	-0.02028149
205	0x3c14dc9e	0.009085802
206	0xbd942b54	-0.07234827
207	0x3cc58c10	0.024114639
208	0xbbafcc0b	-0.0053649
209	0x3da50662	0.08057858
210	0x3dae7a08	0.08519369
211	0xbe03c9a1	-0.12869884
212	0x3d8233f7	0.06357568
213	0xbcb04797	-0.021518512
214	0x3e00f369	0.12592854
215	0xbde37895	-0.111069836
216	0x3c7b8c88	0.0153533295
217	0x3c2b9cd7	0.010474405
218	0x3e151200	0.14557648
219	0xbdc3eb94	-0.09566417
220	0xbc9d4c3c	-0.01920139
221	0xbd8dbe27	-0.06921034
222	0x3c8bfc32	0.01708803
223	0xbdc414ec	-0.09574303
224	0xbcc823e2	-0.024431173
225	0x3dc57101	0.096406944
226	0xbdc29359	-0.095007606
227	0xbd25e33b	-0.040499907
228	0x3e17353f	0.14766406
229	0x3c839298	0.016061112
230	0xbba6f4bc	-0.0050950926
231	0xbdb1369a	-0.086529925
232	0x3de7cb56	0.1131808
233	0xbd0562b9	-0.032564852
234	0xbdf65b01	-0.12029076
235	0xbcfea260	-0.031083286
236	0xbb9f6ac6	-0.0048650233
237	0xbd551c92	-0.0520292
238	0x3d0f844f	0.03503829
239	0xbcdf72c2	-0.0272764
240	0x3c64387b	0.013929482
241	0x3dcdadbf	0.10042905
242	0xbcfb3b64	-0.030667968
243	0xbda7023e	-0.081547245
244	0x3d7ec57b	0.06220005
245	0xbc654af6	-0.013994923
246	0x3cb6dad7	0.022321148
247	0x3ccb9f64	0.024856277
248	0x3e008515	0.12550767
249	0x3dcc9ac0	0.09990454
250	0x3d8fc31b	0.07019635
251	0x3dbefb39	0.09325261
252	0x3d0328bf	0.03202128
253	0x3c81875d	0.015811617
254	0x3d4ad2e7	0.04951754
255	0xbc315879	-0.010824316

bias f4 [32]
0	0x3c92ba83	0.017911201
1	0x3d0b8454	0.034061745
2	0xbd3e49c7	-0.04645708
3	0x3d242b4e	0.04008036
4	0xbca22cfc	-0.01979684
5	0xbd13a601	-0.036046986
6	0xbd5ed237	-0.054399695
7	0x3d13aa5f	0.03605115
8	0xbd1bbd18	-0.03802213
9	0x3dc65011	0.0968324
10	0x3c115198	0.008869551
11	0xbd84f89e	-0.064927325
12	0x3dbffc6f	0.0937432
13	0x3e117e96	0.14208445
14	0xbdc7b5c7	-0.09751468
15	0xba9c4141	-0.0011921303
16	0x3c8f8e7e	0.017524
17	0xbe016f08	-0.12640011
18	0xbd84d241	-0.06485415
19	0xbd7b1794	-0.061301783
20	0x3e07a979	0.13248242
21	0x3d0ed647	0.03487232
22	0x3b5c024c	0.0033570705
23	0x3d9c0870	0.07618797
24	0xbda12e59	-0.07870168
25	0x3d624a08	0.055246383
26	0xbdc5be02	-0.09655382
27	0xbd075060	-0.033035636
28	0x3d421f26	0.047392987
29	0x3d8fe371	0.07025803
30	0x3d4bc953	0.049752545
31	0xbdd30212	-0.10303129

weight f4 [32, 32, 5]
0	0xbd559a2f	-0.052148994
1	0xbd4e00f5	-0.05029388
2	0x3c9966c4	0.01872576
3	0xbd852250	-0.06500685
4	0xbd446f41	-0.047957662
5	0x3d1b9e6e	0.037992887
6	0xbd5a2fd5	-0.053268272
7	0x3c8d6a64	0.017262645
8	0x3ba8d89f	0.0051527764
9	0xbd2e9f58	-0.04263243
10	0xba55ee1e	-0.00081607874
11	0xbcc0aeea	-0.023520906
12	0xbcb297e2	-0.021800939
13	0xbdc354e1	-0.09537674
14	0xbd80be73	-0.06286325
15	0xbd80387d	-0.06260774
16	0xbd1623ce	-0.03665524
17	0xbdce79b5	-0.100818075
18	0xbd89b18a	-0.06723316
19	0xbdbf8485	-0.09351448
20	0xbc8aaeab	-0.016928991
21	0x3d40ffa2	0.04711879
22	0x3bb49f57	0.005512159
23	0xbca37522	-0.019953314
24	0xbc9f5780	-0.019450903
25	0xbd94bf71	-0.07263077
26	0x3cc2a8ab	0.023762068
27	0xbda5c8e9	-0.08094961
28	0x3bb65bca	0.0055651413
29	0xbd58d32e	-0.05293577
30	0x3cf52b73	0.029927945
31	0xbd73165e	-0.059347503
32	0xba170749	-0.00057612784
33	0xbdba03c2	-0.09082748
34	0xbcadcb55	-0.02121512
35	0x3cba0eb2	0.022712085
36	0x3c46fb1f	0.012144833
37	0xbd987d35	-0.07445756
38	0xbdff4ef8	-0.12466234
39	0x3c48997b	0.012243624
40	0x3c60e335	0.013726045
41	0x3d3b93ac	0.045795128
42	0xbd07d719	-0.033164117
43	0x3b82ff7c	0.0039977413
44	0x3d0b99e1	0.034082297
45	0x3cb35861	0.021892728
46	0x3b2c80ef	0.0026321968
47	0xbbd2ff53	-0.0064391284
48	0xbcc20594	-0.0236843
49	0xbd681825	-0.05666365
50	0x3d4af1ad	0.049546886
51	0xbb4effc4	-0.0031585554
52	0x3d1bc5a3	0.038030278
53	0xbda72e00	-0.08163071
54	0x3ce9c3ff	0.028535841
55	0x3d1d1b8a	0.03835634
56	0xbdaefd26	-0.08544378
57	0xbdd4753b	-0.103739224
58	0xbd8d2516	-0.06891839
59	0xbd9ec903	-0.07753184
60	0x3d3cde39	0.046110366
61	0x3a8faf88	0.0010962347
62	0x3d2aa1a7	0.04165807
63	0x3d5932b2	0.053026862
64	0x3d2d164c	0.042257592
65	0xbd3357bd	-0.043784846
66	0xbb8dfa1f	-0.0043327953
67	0xbd940a26	-0.07228498
68	0xbd24908e	-0.04017692
69	0xbc1edb42	-0.00969583
70	0x3cf498ca	0.029858012
71	0x3d29f601	0.041494373
72	0xbd2d672f	-0.04233473
73	0xbda9844e	-0.08277188
74	0x3cc01815	0.023448983
75	0xbd730607	-0.05933192
76	0xbd922fdf	-0.07138037
77	0xbdc0a543	-0.09406521
78	0x3b0152dc	0.0019733226
79	0x3ac36862	0.0014908428
80	0x3c84a05c	0.016189747
81	0xbd99030b	-0.074712835
82	0xbd2e44db	-0.042546134
83	0xbdbea179	-0.09308142
84	0x3d131f53	0.035918545
85	0x3d57ec6f	0.052715715
86	0xbc774925	-0.015093123
87	0xbcd1e8ff	-0.025623797
88	0x3d298004	0.04138185
89	0xbd3606a2	-0.04443992
90	0x3bed75f3	0.0072467267
91	0x3d03ffd5	0.032226402
92	0xbb8ca5ba	-0.004292217
93	0x3d175114	0.036942557
94	0x3cb636f2	0.022242997
95	0x3d5d34c5	0.054005403
96	0x3cec4192	0.02883986
97	0x3c42541a	0.011860872
98	0xbdcc9674	-0.09989634
99	0xbd93fdbf	-0.072261326
100	0xbd258d76	-0.04041811
101	0xbd25caf5	-0.040476758
102	0xbdb0addf	-0.08626913
103	0x3d846762	0.06465031
104	0xbd26335f	-0.040576335
105	0x3cd45c1d	0.02592283
106	0x3d18b0e6	0.03727808
107	0xbdfa11b8	-0.12210411
108	0xbd3bd400	-0.045856476
109	0xbb3d435e	-0.0028879265
110	0xbcd874ab	-0.02642282
111	0xbd944d37	-0.0724129
112	0x3c5d0ecf	0.0134923
113	0x3d6d2982	0.057900913
114	0xbd893649	-0.06699807
115	0xbd8313e2	-0.06400277
116	0xbd9221cd	-0.07135353
117	0x3d03aa52	0.032144852
118	0xbd24e429	-0.040256653
119	0xbda5f21a	-0.08102818
120	0x3cc83190	0.024437696
121	0x3c24ec8c	0.010066163
122	0x3cd24a50	0.0256702
123	0x3bb2dfd1	0.00545881
124	0xbd2571d1	-0.040391747
125	0xbc4c6f17	-0.012477658
126	0xbd8f94be	-0.07010792
127	0x3d382c07	0.044963863
128	0x3d0fac3e	0.035076372
129	0xbd9fdd0e	-0.07805835
130	0x3c84afc5	0.016197095
131	0x3cdd6735	0.027026752
132	0x3c704ad8	0.014666282
133	0xbb9eb89c	-0.0048437845
134	0xbc8b4c91	-0.017004283
135	0xbd888a98	-0.0666706
136	0xbda1fdf5	-0.079097666
137	0xbdc1ef29	-0.09469444
138	0xbdc44919	-0.09584255
139	0xbd44e4c0	-0.048069715
140	0x3cf02b3b	0.029317489
141	0xbde9ba82	-0.11412527
142	0x3d517a06	0.05114176
143	0xbcea6b99	-0.02861576
144	0x3dae109d	0.084992625
145	0x3d55cbdb	0.052196365
146	0x3d792d30	0.06083411
147	0xbdbbecee	-0.0917605
148	0xbdd573e9	-0.10422499
149	0xbda4ca2a	-0.08046372
150	0xbbd787f5	-0.0065774866
151	0xbd9c798d	-0.076403715
152	0xba0a327a	-0.0005271804
153	0xbd42f1ce	-0.047593884
154	0xbd8d0366	-0.06885414
155	0x3c121ad2	0.008917527
156	0xbd941f73	-0.07232561
157	0x3ca43f49	0.020049708
158	0x3d562471	0.052280847
159	0x3d5216f4	0.05129142
160	0x3c1aff84	0.009460334
161	0xb9530960	-0.0002012602
162	0x3d1b1788	0.037864238
163	0x3d3ad0df	0.04560935
164	0xbc1c2f75	-0.009532799
165	0xbb346149	-0.0027523807
166	0xbceabe6d	-0.028655255
167	0xbd595ee9	-0.05306903
168	0xbd14174a	-0.036155023
169	0xbcfec4b6	-0.031099658
170	0xbd13defc	-0.036101326
171	0xbd15f1f0	-0.036607683
172	0xbd86e847	-0.06587272
173	0x3d80726a	0.06271823
174	0xbda988ac	-0.08278021
175	0xbc9f8d11	-0.019476445
176	0xbd8a4204	-0.06750873
177	0x3bf1b821	0.007376686
178	0xbd4c6cf5	-0.049908597
179	0x3d5d0601	0.053960804
180	0xb8bde366	-9.0545785e-05
181	0xbda9c340	-0.08289194
182	0xbca9d06e	-0.02072927
183	0x3c620a80	0.013796449
184	0x3c74913e	0.014927207
185	0x3caf698a	0.02141263
186	0xbcb65a97	-0.022259993
187	0x3ce34f18	0.027747676
188	0xbc9c2c48	-0.019064084
189	0xbd055177	-0.032548394
190	0xbdda948c	-0.10672864
191	0xbda43073	-0.080170535
192	0x3d26b171	0.040696565
193	0xbda5a361	-0.08087803
194	0xbd6e1b89	-0.05813173
195	0xbdc5e029	-0.09661896
196	0xbcc63d11	-0.02419904
197	0xbc986a28	-0.018605307
198	0x3c8c5ff2	0.017135594
199	0xbdc2e1bd	-0.095157124
200	0x3c9f9116	0.019478362
201	0xbcf761fa	-0.030198086
202	0x3d56fea5	0.05248894
203	0xbba8ef74	-0.005155498
204	0x3d27b187	0.040940788
205	0x3cdf9f33	0.027297592
206	0xbd167124	-0.036728993
207	0x3d0d7637	0.034536567
208	0x3ca1c5df	0.019747673
209	0xbdc7494d	-0.09730778
210	0xbdb4d544	-0.0882974
211	0xbda63e59	-0.081173606
212	0xbd804a9b	-0.0626423
213	0xbd465ea0	-0.048430085
214	0x3c7eeff5	0.01556014
215	0xbdc41a73	-0.09575357
216	0xbd43b902	-0.04778386
217	0xbda5896c	-0.08082852
218	0xbd01707b	-0.03160141
219	0x3bbdd268	0.0057929046
220	0x3b99d72b	0.0046948395
221	0xbd1f99d1	-0.03896505
222	0xbdff68dd	-0.12471173
223	0xbddd4467	-0.10804062
224	0xbce5a685	-0.028033504
225	0xbce034da	-0.027368952
226	0x3d6f05ed	0.05835526
227	0xbdc43a94	-0.095814854
228	0xbac1e7ea	-0.0014793847
229	0x3d4857d4	0.048911884
230	0xbd2529aa	-0.040322937
231	0xbb78e7c6	-0.0037979945
232	0x3c9e4ebf	0.019324658
233	0xbd9b2036	-0.07574503
234	0xbd899651	-0.06718124
235	0x3ce1dd31	0.027571293
236	0xbd875f71	-0.06610001
237	0xbcd18bf5	-0.025579432
238	0x3c470380	0.012146831
239	0xbdc532ed	-0.09628854
240	0xbcfe79bd	-0.031063909
241	0xbdbe30f3	-0.0928668
242	0x3cd3c2f6	0.0258498
243	0xbd6419cc	-0.055688664
244	0xbc429c03	-0.011878016
245	0x3ca9bdc9	0.02072038
246	0xbda63db0	-0.08117235
247	0xbc57d9e9	-0.013174512
248	0xbd12f783	-0.035880577
249	0x3d3cfe10	0.04614073
250	0xbb756fe1	-0.0037450718
251	0x3d13861a	0.03601656
252	0xbc3988c2	-0.0113241095
253	0x3d9098dc	0.070604056
254	0x3dc1dbf7	0.09465783
255	0xbd394c87	-0.045238998

bias f4 [32]
0	0xbcc540c8	-0.024078742
1	0xbd482867	-0.048866656
2	0xbdab81cd	-0.08374367
3	0xbd00bb0f	-0.031428393
4	0x3c2a84b0	0.010407612
5	0x3df30ad3	0.11867299
6	0xbc6357fc	-0.013875958
7	0xbdea0a3f	-0.114277355
8	0xbd838efe	-0.06423758
9	0x3c7fd53a	0.015614802
10	0xbd1c36f0	-0.03813833
11	0x3d5916f8	0.05300042
12	0x3d5a4ad1	0.053294007
13	0x3d2577ee	0.040397577
14	0x3d845056	0.06460635
15	0xbd0e938d	-0.034808684
16	0x3d87fba0	0.066397905
17	0x3df2a368	0.118475735
18	0xbd5dc452	-0.054142304
19	0xbccc5a81	-0.0249455
20	0xbd000f43	-0.031264555
21	0x3d6f854b	0.058476727
22	0x3de1a640	0.11018038
23	0x3db68309	0.08911712
24	0xbd632768	-0.055457503
25	0x3d614a91	0.055002753
26	0x3c82bb81	0.01595855
27	0x3e0846c1	0.1330824
28	0x3d9252ee	0.07144724
29	0xbabc16f0	-0.0014350098
30	0x3bdcbb25	0.0067361766
31	0x3da306c1	0.079602726
