results/SV_unet_lonlat_5s.pt (torch, 92605 bytes, 47 tensors)

weight f4 [2]
0	0x3f852da4	1.0404553
1	0x3f72669c	0.9468782

bias f4 [2]
0	0x3be3a2b2	0.006946885
1	0x3dbda335	0.09259645

running_mean f4 [2]
0	0xbd2a760b	-0.04161648
1	0xbc2eedef	-0.010676845

running_var f4 [2]
0	0x3f74d7ec	0.9564197
1	0x3f74eaf6	0.9567102

weight f4 [8, 2, 5]
0	0xbe80eb2e	-0.25179428
1	0x3c66e3bd	0.014092383
2	0x3e3f6868	0.18692172
3	0x3daf157a	0.08549018
4	0xbe96241f	-0.29324433
5	0x3e808135	0.25098577
6	0xbe95224e	-0.29127735
7	0xbeb03b17	-0.34420082
8	0x3d6d82ad	0.05798595
9	0xbe2040d8	-0.15649736
10	0xbdfa816b	-0.12231716
11	0x3df67125	0.12033299
12	0xbe8fd5ac	-0.28092706
13	0x3d3b9b0f	0.045802172
14	0xbe0cc51d	-0.13747068
15	0x3e4f4c65	0.20243986
16	0xbdba6331	-0.091009505
17	0x3e6e3986	0.23264131
18	0x3e007b9b	0.12547152
19	0x3c10b60d	0.008832467
20	0x3d0f7851	0.035026852
21	0x3e639592	0.22225025
22	0xbdb0abf8	-0.086265504
23	0x3e4c6908	0.19961941
24	0xbe5651aa	-0.2092959
25	0x3e98bb34	0.29830325
26	0xbdc0a9f4	-0.09407416
27	0xbe085fad	-0.13317747
28	0xbe7dd766	-0.24789199
29	0x3dce97ec	0.100875705
30	0xbe362ea3	-0.17791228
31	0x3e6bd9c6	0.23032293
32	0x3e2267a8	0.15859854
33	0x3e4de872	0.20108202
34	0x3ea93f3a	0.3305605
35	0xbd25cf12	-0.04048068
36	0xbd05e926	-0.03269305
37	0xbdcf86f7	-0.101331644
38	0x3e882806	0.26593035
39	0x3e8dd562	0.2770186
40	0x3e45e8e5	0.19327123
41	0x3e82bec7	0.25536177
42	0xbe32c079	-0.17456235
43	0x3e2ee111	0.17078044
44	0xbdaa92d8	-0.083287895
45	0x3ea39e60	0.31956768
46	0xbe5efccb	-0.2177612
47	0xbe3888ae	-0.18020889
48	0x3e99fcde	0.30075735
49	0xbe06bc2f	-0.13157724
50	0x3d00b508	0.031422645
51	0x3ebb16ec	0.36540926
52	0x3eacd316	0.33754796
53	0xbe972145	-0.2951757
54	0x3e568e79	0.20952787
55	0x3e40ad9d	0.18816228
56	0xbe8d27bc	-0.27569377
57	0x3d004274	0.031313375
58	0x3e6aa37c	0.22913927
59	0x3d22c7ff	0.039741512
60	0xbd71a831	-0.05899829
61	0xbd7d1d4a	-0.06179551
62	0xbdecd9be	-0.115649685
63	0xbe0245aa	-0.12721887
64	0xbe9fe845	-0.31231895
65	0x3e0d2be3	0.13786273
66	0x3e35e4df	0.17763089
67	0xbe8292e4	-0.25502694
68	0x3d5f4097	0.054504957
69	0xbe653bef	-0.22386144
70	0xbdb13ffa	-0.08654781
71	0xbe518445	-0.20460613
72	0xbe8b18da	-0.27167398
73	0xbe2f3562	-0.17110208
74	0xbe8f3ba1	-0.2797518
75	0xbea8b66e	-0.32951683
76	0x3e26a821	0.16275074
77	0xbd115087	-0.035477187
78	0x3d84cd73	0.06484499
79	0x3e162390	0.14662004

bias f4 [8]
0	0xbd285221	-0.04109395
1	0xbeafb826	-0.34320182
2	0x3d5244ce	0.05133515
3	0x3c21a33c	0.009865578
4	0xbcc0f70e	-0.023555305
5	0x3e448f48	0.19195282
6	0x3e87f97e	0.26557535
7	0xbd95047e	-0.072762474

weight f4 [8, 8, 5]
0	0xbe362f00	-0.17791367
1	0x3cd74273	0.026276803
2	0x3d909353	0.0705935
3	0xbe11b779	-0.14230146
4	0xbda1efb6	-0.07907049
5	0xbe1d9263	-0.15387873
6	0xbd020fe4	-0.031753436
7	0x3e213cc3	0.15745835
8	0xbe103630	-0.14083171
9	0x3dac942a	0.084266976
10	0x3d4ed9df	0.050500747
11	0x3e0b0cc4	0.13579088
12	0xbdc2d936	-0.09514086
13	0xbc31d8fe	-0.010854958
14	0xbc8d78cf	-0.01726952
15	0xbd7904a6	-0.06079545
16	0xbe303f6f	-0.17211698
17	0xbe1d7e84	-0.15380293
18	0xbe2dcc91	-0.16972567
19	0x3c27e3a9	0.0102471495
20	0xbdb9a44c	-0.0906454
21	0xbe0bb997	-0.13645016
22	0x3da98526	0.08277349
23	0xbde44f6c	-0.11147961
24	0x3d985547	0.0743814
25	0x3d889887	0.06669717
26	0xbe2a02ea	-0.16602674
27	0xbd8930d6	-0.06698768
28	0xbe3101cb	-0.1728584
29	0xbdb99dd0	-0.090633035
30	0xbd350a94	-0.04419954
31	0x3d881e23	0.06646373
32	0x3c7764b4	0.015099693
33	0x3df230e3	0.11825731
34	0x3da2b14e	0.079439744
35	0xbc31b0c5	-0.010845368
36	0xbe01c168	-0.12671435
37	0xbaf2095e	-0.0018465926
38	0x3d15210b	0.036408465
39	0xbda40921	-0.08009554
40	0x3e1b8996	0.15189204
41	0xbdef3d8c	-0.11681661
42	0x3e2e4e20	0.1702199
43	0x3d781f0b	0.06057648
44	0xbdd313e3	-0.103065275
45	0xbc859208	-0.016304985
46	0xbced2b5f	-0.028951345
47	0xbb8de586	-0.00433034
48	0xbd8f30b8	-0.06991714
49	0x3e32df14	0.1746791
50	0x3d0b418b	0.033998054
51	0xbdf04ad4	-0.11733022
52	0xbdede818	-0.11616534
53	0x3e173da0	0.14769602
54	0x3e1ac18a	0.15112892
55	0xbe22c87a	-0.15896788
56	0x3e0d6b3d	0.1381044
57	0x3e2d77c9	0.16940226
58	0xbdd25dc7	-0.10271793
59	0x3e1ba62e	0.15200111
60	0xbd90a00c	-0.070617765
61	0xbe0821a7	-0.13294087
62	0xbe15faf3	-0.14646511
63	0x3cad953a	0.02118932
64	0x3c8d6f16	0.017264884
65	0xbd931217	-0.07181185
66	0xbe24d01e	-0.16095015
67	0x3d0c5a93	0.034266066
68	0xbd75fd97	-0.060056295
69	0x3e2eaacb	0.1705734
70	0x3c90cafb	0.017674914
71	0xbc1a5aa4	-0.0094210245
72	0x3e249608	0.16072857
73	0xbdf6f9f4	-0.120593935
74	0x3dfe5896	0.1241924
75	0x3c496a9f	0.012293487
76	0xbd4accc9	-0.049511705
77	0xbd363e3a	-0.044492938
78	0xbde73759	-0.112898536
79	0x3de06a7f	0.109578125
80	0x3e0b8714	0.13625747
81	0xbddbc308	-0.10730559
82	0xbe15f3a3	-0.14643721
83	0x3d5a1b7b	0.053248864
84	0x3cdc6936	0.026905637
85	0x3d29717b	0.04136799
86	0xbdb23f76	-0.087035105
87	0x3d774102	0.06036473
88	0x3dce68df	0.10078596
89	0x3e081121	0.13287784
90	0xbc60d8fa	-0.013723606
91	0xbd3465bb	-0.04404233
92	0x3da8ec46	0.082481906
93	0x3dd0131f	0.10159897
94	0xbda1215d	-0.07867692
95	0x3dfbf160	0.12301898
96	0xbe18bc94	-0.14915687
97	0xbe25d58c	-0.16194743
98	0x3db30445	0.08741049
99	0x3dfd916b	0.12381252
100	0x3ded2424	0.11579159
101	0x39d6ddc3	0.00040982486
102	0xbbc6618f	-0.0060541104
103	0x3cb4a3db	0.022050789
104	0x3dea5765	0.114424504
105	0x3e079e44	0.13243967
106	0xbe0fe509	-0.14052214
107	0xbdafa606	-0.08576588
108	0xbda68936	-0.0813164
109	0x3dbd49d9	0.09242601
110	0x3e0e1749	0.1387607
111	0x3dc04ff6	0.09390251
112	0x3d70a654	0.058752373
113	0x3e41c1e5	0.18921621
114	0xbddf042e	-0.10889469
115	0x3d903a7e	0.070424065
116	0x3b0bf472	0.0021355418
117	0x3dd1c3d7	0.102424316
118	0x3e01fc60	0.1269393
119	0x3dc0c622	0.09412791
120	0xbbd24c89	-0.006417815
121	0x3e235594	0.15950614
122	0xbde166a6	-0.11005907
123	0x3c4e2167	0.012581206
124	0xbd2dbeb1	-0.042418186
125	0xbd8f53c9	-0.069984026
126	0x3dc850f6	0.09781067
127	0x3cd0882d	0.025455559
128	0x3dba79af	0.091052406
129	0x3cec4a22	0.028843943
130	0x3d75cc53	0.060009312
131	0xbd0d1131	-0.034440223
132	0xbd5959f4	-0.0530643
133	0xbe021cd0	-0.12706304
134	0x3df9d04a	0.12197931
135	0x3e0bfb67	0.13670121
136	0x3dc23010	0.094818234
137	0x3d23f313	0.040026736
138	0x3ba18909	0.004929666
139	0x3c1ca034	0.00955968
140	0x3d87b3ef	0.066261165
141	0xbd896537	-0.06708758
142	0x3d117704	0.035513893
143	0x3d9117b1	0.07084597
144	0xbd05f8d1	-0.032707993
145	0x3d1f5805	0.0389023
146	0x3dbeebfa	0.09322353
147	0x3d130549	0.035893712
148	0xbd9bcae8	-0.07607061
149	0xbd5f5b95	-0.0545307
150	0x3e24b0d0	0.16083074
151	0x3d4d251d	0.050084222
152	0xbbdc42a1	-0.00672181
153	0xbddfb66c	-0.10923466
154	0xbdded708	-0.10880858
155	0x3e056309	0.1302606
156	0xbdf1bfd3	-0.11804166
157	0xbde2f924	-0.11082676
158	0xbde95d73	-0.11394777
159	0xbd226a00	-0.03965187
160	0x3de4613f	0.11151361
161	0xbe035c80	-0.12828255
162	0xbdcd1ce2	-0.100152746
163	0xbe1e55a5	-0.15462358
164	0xbd8fed00	-0.07027626
165	0xbe025535	-0.12727816
166	0xbd2e0561	-0.0424856
167	0xbd9a2160	-0.07525897
168	0x3e191340	0.1494875
169	0xbd96fa86	-0.07372002
170	0x3db84a48	0.08998543
171	0xbd0dfe25	-0.0346662
172	0x3becd78e	0.0072278446
173	0xbcfca33a	-0.030839551
174	0x3e137deb	0.14403503
175	0xbda5c1f6	-0.08093636
176	0x3e488a3f	0.19583987
177	0xbdb94cb3	-0.09047832
178	0x3d88f4d9	0.06687326
179	0x3c4543fb	0.012040134
180	0x3e40fe79	0.18847074
181	0xbc574d38	-0.013140969
182	0x3d914fe7	0.07095318
183	0xbd4afd04	-0.0495577
184	0xbd756688	-0.059912235
185	0xbb3ab227	-0.0028487535
186	0x3da28973	0.079363726
187	0x3e09d7c3	0.13461213
188	0x3d1d1e1d	0.038358796
189	0xbd262eea	-0.040572084
190	0xbe2b0111	-0.16699626
191	0xbd06d658	-0.032919258
192	0xbe43b427	-0.19111691
193	0xbddcda8b	-0.10783871
194	0xbd5cffa9	-0.053954754
195	0x3dc777ee	0.09739672
196	0x3cb828bc	0.022480361
197	0xbd1c9433	-0.03822727
198	0x3d5c3285	0.053759117
199	0x3d14ca8e	0.036325984
200	0xbcbec662	-0.023287956
201	0x3da83929	0.082140274
202	0xbd43631f	-0.04770195
203	0x3dcf5230	0.10123098
204	0x3e3268a0	0.17422724
205	0xbdfcee1c	-0.12350103
206	0xbcc38a7c	-0.023869745
207	0x3d421cc5	0.047390718
208	0xbdb7d74d	-0.08976612
209	0xbd5a7bd0	-0.053340733
210	0xbdf5aaa4	-0.11995438
211	0xbb93f22f	-0.0045149545
212	0x3df06f9c	0.11740038
213	0x3deea124	0.11651829
214	0xbe0f6851	-0.14004637
215	0x3df964f9	0.12177462
216	0xbe1a1219	-0.15045966
217	0xbbf83284	-0.0075743813
218	0xbd891397	-0.066931896
219	0x3d2a14a9	0.04152361
220	0x3dcc39ef	0.099719875
221	0xbceb203d	-0.028701896
222	0x3d9f63a6	0.07782678
223	0xbe00e07e	-0.12585637
224	0x3d0ad7a4	0.033897057
225	0x3e23b9b0	0.15988803
226	0x3ca45796	0.020061295
227	0xbda131b4	-0.07870808
228	0x3cd37724	0.025813647
229	0xbe3eeedf	-0.1864581
230	0x3da05e40	0.07830477
231	0x3dbe5d08	0.09295088
232	0x3e1b7043	0.15179543
233	0x3e277b70	0.16355681
234	0xbdb2303a	-0.08700605
235	0x3ce57100	0.028007984
236	0x3d008015	0.03137215
237	0x3db8934f	0.09012472
238	0x3c40a2b1	0.011757539
239	0xbdfe81fd	-0.12427137
240	0xbda888a9	-0.08229191
241	0xbcead972	-0.02866814
242	0x3e123507	0.14278041
243	0x3e438357	0.19093071
244	0xbc041e37	-0.008063844
245	0xbd1d6f61	-0.038436297
246	0xbd763451	-0.060108487
247	0xbdcc5af2	-0.09978284
248	0xbdfcfb28	-0.12352592
249	0x3d861eb3	0.06548824
250	0x3bbd58f5	0.005778427
251	0xbdb78f99	-0.08962936
252	0xbc549c6d	-0.012976748
253	0xbdc9b336	-0.09848635
254	0xbe062afd	-0.13102336
255	0x3e285174	0.16437322

bias f4 [8]
0	0xbc866aa5	-0.016408274
1	0x3e467946	0.193822
2	0x3e1da61f	0.15395401
3	0x3e447e5e	0.1918883
4	0xbbd6abd5	-0.0065512457
5	0x3e16515e	0.14679477
6	0xbd8bef97	-0.068328075
7	0x3e6d3752	0.23165634

weight f4 [8]
0	0x3f7a6afa	0.97819483
1	0x3f8577ef	1.0427226
2	0x3f864c99	1.0492126
3	0x3f6e2a40	0.9303322
4	0x3f7a7bdb	0.9784524
5	0x3f848690	1.0353565
6	0x3f7352d3	0.95048255
7	0x3f738ced	0.9513691

bias f4 [8]
0	0x3c107871	0.008817778
1	0xb9f3412c	-0.0004639713
2	0xbc8ebcfd	-0.017424101
3	0xbce259de	-0.027630743
4	0xbc9fd395	-0.01951007
5	0xbba555ac	-0.0050456133
6	0xbcd3f80c	-0.025875114
7	0xbcac8308	-0.021058574

running_mean f4 [8]
0	0x3c6b06f0	0.014344916
1	0x3ea279a7	0.31733438
2	0x3f0b5212	0.54422104
3	0x3e955c62	0.29172045
4	0x3e16c09a	0.14721909
5	0x3eb6359b	0.35587773
6	0x3e963aa3	0.2934161
7	0x3ed7777b	0.42083344

running_var f4 [8]
0	0x3aee18dd	0.0018165369
1	0x3ca17127	0.019707276
2	0x3e129723	0.14315467
3	0x3d65fa7e	0.05614709
4	0x3d2da3df	0.042392608
5	0x3d91fc68	0.07128221
6	0x3e3639b4	0.1779545
7	0x3e0244a8	0.12721503

weight f4 [16, 8, 5]
0	0x3cab96eb	0.020945987
1	0xbcab079b	-0.02087765
2	0xbd95952e	-0.073038444
3	0xbdb02606	-0.086010024
4	0x3cbcc104	0.023041256
5	0xbd84ab9b	-0.06478044
6	0xbd15347f	-0.036427017
7	0xbd8ada06	-0.06779866
8	0x3db1471f	0.086561434
9	0x3da336f9	0.079694696
10	0xbe2aa943	-0.1666613
11	0xbdcd6506	-0.10029034
12	0xbdd4c31d	-0.103887774
13	0x3e3cbf30	0.18432307
14	0x3e7caea7	0.24676
15	0xbdeaf7d1	-0.114730485
16	0x3bb98dfc	0.005662678
17	0x3d967d36	0.07348101
18	0x3d211269	0.039324198
19	0xbe4c78fc	-0.19968027
20	0x3dd764c4	0.105172664
21	0x3dcc8351	0.09985984
22	0xbc9434b4	-0.018091537
23	0x3e0ec496	0.13942179
24	0x3c80643f	0.015672801
25	0xbe5b2748	-0.21401703
26	0xbcce1375	-0.025155762
27	0xbaccb136	-0.0015616778
28	0x3e070225	0.13184412
29	0x3e207fef	0.15673803
30	0xbd1ebad6	-0.0387524
31	0x3e1d9506	0.15388879
32	0xbbf8af76	-0.007589276
33	0x3cb3a434	0.021928884
34	0x3db91e20	0.09038949
35	0xbdc9129e	-0.09818004
36	0x3d2bd4ef	0.041951116
37	0xbd8493f8	-0.06473535
38	0xbe367c66	-0.17820892
39	0xbe257284	-0.16156965
40	0xbd98cd12	-0.07460989
41	0x3da36875	0.07978908
42	0xbc8f75ad	-0.017512167
43	0x3e12c16b	0.14331596
44	0xbdf73fec	-0.12072739
45	0xba9ea6af	-0.0012104119
46	0xbd36d221	-0.04463399
47	0xbdd11aaf	-0.102101676
48	0x3da8238d	0.08209906
49	0xbe00f566	-0.12593612
50	0x3e276a9a	0.16349259
51	0xbda155ce	-0.07877694
52	0x3dcc2f94	0.09970012
53	0xbd29d229	-0.04146019
54	0xbd97be48	-0.0740934
55	0xbd36ad9a	-0.044599153
56	0xbe243e4b	-0.16039388
57	0xbc2c422f	-0.010513826
58	0xbc8973ba	-0.016778816
59	0x3d5b5990	0.05355221
60	0xbdb402f2	-0.08789624
61	0x3cad819e	0.02117997
62	0x3da4fe1f	0.08056282
63	0xbdd19416	-0.10233323
64	0x3b88a681	0.0041702394
65	0x3d7f5ab4	0.06234236
66	0xbd6826fc	-0.056677803
67	0x3dbce110	0.09222615
68	0xbdba5cd1	-0.090997346
69	0x3da85bb7	0.08220618
70	0x3d2822c7	0.04104879
71	0xbd3da3db	-0.046298843
72	0x3da777e5	0.08177165
73	0xb9f37768	-0.00046437536
74	0x3ca42b30	0.020040125
75	0xbd2e495b	-0.042550426
76	0xbe356c0e	-0.17717001
77	0xbe1bb139	-0.15204324
78	0xbe1151e6	-0.14191398
79	0xbde6c94b	-0.11268862
80	0x3b912be8	0.004430283
81	0x3d5850ff	0.05281162
82	0xbdb492f8	-0.088170946
83	0xbe1024f5	-0.14076598
84	0x3bb47d8d	0.005508131
85	0x3d65ef82	0.056136616
86	0x3d7349cb	0.059396546
87	0xbe0062e1	-0.1253772
88	0x3c5a01b4	0.01330607
89	0x3d26a02b	0.04068009
90	0x3cd79a0a	0.026318569
91	0x3e3208f8	0.17386234
92	0xbd8f2100	-0.06988716
93	0xbd832a9d	-0.06404612
94	0x3deeec81	0.11666203
95	0x3d99eff9	0.07516474
96	0xbdda23f4	-0.10651389
97	0xbdf8ea30	-0.12154043
98	0xbc1d8bf0	-0.009615883
99	0xbdc5d17c	-0.096590966
100	0x3da44162	0.08020283
101	0xbdf82f51	-0.121184
102	0xbe33cf87	-0.17559634
103	0x3cfa050a	0.030519981
104	0xbd971b20	-0.073782206
105	0x3e0131c2	0.12616637
106	0x3db74d5f	0.08950304
107	0xbdeb8450	-0.11499846
108	0xbd44864d	-0.04797964
109	0x3e0f2b49	0.13981356
110	0xbc6854cb	-0.0141803725
111	0xbe45c240	-0.19312382
112	0xbe3380c0	-0.17529583
113	0xbb78d297	-0.0037967318
114	0x3e0ecf13	0.1394618
115	0x3c0bcb27	0.008532322
116	0xbd8c80a6	-0.06860475
117	0x3de47d1b	0.111566745
118	0xbdc383f9	-0.09546656
119	0xbe0b3420	-0.13594103
120	0x3d9c6b56	0.0763766
121	0x3e1ce30a	0.15320984
122	0xbce97d7d	-0.02850222
123	0xbdb9fd7a	-0.0908155
124	0x3d0adf72	0.0339045
125	0x3d897c18	0.06713122
126	0x3d813a72	0.06309976
127	0xbdae9453	-0.08524384
128	0x3d3391f3	0.04384036
129	0x3d198195	0.037477095
130	0x3e030703	0.12795644
131	0x3e1810a9	0.14850105
132	0x3de361b9	0.111026235
133	0x3dd12a33	0.10213127
134	0x3cf9e16e	0.030503001
135	0xbd8d5852	-0.069016114
136	0xbdfcbf6f	-0.123412006
137	0xbd596696	-0.05307635
138	0x3dc2c8c9	0.09510953
139	0x3dbe08b6	0.09279005
140	0xbddb20b8	-0.106996
141	0xbe0edaf9	-0.13950719
142	0xbd0b3179	-0.033982728
143	0x3df38452	0.118904725
144	0xbdcb4af0	-0.099264026
145	0x3dd309fa	0.10304637
146	0x3e3a2f18	0.18182027
147	0x3de6f220	0.112766504
148	0x3d2f886f	0.042854723
149	0xbcda3ed0	-0.02664128
150	0xbd5087c5	-0.05091073
151	0x3ccc7510	0.024958163
152	0x3dbb1ca7	0.091363244
153	0xbd6c2020	-0.057647824
154	0xbd726435	-0.059177596
155	0xbdc845af	-0.09778916
156	0x3d16c20d	0.036806155
157	0x3cd60fcf	0.026130585
158	0xbe176b9a	-0.1478714
159	0xbdfa1c91	-0.1221248
160	0xbe063f59	-0.13110103
161	0x3c69fb5f	0.014281123
162	0xbc53ff17	-0.012939236
163	0x3ddc9907	0.10771375
164	0xbdd8bfe1	-0.10583473
165	0xba8f9c3f	-0.0010956599
166	0x3d500baf	0.050792392
167	0xbe185021	-0.14874317
168	0xbe5b7d21	-0.21434452
169	0x3d1a2fc9	0.037643228
170	0xbd486d86	-0.048932575
171	0x3d567a6a	0.052362837
172	0xbd8b9914	-0.06816307
173	0x3cf00d81	0.029303314
174	0xbe242028	-0.16027892
175	0xbe2af415	-0.16694672
176	0x3d7ddbc1	0.06197715
177	0xbd06f94a	-0.032952584
178	0x3de7ed60	0.113245726
179	0xbe05df47	-0.13073455
180	0xbd9252e5	-0.07144717
181	0xbcfee421	-0.03111464
182	0xbe21ee9d	-0.1581368
183	0x3d8028ea	0.06257804
184	0x3db488f6	0.08815186
185	0x3d14d3f2	0.03633494
186	0x3dcb8aee	0.09938608
187	0x3d099691	0.033590857
188	0xbd4dc900	-0.050240517
189	0xbe49d934	-0.19711763
190	0xbdd2ab6c	-0.102866024
191	0xbe2e8fd9	-0.17047061
192	0xbe2c2d5d	-0.1681418
193	0x3e0816a1	0.13289882
194	0xbdd64fd7	-0.10464447
195	0xbe2ff998	-0.17185056
196	0x3d96bd4b	0.073603235
197	0xbdfbecce	-0.12301026
198	0xbddbb721	-0.107282884
199	0x3d9717a4	0.07377556
200	0x3ddbc3c8	0.10730702
201	0x3d473770	0.048636854
202	0x3cda785c	0.02666872
203	0x3d946edd	0.07247708
204	0x3da2e240	0.0795331
205	0xbd16ed93	-0.036847662
206	0xbd5570b9	-0.052109454
207	0xbdabeb2d	-0.083944656
208	0xbdcc3eba	-0.09972902
209	0x3db542de	0.088506445
210	0xbd60549f	-0.0547682
211	0xbe2be9d2	-0.16788414
212	0xbde3e8fe	-0.11128424
213	0xbd891135	-0.06692735
214	0xbe03fb0f	-0.1288874
215	0x3bac81c7	0.005264494
216	0x3dd57b3a	0.10423894
217	0xbd016e96	-0.031599604
218	0xbe0fb0fa	-0.14032355
219	0x3db4a5a3	0.08820655
220	0xbc5fefd7	-0.013668022
221	0xbe2dffec	-0.16992158
222	0x3dddb68a	0.10825832
223	0x3d98f9b9	0.07469506
224	0x3e0b6dad	0.13616057
225	0x3e2fa758	0.1715368
226	0xbd871f48	-0.06597763
227	0xbdaf26b4	-0.08552304
228	0xbd794da0	-0.060865045
229	0xbb39c7c3	-0.0028347827
230	0x3c5bdbd3	0.013419109
231	0xbde60b36	-0.11232607
232	0xbe0d643a	-0.13807765
233	0xbd7745e4	-0.060369387
234	0x3d03a60b	0.032140773
235	0xbcff7f9c	-0.031188779
236	0xbde929e2	-0.11384942
237	0x3df4b620	0.119488
238	0xbd950244	-0.07275823
239	0x3d2dcbc4	0.042430654
240	0x3d5d3b2c	0.05401151
241	0xbe232d71	-0.15935303
242	0x3d84555e	0.06461595
243	0xbd5e15f5	-0.05422016
244	0xbdcdc983	-0.10048201
245	0xbc4bcbed	-0.012438756
246	0xbe2518eb	-0.16122787
247	0xbe54232d	-0.20716543
248	0xbe5da69f	-0.21645592
249	0xbd395050	-0.045242608
250	0x3c9e0b74	0.01929257
251	0xbd6f0a87	-0.05835965
252	0x3c8bc699	0.017062472
253	0xbe21dda9	-0.15807213
254	0x3d4ff056	0.05076631
255	0x3ad02d1a	0.0015882582

bias f4 [16]
0	0x3e4e1826	0.201264
1	0xbc7f2de8	-0.01557491
2	0x3ca82cf3	0.020529246
3	0xbe2678fc	-0.1625709
4	0xbe1675a9	-0.14693321
5	0x3dcc3d9c	0.099726886
6	0x3cf2b531	0.029627414
7	0xbc1afb01	-0.009459258
8	0xbe297759	-0.16549434
9	0xbbf38c07	-0.007432464
10	0xbd830530	-0.06397474
11	0x3e14c819	0.14529456
12	0xbdbffddc	-0.09374592
13	0x3e270d06	0.16313562
14	0x3dab5cdf	0.08367323
15	0xbceab839	-0.028652297

weight f4 [16, 16, 5]
0	0x3b3dd260	0.0028964505
1	0x3c75e994	0.015009303
2	0xbc834fde	-0.016029295
3	0x3c63e38b	0.013909231
4	0x3d9578d8	0.0729844
5	0x3daff04b	0.08590754
6	0x3dc3f6d4	0.09568563
7	0x3db1f848	0.08689934
8	0x3dba1bf6	0.090873644
9	0xbd7a3040	-0.06108117
10	0x3d80aeae	0.062833175
11	0x3dc662ef	0.09686839
12	0x3d3afa8e	0.045649104
13	0x3d720e45	0.05909564
14	0x3dd52d17	0.10408991
15	0x3db52d2a	0.08846505
16	0x3da898d2	0.08232273
17	0x3dbb687d	0.09150789
18	0x3cb6132d	0.02222594
19	0x3cdf53cb	0.027261635
20	0x3dcc9765	0.09989814
21	0xbcb84de0	-0.022498071
22	0x3d8f91ec	0.07010254
23	0xbdc40afa	-0.09572406
24	0x3d46eb4b	0.048564237
25	0x3cb047f4	0.021518685
26	0xbc7b9cd7	-0.015357218
27	0x3d8a210e	0.06744586
28	0xbda0036d	-0.078131534
29	0x3cf50698	0.02991037
30	0xbd8c32de	-0.0684564
31	0x3ded5b32	0.1158966
32	0x3df6d3ad	0.12052093
33	0xbdcaf813	-0.09910598
34	0xbce8bdb7	-0.028410776
35	0x3c1f645c	0.009728517
36	0xbc16a7d5	-0.009195288
37	0x3d4a7395	0.049426634
38	0xbdb28a69	-0.08717806
39	0xbb7451b8	-0.0037280153
40	0xbded0598	-0.115733325
41	0x3d398dc1	0.045301203
42	0xba823e00	-0.000993669
43	0xbcc897a1	-0.024486365
44	0xbda9d181	-0.08291913
45	0xbe1c7e50	-0.1528256
46	0xba199a53	-0.0005859483
47	0x3d9058c7	0.07048183
48	0xbd9544f2	-0.07288541
49	0xbd9e8399	-0.07739944
50	0xbe08935c	-0.13337463
51	0xbde45f76	-0.1115102
52	0xbd98c5b2	-0.074595824
53	0x3cc9130a	0.024545211
54	0x3ca250ab	0.019813856
55	0x3c535675	0.012899031
56	0xbca3355f	-0.01992291
57	0xbd80f63d	-0.06296966
58	0x3dbcea7f	0.09224414
59	0x3dfe3de8	0.124141514
60	0xbdc7fc05	-0.09764866
61	0xbdd2d302	-0.10294153
62	0xbd44ed76	-0.048078023
63	0xbc2a1048	-0.010379858
64	0xbcae7633	-0.021296596
65	0x3c385ff3	0.011253345
66	0x3dc393be	0.09549664
67	0x3da516df	0.08061003
68	0xba9d24ef	-0.0011989156
69	0xbd9c15dc	-0.07621357
70	0xbdd85593	-0.10563197
71	0x3cfb004a	0.030639786
72	0x3daedfb1	0.085387595
73	0x3bc31600	0.0059535503
74	0x3d345c34	0.044033244
75	0x3df84962	0.12123372
76	0x3e126e6f	0.1429994
77	0xbb82f77f	-0.003996789
78	0x3cf6c078	0.030121073
79	0x3dc80f1e	0.097685084
80	0xbdb80dc5	-0.08987001
81	0x3dab1f41	0.083555706
82	0xbc3c01c2	-0.0114750285
83	0x3dd0da61	0.101979025
84	0x3d94d7ad	0.072676994
85	0xbd2721d0	-0.04080373
86	0x3d0facbe	0.03507685
87	0x3da509ec	0.08058533
88	0xbd8270dd	-0.06369183
89	0xbdbf0b9d	-0.09328387
90	0xbe0aff48	-0.13573945
91	0x3d6d08d6	0.057869755
92	0xbc854eed	-0.016272986
93	0xbdacfb5b	-0.0844638
94	0xbd370c1e	-0.04468929
95	0xbd2d3876	-0.042290173
96	0x3b10d001	0.0022096636
97	0x3de11f04	0.10992244
98	0x3d7e5089	0.062088523
99	0x3e11dc78	0.14244258
100	0x3d823040	0.06356859
101	0xbd7fee43	-0.062483083
102	0x3c8e6475	0.017381886
103	0xbe114c33	-0.14189224
104	0x3d105596	0.03523787
105	0x3c1aacba	0.009440595
106	0xbdb73de4	-0.089473516
107	0x3d50bbfe	0.050960533
108	0x3dc6f46a	0.09714587
109	0xbd834a4c	-0.064106554
110	0xbd2711d2	-0.04078848
111	0xbd87c2e0	-0.06628966
112	0xbd1e3853	-0.038627934
113	0xbdc02d57	-0.09383648
114	0x3bc1a50b	0.0059095672
115	0xbd0be2c3	-0.034151804
116	0x3de8a785	0.11360077
117	0x3d058d68	0.03260556
118	0xbd8cf983	-0.06883528
119	0x3bee4f75	0.0072726556
120	0xbcaaa99c	-0.02083283
121	0xbe007209	-0.12543501
122	0x3cfb40a7	0.030670477
123	0xbd8158ab	-0.0631574
124	0x3da715fa	0.081584886
125	0xbd36dbb1	-0.044643108
126	0xbd49e4cb	-0.04929046
127	0xbcb424f3	-0.021990275
128	0xbdd70e86	-0.10500817
129	0xbda693f6	-0.0813369
130	0xbd6db012	-0.05802924
131	0xbd95720f	-0.072971456
132	0x3dfa0813	0.12208571
133	0x3dda4157	0.10656994
134	0xbd54cc44	-0.051952615
135	0xbded6b13	-0.115926884
136	0x3db52ae5	0.08846072
137	0xbdecf4a7	-0.11570101
138	0x3c4a54da	0.012349332
139	0xbcc22e6c	-0.023703776
140	0x3db643a4	0.0889962
141	0xbd10a739	-0.035315726
142	0xbd62eafd	-0.055399884
143	0xbd28f759	-0.041251514
144	0xbdc5d0ea	-0.09658988
145	0xbe1818b9	-0.14853181
146	0xbda1e9db	-0.079059325
147	0x3bfa95c2	0.007647247
148	0xbd50533a	-0.05086062
149	0xbe0a965b	-0.13533919
150	0x3ce1ed5c	0.027579002
151	0x3db25f35	0.087095656
152	0x3be361aa	0.0069391327
153	0xbda1e041	-0.07904101
154	0x3d92deed	0.07171426
155	0xbbd562b1	-0.006512009
156	0x3c608deb	0.013705711
157	0xbc3ea67d	-0.011636374
158	0x3dbec00d	0.093139745
159	0x3c36dfb6	0.011161735
160	0xbd7c24fc	-0.06155871
161	0x3de7727a	0.113011315
162	0x3de43f82	0.11144926
163	0xbda4d502	-0.080484405
164	0x39c410d0	0.0003739656
165	0x3db52d8f	0.0884658
166	0x3d49e5f8	0.04929158
167	0x3dce3f98	0.10070723
168	0xbde05ba2	-0.109549776
169	0x3d9f78ac	0.07786688
170	0xbb2ad506	-0.0026066913
171	0x3ce45e1a	0.027876902
172	0x3ccc0cf3	0.024908518
173	0x3dba5097	0.090974025
174	0xbcb83fa0	-0.022491276
175	0x3e07a4de	0.13246486
176	0x3d5a321f	0.053270455
177	0xbd8be164	-0.06830099
178	0xbda677aa	-0.08128293
179	0x3de002d9	0.10938043
180	0xbdb726c6	-0.08942942
181	0x3dc487a8	0.09596187
182	0xbce5d4e1	-0.02805561
183	0x3bcf1a1e	0.006320252
184	0xbde117b6	-0.109908506
185	0xbd6d89db	-0.057992797
186	0xbc466ca1	-0.01211086
187	0x3d7e8791	0.062141005
188	0x3db201b4	0.08691731
189	0xbc43c157	-0.011947951
190	0xbb2bba40	-0.0026203543
191	0xbcad4acc	-0.02115383
192	0x3d8f1322	0.06986071
193	0x3d9bc1f2	0.076053515
194	0xbd1a2b22	-0.03763879
195	0x3c168684	0.009187344
196	0x3dbe757b	0.09299751
197	0xbbb3837a	-0.0054783197
198	0x3d00b9ce	0.031427197
199	0xbd2cc992	-0.04218442
200	0xbda5b1bc	-0.08090541
201	0x3d8d4417	0.06897753
202	0xbdaa29a0	-0.083087206
203	0x3d501e1c	0.050809965
204	0x3dcf69f2	0.10127629
205	0xbd44b2e2	-0.04802216
206	0xbdae38ef	-0.08506953
207	0xbc9e8e2b	-0.0193549
208	0xbd9c8d4b	-0.07644137
209	0x3d96120d	0.07327662
210	0xbdad1740	-0.084517
211	0xbd08eeee	-0.033430986
212	0x3d79da14	0.06099899
213	0x3dce9af4	0.10088149
214	0xbdb77f9f	-0.08959889
215	0xbd2133fc	-0.039356217
216	0x3e0f2295	0.13978036
217	0xbc1b1957	-0.009466491
218	0x3d001ff2	0.031280465
219	0xbd4117d2	-0.047141857
220	0x3dbcae19	0.09212894
221	0x3c9adda4	0.018904515
222	0x3db4faa6	0.0883687
223	0xbc5eb6dd	-0.013593403
224	0x3ddee333	0.108831786
225	0x3db99dc7	0.09063297
226	0xbdc8d694	-0.098065525
227	0x3c487805	0.012235646
228	0xbc5d784a	-0.013517449
229	0xbe1851cf	-0.14874958
230	0x3d566135	0.052338798
231	0xbc6961d0	-0.014244512
232	0xbdbf2d42	-0.09334804
233	0x3d833d41	0.06408168
234	0x3d721216	0.05909928
235	0x3dcf6eaf	0.10128533
236	0xbd18db8d	-0.037318755
237	0xbdc5254a	-0.09626253
238	0x3de256b6	0.11051695
239	0xbd86cc83	-0.06581976
240	0xbace14b3	-0.0015722722
241	0xbdd91818	-0.10600299
242	0xbd120a94	-0.03565462
243	0x3a8a4348	0.0010548616
244	0xbddb764f	-0.10715925
245	0x3ddafca3	0.10692718
246	0x3caf5b66	0.021405887
247	0x3d272069	0.040802393
248	0x3ccc4661	0.024935903
249	0xbd2300e4	-0.03979577
250	0x3dc2ff0e	0.09521304
251	0x3d914807	0.07093816
252	0xbd98f5f7	-0.07468789
253	0xbe16c0cf	-0.14721988
254	0xbe06a103	-0.13147359
255	0x3d8a7684	0.06760886

bias f4 [16]
0	0x3dd19a3c	0.10234496
1	0xbc035b3c	-0.008017357
2	0xbd9288df	-0.07155012
3	0xbdf67a86	-0.12035088
4	0xbd984e96	-0.07436864
5	0xbd9beeae	-0.07613884
6	0xbd2b9f6e	-0.04190009
7	0x3c1f5b4a	0.009726355
8	0x3d99842a	0.074959114
9	0xbd7871ec	-0.06065552
10	0x3d3e022f	0.0463888
11	0x3d8d9b01	0.0691433
12	0x3cdf7a9e	0.027280148
13	0xbd059cd6	-0.032620274
14	0xbdfb993f	-0.12285089
15	0xba249fb6	-0.00062799023

weight f4 [16]
0	0x3f7dd9a6	0.9916023
1	0x3f839db4	1.0282502
2	0x3f777b10	0.96672153
3	0x3f82c0db	1.0215105
4	0x3f72b7ab	0.94811505
5	0x3f892a75	1.0716082
6	0x3f7cb412	0.98712265
7	0x3f72b21e	0.94803035
8	0x3f83f787	1.0309914
9	0x3f7c02dc	0.98441863
10	0x3f76a7d1	0.9634982
11	0x3f7986dd	0.9747141
12	0x3f7fc010	0.9990244
13	0x3f81066a	1.0080082
14	0x3f83a549	1.0284816
15	0x3f7e5975	0.9935525

bias f4 [16]
0	0x3c657f93	0.014007467
1	0x3b7397ae	0.0037169266
2	0x3b12c5be	0.0022395696
3	0x3c115acd	0.008871746
4	0x3b36d31c	0.0027896827
5	0x3bdd9bd5	0.0067629614
6	0x3c2fb2d5	0.010723789
7	0x3d081a6f	0.033228334
8	0x3c28fafb	0.010313745
9	0x3c13aa71	0.009012804
10	0x3d3491f6	0.04408451
11	0x3bcc8977	0.006241973
12	0x3c9d5e4b	0.019210001
13	0x3af1d277	0.0018449564
14	0x3b9bf882	0.004759849
15	0x3cabd773	0.020976758

running_mean f4 [16]
0	0x3f2bffed	0.67187387
1	0x3e1ae822	0.15127614
2	0x3eb4ffab	0.3535131
3	0x3da958b0	0.08268869
4	0x3e2b6723	0.16738562
5	0x00000004	6e-45
6	0x3e6726e9	0.22573437
7	0x3d593791	0.053031508
8	0x3e4c7897	0.19967876
9	0x3f418788	0.7559743
10	0x3e83a92a	0.25715
11	0x3efa18f0	0.4884715
12	0x3d4a6135	0.04940911
13	0x3e16db6b	0.14732139
14	0x3e7a9002	0.24468997
15	0x3f1b8409	0.60748345

running_var f4 [16]
0	0x3dc15d13	0.094415806
1	0x3d7f3c39	0.062313292
2	0x3e26d241	0.16291143
3	0x3c1976ad	0.009366673
4	0x3d542ce7	0.051800635
5	0x00000004	6e-45
6	0x3df7717a	0.12082191
7	0x3b8348c6	0.004006478
8	0x3cadcd05	0.021215925
9	0x3f0bd84e	0.5462693
10	0x3d064dfc	0.032789215
11	0x3ea04a45	0.31306663
12	0x3beeb596	0.0072848303
13	0x3c8ba067	0.01704426
14	0x3e045989	0.1292478
15	0x3ed65eca	0.41869193

weight f4 [32, 16, 5]
0	0x3cbbd7a1	0.022929968
1	0xbccd4779	-0.025058495
2	0x3d1343bd	0.035953272
3	0xbd8b51c6	-0.068027064
4	0xbd89c2b5	-0.067265905
5	0x3d9fa50f	0.07795154
6	0x3d473910	0.048638403
7	0xbd6c31d8	-0.057664722
8	0xbdace55c	-0.08442184
9	0xbdb56f66	-0.08859138
10	0x3c4c80ea	0.012481907
11	0xbddf49ce	-0.10902749
12	0xbc9a709d	-0.018852526
13	0xbcb145d5	-0.021639744
14	0xbd96e0d3	-0.073671006
15	0x3ab2d86e	0.0013644823
16	0xbd4038fd	-0.04692935
17	0xbd9f0491	-0.07764543
18	0xbe12dd14	-0.14342147
19	0xbdcaf9fc	-0.09910962
20	0xbd956f62	-0.07296635
21	0x3d25c744	0.040473238
22	0xbd9d2397	-0.07672804
23	0xbd69a586	-0.05704262
24	0xbd353901	-0.044243816
25	0xba462188	-0.0007558097
26	0x3dbbe7df	0.09175085
27	0x3d3459a6	0.044030808
28	0xb94b84f7	-0.00019409122
29	0x3de2fb3a	0.11083074
30	0x3b9e5714	0.004832158
31	0x3dc40081	0.095704086
32	0x3c3d8046	0.011566227
33	0x3df6a340	0.12042856
34	0x3c751b11	0.014960066
35	0x3d319030	0.0433504
36	0xbcd7199f	-0.026257334
37	0x3ddc8bb0	0.10768831
38	0x3cf7db2d	0.030255878
39	0x3d0852d3	0.033282112
40	0x3db0187d	0.08598421
41	0xbd219804	-0.039451614
42	0xbdfe87df	-0.12428259
43	0xbd883f73	-0.06652727
44	0xbd3df7e8	-0.046379
45	0xbda5295b	-0.080645286
46	0xbce0dea9	-0.027449923
47	0xbd67334d	-0.05644541
48	0x3e019929	0.12656082
49	0x3da9d592	0.082926884
50	0xbd9aecee	-0.07564722
51	0xbd2d1a76	-0.042261563
52	0xbd5ae627	-0.053442147
53	0x3d88d173	0.06680574
54	0xbdade4ce	-0.08490907
55	0xbd20990b	-0.039208453
56	0xbcf486de	-0.029849466
57	0x3dc75b82	0.097342506
58	0xbd88d0ba	-0.066804364
59	0x3c957044	0.018242009
60	0x3c1a8873	0.009431946
61	0xbdc722bf	-0.09723424
62	0x3ddbd0ab	0.1073316
63	0xbd2bb52c	-0.041920826
64	0xbada86ce	-0.0016672255
65	0xbd814941	-0.063128
66	0x3da37460	0.07981181
67	0xbe1558fa	-0.14584723
68	0xbb09a7f2	-0.0021004644
69	0xbc361064	-0.011112306
70	0xbd992aa4	-0.07478836
71	0xbdaba16d	-0.08380399
72	0xbd60375a	-0.054740287
73	0x3db5e624	0.088817865
74	0xbc9008d1	-0.017582329
75	0x3d88c161	0.06677509
76	0x3db9fdb4	0.09081593
77	0x3d121349	0.035662923
78	0xbdc852cf	-0.097814195
79	0xbcd21f62	-0.02564973
80	0x3d5f9198	0.05458221
81	0xbd659e80	-0.05605936
82	0x3d25cfda	0.040481426
83	0x3d2c97bd	0.042136896
84	0x3d3717c6	0.044700406
85	0x3d936138	0.071962774
86	0x3d99c046	0.075073764
87	0xbc9278f3	-0.017879939
88	0x3d6170dc	0.05503927
89	0x3dda9338	0.10672611
90	0x3deb8384	0.11499694
91	0xbd63bee4	-0.05560197
92	0x3dc8905d	0.0979316
93	0x3dc45285	0.09586052
94	0x3d823c24	0.06359127
95	0xbccf9c6b	-0.02534314
96	0x3c08d113	0.008350628
97	0x3c146c8e	0.009059085
98	0xbdbadf6b	-0.09124645
99	0x3dd149a0	0.10219121
100	0x3d907446	0.070534274
101	0xbd9596c7	-0.07304149
102	0x3dd6e1dc	0.10492298
103	0xbcdc800d	-0.026916528
104	0xbd1c9dd9	-0.038236473
105	0x3d5899cc	0.052881047
106	0xbd9c90b6	-0.07644789
107	0xbd3d3b72	-0.04619927
108	0xbdb136f6	-0.08653061
109	0xbd199012	-0.03749091
110	0x3d3447e9	0.04401389
111	0x3d070b2b	0.032969635
112	0xbd3efb26	-0.046626233
113	0x3d77c002	0.060485847
114	0x3c82b992	0.015957627
115	0x3db2cead	0.087308265
116	0x3d408490	0.04700142
117	0xbcdd38a1	-0.027004542
118	0xbcb4b77d	-0.02206015
119	0x3de7a94c	0.11311588
120	0xbdcdf1a1	-0.10055853
121	0xbddebf8f	-0.10876381
122	0xbdd70079	-0.10498137
123	0xbcf45f13	-0.029830491
124	0xbd3c06cf	-0.04590493
125	0x3d9570ea	0.07296927
126	0x3deb61ae	0.1149324
127	0xbd2e1ed7	-0.04250988
128	0x3d8fccbc	0.07021472
129	0x3d7d2547	0.06180313
130	0xbd5dc33b	-0.054141264
131	0xbdc010f8	-0.093782365
132	0xbd2a11b1	-0.041520778
133	0x3dce23f9	0.10065455
134	0x3da260d5	0.079286255
135	0xbc9f9c91	-0.019483836
136	0xbd808914	-0.062761456
137	0x3dd68f48	0.104765475
138	0x3da09d94	0.07842556
139	0xbbdc6c5a	-0.0067267837
140	0xbd201c55	-0.03908952
141	0x3b4bd706	0.0031103506
142	0xbdea358c	-0.114359945
143	0x3cbca59d	0.02302819
144	0xbdeea9ba	-0.116534665
145	0x3d908d38	0.07058185
146	0xbaab979c	-0.0013091448
147	0xbaa7b452	-0.0012794829
148	0x3cd468ce	0.025928881
149	0xbdfd88e5	-0.12379626
150	0x3d82359c	0.063578814
151	0x3d4a68dc	0.049416408
152	0x3d3a29a7	0.04544988
153	0x3b9899f5	0.004657025
154	0x3d9970d3	0.07492223
155	0x3c85636b	0.016282758
156	0x3d529e4e	0.051420502
157	0xbd5c3ab9	-0.05376694
158	0x3daff745	0.08592085
159	0x3dfda416	0.123848125
160	0x3d99f7b5	0.075179495
161	0xbd9b3465	-0.07578353
162	0x3ce58858	0.028019115
163	0xbcca7a7d	-0.02471661
164	0xbd120dfc	-0.035657868
165	0x3e03370f	0.12813972
166	0x3d9eb12c	0.077486366
167	0x3c02ecde	0.007991044
168	0x3d381046	0.044937395
169	0x3d1c8e8b	0.038221877
170	0x3cc762a5	0.02433903
171	0xbcbcd876	-0.023052435
172	0x3cafdf90	0.021468908
173	0x3dbac7bc	0.091201276
174	0x3d1f3e73	0.038877916
175	0xbd83f829	-0.06443817
176	0x3ca72fef	0.020408599
177	0xbcc8546b	-0.024454316
178	0xbd5d0f92	-0.053969927
179	0xbd45a341	-0.048251394
180	0xbd22b343	-0.03972174
181	0x3dc8923b	0.09793516
182	0xbce3914f	-0.02777925
183	0xbd9893ed	-0.074500896
184	0x3c3586ec	0.011079531
185	0xbca76c68	-0.020437434
186	0xbda61525	-0.08109502
187	0xbdbbef29	-0.091764756
188	0xbd5bdb8c	-0.053676173
189	0x3de34f63	0.11099126
190	0xbcbf638d	-0.0233629
191	0x3d236092	0.03988702
192	0xbdceb7e9	-0.10093672
193	0x3d48e372	0.049045034
194	0xbd2078e0	-0.039177775
195	0x3d903a61	0.07042385
196	0x3dbc0485	0.091805495
197	0x3da0268d	0.07819853
198	0xbe0ae644	-0.13564402
199	0xbda5d65f	-0.08097529
200	0x3b8b849a	0.0042577507
201	0xbe05397e	-0.13010213
202	0x3c2509e5	0.01007316
203	0x3c8bf935	0.017086605
204	0x3d128f8f	0.03578144
205	0x3dbdfa9b	0.09276315
206	0x3dfd5207	0.12369161
207	0x3a7c11a9	0.00096156687
208	0x3dc784f8	0.09742159
209	0xbd5dd658	-0.054159492
210	0xbd748ae4	-0.05970277
211	0x3db4d409	0.08829505
212	0x3b7bbdfb	0.0038412798
213	0xbce6c59c	-0.0281704
214	0xbd0abd9b	-0.033872228
215	0xbc9ca393	-0.019120967
216	0xbd6e464b	-0.058172505
217	0x3d9697df	0.07353186
218	0xbd449fff	-0.048004147
219	0x3da532e5	0.08066348
220	0xbdce9658	-0.100872695
221	0xbddc1fe0	-0.10748267
222	0x3dc08096	0.09399526
223	0x3c95909e	0.018257435
224	0x3d633022	0.055465825
225	0x3d73c8ab	0.059517544
226	0x3d84bfd8	0.06481904
227	0x3d384929	0.044991646
228	0xbc94eb7c	-0.018178694
229	0x3d3d8a66	0.046274565
230	0xbc28586c	-0.010274988
231	0x3e07d8d9	0.13266315
232	0xbcb76b51	-0.02239004
233	0x3deaf6ec	0.11472878
234	0xbd2996c7	-0.041403558
235	0xbd931b31	-0.07182921
236	0x3ccce92a	0.025013525
237	0xbb8ce312	-0.00429953
238	0xbd0d54f8	-0.03450486
239	0xbbf11fb7	-0.007358517
240	0x3dbe3aca	0.09288557
241	0xbcde8fc8	-0.02716817
242	0xbd8dc982	-0.069232
243	0x3d8242ae	0.063603744
244	0xbdd533f5	-0.10410301
245	0xbda2d65e	-0.079510435
246	0x3dbb9642	0.09159519
247	0x3d1665df	0.036718246
248	0x3dc65c9c	0.096856326
249	0xbd9e31e2	-0.07724358
250	0xbdde532f	-0.1085571
251	0x3db17784	0.08665374
252	0x3b399ce3	0.0028322272
253	0xbdc3131f	-0.095251314
254	0x3d3eb322	0.046557553
255	0xbcdf440f	-0.027254133

bias f4 [32]
0	0x3ca24207	0.019806875
1	0x3b778c7d	0.0037772947
2	0xbdbf2b5e	-0.093344435
3	0xbcf7d88b	-0.030254623
4	0xbda40046	-0.08007865
5	0x3d54d993	0.051965307
6	0xbd94d1a7	-0.072665505
7	0xbc73d994	-0.014883418
8	0x3de1252f	0.1099342
9	0xbd131a63	-0.035913836
10	0x3d167bd0	0.03673917
11	0x3d0ae9c9	0.03391436
12	0xbd68026e	-0.056642942
13	0xbda171cf	-0.078830354
14	0x3cb4843c	0.02203571
15	0x3c03dc48	0.008048125
16	0xbcb906be	-0.022586223
17	0xbd33dd1e	-0.043912046
18	0xbd882043	-0.066467784
19	0xbd85fa07	-0.065418296
20	0xbc97b860	-0.018520534
21	0x3dfe8b77	0.124289446
22	0xbd17053a	-0.03687022
23	0xbd8157f3	-0.06315603
24	0x3cf4ba78	0.029874071
25	0xbdf3e659	-0.1190917
26	0x3ce57967	0.02801199
27	0xbdcd3e4b	-0.10021647
28	0x3dc10123	0.09424045
29	0xbde03115	-0.10946862
30	0x3cd4fb54	0.025998749
31	0x3c0bb81c	0.008527782

weight f4 [32, 32, 5]
0	0x3d9501e7	0.072757535
1	0x3c69483c	0.014238413
2	0xbd5d1d90	-0.05398327
3	0x3c98d7be	0.018657561
4	0x3cbbaf3f	0.022910712
5	0x3db9f296	0.09079473
6	0x3d49b325	0.04924311
7	0x3cd128e7	0.0255322
8	0x3d2fcf05	0.04292204
9	0x3d61d565	0.05513515
10	0xbcb69139	-0.022286044
11	0xbc87a27a	-0.016556967
12	0x3ca1faa8	0.019772843
13	0x3bab1189	0.005220596
14	0xbdae0bed	-0.084983684
15	0xbd6d2ab6	-0.05790206
16	0xbd68f1be	-0.05687117
17	0xbd09fd55	-0.033688862
18	0x3d5a7b14	0.053340033
19	0x3d0f3e92	0.03497178
20	0x3c8c5281	0.017129185
21	0xbb4f551f	-0.003163643
22	0xbd0d9148	-0.03456238
23	0x3d17daf6	0.03707405
24	0xbd444ef0	-0.047926843
25	0xbcc05986	-0.023480188
26	0xbcbb4c53	-0.022863543
27	0x3b7cfecd	0.0038604022
28	0x3d5f76df	0.054556724
29	0xbd8d4a7e	-0.06898974
30	0x3d50879e	0.050910585
31	0x3ce93dcd	0.028471852
32	0x3cbe5a07	0.023236288
33	0x3d682a51	0.05668098
34	0x3d28c11f	0.0411998
35	0x3cd9b1d9	0.026574062
36	0x3c4ade6c	0.012382131
37	0xbd7632b1	-0.060106937
38	0xbdb3e665	-0.08784179
39	0x3cde44f5	0.02713249
40	0xbc6b685e	-0.014368145
41	0x3d89a3a0	0.06720662
42	0x3b8179c1	0.003951282
43	0xbd4e582d	-0.05037706
44	0xbd7f92dd	-0.06239592
45	0x3caaa895	0.02083234
46	0xbdbd1bd3	-0.09233823
47	0x3c1c8f9a	0.009555722
48	0x3d1247c9	0.03571299
49	0xbda076bd	-0.078351475
50	0x3dbb8a8c	0.09157285
51	0xbba0d16c	-0.0049077775
52	0xba043d35	-0.0005044521
53	0xbd84db66	-0.064871594
54	0xbdbd44a5	-0.092416085
55	0x3d83d1dd	0.064365126
56	0xbc0e06fd	-0.008668658
57	0xbc870be7	-0.016485168
58	0xbdaa2f91	-0.08309854
59	0x3cc27b9f	0.023740588
60	0x3d764431	0.060123626
61	0xbd8dd0ec	-0.06924614
62	0x3ccc2208	0.024918571
63	0x3cd95c97	0.026533408
64	0xbb38248a	-0.002809795
65	0xbd6402a1	-0.05566657
66	0x3d55be8a	0.052183665
67	0xbd2f03fa	-0.0427284
68	0xbdb573c8	-0.08859974
69	0xbd722bf3	-0.059123944
70	0xbd630010	-0.05541998
71	0x3d19b780	0.037528515
72	0xbd0a849b	-0.03381787
73	0xbdcb63b4	-0.09931126
74	0xbdad887f	-0.084733
75	0xbd08312a	-0.03325001
76	0xbc28b791	-0.010297672
77	0xbd011a5e	-0.031519286
78	0x3d7804b6	0.060551368
79	0xbd94b461	-0.07260967
80	0x3d5086f6	0.05090996
81	0x3d709125	0.05873217
82	0x3c36f8b5	0.011167695
83	0x3c046b17	0.008082173
84	0xbdba8025	-0.09106473
85	0xbd84f1fc	-0.06491467
86	0xbc336ac9	-0.0109507525
87	0xbd0eabd9	-0.034831855
88	0x3d123491	0.035694662
89	0xbc864201	-0.016388895
90	0x3d1b9ede	0.037993304
91	0xba6e7ede	-0.0009097884
92	0x3d59e2be	0.053194754
93	0x3c203fc1	0.009780825
94	0xbb6c5ed9	-0.0036067276
95	0x3d11b591	0.035573546
96	0xbd873d36	-0.06603472
97	0xbdc0c53c	-0.094126195
98	0xbde1ddf2	-0.11028661
99	0xbc5ca0db	-0.013466085
100	0xbcf87773	-0.030330395
101	0x3c6b596d	0.0143645825
102	0xbd5fe60f	-0.05466276
103	0x3d0970e7	0.033554938
104	0xbc31ee8a	-0.010860095
105	0xbb939641	-0.0045039956
106	0xbd9940b1	-0.07483042
107	0x3d1a5cff	0.037686344
108	0xbd700414	-0.05859764
109	0xbccf57f8	-0.025310501
110	0x3d5a0894	0.053230837
111	0x3d38e712	0.04514224
112	0x3b88d05d	0.0041752295
113	0xbdca86a6	-0.098889634
114	0xbd992bad	-0.074790336
115	0x3d66da9a	0.05636082
116	0x3d2c03c4	0.04199578
117	0x3d463c1e	0.048397176
118	0xbd5b91bf	-0.05360579
119	0x3cd09a19	0.025464104
120	0x3d8f9554	0.07010904
121	0x3d8cc890	0.06874192
122	0x3c62ecd4	0.01385041
123	0xbd239da8	-0.039945275
124	0x3c05657d	0.0081418725
125	0xbce730b7	-0.028221471
126	0x3d8d26f7	0.068921976
127	0xbcd508a0	-0.02600509
128	0xbd9bf5db	-0.076152526
129	0x3c93087d	0.017948383
130	0xbd58d280	-0.052935123
131	0xbdbbdf1d	-0.09173415
132	0x3bcc3546	0.0062319366
133	0x3d27b48f	0.04094368
134	0xbc21aa6c	-0.009867292
135	0xbb38c8fe	-0.0028195973
136	0xbca27b61	-0.019834222
137	0xbdab7cff	-0.083734505
138	0xbc0fa0be	-0.008766351
139	0xbd5688b5	-0.052376468
140	0x3d5c4abc	0.05378221
141	0xbd4e98bf	-0.05043864
142	0x3d4bbf5f	0.049743053
143	0x3c954591	0.018221648
144	0xbdb80ce2	-0.08986832
145	0x3d6d3f1a	0.057921506
146	0xbd8fd36c	-0.070227474
147	0xbd580b6f	-0.05274528
148	0xbc7c1177	-0.015385023
149	0x3b32014c	0.0027161418
150	0x3db6790d	0.08909807
151	0x3d4a4891	0.04938561
152	0x3c36625f	0.011131852
153	0xbd713c18	-0.0588952
154	0x3d6db3bc	0.058032736
155	0xbc10196d	-0.0087951245
156	0xbbdc6f7b	-0.0067271567
157	0xbdaf0b08	-0.08547026
158	0x3c9047f7	0.01761244
159	0xbc410f22	-0.011783393
160	0xbd44a831	-0.048011962
161	0x3ba9bcff	0.005180001
162	0x3d96c5dd	0.07361958
163	0xbcfcb888	-0.03084971
164	0x3dc9e096	0.098572895
165	0x3cdd21e7	0.026993705
166	0xbd20e2ec	-0.03927891
167	0x3a85d81b	0.0010211499
168	0xbda1744e	-0.078835115
169	0x3d2c53c4	0.042072073
170	0x3d3a9def	0.045560773
171	0x3d87974e	0.06620656
172	0xbd0a4437	-0.03375646
173	0xbce117ae	-0.027477112
174	0x3bc45878	0.0059919916
175	0x3d313216	0.043260656
176	0xbccdc25e	-0.025117096
177	0xbd8dcd19	-0.06923885
178	0x3cd73bbe	0.026273604
179	0xbd64a034	-0.055816844
180	0x3dc713cd	0.097205736
181	0x3b29be14	0.002590065
182	0xb930010b	-0.00016785057
183	0xbd178f98	-0.037002176
184	0x3c981807	0.018566145
185	0x3d9901d5	0.074710526
186	0x3dfa9cad	0.12236915
187	0x3d5212b0	0.051287353
188	0xbcaedeb1	-0.021346422
189	0xbc83668c	-0.01604011
190	0x3cce4c95	0.025183002
191	0x3d9a8226	0.07544355
192	0xbd660874	-0.056160405
193	0x3c8274b0	0.015924782
194	0xbd378c63	-0.044811618
195	0x3d1082fc	0.035281166
196	0x3d5b658a	0.053563632
197	0xbd1630a9	-0.0366675
198	0x3ced1d9a	0.02894478
199	0x3cdf8ec9	0.027289765
200	0xbcaf8cf8	-0.021429524
201	0xbd8d9b49	-0.06914384
202	0x3d44f5a8	0.04808584
203	0xbd8ddb4a	-0.06926592
204	0xbb258ef5	-0.002526221
205	0xbd230dae	-0.039807968
206	0x3d42b537	0.0475361
207	0xbcc2d19d	-0.023781592
208	0x3c23114d	0.009952855
209	0x3d1cdb62	0.038295157
210	0xbc02a8a0	-0.007974774
211	0x3d35f703	0.04442502
212	0xbcad2f43	-0.0211407
213	0x3b2f5fc4	0.0026759962
214	0x3d8a84b1	0.0676359
215	0x3dc26af1	0.09493054
216	0x3d2a0b08	0.041514426
217	0x3d02e455	0.031956036
218	0x3d093082	0.033493526
219	0xbdb62f0a	-0.08895691
220	0xbd89a09b	-0.06720086
221	0x3d8d4734	0.068983465
222	0x3cf9f501	0.030512335
223	0x3c0b2e07	0.0084948605
224	0xbcf5c21b	-0.029999783
225	0x3db619e7	0.08891659
226	0x3c86a244	0.016434796
227	0x3dffbda7	0.12487345
228	0xbd20ae0d	-0.039228488
229	0x3dcb3de3	0.09923913
230	0xb9c9dc4d	-0.00038501844
231	0x3d0711a1	0.032975797
232	0xbcf76156	-0.03019778
233	0xbd1d3fa2	-0.038390763
234	0x3d68f8e7	0.056877997
235	0x3caa2df1	0.02077386
236	0xbd933b35	-0.07189027
237	0xbdc84c01	-0.097801216
238	0x3bf97564	0.007612871
239	0xbd5cf440	-0.053943872
240	0x3ca3d40f	0.019998578
241	0x3d3734da	0.044728138
242	0x3df956ec	0.12174782
243	0x3df12985	0.11775497
244	0x3d6ffb91	0.05858952
245	0x3cf76de6	0.03020377
246	0x3dbfebc4	0.093711406
247	0x3def1a7b	0.116749726
248	0x3d89311a	0.066988185
249	0x3d431a8c	0.04763274
250	0xbd0b0eb9	-0.033949587
251	0x3db1a858	0.08674687
252	0x3d81aa82	0.0633135
253	0x3ca0ae4c	0.019614361
254	0x3cc03161	0.023461046
255	0xbb6164bb	-0.0034392315

bias f4 [32]
0	0xbd910cb5	-0.07082502
1	0xbcd687ab	-0.026187738
2	0x3c69d39b	0.014271642
3	0xbd8e0be0	-0.06935859
4	0x3d2d1289	0.042254005
5	0x3d9c4d3d	0.076319195
6	0xbda4d6a0	-0.08048749
7	0xbd454472	-0.048160978
8	0x3d9486c1	0.07252265
9	0x3cc19226	0.02362926
10	0xbd319696	-0.0433565
11	0x3d0c3592	0.034230776
12	0x3dd2ed8e	0.10299216
13	0x3d95a0ce	0.07306062
14	0x3d8e3769	0.069441624
15	0xbd175d0f	-0.036953982
16	0x3be39dc0	0.0069462955
17	0x3d54bf0f	0.05194002
18	0xbcb42e96	-0.02199487
19	0xbca8d7a6	-0.020610642
20	0xbd123fac	-0.035705253
21	0xbc9a4f13	-0.018836534
22	0x3c7e6c45	0.015528743
23	0xbd9316b7	-0.07182067
24	0xbcd5ebf4	-0.026113488
25	0xbda432eb	-0.08017524
26	0xbd85c980	-0.06532574
27	0x3d0aec6f	0.033916887
28	0x3d3b07c3	0.0456617
29	0x3d33adad	0.043866802
30	0xbcf063fc	-0.029344551
31	0x3d693fbd	0.05694555

weight f4 [32, 16, 6]
0	0xbd9fbeef	-0.078000896
1	0x3da1f990	0.079089284
2	0xbd5c1850	-0.053734124
3	0xbdaff422	-0.085914865
4	0x3cf85570	0.030314177
5	0x3c2fb27d	0.010723707
6	0x3d425da3	0.04745258
7	0xbcfc7d28	-0.030821398
8	0x3daa2fda	0.08309908
9	0x3daff690	0.0859195
10	0xbc8db164	-0.0172965
11	0x3da46e40	0.08028841
12	0xbde96d2a	-0.113977745
13	0xbca3fb66	-0.020017337
14	0x3cb0d768	0.021587089
15	0xbcc006da	-0.023440767
16	0xbda4e21b	-0.08050939
17	0x3dbe50d9	0.09292764
18	0xbd67b46b	-0.056568544
19	0xbd6a4358	-0.05719313
20	0xbbba7b4e	-0.0056909686
21	0x3da52176	0.08063023
22	0x3d18f3e2	0.03734196
23	0x39296301	0.00016153978
24	0x3ca26944	0.019825585
25	0xbcf57d32	-0.029966924
26	0xbca99187	-0.020699276
27	0xba04d3c1	-0.0005066954
28	0x3d90dc6b	0.070732914
29	0xbd7440c8	-0.059632093
30	0xbd157d63	-0.03649653
31	0xbdb20826	-0.086929604
32	0x3d81390a	0.063097075
33	0xbc85701e	-0.016288813
34	0x3d5c9232	0.05385036
35	0x3d20c1c2	0.03924728
36	0x3dd53dea	0.104122
37	0x3d034354	0.03204663
38	0x3c24d7ab	0.010061185
39	0x3b7fb6a0	0.0039018765
40	0x3dd3700e	0.10324107
41	0x3d218da2	0.039441712
42	0x3d6420de	0.055695407
43	0xbdcb80c2	-0.09936668
44	0x3d979496	0.074013874
45	0xbd3286a9	-0.043585453
46	0x3d17c720	0.037055135
47	0x3d7994c4	0.06093289
48	0xbdae924d	-0.085239984
49	0x3ce37287	0.027764572
50	0xbd17d5fd	-0.03706931
51	0x3decbf7e	0.11559962
52	0xbc5692b6	-0.013096502
53	0xbd5357a4	-0.051597252
54	0x3d1d7eeb	0.038451117
55	0x3d4d41d0	0.05011159
56	0x3d9436d1	0.07237018
57	0x3d558502	0.0521288
58	0xbdba78f1	-0.09105099
59	0xbc3e28e0	-0.011606425
60	0x3dac0e60	0.08401179
61	0x3da4f59d	0.080546595
62	0x3d6dc215	0.05804642
63	0x3d6cd998	0.0578247
64	0x3d8bfcb1	0.068353064
65	0xbc853bf5	-0.016263941
66	0xbc9ce3ec	-0.01915165
67	0xbd82a103	-0.06378367
68	0x3d8a1284	0.06741813
69	0xbdc52812	-0.096267834
70	0x3ca46375	0.020066956
71	0xbda78454	-0.081795365
72	0xbd998e99	-0.074979015
73	0x3dc2032b	0.094732605
74	0xbb1cd2c2	-0.0023929332
75	0x3d74beb8	0.059752196
76	0xbc645095	-0.013935228
77	0x3cc4f4e3	0.024042552
78	0x3d6b44ea	0.05743877
79	0xbcdf59fb	-0.027264586
80	0xbd4c9b34	-0.0499527
81	0x3d4e3b6b	0.050349634
82	0xbd380c00	-0.04493332
83	0x3dc5a703	0.096509956
84	0x3dcf8708	0.10133177
85	0x3d21a3a0	0.039462686
86	0x3cc2764f	0.023738055
87	0x3d656188	0.056001216
88	0xbdd9a3f5	-0.106269754
89	0xbc500eee	-0.012698872
90	0x3d54cdc3	0.051954042
91	0x3d36ded2	0.04464609
92	0x3d84b098	0.06478995
93	0xbc85c568	-0.016329482
94	0xbda7b114	-0.08188072
95	0xbd8a8e09	-0.06765372
96	0x3d98f1e8	0.07468015
97	0x3d21f101	0.03953648
98	0x3d7b0e0b	0.06129269
99	0x3c3d16e6	0.011541104
100	0x3d096aab	0.033548992
101	0x3d494dd6	0.049146496
102	0xbd390137	-0.045167174
103	0xbd36ec3b	-0.04465888
104	0xbcc18a73	-0.023625588
105	0xbcf716fb	-0.030162325
106	0x3be7106d	0.0070515187
107	0xbd3dc243	-0.04632784
108	0x3dc6e15c	0.09710953
109	0x3d1ed0ef	0.038773473
110	0x3d8516cf	0.06498491
111	0x3c2e672f	0.010644718
112	0xbd9aee63	-0.07565
113	0x3c239f8d	0.00998677
114	0xbd97e41a	-0.07416554
115	0x3d738a6c	0.05945818
116	0xbcb9067d	-0.022586102
117	0x3d8d9687	0.069134764
118	0xbc918926	-0.017765593
119	0x3ddcaa78	0.10774702
120	0xbd3fcbac	-0.046825096
121	0xbd540586	-0.05176308
122	0xbd495e3c	-0.049162135
123	0x3d54bac2	0.05193592
124	0xbce9af96	-0.028526109
125	0x3b3706a7	0.002792755
126	0xbd9a249b	-0.07526513
127	0x3d97aa65	0.07405547
128	0xbc45c9d0	-0.012072042
129	0xbd374bf1	-0.044750158
130	0x3d38b88e	0.04509788
131	0xbbdd038a	-0.0067448067
132	0x3d5445af	0.051824268
133	0xbe007e19	-0.12548102
134	0xbdec8607	-0.11549001
135	0xbd9a7d09	-0.0754338
136	0xbda8d8ff	-0.08244514
137	0xbd8aca95	-0.06776921
138	0x3bcd18a1	0.0062590395
139	0x3d9de6c7	0.07710033
140	0xbdfe8ce1	-0.12429214
141	0xbe1374be	-0.14400002
142	0x3d78b41e	0.060718648
143	0xbdca4a7b	-0.09877487
144	0x3d760b94	0.060069636
145	0x3d3f81a7	0.046754505
146	0xbcbc02df	-0.022950588
147	0x3ded9771	0.11601151
148	0x3d948afc	0.07253072
149	0x3e02d4f9	0.12776555
150	0x3d0a29b1	0.033731166
151	0x3db6ed82	0.0893202
152	0x3db941ab	0.09045728
153	0x3cf643ac	0.030061565
154	0xbd1fec12	-0.039043494
155	0x3d8a3b89	0.06749637
156	0xbd92bcc2	-0.07164909
157	0x3dae4142	0.08508541
158	0xbd4cc89d	-0.049996007
159	0xbd87b19c	-0.06625673
160	0xbb982475	-0.004643018
161	0xbbc090de	-0.0058766445
162	0xbd5a2eee	-0.053267412
163	0x3de76e80	0.11300373
164	0x3d943110	0.072359204
165	0x3dd47c23	0.1037524
166	0x3c41f1e3	0.011837455
167	0xbd8818d3	-0.0664536
168	0xbcd57200	-0.026055336
169	0xbd8ffc79	-0.07030577
170	0xbc6a376b	-0.014295439
171	0x3d5691d8	0.05238518
172	0xbe0eecea	-0.13957563
173	0x3db0e3a5	0.0863717
174	0x3e1abf00	0.15111923
175	0x3d86f279	0.06589217
176	0xbd26ce2d	-0.04072397
177	0xbcf5b054	-0.029991306
178	0xbcfdec33	-0.030996418
179	0x3d7a80c2	0.06115795
180	0xbd1ad0fd	-0.037796963
181	0xbd912909	-0.07087905
182	0x3d165932	0.036706157
183	0xbdd503b5	-0.10401098
184	0xbd2abbb4	-0.041682914
185	0xbd119430	-0.035541713
186	0x3d1d1f2e	0.038359813
187	0xbda83637	-0.08213466
188	0xbe1e8636	-0.15480885
189	0xbd787cde	-0.060665958
190	0xbda37611	-0.07981504
191	0xbdeabcb6	-0.11461775
192	0x3dc7f6e7	0.0976389
193	0xbcd06c02	-0.025442127
194	0x3d9fd169	0.07803614
195	0xbd1525e4	-0.03641309
196	0x3d909760	0.070601225
197	0xbd866c9d	-0.06563685
198	0x3d3c417f	0.0459609
199	0xbc0e0168	-0.008667327
200	0x3db1d3a9	0.08682949
201	0xbd3098a8	-0.043114334
202	0x3d2fd95a	0.042931892
203	0xbd7aaee7	-0.061201956
204	0xbda717aa	-0.081588104
205	0x3d5bedc7	0.05369356
206	0xbd86c1bc	-0.06579921
207	0xbc23f2aa	-0.010006586
208	0x3cd701e8	0.026246026
209	0x3d9f3c3d	0.077751614
210	0x3df44e5d	0.11929009
211	0x3cf5fb40	0.030027032
212	0x3cb10166	0.021607112
213	0x3bd6df07	0.0065573486
214	0xbd5f2c8f	-0.054485854
215	0xbcb2f011	-0.021842988
216	0x3cbd25d8	0.023089334
217	0x3b873355	0.0041259923
218	0x3db5e103	0.08880808
219	0xbcd592c9	-0.02607097
220	0x3caa324a	0.020775933
221	0xbb039db9	-0.0020083024
222	0x3daa7d05	0.08324627
223	0x3d7cbd96	0.06170424
224	0x3d506d32	0.050885387
225	0xbcbdaba6	-0.023153137
226	0xbda63ec1	-0.08117438
227	0x3bce9be2	0.006305204
228	0x3e06f9ac	0.1318118
229	0xbcef6c35	-0.029226402
230	0x3d994bb5	0.07485143
231	0xbcbcb60b	-0.023036024
232	0x3de07601	0.109600075
233	0x3c00a943	0.007852855
234	0xbd42fce3	-0.047604453
235	0x3da62f74	0.0811452
236	0xbdc3c519	-0.09559078
237	0x3c8d713a	0.017265905
238	0x3d07259a	0.032994844
239	0x3d31e8e7	0.043435004
240	0xbc818fd6	-0.015815657
241	0x3d5b0233	0.053468894
242	0x3d10694c	0.03525667
243	0x3da58865	0.08082656
244	0x3c3a10a9	0.011356511
245	0x3cc472dd	0.023980552
246	0x3d2e185c	0.0425037
247	0x3c607854	0.013700563
248	0xbd721361	-0.059100512
249	0xbd406bf5	-0.046977956
250	0xbd7ce6da	-0.061743595
251	0xbb532df8	-0.0032223444
252	0x3c78307f	0.015148281
253	0x3dc29f20	0.09503007
254	0x3dcfa15d	0.101381995
255	0xbd9263d8	-0.0714795

bias f4 [16]
0	0xbdd1af48	-0.1023851
1	0x3daab049	0.08334405
2	0xbd9f5b00	-0.07781029
3	0xbc56dc16	-0.013113996
4	0x3b5bdd03	0.0033548481
5	0xbc838146	-0.016052853
6	0x3d32f29a	0.043688394
7	0xbc70ec8a	-0.014704833
8	0x3c137854	0.009000856
9	0xbd358599	-0.04431686
10	0xbd9098e7	-0.07060414
11	0x3d649e2f	0.055814918
12	0x3d6e8e4a	0.058241166
13	0xbbcdc0b0	-0.0062790737
14	0x3d861129	0.06546242
15	0xbd73a023	-0.05947889

weight f4 [16]
0	0x3f82aaea	1.0208409
1	0x3f7f8971	0.99819094
2	0x3f80945e	1.0045278
3	0x3f7c33a8	0.9851632
4	0x3f750703	0.95713824
5	0x3f8115f8	1.0084829
6	0x3f7d0766	0.98839414
7	0x3f811256	1.0083721
8	0x3f82151e	1.0162694
9	0x3f82c5b8	1.0216589
10	0x3f806551	1.0030919
11	0x3f75bf89	0.95995384
12	0x3f811ec8	1.0087519
13	0x3f84e920	1.0383644
14	0x3f7a0cce	0.9767579
15	0x3f83740f	1.0269793

bias f4 [16]
0	0xbc843b43	-0.01614154
1	0xbcd2931d	-0.025704915
2	0x3d715d01	0.058926586
3	0xbb7c69b3	-0.003851515
4	0xbd0723c5	-0.032993097
5	0xbcb387c6	-0.021915328
6	0xbcc2f88e	-0.02380016
7	0x3b356c3b	0.0027682919
8	0xbc0654ad	-0.008198899
9	0xbb950ee7	-0.0045488956
10	0x3b11272a	0.0022148588
11	0x3d253448	0.040333062
12	0xbd491058	-0.049087852
13	0x3cfb2346	0.030656468
14	0x3d0984bc	0.03357385
15	0xbbd4e2d1	-0.006496765

running_mean f4 [16]
0	0x3db45950	0.088060975
1	0xbeabcec8	-0.335562
2	0x3d802ee3	0.06258943
3	0x3ef3ada2	0.4759341
4	0xbe8d605d	-0.27612582
5	0x3cc7ad9e	0.02437478
6	0x3dcfe836	0.101517126
7	0xbef1460e	-0.4712376
8	0x3f14b19a	0.580835
9	0xbea694e0	-0.32535458
10	0xbe87e44a	-0.26541358
11	0x3e597ef7	0.2123984
12	0xbed2b31d	-0.41152278
13	0x3ced196f	0.028942792
14	0xbda10387	-0.07862001
15	0xbf5f7023	-0.8728048
