results/SV_unet_matrix_5s.pt (torch, 103139 bytes, 49 tensors)

weight f4 [8, 1, 1, 1]
00000000: 0e72 813f d6e1 3e3f 2062 18be 04ba a3be
00000010: d5f3 2e3f ada9 ec3e 4710 f03e 0c2e 28bf
1.0112932 0.7456335 -0.14881182 -0.31977856 0.6834081 0.46223202 0.4688742 -0.6569526

bias f4 [8]
00000000: 2035 adbe 193c 5dbf 91e9 343f 102d 01bf
00000010: 6d50 65bd bad6 ef3d d5cc 05bf f40f 71bf
-0.33829594 -0.86419827 0.70668894 -0.50459385 -0.055984903 0.11710878 -0.52265674 -0.9416497

weight f4 [8]
00000000: 4989 7e3f 3b96 763f 5aec 853f 0000 803f
00000010: 0712 823f 24a3 803f 0471 7d3f 0000 803f
0.9942823 0.96322984 1.0462754 1.0 1.0161752 1.0049787 0.99000573 1.0

bias f4 [8]
00000000: a279 91bb bd48 833c e406 033d 289a 143b
00000010: 05ac 463d 3b35 8fbc 6f02 643d 75ef 07bb
-0.0044395486 0.016025895 0.031988993 0.0022674892 0.048503894 -0.017481437 0.055666383 -0.0020742093

running_mean f4 [8]
00000000: 5a01 f640 7015 1b40 0dc6 5841 0000 0000
00000010: ddde d140 e2c7 be40 210e cd3f 0000 0000
7.687665 2.4231834 13.548352 0.0 6.558455 5.9618998 1.6019937 0.0

running_var f4 [8]
00000000: e413 7842 44c6 4541 b761 5840 0400 0000
00000010: 7e23 1142 0c9b b041 ad6b a640 0400 0000
62.019424 12.360905 3.380964 6e-45 36.28466 22.075706 5.200644 6e-45

weight f4 [8, 8, 5]
00000000: fc0a b23d 8290 68be ca0f 96bd 115a 07be
00000010: 2e7c 36bd d51a cabd a6ff c6bd ac79 80bd
00000020: bde4 103d f1e2 e83d 55d8 23be 92dd 29be
00000030: 45d3 c93c a121 f03c 940d 6cbd 11f0 083e
00000040: 745c a7bc ff69 78bd f521 d3bd 9e68 543d
00000050: f862 5dbc f709 bfbd 2a0e c5bd da96 1d3e
00000060: de9a f83d b21a 93bd 2086 eebd 5908 20bd
00000070: 9168 fc3d e15d c0bd 5755 173e 723d 2cbe
00000080: 71cc 04bd 697b 913d 93f5 b23d 37c5 ea3d
00000090: 7324 58bb 4ed2 f8bd 823c 51bc 7116 ee3a
000000a0: 480c cb3d 3efd 82bc 975f 3ebb 70d9 6f3b
000000b0: 742f eb3c 3e54 eb3d f512 90bc 1e8d 7bbd
000000c0: e997 cdbd b047 3e3b 9882 ec3d c057 a2bd
000000d0: 62df b23d 03e4 eebd 1954 2cbe 855d 97bd
000000e0: ecee 36bd b4f7 98bd 0e53 0f3e 54a7 acbd
000000f0: b4b1 a2bb 33ff 093d ff03 873d 391c 0d3e
00000100: b6d8 c53c fb5e 14bd e5ca 9d3d e149 e13c
00000110: 81bf 2c3e 3a05 93bd eaf3 e63c 1674 ffbd
00000120: 4dde e93d b3f5 eebd ec36 ffbd 0bec 633d
00000130: a718 163e e8ef ed3c 5daf 043e 353c d6bd
00000140: 6965 a03d 330e e53d 8555 873d 54df 063e
00000150: 9ea2 22bc 743e fa3d 724e 00bd 34ec 1d3d
00000160: 0baf f03c 0d8e a7bc 0b90 c2bc 3470 563d
00000170: 990a 133e f8a0 b3bd f7bc ce3a 21c8 f8bd
00000180: 40a8 ff3d 1c97 2f3c c963 3dbd afed 3f3a
00000190: 9e25 be3d 229c ba3d c5b6 d63d df3f 5ebd
000001a0: a3fa 0cbe a50c 91bc 4dbb b53c d196 033c
000001b0: 9ae9 843d fb00 a03d 6848 a7bd b13a 13be
000001c0: 3968 48be b9d3 5d3d 59fe b7bd eb64 67bd
000001d0: f49a 6b3d 7cec 903d 1714 22be bd61 1d3d
000001e0: dc4d 3ebd 7e37 dcbd 772e 71bd 7cea bf3d
000001f0: da5e 2dbe 03de 8b3d de44 2a3e d548 9f3d
00000200: b9bc 273d a50c 283d fc38 37bd 9806 763c
00000210: 9de5 943d c50c fdbd 2743 9e3d bf79 21be
00000220: 7dee 393d a12b 1fbe efe3 a3bc 21a3 a03d
00000230: e8cb 24be aebc f33d 27f4 bebd a0ef 793a
00000240: c498 1c3c c895 5cbc 2b05 8dbd fdcc 8dbc
00000250: b4b5 ac3c ca67 ac3d d73f 27bc e81b 2e3e
00000260: a69b a03d 84ce f3bc 03fe aebd 476f 9e3d
00000270: a005 d5bd 2c1b f13d c553 82bd 000a 163e
00000280: 22a3 10be 32ae 17be 4005 fdbd a043 b5bc
00000290: d293 01be 9f65 b03b 7d8b 8e3d 59fc a4bd
000002a0: ec6c b3bb 0f06 64ba 3746 c6bd 14cc 923c
000002b0: 97eb 94bd 03f4 a9bb 9ae2 d23c 2d9e 4abd
000002c0: 881d 03be 0a09 bcbd 7cf4 dc3d 15a2 24be
000002d0: e856 71bd 8a16 35be e21c be3d ea1e 303e
000002e0: 6f99 173e 5cca 1a3c be05 37be 84a8 96bc
000002f0: 3b15 3b3e 7e12 3f3e 12d5 963d 5b53 363d
00000300: 1dd0 1b3d 43ea 703d e820 ef3d 18f4 153e
00000310: fcbb 99bd 24ae bebd 8d71 413e 4d12 21bd
00000320: 90e3 94bc 79b2 1abe 5847 3cbd 18af 30be
00000330: 7f00 d3bb 3ef8 09bd 6d58 df3d 18cc 9b3d
00000340: 9b0c dcbc b3dd 30be 7fcd 49be 2d99 5abc
00000350: acfa 81bc ad51 a13d a8c2 5b3d 2526 c83d
00000360: 0dc1 f7bd 1554 3fbd 4d4a e8bd 9243 1bbe
00000370: 2887 343e 6fac bc3c e3b0 c2bd 0e8d a13d
00000380: 21b0 a2bd ade2 aa3d 53df 933d 4a27 a1bd
00000390: 8a83 ebbd 3cce b23d 29ce d33d 7945 a63d
000003a0: 028b 54bd 4d81 e3bb 85dd ce3d ffeb e8bd
000003b0: 83a2 2ebd c488 d8bd d618 0ebd 0efe d23c
000003c0: 6573 51bd a932 ecbd e407 38bd f3de e1bd
000003d0: 929b e63d 1f7f 2dbd f855 eabc 8382 b8bd
000003e0: 5c97 5e3d c880 b13c 7220 7fbd 926a 3abe
000003f0: 7a62 8abd e974 afbd d873 10be 0f20 15be
0.08693501 -0.22711375 -0.0732723 -0.13217951 -0.04455202 -0.09868399 -0.0971673 -0.06273207
0.03537439 0.11371411 -0.16000493 -0.16588429 0.024636874 0.02931291 -0.057630137 0.13372828
-0.020429827 -0.06064796 -0.10309211 0.051857583 -0.0135123655 -0.093280725 -0.09621842 0.15389577
0.121389136 -0.07182826 -0.11646676 -0.03907046 0.12324632 -0.09392906 0.14778648 -0.16820315
-0.032421533 0.07103617 0.08738246 0.11463397 -0.003298071 -0.121494874 -0.012770774 0.0018164647
0.09914452 -0.015989896 -0.0029048675 0.0036598109 0.02870915 0.11490677 -0.017587164 -0.061413877
-0.1003874 0.0029034428 0.11548346 -0.07926893 0.08734013 -0.116645835 -0.16828956 -0.07390884
-0.044661447 -0.074691206 0.13996527 -0.08430353 -0.0049650315 0.033690643 0.06592559 0.13780297
0.024151187 -0.036223393 0.07704715 0.027501049 0.16869928 -0.07178731 0.02819248 -0.124733135
0.11419354 -0.11667957 -0.124616474 0.05564503 0.14657842 0.02904506 0.12957521 -0.10460702
0.078318425 0.11184349 0.066081084 0.1317113 -0.009926466 0.12218943 -0.03132481 0.03855534
0.029380342 -0.020453477 -0.023750326 0.0523531 0.14359511 -0.08770937 0.0015772869 -0.121475466
0.12483263 0.01071718 -0.04623774 0.00073214894 0.09284519 0.09111811 0.10484079 -0.05426013
-0.13767485 -0.017706225 0.022184039 0.008031563 0.064898685 0.07812687 -0.08168107 -0.14377858
-0.19571008 0.054156993 -0.0898406 -0.056492727 0.05752082 0.07076356 -0.15827976 0.03842329
-0.04646097 -0.10752772 -0.058882203 0.09370896 -0.16930714 0.06829455 0.16627833 0.077775635
0.040951464 0.041027684 -0.04473208 0.0150162205 0.07270358 -0.12355951 0.07727652 -0.15769099
0.045393456 -0.15543987 -0.020006148 0.07843614 -0.16093409 0.11901222 -0.09323912 0.0009534303
0.009557907 -0.013463445 -0.06885751 -0.01730966 0.021082737 0.08418234 -0.010208092 0.17002833
0.078421876 -0.02976156 -0.08544543 0.07736068 -0.104014635 0.11772761 -0.06363634 0.14652252
-0.1412473 -0.14812544 -0.12354517 -0.022126973 -0.12654045 0.005383208 0.06960199 -0.08055944
-0.005475631 -0.00086984126 -0.09681361 0.017919578 -0.07271498 -0.005186559 0.025742818 -0.049467254
-0.12804234 -0.091814116 0.10788819 -0.16077454 -0.05892077 -0.17684379 0.09282853 0.17199293
0.14804624 0.00944766 -0.17873284 -0.018390901 0.18269818 0.18659398 0.07364859 0.044513088
0.03804027 0.05881716 0.11676198 0.14643896 -0.07506558 -0.093105584 0.18890972 -0.039324094
-0.018174917 -0.15107144 -0.045966476 -0.17254293 -0.006439268 -0.033684008 0.10905538 0.07607287
-0.02686148 -0.17272072 -0.19707297 -0.013342184 -0.0158666 0.078769065 0.053652436 0.097729005
-0.120973684 -0.046711046 -0.11342297 -0.15162495 0.17629683 0.023031441 -0.09506395 0.07888232
-0.0794375 0.08344016 0.0722033 -0.07868822 -0.114996985 0.08730742 0.10342056 0.081187196
-0.05189038 -0.006942904 0.10100845 -0.11373138 -0.042635452 -0.10572961 -0.034691654 0.025755908
-0.05113544 -0.115331 -0.0449294 -0.11028852 0.112601414 -0.04235756 -0.028605446 -0.09009268
0.054343566 0.021667853 -0.0622868 -0.18204716 -0.06757064 -0.08567221 -0.14106691 -0.1456301

bias f4 [8]
00000000: 224e c63d c2ec 603c b508 c9bc fdf7 933d
00000010: 36a7 f33d 7987 adbd a792 a43d 5f8b 433e
0.096828714 0.013728322 -0.024540285 0.072250344 0.11897127 -0.08473105 0.08035784 0.19096135

weight f4 [8, 8, 5]
00000000: c471 63bd fb4c 823d 39ef da3d 5a80 d13d
00000010: afec 67bd 3c8c c33c ad48 d33d e108 dbba
00000020: 540f dcbd bd2e 21be 4c3c e73c fa9b ea3c
00000030: 19d1 30be 9a25 62bd 0760 fd3d e599 6bbc
00000040: 417b efbd 76d7 ae3d a956 f1bd 5072 993c
00000050: 7e46 1a3d a189 9d3d 513a 163e 3c05 67bd
00000060: 6f96 7bbd d77a c5bc 2709 0dbe 5747 5cbd
00000070: bf0f d8bb f9fe 1dbe 161e cf3b db93 19be
00000080: c11b 33be 2521 87bd 9136 7f3c 4e68 39bc
00000090: 6e6c c5bc 2b6c aa3c 64b4 df3c 3697 9cbd
000000a0: 1b70 0f3e 723d aa3c 52af 1ebd 8225 0c3e
000000b0: 37a8 ccbd 5344 2b3c 28b3 103e 387e b53d
000000c0: 5737 a83c cc4c bbbd 2a21 99ba 7b39 e83c
000000d0: dcc0 653d 553a e83d 1807 92bd cff9 263e
000000e0: 2e7f 82bb 4a3f 9cbd 2ce7 27be 6f60 26be
000000f0: 5ecc 21be 7a70 18bd 5585 943d 22b1 bf3a
00000100: e12f adbd 4749 19bd 2dbf 503e b5d2 f23b
00000110: 8eba 18be 6de3 ca3c 5e8c f93d 40d5 3cbd
00000120: 951d 8d3c d7cc 95bd 0539 403e 5cbc 023d
00000130: e7a5 9dbd 69ad eabd 962d 7f3d 93ba b8bd
00000140: 1ffe 183e 7b9e 863d 35b9 063e 3e92 a43c
00000150: 61cc 2ebe 7250 4cbd 2d6e f8bd 342a 7abd
00000160: 8a1e fd3d 5b82 85bd b807 4dbe ac86 9f3d
00000170: 9c0c 09bd 65f1 e73d 05de 8d3c 6ae2 da3d
00000180: e1a4 38bd 738b 303d 9cdd f03b af05 d2bd
00000190: a815 b3bd f5b2 3a3d b44f 093d bfd5 8abd
000001a0: a889 57be ad49 da3d 6339 343d b902 133d
000001b0: 80d9 45be 48b4 29be 26f0 713d 48c2 12be
000001c0: c9ea 593d 6d13 92bd 7dba 3cbb f022 683d
000001d0: 0a62 193e dbcf edbd 9510 c93c 877e 2b3e
000001e0: 6215 e0bd 9214 033e 5a87 86bc dc30 3f3b
000001f0: e778 4f3d ac70 2e3e 166a 193e 037b 8abd
00000200: 177b f63d d144 973d 41d1 a33c 2c07 b4bd
00000210: 672a 24bd dbe1 ccbc 2067 b63d 909d c73d
00000220: f996 e53b 591c 94bd dec5 e23c 4f8c c4bd
00000230: e5d6 ca3c f080 0f3e e2d8 d33d b177 043e
00000240: 7298 153e b616 1d3d 0066 b9bc c714 ac3d
00000250: b440 11ba a804 d13d 6cad bf3d c787 f5bc
00000260: 00b8 fd3c a693 7abd b784 853d b5d8 323d
00000270: c1ad c1bd 8fe2 283d 7c4f 253b 63d4 303e
00000280: 5e22 7fbd aae3 52bd 032d 803d 7622 b8bc
00000290: c38f 31be 3307 0ebe 2c96 03be f363 febd
000002a0: d26f 16be ac36 2b3d d225 4cbd 767d 94bc
000002b0: 2c85 bcbd 7517 0a3e e5d0 bdbd af69 d9bd
000002c0: df4e 20be 3606 b03d 3602 0dbe 8d18 05be
000002d0: 330e ac3d 3c8a 2ebc ec7a f1bd dccb 83bd
000002e0: d9cb c6bb a1f4 95bb 0daa 683d 5458 b5bd
000002f0: 9315 843d 51ac 353d 52eb 33be 47a7 93bc
00000300: be80 29bd 68b9 343d 7745 1bbe d418 893d
00000310: c229 e63d 2eb8 d9bd 04c8 69bd c471 743d
00000320: 5aaa c53c 7875 433d 3670 103d c6d5 cabc
00000330: 7afa 00be 8123 a4bc 13f5 92bd 002e 0fbd
00000340: 8a64 bbbd 1eb3 9d3c 2abd ec3d ccdd ca3c
00000350: 30c7 64bd 01ca a6bd 3439 fabd 9191 f0bd
00000360: c94a 19be 3468 373d ea63 24be b566 b2bc
00000370: 1745 173e e214 bb3d 9f41 1b3e 7e81 f8bc
00000380: 60ec 91bd 383b 743d 2828 dfbd 0311 23bd
00000390: ab90 623d 4bb4 f5bd 56ce b7bd 884d 233e
000003a0: 934f 2b3d 1f34 83bd fc85 85bd 942f f33d
000003b0: e5ec 22be c1d0 3f3e ee13 f73d 734e adbd
000003c0: c31b 573e 6983 043e 2be8 423e 633d ecbd
000003d0: 61e6 d73b 8ad7 133e 7814 2cbe 739b a33c
000003e0: fed7 1d3d 6b8b b23d cda9 a3bd 4a9b eabd
000003f0: 5a99 92bd 7228 73bc 5fa0 713c 40d9 ea3d
-0.055528417 0.06362339 0.10690159 0.10229559 -0.056622203 0.02387058 0.10316596 -0.001671102
-0.10745111 -0.15740485 0.028226994 0.028638829 -0.17267264 -0.05521164 0.123718314 -0.014379953
-0.11693431 0.0853719 -0.11784107 0.018731266 0.037664883 0.07692266 0.14670683 -0.056401476
-0.06142276 -0.024106426 -0.13773023 -0.053778972 -0.006593674 -0.15429296 0.006320725 -0.14997809
-0.17491056 -0.06598119 0.0155769745 -0.011316372 -0.024099555 0.020803532 0.027307697 -0.07646029
0.14007609 0.020781253 -0.038741417 0.13686183 -0.09993022 0.0104533015 0.14130843 0.08861965
0.0205342 -0.09145507 -0.0011682857 0.028347721 0.05609213 0.11339251 -0.07130259 0.16306232
-0.003982446 -0.07629259 -0.16396779 -0.16247724 -0.15800616 -0.03721664 0.072519936 0.0014624933
-0.08456398 -0.0374234 0.20385428 0.007410372 -0.14914915 0.024766648 0.12184976 -0.04610181
0.01722602 -0.07314461 0.18771751 0.031917915 -0.07697659 -0.114588566 0.062299334 -0.09019961
0.1494069 0.065731965 0.13156588 0.020089265 -0.17070152 -0.049881406 -0.12130389 -0.061075404
0.123593405 -0.06519004 -0.20022476 0.077893585 -0.03345929 0.11325339 0.017317781 0.10687716
-0.045079116 0.04310174 0.0073506366 -0.1025499 -0.08744365 0.045580823 0.033523276 -0.0677905
-0.21048605 0.10658584 0.04400004 0.03589127 -0.19321251 -0.16572678 0.059066914 -0.14331925
0.053202424 -0.071326114 -0.002879768 0.056673944 0.14978805 -0.11611911 0.02454404 0.16747485
-0.109415784 0.12800816 -0.016421963 0.002917341 0.05065241 0.17035168 0.14981875 -0.06761744
0.12035196 0.073861726 0.019997241 -0.087904304 -0.0400795 -0.02501004 0.08906388 0.097468495
0.0070065227 -0.072319694 0.027682241 -0.09597074 0.024760673 0.1401403 0.103441015 0.12936284
0.14608935 0.038351737 -0.022631645 0.084024005 -0.00055409526 0.10205966 0.093592495 -0.02997197
0.030971527 -0.061175965 0.06519454 0.0436637 -0.09456969 0.041231688 0.0025224378 0.17268519
-0.062288634 -0.05148665 0.06258585 -0.02247737 -0.17339997 -0.13869934 -0.12850255 -0.124214076
-0.14691094 0.041800186 -0.049840756 -0.01812623 -0.09205088 0.1348551 -0.09268359 -0.10615861
-0.15655087 0.08594935 -0.13770375 -0.12997647 0.08401146 -0.010653075 -0.117910236 -0.064353675
-0.006066781 -0.004576281 0.056802798 -0.08854738 0.064494275 0.044353787 -0.17570236 -0.0180241
-0.041382544 0.04412213 -0.15163217 0.06694189 0.112384334 -0.106308326 -0.057075515 0.059678808
0.024129082 0.04771945 0.035263263 -0.024760138 -0.12595549 -0.02003646 -0.071756504 -0.03495598
-0.09150036 0.019250449 0.11559518 0.024763964 -0.055854023 -0.08143998 -0.12217942 -0.117465146
-0.14969935 0.04477711 -0.16053739 -0.02177749 0.1477245 0.091348425 0.15161751 -0.030335184
-0.07125163 0.059626788 -0.10896331 -0.039811146 0.055313747 -0.11997279 -0.08974902 0.15947545
0.041823935 -0.06406426 -0.06519696 0.11874309 -0.1591068 0.18731977 0.12064348 -0.084622286
0.21006684 0.12940754 0.19033878 -0.11535146 0.0065887426 0.1443769 -0.16804683 0.019971585
0.038536064 0.08717998 -0.07991371 -0.114554 -0.07158156 -0.014841186 0.014747708 0.114672184

bias f4 [8]
00000000: 76fd 09be 9c09 f53c ab93 eb3d 0858 453c
00000010: 0d9e 58bd fc1a 8abd 7d4e 19bc 2bee 593d
-0.13475594 0.029911809 0.11502775 0.012044914 -0.052885104 -0.06743428 -0.009357092 0.05320565

weight f4 [8]
00000000: d07b 713f b93a 783f a785 7d3f 667c 7a3f
00000010: b63a 7d3f e833 813f c08a 823f 5bb8 863f
0.9432955 0.96964604 0.9903206 0.97846067 0.9891771 1.0093966 1.0198593 1.0525011

bias f4 [8]
00000000: 1d5f ad3c 6974 063c a3d5 c23c 06ff 2dbc
00000010: 68cb c93c 647d 473d 5087 de3c 6c80 953c
0.021163518 0.008206465 0.02378351 -0.010619884 0.024633124 0.048703566 0.027164131 0.018249713

running_mean f4 [8]
00000000: eab2 393a 245f 093e dc23 1f3e dc39 aa3e
00000010: 0400 0000 e431 983d 28dc 133e d8d0 0f3e
0.000708385 0.134152 0.15541023 0.33247268 6e-45 0.07431391 0.14439452 0.14044511

running_var f4 [8]
00000000: c9de e337 2aaa 973c 59e6 e73b d53d 833d
00000010: 0400 0000 1083 ac3c 3413 863c 0b14 ef3b
2.7164251e-05 0.018513758 0.00707702 0.06408278 6e-45 0.02105859 0.016366579 0.0072960905

weight f4 [16, 8, 5]
00000000: c5cf 99bd 55ea 163e 2e70 6b3d c0ee 08be
00000010: 7f5a fbbd 4b5f a33d 7a7c d2bd 9414 83bc
00000020: fa03 74bc 3646 063e 9e2d 75bd 0be4 0ebd
00000030: 52ce 35be 3ce9 883d f14e 073e 779f fbbd
00000040: 1944 633d db30 b2bd 3822 6abd d7b3 fb3d
00000050: 666b d73d 9761 edbd fc32 2a3c c7fd 92bc
00000060: 6b64 803d 16d3 1ebd e1ad 5e3d 4ae6 0abe
00000070: f66b 1b3e 0f4b cbbd 87f4 2fbe b6e9 90bd
00000080: e334 f33d 1e22 cebc 8250 913c 4ecc f0bd
00000090: a998 f8bd 0948 14be d5b2 f8bc c8d4 453d
000000a0: 4953 813d 04e1 84bd 66d1 553d 2a23 bb3d
000000b0: eeea 2fbe bdbb 8dbd 3910 58bd 3f72 1cbe
000000c0: be6a 653d 6021 1fbe 0b7e 3ebe 33a6 4bbe
000000d0: c426 733c 4232 323d 5013 0b3e c79f abbd
000000e0: 4aad db3c da04 0b3d 840a 31be a731 f83b
000000f0: 5b03 613d 6630 c5bb dfa3 7c3d 2b02 62bd
00000100: 8127 1dbd 2c77 3d3e aaa9 2cbe 6e51 fa3d
00000110: 56bd 2f3e 0a10 d43d 30a6 653d 8a4a fd3d
00000120: dc84 bc3c f73c c23c c38a cebc f448 2c3d
00000130: d3b0 a03d 8c6e 1bbe 79c6 38be e48b d5bc
00000140: 4ac1 9f3d 5e8b d7bc 6eee 18be 2077 1bbe
00000150: d7aa a13d 73c2 ddbd d3a5 03bc eef4 3ebc
00000160: 413e 213e 8e51 46bd 94a1 dabd 0b88 e23c
00000170: 5a87 c83d f4b5 0cbd f4a7 bd3d 6cf7 1abe
00000180: d9ff 9e3d f2ad 593d 7fe8 473e d511 dc3d
00000190: 252c a0bd dd25 1cbd e061 8fbc 4477 c23c
000001a0: aafa 033d ec1d 23bd 459e 583d 8f39 0dbe
000001b0: 88f7 5e3d ac8e 473e 337a b33d 476a 543a
000001c0: 8091 803d 95c2 0a3e 9e76 1c3e 66f3 20be
000001d0: 91d2 cabb 9127 7dbd 86c4 843d d5a0 4e3e
000001e0: e58f 613c 3d9d d2bd a2d5 9dbc 7987 f2bb
000001f0: 98f9 323e 1664 06be 1278 f1bc b96b fa3c
00000200: 7357 edbc 7f66 b9bd 8753 233e a6d9 aa3d
00000210: 1ae8 fc3c 00af be3d 85e9 1bbe a89b 50bc
00000220: 9b64 55bd 3f32 883d b03e 953d 22f1 79bd
00000230: 8b37 09be 2c0e febd e1d7 0dbe e607 833d
00000240: f30b 8d3d d36c 4d3d d087 89bd 69e6 0b3e
00000250: 84b0 1b3b ede0 babd 9416 32be dd46 193d
00000260: 35ae 0c3e 7bf5 3d3d 29af 823d d96c 43be
00000270: 80f6 163e 865d f3bc d959 9fbd a355 c2bb
00000280: 3035 80bd 8f7d e43c f585 02be 2f38 f4bc
00000290: 581b 9ebd 4bc1 96bd 9485 083e 708d 183e
000002a0: 299c 6ebd 7f3f 833d 0141 9c3d f888 2a3e
000002b0: f207 863c d3bf 2abd 1835 67bd 9766 4bbe
000002c0: 5dbe 023e 82c9 2b3e 5ec6 743d 04da 673d
000002d0: efe8 043d 27eb de3c a2b2 c53d 793e 073d
000002e0: d826 d63c 3697 1ebe 7bc5 d03d 8eb1 b1bc
000002f0: b684 0f3c 2935 67bd 8407 bdbc e64f 823d
00000300: 3a0a 2f3e bac3 493d 8024 5ebb 5d76 8e3c
00000310: 945b 873d ae4c bfbc a935 35bd 1508 d5bd
00000320: 69d2 83bb cded cc3d 8eb3 90bc f3c8 f6bd
00000330: cf89 a33b 4de1 ec3c 7aff f13d 6e29 0dbe
00000340: 60bd bfbd bd3a b8bc f280 753d 3d25 1e3e
00000350: 9017 233e d600 103e 58d1 05be 8c7c 943d
00000360: 6bf1 f83d 1afb 8cbd 2bf0 28be 1da9 0a3e
00000370: 27c7 34be fe6e fa3d 6d08 083d b883 a7bd
00000380: 9ffa c63d bbb3 78bb 7922 5ebd b589 c63c
00000390: 72c1 89bc fa00 1a3d fb03 a23d fc67 e4bb
000003a0: 88d2 10be 048c fd3d 6e1a 603d ba1a 97bd
000003b0: 9d82 f0bd e397 bebd dfac 15be 21d3 9f3b
000003c0: 0679 9fbd bff5 d4bd 6ff0 c3bd 78c5 39bd
000003d0: 17c9 58bd a558 703d 1b67 8abd cc44 213d
000003e0: ad8d 67bc 7680 963c 3ff2 08bd e022 0f3d
000003f0: 12aa 873d ed2d b63b c375 02bd 6212 923d
-0.07510332 0.14737828 0.05748003 -0.13372326 -0.1227312 0.0797716 -0.10277648 -0.016001023
-0.014893526 0.13112721 -0.059857957 -0.034885447 -0.17754486 0.06685111 0.13213708 -0.12286275
0.055484865 -0.08700725 -0.05716154 0.12290161 0.105185315 -0.115908794 0.010388132 -0.017943276
0.06269153 -0.038775526 0.054365043 -0.13564411 0.15177903 -0.09926426 -0.17183124 -0.07075827
0.11875322 -0.025162753 0.017738584 -0.11757718 -0.121384926 -0.14480604 -0.030358711 0.048298627
0.063147135 -0.06488231 0.05220165 0.091375664 -0.17179462 -0.06920574 -0.052749846 -0.15277956
0.05601 -0.15540075 -0.18602769 -0.19887619 0.014840785 0.04350496 0.13581586 -0.083800845
0.02681603 0.033940174 -0.17289168 0.0075742784 0.05493484 -0.0060177324 0.061679717 -0.05517785
-0.038367752 0.18502492 -0.16861597 0.12222563 0.1716207 0.10354622 0.056066692 0.12367733
0.023012571 0.02371071 -0.025212651 0.04206176 0.078462265 -0.15178889 -0.18044461 -0.026067682
0.07800539 -0.026311573 -0.14934704 -0.15182161 0.07893913 -0.10828104 -0.008035141 -0.0116550755
0.15746404 -0.04841762 -0.1067535 0.027652761 0.09791441 -0.03435321 0.0926055 -0.15133446
0.07763643 0.053144403 0.19522284 0.10745589 -0.0782092 -0.038122047 -0.017502725 0.02373851
0.032221474 -0.039823458 0.052885313 -0.13791488 0.054435283 0.19488019 0.08763542 0.0008102995
0.06277752 0.1355079 0.15279624 -0.15717849 -0.0061896523 -0.06180531 0.06482796 0.2017854
0.013767217 -0.10283897 -0.019266907 -0.0074014035 0.17478025 -0.13124117 -0.0294762 0.030568944
-0.028972363 -0.09052753 0.15949832 0.083422944 0.030872393 0.09310722 -0.152258 -0.012732424
-0.052097898 0.06650209 0.07287347 -0.061020978 -0.13400094 -0.12405047 -0.13851883 0.06397991
0.06887045 0.05015261 -0.06715357 0.13662113 0.0023756335 -0.091249324 -0.17391425 0.037421096
0.1373833 0.046376687 0.063810654 -0.19084491 0.1474247 -0.029707681 -0.07780809 -0.005930619
-0.06260145 0.027891902 -0.12746413 -0.029811947 -0.07720059 -0.073610865 0.13332206 0.14897704
-0.058254395 0.06408595 0.07629586 0.16653812 0.01636121 -0.041686844 -0.05644712 -0.19863354
0.1276793 0.16776088 0.05975949 0.0566044 0.032448705 0.027211739 0.09653212 0.033018563
0.026141569 -0.1548737 0.101939164 -0.02169111 0.008759668 -0.05644718 -0.023074873 0.06362896
0.17093745 0.049258925 -0.0033896267 0.017390424 0.06609264 -0.023351993 -0.044240627 -0.10401932
-0.0040228856 0.100062944 -0.017663743 -0.12050047 0.0049907933 0.028916026 0.118163064 -0.13785335
-0.09362292 -0.022488946 0.059937425 0.15443893 0.15926957 0.14062819 -0.1306814 0.07250318
0.12155422 -0.06883831 -0.16497867 0.13541074 -0.17654096 0.12228201 0.03321116 -0.0817942
0.09715771 -0.0037948925 -0.054232094 0.024235586 -0.016815875 0.037598588 0.079109155 -0.0069704037
-0.14142811 0.123802215 0.054712705 -0.073781446 -0.117436625 -0.09306314 -0.14616726 0.0048774634
-0.07786755 -0.10398435 -0.095673434 -0.045354337 -0.05292615 0.058678288 -0.06757947 0.03937225
-0.014132899 0.018371802 -0.03343415 0.03494537 0.06624235 0.005559674 -0.031850588 0.071324125

bias f4 [16]
00000000: 0fe6 1d3e 8f60 a33d 2ca3 b3bb f850 2b3d
00000010: ac95 003e 5e8e cd39 5117 41be dfbd cfbd
00000020: 63d0 9c3d 5c9b 21bd 7bef b6bc ca07 1c3e
00000030: 6a62 2b3d 272c 383c 5bbb 46bd 7cea c43d
0.15419792 0.079774015 -0.005482098 0.041825265 0.12557095 0.0003920672 -0.18856551 -0.10143637
0.07656934 -0.039454803 -0.02233099 0.15237346 0.0418419 0.0112409955 -0.04851852 0.09615037

weight f4 [16, 16, 5]
00000000: ca7c b43c f7f4 353d 5399 a13c fdaa d63d
00000010: 0fb7 52bd 470e ef3d c1da cebd c63d 673d
00000020: 278c 2bbe 22d9 d4bd 5462 cbbd ba37 aabd
00000030: ca22 d8bd e5f9 ae3d 1a53 053e 979e 403d
00000040: f095 573d 874d 973d 0781 c0bd e340 1f3e
00000050: 570f adbc b118 24bc 2633 14bd cc4f a13d
00000060: 8c5a 72bc bab7 a5bd 62b9 7fbd da3b 8abd
00000070: abd8 7b3d e9ea 713d f1c3 2abd a6a9 953c
00000080: c2fa b9bd f401 b4bc 9634 08bc da3b 49bd
00000090: 9e7d 593c 4bdf 8a3c d16b b73d c0a8 aebd
000000a0: b5d3 8f3d bf57 d6bc d970 813d b33a b3bd
000000b0: c8ef ccbd d70d b4bd 48db 23bd f814 63bd
000000c0: 01f3 f53d dd46 fbbb 4a6c a2bb 8313 f1bd
000000d0: 5aa5 c4bd 4f30 19bd af63 21bd 19d6 52bb
000000e0: 3157 0d3e bc93 30bc b906 653d 415d e63d
000000f0: ddec ac3d 30a4 e8bd 4041 933d 97cb bbbd
00000100: e7a0 abbd ef7c b1bc f0ba 85bd 6bec 69bd
00000110: 08fd acbd 6bcf c5bb 6ca3 44bd 45ef babc
00000120: 13c9 bd3d cba1 943d 2eeb 423d 6567 993d
00000130: e29b 3b3c 65f2 64bd 3b2b cd3d e2a7 8fbd
00000140: 6916 f43d 0e7c b83c 39d7 573d c4a8 a8bd
00000150: dde8 de3d 46df b33d 2dfb dbbd 3d29 2c3d
00000160: 55a1 80bd c107 f73c 0c46 e5bc 4504 a6bd
00000170: 5f38 e6bc d7e8 08be 402e ffbd 8d34 8dbd
00000180: de37 0ebe c631 3dbe 03ff 3bbd 2241 683d
00000190: dcbc 7cbd 048f 463d f6b8 ea3d 27df b83b
000001a0: fd23 3f3d 7c5e 6cbc 9e8f e5bd d6ae 01be
000001b0: 2bc4 493d 3f44 e1bc 8979 ae3d f8a6 0ebd
000001c0: 5816 14bd fdd8 533b b197 c0bb 2f49 aa3d
000001d0: 7f4b acbd aa24 b23d bb75 b1bd 52fd 89bd
000001e0: bc4b c43d 8935 0f3d 3e3b cc3c 4c75 843d
000001f0: 8048 8dbb 67ed 7d3c e191 91bc c196 eb3d
00000200: ab74 41bd 9d4e b13d 2e26 20bd abe7 07bd
00000210: 1f0d 08bd c585 0a3d 34d3 eabc 3b87 d4bd
00000220: ed65 afbd 0c90 a43c e403 cabd 91d8 0ebe
00000230: dc14 4cbc 426a a73d 5de0 f43c 2b86 d6bc
00000240: dcfc 803d c8a4 c0bd 94fc 773d a07e df3d
00000250: 16e0 ef3c 13b1 64bd 4750 a2bb 0130 393d
00000260: ea0f 5ebd 7e2c 89bd 02a1 80bd 0784 d1bd
00000270: 04ee afbc 1f3c 323d 2967 02bc 958b 503d
00000280: dd1b 26be 89dd 993b 4c05 673d ceef 20bc
00000290: 0264 393c 3af8 473d d6b6 d9bd 0357 da3d
000002a0: c4bc ac3d 8254 e0bc af12 4c3c d8ae f7bd
000002b0: fc93 0f3c e8b4 2a3c cb1b 533c e887 4f3d
000002c0: a7f6 19bd 6e39 3b3d c431 6a3d ee62 3bba
000002d0: 40c2 853d e324 bb3d 7043 06be 5738 aabd
000002e0: cce7 da3d 03d8 713d 9dde bcbd 19a0 c63d
000002f0: a7fd cabd 4b28 d63c 542f 103d 2647 dd3d
00000300: 7a1f ae3d 0b5d 99bd a2d9 1fbe 44ac c1bd
00000310: ba82 3e3d f81c f23b da57 1a3b 4c6f 9ebd
00000320: 858f 97bd 30c9 a83d 21f0 baba 24fd 333d
00000330: 1896 4bbe caa7 183d 47f8 8a3d 622d d73c
00000340: 1485 833c 5d89 753d 5cd9 cfbd 44c4 0abd
00000350: 9ae0 fdbd 3644 2a3c f5a6 fa3c ce2a 0c3e
00000360: e951 88bd 6b54 5f3d 8e43 87bb 9974 4ebb
00000370: f286 f83d 6701 bbbd 4fcc ebbc 63e6 a0bd
00000380: d78c fabb 9359 e3bd a628 b9bd 08ea c93d
00000390: ea0b 4cbc 3e5b 2a3d 5f12 043e 147c dabc
000003a0: de06 8b3d 87a3 fb3c 57a0 873d 7f67 acbd
000003b0: e10f 07bd 6b3c 9e3c 2c0e 03be f83b 3ebd
000003c0: f6bd 973d 57e6 b4bd c47c 30bd 3b06 1f3d
000003d0: 9240 c63d e377 b93d 9927 b73c 0fb9 9fbc
000003e0: af94 41bd b612 26bd 7b9b 843d 1f84 bdbd
000003f0: ca6a bdbd 6cf7 0b3d 07c5 323d d07d 1d3b
0.02203216 0.04442307 0.019726431 0.10481832 -0.05144411 0.11672645 -0.10100318 0.056455396
-0.16752683 -0.10392977 -0.09930864 -0.0831141 -0.105535105 0.08543757 0.13019982 0.047026243
0.052633226 0.07387834 -0.0939961 0.15552096 -0.021125479 -0.0100156525 -0.03618159 0.07876548
-0.014792096 -0.08091684 -0.062432654 -0.06749697 0.061485928 0.05906192 -0.04169077 0.018269371
-0.090810314 -0.021973588 -0.008313319 -0.049129345 0.013274578 0.016952178 0.08956111 -0.0852828
0.07022802 -0.026164887 0.06320352 -0.0875143 -0.10006672 -0.08791702 -0.040004045 -0.05543992
0.1200924 -0.0076683597 -0.0049567567 -0.117713 -0.09601851 -0.037399586 -0.039401706 -0.003217107
0.13802792 -0.01077741 0.055914614 0.112482555 0.084436156 -0.11359441 0.0719018 -0.09169691
-0.08380299 -0.021666018 -0.06529796 -0.05711023 -0.084466994 -0.006036689 -0.048007414 -0.02281917
0.092668675 0.07257422 0.047587566 0.07490424 0.01145074 -0.055895228 0.10018011 -0.07014443
0.11918337 0.022520091 0.052695487 -0.082353145 0.10884259 0.087828204 -0.10741267 0.042031515
-0.06280772 0.030155065 -0.027987503 -0.08106283 -0.028103052 -0.13370071 -0.12459993 -0.06894789
-0.13888499 -0.18476018 -0.045897495 0.05670274 -0.061703548 0.048476234 0.1146106 0.005641836
0.04666518 -0.014426824 -0.112090334 -0.12664351 0.049259346 -0.027498363 0.08519275 -0.034827203
-0.03615412 0.003232538 -0.005877458 0.0831474 -0.08412837 0.08698399 -0.086650334 -0.0673777
0.09584758 0.034963164 0.024930593 0.06467685 -0.004311621 0.015498496 -0.017769756 0.115033634
-0.047230404 0.086575724 -0.03909891 -0.03317992 -0.03321564 0.03381898 -0.028665163 -0.10377356
-0.08564363 0.020088218 -0.09864023 -0.13949801 -0.012456145 0.08174564 0.029892141 -0.026187023
0.06298229 -0.094064295 0.06054361 0.10912824 0.029281657 -0.055832934 -0.0049534175 0.045211796
-0.054214396 -0.06697939 -0.0628071 -0.1023026 -0.0214758 0.043514367 -0.007959166 0.050914366
-0.16221566 0.0046955985 0.056401536 -0.009822799 0.011315348 0.04882071 -0.10630576 0.106611274
0.08434442 -0.027384046 0.012455626 -0.12093896 0.00876331 0.010419108 0.012885044 0.05066672
-0.03758874 0.045709066 0.057176366 -0.00071482256 0.06531191 0.09137895 -0.13111663 -0.08311527
0.10688743 0.059043895 -0.092221476 0.09698505 -0.099116616 0.02614226 0.035201386 0.10804586
0.085020974 -0.0748845 -0.15610364 -0.09456685 0.04651139 0.0073887073 0.0023550899 -0.07736072
-0.07400421 0.082414985 -0.0014262238 0.043942586 -0.19881475 0.03726939 0.067856364 0.026266757
0.016054668 0.059945453 -0.1014888 -0.03387858 -0.12396355 0.010392239 0.03059719 0.13688204
-0.06656248 0.054523867 -0.004127926 -0.0031502603 0.12135114 -0.09131127 -0.028783945 -0.07856443
-0.007646184 -0.11101069 -0.09040956 0.09859091 -0.012454012 0.04159092 0.12897633 -0.026670493
0.06788419 0.030717624 0.06622379 -0.08418178 -0.032974128 0.019315919 -0.12798375 -0.04644391
0.07409279 -0.08832996 -0.043087736 0.0388243 0.096802846 0.0905607 0.022357749 -0.019497423
-0.047260936 -0.040545188 0.06474968 -0.09253716 -0.09248884 0.034171507 0.04364493 0.002403129

bias f4 [16]
00000000: de8f 023d 949a 67bd 2f94 26bd f6b1 863d
00000010: ff26 22bc c308 34bd d53e 48bc 0659 88bc
00000020: 771d 8ebd 15cf 1b3d 4834 753d 14f4 a2bd
00000030: 0a5e 033e 1765 323c 627f 01be c0f2 ae3d
0.031875484 -0.0565439 -0.040668663 0.06576912 -0.009896993 -0.04395367 -0.012222012 -0.016644012
-0.06939214 0.038039286 0.059864312 -0.079567105 0.12828842 0.0108883595 -0.12646249 0.08542395

weight f4 [16]
00000000: 2d20 803f 688d 833f ec76 753f 5efa 773f
00000010: f380 7f3f acc2 7b3f cb6c 853f 7eac 763f
00000020: 61cc 7a3f 08eb 7f3f cb65 7d3f c124 823f
00000030: ba0a 803f d827 773f 0d14 843f f685 793f
1.0009819 1.0277529 0.95884585 0.96866405 0.99806136 0.9834392 1.0423826 0.9635695
0.9796811 0.99968004 0.9898345 1.0167466 1.0003273 0.9654517 1.0318619 0.97470033

bias f4 [16]
00000000: b407 c2ba 9793 443c fa77 e2bb b6b8 bc3c
00000010: aff5 e0bc 81c1 79b9 3c04 cabc 24f5 15bc
00000020: 7e1a 38bc 656d e5bc 4e03 e03b 6db1 46bd
00000030: d884 e0bc eaca 9ebc d5be cdbc dfbe 5bbc
-0.0014803321 0.011998079 -0.006911275 0.023037296 -0.027460901 -0.00023818576 -0.024660222 -0.009152684
-0.011236785 -0.028006265 0.0068363314 -0.04850905 -0.027407095 -0.019383866 -0.02511541 -0.013412206

running_mean f4 [16]
00000000: 8549 213e 3f44 103e e74d ae3d 9b11 2e3e
00000010: 084e aa3e ac53 983d 848a 8d3e 78ef da3d
00000020: 2b77 993c 960d 873e 5e12 4c3e 4267 e53d
00000030: 94d0 f63e 02f9 0b3f 0400 0000 0aff 593e
0.15750702 0.14088534 0.085109524 0.16998903 0.33262658 0.07437834 0.27644742 0.10690206
0.018733582 0.26377553 0.19928882 0.112013355 0.48206007 0.5467683 6e-45 0.21288696

running_var f4 [16]
00000000: e1f7 f93c 47d4 283d f5db df3b 0e61 0c3c
00000010: ea44 503d c0fe 1a3c 4efd ca3c 18f4 693c
00000020: 3fad 043b a9a3 fc3c e790 073d c7d7 143d
00000030: 0bc0 a23c 9ec3 e43d 0400 0000 9388 673c
0.030513706 0.04121807 0.006831641 0.0085680615 0.05084697 0.009460151 0.024778988 0.014279388
0.0020244864 0.030839758 0.033097174 0.036338594 0.019866964 0.111701235 6e-45 0.014131683

weight f4 [32, 16, 5]
00000000: 2e0f 7fbc 981f f6bc 9166 073e 7419 9abd
00000010: 7b7d edbb f1d6 d13d ae76 14bd 1acf f6bc
00000020: 6d25 f83d d550 e3bd 79c6 53bd 1fdc 72bc
00000030: d0ea d03c 3f69 c7bd a3ad 8c3d 615d 3cbc
00000040: 7480 42bc 3454 3f3e acf0 abbd 85a1 f93b
00000050: fceb a33d 6081 debd 5848 c73d 9d1e 68bd
00000060: e160 2d3d 309b bc3d 5c6d 2d3e 5f64 243d
00000070: 38cb 7a3c 02c7 40bd e911 f73c ea07 81bd
00000080: cb2f 8bbd c338 c53d 6132 31bd fa0f 903d
00000090: 68e0 e53d 3022 a7bd 44cd c23d 25ff bd3c
000000a0: 272f d63d 726a 9fbd 22d5 6f3d 2ac1 3bbd
000000b0: 2ddf 1b3d a982 81bd b60d ed3d 435e dc3d
000000c0: 4697 863c b225 973d 4bdc f33c 48fb f63d
000000d0: c7b4 f73d e5db 093d 9488 c1bb fbf8 7bbd
000000e0: 06a1 2fbd 06d8 853d 18f7 90bb 4083 593d
000000f0: 871d 68bd f3cd 873d 2432 86bd 9c84 aebb
00000100: c0dd c6bc 1013 153c 49b8 ab3d 750b debb
00000110: 35ed a8bd df31 0cbd d01d 83bd 5c50 233e
00000120: 89a7 7d3d 2dc2 1bbd 4a21 70bd facb a3bd
00000130: 2209 fd3d 061a 993d cb89 8ebb 12f2 e93c
00000140: 5a11 d53c 4f43 613d 2b86 32bd b818 e23d
00000150: 7937 7dbd c0f3 f33d cfa4 91bd 7e4a 813d
00000160: c168 cfbb 671a 20bd 46ea 8bbd 45d1 aa3d
00000170: 9e0f a4bd 2c22 ebbd a107 00bd 77e6 42bd
00000180: 50e6 6a3b 485f 87bd fc78 98bc ae4c 033e
00000190: d6f7 54bd d12d 793d 6ee7 c13d d14d 283d
000001a0: 66d5 b43d 63d8 7d3d b2a6 3f3d 09aa 5c3d
000001b0: 4e19 1d3d 99f9 fe3a 1339 943d f3bc ac3c
000001c0: 0b14 03be 01cb 7cbd db88 e5bd 5992 1c3c
000001d0: 79fc dbbc 68f0 4e3d 2b66 db3c 001b e5bd
000001e0: 513d 5c3d d64c f63c 5bab 763b 3def 8e3c
000001f0: b46f a03d 5c61 43bd 3354 79bc 1cc9 bf3d
00000200: 4a7e ac3d 844d ac3d 8224 c9bd 7699 79bd
00000210: 71cd 933a cc38 a83d 7db2 65bd 25f7 943d
00000220: 4250 bcbd 8efb a1bd 3860 52bc f9a1 9a3a
00000230: 36d3 16bd bf11 a93d 76fd 7f3d 1669 a6bd
00000240: 558b b93d 313c aa3d 9dad f03c a938 6dbd
00000250: aa67 913d 1568 d4bd 4398 aabc 4180 1e3a
00000260: d145 f73c 4dcf a0bd a8c0 b3bc 4154 4c3d
00000270: ab7e 93bd f1dd 223d 6c36 d63b 36af 963d
00000280: e7b8 c93d 0911 f23d a76d 02bc ee7c 9a3d
00000290: b803 7bbd 32e9 233d a466 00bd eead c03d
000002a0: b2fd 163e 91d2 c43d 12cc b2bd 7e69 743c
000002b0: 2fa2 d13d b392 bcbc 2c9f 2ebd 9c14 cc3d
000002c0: 6af6 27be b1e0 1dbe da59 a63c 7d32 60bd
000002d0: 6066 e03c e25d f3bc a51e 31be 17aa 03be
000002e0: 1376 5dbd 2774 a13d 2527 d7bd 88f7 10be
000002f0: 55ad a4bd 7bf2 4c3c ab1f cdbd 6d0b 9fbc
00000300: 359d d43d 4845 5fbc c9a6 a6bd 06fd 0fbd
00000310: d6a1 8dbd 23e3 0abe e431 0e3e 7e04 6abd
00000320: cf04 c7bd 447e d43d 8ae1 25bc eee9 eebd
00000330: 89a3 d43d 5e0c 6d3d 2585 9a3d 52b4 a8bd
00000340: 3076 d1bd ed21 153c 7b53 aabd 1686 d33c
00000350: 3c3e 8a3d 2447 86bd 0548 0fbb ba3d 393c
00000360: f9b6 14be 6024 11bd 777f 1d3e 7621 4ebd
00000370: caef 05be 9675 f4bd 5bf7 81bd fe6f 823d
00000380: a8de 99bb aedd 173d 6ddd 7f3b 28b5 be3d
00000390: cf16 4e3c ffbd 513d 2838 cc3c 5274 16be
000003a0: 1031 b1bd a88d 5cbd 81a4 e9bd def4 e2bd
000003b0: 8fb6 ac3d 2279 19bd f84e 9a3d f01c 7abd
000003c0: 3e3b 21bd 2235 86bd dc9f 31bd 3805 61bd
000003d0: 67f5 c9bd f4ae cfbd 4bc5 143d e4f1 643d
000003e0: fa82 c33c f467 3d3d bd75 cc3d b61d 9bbd
000003f0: 2b93 76bc fed6 603d 3bbc b73d 41c4 f8bc
-0.015567584 -0.030044362 0.1322272 -0.07524386 -0.0072476245 0.10246075 -0.036245994 -0.03012805
0.121165134 -0.11099402 -0.05170295 -0.014822989 0.025502592 -0.09736871 0.06869056 -0.011496873
-0.011871446 0.18684465 -0.08395514 0.0076181316 0.08003995 -0.1086452 0.09730595 -0.05666982
0.04232872 0.09209287 0.16936249 0.040134784 0.01530724 -0.04706479 0.030159907 -0.063003376
-0.06796225 0.09629967 -0.043260936 0.07034297 0.11224443 -0.081608176 0.095118076 0.023192951
0.10458212 -0.07783975 0.05855287 -0.045838512 0.038054634 -0.063237496 0.11574881 0.107601665
0.016429555 0.07380237 0.02976813 0.12059647 0.120950274 0.033656973 -0.005906174 -0.061516743
-0.042878173 0.06535344 -0.004423987 0.053103685 -0.056668784 0.066310786 -0.06552532 -0.005325867
-0.02427566 0.009098783 0.08384759 -0.006776268 -0.08248369 -0.03422725 -0.06402171 0.15948623
0.061927352 -0.038026977 -0.058625497 -0.0799789 0.123552576 0.07475667 -0.0043499223 0.028557811
0.02600925 0.05499583 -0.043584984 0.11039871 -0.06182048 0.11911726 -0.07111513 0.063130364
-0.0063296263 -0.03908768 -0.068317935 0.08340696 -0.08010791 -0.11481127 -0.031257275 -0.04758307
0.0035842843 -0.0660997 -0.018612377 0.1282222 -0.051994167 0.06083471 0.0946797 0.041089837
0.08829765 0.06197394 0.046789832 0.053873096 0.03835421 0.0019453048 0.072374485 0.021086192
-0.12800615 -0.061717037 -0.11207744 0.009556376 -0.026853787 0.050522238 0.026782116 -0.111867905
0.053769413 0.030065935 0.0037638757 0.017448062 0.07833806 -0.04770027 -0.015217829 0.093645304
0.08422525 0.084132224 -0.098214164 -0.060937367 0.0011276436 0.08213958 -0.056078423 0.072737016
-0.091949955 -0.079093084 -0.012840323 0.0011797539 -0.03682252 0.08255338 0.06249758 -0.08125512
0.090597786 0.08312262 0.02937966 -0.057915363 0.070998505 -0.103714146 -0.020824557 0.0006046333
0.030184658 -0.078520395 -0.021942452 0.04988504 -0.072018944 0.03976244 0.0065372493 0.073576376
0.098497204 0.118196554 -0.0079607135 0.0754336 -0.061282843 0.040017314 -0.031347886 0.094081745
0.14745215 0.09610475 -0.087303296 0.014917729 0.10236012 -0.02301917 -0.042632267 0.099648684
-0.16402593 -0.15417744 0.020306516 -0.05473565 0.027392566 -0.029707853 -0.17296846 -0.12857853
-0.054067682 0.078834824 -0.10505513 -0.14156926 -0.08040873 0.012508984 -0.10015806 -0.019414628
0.10381547 -0.013627358 -0.081372805 -0.03515341 -0.069156334 -0.13563208 0.1388622 -0.05713319
-0.09717714 0.10375646 -0.0101245735 -0.11665712 0.10382754 0.057873122 0.075449266 -0.08237518
-0.102276206 0.009102327 -0.08316704 0.025820773 0.067501515 -0.06556538 -0.0021862995 0.011306221
-0.14522924 -0.03543508 0.15380655 -0.05032488 -0.13079754 -0.1193649 -0.063460074 0.06369017
-0.004695732 0.037076645 0.0039041892 0.093118966 0.01257868 0.051206585 0.024929121 -0.1469281
-0.08651936 -0.05384603 -0.1140833 -0.11081861 0.08433258 -0.037469037 0.07534593 -0.061062753
-0.03936314 -0.06553103 -0.043365344 -0.054936618 -0.0986126 -0.101407915 0.036320966 0.055894747
0.023866165 0.046241716 0.09983394 -0.07574026 -0.015049736 0.054892533 0.08971449 -0.030367019

bias f4 [32]
00000000: 2fd9 95bd bede fb3b d455 afbb d626 a33b
00000010: 0291 41bc a7c5 cbbd 29b3 293d cbd2 e43a
00000020: 3433 cd3c 1ec6 6a3d 04bf 9939 8c04 64bb
00000030: 6531 663d 2462 0abe ac86 b93c 199b b33d
00000040: 8259 923d 5e6f d3bd af20 fdbd da0c c3bd
00000050: 4b64 88bd 23a5 8bbd 6be9 a1bd f5d0 033e
00000060: 5398 903d 89eb 66bc 0078 f33c 28d2 ddbc
00000070: aeeb a9bd ebf7 7ebd 7757 e0bd a373 be3d
-0.07316815 0.007686465 -0.0053508077 0.004978995 -0.011814358 -0.099498086 0.041430626 0.0017457841
0.02504883 0.057317846 0.00029324752 -0.003479275 0.05619945 -0.13514 0.022647224 0.08769817
0.071459785 -0.10323976 -0.123597495 -0.095239356 -0.06659754 -0.06818607 -0.07905849 0.1287268
0.070603035 -0.014094242 0.029720306 -0.02707775 -0.082969055 -0.06224815 -0.109541826 0.092994

weight f4 [32, 32, 5]
00000000: 3f22 643d 1d61 7cbd 071a c73c 415a a6bd
00000010: 2048 c53c e44e 44bc 2e25 053c 8b59 cc3b
00000020: 5b83 ee3d ae2f 803d 3b41 ecbc dce9 823c
00000030: a0a1 5c3d 04dd 473c fef9 86bd fffd b6bd
00000040: 7077 c93c 8c51 a63d 5d49 af3d a8be e9bc
00000050: 9d35 5a3d d3d6 b93b a07e 9d3d 9be8 563d
00000060: e468 cf3c 5dfa 4b3d f334 4c3b 9f08 5a3d
00000070: fcc3 eabc e5f5 9a3c 60a6 343b 6ffb a5bd
00000080: 0d05 00bd c6d3 9f3d 1745 233e 4f99 82bd
00000090: 133f 7a3d 770d aa3b c7fe 38bd 4d0d 313d
000000a0: 8350 a33c d577 7e3d a5fb 0c3d 8e3b 4bbd
000000b0: 3396 f43b 2bd1 f8bd fb45 9fbd 84be 5f3d
000000c0: b9ae cb3d c8d5 7e3d bbef 43bd 9a42 abbd
000000d0: 65fe ac3c 8c72 303d 646d 6b3c 36ac 91bd
000000e0: 7a46 67bd fd31 223d 9af3 193d 5756 573d
000000f0: 2ef7 0abd 5fd5 cf3a 42b5 873d 77b0 6abd
00000100: e5d8 9c3d 62dd 5fbd 124f a3bd 4f09 323c
00000110: 0061 46bd b515 623d 2ab7 283c 7e64 6dbd
00000120: 0b54 adbd 3032 843d 49bf 1c3e 9798 693c
00000130: 4de2 0c3d 830a 93bc ee1c 11bd 37e6 563d
00000140: 0e1b 793c 32d1 353d 71a4 153d 8339 95bb
00000150: 046a dbba 242d 0bbd 11f9 833b 75ec 68bc
00000160: f31d 5c3c c7a4 893d a897 dabc b338 3abb
00000170: 40b5 083c 88d9 57bc 3db7 1fbd 8e96 88bd
00000180: 9ace c4bd 63de cc3c 4fb1 6ebd cb5d 64bd
00000190: 9d1c 22bc b056 3bbd cba8 8dbd a6a4 433c
000001a0: be6e 4c3d 0b6f dcbc 8796 ab3d 406d f0bb
000001b0: 7bbe c1bb d2ab 513d c56e bbba 59ed 66bd
000001c0: f4d0 f4bc 1fb9 803d 62dc 063d 3998 ad3c
000001d0: ab66 c0bd 6068 28bd e7d0 cdbc c0e5 a53d
000001e0: 8ab8 a2bd 31d1 51bc 8745 f5ba 35a8 33bd
000001f0: ed90 9dbd bdc8 a1bd a61d 40bc 51ab 443d
00000200: c2d9 8d3d 75b9 d83d 6dc8 8e3d 3b5d 113d
00000210: 7194 6a3d e7c1 703d caac d23c 9ecd 453b
00000220: 0727 a63d dd68 c73c 8867 80bc 705e 4f3d
00000230: 7886 28bd edaa 113d b5e7 063d 89a8 aabc
00000240: 47a5 013d 4231 943c df48 3e3d de97 afbd
00000250: d9ea dcbd cb73 6d3c 2031 233d ef17 963d
00000260: 567f b73d aab9 83bc 9f29 3abd b4b2 ce3b
00000270: 6d92 f9bb 0200 483d 963b 39bc f592 ac3c
00000280: 9d13 c93c a747 bfbd 2cad cb3d a230 ecbd
00000290: d9f4 a23c 7d97 3a3d fc21 1b3c 1aef 22bd
000002a0: a9ce 28bd de5e bf3c 503d fe3c 0354 3b3b
000002b0: f479 a0ba 7a48 d63d 9a3b 3f3d b102 c83c
000002c0: 5d64 3d3d 064c 1f3b 008f 2e3d 317a f3bc
000002d0: 20d8 81bd ade4 0abd e7a6 ce3d db0a 413c
000002e0: 80be a0bc 7091 2a3c 22f8 093d 1c03 6bbd
000002f0: dd3d 853d ded8 aabd de89 d73d 37cf 803d
00000300: 182b f3bc 28b3 f5bd 96d6 e43c 9b60 a7bd
00000310: 0416 c0bd 0d96 f8bc e405 773d bc3a 06bd
00000320: 009e 273c 2a10 713d c5be 5b3d 622f babd
00000330: 9fac 20bd 9077 f63d dd51 2dbd 70e4 60bd
00000340: bea7 643d d657 9ebd 1536 053e 094a be3a
00000350: e62b 18bd 1111 3bbd a934 513c 4a89 983d
00000360: cb78 4c3c a978 9d3d bcbd d0bd d024 9fbd
00000370: 080e cebc 98fa 90bd e294 eebb e9a0 50bd
00000380: 7bde 6a3b 3ca5 5ebd dd75 febb 7eb4 a73c
00000390: 4fa9 71bd 7232 d5bc 3b6c bf3d 83ac 1d3e
000003a0: ae54 2fbc 6473 dcbd 3179 22bd 0ac9 d73d
000003b0: ffd0 b5bd 9126 143e c21b ffbd fe26 853d
000003c0: 4de4 6c3b bfff 56bc 708f ed3d a070 66bd
000003d0: 497d c0bc ff00 0e3e bb5f a63c 912a 5a3d
000003e0: ef3c 673d 6b56 633c dab4 ecbc 8b70 d6bd
000003f0: 4ed7 dbbd d9e9 8ebd 657b 48b9 d8aa 0abd
0.055696722 -0.061616052 0.024304403 -0.08122683 0.024082243 -0.0119817 0.00812654 0.0062362603
0.11646148 0.06259094 -0.028839698 0.015980653 0.053865075 0.01219869 -0.06590651 -0.08935165
0.024593085 0.081210226 0.08558915 -0.028533295 0.053273786 0.005671361 0.076901674 0.052467924
0.02531857 0.049799312 0.003115949 0.053230878 -0.028657906 0.01891608 0.0027564988 -0.08104598
-0.031254817 0.078040645 0.15944324 -0.063768975 0.06109531 0.0051895934 -0.04516485 0.043225575
0.019935852 0.062126 0.034419674 -0.049617343 0.007464194 -0.121492706 -0.077770196 0.05462505
0.09945435 0.062215596 -0.047836047 -0.083623126 0.021117399 0.04307799 0.0143693425 -0.07112925
-0.056463696 0.039598454 0.037585832 0.052572574 -0.033927135 0.0015856436 0.06626369 -0.057297196
0.07658557 -0.054654486 -0.07974066 0.010866477 -0.04843235 0.055196483 0.010297576 -0.057957165
-0.084632955 0.06454885 0.15307344 0.014257572 0.034395505 -0.017949348 -0.03542798 0.052465644
0.015204204 0.044388957 0.036533777 -0.004553975 -0.0016739969 -0.033978596 0.0040274938 -0.014216532
0.013434875 0.06720882 -0.026683643 -0.0028415143 0.008343995 -0.013174422 -0.03899311 -0.06669341
-0.096097186 0.025008386 -0.058274563 -0.05575351 -0.009894517 -0.04573697 -0.0691696 0.011941111
0.0499103 -0.026908418 0.0837832 -0.0073372424 -0.0059125996 0.05118925 -0.001429998 -0.056378696
-0.029884793 0.06285309 0.032925017 0.02119075 -0.09394582 -0.041115165 -0.025124026 0.08100462
-0.07945354 -0.012806223 -0.0018712737 -0.043861587 -0.07693658 -0.07899616 -0.011725819 0.048014943
0.069263 0.10582248 0.06971822 0.035489302 0.05727047 0.05877867 0.025717158 0.0030182372
0.081129126 0.024341995 -0.015674368 0.050627172 -0.041143864 0.0355634 0.032935817 -0.020832317
0.03165176 0.018089894 0.046456214 -0.08573888 -0.10786981 0.014492939 0.03984177 0.07328784
0.08959834 -0.016079742 -0.04544985 0.006307924 -0.0076163323 0.048828132 -0.01130571 0.021066168
0.024545485 -0.093398385 0.09945139 -0.115327135 0.019892143 0.045554627 0.009468552 -0.039778806
-0.04121271 0.023360666 0.031035095 0.002858401 -0.0012243376 0.104630426 0.0466877 0.024415346
0.046238292 0.0024306788 0.042616844 -0.029721351 -0.06340051 -0.03390949 0.10090428 0.011782373
-0.019622087 0.010410652 0.033683904 -0.057376012 0.0650594 -0.083421454 0.10524343 0.06289523
-0.029683635 -0.11997062 0.027934354 -0.08172723 -0.09379199 -0.030344987 0.060308352 -0.032770857
0.010230541 0.058853306 0.05364873 -0.09091069 -0.039227124 0.120345235 -0.0423144 -0.054905355
0.055824034 -0.07731597 0.13008912 0.0014517914 -0.03715124 -0.045670573 0.012768903 0.07448061
0.012479971 0.0768903 -0.10192439 -0.07770693 -0.025153175 -0.07079047 -0.007280932 -0.050934706
0.0035838175 -0.0543568 -0.0077655152 0.020471808 -0.058999356 -0.02602503 0.09346815 0.15397839
-0.010701342 -0.107641965 -0.03966636 0.10536392 -0.088777535 0.14467837 -0.12456466 0.06501578
0.003614682 -0.013122498 0.11599624 -0.05625975 -0.02349724 0.13867567 0.02030932 0.05326325
0.056454595 0.013875584 -0.02889483 -0.104706846 -0.107344255 -0.06978197 -0.00019119454 -0.033854336

bias f4 [32]
00000000: 5755 523d 1217 b73d 2763 05bc 5280 283d
00000010: cebc d03d 999e 333d 21ef 91bc 028c 6b3d
00000020: 82b0 a3bd a055 04bd 52eb c5bb a810 1a3d
00000030: 9862 d93c 448b 13bd cd9c 3b3d 2d88 bdbd
00000040: 3c2c a4bd 88c3 923d c687 7abd cdbf 67bb
00000050: cfbc 64bd df14 133e 3511 8b3b 14f1 97bd
00000060: e0bd b33d 8dd7 983d ecc4 e43d 997e 2dbc
00000070: 83a0 a4bd e2c0 80bc 414f 6cbd 56ac 853d
0.051350918 0.08939947 -0.008141316 0.041138 0.10192262 0.043852422 -0.01781422 0.05750657
-0.079926506 -0.03230822 -0.0060400153 0.03761354 0.026536271 -0.036021486 0.045803834 -0.09254489
-0.080162495 0.07166201 -0.06116464 -0.0035362125 -0.055844124 0.1436343 0.0042439946 -0.07419029
0.0877645 0.07462988 0.11170372 -0.010589265 -0.08038428 -0.015716974 -0.05769277 0.06527011

weight f4 [32, 16, 6]
00000000: 3efc 3abc 4018 3e3c 6cd6 213d 7013 a7bc
00000010: 75d7 403d 3ea6 bbbc 3e20 acbd 86b9 a63d
00000020: 5ad5 bdbd dd76 fcbc a536 6dbd 0ccb acbc
00000030: 3a9e e83c 9948 ca3d 5905 8d3d 5a6c b13d
00000040: 5ac0 5cbd 3706 80bd 41aa 963d 7957 ddbd
00000050: f1a4 33bc eecb f4bd a743 b63c ccfb 8bbd
00000060: fa10 93bc 026f a33b 08d8 4a3d b3a5 033d
00000070: 6e0f c9bd 4153 a0bc 2bfb 83bd c6e1 23bd
00000080: b001 9a3d 2578 a23c ab8f 443d f3c6 79bd
00000090: 4521 d23d 87e4 6cbd 61ed 7d3d 2f25 a6bd
000000a0: d117 b13d de2c 84bd e9e3 dbbd f489 db3d
000000b0: ec09 81bd 7aec bf3d 0721 893d c7da b83d
000000c0: 797f 6abd 71cc 46bd 0930 7fbd eb5a c73d
000000d0: 2f92 223c 423a 85bd c672 963d 7122 01be
000000e0: c9c7 e33d 5cb1 0ebe 6434 b3bc 6cad c23d
000000f0: 07da 79bd 6cf5 083e 62ed ac3d a470 09bd
00000100: 0c71 a63d 7c07 e03c 3a81 1bbd 5b6d 9cbd
00000110: 1417 e33d 52ae babd 4605 cb3d 19e5 ba3b
00000120: c96d 283d 7494 b43d 438b b23d 4726 06be
00000130: ba3e b4bb 6740 ddbd 0dd0 6e3d 562f 68bd
00000140: 5557 703d 8756 c23d 561c 48bd fb1b 3b3d
00000150: 9f69 0c3e 5239 bbbd 2054 393d 1896 bd3b
00000160: f418 a53d 29d4 b73d 16c1 79bd 2f1c db3d
00000170: f417 6bbc aa05 0a3d a7fb af3d b1f9 453d
00000180: 0a9f 21bd ab3e a3bd e0d3 3a3e 2850 1c3d
00000190: 2fcf 65bd 714e d5bd 3da9 4e3d 9859 3f3d
000001a0: b962 0a3c cffe 24bd b2b7 03bc 9f01 07bd
000001b0: 068d 01be f2a9 8c3a 30a7 8f3d 0eaf dfbd
000001c0: ab0f 893d b6d4 9c3d 8b8a b03d 0bf7 cbbc
000001d0: 19dd 18bd d260 26bd dbc2 af3d f333 413d
000001e0: 0f9c 86bc eb36 ce3b bc86 6b3d 6dfd 8f3b
000001f0: f105 a3bd 51bd 82bd 4816 6cbc 164d 83bd
00000200: 1710 413d 1f1a 50b9 180c 05bc 0e0e cdbd
00000210: f3c0 8cbc 2e45 cd3d ef62 7a3d 832f 913d
00000220: 5344 26bc b1c8 5c3d c7d4 4b3d 43bb bfbd
00000230: c92d d5bd 5dfc 27bd d044 0f3b 0878 0a3d
00000240: e1c6 e2bd b92b 3abd 91d3 e33d f4ff 77bc
00000250: e203 633c 226a 0a3e 5df0 4e3d 362d e03d
00000260: b56d ddbd 756e c73c 0eea 8a3d 6d14 4cbd
00000270: 971e ff3d 6da3 cb3d d9fc cdbd c962 0e3d
00000280: deb7 e63a e752 6f3b 1f66 94bb d590 de3d
00000290: 3917 733c 69cf 12be dd03 aabb b256 363d
000002a0: 34d6 b0bc c1e2 493c e4d5 e43d d9d8 313d
000002b0: 1bcd bc3c 4003 1c3d 3a72 babc ffc0 12bd
000002c0: 4c60 093e 7da6 8d3d 9196 453c 90c9 033d
000002d0: e635 8bbd 210e fb3c 4d05 48bc d7fd 6cbc
000002e0: f901 86bc d2ad 2c3b 34c4 4fbd 38d3 733d
000002f0: 9002 e3bd d2c2 94bd 4605 033d 9b83 b13d
00000300: 19e0 65bb 2bfa 2e3d 75c9 90bd 43d4 babd
00000310: 9644 ab3d c417 283d d5f7 9e3d f280 c43d
00000320: 40bc de3d 8f10 8b3d 0acd 833d 3f35 4bbd
00000330: 948f 4dbd 5bc1 133c d927 833d 317e 96bd
00000340: bd77 f9bc cb8a cabc 3ec4 ae3d 6c7e 853d
00000350: e579 67bd 268e 863d c4d2 363d b5a8 223c
00000360: a2c6 b03d 0f15 703c 2036 333d a7f8 a7bd
00000370: 7114 d73d 39df e3bd 0d3b d338 7c23 843b
00000380: a0a0 a4bd 6efe 9ebd 7f7d 3c3d 4847 ddbd
00000390: cb40 f33d 3fb2 cb3d d6d4 d33d c994 833d
000003a0: 34c3 d73c dc9a 413d bcf8 733d 854f a5ba
000003b0: 3b7c 02bd ea82 2ebc 83a9 063d 52eb 64bd
000003c0: 13bc b63d 880b a9bb 876b 96bc b093 503d
000003d0: aaf4 cd3d f836 acbd 4655 07bd 8e1f ad3d
000003e0: 23d8 83bd ef55 893d 1ca6 3b3a a40a d93d
000003f0: ac31 743c d820 e8bc 29c9 8b3c 6386 9d3d
-0.011412678 0.011602461 0.03951113 -0.02039501 0.047080476 -0.022906419 -0.08404587 0.081408545
-0.09269209 -0.030818397 -0.05791344 -0.021092914 0.02839576 0.09877128 0.068857856 0.086632445
-0.05389438 -0.062511854 0.07356692 -0.108077 -0.010964618 -0.11952959 0.022249056 -0.06835136
-0.017952431 0.0049875984 0.04952243 0.032140445 -0.09817396 -0.019570949 -0.06444391 -0.040010236
0.07519853 0.01983268 0.047988575 -0.06098075 0.10260252 -0.05783513 0.06199396 -0.08112561
0.08647121 -0.0645387 -0.1073683 0.10719672 -0.063007206 0.09371276 0.066957526 0.090261035
-0.057250474 -0.048534814 -0.06230167 0.09734138 0.009922548 -0.065052524 0.0734611 -0.12610795
0.1112209 -0.13934845 -0.021875568 0.09505734 -0.060998943 0.13374871 0.08443715 -0.033554688
0.08127031 0.027347319 -0.037965037 -0.076380454 0.11088386 -0.0911528 0.09913115 0.00570358
0.041120324 0.08817378 0.08717968 -0.13100539 -0.0055006417 -0.108032994 0.05830388 -0.056685768
0.058677036 0.0948916 -0.04885515 0.04568098 0.13712166 -0.09141792 0.045246243 0.005785715
0.080614 0.08976013 -0.060975157 0.10698735 -0.014348973 0.033696808 0.08592921 0.048333827
-0.039458312 -0.07970937 0.18244886 0.03816238 -0.05610579 -0.10415352 0.050454367 0.046716303
0.008446389 -0.040282067 -0.008039402 -0.03296053 -0.12651452 0.00107318 0.0701431 -0.10922061
0.066924416 0.07657759 0.08620175 -0.024898073 -0.03732023 -0.04061968 0.085820876 0.047168683
-0.016431836 0.006293168 0.05750154 0.0043942244 -0.079601176 -0.063837655 -0.014409609 -0.06411187
0.047134485 -0.00019846157 -0.008120559 -0.10012446 -0.01718185 0.100229606 0.061129507 0.0708914
-0.010148126 0.05390233 0.049763467 -0.09361889 -0.104091235 -0.041012157 0.0021861084 0.033805877
-0.110730894 -0.045451853 0.111243375 -0.015136708 0.013855906 0.13517049 0.050522197 0.10946123
-0.108119406 0.024344662 0.06782924 -0.049824167 0.124570064 0.0994328 -0.100579925 0.034762178
0.0017602404 0.003651792 -0.0045287753 0.10867468 0.01483708 -0.14336933 -0.005188449 0.044516273
-0.021586515 0.012322129 0.11173609 0.043419693 0.02304702 0.038089037 -0.022759546 -0.035828587
0.1341564 0.06916521 0.012059824 0.032174647 -0.0679739 0.030646386 -0.012208295 -0.014464817
-0.016358363 0.0026348722 -0.050724223 0.059527606 -0.11084473 -0.072637215 0.03198745 0.0866768
-0.00350762 0.042719048 -0.07069675 -0.09122517 0.08362691 0.04103829 0.07762114 0.09594907
0.108757496 0.06790268 0.064355925 -0.049611326 -0.050185755 0.0090182675 0.06404085 -0.07348288
-0.030452603 -0.024724385 0.08533524 0.06518254 -0.056512732 0.065700814 0.044634596 0.009927918
0.08631636 0.014653458 0.04375279 -0.082017235 0.10501946 -0.11126561 0.00010072263 0.0040325504
-0.08038449 -0.07763372 0.04601812 -0.108046114 0.11877593 0.09946107 0.103433296 0.06424863
0.026338197 0.047266826 0.059563383 -0.00126122 -0.031856757 -0.0106513295 0.032876503 -0.05588848
0.08922591 -0.0051588453 -0.01836182 0.050922096 0.100564316 -0.08408922 -0.033040307 0.08453284
-0.06437709 0.06705844 0.0007158236 0.10597733 0.014904421 -0.028335974 0.017063694 0.07691648
