results/SV_unet_matrixlonlatcov_30s.pt (torch, 101972 bytes, 49 tensors)

weight f4 [8, 1, 1, 1]
-0.9814453 -0.13829303 -0.06509545 0.337495 0.9133813 -0.64879 -0.3966409 0.13208196
00000000: 0040 7bbf b09c 0dbe c350 85bd 25cc ac3e
00000010: 5bd3 693f 1a17 26bf 8414 cbbe 7e40 073e

bias f4 [8]
-0.21000636 -0.041138053 0.9059802 0.77869844 0.67442423 -0.0021574658 -0.46183002 0.3348118
00000000: e80b 57be 6080 28bd 52ee 673f c858 473f
00000010: 11a7 2c3f 4564 0dbb fc74 ecbe 746c ab3e

weight f4 [11]
1.0 1.0 0.9956714 0.98429054 0.96298206 0.942292 1.0 1.0143257
0.9712248 0.93269813 1.130447
00000000: 0000 803f 0000 803f 52e4 7e3f 77fa 7b3f
00000010: fe85 763f 0c3a 713f 0000 803f 6dd5 813f
00000020: 30a2 783f 4ec5 6e3f 7db2 903f

bias f4 [11]
-0.030440988 0.0012726333 -0.01706584 -0.05110921 0.009388713 0.02451077 -0.05492991 -0.00078518887
-0.059059467 0.038708374 -0.005302096
00000000: 615f f9bc 7dce a63a a9cd 8bbc e457 51bd
00000010: 1ed3 193c cfca c83c 2ffe 60bd 22d5 4dba
00000020: 57e8 71bd ac8c 1e3d 34bd adbb

running_mean f4 [11]
0.0 0.0 1.0099921 11605.095 31378.826 1.6199232e-33 0.0 4542.366
-0.17269288 0.008771483 0.15210523
00000000: 0000 0000 0000 0000 6c47 813f 6154 3546
00000010: a725 f546 f593 0609 0000 0000 eef2 8d45
00000020: 67d6 30be 44b6 0f3c 79c1 1b3e

running_var f4 [11]
3.012021e-38 3.012021e-38 0.4146534 4.6965548e+07 3.4399197e+08 1.2070663e-36 3.012021e-38 7.193352e+06
0.8365117 0.8518652 0.059531663
00000000: 72fd 2301 72fd 2301 734d d43e cb28 334c
00000010: 3507 a44d 275f cd03 72fd 2301 1086 db4a
00000020: a125 563f d613 5a3f 79d7 733d

weight f4 [8, 11, 5]
-0.033674046 -0.09917788 -0.15490772 -0.119909875 0.008877486 -0.06878751 0.08210331 0.08327941
-0.08190819 -0.0705495 -0.12950824 0.06689729 0.11404218 -0.07624044 -0.12834911 0.039161958
0.0024176294 -0.03453203 0.07424377 -0.07747801 -0.08839121 0.14900632 0.094310455 -0.06934609
0.11584942 0.049586177 0.09996224 0.07690516 -0.09689983 -0.0050007203 -0.0032938216 0.029559232
-0.14862403 -0.18037924 -0.12815417 0.103100345 0.13704796 0.12248517 0.020204362 -0.11688111
-0.066580325 -0.042951893 0.10152058 0.03063194 -0.101011075 0.01452617 -0.075850144 0.06677624
-0.03537321 0.12368756 -0.16209635 0.06682322 -0.13719116 0.08580203 -0.13969079 0.060193274
0.04720509 0.07018943 0.10545756 0.044452384 0.03771559 -0.04156495 0.030589165 0.029163579
0.1139724 -0.039396778 0.1554798 0.12197115 0.008130021 0.029019212 0.10819459 0.00972934
-0.055736307 0.04167411 0.0042545754 0.048045255 0.030817037 -0.04796359 0.07487762 -0.016539667
-0.08908191 -0.08986592 0.056223538 0.06842981 0.09755672 0.070943005 -0.105333075 -0.008340743
0.12074469 0.013632965 0.045987096 0.03447324 0.045220565 0.020538375 0.03458478 -0.072343595
0.027463956 0.015418811 0.06859423 0.10303476 -0.10295823 0.05203375 0.08715097 -0.07234597
0.08241729 0.1428258 -0.011614707 0.05912169 0.10379047 0.10817513 0.004824742 -0.035818875
0.08297819 -0.04203267 0.07992341 0.0071724392 -0.044637147 -0.095801525 -0.06565821 0.09475052
0.06491693 0.101387516 0.14420849 0.078373894 -0.00869682 -0.07478461 0.03446534 -0.04656174
0.09041955 -0.09850764 -0.035295814 -0.024732804 0.11154362 0.0718105 -0.048774708 0.07698019
-0.11544449 -0.11809448 0.03221489 0.043744497 -0.029601619 -0.0068599456 0.18939674 0.17686127
0.0801608 -0.0032466012 -0.12995109 0.032383375 0.031746782 -0.06881877 -0.097959526 -0.0717282
0.08131255 0.08033467 -0.040416192 0.083368585 0.16641514 -0.08735031 -0.075922675 -0.056131862
0.019073633 -0.0032104617 0.072282396 -0.053818792 -0.1502084 0.15212221 -0.019154683 0.096412905
-0.029049 -0.011108906 -0.08161625 -0.014022617 0.034380246 0.081550136 0.08002864 0.07931814
-0.07031495 0.09658982 -0.061299495 -0.08053052 -0.109235995 0.10764683 -0.09493595 -0.10068345
0.03136313 -0.052110627 0.040982883 -0.020413727 -0.059711132 0.11123546 0.012843434 -0.044858824
-0.11700355 0.051257547 0.08318562 0.09759701 -0.060468208 -0.0015009649 0.04873892 -0.10637359
-0.07722085 0.032503087 0.032481726 0.07970469 0.07726215 0.062152024 -0.07031068 0.01971256
0.10840742 -0.09037809 0.04092927 -0.005699729 -0.11144779 0.09559519 0.0035542059 -0.15038298
-0.07490217 -0.15442283 -0.08530281 -0.05382804 0.08693129 0.0057428256 -0.009869273 -0.12759729
0.09691485 -0.07094195 -0.050906792 -0.041356094 -0.07430901 0.14311604 -0.09365732 -0.015611021
0.071108334 -0.055596035 0.034952626 -0.10278831 -0.11490178 -0.034152664 -0.014712033 -0.023515893
0.108134136 -0.010946065 0.083325416 -0.05274079 0.020708546 -0.095893934 0.023645243 0.09530866
0.027801987 -0.16455224 0.07087722 -0.11836444 -0.10989621 -0.008817817 -0.036266252 -0.048506293
00000000: cced 09bd c61d cbbd 21a0 1ebe 4f93 f5bd
00000010: e072 113c 77e0 8cbd c825 a83d 658e aa3d
00000020: 7bbf a7bd 427c 90bd cf9d 04be 7201 893d
00000030: f28e e93d f323 9cbd f36d 03be 4a68 203d
00000040: 1771 1e3b 7571 0dbd 1e0d 983d caac 9ebd
00000050: 7306 b5bd 1d95 183e d725 c13d 5305 8ebd
00000060: 7642 ed3d e01a 4b3d 01b9 cc3d 7480 9d3d
00000070: 6b73 c6bd 15dd a3bb 28dd 57bb 3426 f23c
00000080: e630 18be 56b5 38be d93a 03be 4626 d33d
00000090: 4d56 0c3e 81d9 fa3d 9e83 a53c 5d5f efbd
000000a0: 445b 88bd 53ee 2fbd 06ea cf3d d6ef fa3c
000000b0: e5de cebd 2cff 6d3c 5257 9bbd fbc1 883d
000000c0: 80e3 10bd e74f fd3d 96fc 25be 9dda 883d
000000d0: d77b 0cbe fab8 af3d 1a0b 0fbe 398d 763d
000000e0: 205a 413d 7abf 8f3d 22fa d73d b413 363d
000000f0: aa7b 1a3d 0240 2abd 2196 fa3c 75e8 ee3c
00000100: 5d6a e93d 845e 21bd 1936 1f3e 03cc f93d
00000110: c833 053c b3b9 ed3c 2095 dd3d cf67 1f3c
00000120: c14b 64bd 79b2 2a3d f769 8b3b 1acb 443d
00000130: 0374 fc3c 7875 44bd 7059 993d 327e 87bc
00000140: 9470 b6bd a00b b8bd a74a 663d ee24 8c3d
00000150: d1cb c73d 914a 913d deb8 d7bd 9da7 08bc
00000160: fe48 f73d cd5c 5f3c f75c 3c3d d033 0d3d
00000170: 3339 393d 1840 a83c c5a8 0d3d e128 94bd
00000180: 17fc e03c 2e9f 7c3c 227b 8c3d e303 d33d
00000190: c4db d2bd 5721 553d 357c b23d 202a 94bd
000001a0: 65ca a83d ed40 123e 9d4b 3ebc 9629 723d
000001b0: 1990 d43d ec8a dd3d df18 9e3b d0b6 12bd
000001c0: 78f0 a93d 732a 2cbd e3ae a33d c806 eb3b
000001d0: 71d5 36bd 9733 c4bd d077 86bd 900c c23d
000001e0: 2bf3 843d 42a4 cf3d 64ab 133e 7e82 a03d
000001f0: 1b7d 0ebc ac28 99bd 872b 0d3d 86b7 3ebd
00000200: e32d b93d 60be c9bd 5892 10bd 739c cabc
00000210: fb70 e43d 6211 933d fdc7 47bd caa7 9d3d
00000220: 296e ecbd 85db f1bd c3f3 033d 6e2d 333d
00000230: 187f f2bc 65c9 e0bb 38f1 413e 1f1b 353e
00000240: 582b a43d eec4 54bb e611 05be 6ea4 043d
00000250: ea08 023d dbf0 8cbd 019f c8bd 3ce6 92bd
00000260: 3287 a63d 8186 a43d 738b 25bd 26bd aa3d
00000270: bb68 2a3e b8e4 b2bd 597d 9bbd 86ea 65bd
00000280: 4f40 9c3c 9c66 52bb cb08 943d 1871 5cbd
00000290: 3bd0 19be edc5 1b3e 48ea 9cbc 2174 c53d
000002a0: 2bf8 edbc 2102 36bc 6c26 a7bd 1ebf 65bc
000002b0: 4dd2 0c3d c203 a73d 0ee6 a33d 8d71 a23d
000002c0: 4901 90bd e2d0 c53d 2e15 7bbd 2fed a4bd
000002d0: 1fb7 dfbd f175 dc3d c86d c2bd 2033 cebd
000002e0: a076 003d f471 55bd abdd 273d b03a a7bc
000002f0: a993 74bd 6bcf e33d 446d 523c e3bd 37bd
00000300: 8f9f efbd 6ff3 513d 395d aa3d f1e0 c73d
00000310: 83ad 77bd 06bc c4ba 76a2 473d 66da d9bd
00000320: f725 9ebd f521 053d 8f0b 053d 363c a33d
00000330: 9e3b 9e3d 1f93 7e3d 0cff 8fbd 3c7c a13c
00000340: b604 de3d 2618 b9bd 73a5 273d cbc4 babb
00000350: bd3e e4bd 69c7 c33d aeed 683b fffd 19be
00000360: 4f66 99bd 0521 1ebe 3db3 aebd ca7a 5cbd
00000370: 0809 b23d 502e bc3b bbb2 21bc dda8 02be
00000380: 4b7b c63d 034a 91bd a483 50bd 0265 29bd
00000390: 522f 98bd 038d 123e 69cf bfbd 5ec5 7fbc
000003a0: 3fa1 913d abb8 63bd 7c2a 0f3d ad82 d2bd
000003b0: a051 ebbd aae3 0bbd bd0a 71bc 67a4 c0bc
000003c0: 6e75 dd3d 2057 33bc 84a6 aa3d ba06 58bd
000003d0: f8a4 a93c 0a64 c4bd abb3 c13c 3031 c33d
000003e0: fec0 e33c 6280 28be 1328 913d 0e69 f2bd
000003f0: 4411 e1bd 9b78 10bc ec8b 14bd 89ae 46bd

bias f4 [8]
-0.05557994 0.1209829 -0.062164836 -0.15218009 0.12737437 0.0047389967 -0.019135801 0.08976339
00000000: cba7 63bd e2c5 f73d 8ea0 7ebd 19d5 1bbe
00000010: 6d6e 023e 9649 9b3b afc2 9cbc ded5 b73d

weight f4 [8, 8, 5]
0.15216929 -0.044988774 0.12423939 -0.121772856 0.09882628 -0.14275892 0.041053746 0.06411304
-0.04061048 -0.0052385214 -0.17816013 0.09653102 -0.16419253 0.10904297 0.13976415 -0.040382303
-0.14768134 0.032721058 -0.13154659 -0.06633685 0.06284759 -0.02416415 0.07972221 0.06750024
0.08682754 -0.07289674 0.14175352 -0.12688112 -0.095031366 0.05602602 0.151691 -0.115018226
-0.018278388 0.082709566 -0.13671279 -0.03656408 -0.08149092 -0.106922306 -0.15794642 0.023020336
-0.16565976 -0.10321552 0.09565476 -0.09090187 -0.14938708 0.053624216 -0.055804387 -0.04421197
-0.03090491 0.1738319 -0.032790508 0.1449411 0.12152905 0.21274441 0.016479623 -0.12285724
0.015212627 0.008797352 -0.07042052 0.0023692118 0.08682905 -0.0656112 -0.029933942 0.06618422
0.019981116 0.0762596 -0.09073322 -0.097882695 -0.089471914 0.085482426 0.1376089 0.03915184
-0.07810235 -0.14003228 0.084938824 -0.08805119 0.08789277 -0.103391916 0.089800514 -0.065698005
-0.11856699 -0.020631492 -0.0030919542 0.015081704 0.0755794 0.13568124 -0.15357482 0.083247975
-0.1088255 0.09121354 -0.16478178 0.0021485842 -0.11150007 0.11691562 -0.04004259 -0.15528218
0.04184046 0.04650975 -0.19077697 -0.09498205 0.025522087 0.159216 -0.08749873 -0.1361903
0.16873346 0.11586934 -0.14107707 0.023110436 -0.09442491 -0.10406288 0.035089992 -0.038142975
-0.12587914 0.14410324 0.044362724 0.09166394 -0.068856396 -0.011288347 -0.0694093 0.094110124
0.028958045 -0.0014844798 -0.14504343 0.041755524 0.008666359 -0.031241907 -0.10988839 0.1323866
-0.119866475 -0.14258717 -0.05542208 -0.0015018245 -0.06894046 0.11286149 -0.08833054 -0.036573343
-0.117003545 -0.0810104 -0.105149254 0.013010132 -0.102814175 0.14102265 -0.013564969 0.03421648
-0.08771407 -0.19347416 -0.0022625893 0.127894 -0.021653125 0.100678176 -0.09181302 0.025436208
-0.017458443 0.07279511 -0.034149956 0.16400993 -0.087203324 -0.11152208 0.09818216 -0.12339201
-0.14875427 0.07069754 -0.1350981 -0.14386152 -0.15585043 -0.15466928 -0.13455856 -0.014414314
-0.16478215 0.026064796 -0.04799737 -0.016246581 -0.10617564 0.07230268 -0.01702761 0.0074171317
-0.07683224 0.06411715 -0.14376865 -0.06839198 0.03639252 -0.056727685 0.12781148 -0.10662598
0.018533424 0.034860924 -0.122410566 -0.14859343 -0.083769724 -0.15865871 0.15102313 0.17305462
-0.061291713 -0.098207764 0.062074687 0.040612858 0.004541903 0.11636802 0.054813262 -0.05263289
-0.05765215 -0.13592482 0.051231083 -0.05594254 0.031947684 -0.08132551 0.014176847 -0.027570875
-0.062855706 -0.03229791 0.040766988 -0.044424348 -0.016415793 -0.1684353 -0.055060685 0.1232813
0.06822181 0.07669337 0.006199134 0.05408023 0.12604295 0.086887814 0.044935312 0.13437814
-0.04840243 -0.0022086278 -0.11825815 -0.051828817 -0.071949854 0.10927006 -0.0542922 -0.043049853
0.11021007 0.19681917 0.12296684 -0.06375546 0.110948235 -0.06949004 0.034337714 0.07509845
0.13080077 0.07479617 0.046280563 -0.039734427 0.11558518 -0.09484805 0.1930822 -0.02971832
0.05110237 -0.024290325 -0.13962418 0.10403388 -0.098652124 0.02463856 -0.11959584 0.13522689
00000000: 44d2 1b3e 2646 38bd 3971 fe3d 0c64 f9bd
00000010: 6f65 ca3d 652f 12be f927 283d b34d 833d
00000020: 2d57 26bd e7a7 abbb 9c6f 36be 0eb2 c53d
00000030: 1622 28be ec51 df3d 551e 0f3e ea67 25bd
00000040: c739 17be 8406 063d 26b4 06be 9ddb 87bd
00000050: 3db6 803d e5f3 c5bc 6645 a33d 913d 8a3d
00000060: a3d2 b13d e34a 95bd d627 113e 20ed 01be
00000070: ce9f c2bd 8a7b 653d e354 1b3e ad8e ebbd
00000080: 8fbc 95bc a263 a93d 70fe 0bbe 37c4 15bd
00000090: b6e4 a6bd 15fa dabd b5bc 21be 2595 bc3c
000000a0: b6a2 29be a962 d3bd a5e6 c33d c22a babd
000000b0: edf8 18be 11a5 5b3d 2493 64bd 9c17 35bd
000000c0: 4b2c fdbc fd00 323e 574f 06bd 716b 143e
000000d0: 39e4 f83d acd9 593e 4600 873c 949c fbbd
000000e0: 623e 793c c522 103c a238 90bd c744 1b3b
000000f0: 6ed3 b13d 2a5f 86bd 0738 f5bc 988b 873d
00000100: 70af a33c fe2d 9c3d 57d2 b9bd b976 c8bd
00000110: 0d3d b7bd 6911 af3d 59e9 0c3e ae5d 203d
00000120: 20f4 9fbd 9f64 0fbe 68f4 ad3d 2f54 b4bd
00000130: 2001 b43d 24bf d3bd 55e9 b73d ad8c 86bd
00000140: 40d3 f2bd 6003 a9bc 62a2 4abb 4019 773c
00000150: 5fc9 9a3d 06f0 0a3e b842 1dbe ea7d aa3d
00000160: e7df debd 2ace ba3d 8ebc 28be 43cf 0c3b
00000170: 265a e4bd 7571 ef3d b303 24bd 4b02 1fbe
00000180: e760 2b3d 0281 3e3d 0a5b 43be f385 c2bd
00000190: b213 d13c 8509 233e 8932 b3bd 7875 0bbe
000001a0: 77c8 2c3e e84c ed3d 8276 10be 1952 bd3c
000001b0: d961 c1bd eb1e d5bd 86ba 0f3d cf3b 1cbd
000001c0: 76e6 00be cd8f 133e b0b5 353d 4eba bb3d
000001d0: 9504 8dbd c2f2 38bc 7726 8ebd cfbc c03d
000001e0: 6c39 ed3c e092 c2ba 4486 14be d707 2b3d
000001f0: 58fd 0d3c 07ef ffbc 2a0d e1bd 5a90 073e
00000200: 8e7c f5bd 5f02 12be 4302 63bd ded8 c4ba
00000210: a830 8dbd ed23 e73d a4e6 b4bd eecd 15bd
00000220: 8e9f efbd c8e8 a5bd 7e58 d7bd 7328 553c
00000230: 3d90 d2bd 3e68 103e 9b3f 5ebc 9426 0c3d
00000240: 6fa3 b3bd 171e 46be f347 14bb a5f6 023e
00000250: e561 b1bc 5c30 ce3d 7708 bcbd 985f d03c
00000260: 0205 8fbc 9a15 953d d3e0 0bbd 38f2 273e
00000270: a897 b2bd b065 e4bd ba13 c93d f3b4 fcbd
00000280: 0a53 18be dfc9 903d 2857 0abe 6f50 13be
00000290: 4197 1fbe a061 1ebe b8c9 09be 042a 6cbc
000002a0: a7bc 28be d785 d53c e498 44bd 8d17 85bc
000002b0: 9d72 d9bd 6d13 943d 7d7d 8bbc 690b f33b
000002c0: 395a 9dbd da4f 833d 1738 13be 1811 8cbd
000002d0: 5310 153d 4a5b 68bd 03e1 023e b95e dabd
000002e0: 68d3 973c 54ca 0e3d 64b2 fabd e028 18be
000002f0: 768f abbd 6e77 22be cfa5 1a3e 3b35 313e
00000300: 050d 7bbd 2721 c9bd 0742 7e3d ab59 263d
00000310: 3ed4 943b 5b52 ee3d df83 603d 9695 57bd
00000320: a924 6cbd e02f 0bbe afd7 513d 0124 65bd
00000330: 93db 023d fd8d a6bd 0246 683c 51dc e1bc
00000340: 7eba 80bd d04a 04bd 49fb 263d 4ef6 35bd
00000350: 6a7a 86bc 4e7a 2cbe 5087 61bd e87a fc3d
00000360: e0b7 8b3d 6a11 9d3d 1b22 cb3b 3b83 5d3d
00000370: 6711 013e 3df2 b13d 170e 383d 6c9a 093e
00000380: a041 46bd a0be 10bb 5431 f2bd 744a 54bd
00000390: 725a 93bd fbc8 df3d 7f61 5ebd 0b55 30bd
000003a0: d1b5 e13d f78a 493e 0ad6 fb3d 3992 82bd
000003b0: d438 e33d cb50 8ebd b4a5 0c3d 37cd 993d
000003c0: a3f0 053e bc2e 993d b090 3d3d 91c0 22bd
000003d0: ecb7 ec3d b23f c2bd 57b7 453e d673 f3bc
000003e0: b850 513d 81fc c6bc a4f9 0ebe b70f d53d
000003f0: 200a cabd ced6 c93c aaee f4bd eb78 0a3e

bias f4 [8]
-0.126075 -0.10781704 -0.07325201 0.1705891 -0.063475125 0.14380762 0.13802586 -0.050578933
00000000: ce19 01be 2ecf dcbd 2605 96bd e9ae 2e3e
00000010: 3fff 81bd 4e42 133e a756 0d3e db2b 4fbd

weight f4 [8]
0.9778145 1.0134522 0.9746231 1.0288491 0.9587887 0.9872638 1.0445968 1.0014637
00000000: 0d52 7a3f cdb8 813f e680 793f 54b1 833f
00000010: 2d73 753f 52bd 7c3f 59b5 853f f62f 803f

bias f4 [8]
0.004769668 -0.020725263 0.012424038 0.0174745 0.00050881144 0.007711098 0.0075858985 0.006477587
00000000: e04a 9c3b 07c8 a9bc 318e 4b3c af26 8f3c
00000010: c261 053a 61ad fc3b 2193 f83b f041 d43b

running_mean f4 [8]
0.018074704 0.052975345 0.027845912 0.107579 0.059954952 0.34739858 0.31177607 0.06793323
00000000: 6711 943c adfc 583d 1c1d e43c 6152 dc3d
00000010: 5393 753d 3ade b13e 1da1 9f3e 9420 8b3d

running_var f4 [8]
0.0036151991 0.042162094 0.002033573 0.006010347 0.0110361455 0.056033958 0.06459658 0.009828111
00000000: faec 6c3b 29b2 2c3d b245 053b 72f2 c43b
00000010: f3d0 343c dd83 653d 364b 843d 1606 213c

weight f4 [16, 8, 5]
0.00055468536 0.11141041 0.031012027 0.022915035 -0.08105156 0.1469902 -0.0070921555 0.07687998
-0.046590306 0.03814485 -0.08401331 -0.016803375 -0.16585426 0.08564894 -0.11868293 0.07075009
-0.15824378 -0.16852053 -0.079809204 -0.1135066 -0.1071596 -0.051468074 -0.054225933 -0.061816715
-0.016372506 0.045218352 -0.119119845 -0.14971629 0.053644046 0.10753257 -0.027954888 -0.10838913
0.049613934 0.034502506 0.10574529 0.1171423 0.009365899 0.084280066 0.007584712 -0.027696911
-0.15229739 0.050347265 -0.09019161 -0.012974131 0.16028793 -0.044076387 -0.0882098 -0.16101885
0.11788795 -0.055606674 -0.09451847 0.03873965 0.066991806 0.12443829 0.018053409 0.05955039
-0.009143907 -0.13571279 -0.11358119 -0.0017102587 -0.0340276 -0.084358916 0.031305987 -0.09501153
-0.047693282 0.146886 0.11829533 0.11706936 0.029204158 0.031909246 0.12868199 -0.0073384317
-0.10679599 0.006646724 0.052964583 -0.14757174 -0.15959649 0.09615583 0.10006144 -0.15153739
0.05066286 -0.048095167 0.10611412 -0.023551181 0.088647194 -0.031064536 -0.11432634 0.13663907
-0.06549758 0.1962441 -0.14102274 0.062301435 0.11927618 -0.026261773 -0.07687573 -0.11795482
0.07923474 -0.08490689 0.08561232 0.11836262 0.093554415 0.048578322 -0.11449888 0.1432703
-0.0819748 -0.09291889 0.14370264 0.1199839 0.05594611 -0.080208555 0.115596905 0.0928027
0.031286385 0.07009507 0.060420565 0.1541274 0.10656613 -0.015100323 0.05716791 -0.080970384
-0.09991249 -0.046317834 -0.11483025 -0.15496626 -0.016782364 0.062435187 0.08834883 -0.09911903
-0.063706525 -0.1537687 0.13054429 0.06560271 -0.015514624 -0.033852153 -0.048441157 -0.10408505
0.08890115 -0.077946655 -0.059463657 -0.15645912 -0.15736629 0.10712996 -0.123901665 -0.053081963
0.14548144 0.11030088 0.035517327 0.103901826 0.13924828 -0.13555136 0.10122478 0.06922572
0.006997967 -0.053350914 -0.13313517 -0.13433327 0.10629718 0.0024393015 -0.17378713 -0.11540687
0.06817856 -0.045381542 -0.08024074 0.07226371 -0.006245371 0.00095854694 -0.01579222 -0.011071471
-0.021877732 0.11216707 -0.10190397 0.018900035 -0.0695229 0.1154847 0.061190005 -0.12665705
0.10857285 -0.015260933 -0.032453243 0.044678465 -0.096440345 0.05212305 -0.061564587 0.051443778
-0.10583231 -0.013086858 -0.16014904 0.015001879 0.08621193 -0.03092941 -0.14002346 0.0011313679
0.11235347 0.051048692 -0.011993723 0.07690721 -0.12979467 -0.14201896 -0.024655294 0.04801195
0.03555456 -0.018223649 0.12204627 -0.03778389 -0.0016530544 -0.07444406 0.063284785 0.08345178
8.676887e-05 0.06132866 -0.024065454 -0.11685027 -0.042847995 0.057364013 -0.049773455 0.15448962
0.15883662 -0.11953156 -0.020370739 -0.15211827 0.1526761 -0.046569712 0.06368659 -0.13539186
0.12604693 -0.0953247 0.15104097 -0.038148757 -0.09484487 0.08610602 -0.030044727 -0.045730617
0.11032302 0.119777195 -0.10534976 0.077642724 0.1628441 0.008701564 0.061995495 -0.075928636
-0.11276851 -0.12380177 -0.059201725 0.10101575 -0.03982652 -0.123091154 0.04618035 -0.059485383
-0.09551993 -0.17691204 0.04864301 0.13430218 0.050208226 -0.07870746 -0.14725943 -0.022211181
00000000: 4e68 113a 242b e43d ef0c fe3c 50b8 bb3c
00000010: 5cfe a5bd 9984 163e 5065 e8bb 4073 9d3d
00000020: 7ad5 3ebd c63d 1c3d 2c0f acbd 3ba7 89bc
00000030: b3d5 29be b668 af3d 0910 f3bd 6ce5 903d
00000040: a80a 22be a590 2cbe 0273 a3bd 2676 e8bd
00000050: 7e76 dbbd 30d0 52bd 031c 5ebd 8633 7dbd
00000060: a21f 86bc e136 393d 1bf5 f3bd 3a4f 19be
00000070: dcb9 5b3d 093a dc3d a601 e5bc 1ffb ddbd
00000080: fb37 4b3d 8052 0d3d fd90 d83d 4de8 ef3d
00000090: 6d73 193c 079b ac3d 2d89 f83b a2e4 e2bc
000000a0: d9f3 1bbe ef38 4e3d 61b6 b8bd 7391 54bc
000000b0: 8522 243e 7189 34bd 57a7 b4bd 20e2 24be
000000c0: 3d6f f13d d3c3 63bd e692 c1bd 78ad 1e3d
000000d0: 0033 893d 81d9 fe3d bee4 933c 1ceb 733d
000000e0: 53d0 15bc 4bf8 0abe 419d e8bd c22a e0ba
000000f0: 8660 0bbd 5ec4 acbd b53a 003d 6895 c2bd
00000100: 085a 43bd 4969 163e d244 f23d 10c2 ef3d
00000110: 8f3d ef3c 45b3 023d 36c5 033e 3a77 f0bb
00000120: dbb7 dabd c3cc d93b 64f1 583d 0c1d 17be
00000130: 436d 23be 59ed c43d 03ed cc3d 9e2c 1bbe
00000140: dc83 4f3d 70ff 44bd 5c52 d93d 68ee c0bc
00000150: a98c b53d 0e7b febc ee23 eabd 1deb 0b3e
00000160: 9823 86bd 37f4 483e 4468 10be ca2f 7f3d
00000170: 1247 f43d ee22 d7bc 0671 9dbd 4c92 f1bd
00000180: d345 a23d aae3 adbd 8355 af3d 1a68 f23d
00000190: 7599 bf3d 10fa 463d 647e eabd 73b5 123e
000001a0: 67e2 a7bd 424c bebd c926 133e 1eba f53d
000001b0: c027 653d 6244 a4bd 12be ec3d 580f be3d
000001c0: 2726 003d 018e 8f3d 8e7b 773d 93d3 1d3e
000001d0: 583f da3d 5867 77bc e628 6a3d cdd3 a5bd
000001e0: eb9e ccbd c5b7 3dbd 1f2c ebbd 7aaf 1ebe
000001f0: 2b7b 89bc 0abc 7f3d 3bf0 b43d ebfe cabd
00000200: 9178 82bd 8b75 1dbe 67ad 053e b75a 863d
00000210: 0d31 7ebc 8ea8 0abd 3c6a 46bd 8b2a d5bd
00000220: ce11 b63d 7fa2 9fbd 2a90 73bd d236 20be
00000230: a124 21be f466 db3d 28c0 fdbd 796c 59bd
00000240: 16f9 143e 6ee5 e13d 9e7a 113d 7bca d43d
00000250: 1a97 0e3e facd 0abe f04e cf3d 37c6 8d3d
00000260: 344f e53b 7d86 5abd 9654 08be a98e 09be
00000270: 56b2 d93d b0dc 1f3b 41f5 31be 705a ecbd
00000280: 33a1 8b3d ffe1 39bd 4255 a4bd fffe 933d
00000290: f8a5 ccbb ff46 7b3a b05e 81bc 1d65 35bc
000002a0: ee38 b3bc d9b7 e53d 07b3 d0bd 3fd4 9a3c
000002b0: 0662 8ebd 3e83 ec3d 5fa2 7a3d 63b2 01be
000002c0: 715b de3d fe08 7abc b1ed 04bd c400 373d
000002d0: 8482 c5bd fb7e 553d 262b 7cbd b6b6 523d
000002e0: 9cbe d8bd 436a 56bc 1cfe 23be 71ca 753c
000002f0: e18f b03d ad5f fdbc 4f62 0fbe 684a 943a
00000300: 9319 e63d 6f18 513d 5281 44bc 8781 9d3d
00000310: e5e8 04be 6b6d 11be e6f9 c9bc 2ea8 443d
00000320: a9a1 113d c349 95bc 65f3 f93d 48c3 1abd
00000330: 4dab d8ba 2176 98bd 749b 813d c4e8 aa3d
00000340: aff7 b538 c333 7b3d ea24 c5bc 324f efbd
00000350: 6181 2fbd 87f6 6a3d 40df 4bbd 8732 1e3e
00000360: 11a6 223e f6cc f4bd 89e0 a6bc e4c4 1bbe
00000370: 2057 1c3e e2bf 3ebd 1d6e 823d 2aa4 0abe
00000380: 7212 013e 9939 c3bd 7caa 1a3e df41 1cbd
00000390: 073e c2bd 5a58 b03d 5c20 f6bc 0750 3bbd
000003a0: 09f1 e13d bf4d f53d 9dc1 d7bd 2603 9f3d
000003b0: 9bc0 263e 0191 0e3c fdee 7d3d 7980 9bbd
000003c0: 2df3 e6bd c88b fdbd 827d 72bd 58e1 ce3d
000003d0: 2221 23bd 3717 fcbd 9b27 3d3d f2a6 73bd
000003e0: f49f c3bd 6e28 35be e53d 473d 8386 093e
000003f0: 24a7 4d3d 6031 a1bd 2dcb 16be 39f4 b5bc

bias f4 [16]
-0.09044553 -0.09585616 0.08945564 0.06273395 0.09481029 -0.13644475 0.07356518 0.10647706
-0.06599929 -0.11734208 -0.030013315 -0.14206934 -0.0029998398 0.096312635 -0.032651022 0.09776964
00000000: 823b b9bd 3c50 c4bd 8534 b73d a87a 803d
00000010: e62b c23d 2cb8 0bbe 57a9 963d a510 da3d
00000020: a32a 87bd 0b51 f0bd 7cde f5bc a07a 11be
00000030: f698 44bb 8f3f c53d 14bd 05bd 733b c83d

weight f4 [16, 16, 5]
0.03200504 -0.0069547994 -0.020568972 0.028424423 0.02903766 -0.10387193 0.05369427 -0.039144587
-0.035813186 0.05144851 0.0044601443 -0.1028093 -0.088137396 0.012272838 0.01921006 0.045112498
-0.0103512965 0.07084964 0.10538414 0.057925086 0.06680451 -0.06585955 0.058047857 0.054158032
-0.06660465 -0.03243199 0.04465642 -0.037526682 0.1268128 0.041844673 -0.048780218 -0.0333502
-0.022207245 0.093459256 0.059319437 0.07479006 0.014058338 0.053423703 -0.05474813 0.025448197
-0.041424975 -0.0041766525 0.08504773 0.07550587 0.059984025 -0.019244755 -0.07146966 0.089656286
-0.012512347 0.05447683 -0.0721645 0.022729672 -0.015844075 -0.07869915 -0.02460425 0.06547721
0.020502467 0.0273352 0.03384649 -0.13128518 0.06826607 -0.020909248 0.051053863 -0.05410318
-0.068521984 0.0032556537 0.03182626 0.07217379 0.06889193 -0.11792225 -0.0033054256 0.05002749
0.04812059 -0.031502135 0.005821494 0.028987572 -0.11358747 7.494371e-05 0.09148857 0.03470324
0.02655606 -0.07819396 0.034755465 -0.0021405518 0.05720487 -0.018898858 -0.101644665 0.046277013
-0.12434105 0.06223499 0.059165955 0.08290221 0.07286907 -0.0776331 -0.03816625 -0.079126544
-0.0007414189 -0.02118326 -0.0623552 -0.07180806 0.0014112388 0.088378824 0.07283175 0.022334129
-0.017826099 0.015054765 -0.12526095 0.0027307791 -0.027794397 0.08474883 -0.09807022 -0.12820666
0.09114724 0.06649785 0.093888015 0.14115508 -0.014862875 0.029366452 -0.07699064 -0.05779442
0.03218946 -0.0022991865 -0.065262735 0.09863582 0.11172678 0.008952939 -0.037328243 0.02819435
0.061896585 0.06807758 -0.019810703 0.009619222 -0.047978923 -0.04299862 -0.10694924 0.028724167
-0.07283308 0.06006953 -0.10702441 0.0010440425 -0.028753512 -0.092678316 0.03004957 -0.05850343
-0.03247884 -0.07996903 0.011305378 -0.010995774 -0.023897205 -0.022306915 0.042542275 -0.05213577
0.10106378 0.09736996 -0.011531364 -0.034430034 0.05255922 0.025166132 0.045691855 0.0077357106
-0.018072456 0.14017445 -0.0031362567 0.07289598 -0.07636676 -0.0860401 0.04051157 -0.09814261
0.010496356 0.09640083 -0.084303424 -0.06238316 0.0037953528 0.10626138 0.04206219 -0.08139052
0.10029765 -0.020781348 -0.053535115 0.0674062 -0.028853593 -0.027452951 0.013297967 -0.030090313
0.023202393 0.12422461 0.12376655 0.011317202 0.080671474 -0.05967011 0.063708626 -0.04392415
0.040797137 0.087551616 0.00447543 0.079218656 0.09948014 -0.013293785 -0.034582365 -0.05135917
0.09035086 0.09339213 -0.035938922 0.101131834 0.04641585 0.07578309 0.0136474855 -0.018320953
-0.09507833 0.003967091 0.041225377 -0.010763195 0.10599335 0.04001381 0.13694172 -0.0017083506
-0.043162752 -0.044869583 -0.016101612 -0.05881015 0.07408856 -0.11270312 -0.06620314 -0.04995676
0.070488036 0.005636999 0.06607073 -0.019386508 0.034604646 0.0408405 0.02044128 0.09953113
-0.09065589 0.0473875 0.025401095 0.00974419 0.11807047 -0.0079506 0.071313955 0.023454465
-0.0057905284 0.081840254 0.050991934 0.0035712584 -0.08513011 0.106076404 -0.015752751 -0.11017646
-0.09061743 -0.0630015 0.0024647901 0.05652097 -0.10675632 -0.015744003 0.076282576 0.027809536
00000000: b817 033d 16e5 e3bb 4380 a8bc 56da e83c
00000010: 63e0 ed3c ceba d4bd 86ee 5b3d 1356 20bd
00000020: d9b0 12bd acbb 523d 6726 923b af8d d2bd
00000030: 6181 b4bd 0314 493c 6a5e 9d3c e2c7 383d
00000040: 7c98 29bc 9e19 913d a4d3 d73d db42 6d3d
00000050: ced0 883d 5fe1 86bd 97c3 6d3d d0d4 5d3d
00000060: 0568 88bd 68d7 04bd a6e9 363d 94b5 19bd
00000070: 37db 013e 5265 2b3d c4cd 47bd 389a 08bd
00000080: f8eb b5bc 9167 bf3d f0f8 723d 882b 993d
00000090: f154 663c d0d2 5a3d 933f 60bd bd78 d03c
000000a0: 3cad 29bd 4ddc 88bb 812d ae3d d2a2 9a3d
000000b0: cfb1 753d 2da7 9dbc af5e 92bd b79d b73d
000000c0: 9600 4dbc 1923 5f3d fbca 93bd 9433 ba3c
000000d0: 6fcb 81bc 052d a1bd da8e c9bc ea18 863d
000000e0: caf4 a73c 12ee df3c 9ea2 0a3d 9f6f 06be
000000f0: 15cf 8b3d df49 abbc db1d 513d 4c9b 5dbd
00000100: 4155 8cbd ce5c 553b 415c 023d dacf 933d
00000110: 3617 8d3d 3881 f1bd d79f 58bb a0e9 4c3d
00000120: 191a 453d 6208 01bd 3bc2 be3b 5877 ed3c
00000130: 8ca0 e8bd 192b 9d38 5c5e bb3d fc24 0e3d
00000140: 188c d93c 2824 a0bd bf5b 0e3d 8048 0cbb
00000150: a74f 6a3d c7d1 9abc 142b d0bd f78c 3d3d
00000160: 85a6 febd 1eea 7e3d 0058 723d a2c8 a93d
00000170: 613c 953d 1afe 9ebd 3754 1cbd 190d a2bd
00000180: c85b 42ba 8488 adbc 2b68 7fbd 1b10 93bd
00000190: 51f9 b83a f5ff b43d d028 953d 10f6 b63c
000001a0: 0a08 92bc 43a8 763c 6844 00be dff6 323b
000001b0: 13b1 e3bc cb90 ad3d 0ad9 c8bd 9b48 03be
000001c0: 67ab ba3d 0630 883d 5c48 c03d f58a 103e
000001d0: 6b83 73bc ea91 f03c 45ad 9dbd d7b9 6cbd
000001e0: 18d9 033d f3ad 16bb 78a8 85bd 9401 ca3d
000001f0: 03d1 e43d 59af 123c 80e5 18bd d6f7 e63c
00000200: 4687 7d3d 426c 8b3d 0e4a a2bc f199 1d3c
00000210: 8c85 44bd 521f 30bd 3408 dbbd f24e eb3c
00000220: 8329 95bd 780b 763d 9d2f dbbd 41d8 883a
00000230: 7c8c ebbc 21ce bdbd 842a f63c 4ba1 6fbd
00000240: 8808 05bd cec6 a3bd 313a 393c 9e27 34bc
00000250: 12c4 c3bc febc b6bc cf40 2e3d 518c 55bd
00000260: 87fa ce3d e769 c73d 0cee 3cbc 8206 0dbd
00000270: 5648 573d 3429 ce3c 6227 3b3d d87b fd3b
00000280: b00c 94bc e489 0f3e a889 4dbb 7d4a 953d
00000290: 2d66 9cbd cb35 b0bd 76ef 253d fefe c8bd
000002a0: e8f8 2b3c cc6d c53d 46a7 acbd 7c85 7fbd
000002b0: 74bb 783b 919f d93d 6749 2c3d 13b0 a6bd
000002c0: db68 cd3d a53d aabc a347 5bbd 430c 8a3d
000002d0: 5f5e ecbc 03e5 e0bc b7df 593c f67f f6bc
000002e0: f212 be3c 7969 fe3d 5179 fd3d c96b 393c
000002f0: 1637 a53d a568 74bd ab79 823d cfe9 33bd
00000300: e61a 273d 434e b33d a1a6 923b 643d a23d
00000310: 3ebc cb3d 2dce 59bc 3da6 0dbd fe5d 52bd
00000320: df09 b93d 6044 bf3d b134 13bd 351e cf3d
00000330: 8c1e 3e3d 2a34 9b3d b499 5f3c d315 96bc
00000340: 6db8 c2bd 5ffe 813b f1db 283d 1d58 30bc
00000350: 0b13 d93d 85e5 233d 733a 0c3e bcea dfba
00000360: 6dcb 30bd 2bc9 37bd 87e7 83bc e9e2 70bd
00000370: bebb 973d e5d0 e6bd 8395 87bd 769f 4cbd
00000380: 085c 903d 93b6 b83b 1750 873d 74d0 9ebc
00000390: 9abd 0d3d 5e48 273d 7974 a73c fad6 cb3d
000003a0: cca9 b9bd 6519 423d f515 d03c 18a6 1f3c
000003b0: eece f13d 3c43 02bc 0d0d 923d 9423 c03c
000003c0: 79be bdbb dd9b a73d ebdc 503d c60b 6a3b
000003d0: b258 aebd 963e d93d ea0b 81bc 32a4 e1bd
000003e0: a295 b9bd ee06 81bd 5188 213b 8882 673d
000003f0: 0fa3 dabd 91f9 80bc 0a3a 9c3d d3d0 e33c

bias f4 [16]
-0.07789375 0.10190597 -0.021169186 0.005939343 -0.0921358 -0.059147257 -0.02825904 -0.05549502
0.08137443 0.03865969 -0.048308413 0.107472144 0.07427454 0.034029 -0.06665509 0.063146845
00000000: c286 9fbd 14b4 d03d 006b adbc d29e c23b
00000010: b2b1 bcbd 6544 72bd 817f e7bc bf4e 63bd
00000020: a3a7 a63d a059 1e3d 0bdf 45bd 5b1a dc3d
00000030: 401d 983d fe61 0b3d 7782 88bd 2253 813d

weight f4 [16]
1.0127321 0.9938509 1.0230378 0.99273336 0.97466266 0.97509235 1.0097717 1.012619
1.0199912 1.000983 0.9828977 0.98049504 0.98973465 1.0245864 0.9623136 0.98651785
00000000: 35a1 813f 036d 7e3f e7f2 823f c623 7e3f
00000010: 7e83 793f a79f 793f 3340 813f 809d 813f
00000020: 128f 823f 3620 803f 2f9f 7b3f b901 7b3f
00000030: 405f 7d3f a625 833f 2f5a 763f 6f8c 7c3f

bias f4 [16]
-0.008373101 0.009447071 -0.030165646 -0.017364182 0.013384414 0.0053216233 0.025077032 0.0036098883
-0.009091819 -0.01701178 -0.010207108 -0.004457853 -0.008623957 0.034883413 -0.008335005 -0.004336616
00000000: 552f 09bc e3c7 1a3c f21d f7bc 543f 8ebc
00000010: 4d4a 5b3c 0361 ae3b 596e cd3c e093 6c3b
00000020: daf5 14bc 4a5c 8bbc b73b 27bc 2e13 92bb
00000030: 7f4b 0dbc e9e1 0e3d 8b8f 08bc 2c1a 8ebb

running_mean f4 [16]
0.18008432 0.16886994 0.37460712 0.07652269 0.35652977 0.2292579 0.040498935 0.06433328
0.20688947 0.26310235 0.051798716 0.07410053 0.14238359 0.06130521 0.06288147 0.3491504
00000000: 0668 383e 3eec 2c3e 81cc bf3e eeb7 9c3d
00000010: 128b b63e 95c2 6a3e 36e2 253d 2bc1 833d
00000020: d5da 533e 5ab5 863e e42a 543d 05c2 973d
00000030: 01cd 113e 2c1b 7b3d 00c8 803d d7c3 b23e

running_var f4 [16]
0.028104225 0.020449655 0.0648007 0.011088808 0.23960136 0.08057077 0.0072185537 0.006807107
0.023950066 0.048370764 0.012895505 0.012476408 0.013172003 0.015907757 0.05548196 0.10738891
00000000: d53a e63c 0986 a73c 3bb6 843d d5ad 353c
00000010: 0f5a 753e 4a02 a53d 9e89 ec3b 270e df3b
00000020: ee32 c43c 6c20 463d ab47 533c d969 4c3c
00000030: 63cf 573c fc50 823c 0d41 633d b8ee db3d

weight f4 [32, 16, 5]
-0.13888602 0.08000516 0.08214414 -0.08562598 0.018410992 0.018044522 0.0784308 0.047408752
0.052874412 0.08834222 0.048144475 -0.033933762 0.12505858 -0.077341855 0.01989381 -0.12813537
0.017631065 -0.088748485 0.06376541 -0.090540834 -0.0066468655 -0.09127633 0.0678444 0.06136575
-0.076859556 0.011686433 -0.035704054 -0.03406889 0.0057563926 -0.047749184 0.010929485 0.01137517
-0.0923712 0.09861918 0.0373802 0.060742594 0.09513926 -0.026056094 0.033052895 0.0035823793
0.07521052 0.004956409 -0.0522887 -0.11359411 0.016416311 0.058061063 0.016333368 -0.07553496
0.08738724 -0.080163315 -0.01916786 0.03290236 0.08928999 0.094098605 0.029300196 -0.051633045
0.0038292038 0.05772474 0.07724814 0.008638591 0.08444848 0.024128895 0.057405427 -0.005884057
-0.1068463 0.033763018 0.023123123 -0.0561904 -0.09231035 -0.03344916 0.08132615 -0.07735819
-0.05293101 0.05046475 -0.07581806 0.03817085 -0.010373582 0.10353988 -0.045898262 0.08475485
0.081851296 0.026815325 -0.12166082 0.005015455 0.0039313184 -0.044698015 0.038127054 -0.013182582
0.07764598 -0.04829567 0.0844849 0.0064339903 -0.010818809 -0.0853582 -0.083468065 0.015558123
-0.013525797 -0.093581215 -0.10660027 0.005004767 -0.022936612 -0.11924862 -0.05100443 -0.06286154
0.037546024 -0.024683828 -0.0032814438 -0.024784116 0.0418715 0.05033283 0.08482339 -0.015640013
0.04665181 -0.05112492 -0.06537401 0.046204004 -0.0590287 -0.0045644282 -0.023173472 -0.15958695
0.06459727 0.09368005 -0.095459305 -0.005491777 -0.042656932 -0.027877653 0.12873131 -0.057870947
-0.11026258 0.08487917 -0.079501815 0.06490675 0.087225884 0.020528978 0.02578976 -0.062214904
-0.045727722 0.06833262 -0.016158577 -0.035604846 -0.027040448 -0.020008732 -0.07712706 0.031719014
-0.016322967 -0.108516954 0.0021191542 0.114956416 0.08859492 -0.09489286 0.059339333 -0.012773243
0.07179954 -0.11265633 -0.044431098 0.017890008 -0.07567966 -0.07326753 -0.079629764 0.0257354
0.06858464 0.03205586 -0.056123525 0.028645968 0.06265413 -0.06189175 -0.09490851 0.005328171
-0.09272069 0.08894175 0.077215806 -0.10912571 -0.10284634 -0.07368907 0.04577437 -0.019376742
0.028858708 -0.094041795 0.08356082 -0.030901521 -0.01535625 0.04450267 0.013902275 0.0716498
0.038228363 0.008426264 -0.088101536 -0.05194654 0.094203286 -0.0011365075 0.022168126 -0.008847359
-0.13057524 0.056170918 -0.06320003 0.0772814 0.08668039 -0.013424658 0.059646584 0.110226355
0.09806205 -0.08536714 -0.078679 -0.118007354 -0.1093166 0.09009697 0.092844024 0.07627586
0.064533465 -0.057255324 -0.07211847 -0.061153878 -0.08949308 -0.09343525 0.041683186 0.12176537
-0.057232823 0.100371584 -0.026939869 -0.09119793 -0.0437658 0.083350435 -0.054569434 0.0499261
-0.016481997 0.10977743 0.10342736 0.09105776 0.1294643 -0.12853302 0.06173935 -0.022950202
0.066289425 -0.076394446 -0.09732965 -0.019210946 -0.07588343 -0.05302095 0.0023051575 -0.05704021
0.1259543 0.0025154178 -0.03221938 0.03316417 -0.016404223 0.055964474 0.104031175 0.0025611103
0.11823773 0.021098962 0.022852888 0.06676523 -0.08237675 0.09205023 -0.0052626124 -0.053100992
00000000: 2338 0ebe bfd9 a33d 303b a83d ac5c afbd
00000010: a6d2 963c 1bd2 933c 54a0 a03d ae2f 423d
00000020: d792 583d c4ec b43d 2433 453d 21fe 0abd
00000030: 5b0f 003e 6865 9ebd 58f8 a23c eb35 03be
00000040: 066f 903c c4c1 b5bd 7097 823d 796d b9bd
00000050: f3cd d9bb 16ef babd 01f2 8a3d a75a 7b3d
00000060: 8b68 9dbd 7478 3f3c 6a3e 12bd d28b 0bbd
00000070: 1fa0 bc3b a694 43bd 9511 333c ec5e 3a3c
00000080: 1d2d bdbd daf8 c93d fb1b 193d 3acd 783d
00000090: 5fd8 c23d 9773 d5bc 7962 073d 5ac6 6a3b
000000a0: f907 9a3d 5f69 a23b ad2c 56bd 07a4 e8bd
000000b0: 807b 863c 70d1 6d3d 8ecd 853c 13b2 9abd
000000c0: 15f8 b23d aa2c a4bd ea05 9dbc a0c4 063d
000000d0: acdd b63d c5b6 c03d f706 f03c 2c7d 53bd
000000e0: 61f3 7a3b c770 6c3d 4634 9e3d e088 0d3c
000000f0: 53f3 ac3d f6a9 c53c f421 6b3d 0ccf c0bb
00000100: 3cd2 dabd 174b 0a3d b46c bd3c e827 66bd
00000110: 350d bdbd fd01 09bd 538e a63d f96d 9ebd
00000120: 30ce 58bd 20b4 4e3d 8046 9bbd 0a59 1c3d
00000130: f5f5 29bc b70c d43d d1ff 3bbd f393 ad3d
00000140: a7a1 a73d d0ab db3c 4f29 f9bd b058 a43b
00000150: 4ad2 803b 4415 37bd 1d2b 1c3d c2fb 57bc
00000160: db04 9f3d aed1 45bd 6b06 ad3d 39d4 d23b
00000170: 6041 31bc 48d0 aebd 4ef1 aabd 7fe7 7e3c
00000180: 4e9b 5dbc 82a7 bfbd 3e51 dabd 07ff a33b
00000190: 90e5 bbbc 9f38 f4bd 05ea 50bd 8dbd 80bd
000001a0: dcc9 193d bd35 cabc 7e0d 57bb 0f08 cbbc
000001b0: 7381 2b3d cc29 4e3d e3b7 ad3d 7c1f 80bc
000001c0: f815 3f3d 5d68 51bd cfe2 85bd 6940 3d3d
000001d0: 14c8 71bd 3391 95bb 4bd6 bdbc c36a 23be
000001e0: 934b 843d 53db bf3d 2b80 c3bd 5df4 b3bb
000001f0: 09b9 2ebd ad5f e4bc 24d2 033e 160a 6dbd
00000200: 59d1 e1bd 21d5 ad3d d9d1 a2bd d5ed 843d
00000210: 7ca3 b23d 632c a83c 0c45 d33c 0ed5 7ebd
00000220: fe4c 3bbd f9f1 8b3d fe5e 84bc 63d6 11bd
00000230: ee83 ddbc 5ae9 a3bc cbf4 9dbd cceb 013d
00000240: beb7 85bc 233e debd 82e1 0a3b 456e eb3d
00000250: 4171 b53d 3057 c2bd cd0d 733d dd46 51bc
00000260: a30b 933d 5db8 e6bd 62fd 35bd 118e 923c
00000270: f0fd 9abd 490d 96bd ee14 a3bd 0cd3 d23c
00000280: 1b76 8c3d 014d 033d c8e1 65bd f3aa ea3c
00000290: cf50 803d 3482 7dbd 655f c2bd f097 ae3b
000002a0: 58e4 bdbd 1827 b63d 5223 9e3d 4d7d dfbd
000002b0: 1aa1 d2bd 4cea 96bd e87d 3b3d f9bb 9ebc
000002c0: 1969 ec3c fc98 c0bd ef21 ab3d 3025 fdbc
000002d0: c898 7bbc 6f48 363d 5ec6 633c 21bd 923d
000002e0: 5895 1c3d 500e 0a3c 946e b4bd e5c5 54bd
000002f0: a7ed c03d ddf6 94ba ee99 b53c 83f4 10bc
00000300: 84b5 05be 7a13 663d 046f 81bd b645 9e3d
00000310: 7d85 b13d 19f3 5bbc fa4f 743d 5bbe e13d
00000320: c2d4 c83d f8d4 aebd 7522 a1bd d7ad f1bd
00000330: 62e1 dfbd c384 b83d 0225 be3d 8536 9c3d
00000340: 1f2a 843d 8f84 6abd d9b2 93bd 7d7c 7abd
00000350: 2648 b7bd fb5a bfbd fdbb 2a3d 1f60 f93d
00000360: f76c 6abd 9e8f cd3d 00b1 dcbc fbc5 babd
00000370: c443 33bd a2b3 aa3d 3384 5fbd 4f7f 4c3d
00000380: 4105 87bc fdd2 e03d b9d1 d33d 7e7c ba3d
00000390: 4a92 043e 299e 03be 67e2 7c3d 1002 bcbc
000003a0: c0c2 873d b174 9cbd c454 c7bd 4660 9dbc
000003b0: c668 9bbd 7f2c 59bd 2012 173b ffa2 69bd
000003c0: 2afa 003e b5d9 243b 78f8 03bd 27d7 073d
000003d0: 2662 86bc 013b 653d 4c0e d53d 4dd8 273b
000003e0: 9f26 f23d bbd7 ac3c fb35 bb3c 35bc 883d
000003f0: 24b5 a8bd d584 bc3d fe71 acbb 6d80 59bd

bias f4 [32]
0.080890335 0.04899609 0.044840995 -0.06256655 0.00016902242 -0.026698077 0.12561153 -0.0910624
0.08128376 -0.034952886 -0.106076576 -0.037308488 -0.018883837 0.07081774 -0.09000772 0.07033363
0.100218974 -0.07151514 -0.020865878 -0.021910612 -0.13038164 -0.08630031 0.0034675794 0.06548546
-0.0017624714 -0.0058105844 0.14270121 -0.0657555 0.046253387 0.06857803 0.09741888 0.06609668
00000000: d5a9 a53d 20b0 483d 31ab 373d e422 80bd
00000010: 9c3b 3139 edb5 dabc 4fa0 003e ec7e babd
00000020: 1a78 a63d c22a 0fbd ad3e d9bd c9d0 18bd
00000030: 47b2 9abc e408 913d f855 b8bd 140b 903d
00000040: 9b3f cd3d 8876 92bd ebee aabc e27d b3bc
00000050: c482 05be 38be b0bd 5440 633b 3e1d 863d
00000060: ba02 e7ba b766 bebb 4420 123e d2aa 86bd
00000070: 3174 3d3d a372 8c3d 8d83 c73d b25d 873d

weight f4 [32, 32, 5]
0.027382769 0.06831419 0.017318623 -0.023910616 -0.016120285 0.0035774894 -0.08702736 -0.0075450335
-0.004649897 -0.0036007925 -0.008593554 0.0031865647 -0.020300519 0.052682705 -0.07161885 -0.026216477
0.041145407 -0.01957087 0.04067763 0.02515726 -0.02971156 0.007998597 0.032515004 -0.023282196
0.017919458 0.01602553 -0.068683095 -0.016790131 0.03843575 -0.022772444 0.0049463045 -0.06698885
0.010851185 -0.05231857 0.019382374 0.03536826 0.0063688676 0.052005205 0.008883964 -0.0012409134
-0.009596416 -0.016801784 -0.034688544 0.0024406249 0.0010154694 0.0032467307 0.000104881474 -0.009446864
-0.052456655 -0.018217182 -0.0005718551 -0.028197957 0.030945146 -0.0848886 -0.03320346 -0.032389544
0.09976877 0.11114908 0.03655593 -0.024736414 0.040896647 -0.08717777 0.039036363 -0.023759836
0.00914009 -0.05140577 -0.047516413 0.013831477 -0.014070862 -0.0126914205 0.031111808 -0.017561331
-0.039008673 -0.066496976 -0.081020206 -0.086891115 -0.05707434 0.016389968 -0.03567996 0.03648035
-0.03345319 0.06991492 0.055345476 0.07113224 -0.008107969 -0.062102526 -0.007718152 -0.031121626
0.013056922 -0.046585858 0.051003993 -0.044931676 -0.0011347882 0.007974448 -0.037634358 0.041067097
-0.034946244 -0.06872915 -0.039699193 0.04019554 -0.056758404 -0.041359022 -0.10669916 -0.03148725
0.0030152951 -0.05175844 -0.042139128 -0.055984214 0.029870156 0.0644483 0.060808107 -0.033608153
-0.037455972 -0.0099605415 -0.076336026 0.075039335 0.062264528 0.075447395 -0.070421696 -0.077470675
0.032503054 0.028853385 -0.008099306 -0.05871929 -0.08011727 0.07436377 0.009148083 -0.06099274
-0.08665249 0.04282627 -0.049402997 -0.025167571 -0.042359784 0.027402718 0.01060174 -0.043896362
0.00097565335 0.028445588 -0.05093074 -0.034668874 0.0003573478 -0.0011221684 -0.034181476 0.0016659144
-0.005328046 0.018712815 -0.048788525 0.00825764 -0.0027549644 0.01701617 0.069934994 -0.07356793
-0.044709556 -0.056926128 -0.06495788 -0.001975156 -0.07368552 -0.023317832 0.05401999 -0.07069745
0.00085926114 -0.050492298 0.008648975 0.0074739703 0.040664766 -0.01569672 -0.08306472 0.0052419235
0.09772398 0.005200791 -0.053391494 0.041602056 0.082203835 0.0063623535 0.0632063 -0.034743626
-0.062147688 -0.07963648 0.013131933 0.01749263 0.029902022 0.057208795 0.030718489 -0.06426546
-0.038608517 -0.01526431 -0.032192245 0.008286428 0.015028588 -0.058592632 -0.082780756 -0.041469183
-0.0735956 -0.036233597 0.033562936 -0.060752142 -0.027027365 -0.015391526 0.050991233 -0.050215244
-0.0015542867 -0.018237164 0.040971126 -0.07372767 -0.063965246 -0.08745407 -0.06524482 -0.045916747
0.036302216 -0.00028023464 -0.08290729 0.018673627 -0.055101085 0.058831032 -0.0015176497 -0.05812389
-0.038877454 -0.040649787 0.05355158 -0.0032341962 0.035238735 -0.057424817 0.009369751 -0.041222673
-0.01564409 -0.051132873 -0.07793853 0.04144773 0.13939671 0.103733264 -0.07615037 0.055803195
-0.039983988 -0.028357139 -0.03333452 -0.0759976 -0.062390674 0.1210122 -0.0062515866 0.019601889
-0.098258995 -0.030988198 0.081463575 0.009309495 0.064505324 0.04188014 -0.017662361 0.11072145
-0.06717694 -0.047998015 0.01692801 -0.019349894 0.036666486 -0.08011266 -0.0072646486 -0.069941446
00000000: d451 e03c 4fe8 8b3d c9df 8d3c 32e0 c3bc
00000010: b00e 84bc 5074 6a3b 673b b2bd 543c f7bb
00000020: 2a5e 98bb 46fb 6bbb facb 0cbc afd5 503b
00000030: 464d a6bc d2c9 573d e7ac 92bd f0c3 d6bc
00000040: 1688 283d 1753 a0bc 969d 263d 9916 ce3c
00000050: a865 f3bc 8c0c 033c 742e 053d 4eba bebc
00000060: d4cb 923c f947 833c b9a9 8cbd 758b 89bc
00000070: ce6e 1d3d 478d babc 9c14 a23b 7331 89bd
00000080: 2bc9 313c ff4b 56bd c9c7 9e3c 4fde 103d
00000090: efb1 d03b 6903 553d 0c8e 113c 25a6 a2ba
000000a0: 493a 1dbc e5a3 89bc 9315 0ebd e4f2 1f3b
000000b0: 8019 853a 1ac7 543b d0f3 db38 05c7 1abc
000000c0: cadc 56bd 333c 95bc 8ce8 15ba 67ff e6bc
000000d0: ad80 fd3c 13da adbd 5a00 08bd e6aa 04bd
000000e0: 9253 cc3d 21a2 e33d acbb 153d 05a4 cabc
000000f0: 3e83 273d 428a b2bd 98e4 1f3d fda3 c2bc
00000100: 51c0 153c db8e 52bd 92a0 42bd 6b9d 623c
00000110: 7989 66bc adef 4fbc 31de fe3c c8dc 8fbc
00000120: 8fc7 1fbd 912f 88bd eced a5bd f8f3 b1bd
00000130: c8c6 69bd 4144 863c 2625 12bd 6b6c 153d
00000140: 3606 09bd 8e2f 8f3d f0b1 623d c8ad 913d
00000150: 49d7 04bc 385f 7ebd 8de8 fcbb c8f2 febc
00000160: b3ec 553c d0d0 3ebd 90e9 503d 470a 38bd
00000170: 2cbd 94ba 42a7 023c 7c26 1abd f935 283d
00000180: cb23 0fbd dec1 8cbd 9f9b 22bd 14a4 243d
00000190: 807b 68bd 1468 29bd 1785 dabd c6f8 00bd
000001a0: 429c 453b a800 54bd 149a 2cbd b44f 65bd
000001b0: 42b2 f43c 78fd 833d ec11 793d b4a8 09bd
000001c0: 6f6b 19bd 8a31 23bc 1056 9cbd 39ae 993d
000001d0: 1709 7f3d 2a84 9a3d 4039 90bd f2a8 9ebd
000001e0: ec21 053d ef5d ec3c f4b2 04bc a383 70bd
000001f0: 8614 a4bd 084c 983d d7e1 153c 86d3 79bd
00000200: dc76 b1bd 996a 2f3d cc5a 4abd 392c cebc
00000210: 7481 2dbd aa7b e03c ecb2 2d3c accc 33bd
00000220: fdc2 7f3a b906 e93c c09c 50bd f300 0ebd
00000230: 695a bb39 b915 93ba e001 0cbd d05a da3a
00000240: e496 aebb 9e4b 993c 7ad6 47bd 0d4b 073c
00000250: a28c 34bb 7f65 8b3c 143a 8f3d c8aa 96bd
00000260: 5e21 37bd 5f2b 69bd a308 85bd 9e71 01bb
00000270: 6fe8 96bd 0a05 bfbc 1144 5d3d d3c9 90bd
00000280: 0a40 613a 03d1 4ebd 6eb4 0d3c 35e8 f43b
00000290: 1990 263d 6896 80bc d61d aabd 71c4 ab3b
000002a0: 8323 c83d 666b aa3b 0ab1 5abd eb66 2a3d
000002b0: 7c5a a83d 4a7b d03b 4e72 813d 554f 0ebd
000002c0: 938e 7ebd 7318 a3bd 5227 573c b44c 8f3c
000002d0: 16f5 f43c c553 6a3d 57a5 fb3c 9c9d 83bd
000002e0: f723 1ebd 2817 7abc 04dc 03bd ccc3 073c
000002f0: 773a 763c d4fe 6fbd f588 a9bd 97db 29bd
00000300: 4ab9 96bd ae69 14bd 4a79 093d 3dd7 78bd
00000310: 7e68 ddbc bd2c 7cbc 2fdc 503d 80ae 4dbd
00000320: 35b9 cbba 1b66 95bc 57d1 273d 88fe 96bd
00000330: 3600 83bd 1f1b b3bd 149f 85bd 3313 3cbd
00000340: a2b1 143d 75ec 92b9 4ccb a9bd 6ff9 983c
00000350: adb1 61bd cff8 703d e0eb c6ba 5113 6ebd
00000360: f73d 1fbd 6480 26bd e758 5b3d cff4 53bb
00000370: 7e56 103d 4936 6bbd 9683 193c 1bd9 28bd
00000380: 0928 80bc b470 51bd 3c9e 9fbd 18c5 293d
00000390: 03be 0e3e 1b72 d43d baf4 9bbd e491 643d
000003a0: 40c6 23bd 3b4d e8bc c789 08bd a1a4 9bbd
000003b0: 5d8d 7fbd 3fd5 f73d 1cda ccbb 2494 a03c
000003c0: 033c c9bd f6da fdbc 60d6 a63d da86 183c
000003d0: 5e1b 843d 828a 2b3d a8b0 90bc edc1 e23d
000003e0: 1094 89bd 9199 44bd 9cac 8a3c ab83 9ebc
000003f0: 992f 163d 1b12 a4bd 4a0c eebb 763d 8fbd

bias f4 [32]
-0.077195905 0.049592305 0.0022315222 -0.06139911 0.014734089 0.032756492 0.018920155 0.0532652
-0.036048464 0.02672424 -0.017787138 0.002556678 -0.046138484 -0.04032429 0.045298923 -0.009098509
-0.06643643 -0.044940803 0.037196998 0.08297812 -0.08271559 -0.075507484 0.0062927953 0.056096036
-0.026986914 -0.04681362 0.047412343 0.024231348 -0.018374836 -0.08333088 0.017762143 -0.0033530938
00000000: e318 9ebd 4d21 4b3d bb3e 123b a27d 7bbd
00000010: 4067 713c ac2b 063d 71fe 9a3c 9c2c 5a3d
00000020: 8ea7 13bd cbec da3c 55b6 91bc f08d 273b
00000030: b5fb 3cbd 152b 25bd 5d8b 393d ea11 15bc
00000040: d30f 88bd d913 38bd e15b 183d 6ff0 a93d
00000050: cb66 a9bd aba3 9abd cb33 ce3b f5c4 653d
00000060: a913 ddbc a3bf 3fbd 7233 423d d280 c63c
00000070: d386 96bc 61a9 aabd ea81 913c 94bf 5bbb
