results/SV_unet_matrixlonlatcov_5s.pt (torch, 101972 bytes, 49 tensors)

weight f4 [8, 1, 1, 1]
00000000: 9ae5 3f3f 3b1c 453f 50fa 94be 4056 b9bc
00000010: 00c1 7ebe e764 783f ebe5 2bbc 97a5 873e
0.7495972 0.769962 -0.29097223 -0.022624135 -0.24878311 0.97028965 -0.010491828 0.26493523

bias f4 [8]
00000000: dcc5 42bf ceda 3c3f ccdd fabe 1893 55bf
00000010: 7e57 703f 2977 4fbf 5a20 23bf 7eea d9be
-0.7608316 0.7377137 -0.48997343 -0.8342757 0.938835 -0.810412 -0.6372124 -0.42561716

weight f4 [11]
00000000: ff2d 6f3f 83b2 673f 0000 803f 0000 803f
00000010: 628b 5e3f 62dd 633f 55f6 7a3f df06 7d3f
00000020: a5be 603f 6a4a 303f 8026 a13f
0.9342956 0.9050676 1.0 1.0 0.8693143 0.8900968 0.9803212 0.9883861
0.877909 0.68863547 1.2589874

bias f4 [11]
00000000: 2b72 133d 4dc8 1dbb 608d b13c d0b3 2fbd
00000010: 8e06 9abc 9dbe b3bc a93b 443c e39a 6bbb
00000020: 3e6f 86bd 9691 33bd c54c e13c
0.03599755 -0.0024075687 0.021673858 -0.042896092 -0.018801954 -0.021941477 0.011977115 -0.0035950474
-0.065641865 -0.043840013 0.027502427

running_mean f4 [11]
00000000: 9005 9c45 be2e a145 0000 0000 0000 0000
00000010: 86dd 903f 310f ca45 0400 0000 7534 dc44
00000020: 4884 88bd cd3a e43c ea03 143e
4992.6953 5157.843 0.0 0.0 1.1317604 6465.899 6e-45 1761.6393
-0.06665856 0.02786007 0.14454618

running_var f4 [11]
00000000: 6cd4 cf4a 334c db4a 0400 0000 0400 0000
00000010: b1c5 a33f 181d 2e4b 0400 0000 52ac 4f49
00000020: 4023 6f3f 12d6 693f 3c39 993d
6.810166e+06 7.1859455e+06 6e-45 6e-45 1.2794706 1.1410712e+07 6e-45 850629.1
0.9341316 0.9134227 0.0748162

weight f4 [8, 11, 5]
00000000: 2aad 4abc d269 e3bd 5661 123d fd2d bd3d
00000010: a74c 88bd b0e1 923d 5e9a 0abd 6752 ec3d
00000020: 58d5 293b 1e24 afbd 6a4d fd3d 1d85 a3bd
00000030: 4485 ccbc 6fec c33b dd84 81bb f226 0d3d
00000040: 8566 b43d 1105 e13d bcab 09be 8dc4 ed3d
00000050: 651f 89bd 62eb 11bd c6a1 433d 01b6 e33d
00000060: d5c3 90bc 8473 43bd 60e2 d43c 3830 e33c
00000070: 8f72 a73d 02a6 90bd 77f4 86bd f76a 053c
00000080: e1ab 9dbc f200 f73d c984 963d a332 9abd
00000090: be92 f83c 9307 2cbd cfce 76bd 9c38 45bb
000000a0: bbd4 da3d 1b99 b7bd be78 a9bd 5f80 8a3d
000000b0: 36ab 32bd 3df2 923d 4c25 923d f56d 083c
000000c0: 7146 a5bd ffc5 1f3d 1830 533e e7ce 94bd
000000d0: a008 cdbd 6591 d1ba 9693 7abd 863d 603c
000000e0: 62f0 8e3d 3702 43bd 1990 3bbd 64fb b4bd
000000f0: e85d 673d 46f0 733d 0fce a23d 291f 9fbd
00000100: a54e e3bd ec26 32be df51 19be 612c 9cbd
00000110: 1b4d 283c 5be8 8fbc 52eb f63d e4e1 3b3e
00000120: ee43 133e 38b0 173e 21e6 c3bc d165 bb3d
00000130: 2325 013e fd29 9bba 982b 06be 92c5 c63d
00000140: 9827 e7bd b3cc 61bd f118 363c a3ac 033d
00000150: c015 d23d 6c6c 853d d597 603c 10ef f23d
00000160: 3a7f e2bd bf08 46bd 4a48 393d e8cd a7bc
00000170: 2f30 e93c 6e79 c6bd fe08 dabc a599 983d
00000180: ea40 6abd a0cb 5f3d 81e0 cb3d 8189 293d
00000190: 4bc1 22bd b1ab 8c3d f563 433c 0cd9 d4bd
000001a0: ad1c 633d 69ae c2bd d8c4 f0bd 3c66 9b3d
000001b0: a860 a13d 32de a43d cbd1 e5bd ca8f c1bd
000001c0: 139b d23d 148b 2cbd 3aef f3bc 1380 a3ba
000001d0: 6e31 a13a dfeb 00be c4b2 0e3e f542 8b3d
000001e0: bd41 783c f590 ad3a 6132 013e b1af 843d
000001f0: ec94 353b fd38 ebbc a0dc f4bd 3c02 16be
00000200: ffb2 c2bc b3d5 cabd bab1 17bd 2458 09bd
00000210: 12b4 453d a0cd fdba b51e 83ba 5aa1 a33d
00000220: e8ea d53c 4a08 ac3d 7eda 893d 9a8f 263b
00000230: 1d6a 323d fd36 01be 4995 33bd 3571 aebd
00000240: 2410 ffbc e324 043e 5b58 ffbd e706 62bd
00000250: 0e57 df3b 99f1 213e ec0d aebc b3b1 61bd
00000260: 3fb8 87bd ad38 b03c 9e75 5a3a 5a1e 2f3c
00000270: a777 14bd c0b1 a73d 9a61 a73d f540 0dbe
00000280: e821 163e 857e 083e e339 8bbd a147 223e
00000290: b952 3b3e aeee 0a3d e38b 2dbd ca0e 80bd
000002a0: ef12 c83b db7f 0b3e 7be0 133d 6883 503c
000002b0: 4d45 8f3b 5cb3 92bd 3047 6cbd 57d4 da3d
000002c0: 7ffd 78bd 8716 39bc 3dd7 093e 42dd 273e
000002d0: 4d68 0fbe fd52 2ebd f9be 0dbe 7555 29be
000002e0: 76c8 16bd db4a ebbb 8788 b5bc 781c 5fbe
000002f0: 8a77 72be f148 89bd 1857 4abc 1531 f5bd
00000300: 8097 413c 3c9b fdbc e628 32bc b633 fb3d
00000310: a9de 493c cc52 8ebd 062d 95bd fe8b 013e
00000320: 160c 903c 412f d6bc 66dd 7bbd 0f49 ea3d
00000330: 62c5 b33d b30f babd db27 82bd 436a 1b3e
00000340: 0a12 23bd d81a 263c b30a eb3d 1920 d7bd
00000350: e3d1 643d 9f5d 563c 3944 69bd c9eb f6bd
00000360: 253b 23bd 9dda b9bd df80 efbb b930 8f3e
00000370: 0d9e 38bd ebae 263e 3876 eabc a5ed d13d
00000380: 0340 d0bd cf39 a73d 759c b0bd dd03 943d
00000390: a74a 393d 6f89 dbbd 0fca 92bd 9f20 b9bd
000003a0: fbf3 023e 1ad1 483d 46bd 2cbd c1da d8bc
000003b0: 0581 043e 4d8f 7d3c 919d dd3d a748 b3bd
000003c0: 7ca9 0c3e 7390 b3bd 7ee4 a5bd 8ff2 5bbd
000003d0: 340d 613d 8e55 cdbd 46fb c43d adaa a5bd
000003e0: 680e f03d 88c8 d0bc 6546 f83d 4339 263d
000003f0: be2a 5ebc 2a7d bfbb f87e d43d a52f 5ebd
-0.012370387 -0.11104168 0.035737358 0.09237287 -0.06655245 0.07171953 -0.033838622 0.115391545
0.0025914516 -0.08551811 0.12368281 -0.07984374 -0.02496589 0.005979113 -0.003952606 0.03446097
0.088086165 0.109872945 -0.13444418 0.11609755 -0.06695441 -0.03562487 0.0477617 0.11118699
-0.017671505 -0.047717586 0.02598685 0.027732953 0.08176147 -0.070629135 -0.06589597 0.008143178
-0.019246997 0.12060727 0.073495455 -0.075291894 0.03034341 -0.04199941 -0.06025582 -0.0030093556
0.10685106 -0.089647494 -0.08274983 0.06762766 -0.04362031 0.071751095 0.0713602 0.008326997
-0.08070076 0.039007183 0.20623815 -0.07266026 -0.10011411 -0.0015988766 -0.061175905 0.013686543
0.06979443 -0.047609534 -0.04579172 -0.088370115 0.05648604 0.059555314 0.07949459 -0.07769615
-0.11098985 -0.1739766 -0.14972638 -0.07625652 0.01027229 -0.01756685 0.120566025 0.18347889
0.14381382 0.14813316 -0.023913445 0.09150279 0.12611823 -0.0011838075 -0.13102567 0.09705652
-0.11286849 -0.055126857 0.011114345 0.03214706 0.10258055 0.065148205 0.013708075 0.11862004
-0.11059423 -0.048348185 0.045234956 -0.020483926 0.028465359 -0.096911296 -0.026615616 0.0745118
-0.057190813 0.05463755 0.0995493 0.0413909 -0.03973512 0.06868685 0.011925687 -0.10392961
0.05544727 -0.09505922 -0.11756295 0.07587859 0.07879764 0.08050193 -0.112216555 -0.09451254
0.10283484 -0.042124823 -0.029777158 -0.0012474082 0.0012298056 -0.12589978 0.13935381 0.067998804
0.015152392 0.0013242053 0.12616874 0.06478823 0.0027707173 -0.028713698 -0.119561434 -0.1464929
-0.023766993 -0.09904041 -0.037034728 -0.033531323 0.04826743 -0.0019363649 -0.0010003658 0.0798976
0.026112989 0.084000185 0.06731127 0.0025415183 0.04355823 -0.12618633 -0.04384354 -0.08517686
-0.031135626 0.12904696 -0.12468024 -0.055182364 0.0068157976 0.15814818 -0.021246873 -0.055101108
-0.06626939 0.0215114 0.00083335664 0.010688389 -0.036246922 0.081882 0.08172913 -0.1379431
0.14661372 0.13329513 -0.067981504 0.15847637 0.18293275 0.03391903 -0.042369734 -0.06252821
0.0061057727 0.13622992 0.036102753 0.012726642 0.004372275 -0.07163116 -0.057685077 0.10685032
-0.060788628 -0.011296875 0.13461013 0.16392997 -0.14004631 -0.042559613 -0.13842382 -0.16536506
-0.03681227 -0.0071805543 -0.022159828 -0.21788204 -0.23678413 -0.067033656 -0.012349866 -0.11972252
0.011815906 -0.03095781 -0.010874009 0.122657225 0.012321153 -0.06949386 -0.07283978 0.12651059
0.017583888 -0.02614558 -0.06149044 0.11439716 0.08777882 -0.09085026 -0.06355258 0.15177254
-0.039812125 0.010138236 0.1147665 -0.10504169 0.055864226 0.013083844 -0.056949828 -0.12056691
-0.039851326 -0.090749 -0.007309064 0.2796686 -0.045072604 0.16277663 -0.028620824 0.10250405
-0.10168459 0.08165323 -0.08623592 0.07227299 0.04523721 -0.10719573 -0.07167446 -0.09039425
0.12788384 0.04902754 -0.042172693 -0.026471497 0.12939842 0.01547606 0.10821069 -0.08754092
0.13736528 -0.08767786 -0.08100222 -0.05369812 0.054944232 -0.10026084 0.09618239 -0.080891944
0.11721498 -0.025486246 0.12122802 0.040581953 -0.013559995 -0.005843778 0.1037578 -0.054244656

bias f4 [8]
00000000: 8e6b 013e 630e 21bd 72fe f63c 6f14 92bc
00000010: 2c40 4e3c e559 063e a13b 29bd 7270 203d
0.12638685 -0.03932036 0.030150626 -0.01783201 0.012588542 0.1312023 -0.041316632 0.039169736

weight f4 [8, 8, 5]
00000000: fddd ea3d 4af6 f33b 48b9 82be be2e bdbd
00000010: ee38 343e f8fd e8bd 4539 80bd 6c7b acbd
00000020: 11c7 2abd bcaa 6e3d 2a7d 00bc a59b c03d
00000030: ab28 a2bd f43f 4dbe 7e24 993d 02de 033e
00000040: 4160 4abd 268a 04be 87b6 8e3c c4ba 75bd
00000050: 30cd aebd cb4c a23d a0f9 bcbc ac02 e8bd
00000060: 1401 b0ba 9196 03be 716b 10be 2d2a 1b3e
00000070: 2db5 4f3c d8e1 ba3d 90fa dabd 76a9 efbd
00000080: bfaf 603d db71 e4bd d894 b6bd 552c d0bd
00000090: c789 0b3e da09 dabb 437c 7d3d dbed 36bd
000000a0: 4c70 e8bd 107e 14be a223 8dbd 12a5 7abd
000000b0: 193f 213e 0aee 3cbe 7790 863d 1a12 8d3d
000000c0: bd38 d7bd 5bc7 bebd ef4f 0a3d 6c06 e03d
000000d0: 220a d6bd a9d7 abbc da64 60bd 7e6a 5cbd
000000e0: 7631 b4bc f87e 7dbe 3fc5 42be 3df4 7ebd
000000f0: 498a 4a3b f2c2 9bbd 9d9a 28be d995 dbbd
00000100: 7d0b 65bd 23f8 0d3e 0b07 efbd 7697 bebd
00000110: baa7 f43d ac64 dabd 169f 813c de08 04be
00000120: ca10 d7bd d670 c23c 16f5 043d 29d5 5cbe
00000130: 15e1 cb3d b837 f4bd ba55 513c 8f26 a03d
00000140: 6753 f33c 3837 3e3d d7f1 a73d 54c4 87bd
00000150: bdb4 bebd 2aeb ccbd 7047 dcbd 2667 09be
00000160: d782 ea3c 2396 78bd 8665 473e f2af 843d
00000170: 409a 58bd 7dcc 40be cf60 fb3b 19e2 ad3d
00000180: e5e7 90bd f256 9f3d 2350 c93c b269 36be
00000190: d3d8 a6bd 56b1 02be a9ea 6bbd f0f4 183d
000001a0: 7ab2 c43d 2afc 1d3e 846a f5bd 2a0b 90bd
000001b0: 48b3 323d 73e6 d63d e002 d03d f26a babd
000001c0: 2e98 263d ed19 a8bd a91d 2c3d e874 0d3e
000001d0: da91 0d3e e657 913b 59a8 1abe 24a1 9d3d
000001e0: 9ae6 80bd 19e6 ef3c defa 493c 4795 c63d
000001f0: 4f06 95bb 3b49 9f3d 7253 d4bd d3f7 2d3c
00000200: 3937 063e 4835 623d 1233 893d 3e95 603d
00000210: 64cb 5dbd ed21 42bd 1fbe 093e 59e7 3c3e
00000220: f79b 023e fd4b 42be dfb7 0bbd 45fd a5bc
00000230: d0ce a3bd e8b9 b63c ccad dfbc ec43 133e
00000240: d290 83bd fafd 00bc 5e89 19bd 5ab1 1bbd
00000250: a9b5 af3d e393 9f3d 9f6d 2d3d 3a74 b43d
00000260: 20a0 663e e6a2 283d 0275 563c f74e d8bd
00000270: d1eb 67bd 9084 1fbe 4aca 8ebc c9f6 33be
00000280: 27ea 1d3e 8973 573d e692 07be f1d9 87bc
00000290: 0936 533d 0c57 203e 998c ae3d 4925 973c
000002a0: 496c e23c 4690 da3d c26e 093e 925e afbc
000002b0: 490b 6abd e96d 0e3e 90a9 31be ce53 c13d
000002c0: 3862 5ebe 7e6e 19be 310a 6c3d 063d 9bbd
000002d0: 3e1f 02bd 47ce 1a3c 478f 483e 626d 8f3d
000002e0: ed0c 043e d581 dd3d edd5 973d b6c2 33bd
000002f0: 6047 013e 5634 8abd 0533 0f3d 37fd 7fbc
00000300: 65d7 66bc 0a81 a53b 4469 a1bd 0cb3 833d
00000310: 5ae6 9a3d cf6d d63d 87db 6c3d c419 00be
00000320: ef68 113e 253d 4ebd 2e71 2b3d 7e9b eebd
00000330: 4fa8 2dbe e82a 8e3b 2485 c93c 4902 913d
00000340: 5838 22bd 7b8d b8bd fff4 5f3a f402 b2bc
00000350: 6dc0 55bc 0b6d b13d 2bf8 cdbd cf26 dd3d
00000360: a5a3 9d3e a30d 323d 3338 debd f077 7fbd
00000370: 3931 2b3d 8d0a d8bc e673 bd3d 9b56 2fbe
00000380: 30f4 af3c cada 5e3d e257 313d 8846 b23d
00000390: 0f09 22be 3a59 1f3e 31bb d33d 802d 73bd
000003a0: 5730 ecbd dab4 19bd 51e1 553d 6295 1dbe
000003b0: 6074 7abc bb92 353e 4a92 dd3d 193e f3bd
000003c0: 96e7 5b3e 5bf4 243c 9575 47be 0deb e7bd
000003d0: 1f66 f0bd 1a09 9b3d 8605 163e 28c2 d7bc
000003e0: 0907 c3bd bd13 24bc fff7 0e3e 6610 38bc
000003f0: 9f7e fabd 71b6 0ebd fa98 393d 9c23 0cbd
0.11468122 0.0074451314 -0.25531983 -0.09237431 0.17599842 -0.11376566 -0.06260923 -0.08421978
-0.04169375 0.058268294 -0.007842341 0.09404687 -0.07917913 -0.20043927 0.074776635 0.12877658
-0.0494082 -0.12943324 0.01742102 -0.059992567 -0.0853523 0.07924803 -0.02306825 -0.113286346
-0.0013428056 -0.12850405 -0.14103486 0.15152808 0.012677473 0.091251075 -0.10692322 -0.11702244
0.054855105 -0.11154529 -0.089151084 -0.10164706 0.13626777 -0.0066540064 0.061886083 -0.04466043
-0.11349544 -0.14501214 -0.06891562 -0.06119258 0.15746726 -0.1845018 0.06570523 0.06888218
-0.10508869 -0.09315368 0.033767637 0.10938725 -0.104511514 -0.020976858 -0.05478368 -0.053812496
-0.021996241 -0.24755466 -0.19020556 -0.062244643 0.0030905178 -0.07605542 -0.1646523 -0.107219405
-0.05591916 0.13864188 -0.11671265 -0.09306233 0.11946054 -0.10663733 0.015822928 -0.12894008
-0.10501249 0.023735445 0.032460295 -0.21565689 0.0995504 -0.1192469 0.012776786 0.078198545
0.029702855 0.04643938 0.08200424 -0.066292435 -0.09311817 -0.100057915 -0.10755813 -0.13418254
0.028626842 -0.060690057 0.19472322 0.064788714 -0.05288148 -0.18828006 0.0076714526 0.0849039
-0.0707548 0.077802554 0.024574345 -0.17813757 -0.08146825 -0.12762961 -0.057596836 0.037342966
0.09604354 0.15428224 -0.11983207 -0.070333794 0.043628007 0.104931735 0.10156798 -0.091024294
0.040672474 -0.0820807 0.042020474 0.13814127 0.13825169 0.004435527 -0.15103282 0.07696751
-0.06293984 0.029284524 0.012327878 0.09696441 -0.004547871 0.077776395 -0.103674784 0.010618168
0.13107003 0.055226594 0.06699194 0.05482983 -0.054149047 -0.047395635 0.13451432 0.18447627
0.12754808 -0.189743 -0.0341109 -0.02026237 -0.07998431 0.022305444 -0.027304552 0.14381379
-0.06424107 -0.007873053 -0.03748452 -0.038010933 0.08579571 0.07791879 0.04234087 0.08811231
0.2252202 0.041170977 0.01308942 -0.10561936 -0.056621376 -0.15577912 -0.017430443 -0.1757461
0.15421353 0.052600417 -0.13239631 -0.016583415 0.051565204 0.15658206 0.085229106 0.018450396
0.027639525 0.10672049 0.13421157 -0.0214074 -0.05713967 0.13909115 -0.17349839 0.094398126
-0.21717155 -0.14983556 0.057626907 -0.07579999 -0.031768076 0.009448594 0.19585906 0.07003285
0.12895556 0.10815779 0.0741385 -0.043886863 0.12624884 -0.067482635 0.034960765 -0.015624336
-0.01408944 0.005050783 -0.07881406 0.06430635 0.07563467 0.10470163 0.057826545 -0.12509829
0.14200185 -0.05035128 0.041855983 -0.116507515 -0.16958736 0.004338611 0.02459962 0.07080514
-0.039604515 -0.0901136 0.0008543282 -0.021729924 -0.013046366 0.086633764 -0.100571 0.10798418
0.30788913 0.043470036 -0.10850563 -0.06237024 0.04179499 -0.026372219 0.092506215 -0.17122881
0.021478742 0.054407872 0.043296702 0.08704859 -0.15823768 0.15561381 0.10338438 -0.059369564
-0.115326576 -0.03752599 0.05221683 -0.15389016 -0.015286535 0.17731754 0.10818918 -0.118770786
0.21475062 0.0100680245 -0.19478448 -0.11324129 -0.11738228 0.07570095 0.14650545 -0.026337698
-0.09522826 -0.010014472 0.1396179 -0.011234378 -0.12231182 -0.03484196 0.045311905 -0.034213647

bias f4 [8]
00000000: 4c26 9a3d d03a 4e3e f65d 42bd 278d 1a3e
00000010: 0946 0bbe 4cbc ab3d 80ce 27bc 58b8 bbbd
0.07526836 0.20139623 -0.04745289 0.15092908 -0.13600935 0.08385524 -0.0102421045 -0.0916602

weight f4 [8]
00000000: 13e7 753f b6dd 813f ca87 813f 46e3 6b3f
00000010: 1bee 813f 2466 833f a7c4 7d3f d4bf 7d3f
0.96055716 1.0145786 1.0119565 0.92143667 1.0150789 1.0265546 0.9912819 0.9912083

bias f4 [8]
00000000: 27b8 313d 5f1a 933d 7ab1 a2bc 04b8 b6bc
00000010: 8e1f 5dbd 7f80 16bd 2685 83bc bac7 2fbd
0.043388512 0.07182764 -0.019860018 -0.022304542 -0.05398517 -0.036743637 -0.016054701 -0.042915083

running_mean f4 [8]
00000000: fc92 ad3d 7176 ae3d 5942 983d da2d 8f3e
00000010: 89a4 1b3e ff20 883e 165b 393e 72ad db3d
0.08475301 0.08518685 0.0743453 0.2796467 0.15199484 0.26587674 0.18101153 0.107264414

running_var f4 [8]
00000000: 00f4 6d3c 41e9 593c c1dc 613c 4721 ac3c
00000010: 9d5f 2b3d f9ac 233d c79d a03c d84d b43c
0.014523506 0.013300241 0.013785542 0.021011962 0.04183923 0.03995988 0.019606484 0.022009775

weight f4 [16, 8, 5]
00000000: 2843 f23d 5a44 fe3d 1e9d f93d bcc7 233e
00000010: d93c abbd d261 0abe 9d6a 523b ff3e 163e
00000020: bfbc b1bd 8ffa f8bd 4cb3 12be c2ea a9bd
00000030: 9288 8abc 7891 0e3e ecfc a83d 55ee 8dbd
00000040: 047f 9b3d 8e3d 8f3c 9b70 b83d dbc0 a83c
00000050: c54c d93c d235 ebbd ca38 cc3d 7106 76bd
00000060: 0207 bc3d 73a7 893d 29ec 2f3e f47c 703e
00000070: e1e1 073e 1d16 8e3d 0adb 283d 7a3f b83d
00000080: 324a ed3d b50f 4ebd 19f1 2abe 7d86 1dbe
00000090: f87b 9d3d bc0d 143e 9acf 3b3e 4ea5 d9bd
000000a0: f4cd 1fbe 9503 013e 7161 133e 5473 8e3d
000000b0: 8a6c e03c 73e0 3cbe 4515 18bc e5ad 873c
000000c0: e2e2 81bc be34 423d 3b45 fc3c 713e 773d
000000d0: 8bbb 063e bc12 1cbc 0afc 2b3c 209b 92bd
000000e0: db79 06bb 907c d93d 540a a53d cad3 2dbd
000000f0: 73ca fd3d b775 7c3d 8fe1 0fbe c12d 6cbd
00000100: 080a f53d c197 d2bc 0c27 2d3e 24b4 afbd
00000110: 9bbb cf3d 8d2f b43b 24e6 adbd dd20 023e
00000120: c151 21bd b451 f43d f598 1abd 044e 833c
00000130: bc6e b7bc 685a 173e aef5 c3bd f128 733b
00000140: 8b33 63bb d6a9 413d 6c57 76bd b8b0 ecbd
00000150: 2d3e 2bbd f9c1 173c 4351 46bd 5add 0abe
00000160: 7a0b d63b 5e34 c93c b16a 80bd 79db 883d
00000170: c732 513e e510 d73d 4ecb 9f3c eda8 0cbe
00000180: 545c b03d e969 b23d f29a 6fbd 714d 613c
00000190: 4994 20bd 36d9 f2bd 0c0e d83b d748 303e
000001a0: 6212 fe3d 562d 12be 045b 41bd b3e9 083e
000001b0: 8dae 0a3d 2328 ab3d 641b 27be 4ee8 0f3c
000001c0: 7e41 623d b2a0 313e ccf6 89bc 7a6d 043e
000001d0: ad3e 57bd 8c74 f73d 68cc 683d 8805 773d
000001e0: 49e2 293e db08 dc3d b5f0 923d f3b2 67bc
000001f0: 39cb a4bc 3118 6a39 a6d8 373d e4ed 313e
00000200: df6f a53c ca19 7cbd 2cfd fe3d 5f53 a7bd
00000210: 14f5 dabd 8b86 4d3d ab2a a9bd 7ae9 ba3d
00000220: f389 cdbc 2236 103e b52a 893a 5f1b 0ebe
00000230: 1f1c 5e3d dc03 f93d 70a2 8fbd c084 84bd
00000240: 0b2f b03c 0554 72be 8ec0 c43d fb28 023e
00000250: c3b9 9fbd f624 e7bd ddd6 66be 147a f23b
00000260: cce4 32be b8f0 e4bd 48cc 073e e2ef 6e3d
00000270: d7e7 0fbe ad50 023e b189 3dbe 23fa 86bd
00000280: a021 243c 328f c53d 8912 593d 4c81 333c
00000290: 006b 333e baec 1cbe e35a d93d 8cca b63c
000002a0: 8bca 213e 678e 05be 41e4 fcbd 521a 88bd
000002b0: f0b7 d7bc 1f47 44bd b501 ca39 8fe4 653d
000002c0: 3216 e03d 63ff 01be b1ef 863c 01d7 b93d
000002d0: dda6 0dbe 35d3 70bd 7a9e 47bd facb 17be
000002e0: 7669 16bd 784c c13c eef1 81bc 5742 afbc
000002f0: 2c2f 8ebd 4352 3dba 53e5 26bd b218 fb3c
00000300: 8121 da3c 8d0c 9bbd 7f35 bebd 3d7a a8bd
00000310: d1e2 2f3d 5bce 0bbe cf65 1a3d cd2a 0c3e
00000320: 8937 a1bd 2f59 5ebd 6223 943c c002 133e
00000330: 484e b83d 2c29 103d 461f 0b3d 326b 1dbd
00000340: c67c a2bd b733 343e da66 c03d 4367 d9bc
00000350: 4ff0 bf3d 3866 a13d 1e00 0abd b2a2 ad3d
00000360: 6870 c2bd ae46 cebd 74cb 643d bd45 41bc
00000370: 9d9d 353e 479c b9bc dddc ae3c 8d3e 143c
00000380: a0c6 143e 419f 183e e11e 59be 335e f43d
00000390: 0a37 64bd 6449 cf3d 00aa c0bc 65f4 ddbd
000003a0: 6bed 25bd 41ec c63d 3bbe adbd fb79 f73d
000003b0: 8f76 ca3d 59a5 3cbe e8ff a3bd 031b f1bd
000003c0: 42e7 5abd 6cfb 40bd 7a9b bf3d ba3d 0f3e
000003d0: 8ca8 ba3d 4793 37be 402a 98bd 43b4 f6bc
000003e0: 126e d7bd 7137 05be bcc3 7dbd 8ce7 ff3c
000003f0: ffaa f0bd c401 16be 75fb 2ebc 1d73 2dbe
0.11829215 0.12415381 0.12188171 0.15994161 -0.08361215 -0.13513878 0.0032107003 0.14672469
-0.086785786 -0.12157165 -0.14326209 -0.082967296 -0.016910825 0.1392268 0.08251366 -0.06930224
0.07592586 0.017485406 0.09005853 0.020599773 0.026525864 -0.11484875 0.09971769 -0.060064737
0.09181024 0.067213915 0.17179932 0.23485166 0.1326976 0.069378115 0.041224517 0.08996482
0.11586417 -0.05030795 -0.16693534 -0.15383334 0.07689661 0.14458364 0.18340912 -0.106272325
-0.15605909 0.12599023 0.1439264 0.06955591 0.027395505 -0.18444996 -0.009282415 0.016562412
-0.015855256 0.04741358 0.03079473 0.060362283 0.1315748 -0.009525951 0.0104971025 -0.07158494
-0.002051941 0.106194615 0.080586106 -0.042438306 0.1239213 0.0616357 -0.14050888 -0.05766082
0.11964804 -0.025707128 0.16909426 -0.08579281 0.10143205 0.0054988326 -0.084911615 0.12707849
-0.039384607 0.11929646 -0.037743527 0.016028412 -0.02239167 0.14780581 -0.09568344 0.003710326
-0.0034668173 0.04728111 -0.060141966 -0.11557144 -0.041807342 0.009262555 -0.04841734 -0.13561001
0.00653213 0.024561103 -0.0627035 0.06682486 0.20429526 0.10501269 0.019506123 -0.13736315
0.0861136 0.08711607 -0.058497377 0.013751374 -0.039203916 -0.11857836 0.0065934714 0.17215286
0.1240585 -0.14275107 -0.04720594 0.13370399 0.03385787 0.08357265 -0.16319042 0.008783413
0.05523824 0.17346457 -0.016841315 0.12932387 -0.052550007 0.120827764 0.056835562 0.06030801
0.16590227 0.107438765 0.071748175 -0.014141786 -0.020116435 0.00022324991 0.044884346 0.17375904
0.020194946 -0.061548032 0.124506325 -0.08170199 -0.10691276 0.05017714 -0.082600914 0.09126563
-0.025090193 0.1408315 0.0010464998 -0.13877629 0.054226037 0.12158939 -0.07013404 -0.064706326
0.021506807 -0.23664863 0.096070394 0.12710945 -0.07799103 -0.112863466 -0.22542901 0.0073998068
-0.17470092 -0.11178726 0.13261521 0.05833424 -0.14053284 0.12726088 -0.18509556 -0.065906785
0.010017782 0.09646453 0.052996192 0.01095612 0.17521286 -0.15324679 0.106130384 0.022313379
0.1579992 -0.13042603 -0.123482235 -0.06645645 -0.026332825 -0.04791939 0.00038529714 0.056126174
0.109417334 -0.12695079 0.016471716 0.09074212 -0.13833185 -0.058795173 -0.04873512 -0.14823905
-0.03672167 0.023596033 -0.015862431 -0.021393938 -0.06942591 -0.0007222036 -0.040746044 0.030651424
0.026627304 -0.07570753 -0.09287547 -0.0822644 0.04294092 -0.13652937 0.03769475 0.13688202
-0.078719206 -0.05428427 0.018083278 0.14356518 0.08999306 0.035195515 0.03396537 -0.038432308
-0.07933955 0.17597853 0.093946174 -0.026538497 0.09372007 0.07880825 -0.033691518 0.08478297
-0.09494096 -0.10072075 0.05585809 -0.011796412 0.17735906 -0.022657527 0.02134555 0.009048116
0.14528894 0.149045 -0.21203186 0.119320296 -0.05571655 0.1012142 -0.023518562 -0.1083763
-0.040509623 0.097130306 -0.08483549 0.12083813 0.098858945 -0.1842245 -0.080077946 -0.1177273
-0.0534432 -0.047114775 0.09355827 0.1398839 0.09114179 -0.17927276 -0.074299335 -0.030115252
-0.10519041 -0.1300943 -0.061954245 0.03123834 -0.11751365 -0.14649111 -0.010680069 -0.16938443

bias f4 [16]
00000000: d210 433c 4093 32be af36 d3bd d729 313e
00000010: 343b 2dbd c7e3 5fbd 1f79 f2ba fdc4 afbc
00000020: a917 ed3c 5138 0f3e 6f6e 033d 2560 06be
00000030: 618f 87bd 3312 ddbd 8239 e93d 26fb 36be
0.011905866 -0.17438984 -0.103131644 0.17301117 -0.04229279 -0.054660585 -0.0018499232 -0.021456236
0.028941946 0.13986327 0.03208774 -0.13122614 -0.06619144 -0.10794487 0.11387922 -0.17869243

weight f4 [16, 16, 5]
00000000: 1730 883d 494e afbd a82d 29bc 2e83 bdbc
00000010: f2bb 95bd 88a2 9a3d 895d 003d 0817 5abd
00000020: 7f78 c7bd d2d3 8abd 8c58 e8bd 13f6 83bd
00000030: 5172 eb3b 8fef f43c 7414 2bbd fc46 933d
00000040: 3d15 be3d b8c5 48bc 09e6 52bb ec7b 533d
00000050: 0b69 c03d 4856 553c c66d 5a3c 3f06 ad3d
00000060: 8ad8 f13c a4b9 fabd a175 06be 4303 04be
00000070: acd5 c0bd 0ebd d1bd b9c3 c0bd 088d b7bd
00000080: 53e7 973d a0fb 243c 685a c1bd 47c4 d4bd
00000090: 2628 cb3c c761 e9bd f90c 6bbc 867b 1e3e
000000a0: 30b3 c63d fb5d 0abd ce92 483d 4871 f6bd
000000b0: a110 7bbd 5b50 9bbd 2bd2 0fbd 7450 803d
000000c0: c4c1 803c 385a c6bd f53b 8ebc 4e65 d13d
000000d0: e448 bc3d 6eb3 4d3d bbfd 97bd bb3a b9bd
000000e0: bfce 7bbc 8971 23bb 339a 84bd aab1 30bd
000000f0: 221a 093e 9eb4 ffbb 1a81 fe3d f7fa 373d
00000100: 41c8 a13d 3099 9a3d 693b 8f3d 17be 9b3d
00000110: d019 e13d b4d2 833d a1ce 3b3d c323 863c
00000120: e7fe 803d a344 ed3b 46a8 f43d e7e9 83bc
00000130: 33bd 803d 0238 193d d68a c13d 6c16 ed3d
00000140: 12fd f03c 27c4 49bc b7d1 e23d b5f7 153e
00000150: f35c 8c3d d9d3 503d 6873 0d3e 4894 053e
00000160: 77a7 ae3d a500 c4bd fe13 e23c fe2b ddbb
00000170: 40fa 95bc c9f9 0ebe b352 5dbd 9a71 04bd
00000180: e157 5b3c 3e7b fd3c f659 a13c c54d 4b3d
00000190: 19b3 9ebd 6119 40bd c642 89bb 9daa 903d
000001a0: 37ad 8c3d 9a1b d43d 57a5 bc3d 8e1a 87bd
000001b0: adff 373d b145 043d 42e1 463d 0b72 f3bd
000001c0: 30dc 4e3d 0cea 753d d15c cd3d 6047 01bc
000001d0: 7712 9fbd 3047 a53d 3605 66bc 3fa1 00bb
000001e0: 07ff 6d3c 9934 b83d 9935 173e 369a 113e
000001f0: 901d 14bd dd39 423e a620 da3d 091a 15be
00000200: 73a1 9f3b 935f b93c 3163 6637 bae9 aa3d
00000210: dc05 493c 8cc1 78bd 0908 f73c 2068 2fbd
00000220: e395 573d 7b03 a0bd 9077 d33d 44cd 3fbd
00000230: c6ee aa3b 2469 753c a24a 5a3d 0871 643d
00000240: db06 05bd e517 ea3d 7c56 ab3d fe4f 87bc
00000250: 2faf d6bd fa5b 263d 3599 133d e933 d33d
00000260: 3503 00bb 5d67 90bd c839 d8bd 6f95 ca3c
00000270: 9e2d 4fbd 53c4 e83c aec6 72bd e9b8 4abd
00000280: 90ba bdbd 8d6c 343d f799 a7bd b32b 03be
00000290: 1d3b e0bd b306 c4bb 9e8b 93bd 645d c7bd
000002a0: eb9a babd 586d 74bd 9f0b 44bd ac9e 7dbd
000002b0: 6616 253b f3bf 75bd 8f43 d0bd ce20 903d
000002c0: 83d1 5fbd e684 c5bc ec6d ffbb 8a86 5a3d
000002d0: 2f16 643c 1771 823d f8ef 743d 1e2d a13d
000002e0: c62b 7f3c ed8b bc3d 41bf d1bb af8b 7f3d
000002f0: 2e42 513c af25 da3d 13d5 183d 6975 203d
00000300: a231 6e3d eb04 c33d 610e cf3d 5d3e 433c
00000310: 742b 8fbd e36a 213d 655a 033c b633 363e
00000320: 5eb9 593c 3ef2 9c3d 68f1 623d c2a6 c83d
00000330: 7808 b43d ccc9 b9bd 4e1f 51bd ea31 d43d
00000340: 754f a53d 97a1 863b 4b04 4abd db0a f93d
00000350: bd29 df3c b32d 77bd 3d4d 153e 709a 19bd
00000360: e866 b539 a543 813d c4ba cd3d 5090 99bd
00000370: 6b57 edbd 09a0 c53d 96af 9dbc 5a13 a93d
00000380: dcdf 803d 8715 b43d a00e 76bd dc3f 893c
00000390: e41b c2bd 06e3 be3d 852d 02bc 7f4c 343d
000003a0: 7438 2b3d 6945 75bd 2e62 5cbd f261 5a3d
000003b0: 24fc 0ebd 9f42 a4bb b0e9 2cbd 96c8 863d
000003c0: 7ff2 60bd fe30 45bc 9581 59bc 70a1 e0bd
000003d0: 9bd1 1dbc eff4 503d 0247 88bd dfcb ab3d
000003e0: e9c4 36bd c35b a43c 38bb d73d 71b3 bc3d
000003f0: 5292 123e 2454 383d 72cb 9a3d db63 983d
0.066497974 -0.085598536 -0.010325827 -0.02313384 -0.07311238 0.075505316 0.031339202 -0.05324462
-0.0973978 -0.06778683 -0.11345014 -0.06443419 0.0071852584 0.029899387 -0.041767552 0.071912736
0.09281395 -0.012254171 -0.0032180569 0.051631853 0.09395035 0.013021059 0.013331836 0.08448457
0.0295222 -0.122424394 -0.1313081 -0.12891869 -0.09415755 -0.102411374 -0.09412331 -0.089624465
0.074171685 0.010069758 -0.09441072 -0.103889994 0.024799418 -0.11395603 -0.014346355 0.15476808
0.09702146 -0.033781033 0.04896813 -0.120333254 -0.061295155 -0.07583686 -0.03511254 0.06265345
0.015717395 -0.096851766 -0.017362574 0.102244005 0.0919359 0.050219946 -0.07421442 -0.09044405
-0.015369116 -0.0024939498 -0.06474724 -0.043138184 0.13388875 -0.0078035137 0.12426968 0.044917073
0.078995235 0.075487494 0.069937535 0.07604616 0.109912515 0.06436673 0.045851354 0.016374474
0.06298619 0.007240848 0.11946158 -0.016102744 0.06286087 0.03740693 0.09450309 0.11576542
0.029417548 -0.012314833 0.11075156 0.14645274 0.06853666 0.050983284 0.13813555 0.13044846
0.08528035 -0.095704354 0.027597424 -0.006749629 -0.018307805 -0.13962473 -0.054033946 -0.0323349
0.013387651 0.030942556 0.019696217 0.049634714 -0.07749004 -0.046899203 -0.004188868 0.07063792
0.068689756 0.10356827 0.092112236 -0.06596862 0.044921566 0.032293025 0.048554666 -0.11886986
0.050502956 0.060037658 0.10027469 -0.007890552 -0.07767194 0.080702186 -0.014039328 -0.001962736
0.014526135 0.08994407 0.1476654 0.14218983 -0.036161005 0.18967386 0.106507584 -0.14560713
0.004871541 0.022628581 1.3732163e-05 0.08345361 0.012269463 -0.060731456 0.030155199 -0.04282391
0.052633177 -0.07813164 0.10325539 -0.046826616 0.0052164523 0.014978681 0.05329383 0.055771858
-0.03247724 0.11430339 0.08366105 -0.016517635 -0.10482632 0.04061506 0.03603478 0.103126355
-0.0019533162 -0.07050965 -0.10557896 0.024729459 -0.050580613 0.028413927 -0.059271507 -0.04949275
-0.092640996 0.044048835 -0.08183663 -0.12809639 -0.10948775 -0.005982244 -0.07204364 -0.0973461
-0.091115795 -0.05967459 -0.047862645 -0.0619189 0.0025190352 -0.05999751 -0.10169136 0.07037507
-0.054643165 -0.024111222 -0.007795086 0.053350963 0.013921305 0.063692264 0.059799165 0.078699335
0.015574401 0.09206376 -0.006400973 0.062389072 0.012772126 0.10651719 0.03731258 0.03917447
0.058152802 0.095224224 0.101101644 0.011916724 -0.0699071 0.039408576 0.008017157 0.17793164
0.013288824 0.076633915 0.055406004 0.097974315 0.08790678 -0.09071693 -0.051055245 0.10361083
0.08071796 0.0041086185 -0.0493205 0.12160274 0.027241582 -0.060346317 0.14580245 -0.0375008
0.0003459968 0.0631173 0.10045388 -0.074982285 -0.11588939 0.09649665 -0.019248765 0.08255644
0.06292698 0.087931685 -0.06007254 0.016754083 -0.09477976 0.09320645 -0.007945423 0.044018265
0.041801885 -0.059880648 -0.05380457 0.053316064 -0.03490843 -0.0050128247 -0.04221505 0.065812275
-0.054918762 -0.012035606 -0.013275524 -0.10968292 -0.009632493 0.051014837 -0.06654169 0.08388495
-0.044621382 0.020063287 0.10533756 0.09213913 0.1431363 0.045002118 0.07558335 0.07440921

bias f4 [16]
00000000: 302a 8b3d 8c5d 92bc f114 fd3d e353 6bbd
00000010: 5fd1 5b3d eb07 b73d 15c2 c73c a654 30bd
00000020: 32d1 11bd 1c44 723d 6342 8a3d eec3 e23d
00000030: 063e 62bd f1af c73d d247 003e ea9a 43bd
0.06795156 -0.017866872 0.1235751 -0.057453047 0.05366647 0.08937057 0.024384538 -0.043049477
-0.035599895 0.059146985 0.067509435 0.11072527 -0.05523493 0.09750355 0.12527397 -0.04775516

weight f4 [16]
00000000: 4756 7c3f dba2 8a3f 3382 803f ca6d 743f
00000010: 2dc4 7a3f 5b52 7b3f b2d4 823f 19c5 773f
00000020: 19ba 7f3f 3261 863f e67b 813f 7a69 733f
00000030: 6e6b 803f f00f 823f e8aa 7e3f 8afb 833f
0.9856915 1.083095 1.0039734 0.95480025 0.9795559 0.9817254 1.022116 0.9678512
0.9989334 1.0498412 1.0115936 0.9508282 1.0032785 1.0161114 0.9947953 1.0311139

bias f4 [16]
00000000: b9af 05bc 4566 9f3c 49b8 1e3c 2c2d 793c
00000010: c391 b43c c807 03bd e85a b33c 6b9c 893c
00000020: c32e ccbc e6b0 863c 0b10 f2bc 12df 04bd
00000030: ecdb d93c 2362 283d 9559 823b 2f82 033d
-0.008159571 0.019457946 0.009687492 0.015208524 0.02204216 -0.031989843 0.021893933 0.016798219
-0.024924641 0.016441774 -0.029548666 -0.0324393 0.026594125 0.041109215 0.003977964 0.032106575

running_mean f4 [16]
00000000: 5bf3 a33e 7f05 243f 43d1 0b3f f972 b63e
00000010: 1530 023f c485 283e f852 a73e 908a f13d
00000020: a952 863e e4bb 433e e803 e73c 669b f13e
00000030: b39e 2b3e 403f 203f cc1a d63d 1aa6 123e
0.32021603 0.64070886 0.54616183 0.35634592 0.5085462 0.16457278 0.32680488 0.11794007
0.2623494 0.19114643 0.028200105 0.47188872 0.16759758 0.6259651 0.1045433 0.14321175

running_var f4 [16]
00000000: 6169 2a3d c608 323e 8bdb a13d 348d fe3d
00000010: 15e5 793d 6dcd 193d deda 253d 7c7b a63c
00000020: 5672 043d 19d5 933d 463c b63b b6d0 533d
00000030: cb75 ae3c 400d 883d 30c9 bf3c f394 7d3d
0.041604403 0.1738616 0.079032026 0.12429276 0.061009485 0.037549425 0.04049193 0.020322554
0.0323356 0.072183795 0.0055613844 0.051712714 0.021296402 0.06643152 0.023411363 0.061909627

weight f4 [32, 16, 5]
00000000: 5972 ba3c 392c d13d 9205 1d3d a11e f43d
00000010: 59e8 863c b2f1 b53d deba b83d 26a5 c0bc
00000020: 8ef5 d33d 7472 2d3d 8d41 ab3d 726e f33c
00000030: af20 d13d 4f13 ae3d 5617 b73d 2535 0fbd
00000040: dd52 4b3c 6ad3 ad3d c024 b93c 4612 a1bd
00000050: 03ae 463c 2042 9bbc 681c c6bd c27a c9bd
00000060: d9f6 923d c7ba 96bd 7312 a0bd 6a16 27be
00000070: f544 1c3c 0698 503d d93a a1bd ae40 81bc
00000080: dd60 cdbd 8a58 0c3e f1d8 57bd 05e5 293c
00000090: cc5e 0fbc caf4 0c3e dd80 70bc e482 ec3d
000000a0: 12c6 b73d f647 653d 63a2 9a3d 413c ed3d
000000b0: 4a38 d03c 9132 9a3c c23a 4d39 d986 10bd
000000c0: 94fd 0e3b 6b63 02bd 13a5 aa3c 9818 1fbd
000000d0: 6c35 b1bd 4d17 aebd 70f1 cf3d 7adb 89bd
000000e0: 215e a63c 463c 043d 480b 903d c874 00bd
000000f0: d241 f63d 9077 153d 675e e03c 52c0 68bd
00000100: b27f b1bb 3d14 f03d a90a 7a3d 0902 94bd
00000110: a2df c23d 4097 993d a10c d6bd 0663 15bc
00000120: 996f ff3d f08b 963d 6987 c63d f0f1 0ebd
00000130: b58b 1ebd 2381 67bc d7dd 80bc f400 ce3c
00000140: bc73 94bc 1f41 d5bd 3154 c4bd 8823 283d
00000150: 8b76 3e3d 363b 4fbd d031 bbbd 3a11 09bd
00000160: 32bd 13bd 886e 823d 7b1d 0f3e 00df 98bd
00000170: 2a2c 8a3d b95d 6bbc 64de acbd 54fa 0dbc
00000180: 5a81 793d e12a 503b 3b33 dbbd 5f9f 4abd
00000190: a54a f83c 66da 0c3d 719d 463d 07b7 f3bd
000001a0: 6c4e 2ebd 61ec 9abc 4626 ff3d 17cb b43d
000001b0: 2157 0dbd 8933 18bc 7956 c73d e19c c13d
000001c0: 6e41 5cbd ce0d c63c 1925 c5bd 0ec5 283d
000001d0: 3e8d 58bc 96d8 75bd a61e 21be 6976 293d
000001e0: 7d38 2fbd c66b 323d 8855 84bb d620 943d
000001f0: 8766 4cbd b219 a9bd 1554 983c 1691 16bd
00000200: 54bb 19bd a61b 9bbd 1727 04be b1b6 d53c
00000210: 87b7 3bbe a9fc fc3c 7cb9 88bd a206 ccbd
00000220: edee 99bd 8bd1 43bd 324c d3bd b4c6 813d
00000230: 5cee d63c 98f3 6ebc 9c42 943d 9d4c 993d
00000240: 22ed adbc aac5 9f3d 9413 acbd f7e7 853d
00000250: b36e 06bd 41ad 24bc 30fc e33c ec8e e4bc
00000260: 774b 1fbe ebf5 d53c 073e c43d 54bf cc3b
00000270: 9ab8 9bbd ef94 82bd b980 7bbd f184 59bd
00000280: d8ef 4c3d b889 14bd 37fd e53d 10b6 003e
00000290: e856 7ebc b67d e2bd 23ee 6cbd 212e 8a3d
000002a0: 0f72 8ebc 8eda c93d cca5 3a3d 87fa 09be
000002b0: ca96 aebc fe06 6b3d c049 d8bd d4b7 eb3c
000002c0: 9832 7bbc 6cd9 efbd 17a5 0c3d 0d02 8b3c
000002d0: 8d70 51bd ffbb 5fbd b336 203c 445c a13b
000002e0: fad7 543d af0f 403d 48f3 b43d 758e 6cbd
000002f0: bbc1 d4bc 7aff d4bc be96 8f3d 9a41 a53d
00000300: 9172 d6bc c31b 7f3c a697 a23d a7f7 79bd
00000310: 7fbe e33d abb4 47bd 7072 ec3d 10b1 c33c
00000320: 4494 49bb 302c abbc 6891 f33d 04bd 933c
00000330: 6d53 36bd 5c48 093c 6b19 34bd fed2 0b3c
00000340: f3bf 40bd c6aa 51bc e12d b7bd c88f bc39
00000350: 3eb0 9a3b 519e bf3d 9133 97bb 5599 aabd
00000360: 0661 8bbd 6b22 f9bd ef3d b23d bcec 76bd
00000370: cbf3 92bd 5c0e 8b3b b0a5 54bd bc55 80bc
00000380: f120 4ebb b032 1c3d 3d36 fbbd 17ec 27bd
00000390: 1d08 9c3b 0ff4 5a3d 60ac 80bd 4806 dc3d
000003a0: 6ca3 803d f47f 1c3d adcf 77bd 7a91 b53d
000003b0: 71a1 6e3c 0e63 113c bfa5 183d e75c 633d
000003c0: aabd 693d 9748 e3bc f9ec 60bc de76 6e3d
000003d0: b08a d4bd ae9b 393d 44d2 d83d 6d00 00bd
000003e0: be89 48bc 023b b93d f92a 4dbd a5f6 84bd
000003f0: 545a e03d 8531 b3bd 01f1 d0bd 1f20 8a3d
0.022759603 0.10213513 0.03833539 0.119199045 0.016468214 0.0888399 0.09020017 -0.023516249
0.1034957 0.04234548 0.08362112 0.02971575 0.10211312 0.084997766 0.08939998 -0.034962792
0.012409893 0.0848759 0.022600532 -0.078648135 0.012126449 -0.01895243 -0.09673387 -0.09837867
0.07175989 -0.07359844 -0.07816019 -0.16317144 0.009537925 0.05092623 -0.078725524 -0.015777912
-0.10028241 0.1370565 -0.052697126 0.010369544 -0.008750629 0.13765255 -0.014679161 0.11548403
0.08973326 0.05597683 0.07550504 0.11583758 0.025417466 0.01882294 0.00019572212 -0.03528485
0.0021818625 -0.031833094 0.020830667 -0.038841814 -0.086527675 -0.08500538 0.101534724 -0.06731315
0.020308556 0.032284044 0.07033402 -0.03136137 0.12024273 0.036490977 0.027388765 -0.056824036
-0.005416834 0.1172261 0.061045323 -0.07226951 0.09515311 0.07499552 -0.104516275 -0.009117847
0.124724574 0.0735091 0.09693796 -0.0348987 -0.038707454 -0.01412991 -0.015730781 0.025146939
-0.018121593 -0.104128115 -0.09586371 0.04104951 0.04649977 -0.050593577 -0.0914036 -0.033463694
-0.036069103 0.063687384 0.1397609 -0.07464409 0.06746705 -0.014365607 -0.08440855 -0.00866564
0.060914375 0.003176384 -0.10703131 -0.049468394 0.03030903 0.03438797 0.04848999 -0.11900144
-0.042555258 -0.018911542 0.12458472 0.08827799 -0.03450692 -0.009289631 0.0973329 0.094537504
-0.053773336 0.024176504 -0.096262164 0.04120355 -0.0132172685 -0.060021006 -0.15734348 0.04137269
-0.04277848 0.043559812 -0.0040385164 0.072328255 -0.049902465 -0.08256854 0.018594781 -0.03675946
-0.037532166 -0.07573633 -0.12905537 0.02608809 -0.18331729 0.030882197 -0.06676003 -0.099622026
-0.075162746 -0.047807258 -0.103172675 0.06336728 0.026236705 -0.014584444 0.07239267 0.07485316
-0.021231238 0.07801373 -0.08402172 0.065383844 -0.032820415 -0.010051073 0.027830213 -0.027900182
-0.15556131 0.02611824 0.09582143 0.006248394 -0.07603569 -0.06376063 -0.061402056 -0.0531053
0.05003342 -0.03626415 0.112299375 0.12569451 -0.01552365 -0.11059134 -0.057844292 0.0674708
-0.017388372 0.09856139 0.045568272 -0.13474475 -0.021312136 0.057379715 -0.10560942 0.02877418
-0.015331887 -0.11711392 0.03433713 0.016968751 -0.051132727 -0.054622646 0.009778666 0.004924329
0.051963784 0.046889957 0.08835465 -0.057753045 -0.025971284 -0.026000727 0.07011174 0.08069153
-0.026177676 0.015570584 0.07939081 -0.061027195 0.111203186 -0.048756283 0.11545265 0.02388814
-0.003075854 -0.020895094 0.118929684 0.018034466 -0.044513155 0.008379068 -0.043969553 0.008534191
-0.047058057 -0.012797063 -0.089442976 0.0003596528 0.0047207167 0.09356368 -0.0046143015 -0.08330027
-0.06805615 -0.12164768 0.08703219 -0.06028436 -0.07175406 0.004243655 -0.051915824 -0.015665881
-0.003145274 0.038134277 -0.122662045 -0.040996637 0.0047617094 0.05345541 -0.06282878 0.107433856
0.0628117 0.038207963 -0.06050079 0.08865638 0.014564858 0.008873714 0.037267443 0.05550852
0.057065643 -0.027744574 -0.013728374 0.05821883 -0.10378015 0.045314483 0.1058698 -0.031250406
-0.012239872 0.09044458 -0.05008981 -0.06492356 0.10954729 -0.087496795 -0.10202218 0.06744408

bias f4 [32]
00000000: 83d1 b0bc dcfa a73d 543d 883d a42a d9bd
00000010: 9459 c2bd 6a66 eabc e6a8 94bc d971 1fbe
00000020: 9779 13be 19d4 0fbe 3f8e e0bd cf21 b7bd
00000030: 7702 5c3d b832 a6bd 4d30 be3d 1b0f 7abc
00000040: 4e3d ecbc 6fb6 e0bd 95b3 54bc 9395 843d
00000050: 1383 ea3d 7234 9c3d 4fd6 17bc 80d7 7c3d
00000060: 9273 793d a766 0c3d ed28 813d 52fc 113d
00000070: 8e95 bbbc 2be5 4cbc c7bc b73d c429 b83d
-0.021584278 0.082021445 0.066523224 -0.10603836 -0.09489742 -0.028613288 -0.018146943 -0.15570773
-0.14401852 -0.14045753 -0.10964631 -0.08941995 0.05371329 -0.081151426 0.092865564 -0.0152623905
-0.028837826 -0.109722964 -0.012982269 0.064738415 0.11450782 0.07627191 -0.009267404 0.061728954
0.060901232 0.034277584 0.06306634 0.035641022 -0.022898462 -0.01250581 0.08971553 0.08992341

weight f4 [32, 32, 5]
00000000: 9c26 a7bd afa8 113d ee13 8dbd a4ff afbc
00000010: 7249 cebd 90b7 a5bc 9bd2 d23c d679 343d
00000020: 5375 883d ef25 a03c 1de9 78bd 4f34 1e3d
00000030: 66ab a2bd d416 3abd 9b38 8a3d 724f 8f3d
00000040: 49bb 36bb 1070 6fbd c653 553d f909 3ebb
00000050: b15d 0cbd c9db 043c 07cc cf3d a527 b2bc
00000060: 0603 0f3d 94cc 963c ca2b 4c3d af41 e73d
00000070: 7257 0dbd b410 d1bc 0241 c73c 22c4 913c
00000080: 60ea abbb 55be 763d c45c 483c c065 11bd
00000090: 5622 d1bc 7e7b c2bd 50af b6bd 5d81 6fbd
000000a0: 6ff3 e0bd 37e2 5abd e382 db3c 0d47 7dbd
000000b0: 694e 08bd b8c5 98bd 24d0 e03c 0212 e6bd
000000c0: cd54 0bbe 412e 4cbd a9c0 1abd a03c eabc
000000d0: 3d4d b83d 165e 7bbd 4c1a 54bb ff55 7ebd
000000e0: 58bc 133d 6267 43bd d334 c1bd 5cee 7abd
000000f0: 6dc2 843d a95a 2dbd 5635 62bd 2ed3 99bd
00000100: d881 b0bd dce7 78bd 2153 67bc 69fb 01bd
00000110: f740 943d 060d 3bbd ee07 a63d 92c9 433d
00000120: 81ae 89bd 3fa7 3a3c 9fce dabd 4467 36bd
00000130: e6f1 4a3b ec70 9bbc dce8 2e3d 7409 193d
00000140: 1cff 3d3c 59be f73c 38b5 a2bc c614 853d
00000150: 4d20 8a3d c03b 513c f604 c0bd 16ae b0bd
00000160: 2ef7 d43c de9f 143b 0a81 00bb 01cf c1bd
00000170: 6ddb 4ebd d339 3ebd f7de 4cbd 00f1 0fbc
00000180: 2810 b83d 40bf cdbd cf57 ba3c 15f0 8e3d
00000190: f80f cd3c fc96 5bbd 58b9 093c 5086 dfbd
000001a0: 8a49 5ebd efcb 80bd abcd febc a4cd 723d
000001b0: e309 f63c b94d 043d 643d 96bc 2c81 cc3c
000001c0: 55af 4dbd 1ca3 633c 1821 ee3c ac28 fb3c
000001d0: 6cc5 683c a815 bc3d 6689 f23d 2279 f5b8
000001e0: 9bb6 bfbd cfd0 80bb 45b2 40bc 2b77 7e3d
000001f0: 28a6 b43c fa72 d3bd 0fdd aebc 2022 b4bc
00000200: 6ba9 aa3d 749b 53bc 366d 2cbd ab71 df3b
00000210: 4257 1d3d c524 40bd ca22 db3c 6a37 763b
00000220: 7cdc 34bd e781 b53c 7fad 5ebc 556e 41bd
00000230: 0c99 b2bc cff6 e9bd de92 8cbd e945 2bbd
00000240: d7ad 8b3d 5226 943c 3fbd 9cbd ed67 943c
00000250: e9c5 adbd 4e19 103d b557 2cbd 643d 20bd
00000260: 5dd3 f33c c8ec 443c 7054 2fbd 233f f43b
00000270: 0c72 59bd 6d7d 093d ca11 65bc 88f8 bf3d
00000280: 3a70 b7bd 1667 753d e32e ba3d 2e3e 7ebc
00000290: 416e b23c 881d e7bc 719d ce3c aebc a33d
000002a0: eb63 33bd 4475 afbc 5514 e8bd 90fc 1dbd
000002b0: d53d 53bd dba2 903d 9f8a ac3d 3c47 1bbd
000002c0: 29ba e5bc 6493 0b3d 23a8 3a3d 2a3f cd3c
000002d0: 0bc0 843d 4da8 c9bb 31c0 c43a 46ab 18bc
000002e0: 9fd2 cfbb 3a28 6cbd 653b c73c 053d 05be
000002f0: 3599 39be b582 67bc db57 b0bd a704 503c
00000300: d116 683d dc86 28bd cc5b cfbd d9e1 d3bd
00000310: b47c 82bb 6986 cebd ad7b 573c 6427 873d
00000320: 648c 7abd fbc3 07bd fca2 c7bb 8b99 263d
00000330: 1848 5dbd 1535 1f3b dad3 95bd 6dd9 a3bd
00000340: 28cd 03be 8c7e c0bc 108b 463c b15c 1cbd
00000350: 01c8 68bc 168f cb3c d810 3c3d 9bfa 2fbd
00000360: 25b2 9fbd 49da 23bd 9c96 87bc c69b 38bc
00000370: cce1 073d 90d1 f23c 7e29 d5bd 133e f5bc
00000380: b7ee ce3d e014 adbd 194b 5bbd 211b f93d
00000390: b093 55bd 7f6f 543b ff3c fcbd 8c5d d23c
000003a0: 1e4d a5bd 54e4 44bc a028 89bd 9549 80b7
000003b0: a9d5 47bd 9645 05be eaef e9bd 7d76 af3d
000003c0: d024 093e 4cee c13a 551e fd3d 491a ddbc
000003d0: 42b6 28bd bbaf 793d 4a80 98bd 3695 2e3d
000003e0: dcfa 8c3c 9a5f 88bc 1463 edbc 60d0 9dbd
000003f0: 9731 cfbd 79b6 03bd 550f 4abd 77cf 73bd
-0.08161661 0.03556126 -0.06888567 -0.021484204 -0.10072602 -0.020229131 0.02573519 0.044061504
0.06663003 0.019549338 -0.06076919 0.038624104 -0.07942848 -0.045431927 0.06749078 0.06997575
-0.0027882627 -0.05845648 0.052081846 -0.0028997643 -0.03426904 0.0081090415 0.10146337 -0.02174742
0.034914993 0.018408097 0.049846448 0.11291825 -0.034507222 -0.02552066 0.02432299 0.017793719
-0.0052464455 0.06024011 0.012229148 -0.035497427 -0.025529068 -0.094962105 -0.08920157 -0.05847298
-0.10983931 -0.05343839 0.02679581 -0.061835337 -0.033277903 -0.07459587 0.027443 -0.112339035
-0.13606568 -0.0498488 -0.03778139 -0.028593361 0.08999107 -0.061369024 -0.0032364307 -0.06209373
0.03606829 -0.047706015 -0.094339035 -0.061262473 0.06482396 -0.04232279 -0.055226646 -0.075109825
-0.08618516 -0.060767993 -0.014118941 -0.031733904 0.072389536 -0.045666717 0.08106981 0.047799654
-0.06722737 0.011392414 -0.10683941 -0.044532076 0.0030966937 -0.018974744 0.04270254 0.03736253
0.011596467 0.030242132 -0.019861802 0.06498103 0.06744442 0.012770593 -0.09375946 -0.08626954
0.02599677 0.0022678296 -0.0019608163 -0.09463311 -0.05050223 -0.046441864 -0.050017323 -0.008785486
0.089874566 -0.10046244 0.022746949 0.06979386 0.025032029 -0.053610787 0.008406006 -0.1091429
-0.05426935 -0.06288897 -0.03110393 0.059278145 0.030034011 0.032300685 -0.01833982 0.024963938
-0.050216038 0.013893869 0.029068515 0.030659042 0.014207225 0.09183818 0.11842613 -0.00011705073
-0.09361001 -0.003931142 -0.011761253 0.062125366 0.022051886 -0.103246644 -0.021345643 -0.021988928
0.08333095 -0.012915481 -0.04209634 0.00681897 0.038413294 -0.046910066 0.026749987 0.003756965
-0.044155583 0.022156669 -0.013591169 -0.04722436 -0.021801494 -0.11424028 -0.0686395 -0.04181472
0.06820267 0.018084679 -0.07653283 0.018115962 -0.08485014 0.035180382 -0.04207583 -0.039121047
0.029763872 0.012019344 -0.042805135 0.0074538155 -0.05308728 0.03356688 -0.013981292 0.093735754
-0.089569524 0.059912764 0.09090974 -0.0155177545 0.021781089 -0.028212324 0.025221558 0.07994972
-0.04379646 -0.021418221 -0.11332003 -0.03857094 -0.05157264 0.07062312 0.084248774 -0.03790973
-0.02804287 0.03407611 0.045570504 0.025054533 0.06481942 -0.006154096 0.0015010891 -0.0093181785
-0.0063422467 -0.05765555 0.024320314 -0.13011558 -0.1812485 -0.014130284 -0.08610507 0.012696422
0.056662384 -0.041144237 -0.10124931 -0.103458114 -0.003982151 -0.100842305 0.013152045 0.0659931
-0.061169043 -0.033145886 -0.0060924273 0.040673774 -0.054023832 0.0024293114 -0.07315798 -0.08000455
-0.1287123 -0.023497842 0.012118116 -0.038174335 -0.014207841 0.024848502 0.0459145 -0.042963605
-0.0779765 -0.040003095 -0.016551308 -0.011267608 0.03317432 0.029640943 -0.10408305 -0.029936826
0.10104125 -0.08451247 -0.053538416 0.121633776 -0.0521428 0.003241509 -0.123163216 0.025679372
-0.080713496 -0.012017328 -0.06697202 -1.5293053e-05 -0.048787747 -0.13014826 -0.11422713 0.08567522
0.13392949 0.001479575 0.12359301 -0.026990073 -0.04118944 0.060958605 -0.07446344 0.042622767
0.017209463 -0.016647149 -0.028977908 -0.0770576 -0.101168804 -0.03215644 -0.049331028 -0.059524026

bias f4 [32]
00000000: c606 063d 86fe 833d 2a82 74bd f538 283d
00000010: db9d 80bd b0ac 7b3c 7030 3f3d c6d9 a3bd
00000020: 4190 3d3d 4006 c33b 672e 993d 03b4 8fbd
00000030: da8f da3c 2572 29bd d51c 81ba 150a 25bd
00000040: 8571 3b3d 44e7 133d 204b a9bd 6924 cabc
00000050: 344c a3bb d10b 96bd 014d 14bd 57d1 333d
00000060: 21ed 4f3d 0929 943c b16a d33d 9522 b7bc
00000070: c409 1d3e 2014 193d d26d 723d adc4 cbbd
0.032721303 0.06445031 -0.059694447 0.041069943 -0.062801085 0.015360996 0.046677053 -0.08000521
0.04628015 0.005951673 0.07479554 -0.070167564 0.026679922 -0.041368622 -0.0009850512 -0.040292818
0.045762558 0.036109224 -0.08266282 -0.024675565 -0.0049834494 -0.073264726 -0.03620625 0.043900814
0.050763253 0.018085973 0.10323084 -0.022355357 0.15335757 0.03737271 0.059186764 -0.09949622
