models/LB_CNNet_30s--epoch=11-val_loss=1.01-train_loss=0.86.ckpt (torch, 60675 bytes, 45 tensors)

model.cnn.0.weight f4 [8, 3, 5]
000000 b8 91 5d be 7e 8e aa bd b2 e6 83 3d 22 33 c5 bc
       -0.21637619 -0.083279595 0.06440486 -0.024072234
000010 da e2 32 be 69 65 22 bd af 12 5c be 0f 75 da 3d
       -0.1746935 -0.039647494 -0.21491502 0.106668584
000020 24 de 7d be 03 66 11 3e 7a 1d 0e 3e 3f 4e 9f bc
       -0.24791771 0.1419907 0.13878432 -0.01944649
000030 25 7a 34 bc ed b2 19 3a 85 a0 e1 bd 93 5a 6f bd
       -0.01101545 0.0005863149 -0.11016945 -0.058435988
000040 0a 6f 7c 3e e4 c9 fd 3d 2f 74 8c 3e 3c 8a 50 3e
       0.24651733 0.12392023 0.2743239 0.20365232
000050 12 46 9a bb 06 8c 0f be 59 df a5 3c 1f 04 11 be
       -0.00470806 -0.14018258 0.020248102 -0.14161728
000060 9e e8 cb bd 67 5c 0a 3d 38 2d b1 bd 62 af 0a bc
       -0.099564776 0.033779528 -0.08651203 -0.008464666
000070 92 7d 84 bd 1b 38 96 be 82 f9 4d be 50 ed d6 bd
       -0.06469263 -0.2933968 -0.20114711 -0.104944825
000080 a2 39 66 be 7e 88 a7 be a7 20 01 bd a0 a3 4c 3e
       -0.22482923 -0.32721323 -0.03152528 0.19984293
000090 3a 6b b7 bd ec eb f3 3d e7 57 ec bd 7b 0d 9b bd
       -0.08955999 0.11910233 -0.115402035 -0.075709306
0000a0 3f a6 8c bd 4b c5 9c 3e 80 73 05 3e 4c 52 02 bd
       -0.068676464 0.30619273 0.13032341 -0.031816766
0000b0 d4 d6 4d 3d 89 c4 03 3d 41 95 7f 3d 40 fc 1b 3e
       0.050253704 0.032169852 0.0623982 0.15232944
0000c0 0f 7d 33 be 5c 89 3e bd 19 73 9c bc 9f d9 4d bc
       -0.17528175 -0.046517715 -0.019097852 -0.012564092
0000d0 25 21 02 bd 04 c8 e0 bd 64 de b6 3b 63 08 8b 3d
       -0.03176989 -0.1097565 0.0055807102 0.06788709
0000e0 22 89 c0 3d 18 38 d9 3e 93 ac b7 3e eb 14 ac 3e
       0.09401156 0.4242561 0.3587385 0.3360971
0000f0 30 d8 5a 3e e0 69 7b be 95 0b 7f 3d 0f 02 40 bd
       0.21371531 -0.24552107 0.062266905 -0.046876963
000100 d9 77 81 bd 78 e0 48 bd f4 b2 ec bd 6f 1c 1a 3e
       -0.06321687 -0.049042195 -0.1155757 0.15049909
000110 f2 a4 fc bd 6b 88 61 bc 83 4e 4e bd d4 c1 b0 3e
       -0.12336148 -0.013765435 -0.050367843 0.3452288
000120 6e a7 c8 3c 11 61 73 3e 9c 72 7f 3e 70 bc 10 3e
       0.0244939 0.23767497 0.24946064 0.14134383
000130 f0 af 2d 3e 7e 98 4a 3e bb 20 8e 3e b2 d3 9c 3d
       0.16961646 0.19784734 0.27759346 0.07657565
000140 1a 29 b2 3d 14 84 83 bc 61 af 89 bd a7 1d 85 3d
       0.08699246 -0.01605419 -0.06722904 0.06499796
000150 a1 47 f3 3d 63 8b 51 be 98 61 83 be a6 95 ce 3d
       0.118788965 -0.20463328 -0.25660396 0.10087137
000160 0b ad 8f be 33 4a 23 be 2a 6c 19 bd e4 7c 9c be
       -0.2806171 -0.15946274 -0.03745667 -0.30564034
000170 3d 4d 6d bd 0e c2 61 be 01 6c c6 bd 79 1b 94 3c
       -0.05793499 -0.22046682 -0.09688569 0.018079506
000180 79 c8 61 3e f8 2d df 3d 0f 35 bc 3d 43 bc f9 3d
       0.2204913 0.1089744 0.091898076 0.12194111
000190 c3 1f 5f 3e 0a 72 ea ba d2 d3 bf 3e 93 39 e2 3d
       0.2178946 -0.001788677 0.37466294 0.11046138
0001a0 16 d9 78 3e cd 60 c6 3d 9f ad 33 3e 27 d0 86 be
       0.24301562 0.09686432 0.175467 -0.26330683
0001b0 20 0a a3 be 98 29 87 3d a9 24 10 3e eb 3b a0 bc
       -0.31843662 0.0659973 0.14076485 -0.019559821
0001c0 7d 1f d3 bd 8f cf 11 3e cb f7 1f 3e 20 49 34 bc
       -0.1030874 0.14239334 0.1562187 -0.0110037625
0001d0 bf bf 2c 3e 81 d6 cb 3e 00 6e fc 3c e7 e7 0d 3e
       0.1687002 0.3981209 0.03081417 0.13857995

model.cnn.0.bias f4 [8]
000000 60 e2 05 3e 30 92 f3 3c 8c 94 3f be e6 a5 f1 bd
       0.13074636 0.029732794 -0.1870901 -0.11799221
000010 21 82 33 be c0 64 55 3d 2d 06 36 3e fe 48 eb bd
       -0.17530109 0.052098036 0.17775793 -0.114885315

model.cnn.1.weight f4 [8]
000000 ed fc 7b 3f 57 4e 85 3f b8 3f 6e 3f 35 e7 7f 3f
       0.9843281 1.0414532 0.9306598 0.9996217
000010 1e c6 7a 3f d8 98 85 3f f4 2a 77 3f 67 da 82 3f
       0.9795855 1.0437269 0.96549916 1.0222901

model.cnn.1.bias f4 [8]
000000 0a da 06 bc 22 42 8b 3d 14 c2 a0 3c 6f d1 ab 3d
       -0.0082306955 0.06799723 0.019623794 0.08389556
000010 a4 85 4e bc 86 60 b9 3d 76 15 99 bc 71 70 3e bd
       -0.012605105 0.090516135 -0.018686991 -0.04649395

model.cnn.1.running_mean f4 [8]
000000 da 15 01 c0 e3 5f 92 40 65 de a1 c0 d2 37 d0 3e
       -2.0169587 4.574205 -5.058398 0.40667588
000010 cb bb f9 be 7d 7f 96 40 9f 3d 73 c0 31 41 c9 bf
       -0.48776087 4.7030625 -3.800636 -1.572302

model.cnn.1.running_var f4 [8]
000000 0e 49 16 44 21 10 45 43 8f 0a b7 43 25 c6 80 42
       601.1415 197.063 366.0825 64.387
000010 81 2a 6f 43 f5 b2 07 43 df 26 8f 43 fb 23 95 43
       239.16603 135.69905 286.30368 298.2811

model.cnn.3.weight f4 [16, 8, 5]
000000 98 28 d0 bd bf 85 14 bc a3 15 3f be 4a 15 d5 bd
       -0.10163993 -0.009065091 -0.18660598 -0.10404451
000010 1d a0 f6 3d 93 e1 90 bd 08 0d 90 bd fb cc c3 3d
       0.12042258 -0.07074275 -0.070337355 0.09560581
000020 d9 74 96 bc e2 74 19 bc 97 a9 d5 bd 58 2d 82 bd
       -0.018366264 -0.009366246 -0.10432737 -0.06356305
000030 26 55 08 3e ce 7b e9 bd 61 3e 7a bd fd 7d 27 bb
       0.13313732 -0.11400567 -0.061094645 -0.0025557273
000040 63 06 41 3c b1 78 fa bc c6 86 da bd bf 2d c2 bd
       0.011781308 -0.030575128 -0.10670237 -0.094813816
000050 fa fc ff 3d e4 1e ca bb 21 bf fd bd 2a 0d 01 be
       0.12499423 -0.006168233 -0.123899706 -0.12602678
000060 25 71 80 bc c1 08 4c 3d f2 20 bd 3d 35 e9 17 3d
       -0.015678952 0.049813036 0.092347994 0.037087638
000070 cd 1b 8c bd a7 d0 0a 3e 50 85 99 3d 66 ff 4b bd
       -0.0684124 0.13556157 0.074961305 -0.049804114
000080 b7 b9 c9 bd d4 65 b8 3d 88 58 0a bd 3c 0e a4 bc
       -0.098498754 0.09003797 -0.033775836 -0.020026319
000090 06 06 36 be ed 4f 2e bd 36 29 f7 bd 8e 1d bf bd
       -0.17775735 -0.042556692 -0.12068407 -0.09331809
0000a0 cc be 09 3e 36 cf 37 3d 0e 52 09 be f4 56 b2 3d
       0.1345169 0.044875346 -0.13410208 0.08707991
0000b0 47 ef c1 bb 2a ed 21 3d da ca 0d be a8 f8 27 be
       -0.0059184167 0.039532818 -0.13846913 -0.16403449
0000c0 90 bd 1f 3e 2b 3d fa ba cd 3a bf 3d 0f db 0f 3e
       0.15599656 -0.0019091716 0.09337387 0.14048408
0000d0 ba 55 14 3e a3 a3 cb 3d cc 25 7c 3c 14 5c df bc
       0.14485827 0.099433206 0.015389871 -0.027265586
0000e0 a8 f7 b8 bd 20 8b f5 3d e2 e4 21 3e 1d fd c3 3d
       -0.09031612 0.119894266 0.15809968 0.09569762
0000f0 a7 84 07 be f4 af 24 be 96 4a a6 bb 3b 99 63 bd
       -0.13234197 -0.16082746 -0.0050748093 -0.055566054
000100 fb 7c 05 3d 12 67 49 be 1f 6b 08 3e a9 28 a6 bc
       0.032589894 -0.19668224 0.13322113 -0.02028306
000110 fb ad c2 3d c0 bf ad bd 74 7f c0 bd 67 47 8c 3c
       0.095058404 -0.08483839 -0.0939931 0.017123891
000120 2f d5 5b 3c d7 b6 96 bd 99 44 e1 3d 46 ec 81 3d
       0.013417526 -0.07359093 0.10999412 0.06343894
000130 84 12 a2 bc 68 64 6f bd fe d2 ba bd 91 bb 36 3e
       -0.01978422 -0.058445364 -0.09122275 0.17844988
000140 69 02 e0 3d a0 e8 33 3e 9c 07 ad 3c a7 78 ac 3b
       0.1093796 0.17569208 0.021121792 0.0052634063
000150 3a 96 14 be 01 03 ad 3d 70 d9 ab 3d 39 6f 25 bd
       -0.14510432 0.084478386 0.08391082 -0.040389273
000160 15 d7 10 be 43 84 32 be c5 98 f9 3d 3c 1c df bd
       -0.14144547 -0.17433266 0.121873416 -0.10894057
000170 8b ba b7 3d 9a 7f de bd 6e fc 23 3e 4e 22 e8 b9
       0.08971127 -0.10864182 0.16014263 -0.00044276047
000180 2d 80 e3 3d f8 34 12 3e 1d d9 b4 3d 4f 67 a5 3d
       0.11108432 0.14278018 0.088304736 0.08076345
000190 04 a0 9f bd 28 2e 00 bd a9 08 7b 3d 51 2b 1e 3e
       -0.077941924 -0.031294018 0.061287556 0.15446211
0001a0 d3 28 ac bd b7 ee 0a bd 68 5e 16 3e 93 f8 7d 3c
       -0.08406224 -0.033919062 0.1468445 0.015501159
0001b0 8c 08 d5 bd ff 4c be 3d 6d e4 c0 3d 06 fd c9 bd
       -0.10402021 0.092920296 0.09418569 -0.098627135
0001c0 79 33 30 bd 03 2f 18 3c 11 58 9e bd 74 a9 c1 bd
       -0.04301784 0.009288552 -0.07731641 -0.09456149
0001d0 ea 8b 16 bd b7 39 8b bd 91 bf c6 bd f1 51 0d bd
       -0.036754526 -0.067981176 -0.09704507 -0.034501974
0001e0 51 0a e9 3d de 24 a8 3d e4 0d 21 3e 12 cf 3c 3d
       0.11378921 0.08210157 0.15727955 0.046095915
0001f0 57 be 4b bd f2 f5 2f bd b6 81 b3 bc b1 eb 61 be
       -0.04974207 -0.04295916 -0.021912437 -0.22062565
000200 61 7b ef bd 27 bd 95 3c 40 a6 11 bd a1 49 15 3e
       -0.116934545 0.018278671 -0.03555894 0.14578868
000210 55 17 25 3e fe ed 38 3d 46 ef 82 bd 81 54 00 3d
       0.16122182 0.045148842 -0.06393294 0.03133059
000220 75 40 92 bc c6 16 13 3e 11 fc e5 3d d6 79 d1 bc
       -0.017853001 0.14364156 0.112297185 -0.025570791
000230 7d 70 41 bc a5 c8 f9 bd 7e 2a 2e bd f7 17 15 3e
       -0.011806604 -0.12196473 -0.042520992 0.14559923
000240 12 39 88 bd a8 c3 09 be c6 b8 31 bd bf 55 33 bd
       -0.0665151 -0.13453543 -0.043389104 -0.043782946
000250 b4 83 3c be f6 20 f3 bc ec d1 07 3d 0b 63 81 bd
       -0.18409616 -0.029678803 0.03315918 -0.06317719
000260 97 01 23 3e ba b0 25 bd 5c 31 cc bd e5 8b 9a 3d
       0.15918575 -0.040451743 -0.09970352 0.07546214
000270 7b 0e 39 bd ac 63 81 bc f8 d8 92 bd 6c c4 88 bd
       -0.045179825 -0.015794598 -0.0717029 -0.066780895
000280 43 40 96 3d 4d 25 ef 3d 0c fa 10 bd e2 c6 12 be
       0.07336476 0.116770364 -0.035394713 -0.1433368
000290 72 3d 18 3d e3 ca af bd a1 d3 d2 bd ca 2d d3 bd
       0.037167974 -0.085836194 -0.10294271 -0.10311468
0002a0 5b 6f 15 3d 61 e0 fd bd 7f 06 e6 bd ef 75 b9 bd
       0.03648315 -0.123963125 -0.11231708 -0.09055697
0002b0 2a 03 ab 3d d1 d2 02 3e b3 0f 4d 3d 73 49 39 3d
       0.08350213 0.12775733 0.0500638 0.045236062
0002c0 43 c3 b3 3d ea 38 16 3e e8 f2 23 bd 5c 25 1c bd
       0.087774776 0.14670148 -0.040026575 -0.038121566
0002d0 25 88 fd 3c e1 65 50 bd c4 bc 00 bd 93 0f 01 bd
       0.030948708 -0.05087841 -0.03143002 -0.031508993
0002e0 30 b3 12 3b ce 00 1b 3e b8 4d c2 3d f4 d6 42 3c
       0.0022384636 0.15137026 0.0948748 0.011892069
0002f0 0f 89 34 be 40 54 b4 bc 35 fe 9e 3d 78 3f 08 bd
       -0.17630409 -0.02201283 0.0776333 -0.033263654
000300 e6 7b 60 3c eb e0 7c 3d 81 94 11 be 74 92 a0 bd
       0.013701415 0.061737936 -0.14216806 -0.07840434
000310 c7 2a fb bd d6 e1 76 bd 33 44 13 3e e5 88 4b 3c
       -0.122640185 -0.060273968 0.14381485 0.012422775
000320 41 29 d5 bd 8d a3 85 bb 1e dd e1 3d 18 67 56 3d
       -0.10408259 -0.0040783347 0.11028503 0.05234441
000330 8f 69 c7 bd 64 b3 9c bc 4b f7 d5 bd ae 59 1f be
       -0.097369306 -0.019128509 -0.10447558 -0.15561554
000340 8a fd 53 be 04 ba d9 bd 36 19 2d 3d 00 f7 12 3c
       -0.20702186 -0.10631183 0.04226037 0.008970022
000350 91 5e d5 bb 5c b4 04 bd 79 43 39 3d 7f 5d 04 3e
       -0.0065115173 -0.032398567 0.045230363 0.12926291
000360 c9 b5 13 3e 16 f1 f5 bd 77 fc 1b 3e a9 fd e0 3d
       0.14424814 -0.12008874 0.15233026 0.10985882
000370 21 86 cb 3d 64 8b 02 3e 26 10 28 bd 8f 97 8f bd
       0.099376924 0.12748486 -0.041031025 -0.070113294
000380 a2 d6 32 3e 7a dc a8 3d 99 a9 14 be 4c 41 15 be
       0.17464688 0.082451776 -0.14517821 -0.1457569
000390 67 f8 4c 3c 60 1e 61 bc fe e2 08 bd eb 56 8b 3d
       0.012510396 -0.013740152 -0.0334196 0.06803688
0003a0 f7 b0 c7 bd 68 ca 9c bd b8 8c a7 3d f7 f5 0a bd
       -0.0975055 -0.076557934 0.08181137 -0.033925977
0003b0 46 1e 59 3e 3a 95 39 3d d8 93 72 bd 7a 92 bf 3d
       0.21202955 0.04530833 -0.059223026 0.0935411
0003c0 a7 da d9 3d d2 bc 16 bd 00 1d 54 3e c0 e7 c9 bd
       0.10637408 -0.036801167 0.20714188 -0.09858656
0003d0 62 38 ed bd 48 c8 8f 3c 2b 53 87 bd 70 64 e9 3c
       -0.1158302 0.017551556 -0.0660766 0.028490275
0003e0 ff 5a dd bd 28 d4 89 bb c1 24 5e bd 3b 8e 4b bd
       -0.10808372 -0.004206199 -0.05423427 -0.04969619
0003f0 96 b6 d9 bd 3b 93 07 3e 43 cf 72 3d 51 c4 6d bd
       -0.10630529 0.13239758 0.05927969 -0.05804855

model.cnn.3.bias f4 [16]
000000 76 25 86 bd 05 ff 41 bd 2a ae 1d 3e 12 8f 84 bd
       -0.06550114 -0.047362346 0.1539847 -0.06472601
000010 74 4c f0 bc 56 d5 a9 3c 54 45 01 3e 58 0c 1c 3e
       -0.02933333 0.02073161 0.12624103 0.15239084
000020 f8 85 97 3d 29 91 54 bd d4 b8 11 3e f6 14 52 3d
       0.073985994 -0.051896248 0.14230663 0.05128952
000030 fb cf fa 3d 0a 79 63 3c 24 69 c8 bd fe 2d ce 3d
       0.122467004 0.013883838 -0.09785679 0.10067366

model.cnn.4.weight f4 [16]
000000 dc 02 83 3f 5c 67 74 3f e6 f5 7e 3f 49 11 86 3f
       1.0235248 0.95470214 0.9959396 1.0474025
000010 9d da 71 3f f3 10 8c 3f 49 5e 81 3f 6a d6 7b 3f
       0.944742 1.0942672 1.0106899 0.98374045
000020 44 3d 84 3f 1c 6e 78 3f 41 df 6f 3f 83 f6 82 3f
       1.0331197 0.97043014 0.93700033 1.023148
000030 f6 f1 6d 3f 5c e3 82 3f 04 23 7e 3f 37 c5 78 3f
       0.9294733 1.0225635 0.9927218 0.97175926

model.cnn.4.bias f4 [16]
000000 6b ae 81 3d 63 ef 00 39 1d 7b 10 3d 44 16 5d 3c
       0.06332096 0.0001229621 0.03527366 0.013494078
000010 1e 6b 53 3b 0c 90 df 3c 6c 76 7f 3c 5d c8 0f bd
       0.0032259892 0.027290367 0.015592199 -0.03510319
000020 41 b5 08 3d 1f f8 fa 3c 80 2c 85 3a a4 ed 41 3c
       0.033375982 0.030635891 0.0010160357 0.011836443
000030 c6 1f 1d bd 08 41 ec 3c be a4 b3 3b 8f 7b e1 bc
       -0.03836038 0.028839603 0.0054822853 -0.027524738

model.cnn.4.running_mean f4 [16]
000000 77 c8 d8 be db 28 a5 3d b1 a4 86 3e 93 c5 50 be
       -0.42340443 0.08064433 0.26297525 -0.20387869
000010 4e 8a 0a be 47 a1 10 bd 92 45 0c bc a7 36 4e 3e
       -0.13529322 -0.035310056 -0.008561509 0.20138036
000020 f0 40 a9 be 43 31 8d bd d3 87 99 bd 41 30 0d 3e
       -0.33057356 -0.068941616 -0.074966095 0.13787939
000030 da 05 f1 3e cc da 1f 3e 91 81 3c be 67 8d 2b 3e
       0.47074777 0.15610808 -0.184088 0.1675316

model.cnn.4.running_var f4 [16]
000000 8e 61 23 3e a1 0c d7 3d 32 0f 09 3e 4d 28 ca 3d
       0.15955183 0.10500456 0.13384703 0.09870968
000010 c9 c6 2a 3d 2d c6 c0 3d 6c 77 05 3e f4 68 f5 3d
       0.041693483 0.09412799 0.13033837 0.11982909
000020 a1 5a 19 3e ea b1 05 3e 1d e8 3e 3e ea 5c dc 3d
       0.14975978 0.1305615 0.18643232 0.107599095
000030 64 e6 da 3d 1c b0 9f 3d 04 20 9a 3d e2 3f 0d 3e
       0.10688475 0.07797262 0.07525638 0.137939

model.cnn.6.weight f4 [32, 16, 5]
000000 50 0d 25 bd 04 9d a0 3d c6 a7 d8 3d fd 62 69 bd
       -0.0402959 0.07842448 0.10578875 -0.05697917
000010 29 23 cf bd 1a 02 00 bd 15 3a 8e 3d a1 16 25 be
       -0.10114128 -0.031252004 0.06944672 -0.16121913
000020 77 eb 4f 3d 44 57 b0 3c 25 1f cc bc e0 fd 97 bd
       0.050761666 0.021525986 -0.024917195 -0.0742147
000030 2f 6c 6f bd 1f 8b d9 bd e2 f5 c3 3d 84 ed b1 3c
       -0.05845278 -0.10622238 0.09568383 0.021719702
000040 c1 c1 4a bc 1a 02 9b bd 62 00 b0 3d f4 49 09 be
       -0.012375296 -0.0756876 0.08593823 -0.13407117
000050 d8 2b d1 3c 7c bf ba 3c 89 f2 e4 3c 96 53 dc 3c
       0.025533602 0.022796385 0.027947681 0.026895326
000060 0c 0e 03 3d 45 1a b9 3c 1e 70 a6 3d 0c 3c ad 3d
       0.031995818 0.022595534 0.081268534 0.08458719
000070 a8 eb 92 bd fa 1c 48 bd f1 3d 47 3c 2d 4a 70 3b
       -0.07173854 -0.04885576 0.012160764 0.0036665306
000080 0f bc e7 bc 75 9f 90 3d 42 53 65 3c aa 07 1f bd
       -0.028287916 0.07061664 0.013996901 -0.03882567
000090 ae 16 06 3e 4a b3 3b 3d 61 07 02 3d c9 15 03 bd
       0.13094589 0.04582528 0.03174532 -0.032003198
0000a0 47 cb a4 bd c0 a5 91 3d 0e 26 da 3d 5e 64 95 3d
       -0.080465846 0.071116924 0.106517896 0.07294534
0000b0 c2 88 7c bd 02 2b 85 bd 7b 23 c7 bd 87 1c a6 3d
       -0.06165386 -0.06502344 -0.09723564 0.0811091
0000c0 4a ec 0b 3e dd 0e 9f 3d ae 9b 57 3d 0d b7 a3 bd
       0.13664356 0.07766507 0.052638702 -0.079938985
0000d0 ab a8 9b bd 85 2f a2 3c 19 0f be 3b 31 ea f5 3d
       -0.0760053 0.01979805 0.0058001396 0.12007559
0000e0 08 1f 4d 3c 38 fc ae 3d 85 54 83 3d 0d b8 6d bd
       0.012519605 0.08544201 0.06412605 -0.058036853
0000f0 ce 63 18 3d 0b f0 65 bd e4 34 29 bb 77 53 eb bb
       0.037204556 -0.056137126 -0.0025818879 -0.0071815806
000100 7d 00 a4 bd bb 32 72 3d 4b e3 62 bd 0f a0 dd 3c
       -0.08007906 0.05913041 -0.055392545 0.027053861
000110 96 ce 33 3d e7 5e 01 3d 68 7b 6f bd 87 79 15 be
       0.043898188 0.031584647 -0.0584673 -0.1459714
000120 34 67 08 3d 41 4e 41 bd f9 3a b7 3d de 57 d5 bc
       0.033301547 -0.04719377 0.08946795 -0.026042875
000130 f2 8f 3b 3d 28 92 08 3e 61 6f f7 3c cb b3 c4 3c
       0.045791574 0.13337004 0.030204477 0.024011513
000140 f6 44 58 3d 27 17 62 3c 05 02 8e bd ad d4 46 bd
       0.05280014 0.013799465 -0.06933979 -0.048542667
000150 fe 3f ac 3b 39 d5 6b 3d da 26 b7 3d 0f dd 35 bd
       0.005256652 0.05757639 0.08942957 -0.04440027
000160 db 1d d1 bd ad 0b 57 bd 78 ab e4 bc 6d 55 e4 bd
       -0.102107726 -0.05250137 -0.027913794 -0.11149106
000170 c1 e5 69 bd d9 42 c8 3d eb b7 13 bd 43 50 27 be
       -0.057103876 0.09778375 -0.03606407 -0.16339211
000180 de fc 03 bc 76 40 11 3c a5 b9 33 3d 44 cc 95 3d
       -0.008055894 0.008865466 0.043878216 0.07314351
000190 23 ea 8d bc 9c 78 cf 3c e0 4a 7a bd 18 34 93 3c
       -0.01732356 0.025326066 -0.061106563 0.017969176
0001a0 8e cb a1 3d 36 bd bf bd 50 ab d5 3d 93 31 6a bd
       0.07900153 -0.09362261 0.10433066 -0.057176184
0001b0 72 32 84 3d ae 3f 2e bd 08 1f 46 3b 6d 47 07 3e
       0.06454934 -0.0425412 0.0030230898 0.1321084
0001c0 9c ce e6 bb a0 c4 24 3d 57 e7 4c bb f4 82 28 3d
       -0.0070436727 0.04022658 -0.003126582 0.04114051
0001d0 a7 fb 16 3e a7 45 a2 3d 36 f8 a8 3d 59 f7 fe 3c
       0.14744435 0.079234414 0.082504675 0.031123804
0001e0 e4 fd 8f bd cb 43 d3 3d 33 d8 74 bc bd c4 1e 3e
       -0.07030848 0.10315665 -0.014944124 0.15504737
0001f0 4f f8 7e bd 9d d6 24 bd a6 cb 82 3d c3 0a 64 3d
       -0.062248524 -0.040243734 0.06386499 0.055674326
000200 1b f5 97 3d 57 9f 49 3d 55 9e 8f 3d 5c cc 27 3d
       0.07419797 0.049224224 0.07012621 0.040966377
000210 2e e6 ca bd f5 02 e9 3c d7 f3 b8 bb 5c b8 c1 3d
       -0.099071845 0.028443793 -0.0056443023 0.09458992
000220 94 a3 57 bc d8 4f 53 bd 9e 72 0e 3e df 2a bf 3c
       -0.013161559 -0.051589817 0.1391091 0.023335872
000230 f8 1a e0 3d c1 16 c5 bd 39 31 fb 3d fa 63 03 bd
       0.10942644 -0.096234806 0.12265248 -0.032077767
000240 a6 08 a4 bd a1 b8 b9 bd bc fc 93 3d 98 d0 03 3e
       -0.08009462 -0.09068418 0.0722594 0.12872541
000250 c5 97 c6 3d c6 cc 18 3c 0d 98 52 bd 13 f2 ee bd
       0.096969165 0.009326166 -0.05141454 -0.11667266
000260 56 72 51 3d ae d8 62 3d 9f 5c ea 3d 5a 80 6a 3d
       0.05113443 0.055382423 0.11443447 0.05725131
000270 f6 69 32 bc 59 3f 99 3d cf 5c 17 bc d5 4c f9 3b
       -0.010889521 0.07482786 -0.009238436 0.007608036
000280 8f 5f 90 3d 56 6d 03 be 0e 41 63 3d de 05 34 3d
       0.07049476 -0.12834677 0.055481963 0.043950908
000290 fb 5f 7b 3d 10 b9 fb bd c5 dc 2b bd 59 e5 43 bd
       0.06137083 -0.12291157 -0.04195859 -0.047826145
0002a0 ff eb 64 bd da 0f 9a 3c cc fd 74 3d d9 d2 70 3d
       -0.055889126 0.018806387 0.059812352 0.05879483
0002b0 ef 38 38 3c 94 21 b3 3d f5 d7 80 bd 55 6b ac bd
       0.011244043 0.08746639 -0.062911905 -0.084189095
0002c0 19 44 b7 bd 96 33 b6 3c 7e c8 1b bd 98 be cd 3c
       -0.089485355 0.022241395 -0.038033 0.025115296
0002d0 80 cd 0a bd 97 f3 af bd 07 ba e3 3d 7c 43 d0 3d
       -0.033887386 -0.08591383 0.11119466 0.101691216
0002e0 b8 83 9c 3c 87 c6 72 bb e5 41 5e 3d e7 36 a3 bd
       0.019105777 -0.00370446 0.05426206 -0.07969456
0002f0 a1 ba a1 3d b9 39 b3 bd 3b 6c 8c 3c 2d d1 52 bd
       0.07896925 -0.08751244 0.017141452 -0.051469017
000300 cd 77 c2 bd e1 cc e4 bc 31 1f d8 3a 53 0c 53 bc
       -0.094955064 -0.027929725 0.0016488788 -0.012881356
000310 b1 13 48 bd 2f 33 cd 3c 7a ae 33 3d 59 b4 12 bd
       -0.048846904 0.02504882 0.043867566 -0.035816524
000320 ff fe 36 3d 5a 83 67 bd 57 51 58 bd 7c 8e 54 ba
       0.044676777 -0.05652175 -0.052811947 -0.000810839
000330 a1 20 63 bd 11 57 b6 bd cf 64 f2 bd 57 3d d8 bd
       -0.05545104 -0.08903325 -0.11835634 -0.10558575
000340 81 7b 7f 3d 6d d7 fd bc 16 36 ef bb 6c ab 20 bd
       0.062373642 -0.030986512 -0.0073001487 -0.03922598
000350 d1 41 c9 bd 70 67 b9 3d bf 87 ec 3c 17 fa 99 bd
       -0.098270066 0.09052932 0.028873323 -0.07518404
000360 91 9e 31 bc e7 99 08 be 63 d9 0c bd 55 f5 bd 3d
       -0.010841028 -0.13339959 -0.034387004 0.09275309
000370 72 29 45 3d 9a 8d ab bd de 62 bd 3c 1b 53 3d 3d
       0.04813523 -0.08376618 0.023118433 0.046221834
000380 23 57 7b 3d ea f9 df 3d 3b 06 70 bc ff 83 bb 3d
       0.061362397 0.10936339 -0.014649923 0.09156036
000390 eb eb 34 bd 48 19 5c 3d 46 61 62 3d 52 96 9f 3c
       -0.0441703 0.053735048 0.05526855 0.019480858
0003a0 70 7d 1c 3d 09 75 35 be d2 d9 7d bd b3 06 9c 3d
       0.038205564 -0.17720427 -0.061975308 0.07618465
0003b0 1b 7b 95 3d 66 67 15 bd f0 fa 3b 3d 76 98 07 be
       0.07298871 -0.03647556 0.04589361 -0.13241753
0003c0 3f a9 f9 3d a3 16 3c 3d 5d 43 5d 3c 86 63 11 bd
       0.12190484 0.045920026 0.01350483 -0.035495304
0003d0 f8 aa eb 3d 96 55 37 3b db fb 6d 3c 41 9c 78 bd
       0.11507219 0.0027974597 0.014525379 -0.06069589
0003e0 f4 d9 8b 3d d5 29 8e bd 60 1c b3 3d 17 8b 54 bd
       0.06828681 -0.069415726 0.087456465 -0.05189046
0003f0 0e 80 65 bd ed 1b b6 3d ab fc cd bd ed 73 b9 3d
       -0.056030326 0.08892045 -0.10057958 0.09055314

model.cnn.6.bias f4 [32]
000000 17 2d a8 3d bc a8 70 bd d7 42 d1 bd 61 2c a1 bd
       0.08211725 -0.058754668 -0.10217827 -0.07869793
000010 8b 20 60 bd ff 89 e2 3d c8 a7 bc bc 55 9d 8f 3d
       -0.054718535 0.11061477 -0.023029223 0.070124306
000020 86 c9 b6 bd 8a 92 3b 3d 11 66 d2 bd ea 0d fc bc
       -0.08925156 0.045794047 -0.10273374 -0.030768353
000030 06 b1 64 3d 34 53 aa 3d e8 28 12 bd 9c fe 87 bd
       0.055832885 0.08316651 -0.035683542 -0.0664036
000040 4f 67 4f 3d c0 d4 8b bd cc c8 a5 bc 0a cc e6 3c
       0.050635632 -0.06827688 -0.020237349 0.028173465
000050 e8 dd 8e bd bb 87 8f bd 04 fb d2 bc 93 72 a5 bb
       -0.06975919 -0.070083104 -0.02575446 -0.0050490587
000060 95 82 b6 3d 01 14 a5 3d 85 64 b8 bd 80 36 e9 bc
       0.08911625 0.08060456 -0.090035476 -0.02846837
000070 fc 32 82 ba 8a 2b 59 bd 6e d3 61 3d 25 0f ce 3d
       -0.0009933407 -0.053020038 0.055133276 0.10061482

model.cnn.7.weight f4 [32]
000000 38 e7 80 3f f1 cb 7d 3f 24 bb 89 3f 85 75 87 3f
       1.0070562 0.99139315 1.0760236 1.0582739
000010 c3 0c 85 3f 56 20 80 3f a6 38 7a 3f ed a4 83 3f
       1.039452 1.0009868 0.9774269 1.0284706
000020 b8 d6 82 3f 2e 96 83 3f 7e 33 85 3f 44 6b 85 3f
       1.0221777 1.0280206 1.0406339 1.042336
000030 66 84 82 3f 5d a0 8c 3f 00 d9 84 3f 96 90 8c 3f
       1.0196655 1.0986439 1.0378723 1.0981624
000040 df f6 81 3f c3 a9 83 3f cc b0 87 3f 09 17 80 3f
       1.0153464 1.0286182 1.0600829 1.000703
000050 d5 49 84 3f 8a 21 89 3f f2 00 8c 3f df 7d 84 3f
       1.0335032 1.071336 1.0937788 1.0350913
000060 80 72 8c 3f 46 99 83 3f 51 fb 87 3f f7 2e 86 3f
       1.0972443 1.028115 1.0623571 1.0483083
000070 0e c3 88 3f a5 8b 83 3f dd e3 89 3f d6 36 81 3f
       1.0684526 1.0276991 1.0772663 1.009486

model.cnn.7.bias f4 [32]
000000 20 43 56 3b ac da 67 bc 4b ff d3 3d 68 78 70 3d
       0.0032693818 -0.0141512565 0.10351428 0.05870858
000010 fc 6a bd 3c 76 cf c7 3b f3 6c 04 bc 7b cc 7c 3d
       0.023122303 0.0060977293 -0.008082616 0.061718445
000020 15 3b 01 bc 40 49 3b 3d 3f 9e b2 3c 82 88 1e 3d
       -0.007887621 0.045724154 0.021803973 0.038704403
000030 35 57 5e 3c 8a e1 c2 3d e1 3f f4 3c 34 29 c1 3d
       0.013570596 0.095156744 0.029815616 0.09431687
000040 18 42 0c 3d 1f 2e 52 3c c3 02 b9 3c eb e9 08 3c
       0.03424272 0.012828379 0.022584325 0.008356552
000050 52 a4 25 3d c3 91 a1 3c a0 39 9c 3d 0f 81 b6 3c
       0.04043991 0.019722825 0.076281786 0.022278337
000060 d5 63 f8 3d 69 c9 10 3d cf 31 9b 3d bd 5e f6 3c
       0.121284164 0.03534833 0.075778596 0.030074472
000070 94 01 c5 3c 52 bf 8d 3c 40 02 9f 3d 48 ef 8e 3c
       0.024048604 0.017303143 0.07764101 0.017448083

model.cnn.7.running_mean f4 [32]
000000 d0 6f ab 3e 0d 8f cc 3e e8 b9 be be bf 28 ba be
       0.33483744 0.3995289 -0.3725121 -0.36359212
000010 f6 85 9f be 6e 49 96 be 43 f2 f2 bc 9a 5d 59 be
       -0.31156892 -0.29352897 -0.029656535 -0.21227112
000020 fe 11 8d 3e bd 39 43 bd 1d a8 05 bf 8f 4b 02 bf
       0.2755279 -0.047662485 -0.52209646 -0.50896543
000030 68 29 09 bd 64 89 9e be b4 bd 0a bb a9 ba ca 3c
       -0.033486754 -0.30964196 -0.00211702 0.02474721
000040 e5 e8 05 3e dd 06 d0 3d 7d 0e e6 be 81 e2 c4 bd
       0.13077123 0.10157559 -0.4493293 -0.09613515
000050 18 b3 ae be 4e 94 33 be 65 c1 9c bd 89 66 41 be
       -0.34121013 -0.17537042 -0.076540746 -0.1888677
000060 80 ef c9 bd 5c ab 17 be 6b e4 03 bf 1c 02 8d be
       -0.09860134 -0.14811462 -0.51520413 -0.27540672
000070 c1 26 ad be 3d ff aa be ed db 34 3d 31 2b fc 3d
       -0.3381863 -0.33397856 0.04415505 0.123129256

model.cnn.7.running_var f4 [32]
000000 a7 5a a5 3d d9 4d 39 3e 7e f7 0e 3e 30 58 85 3e
       0.08073931 0.18096103 0.13961598 0.26043844
000010 d5 51 ae 3d b6 67 98 3e dd b4 05 3e 84 50 e0 3e
       0.08511702 0.29766625 0.13057275 0.4381143
000020 58 9b 0f 3e 87 5a 65 3e 72 b4 e7 3d a9 68 6c 3e
       0.14024103 0.22397815 0.11313714 0.230868
000030 5a ab 14 3e 60 63 da 3d f6 39 c8 3d 14 f5 30 3e
       0.1451849 0.106634855 0.0977668 0.1728099
000040 e2 44 26 3e 54 15 c7 3d 56 ea c2 3d d2 1c 95 3e
       0.16237214 0.09720865 0.09517352 0.2912355
000050 df 8e b8 3e b1 4a a7 3d f9 7f 9e 3e 43 86 07 3e
       0.36046502 0.08168543 0.3095701 0.1323481
000060 17 67 65 3e c5 57 98 3e c5 7c 82 3e 97 d3 cd 3d
       0.22402607 0.29754463 0.25485817 0.10050123
000070 c0 66 f9 3d 10 d6 0d 3e ee 8e 72 3e e7 b1 20 3e
       0.12177801 0.1385119 0.23687336 0.15692864

model.cnn.9.weight f4 [1, 32, 5]
000000 db f0 85 bd c3 83 18 3d fe 08 20 bc ee 7d b0 3b
       -0.0654008 0.037235033 -0.009767769 0.0053861057
000010 d6 f7 92 3d 5a ae 30 bb 64 d0 eb 3c 9d d0 89 bd
       0.07176177 -0.002695939 0.028785892 -0.06729243
000020 d6 9d 2e b7 1e 43 09 3d 27 97 66 bc 08 4b 81 3d
       -1.0407957e-05 0.033511274 -0.014074123 0.06313139
000030 7b 83 db bc 2c 4c af bd 91 a3 b6 bd ba 1f 91 bd
       -0.026796093 -0.085594505 -0.089179166 -0.070861295
000040 22 73 85 bd 5a ce db bd be 03 94 bd 86 96 7c bd
       -0.065161005 -0.10732718 -0.07227276 -0.061666988
000050 25 e0 9f 3d 32 0e 4b bd f9 86 fb 3c c2 99 ce 3c
       0.07806424 -0.049574085 0.030704008 0.025219802
000060 14 ae ae 3d ec 94 13 bd f9 d5 24 bd 5c a4 65 3c
       0.085292965 -0.036030695 -0.040243123 0.014016237
000070 02 6b c0 b9 71 9c 4a bd 19 e8 64 bd 49 58 70 3d
       -0.0003670082 -0.0494656 -0.055885408 0.058677945
000080 fb e0 a1 3c cc c6 58 3d c1 0f 87 3d 4a f2 ab bc
       0.0197606 0.052923962 0.06594802 -0.020989556
000090 1e aa 27 bc 5a 27 27 bd d2 68 3d b9 cb 1a aa bd
       -0.01023343 -0.040809013 -0.00018063493 -0.083058916
0000a0 ec dc 9b 3d bd 12 38 3d e2 ce 6b 3c 68 3c 82 bc
       0.07610497 0.044939745 0.014392586 -0.015897945
0000b0 ec ae 12 bd 48 b2 43 bd c6 18 1c 3c 64 b1 6e 3d
       -0.03581135 -0.047777444 0.009527391 0.05827464
0000c0 6f b8 0f bc 18 cc b9 3d 5f 86 d0 bb b0 f6 26 3d
       -0.008772 0.09072131 -0.0063636745 0.040762603
0000d0 cb 06 dc 3d 92 c8 d5 3d 3b 34 c2 3d 58 0a 22 bd
       0.10743483 0.104386464 0.094826184 -0.039560646
0000e0 3d 6b a8 bd f6 e2 17 bd 5c 0f d0 bd f1 25 f1 bc
       -0.08223579 -0.03708168 -0.101591796 -0.029437037
0000f0 91 d7 b1 3d af 21 a9 3d e1 35 84 3d 70 8d 24 3d
       0.08683694 0.08258378 0.06455589 0.040173948
000100 3f 66 cf b8 64 2a c4 bd 28 36 cf bd 2b d3 44 bd
       -9.889574e-05 -0.09578398 -0.10117751 -0.048052948
000110 f8 b3 47 bd 86 33 29 bc 5f 9e 09 3d 2b fd bc 3d
       -0.048755616 -0.010327226 0.0335983 0.092279755
000120 12 31 54 3d ca 11 ca 3c e6 7c 66 3d 89 22 0c be
       0.05180461 0.024666686 0.056271456 -0.13685049
000130 65 c3 d0 bd a2 c9 8d bd 00 59 2a bb 72 2d b1 bd
       -0.101935185 -0.06923224 -0.002599299 -0.08651246
000140 9c 55 f7 3c c0 ee e3 3c 86 c9 9b bd 23 65 8d bd
       0.030192189 0.027823806 -0.07606797 -0.06904056
000150 0e 84 cf bc c3 0b d5 3d e6 b4 49 3d 08 9d 27 3d
       -0.025331523 0.10402634 0.049244784 0.04092124
000160 12 46 16 bd 2c 3f 42 3d cb ed 28 bb 8a f2 45 bd
       -0.036687918 0.047423527 -0.0025776501 -0.048327006
000170 30 ca 88 3c 55 e1 b5 3d 1d 27 b2 3d a3 95 c8 bc
       0.016697973 0.08880869 0.086988665 -0.024485415
000180 f2 7e 86 3d d9 37 8a bd 11 b5 73 bd 44 cc 98 bd
       0.06567182 -0.06748933 -0.05949885 -0.074608356
000190 e4 70 a0 bd 54 87 81 3c 6e 98 88 bd be 9f 65 bd
       -0.07834032 0.0158116 -0.06669699 -0.056060545
0001a0 7d 03 2b bd 93 5c 99 bd 18 97 9f 3c cf 96 12 bc
       -0.041751374 -0.0748836 0.019481227 -0.008947088
0001b0 73 32 9c 3d b3 9f b1 3d e4 40 ca bd a2 3a 84 bd
       0.0762681 0.08673038 -0.09875658 -0.06456496
0001c0 65 52 18 be 83 1f 66 bd bf 06 be bd e9 5b 18 3d
       -0.14875181 -0.056182396 -0.092786305 0.037197027
0001d0 c1 c1 be 3d b7 bd 9d 3d 1c 2d ca 3d 6c e7 07 3d
       0.093142994 0.07702201 0.09871885 0.033179685
0001e0 38 f8 e3 bc 3a fb 17 be a5 d8 90 bd 8f d4 1b bd
       -0.02782832 -0.14841929 -0.07072572 -0.03804451
0001f0 e1 6e c8 bd d9 b7 6a bd a6 aa f9 bc 6b e9 8e bd
       -0.097867735 -0.057304237 -0.03047688 -0.06978115
000200 4e bc 9c bd a9 b7 0b bb 57 aa 65 bd 96 b2 a8 bc
       -0.07653104 -0.0021319187 -0.05607065 -0.020592969
000210 28 94 dd bd ae 93 fb bd 8c 88 2c bd db a0 14 bd
       -0.10819274 -0.12284027 -0.04212241 -0.036286216
000220 a8 ba d3 3d 51 46 1f 3d 8a 7c 81 3d e6 ce c0 3d
       0.10338336 0.03888542 0.06322582 0.09414463
000230 cb 61 06 bd bb f0 08 3d 4a d6 5d 3d 82 ab 83 3c
       -0.032808106 0.033432703 0.05415944 0.016072992
000240 6a 6b cc 3d b1 c3 8d 3c 77 23 55 3d 1c 8d ac 3d
       0.09981425 0.017305227 0.052035775 0.08425352
000250 41 b9 d6 bc e0 51 fd 3c 3a 95 fb ba 1c 12 f1 bd
       -0.026211383 0.03092283 -0.0019194253 -0.11771032
000260 29 92 fc bd e6 7c a2 bd e4 23 95 bd 88 bc 90 bc
       -0.12332565 -0.07933979 -0.07282236 -0.017668024
000270 8d 03 3e bd d5 7f ae 3d 59 73 8a 3d 87 c8 82 3d
       -0.046390105 0.08520476 0.06760282 0.06385904

exp_avg f4 [8, 3, 5]
000000 ad 88 77 3a fd d2 47 3a b0 00 37 3a 47 93 9d 39
       0.00094426685 0.0007622687 0.00069809984 0.00030055104
000010 f8 05 b6 39 33 c7 33 bb 60 36 86 3a 5a 16 47 3a
       0.00034718192 -0.0027431964 0.0010239594 0.0007594578
000020 f6 fa 8d 37 4d 53 11 3b a6 38 5e b8 7f 2e 67 38
       1.6925373e-05 0.0022174895 -5.2981683e-05 5.5117995e-05
000030 52 64 35 39 1c 0a 25 39 be ac 88 39 56 8b 0d 3c
       0.00017298877 0.00015739392 0.00026068644 0.008639177
000040 ae 1a b9 3b 48 4c 2e bb fe 8c e6 b8 0a 7b b7 3b
       0.0056489324 -0.002659576 -0.000109935165 0.005599384
000050 54 3e e3 3b 7e 12 b2 3b bf 85 75 bc 69 52 83 b8
       0.0069349203 0.0054343333 -0.014985501 -6.261917e-05
000060 ed da 87 3a 36 c7 83 3b cc 92 95 3b 71 23 86 3b
       0.0010364928 0.0040215505 0.0045646187 0.0040935804
000070 fd 98 47 3b 97 d5 04 3b 0f b4 2d bb f2 10 75 b9
       0.0030456178 0.002026891 -0.0026505028 -0.00023371333
000080 21 fe 59 3b b0 31 41 3b 1f 25 38 ba 34 72 5f 3a
       0.0033263045 0.002947908 -0.00070245744 0.00085237925
000090 59 c5 4e bc 85 f1 eb ba 56 a5 c6 38 4f 39 25 bc
       -0.012620294 -0.0018001056 9.472172e-05 -0.010084464
0000a0 5b f1 03 bb 60 4e 2c bb 9f b2 24 bb 13 ba fc ba
       -0.0020132873 -0.0026291832 -0.002513088 -0.0019281529
0000b0 96 ae 95 ba 9f df d3 bb c6 5b 1a bc f0 79 0a 3b
       -0.0011419829 -0.0064658667 -0.009421295 0.002112981
0000c0 4e e7 bd 39 fa e1 27 bb 86 3e 9e bc c4 eb 2f 3c
       0.00036221225 -0.002561687 -0.019316923 0.010737363
0000d0 62 d9 19 bc 1f 72 e2 bd 1a 5b 84 3c 9a 7b 33 bc
       -0.009390207 -0.11056923 0.016156722 -0.010954762
0000e0 b6 21 4c bc c7 bb 5a bc a4 cd 47 bc 5f e8 1d bc
       -0.012459209 -0.013350434 -0.012195025 -0.009637921
0000f0 9a e0 19 bb 13 6c 15 bb ed 78 80 3a 94 4e 40 ba
       -0.002347982 -0.0022800013 0.0009801664 -0.0007335928
000100 1e a7 60 bb d5 f2 4a 3a 12 e5 fc bb a8 7c 0d 3b
       -0.0034279297 0.0007741873 -0.007717737 0.0021589193
000110 82 bf 3b 3b a8 63 b7 3b 81 a2 01 bb da 64 0d bb
       0.0028648083 0.0055965967 -0.0019780698 -0.0021575005
000120 33 7b 00 bb 99 69 cd ba f9 30 a0 ba cc 00 5a 3c
       -0.0019604682 -0.0015671729 -0.0012221626 0.013305854
000130 59 28 cd 3a 92 13 d6 bb af 5d 52 3b c4 64 f6 3b
       0.0015652283 -0.0065330947 0.0032099297 0.0075193364
000140 9f 28 f6 bb 0d 23 e6 3b 72 68 c6 3c 80 cd df 3b
       -0.0075121666 0.0070232213 0.024219725 0.0068299174
000150 f4 eb 75 3c 84 f8 9f 3b c9 94 b9 3b d2 da 98 3b
       0.015009869 0.0048819203 0.0056634885 0.0046647573
000160 5a ae 2e 3b db 7e 9f 3a 7e 1c 52 ba d2 f8 5b 38
       0.0026654215 0.0012168543 -0.000801511 5.24454e-05
000170 77 a4 34 b9 6d 84 4c 39 0d 67 1f 36 61 ad 7c bb
       -0.00017227406 0.00019504289 2.375283e-06 -0.003855549
000180 fd e7 a4 3a 24 ea ea 3a 36 4d b0 3b 4c 55 60 3a
       0.0012581345 0.0017922563 0.005380298 0.0008557632
000190 ea ef cb ba 6d a4 b4 ba 5a 82 b0 ba 7a 04 81 ba
       -0.0015559171 -0.0013781913 -0.0013466582 -0.0009843253
0001a0 4c cf 2c ba c7 33 cd bb f0 23 7d ba 6b 8f 2a 3b
       -0.0006592169 -0.006262276 -0.0009656539 0.0026025425
0001b0 d3 df 02 3a 8e 7a 8f ba 1d a9 81 3b bb c0 3d bb
       0.0004992459 -0.0010946558 0.0039569275 -0.0028953988
0001c0 cf d0 80 bc d1 64 23 3c 64 f4 c9 ba 9f ee 3a bb
       -0.015724568 0.009972767 -0.0015407917 -0.0028523577
0001d0 f1 3f 73 bb 29 f5 5a bb 4d 9c 13 bb 14 db b2 ba
       -0.003711697 -0.0033410287 -0.0022523582 -0.0013645613

exp_avg_sq f4 [8, 3, 5]
000000 bb e9 06 35 05 cf 2a 35 7b 2e 7d 35 75 9f ef 35
       5.025901e-07 6.363119e-07 9.431748e-07 1.7853296e-06
000010 f5 28 1c 36 75 60 0c 37 7f 80 b6 36 1d a2 20 37
       2.3269652e-06 8.367108e-06 5.4389816e-06 9.574488e-06
000020 be 81 8c 36 39 4a 34 37 22 96 20 33 80 bb 5d 33
       4.187429e-06 1.0746117e-05 3.7389448e-08 5.1626103e-08
000030 93 8f 71 33 47 ad 7c 33 da 6d 15 33 51 27 da 36
       5.6242765e-08 5.8830917e-08 3.4791675e-08 6.5014833e-06
000040 b6 62 7d 36 c6 8f 06 37 65 e5 fe 36 a3 82 f5 36
       3.7757395e-06 8.020497e-06 7.596495e-06 7.316777e-06
000050 58 40 e0 38 1e 8f a0 38 8b 82 53 39 4a 4f bd 38
       0.00010693137 7.656052e-05 0.00020171159 9.026991e-05
000060 38 50 d9 38 c4 7f 8a 35 1c cd a7 35 51 99 89 35
       0.00010362308 1.0318986e-06 1.2502164e-06 1.0251916e-06
000070 f9 e5 25 35 16 17 a2 34 85 a2 1d 36 d9 a4 60 36
       6.1801944e-07 3.019165e-07 2.3489422e-06 3.3474555e-06
000080 ac 2e cd 36 aa d9 e5 36 f6 d4 f4 36 97 4d dc 37
       6.1149094e-06 6.8500713e-06 7.2965586e-06 2.6262174e-05
000090 fe fd f3 37 f3 7d be 37 05 06 9b 37 04 70 d6 37
       2.9086132e-05 2.2708415e-05 1.8480243e-05 2.556295e-05
0000a0 10 dd 0c 35 fb 5c 45 35 05 1d 39 35 06 18 09 35
       5.247575e-07 7.3523523e-07 6.89601e-07 5.1071436e-07
0000b0 fa f4 93 34 34 c6 f8 37 f9 dd e4 37 79 4d f4 37
       2.7559128e-07 2.96562e-05 2.7283082e-05 2.9123143e-05
0000c0 ad a7 12 38 2b fe 09 38 87 a2 af 39 10 52 d6 39
       3.4965273e-05 3.2900058e-05 0.00033499693 0.00040878402
0000d0 25 63 3c 39 6e 1c c2 39 a1 86 6d 39 ff c3 8c 36
       0.00017966011 0.00037023745 0.00022652234 4.195142e-06
0000e0 96 52 ba 36 e9 57 d6 36 0c 2d b3 36 5f 61 61 36
       5.5528462e-06 6.387931e-06 5.33986e-06 3.358429e-06
0000f0 1e b0 b3 35 ef 82 b2 35 43 84 e2 35 71 3d d4 35
       1.3387796e-06 1.330014e-06 1.6876805e-06 1.5813113e-06
000100 33 1c b5 35 b8 73 07 38 69 2c ab 37 9a fc 8a 37
       1.3493758e-06 3.229428e-05 2.0405469e-05 1.6568509e-05
000110 72 93 72 37 75 5f a8 37 c9 a6 7e 34 b3 5f 96 34
       1.4458654e-05 2.0071611e-05 2.371627e-07 2.8009308e-07
000120 39 cc 84 34 13 63 37 34 46 8e cb 33 35 e8 86 37
       2.4735508e-07 1.7079246e-07 9.4788035e-08 1.6082175e-05
000130 81 c6 75 37 98 d6 23 38 64 8f dd 37 e2 51 9a 37
       1.4649356e-05 3.9062084e-05 2.6412024e-05 1.839636e-05
000140 02 f4 5d 39 d1 58 5f 39 ba 90 51 39 91 06 b4 38
       0.00021167102 0.00021300024 0.00019985708 8.584292e-05
000150 3c 7d 98 39 80 bd f2 35 b8 17 1d 36 15 30 d1 35
       0.00029085006 1.8085557e-06 2.340863e-06 1.5585707e-06
000160 d2 15 1a 35 41 7c 46 34 59 6e 84 35 f5 e9 d9 35
       5.7401223e-07 1.848539e-07 9.866882e-07 1.623585e-06
000170 c9 fc 1a 36 cc 17 4a 36 ba c0 5a 36 2c 30 90 37
       2.3094929e-06 3.0114197e-06 3.2596713e-06 1.718857e-05
000180 4f af 30 37 af 71 93 37 0c 6e f9 37 b9 ee 69 37
       1.0531235e-05 1.7576704e-05 2.9734358e-05 1.3943464e-05
000190 62 9b 78 34 08 f6 53 34 59 15 53 34 a0 98 1d 34
       2.3153328e-07 1.9740412e-07 1.9658673e-07 1.4677289e-07
0001a0 25 0b 9a 33 d9 5f 96 36 a6 16 91 36 18 b2 bf 36
       7.173211e-08 4.4815065e-06 4.3239734e-06 5.7129764e-06
0001b0 ae 91 7f 36 e8 85 46 36 83 d0 96 37 38 53 0a 38
       3.8082758e-06 2.9582243e-06 1.797849e-05 3.2979267e-05
0001c0 2c 57 35 38 0b 41 89 37 c1 22 82 37 76 64 1b 35
       4.3234948e-05 1.636196e-05 1.5513391e-05 5.788819e-07
0001d0 e7 37 5f 35 a4 67 31 35 e7 82 b4 34 34 7d 21 34
       8.315532e-07 6.6088455e-07 3.3622857e-07 1.5039842e-07

exp_avg f4 [8]
000000 a1 b0 13 2e 83 75 33 af cf 8d ce 2d 2a 5f 4a 2e
       3.358081e-11 -1.6321704e-10 2.3482464e-11 4.6014005e-11
000010 14 08 92 2e 30 f0 3d 2e d9 b9 ac ad 18 26 f3 2b
       6.640746e-11 4.3186954e-11 -1.9636669e-11 1.7276762e-12

exp_avg_sq f4 [8]
000000 ca 78 4d 1c 19 1b fd 1d f9 7a 17 1d 0d 65 2c 1f
       6.7984926e-22 6.699656e-21 2.0048259e-21 3.6506004e-20
000010 b6 9f 3b 1d 00 56 55 1e 93 d9 c0 1c 8a f9 76 1d
       2.4831813e-21 1.12939105e-20 1.2761736e-21 3.2686838e-21

exp_avg f4 [8]
000000 a4 df 99 ba c3 2e bd ba f0 f5 c4 39 1b 96 a0 ba
       -0.0011739624 -0.0014433492 0.0003756727 -0.0012251766
000010 7e ef 6a 3b 2b 60 0f 3b 63 d1 48 3b f7 19 ef ba
       0.0035848315 0.002187739 0.0030642382 -0.0018241991

exp_avg_sq f4 [8]
000000 70 4e c8 35 83 18 88 37 6e 2a 6a 36 73 08 4a 37
       1.492399e-06 1.6223878e-05 3.4893415e-06 1.20421055e-05
000010 10 ed 1e 36 9b 71 36 37 5c ef 43 36 e3 15 a4 36
       2.3681823e-06 1.0874496e-05 2.919659e-06 4.890129e-06

exp_avg f4 [8]
000000 1e bd 0e bb 5a 5f e0 bb e5 c0 e9 ba 7c c2 de bc
       -0.0021780203 -0.0068473043 -0.0017833976 -0.027192347
000010 e7 74 c4 ba e5 f0 43 bc e3 78 9a 3b cc c1 1c b9
       -0.0014988453 -0.011959289 0.004714118 -0.00014949514

exp_avg_sq f4 [8]
000000 18 a1 12 36 07 49 8b 37 27 46 78 37 70 37 1e 38
       2.1849464e-06 1.6604097e-05 1.47982855e-05 3.7721766e-05
000010 16 1d 7f 36 87 17 b6 37 0d bd 10 37 bd af 87 36
       3.8014891e-06 2.1707046e-05 8.627086e-06 4.043772e-06

exp_avg f4 [16, 8, 5]
000000 2c 0c 3c bb 8b eb 13 ba 88 d3 cd ba 5a a1 9c b9
       -0.0028693778 -0.00056427036 -0.00157033 -0.00029874855
000010 a3 b7 15 bb 41 92 35 3a 57 51 6a 3b 98 71 5b ba
       -0.0022845052 0.00069263956 0.0035754049 -0.0008371114
000020 61 a9 59 3a 40 13 00 3b df 09 c6 3a 21 0c 13 ba
       0.00083031325 0.0019542724 0.0015109143 -0.00056094123
000030 8b 91 9f ba 25 70 eb ba 5b 98 c6 39 91 80 ce 3a
       -0.0012174112 -0.0017962499 0.00037879017 0.0015754869
000040 18 bf a4 3a 5a 6b 3e 3a c5 7c 3d 3b a0 eb c0 3a
       0.0012569157 0.00072639214 0.002891348 0.0014718659
000050 5a 64 36 ba cf 9b 93 b9 d6 6d e6 ba 34 e6 8a b9
       -0.00069577026 -0.0002815411 -0.0017580341 -0.00026492926
000060 65 4d 00 3a 04 b4 a8 3a 1d 01 16 3b e5 a7 29 3b
       0.0004894345 0.0012871032 0.0022888847 0.0025887426
000070 a0 b9 bd 3a 55 a9 87 ba cd d7 39 3b 49 12 01 3b
       0.0014474876 -0.0010350147 0.0028357387 0.0019694737
000080 31 93 b9 ba a0 ca 23 bb a2 e3 c2 ba 46 09 12 3a
       -0.0014158246 -0.00249926 -0.0014868865 0.000557084
000090 ed 5a 57 3a f9 89 38 ba 88 77 0a ba a4 e8 98 ba
       0.0008215148 -0.00070396025 -0.0005282094 -0.0011666012
0000a0 96 8d 17 38 3c 4e 52 ba d8 e1 88 3a 1e 0e 4c ba
       3.6133068e-05 -0.0008022522 0.0010443283 -0.0007784086
0000b0 c3 3f 49 3a fc 4d 8e b9 8e 0f 53 3a ce c6 03 3b
       0.0007677043 -0.00027142453 0.0008051329 0.002010751
0000c0 6e 26 bb b9 0c b9 f0 b8 e9 e9 e5 39 68 75 76 3a
       -0.00035696052 -0.000114785595 0.0004385256 0.000940165
0000d0 55 c2 9e 3a d8 3f 52 ba 6b cb 81 39 50 9b 1c 39
       0.0012112359 -0.0008020378 0.00024756356 0.00014935178
0000e0 04 d0 c9 b9 aa 3d ab 3a c7 49 36 39 aa ab a5 b8
       -0.0003849269 0.0013064642 0.00017384357 -7.899788e-05
0000f0 e8 1a 2e ba cf 40 8c b9 be 2f b8 3a c3 a0 b5 ba
       -0.00066415826 -0.00026751167 0.0014052314 -0.0013857115
000100 72 1d 6c b9 cd 5f 11 b9 be 71 ae ba f1 43 53 b9
       -0.00022517683 -0.00013863966 -0.0013309044 -0.00020147838
000110 15 42 15 3a c5 45 50 3a 07 8e 06 3a 58 20 69 39
       0.0005693746 0.0007944967 0.0005132858 0.0002223266
000120 18 aa 8e 39 fb 8d 71 39 78 77 b2 b9 39 44 12 3a
       0.0002721108 0.00023036443 -0.00034039817 0.0005579624
000130 6f 64 3e ba 00 32 dd b9 d0 77 06 3a 12 c1 a4 3a
       -0.00072628906 -0.00042189658 0.0005129548 0.0012569746
000140 18 28 a1 ba 55 af 12 ba c4 21 98 b9 b2 07 9d 3a
       -0.0012295274 -0.00055955845 -0.00029016857 0.0011980443
000150 9e 91 6e ba d6 6c 86 39 0d 4e 70 ba 3c ff 52 ba
       -0.0009100678 0.0002563956 -0.0009166904 -0.0008048897
000160 6f 9c 10 3a 61 8a 63 ba 9b 88 c0 39 d9 b8 fe b9
       0.00055164745 -0.0008679983 0.00036722873 -0.00048584378
000170 7a f2 bb b9 ae b2 83 ba ff 4a d4 b9 dd 5b 01 3b
       -0.0003584808 -0.0010047758 -0.00040491667 0.0019738593
000180 0d ee b4 38 7b 9f 5a bb f5 2e 52 bb 46 97 1f b9
       8.627409e-05 -0.0033359218 -0.0032071446 -0.00015219775
000190 9f 44 3c ba 50 e5 da ba 50 ff ea b8 93 b2 e8 39
       -0.0007181856 -0.001670042 -0.00011205545 0.00044383536
0001a0 ad 12 e6 ba 90 3a 5a 3a 3c 89 63 3a e4 8f 0b 3b
       -0.0017553173 0.00083247665 0.00086798123 0.0021295482
0001b0 cd 78 85 39 26 65 48 3a 7d d0 04 3a a2 b7 47 3a
       0.0002545774 0.0007644467 0.00050664676 0.0007618611
0001c0 45 9d 87 ba 5c ef 30 3a 48 d2 6c 39 e6 c8 3b 3a
       -0.0010346553 0.00067495345 0.0002258505 0.000716342
0001d0 9d 7f d0 3a d6 1f f7 b7 6a 07 bf ba 15 da 92 ba
       0.0015907172 -2.945952e-05 -0.0014574353 -0.001120391
0001e0 8d 12 2d 3b bf 20 56 3b 57 4b 24 3b d2 50 6a 3a
       0.0026408762 0.0032673327 0.002506932 0.0008938435
0001f0 90 3a 53 bb b7 7a 24 3b a7 c9 1d 3b 1f 7d 83 3b
       -0.003223095 0.0025097558 0.0024076493 0.0040127183
000200 66 33 b7 3a db 77 7e ba b5 b2 21 b9 ef 1c ed ba
       0.001397711 -0.0009707191 -0.0001542073 -0.0018090288
000210 67 1b 67 b9 5a ce b8 ba 19 d4 64 3b 1c 31 5c 39
       -0.00022040085 -0.0014099583 0.003491646 0.0002099913
000220 d7 e4 be ba 70 95 6d ba c2 e0 e5 3a 2a ab 3f 3b
       -0.0014564049 -0.00090631004 0.0017538297 0.002924631
000230 a7 c2 f0 3a bd ed 03 3a 2e ce 72 3b 86 6f ed 3a
       0.0018368558 0.0005032679 0.0037049162 0.0018114902
000240 55 c5 b4 39 11 64 f9 3a 94 a6 3a 3b 45 45 19 3b
       0.000344793 0.0019027014 0.0028480636 0.0023387235
000250 a9 6e 21 bb c5 6a e0 bb d2 4b 04 3b 65 9a fc 3a
       -0.002463261 -0.0068486654 0.0020186794 0.0019272087
000260 f2 3e 2f ba 3f 7e b0 3a 75 c1 15 3a c1 3b 5e 3a
       -0.00066851 0.0013465359 0.0005712726 0.0008477532
000270 0f 93 ce 3a 2e 8f d6 b9 f5 77 21 bb db 5b 3b bb
       0.001576038 -0.00040923938 -0.002463815 -0.0028588686
000280 53 39 14 3a 9d 7e f9 b9 95 b1 b2 3b f1 13 e9 ba
       0.0005654294 -0.00047587315 0.0054532983 -0.0017782432
000290 36 2e 5b ba 6a e2 1b 3a ba 19 cd 3a ca 06 39 3b
       -0.0008361073 0.0005946519 0.0015647926 0.0028232806
0002a0 ec ce 57 ba 3a b0 02 bb 85 45 48 bb d7 73 2a 3b
       -0.0008232433 -0.0019941465 -0.0030559015 0.0026008987
0002b0 90 61 7a 3a 36 35 09 bb 18 33 6f ba 10 44 94 3a
       0.0009551281 -0.0020936257 -0.000912474 0.0011311788
0002c0 6d 81 0a bb 69 79 65 bb 87 24 02 bb de 60 b5 ba
       -0.0021134273 -0.0035014993 -0.0019858198 -0.0013838073
0002d0 aa 3a 79 3a a7 64 87 ba 0b b5 3f 3b c6 e6 6b bb
       0.0009507338 -0.0010329679 0.0029252197 -0.0035995706
0002e0 05 47 a0 b9 f3 0c 10 bb 17 97 e8 3a 4c a8 88 39
       -0.00030570492 -0.0021980375 0.0017745224 0.00026065332
0002f0 b1 4f 0d 3b df 14 e3 ba 3b 43 06 3b c8 aa e6 39
       0.0021562392 -0.0017324946 0.002048685 0.0004399626
000300 3f a8 a8 ba 59 d8 2f ba d2 1d 70 bb 57 d8 64 ba
       -0.0012867524 -0.00067079585 -0.0036638868 -0.0008729747
000310 25 88 86 ba 03 8b 5f bb c1 60 18 ba 63 83 2d 3a
       -0.0010263963 -0.0034109957 -0.00058127573 0.00066190044
000320 65 58 1f 3c 41 cf 8a 3b fa 45 dc 3b e2 40 a8 3b
       0.009725665 0.0042361324 0.006722209 0.0051346878
000330 37 e4 ec 3b cf b7 b9 3b 1a ca 1b 3a d4 c0 a4 3a
       0.0072293538 0.0056676636 0.0005942896 0.0012569674
000340 d6 41 c5 3a 38 e9 b5 ba fe 16 0d 3c f5 02 4f bb
       0.0015049528 -0.0013878709 0.008611439 -0.0031587456
000350 07 dd 93 b9 ac ba 14 3b e4 43 a5 3b 0a 04 9c ba
       -0.00028202703 0.0022694273 0.0050434936 -0.0011903059
000360 42 42 89 bb 3b 1a 53 ba fa 4f 0c bb 35 74 9a 39
       -0.0041888067 -0.000805292 -0.0021409974 0.0002945975
000370 8e 13 bf 3b 58 58 e8 3a 48 57 cc 39 20 25 ad 3b
       0.0058311885 0.0017726524 0.00038974942 0.0052839667
000380 29 29 b2 3b 60 64 70 bb 94 c5 ec bb 18 a9 f3 3a
       0.0054370356 -0.0036680922 -0.0072257016 0.0018589823
000390 1d cd 19 bb f6 35 72 bb 52 16 46 bc 08 4d fc bb
       -0.0023468204 -0.0036958433 -0.0120902825 -0.0076996125
0003a0 05 4c ab bb 92 da 10 ba 0f 09 a5 3b df e8 91 3b
       -0.005227568 -0.00055257336 0.0050364803 0.004452809
0003b0 8d fd f6 bb 0c 27 39 3b 9d d3 3a 3b 29 74 e9 3a
       -0.00753755 0.0028252034 0.002850748 0.0017811108
0003c0 28 6b e3 ba 3a 39 86 39 2f 09 ae ba 60 27 0f ba
       -0.0017350661 0.0002560111 -0.0013277883 -0.00054608844
0003d0 c0 2b 21 ba 28 7b d6 ba 7d 01 6d ba 5e 1c a3 ba
       -0.0006148182 -0.0016363608 -0.0009041054 -0.0012444367
0003e0 8d 04 3a 39 f9 f7 a4 ba 64 85 11 3a 0a a4 81 39
       0.00017740038 -0.0012586109 0.0005551188 0.00024727016
0003f0 49 0b 71 3a a0 35 48 b8 14 77 23 3a b9 7f 3a b9
       0.0009195102 -4.7733658e-05 0.00062357006 -0.00017785923
