models/LB_CNNet_5s--epoch=9-val_loss=0.57-train_loss=0.48.ckpt (torch, 60675 bytes, 45 tensors)

model.cnn.0.weight f4 [8, 3, 5]
-0.05721469 0.23574768 -0.13444646 -0.20606253 0.20463802 0.08870178 0.0040016435 -0.020867364
-0.032940492 0.069079116 0.31915218 0.39371428 0.46994826 0.45507175 0.3203597 -0.057253547
0.1529857 -0.26780036 0.039144736 0.0672111 -0.0025708494 -0.0066361595 0.028192023 0.006597494
0.0064831576 0.23310821 0.4827161 0.701306 0.5929667 0.25813445 -0.10820621 0.05598491
-0.25238344 0.0003732797 0.017721854 -0.001176783 -0.0017379369 0.003184227 0.100503966 -0.00017354691
-0.085188165 -0.4036287 -0.58175546 -0.21816163 0.15648523 0.2294496 -0.056938168 -0.042535808
-0.15319909 -0.09685549 -0.09318963 -0.2576812 -0.16312732 -0.042489972 -0.0057214205 0.14963922
0.24185704 0.012096333 0.16528308 0.29671404 0.15486023 -0.080966264 0.070120074 0.05536979
-0.25858265 0.0005321402 0.002404711 0.12490152 -0.0020858622 -0.0035670574 -0.39521295 -0.63384235
-0.6089925 -0.34610686 0.16249436 -0.18726763 -0.2849325 0.056391787 0.37597942 0.28751144
-0.038566023 0.22738995 -0.013496034 0.024365224 0.016711466 -0.1235361 -0.28061 -0.05694014
-0.1024482 -0.10528248 0.22558355 0.25560206 -0.14212558 -0.14139242 0.1711593 0.0002687918
-0.2428891 -0.0059359525 -0.015827576 0.004653534 -0.563935 -0.55133784 -0.37355644 -0.15346934
-0.35681736 -0.15502438 0.32631364 0.065341935 0.077103436 -0.18285564 0.023538664 -0.15488194
-0.13518861 -0.17416924 -0.13067828 0.18483011 -0.41885963 -0.06375027 0.008475288 -0.077810556
00000000: f359 6abd d767 713e 55ac 09be 0e02 53be
00000010: a18c 513e 47a9 b53d 3820 833b 09f2 aabc
00000020: 9cec 06bd 5a79 8d3d ea67 a33e eb94 c93e
00000030: 0f9d f03e 2aff e83e 3006 a43e b282 6abd
00000040: 49a8 1c3e 211d 89be 3b56 203d f9a5 893d
00000050: b27b 28bb 2474 d9bb f5f2 e63c ca2f d83b
00000060: ab70 d43b ebb3 6e3e 9126 f73e ca88 333f
00000070: aacc 173f 332a 843e 389b ddbd 6f50 653d
00000080: 6738 81be c1b4 c339 6c2d 913c 493e 9aba
00000090: 7ccb e3ba 77ae 503b 06d5 cd3d 25fa 35b9
000000a0: 2277 aebd 6ca8 cebe eded 14bf c365 5fbe
000000b0: aa3d 203e d6f4 6a3e ff37 69bd 073a 2ebd
000000c0: 39e0 1cbe 2c5c c6bd 34da bebd caee 83be
000000d0: d90a 27be f709 2ebd c17a bbbb 063b 193e
000000e0: 5fa9 773e b32f 463c f83f 293e e7ea 973e
000000f0: ae93 1e3e a4d1 a5bd 1d9b 8f3d 6fcb 623d
00000100: f264 84be 537f 0b3a 5b98 1d3b 5ecc ff3d
00000110: f6b2 08bb 4bc5 69bb 5a59 cabe 7e43 22bf
00000120: efe6 1bbf eb34 b1be ec64 263e 16c3 3fbe
00000130: ace2 91be 13fb 663d 6080 c03e b334 933e
00000140: 68f7 1dbd e9d8 683e 781e 5dbc 9499 c73c
00000150: 7ce6 883c 7f00 fdbd 1dac 8fbe 103a 69bd
00000160: 5dd0 d1bd 579e d7bd 60ff 663e 46de 823e
00000170: 5e89 11be 2dc9 10be 6244 2f3e a0ec 8c39
00000180: ecb7 78be 6182 c2bb d5a8 81bc ac7c 983b
00000190: 0b5e 10bf 7a24 0dbf ca42 bfbe 1127 1dbe
000001a0: c4b0 b6be b6be 1ebe 9512 a73e fed1 853d
000001b0: 68e8 9d3d 823e 3bbe 28d4 c03c 5f99 1ebe
000001c0: e26e 0abe 6c59 32be 87d0 05be 1b44 3d3e
000001d0: c574 d6be 808f 82bd efdb 0a3c 245b 9fbd

model.cnn.0.bias f4 [8]
0.13105544 -0.017787714 -0.15103202 0.07494853 -0.20900261 -0.19525494 -0.23732366 -0.0038786016
00000000: 6633 063e 8ab7 91bc 23a8 1abe 9d7e 993d
00000010: c804 56be e9f0 47be f904 73be 2330 7ebb

model.cnn.1.weight f4 [8]
0.9530869 1.0519818 1.0287852 0.96617526 1.0288748 1.0000336 1.0051887 0.8778659
00000000: 81fd 733f 57a7 863f 3caf 833f 4357 773f
00000010: 2bb2 833f 1a01 803f 06aa 803f d2bb 603f

model.cnn.1.bias f4 [8]
-0.071235165 -0.004533994 -0.14920379 0.06736291 0.21085413 0.12473434 0.18225308 0.075845025
00000000: bee3 91bd e691 94bb e1c8 18be 91f5 893d
00000010: 25ea 573e b874 ff3d 8da0 3a3e a354 9b3d

model.cnn.1.running_mean f4 [8]
0.75230426 0.004361149 -2.3168569 -0.39065695 -0.9563033 1.1795596 1.5273163 0.98633087
00000000: 0397 403f f8e7 8e3b 6247 14c0 3004 c8be
00000010: 4bd0 74bf cffb 963f 1a7f c33f 2e80 7c3f

model.cnn.1.running_var f4 [8]
27.797022 3.6372979 23.638824 191.9639 33.33471 113.177444 122.04909 165.36269
00000000: 4d60 de41 7dc9 6840 501c bd41 c2f6 3f43
00000010: be56 0542 da5a e242 2219 f442 d95c 2543

model.cnn.3.weight f4 [16, 8, 5]
0.070227936 0.1522631 0.07877336 -0.17075284 -0.053546797 -0.11004847 0.16760536 -0.05200672
0.0783322 -0.08735958 0.023164276 -0.070721045 -0.024233798 -0.01334575 -0.0919713 0.010640198
-0.09155902 -0.04219148 0.15884216 -0.087957725 0.1275305 -0.13619721 0.16517869 0.13534419
0.13576895 0.0049307835 0.13284302 0.08862237 0.1193564 -0.062624805 -0.094077796 0.14643164
-0.13039342 -0.02702624 -0.20289147 0.18136376 -0.070355624 0.13693364 0.07762629 0.07683413
-0.012789127 0.008045696 0.058914635 0.045500677 -0.029696409 0.27611423 -0.015483801 -0.07150842
-0.028044399 0.052170206 -0.13182792 -0.0044908063 -0.07247821 0.09703578 -0.011026507 -0.0852537
-0.05091074 -0.0544076 0.044934757 0.03597885 -0.27157056 0.017907917 0.14751919 0.05453596
-0.12855884 0.024781438 -0.18117392 0.038413066 0.07844492 0.01830302 -0.010929059 -0.112767346
-0.11672828 0.053001974 -0.104979746 0.10278091 -0.13428329 0.0657397 0.013314371 -0.021141378
-0.11279545 -0.016330857 -0.18311611 -0.048733562 -0.25737938 -0.20168512 -0.014040069 -0.07396326
-0.18779524 0.05033556 0.11058211 0.09807603 0.019927783 -0.08953141 -0.17452753 -0.06904917
-0.071273476 0.072418526 -0.04680334 -0.10800904 0.049010195 0.057714473 -0.13797796 -0.13136186
-0.055326223 -0.054250106 -0.049606115 -0.09665761 -0.048105422 -0.22505698 0.10153797 0.070986815
0.031068858 -0.14433272 0.0054701073 0.09786793 0.108209915 0.12880746 0.05453693 0.08535426
0.0993723 -0.16593413 0.17455143 0.14144468 0.13403943 0.09661908 0.06425292 0.0092809955
-0.08164702 0.01754488 0.01758293 -0.040148914 0.051293936 0.034054898 -0.0056011113 0.10111602
0.13545097 0.12639464 -0.034773413 0.040202387 -0.21022588 -0.06180808 -0.0434695 0.047628317
0.002491635 -0.07987154 -0.06615827 0.013129027 0.07395551 0.0477454 0.03677052 -0.12340846
-0.031004557 -0.23457202 0.086710826 -0.17850837 0.019159965 0.084247835 0.026460016 -0.058937322
0.12336466 0.050038084 0.11049921 0.13978899 0.048391126 -0.07781107 0.033570964 -0.078534886
0.14483881 -0.06969205 -0.14967254 -0.10896137 0.1609438 0.128389 -0.05276592 -0.07023199
-0.15751882 0.16189717 -0.01569183 -0.038857866 0.07437263 0.04786082 0.07820589 -0.09025773
-0.051858164 0.1564541 -0.1046348 -0.22657987 -0.0590898 0.048360016 -0.06341887 0.10251215
0.037596863 -0.005476392 -0.08778332 0.0807079 0.107204154 -0.022052236 -0.025247477 0.0605749
-0.0036634111 0.13145457 0.15281594 0.11803053 -0.0354981 -0.08128156 0.08072916 0.16089052
0.11973723 -0.054095894 0.00049818313 0.04547945 0.0017484662 -0.15400685 -0.17161012 -0.049397025
-0.008100135 0.049913414 0.08698233 0.13423106 -0.056815874 -0.088896886 0.11687985 -0.08779819
-0.09112974 -0.08409023 0.120815866 0.032494478 0.077323146 -0.13272633 -0.021688653 -0.03251478
0.10033309 0.081782766 0.0119625935 0.13063201 -0.05734341 -0.028243737 -0.085530415 -0.07900102
0.065846704 -0.04291457 0.036347248 0.078306414 -0.0055961837 0.07988338 -0.043888766 -0.14683342
-0.017877208 -0.007063782 0.10109609 -0.1251005 0.034629222 -0.16052504 0.015447405 0.038472332
00000000: aad3 8f3d dcea 1b3e ed53 a13d d5d9 2ebe
00000010: e353 5bbd 1861 e1bd bda0 2b3e 0005 55bd
00000020: a26c a03d 94e9 b2bd 02c3 bd3c 32d6 90bd
00000030: f585 c6bc 22a8 5abc 735b bcbd 3a54 2e3c
00000040: 4c83 bbbd f9d0 2cbd 85a7 223e 2e23 b4bd
00000050: 5b97 023e 4877 0bbe 9a24 293e ab97 0a3e
00000060: 0407 0b3e 6992 a13b 0008 083e a57f b53d
00000070: 2171 f43d 6f41 80bd dcab c0bd 2df2 153e
00000080: da85 05be 2266 ddbc c8c2 4fbe 6cb7 393e
00000090: 9c16 90bd 5538 0c3e 88fa 9e3d 365b 9d3d
000000a0: 7d89 51bc 18d2 033c 7950 713d eb5e 3a3d
000000b0: e245 f3bc d85e 8d3e c5af 7dbc 0273 92bd
000000c0: 5ebd e5bc 6db0 553d e6fd 06be 9d27 93bb
000000d0: 756f 94bd b2ba c63d 86a8 34bc 7e99 aebd
000000e0: c887 50bd 81da 5ebd 820d 383d 8f5e 133d
000000f0: 4c0b 8bbe a0b3 923c 450f 173e 1961 5f3d
00000100: eea4 03be 7102 cb3c a885 39be 0557 1d3d
00000110: bba7 a03d 37f0 953c cc0f 33bc 91f2 e6bd
00000120: 3d0f efbd 9918 593d 9fff d6bd cc7e d23d
00000130: 8f81 09be 89a2 863d 8524 5a3c af30 adbc
00000140: 4d01 e7bd 4ac8 85bc ca82 3bbe d89c 47bd
00000150: 3bc7 83be 8b86 4ebe 5108 66bc 0d7a 97bd
00000160: 654d 40be a92c 4e3d e078 e23d 16dc c83d
00000170: 973f a33c 3e5c b7bd 58b7 32be a769 8dbd
00000180: d4f7 91bd 2a50 943d dcb4 3fbd d833 ddbd
00000190: eabe 483d 0366 6c3d 184a 0dbe b983 06be
000001a0: c09d 62bd 5c35 5ebd c82f 4bbd 6df4 c5bd
000001b0: 310a 45bd 5675 66be 24f3 cf3d 8961 913d
000001c0: 1e84 fe3c f5cb 13be 963e b33b fb6e c83d
000001d0: 299d dd3d 1ae6 033e 1e62 5f3d 37ce ae3d
000001e0: b483 cb3d a3ea 29be 9cbd 323e e0d6 103e
000001f0: a241 093e 39e0 c53d 0997 833d 510f 183c
00000200: 8e36 a7bd 48ba 8f3c 140a 903c 3073 24bd
00000210: 9719 523d 267d 0b3d 8789 b7bb ea15 cf3d
00000220: a9b3 0a3e 996d 013e 916e 0ebd 42ab 243d
00000230: 7445 57be 782a 7dbd 130d 32bd e915 433d
00000240: b34a 233b b193 a3bd fd7d 87bd 211b 573c
00000250: fd75 973d ae90 433d af9c 163d 93bd fcbd
00000260: 45fd fdbc a633 70be 7295 b13d e6ca 36be
00000270: 5cf5 9c3c 218a ac3d adc2 d83c 4368 71bd
00000280: 9ca6 fc3d bcf4 4c3d 694d e23d d824 0f3e
00000290: c635 463d 695b 9fbd b581 093d e6d6 a0bd
000002a0: a050 143e b5ba 8ebd c243 19be 2427 dfbd
000002b0: 74ce 243e 6878 033e 1421 58bd cad5 8fbd
000002c0: 9d4c 21be 5fc8 253e 278c 80bc 6d29 1fbd
000002d0: ad50 983d b509 443d 692a a03d 0bd9 b8bd
000002e0: 3a69 54bd 8135 203e c54a d6bd 8e04 68be
000002f0: 2508 72bd 2715 463d c1e1 81bd e4f1 d13d
00000300: 2bff 193d 4e73 b3bb bec7 b3bd 2f4a a53d
00000310: da8d db3d e4a6 b4bc ccd3 cebc 631d 783d
00000320: d715 70bb 079c 063e c87b 1c3e feb9 f13d
00000330: 7566 11bd f276 a6bd 5455 a53d 7cc0 243e
00000340: cb38 f53d a893 5dbd 8198 023a a948 3a3d
00000350: ca2c e53a f9b3 1dbe 90ba 2fbe 8954 4abd
00000360: 6eb6 04bc 0272 4c3d cb23 b23d de73 093e
00000370: c3b7 68bd 920f b6bd b45e ef3d 8acf b3bd
00000380: 3ba2 babd 8037 acbd 4f6e f73d ee18 053d
00000390: 995b 9e3d 69e9 07be 67ac b1bc 382e 05bd
000003a0: 6f7b cd3d b97d a73d c1fe 433c 66c4 053e
000003b0: ece0 6abd 695f e7bc 922a afbd 49cb a1bd
000003c0: a3da 863d 30c7 2fbd dae0 143d 1d5f a03d
000003d0: 3160 b7bb e699 a33d b5c4 33bd 805b 16be
000003e0: 3973 92bc 4c77 e7bb 780b cf3d 581a 00be
000003f0: 5fd7 0d3d ad60 24be 1d17 7d3c 2a95 1d3d

model.cnn.3.bias f4 [16]
-0.07149347 0.07867279 0.07322674 0.06502223 -0.063850276 -0.14259012 -0.0058920425 0.08789342
0.024970284 0.06777728 0.01234981 -0.108532324 -0.15295337 0.04737422 0.0357863 0.083156414
00000000: 2b6b 92bd 331f a13d e7f7 953d 602a 853d
00000010: efc3 82bd 2503 12be 0912 c1bb 7701 b43d
00000020: 7b8e cc3c d1ce 8a3d dc56 4a3c 3246 debd
00000030: cf9f 1cbe 780b 423d a894 123d e94d aa3d

model.cnn.4.weight f4 [16]
0.89108825 1.0728755 1.0365512 0.91045684 0.9379174 1.0199611 0.9590836 0.9420832
1.0714768 0.97338367 0.989177 1.0550826 1.0278215 1.0202168 0.94806176 1.0083588
00000000: 5c1e 643f fc53 893f b6ad 843f b313 693f
00000010: 5b1b 703f 168e 823f 8186 753f 5d2c 713f
00000020: 2726 893f ac2f 793f b43a 7d3f f20c 873f
00000030: a88f 833f 7796 823f 2db4 723f e711 813f

model.cnn.4.bias f4 [16]
0.030124558 -0.07466874 -0.0106178615 0.03545315 -0.03322718 0.0003463124 0.029190954 -0.18564783
-0.11406644 -0.08323654 -0.19703844 0.13215123 0.051839802 -0.1422291 0.022920717 -0.025233356
00000000: c7c7 f63c edeb 98bd 8af6 2dbc 5237 113d
00000010: 3919 08bd 4391 b539 de21 ef3c 771a 3ebe
00000020: aa9b e9bd eb77 aabd 72c4 49be a752 073e
00000030: f955 543d 81a4 11be 3ac4 bb3c 2fb6 cebc

model.cnn.4.running_mean f4 [16]
0.15089206 -0.052788097 -0.41209373 0.0924102 0.0039645554 0.0048210053 -0.20968902 0.54671466
-0.24421349 -0.12342005 -0.03968581 -0.31180456 -0.16370766 -0.22089331 0.21712694 -0.15375799
00000000: 7383 1a3e 5538 58bd f3fd d2be 8f41 bd3d
00000010: 1ae9 813b 86f9 9d3b b8b8 56be 7ef5 0b3f
00000020: 1a13 7abe a7c3 fcbd 978d 22bd d9a4 9fbe
00000030: fba2 27be db31 62be 8656 5e3e bc72 1dbe

model.cnn.4.running_var f4 [16]
0.1187974 0.0808467 0.34021553 0.12463342 0.12140623 0.11044808 0.17838348 0.15977612
0.089774095 0.2661638 0.15159945 0.12462808 0.101277426 0.208705 0.25058854 0.10776041
00000000: 0d4c f33d f492 a53d bb30 ae3e ce3f ff3d
00000010: d4a3 f83d 9a32 e23d 29aa 363e 5a9c 233e
00000020: 7bdb b73d 9f46 883e e33c 1b3e 023d ff3d
00000030: 8a6a cf3d c3b6 553e 244d 803e 7db1 dc3d

model.cnn.6.weight f4 [32, 16, 5]
-0.12239809 -0.046529073 -0.11322916 0.018720077 -0.07273677 0.020017307 0.10383903 -0.0059514525
-0.12906674 -0.0025478806 -0.06588966 -0.065624855 -0.08294747 0.04554118 0.074477844 0.04101635
-0.026577687 -0.064491786 0.09454424 0.07911448 -0.09263084 0.012214024 -0.043018628 0.09052925
-0.06985101 -6.8468e-05 0.07213099 0.07936351 0.0004310029 0.06385172 -0.1295622 -0.007745114
-0.036542997 0.15460703 -0.06293728 -0.0013217351 -0.00036206254 0.04009703 0.040660627 0.07149413
-0.010251884 -0.13985157 0.10558517 0.000967687 0.039254833 -0.029196864 -0.11912241 -0.11698945
0.05858043 -0.08124185 -0.04008127 -0.06750897 0.056766264 -0.010621193 0.062581494 0.013120468
-0.13106546 0.022686666 0.10974309 -0.040576674 0.048211064 0.028881662 -0.01682165 0.16785324
0.1331414 -0.02774157 -0.0018076256 0.017701328 -0.10102778 -0.018789575 -0.02968911 0.007090802
0.02461118 0.019975407 -0.09634161 0.0505308 0.131401 0.02706004 -0.030381873 -0.14030655
-0.03486919 -0.04517935 -0.033303656 0.022446452 0.017744116 -0.045038316 0.05857016 -0.051122915
0.062423732 -0.010099886 0.044720635 0.07915432 -0.051514965 0.053874537 -0.06353262 -0.04805041
-0.057000514 -0.06852954 -0.02466124 -0.012568677 0.04013539 -0.033977587 -0.045677427 0.020838112
0.016922085 0.008847607 -0.03191851 -0.024559135 0.05815729 -0.04020082 -0.0914966 0.07000302
0.040465184 0.09257189 -0.07064375 0.0140946945 0.11578464 -0.0100747775 0.12229383 -0.08948867
-0.13007027 -0.018618673 -0.031225482 -0.0061713033 -0.014230837 -0.14187846 -0.024551483 0.085175075
-0.034258645 0.07909916 0.08076781 0.046297755 -0.0050069317 0.04342145 -0.07256188 -0.07539371
0.079726584 0.0038724688 0.014075148 -0.112609886 -0.01485352 -0.019406836 -0.01576259 0.010723256
0.0051609087 -0.26638785 -0.14021285 0.057379078 -0.14617535 0.056911305 -0.086696304 -0.054130938
0.07161852 0.10409703 -0.036074717 -0.006847828 -0.05879327 -0.01168919 0.06588082 -0.05055811
0.014512428 -0.03896636 -0.09075974 -0.16838482 0.085174285 0.02376235 -0.09973035 -0.17332546
-0.05497366 0.07658891 -0.17891537 -0.035787724 0.0037037588 0.044365928 0.18626255 0.053823013
-0.05669651 -0.110838965 -0.14255 0.008728811 0.07704242 -0.0009743541 0.11570579 -0.058341727
-0.05074929 0.081177235 0.03594019 0.0007795367 9.572635e-05 0.06433279 -0.033027533 -0.038906332
0.020650556 -0.043396115 -0.002401261 0.04272409 -0.03953388 0.0069875065 -0.015828859 0.059983123
0.22314103 0.09223049 -0.0051249512 0.10867794 -0.090175785 0.08349803 -0.031319402 0.01214148
-0.029245635 -0.07155681 -0.0076114177 0.05000081 0.031057607 -0.09180461 -0.07189837 -0.12256337
0.062488884 0.063275866 0.040286142 -0.06559315 -0.03755944 0.043348584 0.047013246 0.09976037
0.021327594 0.08718183 -0.09283048 0.027659407 -0.018109564 0.07156883 0.019397326 -0.080397755
-0.013318823 0.016707042 0.021920552 0.058642957 -0.11549855 0.08252837 0.04105929 -0.08512509
-0.12479949 -0.113465704 0.010965771 0.08252235 0.04469155 0.10793685 -0.029487126 0.010985464
-0.1080025 -0.008597156 0.025805332 0.013736769 0.052516457 -0.09598705 -0.07522317 -0.016512262
00000000: daab fabd 4595 3ebd b1e4 e7bd d95a 993c
00000010: 04f7 94bd 56fb a33c 8fa9 d43d 6704 c3bb
00000020: 122a 04be 58fa 26bb 28f1 86bd 5366 86bd
00000030: 5de0 a9bd 6389 3a3d d787 983d c300 283d
00000040: 73b9 d9bc 4514 84bd 69a0 c13d c606 a23d
00000050: 3db5 bdbd 541d 483c 4d34 30bd 6667 b93d
00000060: 0c0e 8fbd 7a96 8fb8 6ab9 933d 5689 a23d
00000070: 3bf8 e139 b1c4 823d f4ab 04be baca fdbb
00000080: 1cae 15bd 4e51 1e3e 43e5 80bd 123e adba
00000090: 36d3 bdb9 c93c 243d c28b 263d 846b 923d
000000a0: 85f7 27bc 4035 0fbe 0a3d d83d 60ac 7d3a
000000b0: adc9 203d 432e efbc 73f6 f3bd 2a98 efbd
000000c0: 08f2 6f3d 2162 a6bd 422c 24bd 2542 8abd
000000d0: be83 683d 8304 2ebc ba2a 803d 3bf7 563c
000000e0: 0636 06be 63d9 b93c fcc0 e03d ba33 26bd
000000f0: f778 453d 3c99 ec3c 8fcd 89bc b8e1 2b3e
00000100: 3856 083e 4a42 e3bc daed ecba 6002 913c
00000110: a7e7 cebd 98ec 99bc 9436 f3bc f559 e83b
00000120: 639d c93c 77a3 a33c c04e c5bd 62f9 4e3d
00000130: fc8d 063e 04ad dd3c 68e3 f8bc 85ac 0fbe
00000140: ffd2 0ebd fb0d 39bd 6a69 08bd 9fe1 b73c
00000150: 1c5c 913c 197a 38bd 44e7 6f3d 4366 51bd
00000160: 07b0 7f3d fe79 25bc fc2c 373d a91b a23d
00000170: 5b01 53bd 8cab 5c3d 641d 82bd 82d0 44bd
00000180: 5f79 69bd 3759 8cbd 5e06 cabc daec 4dbc
00000190: 0265 243d 152c 0bbd 4118 3bbd b0b4 aa3c
000001a0: 2fa0 8a3c 8ef5 103c fcbc 02bd 3d30 c9bc
000001b0: 5736 6e3d 9da9 24bd 9262 bbbd be5d 8f3d
000001c0: d2be 253d 5596 bd3d acad 90bd 6fed 663c
000001d0: 7f20 ed3d ae10 25bc 3075 fa3d d645 b7bd
000001e0: 2431 05be 3086 98bc 95cc ffbc a538 cabb
000001f0: 7528 69bc 9648 11be 3120 c9bc 4570 ae3d
00000200: cb52 0cbd befe a13d 9869 a53d b7a2 3d3d
00000210: 3011 a4bb b1da 313d 539b 94bd 0468 9abd
00000220: b147 a33d 3fc9 7d3b 739b 663c 03a0 e6bd
00000230: 2e5c 73bc 16fb 9ebc 8c20 81bc 98b0 2f3c
00000240: d71c a93b fd63 88be f593 0fbe 5306 6b3d
00000250: feae 15be d41b 693d d58d b1bd 67b8 5dbd
00000260: bbac 923d d330 d53d 15c3 13bd bf63 e0bb
00000270: 36d1 70bd 0484 3fbc 86ec 863d 0516 4fbd
00000280: 89c5 6d3c 319b 1fbd 3ee0 b9bd 126d 2cbe
00000290: db6f ae3d 43a9 c23c 6d3f ccbd 3b7c 31be
000002a0: 0f2c 61bd a5da 9c3d 9735 37be 2696 12bd
000002b0: c3ba 723b 0cb9 353d 9cbb 3e3e 8575 5c3d
000002c0: 9a3a 68bd 8aff e2bd a1f8 11be 4903 0f3c
000002d0: 6bc8 9d3d cc6b 7fba 28f7 ec3d bcf7 6ebd
000002e0: 7dde 4fbd 4040 a63d 0536 133d d359 4c3a
000002f0: b1c0 c838 e9c0 833d e147 07bd 3f5c 1fbd
00000300: 5b2b a93c 20c0 31bd 795e 1dbb 75ff 2e3d
00000310: 47ee 21bd 74f7 e43b 86ab 81bc ddb0 753d
00000320: 157f 643e 57e3 bc3d 35ef a7bb 8a92 de3d
00000330: 15ae b8bd 0401 ab3d c648 00bd 0fed 463c
00000340: 8b94 efbc 608c 92bd 3369 f9bb a6cd 4c3d
00000350: 866c fe3c 0e04 bcbd 743f 93bd 8102 fbbd
00000360: 58f4 7f3d c796 813d 1503 253d b455 86bd
00000370: edd7 19bd 498e 313d f690 403d 2a4f cc3d
00000380: 35b7 ae3c 638c b23d e81d bebd fb95 e23c
00000390: 825a 94bc ae92 923d 24e7 9e3c 94a7 a4bd
000003a0: 3137 5abc 35dd 883c bb92 b33c 9933 703d
000003b0: 818a ecbd a204 a93d c92d 283d 1056 aebd
000003c0: e096 ffbd b560 e8bd c7a9 333c 7a01 a93d
000003d0: 7d0e 373d ff0d dd3d fc8e f1bc 60fc 333c
000003e0: 6a30 ddbd 16db 0cbc b465 d33c 2f10 613c
000003f0: 7f1b 573d dc94 c4bd 9b0e 9abd b944 87bc

model.cnn.6.bias f4 [32]
0.03686757 -0.051320136 0.013418181 0.07162363 0.06783795 -0.07049636 0.061876334 0.103580154
0.08200932 -0.058579594 -0.10522175 0.06512588 -0.05892845 -0.06342891 0.101163276 0.113254815
0.079683825 -0.045328278 0.055274367 0.086030334 -0.07753492 -0.036346704 -0.09411944 0.107529216
0.044487633 0.10011757 -0.049418315 0.030742697 0.021377273 -0.046176758 0.08445422 0.01714633
00000000: 7302 173d 1035 52bd eed7 5b3c 69af 923d
00000010: a0ee 8a3d 6560 90bd 0a72 7d3d d521 d43d
00000020: 81f4 a73d 28f1 6fbd 807e d7bd b860 853d
00000030: f55e 71bd 04e7 81bd b12e cf3d 24f2 e73d
00000040: 4631 a33d 25aa 39bd 6067 623d ac30 b03d
00000050: a1ca 9ebd 48e0 14bd b1c1 c0bd 4738 dc3d
00000060: aa38 363d 710a cd3d dc6a 4abd 1cd8 fb3c
00000070: 641f af3c d723 3dbd 56f6 ac3d 7676 8c3c

model.cnn.7.weight f4 [32]
1.1494104 1.1675795 1.2582574 1.0797944 1.1261963 1.0051528 1.1260262 1.0698518
1.1436255 1.1279082 1.164627 1.2898694 1.1515034 1.2897627 1.0227848 1.2057483
1.2316524 1.1382111 1.2602041 1.2103616 1.1877633 1.1321541 1.1502177 1.2705508
1.1737717 1.1352674 1.0895293 1.1742914 1.1460581 1.1796784 1.0917107 1.1381387
00000000: e11f 933f 3f73 953f 940e a13f b436 8a3f
00000010: 3327 903f d9a8 803f a021 903f e7f0 883f
00000020: 5262 923f 4c5f 903f 7f12 953f 711a a53f
00000030: 7764 933f f216 a53f 9dea 823f f655 9a3f
00000040: c9a6 9d3f e7b0 913f 5e4e a13f 21ed 9a3f
00000050: a108 983f 6dea 903f 553a 933f 69a1 a23f
00000060: 273e 963f 7150 913f b275 8b3f 2e4f 963f
00000070: 08b2 923f b4ff 963f 2dbd 8b3f 87ae 913f

model.cnn.7.bias f4 [32]
0.029800268 0.07932931 0.018495863 -0.009891016 0.057521563 -0.046203163 0.030870633 -0.04918436
0.0050055454 0.04891855 0.072242804 0.14533398 0.057536144 0.09806817 -0.053281922 -0.0070928535
0.045738198 0.029158749 0.096075825 0.08685856 0.06567567 -0.093785405 0.05925148 0.0901755
0.06534992 0.085319534 -0.0073545785 -0.10402445 0.010516589 -0.116403416 0.059196923 0.057510413
00000000: b11f f43c 6877 a23d a384 973c ee0d 22bc
00000010: bb9b 6b3d 873f 3dbd 69e4 fc3c 8a75 49bd
00000020: 8f05 a43b d15e 483d 09f4 933d 6ed2 143e
00000030: 05ab 6b3d f7d7 c83d 253e 5abd 2b6b e8bb
00000040: fa57 3b3d 54de ee3c 67c3 c43d e7e2 b13d
00000050: f780 863d 9012 c0bd aeb1 723d efad b83d
00000060: 2ed6 853d 02bc ae3d adfe f0bb c50a d5bd
00000070: c54d 2c3c ea64 eebd 7978 723d 0a90 6b3d

model.cnn.7.running_mean f4 [32]
0.014065414 -0.30554554 0.016484832 0.2202208 0.2745724 0.12656845 -0.16671546 0.005221358
0.36667478 -0.20271526 -0.41922438 0.11323208 -0.35014635 -0.16974115 0.21545956 0.43620548
0.11797253 -0.545525 -0.1250227 0.029908283 -0.5165455 0.033458132 -0.40779573 -0.13353191
-0.09619447 -0.19047189 0.15605783 0.06454765 -0.06702473 -0.23433302 -0.26481238 -0.19510481
00000000: 9f72 663c 7770 9cbe 330b 873c 9081 613e
00000010: c194 8c3e 299b 013e 75b7 2abe ed17 ab3b
00000020: ccbc bb3e 9794 4fbe 94a4 d6be 39e6 e73d
00000030: 6246 b3be a0d0 2dbe 6ea1 5c3e 5356 df3e
00000040: 959b f13d 87a7 0bbf f305 00be 3702 f53c
00000050: 533c 04bf 650b 093d 9aca d0be 97bc 08be
00000060: 9b01 c5bd 100b 43be a0cd 1f3e 8f31 843d
00000070: 4344 89bd fff4 6fbe 7d95 87be 8ec9 47be

model.cnn.7.running_var f4 [32]
0.109706305 0.124380074 0.06805597 0.07976378 0.10893102 0.15723166 0.06849338 0.098613754
0.09786395 0.2644814 0.10321851 0.11868965 0.24209157 0.13305365 0.12634638 0.10160876
0.084240384 0.34029183 0.16551217 0.17699149 0.27352384 0.07307393 0.18855307 0.13448375
0.17737263 0.10883266 0.07279145 0.13041659 0.06971526 0.08545237 0.31579298 0.22195198
00000000: b3ad e03d fbba fe3d ee60 8b3d 315b a33d
00000010: 3a17 df3d 5601 213e 4246 8c3d 02f6 c93d
00000020: e56c c83d 1b6a 873e 3a64 d33d 8f13 f33d
00000030: dae6 773e 373f 083e f260 013e 4118 d03d
00000040: 3986 ac3d bb3a ae3e 067c 293e 423d 353e
00000050: 510b 8c3e c9a7 953d 0e14 413e 1cb6 093e
00000060: 2ca1 353e a8e3 de3d af13 953d ed8b 053e
00000070: e0c6 8e3d a701 af3d 9eaf a13e 6147 633e

model.cnn.9.weight f4 [1, 32, 5]
0.05364233 0.004361053 -0.07232166 -0.15206279 -0.16216357 -0.06964026 -0.14026749 -0.11256624
-0.10180354 0.0143020265 0.18257964 0.10901365 0.050248776 -0.09519627 -0.16057703 0.012116449
-0.0233172 -0.010559458 -0.15246052 -0.078665316 -0.01468737 0.08823855 0.12674604 0.026252184
-0.024819044 -0.019266315 0.09403351 0.07144356 0.01660935 0.062776774 0.2160073 0.16345096
0.004072167 0.029540336 0.02033414 -0.08138454 0.050186466 0.12221082 0.1405862 0.118504204
0.05981267 -0.03089641 -0.16158658 -0.012182979 0.011665941 -0.19945239 -0.11669064 -0.02690554
-0.079453625 -0.103762776 -0.09742863 -0.07310764 -0.17365545 -0.09866156 -0.07090322 -0.19267754
-0.11166944 -0.05014005 0.106191374 0.12333491 -0.2208431 -0.12275485 -0.16310766 -0.09295607
-0.039543428 -0.2571472 -0.14201936 -0.09913147 0.0008469405 0.06558413 -0.066817716 0.05958393
0.089803845 0.023867268 0.015754953 -0.15118396 -0.13405247 0.042554945 0.07766582 -0.029913897
0.0927277 0.02897014 -0.020541344 -0.050345242 -0.16774096 -0.0913628 -0.11055718 -0.109881654
-0.14777672 -0.04808449 -0.036558717 -0.14561014 -0.17331432 -0.1266003 -0.037282526 -0.15581173
-0.19108126 -0.06795815 -0.11754563 -0.09937383 -0.07276881 -0.10752087 -0.1582953 -0.009478831
-0.08747635 0.14419836 0.115663655 0.13223085 0.10065062 0.14512809 -0.060362052 -0.085889585
-0.030773677 -0.16071865 -0.14286715 -0.2175126 -0.1053519 -0.16843335 -0.05832604 -0.004499959
-0.18899944 -0.060006723 -0.06334681 -0.14865321 -0.002445795 -0.04316415 -0.1022759 -0.16793182
-0.051324308 -0.1168535 0.06091216 0.019822605 0.16329964 0.09520342 0.09269897 0.06322347
0.15358762 0.10045246 0.13629128 0.0008655252 -0.00046917805 -0.073628314 -0.16834335 0.01826002
0.049957033 0.1834224 0.14084205 0.13557193 0.11783857 0.041899666 -0.088446215 -0.06250414
-0.076600775 -0.1282885 -0.13300145 -0.10680885 -0.15313284 -0.16374874 -0.13422503 -0.06160862
00000000: 0fb8 5b3d 2ae7 8e3b 611d 94bd 59b6 1bbe
00000010: 350e 26be 8d9f 8ebd 48a2 0fbe 2189 e6bd
00000020: 607e d0bd 0c53 6a3c 28f6 3a3e 8c42 df3d
00000030: a9d1 4d3d 43f6 c2bd 4e6e 24be 1284 463c
00000040: b603 bfbc 9401 2dbc 9c1e 1cbe 481b a1bd
00000050: 4ba3 70bc 6ab6 b43d b7c9 013e d20e d73c
00000060: 4f51 cbbc 64d4 9dbc a494 c03d 0051 923d
00000070: 5510 883c 1c91 803d 0531 5d3e b05f 273e
00000080: d06f 853b 93fe f13c c893 a63c f0ac a6bd
00000090: 5390 4d3d ab49 fa3d d4f5 0f3e 55b2 f23d
000000a0: 21fe 743d 781a fdbc f476 25be 1e9b 47bc
000000b0: 8122 3f3c 3f3d 4cbe 81fb eebd 0269 dcbc
000000c0: 95b8 a2bd 9481 d4bd a988 c7bd 75b9 95bd
000000d0: bcd2 31be 120f cabd b535 91bd 434d 45be
000000e0: f3b2 e4bd a75f 4dbd dd7a d93d 0397 fc3d
000000f0: b224 62be e566 fbbd b205 27be c15f bebd
00000100: 4af8 21bd cca8 83be 866d 11be 7105 cbbd
00000110: 3705 5e3a f950 863d bad7 88bd 470e 743d
00000120: 14eb b73d 4a85 c33c 8810 813c f8cf 1abe
00000130: 0d45 09be 184e 2e3d 420f 9f3d fd0d f5bc
00000140: 05e8 bd3d c952 ed3c 5246 a8bc d036 4ebd
00000150: 49c4 2bbe 6b1c bbbd ce6b e2bd a209 e1bd
00000160: c852 17be 3ef4 44bd 98be 15bd d31a 15be
00000170: 4f79 31be 82a3 01be 90b5 18bd 1c8d 1fbe
00000180: ceaa 43be a42d 8bbd c3bb f0bd 8284 cbbd
00000190: d007 95bd e733 dcbd 2a18 22be 194d 1bbc
000001a0: cd26 b3bd bca8 133e 11e1 ec3d 8667 073e
000001b0: ea21 ce3d 759c 143e 333e 77bd e1e6 afbd
000001c0: 1419 fcbc 6e93 24be c44b 12be 9fbb 5ebe
000001d0: bdc2 d7bd cb79 2cbe 49e7 6ebd 6474 93bb
000001e0: 1289 41be 9cc9 75bd f9bb 81bd 8c38 18be
000001f0: a249 20bb e4cc 30bd 0776 d1bd 52f6 2bbe
00000200: 7039 52bd e350 efbd 077f 793d 0463 a23c
00000210: 0538 273e 03fa c23d f5d8 bd3d 4e7b 813d
00000220: 1346 1d3e 05ba cd3d f18f 0b3e 6ae4 623a
00000230: 03fc f5b9 71ca 96bd 3362 2cbe 0a96 953c
00000240: bf9f 4c3d 15d3 3b3e e638 103e 5ed3 0a3e
00000250: 5955 f13d fc9e 2b3d 4a23 b5bd 2c02 80bd
00000260: dee0 9cbd 0f5e 03be 8831 08be 99be dabd
00000270: dbce 1cbe c0ad 27be 4972 09be 5259 7cbd

exp_avg f4 [8, 3, 5]
0.0024483742 0.0042057885 0.0043142918 0.006421342 0.004832855 -0.006268138 0.008911275 -0.016830081
-0.011754383 0.008487132 -0.00014851417 -0.00036834253 -0.0005761244 -0.0005393362 -0.0006418623 0.00035976467
0.0095395995 0.0028577098 0.006421159 0.0069462475 -0.07078817 -0.08926404 0.07480951 -0.009293584
0.0063006612 -0.00056160684 -0.002547859 -0.0029838812 -0.0022662315 -0.0003453571 -0.0025589196 -0.0031549402
-0.004101778 -0.0025258623 -0.003509755 0.012962745 0.048177507 -0.01139742 0.0012924593 -0.044800535
0.00065902533 0.0013616678 0.0011584619 0.0007564271 -0.00011985954 0.004325009 0.004110347 0.0037097014
0.003013553 0.0020063806 0.0004583416 0.00043643292 -0.0007260886 -0.0041276524 -0.0024100498 -0.00014901866
-6.243268e-05 -1.7346358e-05 -0.00016083206 -0.00025574613 -0.0012298931 -0.0034776763 -0.003941602 -0.0038621721
-0.0041174083 0.033536594 0.010418582 0.0025390806 0.0162636 -0.025079045 -6.928427e-06 0.0007709578
0.0013129816 3.9580907e-05 -0.00045728235 0.0007973753 0.00094920874 0.00043499417 0.0006109338 0.0012784615
-0.01052537 -0.0024287747 0.004999562 -0.001014676 -0.0050338744 -2.9581324e-05 -1.8860177e-05 -1.9634803e-05
-0.00011315417 -0.00017455849 -0.0032390277 -0.0035827183 -0.003283733 -0.0033265038 -0.0015919806 -0.0003955179
-0.004615472 0.006898779 -0.0073623643 -0.0022188006 0.00036153104 0.00019783119 2.330931e-05 -4.8075595e-05
8.067839e-05 -0.0017471422 -0.0015863444 -0.0021459619 -0.0014635435 -0.0009096301 0.0066994266 0.0053798608
0.00091768516 -0.0055831512 -0.0012503354 -4.6522193e-05 0.000104272425 2.8382763e-05 -1.8335675e-05 1.058676e-06
00000000: e774 203b b6d0 893b e75e 8d3b 1f6a d23b
00000010: ed5c 9e3b f464 cdbb 9900 123c 3ddf 89bc
00000020: 7595 40bc 9d0d 0b3c 78ba 1bb9 191e c1b9
00000030: 0e07 17ba 3d62 0dba a642 28ba cc9e bc39
00000040: fb4b 1c3c 6a48 3b3b 9668 d23b 599d e33b
00000050: 63f9 90bd 11d0 b6bd ba35 993d 1e44 18bc
00000060: c775 ce3b cc38 13ba fbf9 26bb 388d 43bb
00000070: 0e85 14bb 0c11 b5b9 8cb3 27bb 1dc3 4ebb
00000080: 3568 86bb f088 25bb eb03 66bb b161 543c
00000090: c755 453d 3fbc 3abc bd67 a93a c480 37bd
000000a0: 71c2 2c3a fd79 b23a 88d7 973a f74a 463a
000000b0: 1a5d fbb8 ceb8 8d3b 17b0 863b 761e 733b
000000c0: 087f 453b 7b7d 033b 914d f039 09d1 e439
000000d0: fb56 3eba 4241 87bb edf1 1dbb e441 1cb9
000000e0: 4aee 82b8 0583 91b7 07a5 28b9 aa15 86b9
000000f0: 5d34 a1ba bae9 63bb 8e28 81bb 7f1c 7dbb
00000100: 53eb 86bb ab5d 093d b3b2 2a3c b466 263b
00000110: 3e3b 853c 9272 cdbc bc7a e8b6 1a1a 4a3a
00000120: 5a18 ac3a ad03 2638 66bf efb9 f306 513a
00000130: 52d4 783a ee0f e439 1327 203a 0d92 a73a
00000140: 9a72 2cbc 142c 1fbb 5ed3 a33b e0fe 84ba
00000150: 33f3 a4bb 6925 f8b7 ec35 9eb7 6bb5 a4b7
00000160: 2f4d edb8 b009 37b9 de45 54bb 0acc 6abb
00000170: e633 57bb 7901 5abb 01aa d0ba 845d cfb9
00000180: 633d 97bb 270f e23b fd3f f1bb 4c69 11bb
00000190: e08b bd39 e870 4f39 5d88 c337 c7a4 49b8
000001a0: e131 a938 5d00 e5ba e3ec cfba 44a3 0cbb
000001b0: 5fd4 bfba 3e74 6eba dd86 db3b 8b49 b03b
000001c0: cf90 703a def2 b6bb 4be2 a3ba d320 43b8
000001d0: d5ac da38 8517 ee37 90cf 99b7 d517 8e35

exp_avg_sq f4 [8, 3, 5]
0.00018491215 0.00025196222 0.00026887734 0.00026253183 0.00025279657 0.00089601794 0.002041074 0.0022400897
0.0020439369 0.0007880579 4.287172e-06 4.6867267e-06 4.969398e-06 3.9916695e-06 2.7358167e-06 0.0005607469
0.00081203436 0.0007256166 0.000796051 0.0008133503 0.058584034 0.045977224 0.025377534 0.021734377
0.017822016 5.286464e-06 8.9980485e-06 1.2287127e-05 9.18277e-06 8.004953e-06 4.764196e-05 5.526649e-05
6.0474144e-05 5.8846763e-05 5.5825472e-05 0.0020918783 0.0016811312 0.0008446639 0.00013568801 0.0014187086
8.599635e-07 1.1806678e-06 1.093067e-06 6.5589524e-07 3.8159286e-07 3.786178e-05 3.989605e-05 4.3224278e-05
3.75348e-05 3.347081e-05 0.0001111425 7.123365e-05 8.58905e-05 9.8081895e-05 0.00012419774 1.8762943e-06
1.9165525e-06 1.8615999e-06 1.4469599e-06 9.5128536e-07 0.00038595707 0.00043725639 0.0004974391 0.0004900276
0.00044264522 0.007145292 0.0052031633 0.00021106105 0.004644809 0.0054441644 2.784619e-06 3.7332186e-06
4.034999e-06 2.6958296e-06 2.8354386e-06 4.2113147e-06 3.6102306e-06 3.225916e-06 3.0319918e-06 2.8294799e-06
0.00011172577 1.8262444e-05 0.00011653968 0.00015461161 0.0001439284 3.0857773e-08 3.803647e-08 3.7270507e-08
2.5023684e-08 2.0566587e-08 4.2091047e-05 4.6343135e-05 4.4369197e-05 4.243415e-05 3.9630526e-05 0.00046073805
0.00013742162 0.00034308893 0.0005877894 0.0004249546 3.655266e-07 3.224329e-07 2.3332557e-07 1.585477e-07
1.2801259e-07 8.647126e-06 1.1089996e-05 1.2388007e-05 1.11690115e-05 9.63812e-06 0.00017282614 6.005711e-05
0.00014757556 0.00011964546 7.018519e-05 5.6249718e-08 6.2793404e-08 7.304037e-08 6.288163e-08 4.5492705e-08
00000000: fae4 4139 cc19 8439 1bf8 8c39 6da4 8939
00000010: c889 8439 bfe2 6a3a 8ac3 053b 78ce 123b
00000020: 92f3 053b ac95 4e3a 87da 8f36 ad42 9d36
00000030: cebe a636 2ef0 8536 f998 3736 16ff 123a
00000040: b4de 543a 4e37 3e3a 14ae 503a 0437 553a
00000050: d0f5 6f3d 9d52 3c3d 8ce4 cf3c 4b0c b23c
00000060: 7aff 913c 6162 b136 53f6 1637 cf24 4e37
00000070: b20f 1a37 034d 0637 2ad3 4738 f1cd 6738
00000080: 9ea5 7d38 3bd2 7638 2526 6a38 e517 093b
00000090: 6759 dc3a 6f6c 5d3a 7947 0e39 f6f3 b93a
000000a0: 3ed8 6635 7077 9e35 7fb5 9235 c710 3035
000000b0: b9dd cc34 c7cd 1e38 0f56 2738 b74b 3538
000000c0: af6e 1d38 0263 0c38 2d15 e938 4663 9538
000000d0: 1c20 b438 51b1 cd38 143b 0239 fbd4 fb35
000000e0: 1f9e 0036 16dc f935 2a35 c235 d55b 7f35
000000f0: 485a ca39 8f3f e539 9366 023a 3275 003a
00000100: d612 e839 0e23 ea3b 4c7f aa3b 4550 5d39
00000110: 7b33 983b f664 b23b 64df 3a36 3588 7a36
00000120: 6164 8736 00ea 3436 7748 3e36 eb4e 8d36
00000130: 4a47 7236 d17c 5836 3979 4b36 18e2 3d36
00000140: 514e ea38 4d32 9937 c466 f438 3d1f 2239
00000150: 7ceb 1639 7b88 0433 8b5d 2333 5b13 2033
00000160: aaf3 d632 67aa b032 eb8a 3038 9060 4238
00000170: 1019 3a38 52fb 3138 f438 2638 378f f139
00000180: d618 1039 9ee0 b339 e115 1a3a 71cc de39
00000190: 983d c434 d71a ad34 0b88 7a34 433d 2a34
000001a0: d573 0934 2013 1137 2c0f 3a37 16d6 4f37
000001b0: 8a62 3b37 69b3 2137 aa38 3539 d5e5 7b38
000001c0: 83be 1a39 2bea fa38 6330 9338 3897 7133
000001d0: 0ad9 8633 5eda 9c33 8b09 8733 c263 4333

exp_avg f4 [8]
1.6536754e-10 -3.0803463e-10 -2.4438218e-10 -5.960759e-11 2.8092468e-11 -5.077249e-11 7.6484825e-13 4.5556926e-12
00000000: d3d2 352f 0558 a9af bc59 86af 1714 83ae
00000010: 9d1a f72d be4c 5fae 2049 572b 084a a02c

exp_avg_sq f4 [8]
2.573688e-19 2.2012453e-18 8.2212395e-20 2.1394096e-20 4.4760035e-19 4.9537173e-21 1.391223e-20 5.439981e-21
00000000: 79ec 9720 596c 2222 581e c21f c00f ca1e
00000010: ba1b 0421 6a25 bb1d b565 831e 4584 cd1d

exp_avg f4 [8]
0.0021227337 -0.0018788511 -0.00016390665 0.0023954634 -0.00032601802 0.0020788594 -0.0014398276 -0.001221072
00000000: 901d 0b3b c843 f6ba 5bde 2bb9 35fd 1c3b
00000010: 66ed aab9 793d 083b 99b8 bcba 610c a0ba

exp_avg_sq f4 [8]
0.00010675981 0.00010196297 2.3668714e-05 3.4071953e-05 0.00012430995 1.1259478e-05 2.9568624e-05 2.3288403e-05
00000000: 3de4 df38 f4d4 d538 2d8c c637 7be8 0e38
00000010: 3359 0239 17e7 3c37 230a f837 775b c337

exp_avg f4 [8]
0.00027014661 -0.0013838983 0.003734977 -0.002582266 -0.0008855077 0.0006948037 -0.0025853787 -0.0021533754
00000000: 77a2 8d39 ec63 b5ba 84c6 743b 3c3b 29bb
00000010: 6a21 68ba 7d23 363a 756f 29bb a51f 0dbb

exp_avg_sq f4 [8]
9.327186e-05 9.725589e-05 5.9000893e-05 3.837739e-05 0.00017524912 9.965022e-06 7.620964e-05 1.7061508e-05
00000000: f39a c338 dcf5 cb38 ba77 7738 69f7 2038
00000010: 14c3 3739 722f 2737 bdd2 9f38 4f1f 8f37

exp_avg f4 [16, 8, 5]
0.00013878255 -0.00030347542 0.00053792546 0.0006772453 0.000883861 0.0015852989 0.0010210656 0.0019104303
0.0031943757 -0.00032466176 0.00014540846 -0.0007815505 0.001048501 -0.0016345799 0.00048043733 0.0031039251
0.002840445 0.0009454713 -0.00069277454 -0.0012032003 0.001022465 0.00031549847 -0.00030892738 0.0011409336
-0.0018477847 -0.001713114 0.00096327753 0.00011841158 -0.00027947404 0.00033545186 0.0028469656 0.0020608478
0.0014783845 -0.00072648434 -0.00032613386 0.0021162475 -0.00013426492 -0.00049540424 -0.0008992122 -0.0010255919
-0.0011155965 -0.0044789733 0.00056751206 0.001611946 0.0031002916 0.0013501904 0.003536886 0.006622055
0.0048966235 0.0035779963 0.0022390587 0.0038270308 0.00059714826 0.0011753996 0.0014722034 0.0027336879
0.00097079156 -0.002177828 -0.0030380166 -0.003290014 0.001452562 0.00017497403 0.0033395404 -0.0003648548
0.0013745938 -0.0029637385 0.00079462456 0.00011501163 0.004578409 0.0011908055 0.00024905714 -0.00061043387
-2.80797e-05 -0.0037225373 -0.0042099166 0.00032163478 -0.0020739902 -0.002324456 -0.0029054214 -0.0003240608
0.0008661888 -0.00015331004 -0.00023222886 -8.268394e-05 0.0002303179 -0.00054350815 -0.00034221847 0.00071720907
0.001271642 0.0012398913 -0.0010230738 -0.0003777585 -2.3442117e-05 -8.6722066e-05 0.00028383793 -0.0011676943
0.0011786879 0.0020980327 0.000466464 -0.0001237642 -0.0005845403 -0.00023980999 0.00021141025 7.590792e-05
-0.00012329257 -0.0011269832 -0.0005908931 -0.00077332417 -0.0001239858 5.768121e-05 -0.0016521005 0.00040960853
0.0012020641 -0.00010225826 -0.001551928 0.00040769455 0.0011993175 0.0005987883 0.000115979565 -0.00068890786
-0.00034058126 0.0017547784 0.00026413472 -0.00033446634 0.0014057659 -0.0010450807 0.0002554687 0.0019234284
0.00040150536 0.0012832512 -8.5745637e-07 0.0008322588 0.0010485637 0.000615435 0.00046003007 0.0027571179
0.0027239441 0.0020851921 0.0015479561 -0.00027647437 -0.00051285874 -0.00028430216 0.0010572656 0.00118947
0.00096295594 0.001068299 -0.00055923377 0.0012556566 0.0010585916 0.0009312578 0.0021729176 0.0028958302
0.0016940149 0.0017098518 -0.0003037315 0.0019731189 0.0017385487 0.00048237 -0.00013581378 -0.0009863521
0.00037070102 0.0011682614 -0.00059369695 0.0014036176 0.00021863071 0.001224339 0.0027909433 0.0023056942
0.0015877684 0.00048611223 -0.00021652912 -0.0007011319 -0.00012877285 -0.0013659728 0.00010712907 0.0003599749
0.00037608002 -0.0010450673 -0.0018298541 -0.00023283696 -0.00065978715 -0.00040612495 -0.0023006985 -0.0005271255
-0.0020459006 -0.0009909668 -0.0014412458 -0.0005247535 -0.0012616477 9.712465e-05 0.00045601005 -0.001204954
-0.0016875736 -0.0022257487 -0.0011144823 0.00065336644 -0.0019580305 -0.00074213586 -0.00083545607 0.00022964511
0.0066762036 0.002745235 0.0020071499 0.0015042847 0.0011044852 -0.00045538077 -0.0070362994 -0.007937804
-0.009761131 -0.008790336 0.0026773869 0.0044007157 0.0018785609 0.0023615484 0.002332964 -0.00355497
0.0009929832 0.0043353657 0.0059140483 0.0060959845 0.0011830492 0.0032362244 0.0047297957 0.0027750353
0.001023586 0.003971173 0.004580856 0.004193959 0.004776604 0.0030350478 -0.0012276113 0.0020605423
0.00527086 0.006597343 0.0053416016 0.0019379858 0.0047585643 0.006797763 0.0073017296 0.0034559777
0.0004913848 0.0019825343 0.0001633735 0.0006418564 -0.00011227126 0.0002923076 0.0009222478 0.00028312692
0.0010726592 0.000767464 0.00026633454 0.00045290386 0.0009624112 8.930118e-05 0.00027720243 -0.0011282498
00000000: 2886 1139 c81b 9fb9 9103 0d3a 2a89 313a
00000010: e8b2 673a cec9 cf3a 47d5 853a 6767 fa3a
00000020: bb58 513b 5d37 aab9 c978 1839 f7e0 4cba
00000030: db6d 893a 663f d6ba 35e3 fb39 396b 4b3b
00000040: c226 3a3b 81d9 773a 509b 35ba b4b4 9dba
00000050: 3b04 863a 7d69 a539 88f7 a1b9 618b 953a
00000060: 5e31 f2ba 918a e0ba 7684 7c3a bc53 f838
00000070: 5f86 92b9 96df af39 2894 3a3b 4a0f 073b
00000080: 5ac6 c13a 8a71 3eba f2fc aab9 beb0 0a3b
00000090: 77c9 0cb9 04de 01ba 1cb9 6bba 276d 86ba
000000a0: 3539 92ba 5ac4 92bb 17c5 143a ef47 d33a
000000b0: 432e 4b3b dff8 b03a 1acb 673b d3fd d83b
000000c0: db73 a03b d17c 6a3b 2cbd 123b ecce 7a3b
000000d0: f189 1c3a de0f 9a3a f3f6 c03a ac27 333b
000000e0: b87c 7e3a e4b9 0ebb 7619 47bb 479d 57bb
000000f0: e563 be3a 3c79 3739 31dc 5a3b fb49 bfb9
00000100: b72b b43a 483b 42bb 5a4e 503a 6632 f138
00000110: 7a06 963b cd14 9c3a e293 8239 8605 20ba
00000120: b28c ebb7 d0f5 73bb 57f3 89bb 17a1 a839
00000130: c8eb 07bb e755 18bb e268 3ebb b4e6 a9b9
00000140: f210 633a dac1 20b9 7682 73b9 9a66 adb8
00000150: 7e81 7139 377a 0eba c96b b3b9 1603 3c3a
00000160: 3aad a63a d983 a23a a918 86ba e30d c6b9
00000170: 90a5 c4b7 8ede b5b8 15d0 9439 520d 99ba
00000180: 347e 9a3a 267f 093b bd8f f439 b3c6 01b9
00000190: d63b 19ba 8175 7bb9 02ae 5d39 c130 9f38
000001a0: 1948 01b9 48b7 93ba 2ae6 1aba e8b8 4aba
000001b0: 2f02 02b9 baee 7138 4b8b d8ba bac0 d639
000001c0: 948e 9d3a 7c73 d6b8 106a cbba d6bf d539
000001d0: 6b32 9d3a 01f8 1c3a 0e3a f338 d397 34ba
000001e0: 0b90 b2b9 9800 e63a 907b 8a39 505b afb9
000001f0: ad41 b83a 17fb 88ba 6ef0 8539 8c1b fc3a
00000200: 2381 d239 c432 a83a f42b 66b5 f12b 5a3a
00000210: f66f 893a 2555 213a 3130 f139 c3b0 343b
00000220: 3384 323b b8a7 083b cae4 ca3a c3f3 90b9
00000230: 5e71 06ba 640e 95b9 f293 8a3a fde7 9b3a
00000240: e16e 7c3a 2b06 8c3a 8b99 12ba d894 a43a
00000250: 71c0 8a3a a71f 743a 8267 0e3b f8c7 3d3b
00000260: b509 de3a 1b1d e03a 273e 9fb9 714f 013b
00000270: 04e0 e33a 9be6 fc39 3c69 0eb9 7c48 81ba
00000280: a65a c239 5920 993a 54a2 1bba 97f9 b73a
00000290: 3c40 6539 007a a03a 42e8 363b 211b 173b
000002a0: ab1c d03a e1dc fe39 180c 63b9 2acc 37ba
000002b0: 3307 07b9 710a b3ba 7baa e038 03bb bc39
000002c0: 9b2c c539 a4fa 88ba b7d7 efba b225 74b9
000002d0: 91f5 2cba 2bed d4b9 51c7 16bb cb2e 0aba
000002e0: 8414 06bb 54e3 81ba 2fe8 bcba 9c8f 09ba
000002f0: df5d a5ba 66af cb38 a214 ef39 8cef 9dba
00000300: 9331 ddba dedd 11bb d213 92ba ae46 2b3a
00000310: 4d52 00bb e58b 42ba 8202 5bba e4cc 7039
00000320: 0ec4 da3b 67e9 333b 638a 033b 6b2b c53a
00000330: 60c4 903a 2cc0 eeb9 c290 e6bb 900d 02bc
00000340: 27ed 1fbc 5705 10bc 1977 2f3b e133 903b
00000350: 0b3a f63a 35c4 1a3b a4e4 183b 80fa 68bb
00000360: fd26 823a af0f 8e3b a2ca c13b d3c0 c73b
00000370: 8b10 9b3a d616 543b 67fc 9a3b 5edd 353b
00000380: d929 863a 9d20 823b 011b 963b 7a6d 893b
00000390: 0f85 9c3b a7e7 463b cde7 a0ba 2a0a 073b
000003a0: 2eb7 ac3b 862e d83b 9a08 af3b 0304 fe3a
000003b0: bbed 9b3b c5bf de3b 5943 ef3b af7d 623b
000003c0: 47d0 003a 68ed 013b 3d4f 2b39 4142 283a
000003d0: 2c73 ebb8 dd40 9939 01c3 713a a770 9439
000003e0: 7898 8c3a a32f 493a d1a2 8b39 ba73 ed39
000003f0: 534a 7c3a 3547 bb38 7b55 9139 c8e1 93ba

exp_avg_sq f4 [16, 8, 5]
7.991709e-06 9.472777e-06 1.0138192e-05 7.219456e-06 6.8971835e-06 1.9296645e-05 1.067981e-05 2.2987204e-05
1.4606882e-05 1.4953816e-05 7.24285e-06 8.7741655e-06 7.277983e-06 8.156088e-06 3.8625567e-06 1.897513e-05
3.0660234e-05 2.5275502e-05 1.3816959e-05 6.6339003e-06 1.764022e-05 7.476709e-06 7.8834555e-06 8.578182e-06
9.453414e-06 1.1497125e-05 8.791004e-06 5.3488357e-06 6.080395e-06 5.7159377e-06 7.013407e-06 1.6985216e-05
9.289206e-06 1.3327847e-05 2.4084568e-06 2.1174965e-05 1.6806052e-05 9.865898e-06 9.62834e-06 9.418751e-06
3.2568383e-05 3.3263655e-05 1.9382378e-05 2.4850058e-05 4.0273542e-05 3.2335443e-05 4.0566698e-05 5.565321e-05
4.981547e-05 5.3353524e-05 3.070291e-05 5.8593138e-05 6.080021e-05 3.4385645e-05 3.8411097e-05 1.9573174e-05
6.979067e-06 2.6969888e-05 7.6946875e-05 5.0596394e-05 9.068187e-06 3.64248e-05 6.6055094e-05 6.614085e-05
3.7805683e-05 3.344293e-05 9.602022e-06 2.86975e-05 5.0140206e-05 4.4704182e-05 2.1316086e-05 6.2944314e-06
9.850619e-06 7.691444e-05 4.0250146e-05 1.3539484e-05 3.844434e-05 4.36115e-05 4.298369e-05 3.4128574e-05
1.7528671e-06 2.0802615e-06 8.618412e-07 2.6281045e-06 8.5286774e-07 1.9132424e-06 4.0116033e-06 1.7577835e-06
2.1587723e-06 3.0303247e-06 4.330863e-06 5.12912e-07 6.8347657e-07 7.5861533e-07 5.7636476e-07 6.073864e-06
1.05954805e-05 1.49972575e-05 1.4604089e-05 1.2449547e-05 1.1034344e-06 5.450931e-06 1.4127119e-06 1.1616314e-06
1.1439663e-06 2.1577728e-06 9.3333443e-07 4.255002e-06 7.3403015e-07 7.172007e-07 4.372356e-06 6.4637006e-06
6.398638e-06 6.210175e-06 5.3421236e-06 8.030967e-06 1.1240777e-05 1.1278449e-05 1.036805e-05 8.35624e-06
8.795975e-06 4.435005e-06 5.2146993e-06 7.4581094e-06 7.894745e-06 1.0453207e-05 1.2190789e-05 1.0898498e-05
9.694884e-06 8.477301e-06 8.958499e-06 1.1298117e-05 8.698757e-06 8.658761e-06 7.90147e-06 1.0110343e-05
1.4055283e-05 8.263214e-06 7.2021394e-06 1.1979903e-05 5.4049633e-06 1.1532927e-05 1.3233781e-05 9.918248e-06
9.990137e-06 4.2685488e-06 4.9807663e-06 1.000488e-05 1.0061415e-05 7.188072e-06 1.0577304e-05 1.50564565e-05
1.1524315e-05 6.754812e-06 1.2384109e-05 9.531098e-06 1.00731695e-05 1.1484934e-05 1.0903052e-05 1.0116573e-05
2.9219793e-05 2.9501e-05 1.743862e-05 1.6124251e-05 1.0771419e-05 3.62612e-05 4.198057e-05 3.7363236e-05
3.461055e-05 2.7169792e-05 1.0633176e-05 8.337882e-06 1.729663e-05 1.6123662e-05 2.3023797e-05 3.632769e-05
7.108321e-05 7.555984e-05 4.328479e-05 2.2173672e-05 2.377175e-05 8.100686e-06 9.000541e-06 1.9116085e-05
1.7395385e-05 3.875794e-05 1.4779321e-05 8.89423e-06 6.9751018e-06 1.4350544e-05 9.231654e-06 3.4483943e-05
3.8168968e-05 3.126641e-05 1.0037457e-05 5.382999e-05 5.6106797e-05 3.691967e-05 2.407891e-05 1.7449185e-05
7.426156e-05 9.004088e-05 7.7082565e-05 0.0001055067 7.856726e-05 0.00022600526 0.00026962833 0.00013786314
0.00021495628 0.00018754514 0.00015655742 0.0001243674 5.556883e-05 2.8619766e-05 3.81015e-05 0.00025146088
0.00027035904 0.00025011456 0.00021235083 0.00016343378 0.00014533919 0.00017410991 0.00017676114 7.944394e-05
4.416667e-05 9.999528e-05 0.00011738437 0.00012753232 0.0001479693 5.662491e-05 0.00012463644 0.00013112843
0.00019657386 0.00016368044 0.0001895693 0.00024475923 0.00024694102 0.00024816126 0.00016329174 0.00011335542
3.5927874e-06 6.0978664e-06 1.794818e-06 3.0901265e-06 2.346645e-06 4.0501927e-06 4.0694526e-06 3.0968397e-06
6.080445e-06 3.203899e-06 1.8179257e-06 1.3864608e-06 5.978604e-06 1.2490663e-06 4.434148e-06 4.8205334e-06
00000000: 2114 0637 44ed 1e37 3417 2a37 a83e f236
00000010: 5b6e e736 3bdf a137 6f2d 3337 a5d4 c037
00000020: 1510 7537 27e2 7a37 9c07 f336 c134 1337
00000030: 6635 f436 22d6 0837 1c9b 8136 c82c 9f37
00000040: 2d99 0038 ba06 d437 63cf 6737 c598 de36
00000050: 16fa 9337 71e0 fa36 2f43 0437 03eb 0f37
00000060: 1b9a 1e37 c7e3 4037 137d 1337 267a b336
00000070: 3206 cc36 88cb bf36 b554 eb36 797b 8e37
00000080: d6d8 1b37 ab9a 5f37 f9a0 2136 e4a0 b137
00000090: b9fa 8c37 b685 2537 6889 2137 3a05 1e37
000000a0: 099a 0838 9484 0b38 5797 a237 1875 d037
000000b0: 63eb 2838 eb9f 0738 2926 2a38 2e6d 6938
000000c0: f4f0 5038 e9c7 5f38 00c7 0038 e7c1 7538
000000d0: ba03 7f38 4e39 1038 9a1b 2138 1231 a437
000000e0: bb2d ea36 653d e237 8a5e a138 7737 5438
000000f0: 9123 1837 d5c6 1838 0f87 8a38 19b5 8a38
00000100: 8b91 1e38 1345 0c38 5f18 2137 69bb f037
00000110: a34d 5238 c080 3b38 f2cf b237 c134 d336
00000120: 1644 2537 204d a138 44d2 2838 a427 6337
00000130: 4c3f 2138 7eeb 3638 6349 3438 4725 0f38
00000140: 0e44 eb35 9f9a 0b36 4759 6735 7e5e 3036
00000150: a0f0 6435 4165 0036 699b 8636 fbec eb35
00000160: 6ddf 1036 955c 4b36 d451 9136 0baf 0935
00000170: 2778 3735 a6a3 4b35 7cb7 1a35 18ce cb36
00000180: 3ec3 3137 bb9c 7b37 1604 7537 66de 5037
00000190: b819 9435 24e7 b636 699c bd35 5ae9 9b35
000001a0: 628a 9935 41ce 1036 418a 7a35 30c6 8e36
000001b0: 2b0a 4535 a885 4035 41b6 9236 c4e2 d836
000001c0: e2b3 d636 ff60 d036 7e40 b336 bebc 0637
000001d0: c596 3c37 9238 3d37 70f2 2d37 c731 0c37
000001e0: 6d92 1337 67d0 9436 edf9 ae36 ac40 fa36
000001f0: ac73 0437 2f60 2f37 0a87 4c37 b1d8 3637
00000200: 36a7 2237 bb39 0e37 764c 1637 0b8d 3d37
00000210: e0f0 1137 1845 1137 8e90 0437 989f 2937
00000220: fbce 6b37 3ca2 0a37 e8a9 f136 4bfd 4837
00000230: 485c b536 8b7d 4137 a806 5e37 8d66 2637
00000240: 509b 2737 8e3a 8f36 7520 a736 a2da 2737
00000250: 73cd 2837 1131 f136 2d75 3137 fd9a 7c37
00000260: 8e58 4137 65a7 e236 58c5 4f37 c1e7 1f37
00000270: efff 2837 6aaf 4037 40ec 3637 5aba 2937
00000280: 071d f537 ea78 f737 2749 9237 9142 8737
00000290: e4b6 3437 2b17 1838 4b14 3038 78b6 1c38
000002a0: cc2a 1138 afea e337 2565 3237 eee2 0b37
000002b0: 3b18 9137 4d41 8737 3a23 c137 8f5e 1838
000002c0: 8212 9538 e175 9e38 b08c 3538 9901 ba37
000002d0: 7269 c737 2ee8 0737 0701 1737 7b5b a037
000002e0: 4eec 9137 0590 2238 b3f4 7737 6d38 1537
000002f0: ab0b ea36 1ec3 7037 a7e1 1a37 daa2 1038
00000300: 9e17 2038 0d24 0338 8d66 2837 83c7 6138
00000310: 3754 6b38 32da 1a38 11fd c937 d75f 9237
00000320: dfbc 9b38 54d4 bc38 63a7 a138 7a43 dd38
00000330: 7ac4 a438 d3fb 6c39 e75c 8d39 5b8f 1039
00000340: e365 6139 c4a7 4439 9029 2439 9f68 0239
00000350: 9412 6938 7b14 f037 2dcf 1f38 82d6 8339
00000360: fabe 8d39 cf21 8339 7eaa 5e39 6c5f 2b39
00000370: 3166 1839 4691 3639 f558 3939 249b a638
00000380: 9a3f 3938 8fb4 d138 412c f638 32ba 0539
00000390: 3528 1b39 8980 6d38 d7b0 0239 857f 0939
000003a0: 651f 4e39 a2a1 2b39 1fc7 4639 0753 8039
000003b0: dd77 8139 a41b 8239 4b39 2b39 3ab9 ed38
000003c0: 9e1b 7136 469c cc36 7ae5 f035 f85f 4f36
000003d0: 0e7b 1d36 e4e6 8736 558c 8836 4dd3 4f36
000003e0: a006 cc36 9102 5736 74ff f335 6e16 ba35
000003f0: d19b c836 97a5 a735 0bc9 9436 11c0 a136

exp_avg f4 [16]
-5.615288e-10 -3.6121217e-09 -6.7638284e-10 -2.4328362e-10 1.766024e-10 2.663249e-10 2.164244e-10 -9.9904564e-11
-2.5503117e-09 -1.6542656e-10 -1.7711893e-10 -1.7919458e-10 5.329417e-10 1.3511311e-09 1.289313e-10 -1.0292842e-09
00000000: 145a 1ab0 1e39 78b1 36ec 39b0 20bf 85af
00000010: 282d 422f e669 922f 0ef6 6d2f 45b1 dbae
00000020: 8f41 2fb1 70e3 35af 8cbe 42af ca06 45af
00000030: 707e 1230 b3b2 b930 efc2 0d2f b876 8db0

exp_avg_sq f4 [16]
9.63684e-19 1.0458621e-17 1.0543472e-18 2.094286e-18 2.7305091e-18 1.8341375e-17 9.722264e-19 6.6561575e-19
4.9346432e-17 1.4094972e-18 9.707888e-19 6.389387e-18 1.3640254e-18 9.385646e-18 3.195333e-19 4.918563e-18
00000000: f436 8e21 71ed 4023 1c98 9b21 f287 1a22
00000010: dc79 4922 592b a923 ad79 8f21 8174 4421
00000020: fc91 6324 4c01 d021 5d43 8f21 0eba eb22
00000030: 6c4b c921 7622 2d23 829e bc20 8476 b522

exp_avg f4 [16]
0.0006135338 -0.00019339066 0.0005820486 0.000996921 0.00059202453 -0.0012468954 0.0003712175 -0.00075494114
-0.0009172798 -0.00014742797 0.00026085056 4.5443558e-05 -0.0015643846 0.00029015873 0.00044560622 0.0010883507
00000000: 8ed5 203a e9c8 4ab9 9f94 183a 1eab 823a
00000010: 1832 1b3a de6e a3ba f89f c239 3ee7 45ba
00000020: 9b75 70ba e596 1ab9 c5c2 8839 a69a 3e38
00000030: 090c cdba 7220 9839 41a0 e939 fda6 8e3a

exp_avg_sq f4 [16]
1.1263302e-05 4.2534734e-06 1.442232e-06 2.3715188e-06 1.9037841e-05 5.923423e-05 1.0331192e-06 1.0862476e-05
3.474926e-05 5.9986382e-06 1.6764246e-06 2.7390552e-06 4.0530063e-06 7.902306e-06 3.8438125e-06 7.3313067e-06
00000000: 84f7 3c37 0fb9 8e36 b792 c135 6226 1f36
00000010: 74b3 9f37 4572 7838 b5a9 8a35 fb3d 3637
00000020: bcbf 1138 e947 c936 8301 e135 9cd0 3736
00000030: 0fff 8736 2594 0437 19fa 8036 72ff f536

exp_avg f4 [16]
0.00054267363 -0.0002191505 0.001073919 -0.000115053044 0.00060150155 -0.0027729163 0.00017528857 0.00096506154
0.0006192614 -0.0007230143 0.0007128979 -0.0004184875 8.984413e-05 -0.0010741007 0.00020454075 0.00030843922
00000000: 3642 0e3a c4cb 65b9 bec2 8c3a a248 f1b8
00000010: 16ae 1d3a d1b9 35bb abcd 3739 2ffc 7c3a
00000020: ee55 223a ab88 3dba c5e1 3a3a 7168 dbb9
00000030: b36a bc38 d7c8 8cba fd79 5639 03b6 a139

exp_avg_sq f4 [16]
3.344313e-06 2.8676768e-06 2.5060256e-06 3.9592696e-06 4.1761627e-06 5.38747e-05 1.0311624e-06 3.471385e-06
2.6178564e-05 2.6015682e-06 2.0411157e-06 4.8106526e-06 6.424784e-06 1.7028742e-05 1.2442769e-06 5.8231e-06
00000000: dc6e 6036 5072 4036 312d 2836 ded9 8436
00000010: f720 8c36 85f7 6138 7866 8a35 f1f5 6836
00000020: 0a9a db37 9a96 2e36 1afa 0836 316b a136
00000030: 7994 d736 f2d8 8e37 0701 a735 0c64 c336
