models/LB_CNNet_15s--epoch=16-val_loss=0.73-train_loss=0.60.ckpt (torch, 60675 bytes, 45 tensors)

model.cnn.0.weight f4 [8, 3, 5]
000000 78 68 23 3e fc 2f 6d 3e 95 c8 5c be 14 0c b0 bd
       0.1595782 0.23162836 -0.21560891 -0.08596054
000010 1b 17 8e 3d 8a 67 02 3e 9f 64 23 3e 03 a5 bf 3d
       0.06938001 0.1273481 0.15956353 0.09357645
000020 4f 9c 9f 3e ce 17 80 bd 21 b4 11 bd 99 60 6e bd
       0.31173941 -0.062545404 -0.035572175 -0.05819759
000030 01 1d 9b bc 05 73 60 3d 9c c7 9f bd c7 d6 df 3d
       -0.018934729 0.05479719 -0.07801744 0.109296374
000040 7d 3a e1 3d 96 65 b4 3e db ed ad bc 8e 01 8f bd
       0.10997484 0.35233754 -0.021231582 -0.069827184
000050 47 6f 43 3e ec 04 0a 3e 40 ba 49 3e b7 27 3a be
       0.19085418 0.1347844 0.19699955 -0.18179213
000060 30 d1 31 3d 25 dd 78 be 11 19 18 be 4d c4 e1 be
       0.043412387 -0.2430311 -0.14853312 -0.44095078
000070 1f 7f 49 be c3 cc 9d be d5 ae 89 bc 24 45 56 bb
       -0.19677399 -0.30820283 -0.016807 -0.003269502
000080 75 00 07 3d 21 0d d2 bd 5c 97 0c 3d 07 f9 83 3a
       0.03295942 -0.102564104 0.034324035 0.0010068723
000090 25 40 b6 b9 60 7e f5 b9 87 63 5e ba 47 dd 7c b9
       -0.00034761537 -0.00046824198 -0.00084834587 -0.00024115025
0000a0 9c 28 98 3e 8e e5 89 3e bf 60 82 3e 41 db 13 3f
       0.29718482 0.2693295 0.25464436 0.5775643
0000b0 c5 65 08 3f a8 b0 2d 3e dc 43 77 be f9 74 7b be
       0.5328029 0.1696192 -0.2414698 -0.2455634
0000c0 a5 a9 28 be 87 46 5e be 7b b0 49 bd a0 04 d7 3d
       -0.16470964 -0.21706592 -0.04924057 0.10498929
0000d0 c0 c1 65 3d bf d4 1d 3e f3 9c 8c bd 4d 52 cf 3d
       0.056092978 0.15413187 -0.06865873 0.101231195
0000e0 ca f4 9e 3e 5f 84 2f bd 7d df a9 3e cd ad 2d 3e
       0.31046134 -0.04285085 0.3317832 0.16960831
0000f0 42 34 a2 be 4f bf 65 be ca 86 8d 3e 22 64 6f 3e
       -0.31680495 -0.2243626 0.27641898 0.23378041
000100 3d 36 f7 bd da a5 12 bc 75 92 a6 bc 0b 1f 95 bc
       -0.12070892 -0.008950675 -0.020333508 -0.018203279
000110 02 fd 2e be d6 1e be bc 98 65 f8 bd 60 05 04 be
       -0.17088702 -0.023208063 -0.121287525 -0.12892675
000120 eb 8e 30 be 97 4f b8 be a0 01 91 be f8 15 36 bb
       -0.17242019 -0.35998222 -0.28321552 -0.002778409
000130 ff 55 dd be 0f 6d c4 be 60 78 73 be f7 08 2c be
       -0.43229672 -0.38364455 -0.23776388 -0.16800295
000140 4d 4a 07 be 5e 43 65 3d 76 ab 49 be 1c dc 28 be
       -0.13211937 0.05597245 -0.19694313 -0.16490215
000150 9d 4a a3 bd ed 8c 11 3e 7e a8 2f 3e e2 f4 77 bd
       -0.07973216 0.14213915 0.17154118 -0.060536273
000160 b7 35 cf bd 5e d8 8e be 7e bc 18 3c 08 cf 06 3e
       -0.10117667 -0.2789945 0.009322284 0.13164914
000170 2d bc 06 be d5 21 99 3a 72 2f a1 be cc 40 1c 3d
       -0.13157721 0.0011683056 -0.3148151 0.038147733
000180 85 fd 59 3e 4a 9c 74 3e e1 0b 1c 3e d4 aa 5b bc
       0.21288116 0.23887745 0.15238906 -0.013407428
000190 14 7d 93 3e d9 ad b5 3d 0c f2 91 3d 50 a7 0f 3e
       0.28806365 0.088710494 0.07126245 0.14028668
0001a0 11 e0 8a 3d 3b 21 74 3e 76 f2 cf 3d d9 e6 ee 3a
       0.067810185 0.23840801 0.10153668 0.0018226757
0001b0 6e ca 95 3d 4a 22 f7 3d 47 64 bb 3d bd 22 02 be
       0.07314001 0.12067087 0.09149986 -0.12708564
0001c0 c0 e1 8f 3d d4 4b 53 be 6f 56 79 be 6a 68 ac be
       0.0702548 -0.20634395 -0.24349378 -0.33673412
0001d0 54 98 12 be d8 85 37 be ad df c9 3c 7b 18 f2 3d
       -0.14315921 -0.17922151 0.02464279 0.118210755

model.cnn.0.bias f4 [8]
000000 d0 03 54 3e 70 96 9d 3c 1f 1b 49 be 25 6a dd bd
       0.2070458 0.019236773 -0.19639252 -0.10811261
000010 33 52 14 be 5b ad d4 bd d1 28 43 bd 88 5b 76 be
       -0.14484482 -0.103846274 -0.047646347 -0.24058354

model.cnn.1.weight f4 [8]
000000 5a 3d 71 3f b6 1f 73 3f 5e 4c 91 3f 48 27 85 3f
       0.9423424 0.9497026 1.135143 1.0402613
000010 ad 43 80 3f 33 87 70 3f da 03 5d 3f ac 06 6e 3f
       1.0020653 0.939563 0.86334 0.9297893

model.cnn.1.bias f4 [8]
000000 9a 45 92 bd d9 9e 05 3c 73 51 11 3e bb 6f 8e 3c
       -0.07142182 0.008155548 0.14191227 0.017387262
000010 be cd 8e bd 8a dc ab bb 12 64 0f be 36 03 6c 3b
       -0.06972836 -0.005244796 -0.14003018 0.0036012656

model.cnn.1.running_mean f4 [8]
000000 a7 47 15 3f 12 51 1b 40 c3 c2 62 bd a5 25 8a c0
       0.5831246 2.4268231 -0.05536152 -4.3170953
000010 74 06 79 bf 1a 33 e6 c0 7b e3 05 c0 89 40 3e 40
       -0.9727547 -7.193738 -2.0920093 2.972689

model.cnn.1.running_var f4 [8]
000000 f3 70 d7 43 65 31 c6 43 a9 8b 26 3f 6b a1 1e 43
       430.88242 396.3859 0.65056854 158.63054
000010 7a f5 bb 42 e9 f0 a2 43 02 91 ac 43 f4 a5 c5 43
       93.97945 325.8821 345.13287 395.2965

model.cnn.3.weight f4 [16, 8, 5]
000000 74 f3 d7 bd d2 9f 02 3e 8f 6f a5 bd 71 39 b3 3c
       -0.10544482 0.12756279 -0.08077919 0.021877976
000010 50 f7 78 bd 0c d5 41 bc 03 95 85 bd ab a9 b0 3d
       -0.06078273 -0.0118305795 -0.06522562 0.086261116
000020 91 3d bf bd c6 15 b0 3d bb f7 e7 3d 32 e9 eb 3d
       -0.09337915 0.08597903 0.11326548 0.11519088
000030 be 0a 06 bd f3 2e a0 3d 7f 6f 78 be 86 6d 92 3d
       -0.03272509 0.07821455 -0.24261282 0.07149796
000040 70 0f b9 bd 84 73 3d bd 8d 0c 40 3d 62 86 71 bc
       -0.090361476 -0.046252742 0.04688697 -0.014741512
000050 d4 e0 1f be 5e b2 82 bd 90 c6 25 3d af f1 72 3c
       -0.15613109 -0.06381677 0.040472567 0.01482813
000060 36 02 91 bd 0a b7 c8 3d c6 55 90 bb d5 3e 9a 3c
       -0.070805 0.09800537 -0.0044047562 0.018828789
000070 88 46 f5 3d 65 57 43 bd 31 b7 40 3d 5a 49 9f bd
       0.119763434 -0.047690768 0.047049705 -0.077776626
000080 b3 ff 89 3d 96 22 06 be 89 ba 31 be cc da ae 3d
       0.06738224 -0.13099131 -0.17356314 0.08537826
000090 5a e0 0a 3e 9a bf de bd 64 bd b6 bd 3a 41 6e 3d
       0.13562146 -0.10876389 -0.08922842 0.058167674
0000a0 85 95 84 3d 6f 45 2a 3e 91 4c 33 bd 75 4c 3b 3d
       0.06473831 0.1662805 -0.04377419 0.045727212
0000b0 0c 82 f6 3d ec a9 43 3d 92 02 96 3d 2a 47 aa 3d
       0.12036523 0.047769472 0.07324709 0.08314355
0000c0 fb 4f d1 3d 78 af 25 bd c2 03 f0 3d 4f 1d 50 3e
       0.10220333 -0.040450543 0.11719467 0.2032368
0000d0 02 f9 f1 bc 19 1a e9 bd f4 05 c3 bd 61 18 c0 bd
       -0.029537681 -0.11381931 -0.0952262 -0.0937965
0000e0 b7 d5 cb bc dc c6 40 be b1 de 85 bc 2d 06 10 bc
       -0.02488218 -0.18825859 -0.01634154 -0.008790535
0000f0 b9 1e 97 bd ab 8b 97 bd 6e f8 cd 3d 9a 8b 7b 3d
       -0.07378907 -0.073996864 0.1005715 0.06141243
000100 e5 17 ce 3c 15 16 c4 3c 8d 2a cf bd 0d af 85 3c
       0.025157878 0.02393631 -0.10115538 0.016318822
000110 b5 6b c7 3d 47 df f0 3d 4b d5 08 be 2d 8b 3b 3d
       0.0973734 0.11761337 -0.13362615 0.045787025
000120 11 5e a8 bd bc 0e 52 bd 5f 2f 82 bd cf 41 a3 3d
       -0.08221067 -0.051283583 -0.063566916 0.07971536
000130 b2 24 95 3d 38 a2 97 3d 29 d4 81 bd d3 fc 20 3e
       0.0728239 0.07403988 -0.063392945 0.15721445
000140 a7 f0 aa bd a5 ad cf bd 89 43 c4 3c 4c b5 9b bc
       -0.08346682 -0.10140542 0.023957985 -0.019007348
000150 5f 3c 6a 3c a8 1d 24 bd 16 f9 af bc 4b ce 43 3d
       0.01429662 -0.040067345 -0.021481078 0.04780416
000160 23 d0 22 be 0a df 78 bd 2f 41 04 be b6 9f df 3c
       -0.1589971 -0.06075958 -0.1291549 0.027297836
000170 f5 32 a2 bd 6a f8 a8 bc 7a 6e e1 3d fb c6 2c 3d
       -0.079198755 -0.020626266 0.110074 0.04218195
000180 ac fd e1 3c 3e cb 31 3e af a6 24 3e 4f 5d 67 bd
       0.02758678 0.17362687 0.1607921 -0.05648547
000190 3c 1c 4d bc be d2 01 be ed 04 8f bd 56 90 f5 3d
       -0.012518939 -0.12678048 -0.069833614 0.119904205
0001a0 2b 2f d9 ba b8 22 82 39 4b 2e 8b 3d 40 a8 13 3e
       -0.0016569843 0.000248214 0.06795939 0.14419651
0001b0 e2 1b 40 3c c4 27 b6 bd 05 3e 93 bd 6b 36 2b 3e
       0.011725398 -0.088943034 -0.07189564 0.16719978
0001c0 c2 eb 02 be ae ce 36 be cb 6a 9e bc a6 9a 15 bc
       -0.12785247 -0.1785228 -0.019338032 -0.009131109
0001d0 3c 64 32 bc c2 55 fb 3c b8 42 d5 bc 59 99 77 bc
       -0.010888156 0.030680541 -0.02603279 -0.0151122445
0001e0 93 ec 6e 3c 1b 59 ec 3d 4e b6 94 3c 0f 6b ca 3d
       0.014582771 0.11540433 0.018153336 0.09883701
0001f0 ef 8e b6 bd 26 98 e9 bd f9 a3 e1 bd 67 f1 1b bd
       -0.08913981 -0.11405973 -0.110176034 -0.038072016
000200 ce 41 6a 3d cc af fe bd 34 c9 46 bd 8c 9f 3e 3e
       0.057191662 -0.12435874 -0.048531726 0.1861555
000210 d0 e1 db 3c ca e7 73 bd 01 08 03 bd c4 b0 1d be
       0.026841074 -0.059547223 -0.031990055 -0.15399462
000220 7a c9 86 bd b8 d6 a0 3d 1e 75 95 3d 34 1c dd 3d
       -0.06581397 0.07853454 0.07297729 0.10796395
000230 a0 61 e4 3c f1 9e c3 3b 22 f3 42 be da 6b 42 3d
       0.027878582 0.005969875 -0.1903806 0.047466137
000240 09 44 86 3d 2c eb d6 bd a3 5b c6 3d 3c 2e c3 bd
       0.065559454 -0.10494074 0.09685447 -0.09530303
000250 3b 51 15 3d 20 70 92 bd 8d 14 46 3d ff be 18 3d
       0.03645442 -0.071502924 0.048359443 0.037291523
000260 84 70 19 bd c9 ef 66 3c f0 88 5a bd 2c 92 9b 3c
       -0.03746082 0.014095255 -0.05335325 0.018990599
000270 8f c7 f7 bd 0a d0 88 3c 28 4b 8e 3b 36 f9 18 bd
       -0.1209861 0.016700763 0.0043424554 -0.03734704
000280 ae 2c 85 3c f2 b3 5e bd 01 0e 46 be 5e 0a d7 3d
       0.016256656 -0.054370828 -0.1934128 0.10500024
000290 87 a3 7f 3d 56 c4 bd 3c 7b 18 58 bd 70 25 20 bc
       0.06241181 0.02316491 -0.05275772 -0.009774551
0002a0 d4 60 12 bd a0 6f e3 bd 2b 48 0b 3e 64 13 df bc
       -0.035736874 -0.11105275 0.13601749 -0.027230926
0002b0 15 c4 f4 bb 6d a2 0b 3e fb 86 b2 bd 85 f6 dd 3b
       -0.007469664 0.1363618 -0.08717152 0.006773772
0002c0 85 9d 22 bd 6d 66 12 bd d9 56 74 3e 1b 94 03 3d
       -0.039701004 -0.035742212 0.23861255 0.032123666
0002d0 f0 92 a1 3d 2e 80 12 be e3 b7 30 be f4 da f6 bb
       0.07889354 -0.14306709 -0.17257647 -0.0075334255
0002e0 c2 d2 be 3d 3a 99 38 be f8 c8 51 bd 6a ca 04 bd
       0.093175426 -0.18027201 -0.05121705 -0.0324196
0002f0 5f 32 01 bd 0a e7 8d 3d bb 29 aa 3d 19 62 7e 3d
       -0.03154218 0.06928833 0.08308741 0.062105272
000300 d5 3c aa 3d 91 48 d5 bd d6 51 b3 3c d5 ec 48 be
       0.08312384 -0.104142316 0.021889608 -0.19621594
000310 f9 35 85 3c bd 1b dd 3d 03 56 8e bd 0d c9 4a 3d
       0.016261088 0.10796306 -0.06949999 0.049508143
000320 ca 85 12 3e ff 2b 9a bd 09 26 d6 bd c6 0e b1 3d
       0.14308849 -0.07527923 -0.104564734 0.08645396
000330 7d 6d c7 3d 66 14 08 3d 55 78 93 3d 6b 80 e9 3c
       0.0973768 0.03322258 0.07200686 0.028503617
000340 0d 82 f6 bd 61 83 8a 3b b0 38 8f bd f9 f5 ca bb
       -0.12036524 0.0042270874 -0.06993234 -0.006193873
000350 04 0a 23 3e c4 d8 99 bb 08 77 fe 3d 5f ba 2d 3d
       0.1592179 -0.00469503 0.12425047 0.042414065
000360 49 2c c3 3d b8 b0 18 3e 97 57 04 3e 8d 07 7c bd
       0.09529931 0.14911163 0.12924038 -0.06153064
000370 2a 05 2d 3d b5 3f 3d 3b dd e0 4b 3b dc 54 5d 3d
       0.042241253 0.0028877084 0.003110937 0.054036006
000380 28 90 51 3e 98 55 65 bd fe bd 51 be 38 89 80 bc
       0.20465147 -0.05598983 -0.20482633 -0.015690431
000390 db 0a 4f 3d ca 90 53 3d 07 f3 26 3b 28 0c cb bd
       0.050547462 0.051651753 0.0025474445 -0.09914428
0003a0 0e 39 26 3c 69 06 ce bc dd 5d a5 bd cd 94 29 3c
       0.010145439 -0.025149541 -0.080745436 0.010350418
0003b0 65 e5 9c bd 84 59 e3 bd f1 c7 c1 3c c6 18 53 be
       -0.07660941 -0.11101058 0.02365491 -0.20614919
0003c0 9c d6 90 bd b0 c3 31 bd f1 af 9f bd df 42 88 3c
       -0.070721835 -0.043399513 -0.0779723 0.01663345
0003d0 9d 27 9c bd 36 a4 7f bd c0 9a e1 3c bf 27 a8 3d
       -0.07624743 -0.062412463 0.02753961 0.08210706
0003e0 1b dc fa 3d ff 81 69 bd 5e ad 20 be 52 02 9d be
       0.12249013 -0.05700874 -0.15691134 -0.30665833
0003f0 11 f4 03 be 1a 09 e4 bd d3 1c 86 bc 92 61 2e 3c
       -0.12886073 -0.111345485 -0.016371166 0.01064338

model.cnn.3.bias f4 [16]
000000 84 4b 72 bd 18 3b 0c be 45 92 b0 3d 5b c4 0c 3e
       -0.05915405 -0.13694417 0.08621649 0.13746779
000010 54 34 4b 3d 6f 3a 8d bd 82 2c 4e 3d ef f2 19 3e
       0.04961045 -0.06895911 0.050335415 0.15034078
000020 97 b8 f5 bd 4c 75 a0 bc 11 8d 09 be 3e c1 00 be
       -0.11998098 -0.019587182 -0.13432719 -0.12573716
000030 51 9c 08 3d f0 c0 10 3e 49 bc 75 3c 7a c6 22 3d
       0.0333522 0.141361 0.014998504 0.039740063

model.cnn.4.weight f4 [16]
000000 d9 0f 7b 3f dd af 73 3f fa 09 80 3f 7f e1 7a 3f
       0.98071057 0.9519022 1.0003045 0.9800033
000010 91 27 81 3f 02 74 71 3f 94 3e 8b 3f 91 16 80 3f
       1.00902 0.9431764 1.0878472 1.0006887
000020 98 76 81 3f 90 4a 72 3f e7 ba 81 3f b1 11 87 3f
       1.0114317 0.94645023 1.0135163 1.0552274
000030 bf 30 82 3f 1b 4b 80 3f 42 8f 89 3f 80 c5 7b 3f
       1.0171126 1.002292 1.0746844 0.98348236

model.cnn.4.bias f4 [16]
000000 be 09 cf bc f1 44 b2 bc e6 4e 73 bb 1f c7 86 3b
       -0.0252732 -0.02176139 -0.0037125885 0.0041130926
000010 df b8 81 3d 42 73 c9 bd 1d ff 56 3c fd ac 83 3d
       0.063340895 -0.09836437 0.013122347 0.06429479
000020 30 44 9a bc b5 87 7c bc be e3 09 3d ca 0e 3d 3e
       -0.018831342 -0.015413214 0.033664457 0.18462673
000030 c5 45 fe 3b 48 71 09 bb a1 d7 46 3d 1f 0d 24 3d
       0.007759782 -0.0020972062 0.048545483 0.040051576

model.cnn.4.running_mean f4 [16]
000000 24 3e c6 bd 73 15 66 3d 1f 0d 88 3c 54 3a 37 3d
       -0.09679821 0.0561728 0.01660782 0.04473336
000010 f3 ce 12 3c 4e 52 b4 3d 09 5e b4 be 49 d1 5c 3e
       0.008960473 0.08804761 -0.35227993 0.21564211
000020 bb 2e 1d be 0c f9 5c bd e4 70 fe bd 0f 4b 3e be
       -0.15349858 -0.053948447 -0.12423876 -0.1858332
000030 e0 6e 94 be 07 a5 b0 3d f5 b7 a2 be 3a 0a 99 bd
       -0.2899084 0.086252265 -0.31780973 -0.07472654

model.cnn.4.running_var f4 [16]
000000 73 2c de 3d 2f a6 f3 3d 20 ea 02 3d bb 66 98 3d
       0.10848322 0.118969314 0.03196156 0.07441469
000010 96 90 d6 3d 84 55 cb 3d ae 14 7b 3e 49 24 d7 3d
       0.10476796 0.0992842 0.24519607 0.10504968
000020 47 bf 2f 3e 83 b4 ca 3d 45 0d 35 3e 93 24 75 3d
       0.1716281 0.09897711 0.17680843 0.059849333
000030 43 a2 9e 3e 01 c6 1b 3d cc f0 47 3e 1c d6 56 3e
       0.3098317 0.038030628 0.1952545 0.20980114

model.cnn.6.weight f4 [32, 16, 5]
000000 ca f1 14 bc 76 47 08 bd 2e 97 de bd 6a b9 1d be
       -0.00909085 -0.033271275 -0.10868679 -0.15402761
000010 82 50 ab 3c 3f 4f 2e bd 68 9f ca bd 94 4a d5 3c
       0.020912413 -0.042556044 -0.098936856 0.026036538
000020 78 0b 52 3b 72 f9 4f bd 9f ec 08 3e b9 d9 6f 3d
       0.0032050293 -0.050775 0.13371514 0.058557246
000030 a0 55 ec 3a 8c 99 6c 3d b0 e1 e1 bc e9 4d b8 bd
       0.0018030889 0.05776362 -0.027573436 -0.08999235
000040 95 2d 55 bd 58 34 e5 bd 78 64 b4 bc 32 28 0f bd
       -0.052045424 -0.111916244 -0.022020563 -0.034950443
000050 99 7b 40 bd 56 01 41 3d 4f b4 95 bc 1f 59 15 3d
       -0.046992872 0.047120415 -0.018274454 0.036461946
000060 42 49 11 3d 39 e9 d0 3d 91 84 1b bb b6 7f ab bd
       0.035470255 0.10200734 -0.0023730139 -0.08373968
000070 c8 06 99 3d e4 0e 39 bd 78 59 cc 3c fc a7 3c 3e
       0.074719965 -0.045180216 0.024945006 0.18423456
000080 4e 9c 44 3d 32 66 37 3b c8 84 b3 3d af 2b df bd
       0.048000626 0.0027984497 0.087655604 -0.10897004
000090 0c f8 84 3d ec 3d 64 3d ad 2d df bd f7 61 94 3b
       0.06492624 0.055723116 -0.10897384 0.00452828
0000a0 2c 2c 0b be 59 89 c1 bd bb 55 2e 3d 82 39 f5 3c
       -0.13591069 -0.09450025 0.042562228 0.029934648
0000b0 36 ca 77 bd dd 74 59 bd 4a dc f0 3c 7a 22 97 3c
       -0.060495578 -0.053089965 0.029401917 0.018449057
0000c0 55 bd 98 bc f3 cf b6 bd f3 4a f6 3d 58 f8 9b 3c
       -0.018644968 -0.08926382 0.12026014 0.019039318
0000d0 b3 36 62 3d 8e 6d d0 bd bc c7 88 3d a6 4c 41 bd
       0.055227946 -0.10177146 0.06678721 -0.04719224
0000e0 b8 69 75 3d 96 b4 9c 3d e1 f6 6f 3d 2c e0 b9 bd
       0.059915274 0.076516315 0.05858505 -0.090759605
0000f0 86 e8 fb 3d ae bc 71 3d 05 98 9e 3d 18 bf 9d bc
       0.1230021 0.05901783 0.07743839 -0.01925616
000100 be 03 ae 3d 6e f4 d2 bd f6 b2 6a bd 3e 88 62 bc
       0.084968075 -0.103005275 -0.057299577 -0.013826428
000110 7c 61 81 3d 60 da ed bd cb d0 68 bd 7d 10 e1 bb
       0.06317422 -0.11613917 -0.056839745 -0.0068684206
000120 1e d7 01 3e 07 6a f9 bc bc 1c ff bd a8 05 44 bc
       0.12679717 -0.030446066 -0.124566525 -0.011964239
000130 d8 11 7f 3d 68 7c 7e bd fc a3 af 3d f1 1f 46 bd
       0.062272877 -0.06213036 0.085761994 -0.048370305
000140 ad 13 fe 3c 89 d1 0d 3e 5c 37 b8 3d 99 e0 69 3d
       0.031015242 0.13849463 0.08994934 0.05709896
000150 57 62 aa 3c a4 a9 4e bd f8 fa ef bc 2f 35 1e bb
       0.020798845 -0.05045475 -0.029294476 -0.0024140587
000160 36 f3 98 3c e7 7d fb bc 33 0e 03 3d 48 b7 7a bd
       0.01867066 -0.030699683 0.031995963 -0.061209947
000170 1a b6 20 3d 5e 60 7d 3d c6 21 fe bc e8 2b aa 3d
       0.039236166 0.06185948 -0.031021964 0.08309156
000180 f9 76 f6 bd d3 cc e8 3d 83 7e 46 3c 16 43 4d 3b
       -0.12034411 0.11367192 0.012115124 0.0031320504
000190 40 13 50 bd ff 73 15 be ca 44 cc 3d c5 a9 fe 3d
       -0.05079961 -0.1459503 0.09974058 0.12434725
0001a0 44 c4 01 3e 57 c1 29 3d 01 c8 e5 3c f8 9d 49 3c
       0.12672526 0.04144415 0.02804947 0.012305729
0001b0 60 38 75 3c 88 e5 fb bc 0f a3 a9 3d e8 fc 04 bd
       0.014967054 -0.030749097 0.08283054 -0.032467753
0001c0 f3 59 56 bd e8 ef a7 3b 92 f4 03 be 1f 79 19 bd
       -0.052331876 0.0051250346 -0.12886265 -0.037469026
0001d0 59 f5 cb 3c aa 6d 70 bc 6a 39 09 3c a7 b0 bd bb
       0.024897264 -0.014674583 0.008375505 -0.005788881
0001e0 b5 b2 c9 3d 15 e8 c0 3d 4b 63 32 3d 67 5b 54 3b
       0.09848539 0.09419266 0.043551724 0.0032403113
0001f0 d2 94 00 3c ac 15 76 3d ad e9 a0 bd 7e c3 93 ba
       0.0078479815 0.06007926 -0.0785707 -0.0011273471
000200 ad d6 00 be 38 ff b8 3d 49 ea 11 3d a5 66 98 bc
       -0.12581892 0.09033054 0.035623822 -0.018603632
000210 50 4f 6d bc 11 aa 79 bc 62 f6 95 ba a5 90 4a 3e
       -0.014484242 -0.015238301 -0.0011441226 0.1978174
000220 2b da a2 3d 6a fc 81 3c 19 0c 0d 3d 19 b6 b1 3c
       0.079517685 0.01586743 0.034435365 0.021693276
000230 b4 eb da bd e4 47 0a be 90 3e 9c 3d e1 a5 99 bc
       -0.10689488 -0.13503987 0.0762912 -0.018755855
000240 9e ce ef bd bd 02 e5 bc db 91 f0 3b 8a 08 57 3c
       -0.11709331 -0.027955407 0.007341606 0.013124594
000250 7a c0 90 bc 66 a8 bf 3a 50 a2 9f bd 58 48 bd 3d
       -0.017669905 0.001462233 -0.077946305 0.09242314
000260 d0 c6 9c 3d ec f5 ed bd 3e 0c be bd 09 e9 d2 bb
       0.07655108 -0.116191715 -0.09279679 -0.0064364714
000270 b2 74 07 bd 2a 8d 8b bd 5b ae 09 3e 2a b2 6c bd
       -0.033070274 -0.06814034 0.13445418 -0.057787098
000280 16 4a a7 bc 95 6f 3c 3c 39 f8 0d bc de 09 36 3d
       -0.02042107 0.011501213 -0.008665138 0.044443004
000290 5e de 6f bd 01 0c 69 bd f9 8a 16 3d cc 35 ca bd
       -0.058561675 -0.056896213 0.03675363 -0.09873542
0002a0 b0 f2 73 bd c1 da 2f 3d 9a d9 51 bd b3 42 22 bd
       -0.059557617 0.04293323 -0.05123291 -0.03961439
0002b0 a7 1f ad bd c9 38 b1 bc d3 a7 3e bd ac 66 68 3d
       -0.08453303 -0.021633523 -0.04654677 0.05673854
0002c0 5d 71 45 3d 26 03 0f ba 4c d9 07 3d 6e 26 89 3b
       0.048203815 -0.0005455486 0.033166215 0.0041854894
0002d0 9b 1c 6b 3c bc 61 d4 bd 69 65 fb bd 8e 81 f6 bd
       0.014350082 -0.10370204 -0.12275202 -0.12036429
0002e0 27 82 ac 3d 6e ed 92 3d 6b 8e 7b 3c 6a 5a f9 bc
       0.08423262 0.07174192 0.015353779 -0.03043862
0002f0 fc 96 9b bc 38 7c f6 3c 81 3f d0 3d 5a f8 e3 3d
       -0.018992893 0.030088529 0.101683624 0.11131354
000300 53 78 70 3d 80 f2 89 3d e6 9d 10 3c 8f de 55 3d
       0.0587085 0.06735706 0.008826708 0.0522142
000310 2c 35 ac bd 5b 18 34 be bb bb c0 bc ca a3 01 ba
       -0.08408579 -0.17587416 -0.023527017 -0.0004945366
000320 4c 7c dd bd c9 bb 88 bc a1 fa f4 bd 7a b7 23 bd
       -0.10814723 -0.016691105 -0.11961866 -0.0399699
000330 50 82 15 bd 5b 95 51 3d 88 0e 61 3d 4f fd c4 3d
       -0.03650123 0.051167827 0.0549455 0.09618627
000340 b5 4a d5 bc f0 e5 8b bd e7 da d7 bd 68 79 60 3d
       -0.0260366 -0.068309665 -0.10539799 0.054803282
000350 5b 2d 09 bd 04 28 73 bd 55 5a cc bd 0b 11 e4 bd
       -0.03349052 -0.059364334 -0.09978167 -0.11136063
000360 e9 4a 05 3e 6f 22 d1 3d ff 8d 7b 3c c1 f5 a7 bd
       0.13016857 0.10211646 0.015353679 -0.08201171
000370 ba 96 9f bc 86 00 d1 3d b7 40 fe 3d de 3e ab 3b
       -0.019481052 0.10205178 0.12414687 0.005226
000380 93 18 8a 3d db 1c ca bc 0a d8 0c be d5 e1 a6 bc
       0.067429684 -0.024671962 -0.13754287 -0.020371357
000390 6a b6 97 bd 6d 07 a8 bc 02 bb 9b bc 18 eb d8 3c
       -0.074078396 -0.020511353 -0.01901007 0.026479289
0003a0 66 b2 81 bd 6c df 9f 3c ac f8 b2 3b 5e be 80 3d
       -0.06332855 0.019515716 0.005461773 0.0628631
0003b0 9c ae 99 bd f6 2b f3 bd 36 59 13 3c 58 d6 2b bd
       -0.07504007 -0.11873619 0.0089934375 -0.04195246
0003c0 aa 98 c7 3d 67 22 96 bc 87 76 48 bd a5 b3 6f bd
       0.09745915 -0.018326951 -0.04894116 -0.05852093
0003d0 a6 fb e8 bd 18 6a a0 3c 18 ce 70 3d 18 2b cd 3c
       -0.11376123 0.01958184 0.058790296 0.025044963
0003e0 ce 8d 31 b9 99 ff f1 3b e1 f9 90 3c 2c 35 0b 3c
       -0.00016932862 0.007385206 0.017697277 0.008496564
0003f0 46 98 60 b9 36 c2 cc 3d ff 0f 14 3e d0 1f cc bd
       -0.00021419031 0.0999798 0.14459227 -0.09967005

model.cnn.6.bias f4 [32]
000000 96 a0 95 3c 60 ac a7 3c 2d 40 2a 3d 72 87 83 ba
       0.01826505 0.020467937 0.04156511 -0.0010034873
000010 c7 cf fc 3c 81 fb 82 bb dd af 21 bd 90 1f c0 3d
       0.030860795 -0.0039972668 -0.039474357 0.0938102
000020 e1 45 8f 3d 94 99 9e 3d d7 06 2c 3c 39 82 27 bd
       0.0699575 0.077441365 0.010499678 -0.040895674
000030 42 3e 4d bc 63 e6 8b bd 2f e6 8a 3c 0d 13 e6 bc
       -0.01252705 -0.06831052 0.016955463 -0.028085256
000040 59 57 ea 3c 61 e2 98 bd 65 7e 78 3b c8 c5 98 bb
       0.028606104 -0.07465053 0.0037917134 -0.0046622492
000050 19 24 d9 3a 82 3d a1 3d 30 66 2d bd d8 83 b2 3d
       0.0016566544 0.0787306 -0.04233378 0.087165534
000060 f7 20 45 3d 0e fb ce 3d f8 14 ac bd 4a 7e 97 3d
       0.04812714 0.10106479 -0.08402437 0.073971346
000070 6c b0 76 3d 8a ad c5 bd da cc 39 3d 65 2f e5 3c
       0.060226843 -0.096522406 0.045361377 0.027976701

model.cnn.7.weight f4 [32]
000000 11 f3 9a 3f 58 73 84 3f 83 8b 96 3f 76 2b 84 3f
       1.2105428 1.03477 1.1761326 1.0325763
000010 84 a0 85 3f a8 83 90 3f 67 8e 85 3f 03 ed 83 3f
       1.043961 1.1290178 1.0434083 1.0306705
000020 bf f3 8a 3f ab aa 8e 3f d6 85 81 3f 20 aa 90 3f
       1.0855635 1.1145834 1.0118968 1.1301918
000030 63 ca 85 3f 51 92 83 3f 0a 7c 85 3f 19 2a 98 3f
       1.0452389 1.0279027 1.0428479 1.1887847
000040 ef 76 9e 3f 07 d0 82 3f 8b 8e 98 3f 38 dc 83 3f
       1.2380046 1.0219735 1.1918501 1.030158
000050 72 db 8c 3f 02 41 87 3f d3 45 9b 3f a4 da 8f 3f
       1.1004469 1.0566714 1.2130684 1.1238599
000060 8a f6 8b 3f b5 f1 86 3f cf da 9e 3f 08 3c 8c 3f
       1.0934613 1.0542513 1.2410525 1.095582
000070 ab 2e 81 3f 90 99 94 3f 4c 82 85 3f ad c5 85 3f
       1.0092367 1.1609364 1.0430388 1.0450951

model.cnn.7.bias f4 [32]
000000 17 54 16 3e ba 8f c4 3c d8 b1 c5 3d 71 75 09 3d
       0.14680515 0.023994315 0.09653062 0.033559266
000010 7d 6d 40 bd bc a3 be 3d 93 7b 04 3c 7a 44 1d bc
       -0.046979416 0.093085736 0.008086103 -0.009598846
000020 eb a4 aa bc 37 2c b0 3d 73 a0 7a bc c2 fd f6 3d
       -0.020830592 0.08602183 -0.015297043 0.12060119
000030 4a f7 1e 3b 9e 80 8a 3b cf a9 12 bd 68 e9 f5 3d
       0.0024256282 0.004226758 -0.035806473 0.12007409
000040 d7 8c 15 3e ad e7 7f bd a7 93 82 3c 3a 7c fb bb
       0.14604507 -0.062476803 0.015939547 -0.007674721
000050 c1 85 27 bc 3b ac 0a 3d 50 8d 12 3e 93 bd f3 3d
       -0.0102247605 0.033855658 0.14311719 0.11901393
000060 69 2a cc bc ee fb 0a 3b 9b 5e 09 3e fe cc c8 bc
       -0.024922566 0.002120729 0.13414995 -0.02451181
000070 e8 7a b7 ba 92 da f1 3d 8c be c3 bc e4 58 6c 3c
       -0.0013998421 0.11809267 -0.02389457 0.01442549

model.cnn.7.running_mean f4 [32]
000000 bc da 3f 3d 4b 6b 3d 3e 49 82 5f be 51 00 5f bd
       0.04683946 0.1849796 -0.21827044 -0.05444366
000010 90 64 d6 3e 83 90 04 3e 4a a1 c4 be 65 1c db 3d
       0.41873598 0.12945752 -0.38404304 0.10698775
000020 f9 99 a8 3c ca af c4 3d 77 31 d7 be 9d b1 b9 bc
       0.020581232 0.096038416 -0.42029926 -0.0226677
000030 7b 48 0f be a1 e2 49 be 55 08 5d 3e 94 41 cd 3e
       -0.13992493 -0.19715358 0.2158521 0.40089095
000040 11 26 7a 3e e9 33 26 3a 80 e7 06 3e 94 ba db be
       0.24428584 0.00063401327 0.13174248 -0.42915785
000050 af 17 d8 bd a7 a0 a1 3e 8c 7b b6 be ca 00 05 3f
       -0.10551392 0.3156788 -0.35641134 0.5195433
000060 ee d0 22 3d f7 2e d7 bd 19 91 47 3e 2c a8 c3 3e
       0.039750032 -0.10507005 0.19488944 0.38214242
000070 3c 6d 37 be 7a 94 b4 3d 00 30 7d be e6 1a 16 bd
       -0.17912763 0.08817382 -0.24725342 -0.036646746

model.cnn.7.running_var f4 [32]
000000 44 58 3c 3e a8 22 41 3e a5 68 9d 3e 68 da e3 3d
       0.18393046 0.18860877 0.307439 0.11125642
000010 a4 e5 90 3d ed fc a1 3e 34 2f b5 3d 1f a2 c1 3d
       0.070750505 0.3163828 0.08846894 0.0945475
000020 48 02 26 3e e6 e6 1a 3e 51 08 2f 3e aa 85 b2 3e
       0.16211808 0.15127143 0.17093016 0.34867603
000030 89 f6 9b 3d 04 31 ef 3d 3b 6a cb 3d 7a 87 8b 3e
       0.07615382 0.11679271 0.09932371 0.27251798
000040 da 5c ee 3d ea 04 1a 3e f1 87 52 3d 0c 1d d7 3d
       0.11638804 0.15040937 0.051399175 0.10503587
000050 94 f1 83 3d f8 aa 82 3d 14 8d 9c 3d d8 f5 01 3f
       0.06442562 0.06380266 0.07644096 0.5076575
000060 e0 12 a8 3d 16 48 cf 3d e2 bc 8d 3e a4 06 8e 3d
       0.08206725 0.10121171 0.2768317 0.0693486
000070 47 75 13 3e 83 90 9d 3e 32 5e 9d 3d dc e0 95 3d
       0.14400207 0.30774316 0.07683982 0.07318279

model.cnn.9.weight f4 [1, 32, 5]
000000 a6 af 34 be 04 39 0b be 92 de 54 be 43 24 1f be
       -0.1764513 -0.13595968 -0.20788029 -0.15541176
000010 0f 78 3b bc 89 e0 80 3d 2d 1f 06 3d 65 ce ce 3c
       -0.011442198 0.06292827 0.032744575 0.025244901
000020 7e d5 cd bd 43 64 93 bd b6 09 85 bd 2e 2b b3 bd
       -0.10050486 -0.07196858 -0.06495993 -0.0874847
000030 73 ad 04 be da 89 ee bd 8e f7 9f bd 75 d6 43 ba
       -0.1295679 -0.11647387 -0.07810889 -0.0007470616
000040 66 c0 e8 bd cb 91 2c 3d a2 35 69 bd 7c 1a a6 3d
       -0.11364822 0.042131227 -0.056935914 0.0811052
000050 12 93 25 3d 6e 57 ba 3d 69 8e 1a 3d 1c e8 3b bc
       0.04042346 0.09098707 0.03773347 -0.011468913
000060 77 c2 97 3d 22 cc 2c be 7c ce 11 be 1d 57 f9 bd
       0.07410138 -0.16874745 -0.14238924 -0.12174819
000070 9f f8 dc bd 4e 04 9c bd 84 1f 95 3b a8 66 d2 3b
       -0.10789608 -0.076180086 0.004550876 0.006420929
000080 1b 3d fc 3d 19 3d 9b 3d a2 8c a1 3d e1 76 d5 3d
       0.123163424 0.07580013 0.07888152 0.10423065
000090 29 23 bb 3c 03 b1 9c 3d f6 5f ac 3d e0 96 93 3c
       0.022843914 0.0765095 0.084167406 0.018016279
0000a0 62 a1 37 bc 98 70 f1 3d 68 85 a9 bc 12 49 19 3a
       -0.01120791 0.11789054 -0.020693496 0.0005847375
0000b0 2b 5a 23 3b 70 3a 28 ba 52 96 c3 bd af 44 13 be
       0.002492557 -0.0006417399 -0.09550156 -0.1438167
0000c0 09 fc 15 be c1 b5 14 be 30 a0 50 3d ed 58 c1 3c
       -0.14646925 -0.14522459 0.050934017 0.023601973
0000d0 cc 47 85 3d dc 08 33 bd 1e a8 27 bd 7c 0c 17 be
       0.06507835 -0.04370962 -0.040931813 -0.14750856
0000e0 a8 97 07 be f3 00 41 be 3c ae 12 be 89 66 12 be
       -0.13241446 -0.18848018 -0.14324278 -0.14296927
0000f0 c2 ba 97 3d 2a 10 88 3d 90 e6 a1 bc 4d d1 64 3d
       0.07408668 0.06643708 -0.019763261 0.055863667
000100 85 3a 44 bd 91 ed b0 bc 91 2a 83 3d e1 1a 45 bd
       -0.04790737 -0.021597655 0.06404603 -0.048121337
000110 7f 23 6f 3d fd be 8e 3d ac 73 0e 3d f5 6d c8 3d
       0.05838346 0.06970022 0.034778282 0.09786598
000120 16 c1 86 3c 30 36 1c bd 73 2d 85 3d 40 6e 15 be
       0.016449492 -0.038137615 0.065028094 -0.14592838
000130 86 1b c0 bd 25 25 65 bc 05 59 0d be a4 19 97 bd
       -0.0938025 -0.013985907 -0.1380349 -0.073779374
000140 cd 54 38 be cf 6f bb bd 1a e4 82 ba 9c 90 43 3d
       -0.18001099 -0.09152185 -0.0009986192 0.047745332
000150 da fa 33 3d ae d4 6e 3d c3 09 73 3d db 52 2b bc
       0.043940403 0.058308296 0.05933548 -0.010456766
000160 81 04 b8 3d ee 6f d9 3d 57 c4 8b 3d 37 39 24 3c
       0.08985234 0.10617052 0.06824558 0.010023407
000170 4c 96 f9 bd 2b 98 57 bc 2c 24 0c 3e 2e e0 4e 3d
       -0.1218687 -0.013158838 0.13685673 0.050506763
000180 d9 53 5b bd c0 f8 a8 3d 7d b4 0c bd d2 2f 2f bd
       -0.05354676 0.0825057 -0.034351815 -0.042770214
000190 0a 66 a2 bd 9d 3f e1 3d 01 13 19 3e 5c c4 ca 3d
       -0.07929619 0.109984614 0.14948656 0.09900734
0001a0 6b 9b a5 3d 24 c3 2c 3d 36 3b bf bd 21 69 a7 bd
       0.08086284 0.042178288 -0.093374655 -0.081743486
0001b0 01 d3 61 3d 2f 2f ae bd 7c 31 04 be 87 06 32 be
       0.05513287 -0.08505093 -0.12909502 -0.17385302
0001c0 73 9e b8 bd 80 02 c6 3c f6 fc 6b 3d 0e d8 07 be
       -0.09014597 0.024171114 0.05761429 -0.13266012
0001d0 8a be 26 be d3 c8 ff bd 30 da b9 bd d7 ca d4 bb
       -0.16283622 -0.12489476 -0.09074819 -0.006493907
0001e0 9c f7 41 3d 7f 2f b5 bd 49 2e 90 bd e2 90 eb 3d
       0.04735528 -0.0884695 -0.07040078 0.115022436
0001f0 a2 dd df 3d 49 cd 22 bd 3b 0d f2 3d 3b 3d 9d 3d
       0.10930945 -0.039746556 0.1181893 0.076776944
000200 75 65 59 3d 96 02 11 bd 11 6c 69 bc 07 af a9 bd
       0.053075273 -0.035402857 -0.014246956 -0.08285337
000210 fb 79 4e be fa 57 35 be a8 96 ff bd 2d 01 da 3d
       -0.2016372 -0.17709342 -0.12479907 0.106447555
000220 fd 94 70 3d 67 b8 51 bd 5e 7a e7 3c 6f da 4d 3d
       0.058735836 -0.05120125 0.028256591 0.050257143
000230 06 98 35 3d 59 e5 2b 3d 37 92 43 3d 27 97 19 bd
       0.044334434 0.04196677 0.047746863 -0.037497666
000240 c1 e9 87 3d 18 ff bb bd 04 ac 2a be 87 af 42 be
       0.06636382 -0.09179515 -0.16667181 -0.19012271
000250 5e e4 09 be 61 6e c9 bd 54 6a 7f 3d 3f 94 ba 3d
       -0.13466021 -0.09835506 0.06235726 0.09110307
000260 85 02 c0 3d 3a f8 8a 3b 4f 3f b8 bd 0c 57 f5 3d
       0.093754806 0.0042410167 -0.0899645 0.119794935
000270 89 24 9d 3d fc f2 7d 3d 29 06 89 3d 40 8a c0 bc
       0.07672984 0.061999306 0.06690628 -0.023503423

exp_avg f4 [8, 3, 5]
000000 47 56 e2 b9 50 c5 07 ba 76 03 91 b9 05 56 05 37
       -0.0004317036 -0.0005179243 -0.00027659134 7.947446e-06
000010 16 e3 97 b9 1e 67 f4 39 98 5e 5e 3b 22 db b9 3b
       -0.00028970157 0.00046616135 0.0033930894 0.0056718746
000020 4e 99 62 bb 46 2d 95 ba 06 ea 6b 37 fd 51 af 37
       -0.003457624 -0.001138129 1.4061579e-05 2.0899804e-05
000030 53 f5 35 b8 a9 1b ae b6 9e d0 0a 38 d4 e0 1e 3a
       -4.338224e-05 -5.188824e-06 3.3096054e-05 0.00060607237
000040 d1 10 a4 39 e3 53 0d 39 06 e3 0f 3a 3a b9 82 3a
       0.00031293047 0.00013478058 0.0005488846 0.0009973415
000050 79 62 db 3a 47 a5 7c bb 42 24 05 bb f9 c1 34 bb
       0.0016737721 -0.0038550661 -0.00203158 -0.0027581437
000060 0d e5 4a 3a 31 ef ce 38 db 23 c2 38 e3 c7 10 38
       0.00077398197 9.867398e-05 9.2573195e-05 3.4518434e-05
000070 8b 0a 22 b8 67 64 95 b8 48 7e 52 3c f5 37 4c 3d
       -3.863363e-05 -7.123575e-05 0.012847491 0.049858052
000080 f0 09 b5 3c ca 1f 9a bc d5 02 d2 bc 5b 07 4f 3e
       0.022099465 -0.018813986 -0.025636116 0.2021765
000090 57 16 09 3e bc 80 cf 3e 33 5e 90 3e 1f 6b 4e 3e
       0.13387428 0.40527904 0.28196868 0.20158051
0000a0 0b 7e 6c 3a cb 16 7e 3b 9e 3f 11 3b 5a e6 19 bc
       0.00090214674 0.003877091 0.0022163163 -0.009393299
0000b0 c8 e4 73 3a 66 e5 f7 39 71 24 71 3a 2f 7a 86 3a
       0.00093038054 0.00047282426 0.00091988506 0.0010259802
0000c0 57 da 0a 39 4d 7a 42 3a 75 b1 2e 3b 92 ea 53 3a
       0.00013242043 0.0007418737 0.0026656066 0.0008083965
0000d0 b5 bb 23 3c df f9 1a 3b ef 82 7f 3b 93 d3 34 b9
       0.009993483 0.002364747 0.0038987955 -0.00017244955
0000e0 43 40 3f b9 0c 31 58 b8 b5 a8 22 37 f6 bf 9f 38
       -0.00018239119 -5.154409e-05 9.695233e-06 7.617466e-05
0000f0 76 5f c0 ba 45 cb b7 ba 23 16 dd ba a2 c9 0e b9
       -0.0014676887 -0.0014022371 -0.0016867559 -0.0001361729
000100 3b f8 19 3a 43 00 17 bc 9d 5a 2d bc 08 d7 dd bb
       0.0005873476 -0.009216371 -0.010580686 -0.0067700185
000110 4c e1 b6 3b 0e 3f 3c bc 01 b7 bd b8 13 37 d5 38
       0.0055810567 -0.011489643 -9.0463094e-05 0.0001016689
000120 6a 78 d1 39 28 e8 17 b8 63 a4 19 b9 51 0a 40 38
       0.00039953302 -3.6217418e-05 -0.00014652456 4.5785975e-05
000130 fa 01 b5 39 35 d1 46 39 f3 49 b2 39 2f 47 a2 39
       0.00034524483 0.00018960687 0.00034005902 0.00030952084
000140 e5 0b 8d 3a b6 d3 d7 3b ae 76 f7 ba 19 2d 9d 3a
       0.0010760991 0.006586517 -0.0018879974 0.001199159
000150 2c 92 31 3a 0d 7e 1b 38 ec fa 9c b8 3f 00 98 b8
       0.00067737955 3.7072274e-05 -7.4853975e-05 -7.247971e-05
000160 1e e1 d5 b7 37 fd e0 38 aa 04 d1 b9 22 da ee 37
       -2.5496407e-05 0.00010728317 -0.0003986706 2.8473387e-05
000170 93 8d 4e b9 36 a1 b8 38 0d a7 82 39 c1 08 1b 3b
       -0.00019698431 8.8038316e-05 0.00024919995 0.002365634
000180 40 a9 2e 3b eb ef 68 ba 47 ad 1f bb 3f 5e 79 3b
       0.0026651174 -0.0008885848 -0.0024364756 0.003805056
000190 8a 88 84 38 47 ea 61 37 68 f0 69 b8 f0 b8 58 b8
       6.319683e-05 1.3465592e-05 -5.5775425e-05 -5.167065e-05
0001a0 d8 0e 77 37 cc 79 3e ba 9c 13 ae ba 2a 08 d6 ba
       1.4725803e-05 -0.0007266074 -0.001328099 -0.0016329337
0001b0 4c b9 ca ba 67 f6 dc ba 46 41 29 bb 5f 32 85 3b
       -0.00154666 -0.0016858102 -0.002582626 0.0040648426
0001c0 3a 35 d0 3b 0b 35 25 bb ce 79 dc ba bc f7 86 38
       0.0063540014 -0.0025208618 -0.0016820969 6.435762e-05
0001d0 05 f4 a6 38 0d cb c2 36 e3 47 67 38 bb ed 83 38
       7.960949e-05 5.8052888e-06 5.514164e-05 6.2908475e-05

exp_avg_sq f4 [8, 3, 5]
000000 ce 1b 6d 36 f3 b2 85 36 42 8b 8f 36 57 19 91 36
       3.5331936e-06 3.9845413e-06 4.277944e-06 4.3242867e-06
000010 a7 66 a7 36 58 92 2d 37 4a af 50 37 41 64 65 37
       4.988938e-06 1.0345677e-05 1.2438579e-05 1.3672806e-05
000020 85 f3 3d 37 08 95 6b 37 4e 99 80 32 0e a1 b6 32
       1.1321977e-05 1.4041791e-05 1.4970876e-08 2.1260828e-08
000030 36 ce d6 32 ed c8 b6 32 64 6a cd 32 8e 9c 87 36
       2.5006653e-08 2.1278959e-08 2.3913522e-08 4.041539e-06
000040 77 bf 92 36 9d 34 8d 36 27 e4 76 36 cd 63 74 36
       4.3734285e-06 4.2082524e-06 3.6789659e-06 3.6416925e-06
000050 6f f0 af 37 1e c0 95 38 87 fa 02 38 f7 49 a2 38
       2.0973586e-05 7.140658e-05 3.1227737e-05 7.738539e-05
000060 7a 9d 27 38 19 d1 7a 33 b6 7d 92 33 d6 53 4a 33
       3.9962564e-05 5.8397834e-08 6.8215215e-08 4.710804e-08
000070 b8 80 08 33 d9 82 e3 32 15 f0 86 3b 85 49 86 3b
       3.1782037e-08 2.648578e-08 0.0041179755 0.0040981197
000080 d9 0b 82 3b 37 b1 41 3b 0f 73 15 3b 08 84 ee 3e
       0.0039686975 0.0029555091 0.0022804176 0.46585107
000090 89 7d 1f 3f 95 3a d6 3e a6 5e 09 3f df 3e 20 3f
       0.62300926 0.4184157 0.5366005 0.62595934
0000a0 98 70 2e 38 a8 9e 7f 38 eb 96 78 38 db 4d a2 38
       4.1589694e-05 6.0944498e-05 5.926836e-05 7.739264e-05
0000b0 4c 1b 0f 38 70 91 51 37 2b 4a 67 37 26 bb 8d 37
       3.411928e-05 1.2491233e-05 1.37859415e-05 1.6895658e-05
0000c0 07 9e 83 37 93 0a 76 37 68 dc a7 39 99 3d 1e 39
       1.5690004e-05 1.4665205e-05 0.00032016938 0.00015091001
0000d0 57 11 87 39 b9 ad b7 38 e4 61 a5 39 22 73 98 35
       0.00025762126 8.758478e-05 0.00031544187 1.135839e-06
0000e0 5f 23 e2 35 1e ac e1 35 d3 7d 86 35 9f 72 2d 35
       1.6848606e-06 1.6813899e-06 1.0020398e-06 6.461432e-07
0000f0 b2 54 db 36 f9 d0 0b 37 fb 87 2d 37 b3 0f 5e 37
       6.5365684e-06 8.333701e-06 1.0343264e-05 1.3235886e-05
000100 7e c5 4e 37 1c 36 ca 39 68 ba e1 39 97 2b d7 39
       1.2324539e-05 0.00038568757 0.00043054228 0.00041040473
000110 d0 ec 9d 38 0d 63 df 39 a0 ab 52 34 d1 54 cf 34
       7.530453e-05 0.00042607673 1.9620211e-07 3.8618467e-07
000120 e6 39 04 35 e9 70 a2 34 9a 33 68 34 7e 01 32 35
       4.9258085e-07 3.0257004e-07 2.1625456e-07 6.631234e-07
000130 1a 33 46 35 88 0d b1 35 71 30 d9 35 03 ef e0 35
       7.383511e-07 1.3191466e-06 1.6181858e-06 1.6758862e-06
000140 34 83 66 38 c5 9b 94 38 91 65 5a 38 38 eb 1d 38
       5.4958466e-05 7.086204e-05 5.206984e-05 3.765078e-05
000150 c3 c5 29 38 83 3e dd 32 eb 36 2e 33 b6 d3 4a 33
       4.047692e-05 2.5756213e-08 4.056248e-08 4.722434e-08
000160 61 83 10 33 b3 5b 08 33 b4 a1 57 35 82 d1 70 35
       3.36471e-08 3.1748367e-08 8.032905e-07 8.971184e-07
000170 da 5b 71 35 71 5f 83 35 b8 0b 66 35 b0 50 b7 37
       8.991316e-07 9.788038e-07 8.569873e-07 2.1852873e-05
000180 a7 b9 82 37 12 9f a4 37 83 5c a0 37 96 c4 cf 37
       1.5583659e-05 1.9624396e-05 1.9116565e-05 2.4767865e-05
000190 b5 f0 b2 33 3a b9 bb 33 e9 0d ed 33 d3 d3 fb 33
       8.332555e-08 8.7415586e-08 1.1038703e-07 1.1726629e-07
0001a0 54 50 a8 33 40 e8 5b 36 d9 e1 72 36 5a e4 8e 36
       7.837721e-08 3.276873e-06 3.619227e-06 4.2585134e-06
0001b0 5c a6 87 36 44 e6 79 36 ae bb 17 38 d4 4a dd 37
       4.0426803e-06 3.7237924e-06 3.6175996e-05 2.6380098e-05
0001c0 ec fd 75 38 d1 7e ed 37 05 54 72 37 7d 6d 0a 33
       5.8649035e-05 2.8311655e-05 1.4443886e-05 3.2230208e-08
0001d0 5f bd 3a 33 44 3e 66 33 13 41 0c 33 9e 08 78 32
       4.347873e-08 5.360768e-08 3.2655475e-08 1.4437459e-08

exp_avg f4 [8]
000000 73 f7 f4 ac 95 0c 8d ad 10 ca 54 30 d6 15 59 2d
       -6.9623695e-12 -1.6035432e-11 7.74123e-10 1.23398704e-11
000010 f2 b9 23 2e e6 27 b6 2d 12 f4 c6 2c a0 6b fa 2d
       3.722706e-11 2.0708723e-11 5.6545957e-12 2.8469505e-11

exp_avg_sq f4 [8]
000000 a6 a4 17 1c a8 e9 b2 1c 18 6a f7 22 38 5c 46 1e
       5.017451e-22 1.1839451e-21 6.7061815e-18 1.0501103e-20
000010 24 68 03 1e f8 95 ed 1c 8a 90 a5 1c 84 b3 86 1c
       6.956618e-21 1.572211e-21 1.0956147e-21 8.91378e-22

exp_avg f4 [8]
000000 7d c6 8e ba 22 be 47 3a 24 2a 19 3b 25 4c 57 ba
       -0.0010892894 0.00076195796 0.0023371065 -0.00082129455
000010 e1 f5 7d 3a cf 63 d3 ba d7 b4 0f ba d2 fe 1e ba
       0.0009687823 -0.0016127768 -0.00054819643 -0.0006065193

exp_avg_sq f4 [8]
000000 37 a8 86 36 c4 78 47 37 5e 03 17 38 99 aa 3a 37
       4.013094e-06 1.1889442e-05 3.600434e-05 1.1126184e-05
000010 56 ce d0 37 f2 f1 a7 36 53 ff 87 36 38 75 bd 36
       2.4891615e-05 5.005154e-06 4.053037e-06 5.646285e-06

exp_avg f4 [8]
000000 72 67 0d 3a 24 82 31 b9 11 21 82 3a 06 dd 0f ba
       0.00053941377 -0.00016928517 0.0009928067 -0.0005487952
000010 38 e6 4a 3a d7 f0 28 b9 fe 49 2a b8 ad 9f 2a bb
       0.0007739994 -0.00016111448 -4.060007e-05 -0.0026035116

exp_avg_sq f4 [8]
000000 20 47 8b 36 b0 9f c4 36 3f fe 40 39 04 07 e3 37
       4.150803e-06 5.8598453e-06 0.00018405261 2.7063776e-05
000010 c8 6f 1b 37 be ae 7a 36 0d c5 2a 37 85 42 b2 36
       9.264746e-06 3.7354616e-06 1.0178669e-05 5.3125573e-06

exp_avg f4 [16, 8, 5]
000000 5c aa 08 3b a0 e6 4d 3a 45 a1 68 3a c5 44 4f 3a
       0.0020853495 0.0007854495 0.00088741287 0.0007906671
000010 b3 a0 ec b9 a9 3a df 3a ec 50 e0 3a 9b 07 d5 3a
       -0.00045133158 0.0017031032 0.001711396 0.0016252877
000020 0b e5 2f 3a 23 81 ca 3a 63 49 31 3b 86 29 5e 3b
       0.000670985 0.0015449863 0.0027051799 0.0033899262
000030 b2 24 8f 3b 35 d1 2c 3b 54 44 07 3b 9b 99 41 3b
       0.004368388 0.0026369814 0.0020640092 0.002954102
000040 b1 5c 05 3b df d2 09 3b 06 73 1f 3b 5a 78 2b 39
       0.0020349438 0.002103023 0.0024330034 0.00016352665
000050 6a 1a 0c bb 69 db c5 b9 6d 26 38 b9 dd b9 9d b9
       -0.0021378049 -0.0003773824 -0.00017561922 -0.00030083852
000060 3b 5c 46 3b 92 ce 94 ba f3 11 b7 ba bf c3 d5 b9
       0.0030267376 -0.0011353067 -0.0013967141 -0.00040772368
000070 8d 23 1e ba 63 2d 1b ba 8e 25 34 3b 5d 95 f1 3a
       -0.0006032519 -0.0005919544 0.0027488205 0.0018431355
000080 2c 98 5a 3a 8c 43 25 3a 21 58 63 3a 75 79 00 ba
       0.00083387154 0.0006304316 0.0008672495 -0.0004900911
000090 99 37 69 b8 45 bc b7 37 b9 e2 a7 3a 67 ff 1d 3a
       -5.560331e-05 2.190297e-05 0.0012808657 0.00060271326
0000a0 87 24 51 ba 08 8f 7f 39 33 cd bc b9 98 33 be ba
       -0.000797816 0.00024371978 -0.0003601104 -0.0014511226
0000b0 b8 57 55 ba af 02 c7 ba ae bc f4 38 e2 44 af b8
       -0.0008138376 -0.0015183295 0.00011669971 -8.357481e-05
0000c0 50 23 8d b9 4f 06 f7 b8 a3 a3 b2 ba 35 f6 32 ba
       -0.00026919926 -0.00011779053 -0.001362909 -0.0006826849
0000d0 7c fc 6b ba e1 b8 4e 3a 4e 53 14 ba 52 ff 37 39
       -0.00090021617 0.00078858255 -0.00056581653 0.00017547354
0000e0 42 d5 0c ba 63 79 b9 b9 8c 35 64 ba e1 e8 5a ba
       -0.0005372354 -0.0003537639 -0.0008705489 -0.00083507417
0000f0 86 e5 a8 b9 63 0a c3 3a 3e 1a f9 39 0a dc c1 39
       -0.00032214465 0.0014880415 0.00047512533 0.0003697577
000100 f9 c6 cc 3a 65 78 11 3a 38 fd ae 3a 33 4c d3 3a
       0.0015623263 0.0005549251 0.0013350612 0.0016120732
000110 af 2f 0a 3a 97 34 0a 3b 6a 1e 2c 39 9a 00 3a b9
       0.00052713876 0.0021088475 0.00016414528 -0.00017738566
000120 f1 1f 04 ba 30 43 dc 38 17 29 94 ba 0f 05 8e 38
       -0.000504016 0.00010502932 -0.001130375 6.77203e-05
000130 ad f5 ae 37 40 c0 09 39 9f 9f 8b 3a 61 9e 83 3a
       2.0856818e-05 0.00013136957 0.0010652429 0.0010041707
000140 72 61 78 ba 85 c7 35 3a ca 0d 2e bb 61 ff 1a bb
       -0.00094749697 0.0006934333 -0.0026558512 -0.0023650753
000150 50 1a 43 bb 9c ac b7 39 9b a0 f5 ba 33 93 39 bb
       -0.0029770322 0.00035033084 -0.0018739881 -0.0028316497
000160 45 8e 00 bb d6 c2 cd b4 63 ad 0c bc 36 46 2f bc
       -0.001961605 -3.8325987e-07 -0.0085862605 -0.010697892
000170 4d 7a 19 bc b6 63 12 bc b0 05 b5 bb 61 ed 30 bb
       -0.009367538 -0.008934906 -0.0055243596 -0.0026996958
000180 81 25 c2 bb fd 64 9c bb 21 55 7c bb 25 87 a5 bb
       -0.005924881 -0.004772781 -0.003850289 -0.005051511
000190 d2 76 df ba 83 56 da b9 d8 27 64 bb 8f 3a 15 3a
       -0.0017048961 -0.00041644656 -0.0034813788 0.0005692625
0001a0 e5 c2 a9 3a bd c7 54 bb 2d bf 4a bb 64 f9 a7 bb
       0.001295176 -0.0032467686 -0.0030936704 -0.005126165
0001b0 67 04 64 bb 5e 4a 9c ba 0f 74 03 bb 76 b9 34 bb
       -0.0034792663 -0.0011924019 -0.002005819 -0.0027576364
0001c0 d5 36 22 bb d3 53 f9 ba 42 b7 28 bb fd 76 85 b9
       -0.002475192 -0.0019022174 -0.0025743996 -0.0002545639
0001d0 a1 1b 83 ba ef 19 99 ba 0c 4a 7e b9 72 da 0a 3a
       -0.0010002741 -0.0011680702 -0.00024250912 0.0005296833
0001e0 4b 83 0e 3a 36 5d eb b8 9b 9e 89 3b 3f d9 bf 39
       0.00054364343 -0.00011223035 0.0041998154 0.0003659222
0001f0 67 70 4f 3b 24 2c 10 3a 3f 55 22 b9 d7 7e 83 38
       0.003165269 0.00054997415 -0.0001548128 6.2701925e-05
000200 2c a4 63 3b 3c 55 53 ba fd 8a bc 3a 74 6b 23 ba
       0.0034735305 -0.0008061712 0.0014384683 -0.00062339683
000210 e3 c6 db 39 95 d3 f2 3a 50 0c 4f 3b bd 2f 8c b8
       0.00041919117 0.0018526191 0.0031593032 -6.684612e-05
000220 6f 49 df 3a 92 f2 aa 3b 81 e3 e5 39 f5 ab 25 3b
       0.0017035435 0.005216905 0.00043847787 0.0025279496
000230 6a 5c e0 38 4b a5 20 ba 52 3f d8 3a 8c 46 87 3b
       0.00010698366 -0.0006128146 0.0016498363 0.004128283
000240 b7 b0 75 38 ef e4 03 3a 38 7c ee b9 5f 89 48 3a
       5.857713e-05 0.0005031367 -0.00045487448 0.00076498644
000250 32 a7 06 3b 17 f5 fb 3a 12 35 1f 3a 5d 2c 66 3a
       0.0020546434 0.0019222823 0.0006073277 0.00087804144
000260 d6 69 46 3b b0 bf 78 3b c2 af 26 3b 9c 29 99 ba
       0.0030275485 0.0037956052 0.002543435 -0.0011685374
000270 ec bb a5 39 47 98 41 3b 5e 16 e1 3a e0 87 77 ba
       0.00031611265 0.0029540227 0.0017172804 -0.0009442549
000280 68 fd 35 3a 66 5d 20 ba 94 8b 16 3b 30 90 9f 3a
       0.00069423625 -0.0006117433 0.0022971379 0.0012173709
000290 5c d1 05 3b ee 52 32 39 21 c1 e0 39 24 4e c8 ba
       0.0020418977 0.00017006297 0.00042868502 -0.0015282077
0002a0 49 7d 3e 3a 10 82 17 3b 42 e6 e5 38 78 85 2d b9
       0.0007266594 0.0023118295 0.0001096246 -0.00016548287
0002b0 fe a9 36 3b 46 e9 16 3b f5 ea 11 3b 42 c8 4a 3a
       0.002787232 0.0023027225 0.002226529 0.0007735529
0002c0 1c a5 93 b8 aa ed 24 3b 36 f7 e1 3a f9 e6 5a 3b
       -7.04026e-05 0.0025166073 0.0017239812 0.003340183
0002d0 72 5f a7 b9 ff ed 8e 3a 27 60 22 39 30 e5 f6 3a
       -0.00031923834 0.0010904669 0.00015485343 0.0018836614
0002e0 6c a5 24 3b f3 ac 3b ba d7 f4 b7 3a 4e 1a 9d 3a
       0.0025123013 -0.00071592553 0.001403476 0.0011985989
0002f0 29 5e 3c 38 55 2c c3 3a 86 4c 69 3a 63 62 27 ba
       4.4910386e-05 0.0014890531 0.00088996475 -0.0006385205
000300 b6 1a da 39 a5 19 1c 3b ed d0 54 3b f1 0d a8 3a
       0.000416001 0.0023818996 0.0032473162 0.0012821538
000310 cb 72 07 3a a5 6c 43 37 d9 50 3a 3a c7 83 8f 3a
       0.0005166947 1.16482015e-05 0.0007107384 0.0010949307
000320 5d 17 19 bb d9 dc 21 3a 22 0e 00 3a 19 b6 11 3b
       -0.0023359873 0.00061745715 0.00048849185 0.0022233783
000330 a3 f4 12 3b 20 60 91 3a 71 eb aa ba 1f 15 61 ba
       0.0022423647 0.001109127 -0.0013040138 -0.0008586216
000340 51 be ee b9 c2 13 a4 3a 43 af fc b9 15 61 24 bb
       -0.00045536694 0.0012518095 -0.00048195766 -0.002508228
000350 01 7f 94 b9 7b 68 2c b7 2b 9c 32 3a de 45 53 ba
       -0.00028323385 -1.0276325e-05 0.0006813432 -0.0008059422
000360 e4 09 23 3a 43 d5 88 39 b6 e4 59 3b 49 9d 58 3b
       0.00062194304 0.00026098834 0.0033247895 0.0033052734
000370 d8 a2 14 b8 42 f7 10 ba a3 07 82 ba 43 fa ae b9
       -3.543761e-05 -0.00055300083 -0.0009920489 -0.00033374326
000380 8d c4 69 ba c1 59 9d b9 2b 4b 50 39 8c 5e d3 ba
       -0.0008917533 -0.00030012245 0.00019864428 -0.00161262
000390 33 53 d7 38 48 31 dd ba bc 2a 6f ba e2 d4 cb b9
       0.00010267496 -0.0016875649 -0.00091234944 -0.00038877787
0003a0 8a cf 5c 3a 9f b0 45 3b 03 3a 57 3b c4 06 2f ba
       0.000842326 0.0030165089 0.0032840974 -0.00066767284
0003b0 17 9f 02 bb a0 10 13 b8 e4 99 f3 ba b4 4b 8a b9
       -0.001993125 -3.5063014e-05 -0.0018585292 -0.00026377814
0003c0 ab df 7e b9 1b 74 32 bb be 1d 3f b9 d6 73 db ba
       -0.0002430665 -0.0027229849 -0.00018226259 -0.0016742896
0003d0 df 5e 16 bb 7d 22 9b b9 75 89 05 3b 14 da 51 bb
       -0.0022944731 -0.000295896 0.002037612 -0.0032020854
0003e0 7c cd 05 bb 08 a5 6c ba c1 80 09 bb 6a 91 c1 3a
       -0.0020416668 -0.0009027277 -0.0020981284 0.0014768068
0003f0 e5 fe 63 bb 3f f5 d2 bb 82 73 07 bc 5e 3a 17 ba
       -0.003478938 -0.006437927 -0.008267285 -0.000576889
