models/LB_UNet_30s--epoch=19-val_loss=1.05-train_loss=0.97.ckpt (torch, 268153 bytes, 121 tensors)

model.cnn_input_1.0.weight f4 [3]
0	0x3f724e2e	0.9465054
1	0x3f5f3057	0.87183136
2	0x3f9275e3	1.1442226

model.cnn_input_1.0.bias f4 [3]
0	0xbd110fad	-0.03541534
1	0xbd80eae3	-0.06294801
2	0x3d8788e9	0.066179104

model.cnn_input_1.0.running_mean f4 [3]
0	0x40bc021f	5.875259
1	0xbf13ea3d	-0.57779294
2	0x3e888eb6	0.2667138

model.cnn_input_1.0.running_var f4 [3]
0	0x42223102	40.54786
1	0x4578846a	3976.276
2	0x3dd504cf	0.10401308

model.cnn_input_1.1.weight f4 [8, 3, 5]
0	0xbe92711d	-0.28601924
1	0xbde7ecc0	-0.11324453
2	0xbd31099a	-0.043222047
3	0xbe40a134	-0.18811494
4	0xbd9d29b3	-0.07673969
5	0xbdfd3a0a	-0.12364586
6	0x3e041d84	0.12901884
7	0xbca93492	-0.02065495
8	0xbd57496e	-0.052560262
9	0xbc9846ef	-0.018588511
10	0x3e75c39b	0.24000399
11	0x3e3e4384	0.18580443
12	0xbe008b1f	-0.1255307
13	0x3e8331e0	0.2562399
14	0x3e8582f9	0.26076487
15	0xbe1f7ba0	-0.15574503
16	0xbe6b99fd	-0.2300796
17	0x3e2e4832	0.17019728
18	0xbe623ede	-0.22094294
19	0x3e4d958e	0.20076582
20	0xbd30809d	-0.043091405
21	0xbde293a7	-0.11063319
22	0xbcedbab6	-0.029019695
23	0x3d37b376	0.04484888
24	0xbd01fae1	-0.031733397
25	0x3e9ab665	0.3021728
26	0xbdf57926	-0.11985998
27	0xbe9afbb7	-0.30270168
28	0xbd5c0478	-0.0537152
29	0xbde409f9	-0.11134715
30	0xbd9dfa76	-0.07713787
31	0xbd40524a	-0.046953477
32	0xbe343730	-0.17599177
33	0xbce19081	-0.027534725
34	0xbce9f863	-0.028560823
35	0x3e39287e	0.18081853
36	0xbda55cae	-0.08074318
37	0x3e2beefe	0.16790387
38	0x3e232b40	0.15934467
39	0x3b2d399d	0.0026432045
40	0xbe352ca6	-0.17692813
41	0x3e42e65f	0.19033192
42	0xbe0fd640	-0.14046574
43	0x3e596a96	0.21232066
44	0xbe9a2ae9	-0.30110863
45	0x3dee61cb	0.11639746
46	0x3da9d588	0.08292681
47	0x3d91b982	0.07115461
48	0x3e5d2b7c	0.21598619
49	0x3e1a6b7f	0.15080069
50	0xbdfd6dc0	-0.12374449
51	0xbd9ace19	-0.07558841
52	0x3e44c5a0	0.19216013
53	0xbe323eff	-0.17406844
54	0xb9394793	-0.00017669638
55	0xbe2913b4	-0.16511422
56	0x3d3c5735	0.045981605
57	0x3e26d507	0.16292201
58	0xbe0900fd	-0.13379283
59	0xbdaa63cf	-0.08319818
60	0xbdfe6588	-0.12421709
61	0x3e080eb1	0.13286854
62	0x3dfd7f03	0.12377741
63	0xbd9b59e1	-0.075855024
64	0xbe26a6a2	-0.16274503
65	0x39203bb9	0.00015281037
66	0x3d1717fc	0.036888108
67	0x3d4bc889	0.049751792
68	0xbe394ed6	-0.1809648
69	0x3e5d90a3	0.21637206
70	0xbe904e42	-0.28184706
71	0xbd874108	-0.066042006
72	0x3e88eda8	0.26743817
73	0xbc4128ca	-0.01178951
74	0x3bfb4e30	0.007669233
75	0x3d222016	0.03958138
76	0x3de0bc70	0.109734416
77	0xbd922ad1	-0.07137073
78	0xbe340824	-0.1758123
79	0x3d915b68	0.070975125
80	0x3e0c7655	0.13717015
81	0xbd0d9fe1	-0.0345763
82	0xbe417c18	-0.18894994
83	0x3e2591b6	0.16168866
84	0xbd158743	-0.03650595
85	0x3e0df629	0.13863434
86	0xbea50372	-0.3222919
87	0xbe95aa7a	-0.29231626
88	0xbda90713	-0.082533024
89	0xbdcd8862	-0.100357786
90	0xbe618faf	-0.22027467
91	0xbd46acd6	-0.048504673
92	0xbe48d358	-0.19611871
93	0x3db852c9	0.09000165
94	0x3d551077	0.052017655
95	0x3dba1974	0.09086886
96	0x3e572ef5	0.21014006
97	0x3df18384	0.11792663
98	0xbdf9d10a	-0.12198074
99	0xbe60815f	-0.21924351
100	0xbe3f7329	-0.18696274
101	0xbe33466c	-0.17507333
102	0xbde04f60	-0.109526396
103	0xbe093d98	-0.13402402
104	0x3d9a0dac	0.07522139
105	0xbd4a808a	-0.04943899
106	0x3dcbb4aa	0.09946568
107	0x3e013d64	0.12621075
108	0xbe036693	-0.12832098
109	0x3e020131	0.12695767
110	0xbe06e1b3	-0.13172035
111	0x3e244330	0.16041255
112	0xbe089a19	-0.13340034
113	0x3dc558e5	0.09636096
114	0xbb81cea8	-0.003961403
115	0xbe097b94	-0.13426048
116	0xbdf6a3ef	-0.120429866
117	0xbe769804	-0.24081427
118	0xbeae1a0d	-0.3400425
119	0xbe887783	-0.2665368

model.cnn_input_1.1.bias f4 [8]
0	0xbe207e37	-0.15673147
1	0x3e07666b	0.13222663
2	0xbda1979f	-0.078902476
3	0x3d354ef8	0.044264764
4	0xbdd1d62a	-0.10245927
5	0x3c9633f1	0.018335314
6	0x3e8384f2	0.25687367
7	0xbc818276	-0.015809279

model.cnn_input_1.3.weight f4 [8, 8, 5]
0	0x3dd21b54	0.10259119
1	0xbda98fa8	-0.082793534
2	0xbbd32e51	-0.0064447303
3	0x3b84daf9	0.004054424
4	0xbe17bfe8	-0.148193
5	0x3bf1036a	0.0073551433
6	0x3e3480be	0.17627236
7	0x3e270c74	0.16313344
8	0x3dc9091e	0.09816192
9	0x3da840b7	0.082154684
10	0x3caff2b3	0.021478033
11	0xbd0b20fe	-0.03396701
12	0xbbe8213a	-0.007084039
13	0xbc5f1c32	-0.013617562
14	0xbd60bda1	-0.054868344
15	0xbc4dcdab	-0.012561242
16	0xbd53a583	-0.051671516
17	0xbdd7ff97	-0.10546797
18	0xbc8ed4f1	-0.017435523
19	0x3d961ecc	0.07330093
20	0x3d38cd6c	0.04511778
21	0x3d508990	0.05091244
22	0x3d90f6d0	0.07078326
23	0x3cd68fbe	0.026191588
24	0xbd80cadb	-0.062886916
25	0x3d10bce9	0.03533641
26	0xbd374269	-0.044741068
27	0xbc6e549c	-0.01454654
28	0xbd55322e	-0.05204981
29	0x3dc6b01a	0.097015575
30	0xbe49286c	-0.19644326
31	0xbdf44952	-0.11928047
32	0x3e1a87de	0.15090892
33	0xbe178038	-0.14795005
34	0x3d5c7399	0.05382118
35	0x3defd572	0.11710633
36	0xbd6b09fc	-0.05738257
37	0x3dd37552	0.103251114
38	0x3c5c338e	0.013440026
39	0xbd96456b	-0.07337459
40	0xbcd14758	-0.025546715
41	0xbca99c4d	-0.020704413
42	0x3e1487cc	0.14504927
43	0x3dc6e558	0.097117126
44	0xbd02ed17	-0.031964388
45	0xbdf36d40	-0.11886072
46	0x3b9ee5d3	0.0048491745
47	0x3df747f2	0.12074269
48	0xbc29a3ac	-0.010353964
49	0x3d7dbf95	0.061950285
50	0x3db1c10b	0.08679398
51	0x39ba9022	0.00035584072
52	0x3df8e2b7	0.121526174
53	0xbd94f280	-0.07272816
54	0x3c419a52	0.011816578
55	0x3dbee3e1	0.09320808
56	0xbdc422b3	-0.09576931
57	0x3e008730	0.1255157
58	0xbd5df17a	-0.054185368
59	0xbce760a1	-0.028244318
60	0xbd686874	-0.05674024
61	0x3de1503e	0.11001633
62	0xbc3d5510	-0.011555925
63	0xbcf4e7a9	-0.02989562
64	0x3d27456b	0.040837687
65	0xbc9b5210	-0.018960029
66	0xbdba00da	-0.09082194
67	0x3d4789d8	0.048715442
68	0x3e0783ab	0.13233821
69	0xbe224e23	-0.1585012
70	0x3d92b6a3	0.071637414
71	0x3dd00d92	0.10158838
72	0xbdb63096	-0.08895986
73	0x3dbc970d	0.09208498
74	0x3d31d7d0	0.043418705
75	0xbdcca877	-0.099930696
76	0x3df9c261	0.12195278
77	0xbcbe27a1	-0.023212256
78	0xbe25367c	-0.16134065
79	0xbe016582	-0.12636378
80	0x3da2f549	0.07956941
81	0x3cea54d6	0.028604906
82	0xbe00934a	-0.12556186
83	0x3d75ca03	0.060007107
84	0x3ddb09a8	0.10695201
85	0xbdfeb8a9	-0.12437565
86	0xbdb801a5	-0.08984689
87	0x3d872bfe	0.06600188
88	0x3d27a59f	0.040929433
89	0x3db9f703	0.09080317
90	0xbcf3716a	-0.029717166
91	0x3d910492	0.0708095
92	0x3dfa68ed	0.12227044
93	0x3da2fe2b	0.07958635
94	0x3cdb5999	0.026776122
95	0x3d846ea0	0.064664125
96	0xbd115157	-0.035477962
97	0x3d675bf0	0.056484163
98	0x3cc9a22e	0.024613466
99	0xbd931664	-0.07182005
100	0x3d07e6b1	0.03317899
101	0x3e53efd9	0.20696963
102	0x3d422dc5	0.04740693
103	0xbcbc8e57	-0.023017092
104	0xbd9d0f6d	-0.07668958
105	0x3de1a90d	0.11018572
106	0xbe0ac45b	-0.13551466
107	0xbe1a765a	-0.1508421
108	0xbd68a16f	-0.05679458
109	0x3e0e59e1	0.13901474
110	0xbd2c8abb	-0.04212449
111	0x3e1081c7	0.14112006
112	0xbd5664a1	-0.05234206
113	0xbd208bff	-0.03919601
114	0x3bd220b8	0.006412592
115	0xbcbcd1b6	-0.023049217
116	0x3bf7d1b8	0.007562842
117	0xbd59e42a	-0.05319611
118	0x3cb5c923	0.022190636
119	0x3c74e7ac	0.014947813
120	0xbd4f5a9e	-0.05062353
121	0x3cacbeed	0.021087134
122	0x3ccd4d5c	0.025061302
123	0x3dfbe20c	0.122989744
124	0xbd334baa	-0.04377333
125	0x3df0ec44	0.11763814
126	0x3daa6dca	0.08321722
127	0x3d53a7db	0.05167375
128	0xbe6908f2	-0.22757319
129	0x3cb928c1	0.02260244
130	0x3c7d0956	0.01544412
131	0xbe1b7c12	-0.15184048
132	0xbdb46ff7	-0.08810418
133	0x3e0f6e9d	0.1400704
134	0x3da80204	0.082035094
135	0x3dcb4ff7	0.099273615
136	0x3cae7741	0.0212971
137	0x3c1347b4	0.008989263
138	0x3e01bc59	0.12669505
139	0xbd047df8	-0.032346696
140	0xbbd2443a	-0.0064168246
141	0x3c1b229b	0.0094687
142	0x3e276993	0.16348867
143	0x3e163575	0.1466883
144	0x3e266485	0.16249283
145	0x3e151ad0	0.1456101
146	0xbda43958	-0.0801875
147	0xbbf41c18	-0.007449638
148	0xbd1565ca	-0.036474027
149	0xbdaca96d	-0.08430753
150	0x3d304c14	0.043041304
151	0x3ca42436	0.020036798
152	0x3cc5c97b	0.024143925
153	0xbcde75cc	-0.02715578
154	0xbd1643f1	-0.036685888
155	0xbd35d3c5	-0.044391412
156	0x3b94dea8	0.0045431443
157	0xbd789c3b	-0.060695868
158	0xbe7a65e1	-0.24452926
159	0xbd936c36	-0.07198374
160	0xbe057839	-0.13034143
161	0x3d393687	0.045218017
162	0xbda84f1c	-0.08218214
163	0x3ca9e6b3	0.020739889
164	0xbc2da75b	-0.010598983
165	0x3e1a3ab5	0.15061457
166	0xbcf2a66f	-0.029620377
167	0xbc90fdc3	-0.017699128
168	0x3cf7b92f	0.03023967
169	0xbdd29e4c	-0.10284099
170	0xbde319c1	-0.110888965
171	0x3dfc10bb	0.123078786
172	0x3c9d7a65	0.019223401
173	0x3cf7edca	0.030264754
174	0x3d43eb04	0.04783155
175	0xbdad6888	-0.084672034
176	0xbde60b1c	-0.11232588
177	0xbc46f522	-0.012143405
178	0x3cdf49a5	0.027256796
179	0xbd7c7a0a	-0.061639823
180	0xbdef3ebc	-0.116818875
181	0xbcc9bef6	-0.02462719
182	0x3d938e53	0.072048806
183	0xbe217b67	-0.1576973
184	0xbd9a27e3	-0.07527139
185	0x3db4ca8e	0.08827697
186	0xbda62493	-0.08112445
187	0x3e699daf	0.22814058
188	0x3e3213ac	0.17390317
189	0x3b9575c0	0.004561156
190	0x3d20f3ec	0.039295122
191	0x3c899741	0.016795756
192	0xbdbd0c15	-0.0923082
193	0x3dbefbfb	0.09325405
194	0xbd874432	-0.06604804
195	0x3d21706b	0.03941385
196	0x3d0f4f1d	0.034987558
197	0x3e3d2c3f	0.1847391
198	0x3df5d96d	0.12004361
199	0x3df5d0af	0.12002694
200	0xbd1a271e	-0.03763496
201	0x3d73c02b	0.059509438
202	0xbe1bd569	-0.15218128
203	0x3d784440	0.060611963
204	0xbdf133a3	-0.11777427
205	0x3d9a900f	0.07547008
206	0xbd34bfc6	-0.044128202
207	0x3dd5dae1	0.104421385
208	0x3e3396e2	0.17538026
209	0x3d3c30f0	0.045945108
210	0x3d30d99e	0.043176286
211	0x3dcb7512	0.09934439
212	0x3c893b5e	0.016751941
213	0x3d44f5af	0.048085865
214	0xbe310ca5	-0.1728998
215	0x3d9b8ef4	0.075956255
216	0x3de4dff6	0.1117553
217	0x3dd9f0cf	0.10641634
218	0xbdd1c7f3	-0.102432154
219	0xbd4690c1	-0.04847789
220	0xbdbec2c0	-0.09314489
221	0xbc1f083c	-0.009706553
222	0xbdc1be07	-0.09460073
223	0xbe4436bf	-0.19161509
224	0xbdb825f5	-0.08991615
225	0xbc930822	-0.017948214
226	0xbdca5e49	-0.09881265
227	0x3ceed005	0.029151926
228	0x3e0a1c30	0.13487315
229	0x3de21903	0.11039927
230	0x3ca9face	0.020749476
231	0xbe2885ed	-0.16457339
232	0x3c3a5671	0.011373148
233	0x3d2f858e	0.042851977
234	0xbc480423	-0.0122080175
235	0xbd2318ce	-0.039818577
236	0x3c4a5ba6	0.012350952
237	0xbd71a69b	-0.058996778
238	0xbdb34a6c	-0.08754429
239	0x3cf562e6	0.029954385
240	0x3d95440c	0.072883695
241	0x3ca179ba	0.019711364
242	0xbdda279e	-0.10652088
243	0x3e24f98c	0.1611082
244	0x3df4c544	0.11951688
245	0x3de32631	0.11091269
246	0xbc47b695	-0.012189527
247	0x3da97346	0.0827394
248	0x3e2a246c	0.16615456
249	0x3e39dcb4	0.18150598
250	0x3e0518c2	0.12997726
251	0xbcd43393	-0.025903499
252	0xbccbb762	-0.024867717
253	0x3cd60169	0.02612372
254	0x3e25c48b	0.16188256
255	0x3d95b8ef	0.07310664

model.cnn_input_1.3.bias f4 [8]
0	0xbbeb367a	-0.007178125
1	0xbcbfdf2a	-0.023421843
2	0x3e2d9842	0.16952613
3	0x3e76e019	0.24108924
4	0x3d53a09c	0.05166684
5	0xbcf83dd6	-0.030302923
6	0xbd8cf620	-0.06882882
7	0xbda22df3	-0.0791892

model.cnn_input_2.0.weight f4 [8]
0	0x3f7fb779	0.9988933
1	0x3f81170f	1.0085162
2	0x3f7ff0e4	0.99976945
3	0x3f7e39f9	0.9930721
4	0x3f871c98	1.0555601
5	0x3f802877	1.0012349
6	0x3f82112c	1.016149
7	0x3f783a69	0.96964127

model.cnn_input_2.0.bias f4 [8]
0	0x3bfa8349	0.007645045
1	0x3c9ac52e	0.01889285
2	0xbd02b107	-0.031907108
3	0x3c8e8dfe	0.017401692
4	0xbdafa648	-0.085766375
5	0x38459643	4.7108402e-05
6	0x3cdaf1a8	0.026726559
7	0xbadff244	-0.0017085751

model.cnn_input_2.0.running_mean f4 [8]
0	0x3e2798f6	0.16366944
1	0x3e6d3893	0.23166113
2	0x3ee35dc9	0.4440749
3	0x3ed5a65f	0.41728494
4	0x3ec66820	0.38751316
5	0x3dfabb8d	0.12242804
6	0x3ec72b14	0.38900054
7	0x3e43658e	0.19081709

model.cnn_input_2.0.running_var f4 [8]
0	0x3cd8538e	0.02640703
1	0x3d0075c1	0.0313623
2	0x3d5e6b05	0.05430128
3	0x3da5c08d	0.08093367
4	0x3dce70cb	0.10080107
5	0x3c9127dd	0.017719204
6	0x3da8e485	0.08246712
7	0x3d313623	0.04326452

model.cnn_input_2.1.weight f4 [16, 8, 5]
0	0x3dc3e36b	0.09564861
1	0xbdb44de3	-0.08803918
2	0x3d86970b	0.06571778
3	0x3da9e614	0.08295837
4	0x3db828ed	0.08992181
5	0x3e055010	0.13018823
6	0xbc652e1f	-0.013988047
7	0xbc9f1b1e	-0.01942211
8	0x3dea758b	0.11448201
9	0xbdc53bdf	-0.0963056
10	0x3db18d45	0.08669523
11	0xbdb2201b	-0.0869753
12	0x3bb8ff40	0.0056456625
13	0xbbbd4742	-0.005776317
14	0xbd8f1ace	-0.069875345
15	0x3d24cad6	0.040232502
16	0xbd88a6c7	-0.06672435
17	0x3cb546de	0.022128519
18	0x3ddaddcc	0.10686836
19	0xbd71bc77	-0.059017625
20	0xbdc11f84	-0.09429839
21	0xbc4f2a95	-0.01264443
22	0xbd2bbef0	-0.04193014
23	0xbcfea217	-0.03108315
24	0x3d01cffa	0.031692483
25	0xbe10be10	-0.14135003
26	0x3ddaa2fc	0.10675618
27	0x3e46e475	0.19423087
28	0x3e29f072	0.16595629
29	0x3db6b730	0.08921659
30	0xbc4adc62	-0.012381645
31	0xbe065920	-0.13119936
32	0x3dbf50a4	0.09341553
33	0xbda9fe63	-0.083004735
34	0xbdfa6f48	-0.122282565
35	0x3dd7c3f6	0.105354235
36	0x3d1e99ef	0.03872102
37	0x3d6e04c1	0.058110002
38	0x3e255f17	0.16149555
39	0xbd730d69	-0.05933896
40	0x3db76807	0.089553885
41	0x3e02f749	0.12789644
42	0xbd8e208e	-0.06939803
43	0xbd5d0aa7	-0.053965237
44	0x3d1bc8a0	0.038033128
45	0xbc8d0aa8	-0.017216995
46	0x3da6909d	0.081330515
47	0x3dfcef8a	0.12350376
48	0xbdf7ec18	-0.12105578
49	0xbe24fa30	-0.16111064
50	0xbe034f7c	-0.1282329
51	0xbd411d75	-0.047147233
52	0xbdde44a5	-0.10852937
53	0xbdf9dc35	-0.12200204
54	0x3d961da3	0.073298715
55	0x3d0cda4e	0.03438788
56	0x3e0aeade	0.13566157
57	0x3da2ffc6	0.07958941
58	0x3dbe68cb	0.092973314
59	0x3d36458d	0.044499923
60	0x3dc403e3	0.09571054
61	0xbdad6e7a	-0.08468337
62	0xbe0b0100	-0.135746
63	0xbe314de5	-0.1731487
64	0xbdbb1a9f	-0.09135937
65	0x3d903af4	0.070424944
66	0xbd5fd67b	-0.054647904
67	0xbe220f10	-0.15826058
68	0x3d92e55c	0.07172653
69	0xbe54694d	-0.20743294
70	0x3dd55792	0.10417093
71	0x3e05fcd6	0.1308473
72	0xbc937a4e	-0.018002655
73	0xbdf7f2f3	-0.12106886
74	0xbdd88a45	-0.10573248
75	0x3cfbecf9	0.030752646
76	0x3e03321f	0.12812088
77	0xbe149a41	-0.14511968
78	0xbce18292	-0.027528081
79	0xbc59ba8b	-0.013289104
80	0x3dd61011	0.10452283
81	0x3e080452	0.13282898
82	0x3cb6676c	0.022266112
83	0xbd8639f1	-0.0655402
84	0x3d92e7c7	0.07173114
85	0x3e0f0813	0.13967924
86	0x3cfc65d8	0.030810282
87	0xbdd6dec3	-0.10491707
88	0xbdbe7dac	-0.09301314
89	0xbdd5b403	-0.10434725
90	0x3d740f8a	0.05958513
91	0xbd07c626	-0.033147953
92	0x3ce2e61a	0.027697612
93	0xbdb9aaa1	-0.09065748
94	0x3e17c45e	0.14821002
95	0x3dd90c69	0.1059807
96	0xbd8e712e	-0.06955181
97	0xbd20fab1	-0.039301578
98	0xbccc166f	-0.02491304
99	0xbdc74ec9	-0.09731824
100	0xbe162f44	-0.14666468
101	0x3da2a6af	0.079419486
102	0x3ded64ed	0.11591516
103	0xbd34dc8f	-0.044155654
104	0x3d9b7e09	0.07592399
105	0xbcb15f2e	-0.02165183
106	0x3c995eed	0.018722022
107	0x3d18c845	0.037300367
108	0xbdf3a6fa	-0.118970826
109	0x3da6c66e	0.08143316
110	0x3c7ac82a	0.015306512
111	0xbdff84d2	-0.12476505
112	0xbb4a5fca	-0.0030879849
113	0xbd523477	-0.051319566
114	0x3d4f74b7	0.050648417
115	0xbd5fe0e5	-0.054657836
116	0x3d83760b	0.06418999
117	0xbe0a4479	-0.13502683
118	0x3e02009b	0.12695543
119	0xbe30bafc	-0.17258829
120	0xbd9b0a8c	-0.07570371
121	0xbb32865b	-0.0027240727
122	0x3dc676a0	0.09690595
123	0x3da6459d	0.081187464
124	0x3dc3499f	0.095355265
125	0x3d09a204	0.033601776
126	0xbde86249	-0.113468714
127	0x3d15e48f	0.036594924
128	0x3d96a08d	0.073548414
129	0xbe056119	-0.13025321
130	0x3cdd482b	0.027011951
131	0x3e07f751	0.13277937
132	0x3e03dbbc	0.12876791
133	0x3cae8df7	0.021307928
134	0xbe0de912	-0.1385844
135	0xbd2d5bb5	-0.042323787
136	0x3dabc341	0.08386851
137	0xbe17ef05	-0.14837272
138	0xbd82ff04	-0.063962966
139	0x3cb68091	0.022278102
140	0x3d93965f	0.072064154
141	0x3e09d4c1	0.13460065
142	0x3e17b37a	0.14814559
143	0x3de01646	0.10941748
144	0xba8efc70	-0.0010908972
145	0xbdabcd36	-0.0838875
146	0xbd94f389	-0.07273013
147	0xbe0a3993	-0.13498525
148	0xbdbbfe3a	-0.09179349
149	0x3db34ac3	0.08754494
150	0xbdcd20b7	-0.100160055
151	0x3daee114	0.08539024
152	0xbbcef2cf	-0.006315566
153	0xbe1f234c	-0.15540808
154	0xbe32ce7e	-0.17461583
155	0x3ce656eb	0.028117618
156	0x3de24d60	0.11049914
157	0x3d27f4e7	0.04100504
158	0x3e01b569	0.12666859
159	0xbd40cc82	-0.047070034
160	0xbe016057	-0.12634407
161	0x3de1da08	0.11027914
162	0xbbed93af	-0.0072502713
163	0x3db21279	0.0869493
164	0x3d55d8d5	0.05220874
165	0x3de38135	0.11108629
166	0x3d45101f	0.048111077
167	0x3dbf36f9	0.09336657
168	0xbd0044f5	-0.031315763
169	0x3e2d93ee	0.16950962
170	0xbda37fa3	-0.07983329
171	0xbe31105f	-0.17291401
172	0x3d9695b3	0.073527716
173	0xbb9328fe	-0.0044909706
174	0x3ddaa11f	0.10675263
175	0x3df60a6b	0.12013706
176	0xbdf5c976	-0.12001316
177	0xbdc84878	-0.09779447
178	0xbd299a35	-0.04140683
179	0x3c31f273	0.010861027
180	0x3ddf8f11	0.109159596
181	0x3d6ef1ce	0.05833607
182	0xbe12b161	-0.14325477
183	0x3d8eace5	0.06966571
184	0x3dbc2789	0.09187228
185	0x3d24373a	0.04009173
186	0xbdffddc5	-0.12493471
187	0x3d45b8f7	0.0482721
188	0xbe102c20	-0.14079332
189	0x3daad823	0.08342006
190	0x3b9871f9	0.0046522585
191	0xbc857d57	-0.016295118
192	0xbdb4b3f3	-0.08823385
193	0xbdf8287a	-0.12117095
194	0x3d0986c6	0.033575796
195	0x3db58a38	0.08864254
196	0x3d8dee73	0.06930246
197	0xbe0edb98	-0.13950956
198	0xbdbdf265	-0.09274749
199	0x3e091bde	0.13389537
200	0x3d91a859	0.07112188
201	0xbc228eee	-0.009921772
202	0x3e069a2f	0.13144754
203	0x3deef847	0.11668449
204	0xbe0017f8	-0.12509143
205	0xbd6f0954	-0.058358505
206	0x3c8ef058	0.01744859
207	0x3bbe138b	0.0058006695
208	0xbdad0a1c	-0.08449194
209	0xbe0204c5	-0.12697132
210	0x3e31c00f	0.17358421
211	0xbd2db156	-0.04240545
212	0x3d85de89	0.06536586
213	0xbd81dbef	-0.06340777
214	0x3d753b2c	0.059870884
215	0x3dd0f62b	0.10203203
216	0xbdb13f08	-0.086546004
217	0xbe1b0e4e	-0.15142176
218	0x3e37cf32	0.17950132
219	0x3b2a4248	0.0025979448
220	0xbdff20eb	-0.124574505
221	0xbe0c129d	-0.13678975
222	0xbd6e7ef6	-0.058226548
223	0x3dfd5f31	0.12371672
224	0xb9f61249	-0.000469344
225	0x3d6cfd33	0.057858657
226	0x3d82c327	0.063848786
227	0x3d563879	0.05229995
228	0x3dd00aef	0.101583354
229	0xbe20a4dc	-0.15687889
230	0x3de2aded	0.1106833
231	0x3e04691d	0.12930723
232	0xbe1906ca	-0.14943996
233	0x3b89e754	0.0042084847
234	0x3da08892	0.07838549
235	0xba493958	-0.00076760864
236	0x3ddaf2e1	0.10690857
237	0xbe4eb791	-0.20187213
238	0xbde7397d	-0.11290262
239	0x3d58fac2	0.052973516
240	0x3e32941b	0.1743931
241	0x3d76518d	0.060136367
242	0xbd1789c8	-0.036996633
243	0x3db51de8	0.08843595
244	0x3d9d2143	0.0767236
245	0xbd567c7d	-0.052364815
246	0xbdc2338a	-0.094824865
247	0xbdd2d4ac	-0.1029447
248	0xbd714288	-0.05890134
249	0x3d9ad000	0.07559204
250	0x3cfc52c5	0.030801186
251	0x3cc0ab1f	0.023519097
252	0x3d2d413e	0.042298548
253	0xbe3824be	-0.17982766
254	0xbe24fc50	-0.16111875
255	0xbaae7740	-0.0013310686

model.cnn_input_2.1.bias f4 [16]
0	0x3e343844	0.17599589
1	0x3dd9e809	0.1063996
2	0xbda27e4f	-0.07934248
3	0xbdc65a52	-0.09685196
4	0x3cc5a5f9	0.024126993
5	0x3d45f0c9	0.048325334
6	0x3dbeae69	0.0931061
7	0x3da37080	0.07980442
8	0x3ccb5c8b	0.024824401
9	0x3d918f25	0.07107381
10	0x3dd0c2f2	0.10193433
11	0x3e15a85e	0.14615008
12	0x3d5559c4	0.05208756
13	0x3d50878a	0.05091051
14	0x3de9d651	0.11417831
15	0xbdef41e0	-0.116824865

model.cnn_input_2.3.weight f4 [16, 16, 5]
0	0xbd94d650	-0.07267439
1	0xbe36560b	-0.1780626
2	0xbdbee013	-0.093200825
3	0xbd7f1409	-0.062274966
4	0x3d9a2fcd	0.075286485
5	0x3cbafc9f	0.022825537
6	0x3d527db4	0.05138941
7	0xbc5d27eb	-0.013498287
8	0xbcac0a83	-0.021001106
9	0xbcced471	-0.025247784
10	0x3dcc6546	0.09980254
11	0x3d79f835	0.061027724
12	0xbd596312	-0.053072996
13	0x3bc13240	0.005895883
14	0xbd176e7b	-0.036970597
15	0xbd9dc415	-0.07703415
16	0x3d9584c0	0.07300711
17	0xbcbd6f69	-0.023124414
18	0xbd821e3a	-0.063534215
19	0x3da97702	0.08274652
20	0xbd4dcd99	-0.0502449
21	0xbde95196	-0.113925144
22	0xbcec8e25	-0.028876374
23	0xbd6d18b5	-0.05788489
24	0xbdf7cee2	-0.12100007
25	0x3d08eaad	0.03342693
26	0x3e05020e	0.12989065
27	0xbdb75c2d	-0.08953128
28	0xbdc1b477	-0.09458249
29	0xbd234b71	-0.03986687
30	0x3bb4fe9e	0.005523517
31	0x3d96dbc4	0.07366136
32	0xbd369e82	-0.04458476
33	0xba9194b9	-0.0011106945
34	0x3cc899f3	0.024487471
35	0xbc83831a	-0.016053725
36	0xbdb54a9d	-0.08852122
37	0xbdbb6225	-0.09149579
38	0xbd8cfb65	-0.06883887
39	0x3d89246f	0.06696402
40	0xbc397dee	-0.011321528
41	0x3c8e001a	0.017334033
42	0x3d2d8712	0.04236514
43	0x3de7c01e	0.1131594
44	0x3c74580b	0.014913569
45	0xbd195908	-0.037438422
46	0xbd71ee8a	-0.05906538
47	0x3db942e9	0.09045965
48	0x3b5c7320	0.0033637956
49	0x3d99b6d8	0.07505578
50	0x3b323fef	0.0027198752
51	0x3da09a74	0.078419596
52	0x3dd00f46	0.10159163
53	0x3cac0256	0.020997208
54	0xbd506261	-0.05087507
55	0xbdaa96ce	-0.08329545
56	0xbd068f0e	-0.03285127
57	0xbc888ccc	-0.0166687
58	0xbded3d3a	-0.11583944
59	0xbe1ac955	-0.15115865
60	0x3dba5773	0.09098711
61	0xbd15cf24	-0.036574498
62	0xbe3f3c09	-0.18675245
63	0xbdbc8810	-0.09205639
64	0x3d7630f1	0.060105268
65	0x3d94e02e	0.072693214
66	0x3d13c1b1	0.03607339
67	0x3b921670	0.004458241
68	0x3da24558	0.079233825
69	0x3d4cd573	0.05000825
70	0xbd5069d0	-0.05088216
71	0x3d2442ff	0.040102955
72	0x3d9f9af0	0.07793224
73	0xbc8436a3	-0.016139334
74	0xbd88b76b	-0.06675609
75	0x3d7618bc	0.060082182
76	0xbe0aa1ef	-0.13538335
77	0xbcedf6de	-0.02904838
78	0xbe1280ea	-0.1430699
79	0xbc611284	-0.013737325
80	0x3cb54a2e	0.022130098
81	0x3d313f51	0.043273274
82	0x3d64840f	0.055790003
83	0xbdbbab1a	-0.091634944
84	0xbd51b658	-0.051199287
85	0xbd641734	-0.05568619
86	0x3c742de0	0.014903516
87	0xbe2cf239	-0.16889276
88	0xbcfdfc75	-0.03100417
89	0x3d848459	0.06470556
90	0xbd8e8011	-0.069580205
91	0x3d91374f	0.070906274
92	0x3dd1e6ec	0.10249123
93	0x3da8468d	0.082165815
94	0xbd02d459	-0.03194079
95	0xbb795a42	-0.0038048183
96	0x3d29287b	0.04129837
97	0x3d4f9b48	0.050685197
98	0x3c825f80	0.015914679
99	0x3dce9a35	0.100880064
100	0x3d83e33a	0.064398244
101	0xbd0f0c5b	-0.034923892
102	0x3db998ac	0.09062323
103	0x3b26393a	0.00253637
104	0xbd2dd280	-0.042437077
105	0xbddc5675	-0.10758678
106	0x3df009a2	0.11720587
107	0x3c9e7a01	0.019345285
108	0xbdd448ac	-0.103654236
109	0xbdbf80dd	-0.093507506
110	0xbd919b87	-0.071097426
111	0xbbee522e	-0.00727298
112	0x3d84872e	0.06471096
113	0x3d88d2f9	0.06680865
114	0xbd4e9897	-0.05043849
115	0xbd91f8f8	-0.07127565
116	0xbb2f74a2	-0.00267724
117	0x3dbbcd1e	0.091699824
118	0xbd5e6d2d	-0.054303337
119	0x3db5e835	0.088821806
120	0xbc3ad26d	-0.0114027085
121	0xbdf6c5e8	-0.12049466
122	0xbd9ad527	-0.07560187
123	0xbd3aa067	-0.045563128
124	0x3a85b36a	0.0010200564
125	0x3d797c1d	0.06090938
126	0x3c769427	0.015049971
127	0x3d6634b6	0.056202613
128	0x3d309431	0.043110076
129	0x3c744b08	0.014910467
130	0x3bdcadd6	0.00673459
131	0x3d7a1b89	0.061061416
132	0xbd0a4e36	-0.033765994
133	0xbdcb32af	-0.099217765
134	0xbdddf037	-0.10836833
135	0xbd335836	-0.043785296
136	0x3d449341	0.047991995
137	0x3dc9bc14	0.09850326
138	0xbd5efdc5	-0.054441232
139	0x3d4d317a	0.050096013
140	0xbc27ab49	-0.010233709
141	0xbd96723b	-0.073460065
142	0x3e0053cf	0.1253197
143	0xbce50082	-0.027954344
144	0xbd961a52	-0.07329239
145	0x3b970ab8	0.004609432
146	0x3daff3d0	0.085914254
147	0x3d8ffbf7	0.0703048
148	0x3dd427dd	0.10359166
149	0x3dac4961	0.084124334
150	0xbd52af97	-0.051436987
151	0xbcd8adc3	-0.026450044
152	0x3dcb6fb0	0.09933412
153	0x3da35a89	0.079762526
154	0xbdf4a8de	-0.11946271
155	0x3cf7e095	0.030258456
156	0x3db47ad6	0.088124916
157	0xbde3ee9a	-0.11129494
158	0x3df66a81	0.12032033
159	0xbd1ccdd1	-0.03828222
160	0x3cc8cfdd	0.02451318
161	0x3d945550	0.072428346
162	0xbdbe9e74	-0.09307566
163	0x3d151654	0.036398247
164	0x3db0257e	0.08600901
165	0xbe00ffdb	-0.12597601
166	0x3d309ae9	0.043116484
167	0xbe194ec3	-0.14971451
168	0xbdfde9e3	-0.12398126
169	0x3c381e4b	0.011237691
170	0x3d5b1209	0.053483997
171	0x3e0b8b5b	0.13627379
172	0xbcb1a28f	-0.02168396
173	0x3c80ddb7	0.015730722
174	0x3c90f101	0.017693045
175	0x3cf601cf	0.03003016
176	0xbd619344	-0.055072084
177	0xbd496601	-0.049169544
178	0x3e044aa9	0.12919106
179	0xbd104ca5	-0.035229344
180	0xbd7d523f	-0.061846014
181	0x3c8188ea	0.015812356
182	0x3e3c65cf	0.18398212
183	0x3d8cf8e7	0.06883412
184	0x3d827ca0	0.063714266
185	0xbd284b6b	-0.04108755
186	0x3c3c8abf	0.011507689
187	0xbd6d1710	-0.057883322
188	0xbc0d5de4	-0.008628342
189	0x3d7e98fb	0.062157612
190	0x3ccfc183	0.025360828
191	0xbd2c1f41	-0.042021994
192	0xbd68f715	-0.05687626
193	0xbc4b768b	-0.0124184
194	0xbd888923	-0.06666782
195	0xbc834284	-0.016022928
196	0x3cde7c44	0.027158864
197	0xbd53b8bb	-0.051689845
198	0x3bda5277	0.0066626626
199	0xbe062f02	-0.1310387
200	0xbe0bb2c2	-0.1364241
201	0xbd794f91	-0.060866896
202	0xbd3e115f	-0.046403285
203	0x3dc7746a	0.09739001
204	0xbdf1071c	-0.11768934
205	0xbd99a5c9	-0.07502324
206	0x3db8c877	0.09022611
207	0x3d14bc2d	0.03631227
208	0x3d861e5d	0.0654876
209	0x3dfe4f87	0.124175124
210	0x3d8bb180	0.06820965
211	0xbdd184c2	-0.102304
212	0xbd396b98	-0.045268625
213	0x3da06d8d	0.07833395
214	0x3d7c562c	0.061605617
215	0xb9d6bb18	-0.00040956656
216	0xbdaf719b	-0.085665904
217	0x3c5d9886	0.013525134
218	0xbcad0bd6	-0.021123808
219	0xbcaa2c5e	-0.020773109
220	0x3c39c053	0.011337358
221	0x3e1b94f1	0.15193535
222	0xbd2a4f20	-0.041579366
223	0xbd6a8f8d	-0.057265807
224	0x3d9b45e2	0.075816885
225	0x3de06d03	0.10958292
226	0x3cc509b3	0.024052477
227	0x3e05f716	0.13082537
228	0x3dbe0d4a	0.092798784
229	0xbd21d667	-0.03951111
230	0x3cd2936a	0.025705058
231	0x3dbb9cce	0.091607675
232	0xbd68699b	-0.05674134
233	0x3d3f97e1	0.046775702
234	0x3dbe3639	0.09287686
235	0x3dccb4c7	0.09995418
236	0xbd2a4867	-0.041572955
237	0x3b8b5a53	0.004252711
238	0x3d69c0b1	0.05706853
239	0xbd0f5082	-0.034988888
240	0xbc875235	-0.016518692
241	0x3d6aa0e6	0.05728235
242	0xbd92844e	-0.07154141
243	0xbd8f7971	-0.07005585
244	0xbdb89614	-0.09013
245	0xbd29636c	-0.04135458
246	0x3d5b84a2	0.053593285
247	0x3cd1d068	0.025612071
248	0x3db2eb25	0.087362565
249	0x3d3a84ba	0.045536734
250	0x3da408f3	0.080095194
251	0x3b2aa8ba	0.002604051
252	0xbda7f3ba	-0.08200784
253	0xbbe2a6f4	-0.006916875
254	0xbdcacc61	-0.099022634
255	0x3d48453d	0.048894156

model.cnn_input_2.3.bias f4 [16]
0	0x3d87d56c	0.06632504
1	0xbd8911c0	-0.06692839
2	0xbd3b8bfc	-0.045787796
3	0xbce12bf6	-0.027486783
4	0x3d727648	0.059194833
5	0xbca81d18	-0.020521685
6	0xbcf7207e	-0.03016686
7	0x3d216455	0.039402325
8	0x3da41b69	0.080130406
9	0x3d72b67f	0.059256073
10	0xbce583c4	-0.028016932
11	0xbdb52b15	-0.08846108
12	0xbcb466b1	-0.022021623
13	0x3e0b5a12	0.13608578
14	0x3d0e6927	0.03476825
15	0x3e0066bf	0.12539195

model.cnn_input_3.0.weight f4 [16]
0	0x3f81c732	1.0138915
1	0x3f851554	1.0397134
2	0x3f800e18	1.0004301
3	0x3f75754e	0.9588212
4	0x3f86171f	1.0475806
5	0x3f802080	1.0009918
6	0x3f7cb3de	0.98711956
7	0x3f75d87a	0.9603344
8	0x3f7f82b0	0.9980879
9	0x3f81041c	1.0079379
10	0x3f7d279b	0.9888856
11	0x3f7ccd9d	0.9875124
12	0x3f8120ee	1.0088174
13	0x3f80b043	1.0053791
14	0x3f815b35	1.0105959
15	0x3f7aa9e1	0.97915465

model.cnn_input_3.0.bias f4 [16]
0	0xbc981b73	-0.018567776
1	0xbbe1c0c4	-0.0068894345
2	0xbb01f2e9	-0.0019828624
3	0x3d081285	0.033220787
4	0xbd17710a	-0.036973037
5	0xbc69724d	-0.014248443
6	0xbc806224	-0.015671797
7	0x3c138a6c	0.00900517
8	0xbd2ae3c3	-0.041721117
9	0xbce4674f	-0.027881293
10	0xbcc3dab6	-0.023908
11	0x3b86e77e	0.0041169515
12	0xbac365a6	-0.0014907613
13	0xbcb89b10	-0.022534877
14	0x3cfc7890	0.030819207
15	0x3b93934e	0.004503644

model.cnn_input_3.0.running_mean f4 [16]
0	0x3e4d1398	0.20027006
1	0x3e88cdbd	0.26719466
2	0x3e7d65c5	0.24745853
3	0x3e1ccb27	0.15311871
4	0x3e65e04f	0.22448848
5	0x3e3544de	0.17702052
6	0x3e9ea462	0.3098479
7	0x3e0f5b57	0.13999687
8	0x3d9b26bf	0.075757496
9	0x3ec0115a	0.37513238
10	0x3e7f1fbf	0.24914454
11	0x3e0e7b59	0.13914241
12	0x3e5e778f	0.21725295
13	0x3f133266	0.57498777
14	0x3dea3904	0.11436656
15	0x3ee1d0a8	0.44104505

model.cnn_input_3.0.running_var f4 [16]
0	0x3d3a6118	0.045502752
1	0x3d2e91a7	0.042619374
2	0x3d3c77b8	0.04601261
3	0x3cae3080	0.021263361
4	0x3d4485ab	0.04797904
5	0x3cbe9003	0.02326203
6	0x3d6fb676	0.058523618
7	0x3cbcc42c	0.02304276
8	0x3c5c7c09	0.013457307
9	0x3d043578	0.032277554
10	0x3d8f7f1a	0.070066646
11	0x3cdb66bb	0.026782384
12	0x3d3647e8	0.04450217
13	0x3c877f9b	0.01654034
14	0x3c7d5b45	0.015463655
15	0x3d12aab2	0.03580732

model.cnn_input_3.1.weight f4 [32, 16, 5]
0	0xbd21ed76	-0.0395331
1	0xbd72f918	-0.059319586
2	0x3cee65f9	0.029101359
3	0xbd9d75f3	-0.07688513
4	0xbdcc6d65	-0.09981803
5	0x3db38367	0.087652974
6	0x3d4226e1	0.04740036
7	0xbda19455	-0.0788962
8	0xbcb3d254	-0.021950878
9	0x3c893357	0.016748114
10	0xbd62390b	-0.05523018
11	0xbd6070ec	-0.05479519
12	0xbd641e14	-0.055692747
13	0x3dc3a470	0.09552848
14	0x3d8990d8	0.0671708
15	0x3cfd8cd0	0.030950934
16	0x3d8ca427	0.06867247
17	0xbddb3264	-0.107029706
18	0xbd796377	-0.060885873
19	0x3da7b6dc	0.081891745
20	0x3db1a4c3	0.08674004
21	0xbcd5eb7f	-0.02611327
22	0xbcc68c11	-0.02423671
23	0xbc999d09	-0.018751638
24	0xbdc365e4	-0.095409185
25	0xbd0a0d37	-0.03370401
26	0x3d3e041b	0.046390634
27	0xbdcfc9ad	-0.101458885
28	0xbe0c0ed9	-0.13677539
29	0xbda234c3	-0.0792022
30	0x3e120a93	0.14261846
31	0x3dc380a7	0.09546023
32	0x3dbf618a	0.09344776
33	0xbd16ed7f	-0.036847588
34	0xbd042d4a	-0.032269754
35	0x3d3a764c	0.045522973
36	0x3c1f529d	0.009724286
37	0xbdab6f3d	-0.083708264
38	0x3dabfda6	0.08397989
39	0xbdb30a90	-0.08742249
40	0x3c310348	0.010804005
41	0xbde86a5f	-0.11348414
42	0xbd3f2d58	-0.046674103
43	0xbd1a6d47	-0.03770187
44	0xbde72cce	-0.11287843
45	0x3d0682be	0.03283953
46	0x3cc00fe5	0.02344508
47	0x3ce38fdf	0.027778564
48	0xbd8b858e	-0.06812583
49	0xbdf5216b	-0.119692646
50	0xbc0656b3	-0.008199382
51	0xbc9be808	-0.01903154
52	0xbdfd4ca4	-0.12368134
53	0xbdbcb8b8	-0.0921492
54	0xbd01025f	-0.031496402
55	0x3bfcb284	0.0077117104
56	0x3cc9f7b2	0.024654243
57	0xbdc0828f	-0.09399902
58	0x3d828a30	0.063740134
59	0x3d9d4452	0.07679047
60	0x3d1ade37	0.037809577
61	0xbc72f9d4	-0.0148300715
62	0xbbe99789	-0.00712866
63	0xbd39dd8e	-0.045377307
64	0x3e044479	0.12916745
65	0x3c86101e	0.016365107
66	0xbd5929ea	-0.053018488
67	0xbcdcd232	-0.026955698
68	0x3e04fb85	0.12986572
69	0x3de90584	0.11378005
70	0x3cd19706	0.025584709
71	0x3dbf4789	0.09339816
72	0xbdb87eaa	-0.09008534
73	0xbd3b40db	-0.045716148
74	0xbd9ab28b	-0.075535856
75	0x3d4bf19b	0.04979096
76	0x3d01bb56	0.031672798
77	0x3dc14f8e	0.09439002
78	0x3db57719	0.08860607
79	0xbda773a4	-0.081763536
80	0xbd54d02c	-0.05195634
81	0xbd98281d	-0.07429526
82	0xbdc1e1a3	-0.09466865
83	0xbd1ee42d	-0.038791824
84	0xbc449d93	-0.012000459
85	0x3d5d5d1c	0.054043874
86	0xbd29f21e	-0.041490667
87	0xbdacb11e	-0.0843222
88	0xbd87751f	-0.06614136
89	0x3d7d14f8	0.061787575
90	0x3db5877e	0.08863734
91	0xbd0a746a	-0.033802427
92	0x3dcb3af0	0.09923351
93	0x3d1a38f4	0.03765197
94	0x3dc69dd7	0.09698074
95	0x3db4d960	0.088305235
96	0x3dcd91fd	0.10037611
97	0xbddec5b7	-0.10877555
98	0xbd704ec0	-0.05866885
99	0x3d90d95a	0.070727065
100	0xbdab6a01	-0.08369828
101	0x3e1a122f	0.15045999
102	0xbb50d9ad	-0.0031868026
103	0xbd1b1420	-0.03786099
104	0xbd1ce6c7	-0.038306024
105	0xbdecce46	-0.11562781
106	0xbd97fbe7	-0.074210934
107	0x3de7bcbc	0.11315295
108	0xbca4c811	-0.02011493
109	0x3de4da20	0.111744165
110	0xba8fc077	-0.0010967393
111	0x3de2dd72	0.110773936
112	0xbdcfa166	-0.10138206
113	0x3d47bb6e	0.04876273
114	0xbd247eeb	-0.0401601
115	0xbcf557db	-0.02994912
116	0xbcf2a5b2	-0.029620025
117	0x3dd92eab	0.10604604
118	0xbd753574	-0.05986543
119	0x3de0d1d9	0.10977525
120	0xbd5bcde7	-0.05366316
121	0xbcbff933	-0.023434257
122	0xbdeeb638	-0.11655849
123	0x3d379429	0.04481903
124	0x3d06f62b	0.032949608
125	0x3be7d795	0.00707526
126	0x3d668c6f	0.05628627
127	0xbdd12f24	-0.102140695
128	0xbd6f20b5	-0.0583808
129	0xbc8618ab	-0.016369184
130	0x3d13e2bd	0.036104906
131	0xbced1871	-0.028942319
132	0xbccfd01b	-0.025367787
133	0x3cb54bc1	0.022130849
134	0x3df475c7	0.11936527
135	0xbc799d43	-0.015235248
136	0x3db8dfc1	0.09027053
137	0x3de9b59f	0.114115946
138	0x3ce1458f	0.027498988
139	0xbdd175c3	-0.102275394
140	0x3d2f039e	0.04272806
141	0xbd0a717e	-0.03379964
142	0x3cc04260	0.02346915
143	0xbdcf7f34	-0.10131684
144	0x3d77013b	0.060303908
145	0x3c8e3f40	0.017364144
146	0xbd908163	-0.070559286
147	0xbda584b5	-0.080819525
148	0xbd794ad8	-0.060862392
149	0xbd9e7df6	-0.07738869
150	0x3c20775a	0.009794081
151	0xbdb4b0f4	-0.08822814
152	0x3e152e01	0.1456833
153	0x3d857f32	0.06518401
154	0x3d70d8ce	0.05880051
155	0x3e0f9ac6	0.14023885
156	0xbd014c9e	-0.03156721
157	0xbd374c1a	-0.04475031
158	0x3c94788a	0.018123884
159	0x3dcdf99b	0.10057374
160	0x3cf3aa6f	0.029744355
161	0x3d89d17c	0.06729409
162	0x3c4ed16b	0.012623171
163	0xbd9462d0	-0.072454095
164	0x3d1c1a65	0.03811111
165	0xbc9ccd77	-0.019140942
166	0xbd0adf71	-0.033904497
167	0x3cb29711	0.02180055
168	0xbdbe7018	-0.09298724
169	0xbc7b6ab6	-0.015345266
170	0xbc519fca	-0.012794444
171	0xbdd5a4b0	-0.10431802
172	0xbd9f93e3	-0.07791879
173	0xbd9c1e54	-0.07622972
174	0x3ca82fc3	0.020530587
175	0x3dd4d31b	0.10391828
176	0x3d705d99	0.05868301
177	0xbc17fa3d	-0.00927597
178	0xbda61161	-0.081087835
179	0xbdde94b4	-0.108682066
180	0xbc9dcc58	-0.019262478
181	0xbd0e5908	-0.034752876
182	0x3df69586	0.12040238
183	0xbb63fdfd	-0.003478884
184	0xbd2b1564	-0.041768447
185	0xba89ab81	-0.0010503383
186	0xbc83267d	-0.016009564
187	0xbd0803ac	-0.033206627
188	0xbce115c4	-0.027476199
189	0xbd1a1821	-0.037620667
190	0xbe00a633	-0.125634
191	0xbd963b9e	-0.0733559
192	0x3dab04ee	0.0835055
193	0x3de19226	0.11014204
194	0x3ca52ac9	0.020162003
195	0x3d8d8964	0.06910971
196	0x3b8ed424	0.004358785
197	0x3db2bf5a	0.08727904
198	0x3d8b0660	0.06788325
199	0x3cd6b975	0.02621148
200	0x3c136613	0.008996504
201	0xbc9f005a	-0.019409347
202	0x3cbcdf71	0.023055764
203	0xbdb4ceef	-0.08828532
204	0x3a9eab69	0.0012105528
205	0x3dd707e0	0.10499549
206	0x3d10529e	0.03523504
207	0x3d6f91a2	0.058488496
208	0xbd905d30	-0.07049024
209	0x3d3bd8b4	0.04586096
210	0xb7467698	-1.1829332e-05
211	0x3cba2f71	0.0227277
212	0xbc0b5406	-0.0085039195
213	0xbe007658	-0.12545145
214	0xbcb3a6d7	-0.021930141
215	0xbd8f5401	-0.06998444
216	0x3d765069	0.06013528
217	0xbd48bccd	-0.04900818
218	0x3d371c43	0.044704687
219	0xbbc96a9a	-0.006146741
220	0x3d53a9ce	0.05167561
221	0xbdbf2844	-0.09333852
222	0xbdaa2fd5	-0.083099045
223	0xbcac667b	-0.02104496
224	0x3cd896e9	0.026439147
225	0x3e0a8d5c	0.13530487
226	0x3d92f445	0.07175497
227	0x3ba5b009	0.0050563854
228	0x3c2a0a56	0.010378441
229	0xbd5d7acb	-0.054072183
230	0xbc8f33ab	-0.017480692
231	0x37ecc7f1	2.8226497e-05
232	0xbd94e5cf	-0.07270395
233	0x3de54ae9	0.111959286
234	0xbc909f39	-0.017654048
235	0xbcbfe127	-0.02342279
236	0xbb8441a6	-0.004036146
237	0xbd836c27	-0.06417113
238	0xbd94aba9	-0.07259304
239	0x3d8705af	0.06592881
240	0xbbb85001	-0.0056247716
241	0xbcff7e0a	-0.03118803
242	0xbdec2a50	-0.11531508
243	0x3d6186aa	0.055060066
244	0x3d847e23	0.06469371
245	0x3d6d50c4	0.057938352
246	0xb7357f8d	-1.0818138e-05
247	0xbe062f30	-0.13103938
248	0x3c272d8d	0.010203731
249	0x3d20a89c	0.0392233
250	0x3d43c2cc	0.047793195
251	0x3d7c677e	0.061622135
252	0xbdec1434	-0.11527291
253	0x3b67f961	0.0035396444
254	0xbd52d54a	-0.05147294
255	0x3dc1f21a	0.09470005

model.cnn_input_3.1.bias f4 [32]
0	0x386b325e	5.6075274e-05
1	0x3c8787d5	0.016544262
2	0x3ccbc662	0.02487487
3	0x3d91db80	0.071219444
4	0xbd7431af	-0.059617694
5	0x3dc702fd	0.09717367
6	0x3db15e84	0.086606055
7	0xbd172972	-0.03690476
8	0xbdaad43f	-0.08341264
9	0x3d2d9096	0.042374216
10	0xbdc67dfe	-0.09692
11	0xbde77fa6	-0.11303644
12	0xbd80d108	-0.062898695
13	0xbb7f928a	-0.0038997256
14	0x3dd82998	0.105548084
15	0x3da5fc35	0.08104745
16	0xbdbd130a	-0.09232147
17	0x3d5f86a7	0.054571774
18	0x3de232e5	0.110448636
19	0xbd8abcc9	-0.06774289
20	0xbdfe5ea5	-0.12420396
21	0xbbfe6193	-0.0077630966
22	0x3dfcde8f	0.12347137
23	0x3d1d4866	0.038399123
24	0x3c265692	0.010152476
25	0x3e03c3ae	0.12867615
26	0x3af4632d	0.0018645279
27	0xbbd121d2	-0.0063822055
28	0x3d692d6d	0.056928087
29	0xbde6f822	-0.11277796
30	0xbc6b98b4	-0.014379669
31	0x3d864186	0.06555466

model.cnn_input_3.3.weight f4 [32, 32, 5]
0	0x3b96f404	0.0046067256
1	0xbd788f20	-0.06068337
2	0x3c64e2fe	0.013970135
3	0xbd33874f	-0.043830212
4	0x3d7b2889	0.061317954
5	0x3d0c73a5	0.034289975
6	0x3cf9b650	0.030482441
7	0x3db81a28	0.08989364
8	0x3d789319	0.06068716
9	0x3bff412c	0.0077897515
10	0xbd89440c	-0.06702432
11	0xbdbcee97	-0.09225195
12	0xbc46539b	-0.012104894
13	0xbba8fa81	-0.0051568155
14	0x3cd2d5c9	0.025736706
15	0x3d83bad4	0.06432119
16	0x3c12178e	0.008916749
17	0x3d1b0566	0.037846945
18	0xbcd7ab5f	-0.026326833
19	0xbd1acaeb	-0.037791174
20	0xbd05b295	-0.032641012
21	0xbdbaddb2	-0.09124316
22	0xbca33482	-0.019922499
23	0xbd9ce331	-0.07660521
24	0xbdb038b1	-0.08604563
25	0xbd22087c	-0.039558873
26	0xbcc0ee1e	-0.023551043
27	0x3d9f3e97	0.0777561
28	0x3bcdb6fe	0.006277918
29	0x3d6132ee	0.05498021
30	0xbc467417	-0.012112639
31	0x3cd39c88	0.025831476
32	0xbd4090fb	-0.047013264
33	0x3d60eceb	0.054913443
34	0xbd705727	-0.058676865
35	0xbce492b0	-0.027901977
36	0xbc9a1d54	-0.018812813
37	0xbdbc14b1	-0.09183634
38	0x3d827c42	0.063713565
39	0x3aad4c33	0.0013221562
40	0xbcc02f84	-0.023460157
41	0xbd9048e5	-0.070451535
42	0xbc1a137d	-0.00940406
43	0x3d591b3d	0.053004492
44	0xbacf5948	-0.0015819455
45	0xbd9006c2	-0.07032539
46	0x3c9717a7	0.018443896
47	0x3c9a414b	0.018829962
48	0x3d8630d7	0.06552284
49	0xbd775076	-0.060379468
50	0x3c3af87c	0.011411782
51	0x3d8fc398	0.070197284
52	0x3d0932da	0.03349576
53	0x3d45711b	0.04820357
54	0x3bec227c	0.0072062593
55	0xbd9d28f1	-0.076738246
56	0xbba5ac18	-0.0050559156
57	0x3dad91b7	0.084750585
58	0xbd601519	-0.05470762
59	0x3d1cb3c0	0.03825736
60	0xbdb5206e	-0.08844076
61	0x3c167e4d	0.009185386
62	0x3d628500	0.05530262
63	0xbc01f359	-0.007931554
64	0xbd7a40c8	-0.061096936
65	0xbd47d7ab	-0.04878966
66	0x3cbf05a3	0.023318117
67	0x3bb27a57	0.005446713
68	0xbd44a630	-0.04801005
69	0x3dbfb0a8	0.093598664
70	0xbd2dc483	-0.042423736
71	0x3d6a0fed	0.057144094
72	0xbd82aa47	-0.06380134
73	0xbccfb199	-0.02535324
74	0x3d0cea32	0.034403034
75	0x3cde7aab	0.027158102
76	0x3d776367	0.06039753
77	0xbd7c50dc	-0.06160055
78	0x3cd4d35d	0.025979692
79	0x3c64fb86	0.0139759835
80	0x3cf64aef	0.030065028
81	0xbc35a600	-0.011086941
82	0x3ce57eab	0.028014502
83	0x3ce09c34	0.027418233
84	0x3bf43101	0.007452131
85	0xbc717bbb	-0.014738972
86	0x3d9b7689	0.07590968
87	0x3d8c19b6	0.068408415
88	0xbc4f6830	-0.012659118
89	0x3aee1036	0.001816279
90	0xbdf8a307	-0.1214047
91	0x3d02894b	0.031869214
92	0x3cb5ab38	0.02217637
93	0xbd56d3ed	-0.052448202
94	0xbca1ef58	-0.019767448
95	0xbd60cc6f	-0.054882463
96	0x3c64da02	0.013967993
97	0x3d6d1897	0.05788478
98	0xbdb604df	-0.08887648
99	0x3cc9dace	0.024640467
100	0x3be5abbd	0.007008998
101	0xbdc01c0c	-0.093803495
102	0xbcfdd2a4	-0.03098423
103	0x3c032894	0.00800528
104	0xbb8cd3bc	-0.0042977016
105	0x3c5a3648	0.013318606
106	0x3cb2511b	0.02176719
107	0xbd913cfe	-0.070917115
108	0xbd20342a	-0.039112248
109	0x3d8eabb1	0.06966341
110	0xbd82049b	-0.06348535
111	0xbc018d20	-0.007907182
112	0xbd2154d0	-0.039387524
113	0x3cf6aeda	0.030112673
114	0x3cc0de6a	0.023543555
115	0xbd13f811	-0.036125246
116	0xbd63fe2d	-0.055662323
117	0xbd416a5d	-0.047220577
118	0x3d55b7fc	0.052177414
119	0xbcc54cfa	-0.024084557
120	0x3ce82c61	0.028341474
121	0x3d441923	0.047875535
122	0xbce01173	-0.02735207
123	0xbd629145	-0.05531432
124	0xbcb06fe5	-0.02153773
125	0xbd3105b0	-0.043218315
126	0xbd596f70	-0.05308479
127	0x3d2f9eef	0.04287618
128	0xbbdb86c0	-0.006699413
129	0xbd6e94fa	-0.058247544
130	0x3d88749b	0.06662866
131	0x3d9f3ac1	0.07774878
132	0x3d90d0ae	0.070710525
133	0x3d5c5a0e	0.05379682
134	0xbd858966	-0.06520347
135	0xbd9e2572	-0.07721986
136	0xbdaaed60	-0.08346057
137	0x3d012351	0.03152782
138	0xbd4b805d	-0.049682964
139	0x3a07cd96	0.0005180476
140	0xbda85558	-0.08219403
141	0x3c8b7425	0.017023155
142	0x3d7f9af9	0.062403653
143	0xbdb54bc4	-0.08852342
144	0xbc138424	-0.009003673
145	0x3d33ef3d	0.043929327
146	0x3bf6386d	0.0075140507
147	0x3d540afb	0.051768284
148	0xbc4f834e	-0.012665583
149	0xbd1d57d3	-0.038413834
150	0x3ce66ff4	0.028129555
151	0xbd77ae73	-0.060469102
152	0x3d20815d	0.03918587
153	0x3d33b9e2	0.043878444
154	0xbdbfcd2e	-0.09365307
155	0x3c0a50db	0.008442129
156	0xbda54551	-0.08069862
157	0xbc0c1d2c	-0.008551877
158	0x3d446518	0.047947973
159	0x3d1847b9	0.037177775
160	0x3c68c922	0.01420811
161	0xbd7f9a58	-0.062403053
162	0xbdd5a548	-0.104319155
163	0xbd560189	-0.052247558
164	0x3d1f4aa4	0.038889542
165	0x3b5fbeb8	0.0034140777
166	0x3ca98015	0.020690957
167	0x3d6801d9	0.056642387
168	0x3dbdff0c	0.09277162
169	0xbce63a0b	-0.028103849
170	0xbcb88fbc	-0.022529475
171	0x3da3dfe3	0.080016874
172	0x3d833f04	0.06408504
173	0x3c8c31bb	0.017113557
174	0x3c5deb1d	0.013544825
175	0xbdac4d6d	-0.08413205
176	0xbd53375f	-0.051566478
177	0x3d0dc56f	0.034612115
178	0x3ce740a6	0.028229069
179	0xbc53cee1	-0.012927742
180	0x3cece170	0.02891609
181	0x3b91f2c3	0.0044539883
182	0xbd3722f8	-0.044711083
183	0xbcf7f2a3	-0.030267065
184	0x3ba9d618	0.0051829927
185	0x3d962622	0.07331492
186	0x3da0b68b	0.07847317
187	0x3d09a986	0.033608936
188	0xbd0d9240	-0.034563303
189	0xbd7b9e6d	-0.061430383
190	0xbc710ee6	-0.014713025
191	0xbd4bac68	-0.049724966
192	0x3d957b24	0.07298878
193	0x3d0ae2f6	0.033907853
194	0x3d3a719f	0.045518514
195	0x3dc40e77	0.095730714
196	0x3c4b4505	0.012406592
197	0xbd7405bb	-0.059575778
198	0xbd278271	-0.040895883
199	0xbbfbc90a	-0.007683878
200	0xbce6d883	-0.028179413
201	0xbd341345	-0.04396369
202	0x3cf5776c	0.029964171
203	0x3d22121d	0.039568055
204	0xbc578155	-0.013153394
205	0x3d09f17e	0.03367757
206	0x3ce5fc14	0.028074302
207	0xbd312a37	-0.04325315
208	0xbd8c1b79	-0.068411775
209	0x3cd33b91	0.02578524
210	0xbda8d585	-0.082438506
211	0x3ca96df4	0.020682313
212	0xbd84b1a1	-0.064791925
213	0xbcfc35ab	-0.03078731
214	0x3b8414c3	0.0040307953
215	0x3c375558	0.011189781
216	0x3d36c2be	0.044619314
217	0xbd7673fb	-0.0601692
218	0xbbbfbfe9	-0.005851735
219	0xbcbbfd3d	-0.022947902
220	0xbd3a4b4b	-0.04548196
221	0x3d2d2917	0.042275514
222	0x3cfac009	0.030609148
223	0x39eaa968	0.00044758175
224	0xbdb49983	-0.088183425
225	0xbd694828	-0.05695358
226	0xbd1a10e6	-0.03761377
227	0xbdf3bef3	-0.11901655
228	0xbdb72701	-0.08942986
229	0xbd89973f	-0.06718301
230	0x3d960177	0.07324498
231	0x3bca0bbc	0.0061659496
232	0xbc6901f0	-0.014221653
233	0xbce34f72	-0.027747843
234	0x3b80793c	0.0039207023
235	0x3d854b43	0.06508496
236	0x3d9bc954	0.0760676
237	0xbc678af0	-0.014132246
238	0x3ca4d761	0.020122232
239	0x3cec64ea	0.028856713
240	0x3c60f1b7	0.013729504
241	0xbd81744f	-0.06321012
242	0xbac1ae88	-0.0014776746
243	0xbd35d224	-0.04438986
244	0xbdb05f52	-0.08611931
245	0xbd54f338	-0.051989764
246	0xbd102b98	-0.035197824
247	0x3c8de3f2	0.017320607
248	0x3d64f5a0	0.05589831
249	0xbdace8f9	-0.084428735
250	0x3d86206d	0.065491535
251	0xbc6804e7	-0.014161325
252	0xbd67fefb	-0.056639653
253	0xbd37cee7	-0.04487505
254	0xbd44d70d	-0.04805665
255	0x3d62006c	0.055176184

model.cnn_input_3.3.bias f4 [32]
0	0x3d827e1e	0.06371711
1	0x3d16a2e3	0.036776435
2	0x3cf46708	0.029834285
3	0xbca74c02	-0.020421986
4	0x3d1187ce	0.035529904
5	0xbb12036c	-0.0022279872
6	0x3c105fb9	0.008811885
7	0xbd759ae1	-0.059962157
8	0xbc8a096d	-0.016850198
9	0xbd94b5eb	-0.072612606
10	0xbd2ffef3	-0.042967748
11	0x3c024381	0.0079506645
12	0x3d803449	0.062599726
13	0xbcd13822	-0.025539462
14	0xbd949c5d	-0.072563864
15	0xbdab9924	-0.08378819
16	0xbd27f39c	-0.04100381
17	0xbcac554b	-0.021036765
18	0x3d0d003e	0.03442406
19	0xbc89b342	-0.01680911
20	0x3d20670a	0.039160766
21	0xbc92cf96	-0.01792125
22	0xbd52097c	-0.051278576
23	0x3d8276de	0.06370328
24	0x3bc1d7b8	0.0059156083
25	0xbd5ec6b0	-0.054388702
26	0xbda01e44	-0.07818273
27	0x3cfd3a3b	0.030911556
28	0x3d8c2810	0.06843579
29	0x3cd6ee4d	0.026236678
30	0x3d39659c	0.045262918
31	0xbd1b3c2d	-0.037899185

model.upconv_2.0.weight f4 [32, 16, 6]
0	0x3d9c71ae	0.0763887
1	0xbd89a384	-0.06720641
2	0xbc6c87af	-0.014436646
3	0x3d5d48e7	0.054024603
4	0x3e0b79d2	0.1362069
5	0x3d6922a4	0.0569178
6	0x3db78353	0.08960595
7	0xbd028e75	-0.03187414
8	0x3c8d10a2	0.017219845
9	0xbcbf8759	-0.023379968
10	0xbd7273e2	-0.059192546
11	0x3dc058ae	0.09391914
12	0xbc80477e	-0.01565909
13	0x3d0070a4	0.031357422
14	0xbc2fbc20	-0.010726005
15	0x3bb64153	0.0055619865
16	0x3c596c5e	0.013270466
17	0x3c65ff4d	0.014037919
18	0x3c990b86	0.018682253
19	0xbd95b44d	-0.0730978
20	0xbd050031	-0.032470886
21	0xbcf87edc	-0.030333929
22	0xbbe57549	-0.007002507
23	0x3d95fd8d	0.073237516
24	0x3d343bad	0.044002224
25	0x3d222aa3	0.039591443
26	0xbc9c4890	-0.01907757
27	0x3dcd9fae	0.10040222
28	0xbdac8e35	-0.08425561
29	0xbc104515	-0.008805533
30	0x3d2b33ca	0.041797437
31	0x3d857fc9	0.06518514
32	0x3cb82749	0.02247967
33	0x3da73763	0.08164861
34	0xbdca9298	-0.09891242
35	0xbdbcf920	-0.09227204
36	0x3cf04614	0.02933029
37	0x3cae2a18	0.021260306
38	0xbc7dcf01	-0.015491248
39	0xbd184870	-0.037178457
40	0x3d9bac36	0.07601206
41	0xbc5dd114	-0.013538618
42	0xbd0cef45	-0.034407873
43	0x3d1ab116	0.03776654
44	0xbd077661	-0.03307188
45	0xbc424ece	-0.011859609
46	0xbd55f5aa	-0.052236237
47	0xbd25fbe6	-0.040523432
48	0x3d9c1427	0.07621031
49	0xbdcee116	-0.101015255
50	0x3dba272f	0.09089505
51	0x3dede297	0.11615484
52	0x3e048d8f	0.12944625
53	0x3d77ed87	0.060529258
54	0xbde82cc9	-0.11336667
55	0x3d7c6e9b	0.06162892
56	0xbd6984e2	-0.057011493
57	0x3d7ff24a	0.062486924
58	0x3d5a04fd	0.053227413
59	0x3d488155	0.048951466
60	0x3d23da2c	0.040002987
61	0xbd7cd981	-0.061730865
62	0x3be333b1	0.0069336523
63	0x3cd780c2	0.026306514
64	0x3d54151b	0.05177794
65	0x3d5b723e	0.053575747
66	0x3db53680	0.08848286
67	0x3ce67905	0.028133878
68	0xbd37f5fc	-0.044912323
69	0x3d960e12	0.073269024
70	0x3d88739a	0.06662674
71	0x3ce25726	0.027629446
72	0xbd78ecb4	-0.060772613
73	0xbc2a0995	-0.010378261
74	0x3d08e3b2	0.033420272
75	0xbd54d138	-0.05195734
76	0xbd8b71d0	-0.068088174
77	0xbc709c3e	-0.014685689
78	0xbd651323	-0.055926453
79	0x3d9ff4fd	0.078104
80	0x3da88631	0.0822872
81	0x3c74bee5	0.014938091
82	0x3db91bec	0.09038529
83	0xbd408b1a	-0.047007658
84	0xbd896f06	-0.06710629
85	0xbd5134d4	-0.05107577
86	0xbd58b723	-0.052909028
87	0x3ca96092	0.020675931
88	0xbd817a75	-0.06322185
89	0xbd0458cf	-0.032311257
90	0x3b2207e9	0.0024723953
91	0xbd107e20	-0.035276532
92	0xb9e0bf77	-0.00042867262
93	0xbda3b3ec	-0.07993302
94	0x3dc6cc57	0.097069435
95	0x3dbe7d77	0.09301274
96	0x3d0d5894	0.034508303
97	0x3db45419	0.08805103
98	0x3d37aa26	0.04484
99	0xbd6fd083	-0.05854846
100	0xbbca3c2c	-0.006171724
101	0x3d053a75	0.032526452
102	0xbd1329c1	-0.03592849
103	0xbc8e2b3d	-0.017354602
104	0xbd273029	-0.040817413
105	0x3d768272	0.060182996
106	0x3c5cfeb0	0.013488457
107	0x3da0dd36	0.07854693
108	0xbd6f56ae	-0.058432274
109	0x3d2cf080	0.042221546
110	0xbc5b69c0	-0.013391912
111	0xbd933ae9	-0.071889706
112	0xbd400168	-0.04687634
113	0xbde733fa	-0.112892106
114	0xbc94b1b0	-0.018151134
115	0xbe10823d	-0.14112182
116	0x3ca18657	0.019717379
117	0x3bbb0726	0.0057076393
118	0xbbcfaff4	-0.006338114
119	0xbcd58aa9	-0.026067095
120	0xbd81b048	-0.06332451
121	0x3be16ca9	0.0068794084
122	0xbdb176d5	-0.086652435
123	0x3cd4a117	0.02595572
124	0xbd07c2f8	-0.03314492
125	0xbcdcd1b7	-0.026955469
126	0xbd6de324	-0.058077946
127	0x3d06569d	0.032797445
128	0x3b3b7638	0.00286044
129	0xbd77aa90	-0.060465395
130	0x3dbb43e6	0.0914381
131	0xbced76cc	-0.02898731
132	0x3cfb73d8	0.030694887
133	0xbd2577d3	-0.040397476
134	0x3d55ec4e	0.05222731
135	0x3db7da86	0.08977227
136	0xbdc38f05	-0.09548763
137	0xbd3c5639	-0.045980666
138	0x3ccc659c	0.024950795
139	0xbd9c284a	-0.07624872
140	0x3dd2daec	0.10295662
141	0x3cb5372d	0.022121036
142	0x3c910984	0.017704733
143	0xbd848c62	-0.064720884
144	0xbd807591	-0.06272424
145	0xbd522bf5	-0.051311452
146	0x3ce69cc7	0.02815093
147	0x3d09adce	0.03361302
148	0xbdaaba0b	-0.08336266
149	0x3d84dfc7	0.06487995
150	0xbd84ae00	-0.064785
151	0xbcca525e	-0.024697479
152	0x3b2a30f9	0.0025969131
153	0x3ce4d5b1	0.027933927
154	0xbd954839	-0.07289166
155	0x3d628f93	0.055312704
156	0xbd9111bf	-0.07083463
157	0xbd0e3a26	-0.034723423
158	0x3d2ad6fe	0.04170894
159	0x3bec8868	0.0072184093
160	0x3dbab680	0.0911684
161	0xbc2f9f81	-0.010719181
162	0xbdeccd39	-0.115625806
163	0xbc73185e	-0.014837353
164	0x3da46725	0.08027486
165	0x3d74a80b	0.05973057
166	0x3d9057a1	0.07047964
167	0xbd9f6442	-0.077827945
168	0xbd37bdb9	-0.044858668
169	0xbd8686c0	-0.0656867
170	0xbd50681d	-0.05088054
171	0xbde2f9e1	-0.11082817
172	0xbdca1f46	-0.09869246
173	0xbdf01a49	-0.117237635
174	0xbd458a3c	-0.048227534
175	0x3d9c8795	0.07643048
176	0xbcb5b17e	-0.022179361
177	0xbde480f8	-0.11157411
178	0xbd87748e	-0.06614028
179	0xbdc72202	-0.09723283
180	0x3cde9163	0.027168935
181	0x3dd1bdcd	0.1024128
182	0x3db4158d	0.08793173
183	0x3dda18b3	0.10649242
184	0x3dd3ed77	0.10348027
185	0x3c5031e9	0.012707212
186	0xbc86bdde	-0.016447958
187	0x3d4551db	0.048173767
188	0xbb18bae8	-0.0023304764
189	0xbdbfb02d	-0.09359775
190	0x3d62f5d1	0.05541021
191	0x3d6f40d4	0.058411434
192	0xbd0c2a0d	-0.03421979
193	0x3d15ad01	0.036541943
194	0x3cb380c4	0.021911986
195	0x3d8ddb2d	0.0692657
196	0x3cd87d54	0.026426949
197	0x3da13202	0.07870866
198	0x3d8a8ae7	0.06764775
199	0x3d6daa03	0.058023464
200	0x3c0deaa9	0.008661904
201	0xbdc8ed27	-0.09810858
202	0x3da4ea2d	0.08052478
203	0xbda8eab7	-0.08247893
204	0x3d430f19	0.04762182
205	0x3da7cf53	0.08193841
206	0xbd4de9ec	-0.050271913
207	0xbd1ea4fe	-0.038731568
208	0x3c2e2495	0.010628839
209	0xbd6ac89f	-0.057320233
210	0x3d80789e	0.06273006
211	0x3d624971	0.05524582
212	0x3cf940ac	0.030426346
213	0x3b9a3f0d	0.0047072233
214	0x3d9e427b	0.07727524
215	0x3db33e9e	0.08752178
216	0xbdad4083	-0.0845957
217	0x3d862901	0.065507896
218	0x3d93f698	0.072247684
219	0x3c01a918	0.00791385
220	0x3d94e5b3	0.07270374
221	0xbbadcae8	-0.0053037293
222	0xbda01bb2	-0.078177825
223	0x3dad701d	0.084686495
224	0xbd81a251	-0.063297875
225	0xbd727347	-0.05919197
226	0x3da9225d	0.082585074
227	0xbd3d5204	-0.046220794
228	0x3d48c93a	0.04902003
229	0xbcf8bda8	-0.030363873
230	0x3d09d5cb	0.033651154
231	0x3c673c85	0.01411355
232	0x3db4bd99	0.088252254
233	0x3d71a430	0.058994472
234	0xbc621841	-0.013799728
235	0x3d49e101	0.049286846
236	0x3ddd156d	0.10795102
237	0x3dce08b7	0.10060256
238	0x3d7f56f7	0.062338796
239	0x3d554835	0.052070815
240	0xbd7ed277	-0.062212434
241	0xbc8e345d	-0.017358953
242	0x3db97a84	0.09056571
243	0x3d784e61	0.060621623
244	0x3ba1ddf2	0.004939788
245	0x3d4fe1e1	0.050752524
246	0xbb35035a	-0.0027620406
247	0x3e01ae9b	0.12664263
248	0xbd78b114	-0.06071575
249	0xbd251562	-0.040303595
250	0x3c2dc1e2	0.010605307
251	0xbd090eab	-0.033461254
252	0x3d87448a	0.0660487
253	0xbdba2560	-0.0908916
254	0x3ccd2f01	0.025046827
255	0x3d84951c	0.06473753

model.upconv_2.0.bias f4 [16]
0	0xbdc59ce4	-0.09649065
1	0x3daf630e	0.08563815
2	0x3db52d9c	0.0884659
3	0x3d312cf3	0.043255758
4	0x3c319af4	0.010840166
5	0xbd82ae78	-0.063809335
6	0xbd8c6bac	-0.06856474
7	0xbcbccb8d	-0.02304628
8	0x3d6dfb1b	0.0581008
9	0x3d84e9f1	0.06489933
10	0x3d9e8088	0.07739359
11	0x3d9a0ce8	0.07521993
12	0xbd6ac4ce	-0.057316594
13	0x3cfc8c11	0.030828508
14	0x3bb2adf8	0.0054528676
15	0xbd993942	-0.07481624
