models/LB_UNet_15s--epoch=18-val_loss=0.76-train_loss=0.52.ckpt (torch, 268217 bytes, 121 tensors)

model.cnn_input_1.0.weight f4 [3]
0	0x3f72fc9c	0.949167
1	0x3f67a0f3	0.90479964
2	0x3f8a313c	1.0796275

model.cnn_input_1.0.bias f4 [3]
0	0x3b82111b	0.0039693243
1	0xbd55f1c3	-0.052232515
2	0xbd7af844	-0.06127192

model.cnn_input_1.0.running_mean f4 [3]
0	0x40c7be9a	6.242017
1	0xbf575783	-0.8411791
2	0x3e837ae6	0.25679702

model.cnn_input_1.0.running_var f4 [3]
0	0x422dc640	43.443604
1	0x454b1ab8	3249.67
2	0x3dfaa01f	0.12237572

model.cnn_input_1.1.weight f4 [8, 3, 5]
0	0x3e4f0326	0.20216045
1	0x3e6a1478	0.2285937
2	0xbe2e59c8	-0.17026436
3	0xbbe84396	-0.007088135
4	0xbd97a7ab	-0.07405027
5	0x3e2349a2	0.15946057
6	0xbe25a4b2	-0.16176108
7	0xbe194ffe	-0.14971921
8	0x3db3cc79	0.087792344
9	0xbd6f2cee	-0.058392458
10	0x3de5d55f	0.11222338
11	0xbe0f6f60	-0.1400733
12	0x3e011ed7	0.1260942
13	0xbd74073e	-0.05957722
14	0x3e032269	0.12806095
15	0xbd51bfd9	-0.05120835
16	0x3d9f5381	0.07779599
17	0xbda70f6d	-0.08157239
18	0xbdf2aa08	-0.11848837
19	0xbd31cb68	-0.043406874
20	0x3dc8f197	0.098117046
21	0xbe50efba	-0.20403948
22	0x3cbdfc0f	0.02319148
23	0x3dc59ee6	0.09649448
24	0x3d492071	0.049103204
25	0xbe50040e	-0.20314047
26	0x3d89c24e	0.06726514
27	0xbe392508	-0.18080533
28	0x3e5331aa	0.20624414
29	0x3e2986b2	0.16555288
30	0xbde4cf63	-0.111723684
31	0xbe06a8d1	-0.13150336
32	0x3d1d76d8	0.038443416
33	0xbdd3cd77	-0.10341924
34	0x3dc54865	0.09632949
35	0xbd84a068	-0.064759076
36	0xbe41d6f9	-0.18929662
37	0xbce8081a	-0.028324176
38	0xbe3618b8	-0.17782867
39	0xbe73c62e	-0.23806068
40	0xbe129282	-0.14313701
41	0xbccbb328	-0.024865702
42	0xbe136f63	-0.1439796
43	0xbd12d798	-0.035850137
44	0xbe03d371	-0.12873627
45	0x3cb13acb	0.02163448
46	0xbe53def1	-0.20690514
47	0x3d023f2f	0.031798538
48	0xbe25e236	-0.16199574
49	0xbd623dca	-0.055234708
50	0x3e0699f3	0.13144664
51	0x3e514919	0.20438041
52	0xbd03a37a	-0.032138325
53	0xbdf015f9	-0.11722941
54	0xbdfff3a2	-0.12497641
55	0x3e55cb7e	0.20878407
56	0xbd1aa0c4	-0.037750974
57	0xbe749327	-0.23884259
58	0xbe3c832b	-0.18409412
59	0x3e63904e	0.22223017
60	0xbd86a98c	-0.06575307
61	0xbe5de964	-0.21671063
62	0xbe3b9081	-0.18316843
63	0xbdcfef15	-0.10153023
64	0xbdba01eb	-0.09082397
65	0x3d2b4acb	0.041819375
66	0x3da2f20d	0.07956324
67	0x3d6b0ddb	0.05738626
68	0x3e499fee	0.19689915
69	0xbd04c57c	-0.0324149
70	0x3e881bd0	0.2658372
71	0x3e7b0bc3	0.24516205
72	0xbdd0052c	-0.101572365
73	0xbcefad17	-0.02925734
74	0x3e6c9290	0.23102784
75	0xbe296c9d	-0.16545339
76	0xbe5bb850	-0.21457028
77	0xbe8e9052	-0.27844483
78	0x3e337b0e	0.1752741
79	0xbd90323f	-0.07040834
80	0xbddd0bb1	-0.107932456
81	0xbe398584	-0.18117338
82	0xbdead7f7	-0.11466973
83	0xbdbbb82b	-0.091659866
84	0x3cb75bf1	0.022382708
85	0x3d406302	0.04696942
86	0x3e5d7530	0.21626735
87	0x3ea09111	0.31360677
88	0xbd9aa71e	-0.07551406
89	0xbddd8056	-0.10815494
90	0xbbc3b66b	-0.0059726737
91	0xbce56a03	-0.028004652
92	0x3da4d197	0.080477886
93	0x3cd64439	0.026155578
94	0x3e3e95c9	0.18611826
95	0xbe3551d0	-0.1770699
96	0x3e940a31	0.28914025
97	0x3d23e88c	0.040016696
98	0x3d647f74	0.05578561
99	0x3db9e11b	0.090761386
100	0xbdcf08c9	-0.101090975
101	0x3c0feb53	0.008784133
102	0xbc2355b7	-0.0099691665
103	0xbdfa14cf	-0.12211
104	0xbe5c1884	-0.21493727
105	0xbdf2b545	-0.11850981
106	0x3e040800	0.12893677
107	0x3d9fee54	0.07809129
108	0x3e27b63b	0.16378109
109	0xbe5a7b0e	-0.21336004
110	0x3e047173	0.12933902
111	0x3e0e794c	0.13913459
112	0x3c4b8c8f	0.0124236485
113	0xbe3ef9b6	-0.18649945
114	0x3e056f09	0.13030638
115	0x3eae75fe	0.34074396
116	0x3e76011e	0.24023864
117	0xbe37adee	-0.17937443
118	0xbe29baf1	-0.16575219
119	0x3d54ca41	0.051950697

model.cnn_input_1.1.bias f4 [8]
0	0xbe690651	-0.22756316
1	0xbe09ccc6	-0.13457021
2	0x3e02f285	0.12787826
3	0x3e8e8c83	0.27841577
4	0xbce0251a	-0.027361441
5	0x3cc0fadd	0.023557121
6	0xbeaeb93a	-0.34125692
7	0xbe0b4e29	-0.13604034

model.cnn_input_1.3.weight f4 [8, 8, 5]
0	0x3d33bfc6	0.04388406
1	0xbc4ddad2	-0.012564378
2	0xbe150441	-0.14552404
3	0xbcd14734	-0.025546648
4	0x3d282fbc	0.041061148
5	0x3b3e811b	0.0029068652
6	0x3d8a0a30	0.06740224
7	0x3c9ee72f	0.019397346
8	0xbdd9f560	-0.10642505
9	0x3e330baf	0.17484926
10	0x3d6a6d30	0.057233036
11	0xbcc6d238	-0.024270162
12	0x3dc1ddc5	0.09466127
13	0x3ded9220	0.11600137
14	0xbcb60157	-0.022217436
15	0xbbfeb376	-0.0077728583
16	0x3de21e1e	0.11040901
17	0x3e117701	0.14205553
18	0x3dbb32fe	0.09140585
19	0xbdf32d8d	-0.118739225
20	0xbd9fd5e5	-0.07804469
21	0x3d727431	0.05919284
22	0xbdf18174	-0.11792269
23	0xbc2e5754	-0.010640938
24	0xbdc981b0	-0.09839189
25	0x3da34a84	0.07973197
26	0x3da3b1d4	0.079929024
27	0xbe6e1176	-0.23248848
28	0xbd511783	-0.051047813
29	0x3d8865cf	0.066600434
30	0x3e09b6d1	0.13448645
31	0x3e06bfb3	0.13159065
32	0x3d26dab0	0.0407359
33	0xbd6404b8	-0.055668563
34	0x3a26c6d3	0.00063620246
35	0x3cefc7f1	0.029270144
36	0x3e01b1ac	0.12665433
37	0xbcfd97ab	-0.03095611
38	0x3d66b6ac	0.056326553
39	0x3e1c144a	0.15242115
40	0x3d0ccd56	0.03437551
41	0x3b9d3c79	0.0047984687
42	0x3e10b5f3	0.14131908
43	0xbd29632c	-0.041354343
44	0x3db11573	0.08646669
45	0x3e20ba37	0.15696035
46	0x3e349bf9	0.17637624
47	0xbe058ca1	-0.13041927
48	0x3c984538	0.018587694
49	0x3d59a74a	0.053138055
50	0xbe0a08f4	-0.13479978
51	0xbdb23737	-0.08701938
52	0xbdcd392e	-0.10020672
53	0xbe235866	-0.1595169
54	0xbdd1979d	-0.10233996
55	0x3db8ef99	0.090300746
56	0x3dc53db8	0.096309125
57	0xbdd910c5	-0.10598902
58	0xbe25f8cb	-0.16208188
59	0xbdd648c9	-0.104631014
60	0x3b4f244c	0.0031607328
61	0xbd756a32	-0.05991573
62	0xbd6d3698	-0.057913393
63	0x3dcb5b8f	0.09929573
64	0xbdb5deae	-0.088803634
65	0x3db41a33	0.087940596
66	0xbe102f86	-0.14080629
67	0x3db2c6a2	0.087292925
68	0x3d9a5a42	0.075367466
69	0x3d9fa33b	0.077948056
70	0xbe0e914f	-0.13922618
71	0xbd3f975c	-0.046775207
72	0x3e0b3506	0.13594446
73	0x3db939e6	0.090442464
74	0xbdbb0e22	-0.09133555
75	0xbd7482c6	-0.059695028
76	0x3de9f019	0.11422748
77	0xbcff6152	-0.031174336
78	0x3dee85dd	0.11646626
79	0x3d9db6b7	0.07700866
80	0x3dd128f5	0.1021289
81	0xbd8a1a89	-0.067433424
82	0xbdaa1b6e	-0.08306013
83	0x3d9ae092	0.07562365
84	0xbd33672f	-0.043799575
85	0xbd9c3a48	-0.07628304
86	0xbe17a48e	-0.14808866
87	0xbb89ee0d	-0.004209286
88	0xbd55d923	-0.05220903
89	0x3bdc9f15	0.0067328312
90	0x39d0cffb	0.0003982781
91	0xbde6375e	-0.11241029
92	0x3cc6deb6	0.024276119
93	0x3dd58e96	0.10427587
94	0xbd7cc4a3	-0.061710965
95	0x3d3f57b8	0.046714514
96	0xbe04f165	-0.1298271
97	0x3e2f98a4	0.17148072
98	0xbd93dcc8	-0.07219845
99	0x3cfca3fe	0.030839916
100	0xbe0b27ec	-0.13589448
101	0xbdf5a4fe	-0.119943604
102	0x3e4eb219	0.20185126
103	0x3d8cbedd	0.06872342
104	0x3d3861ba	0.045015074
105	0xbde3e008	-0.11126715
106	0x3dcc94d9	0.09989328
107	0x3df6aafe	0.12044333
108	0xbe170e68	-0.1475159
109	0x3ddaec3f	0.106895916
110	0x3d1a9d38	0.03774759
111	0x3d507a5e	0.05089795
112	0xbc3f8182	-0.011688592
113	0x3d87747a	0.06614013
114	0xbd85b124	-0.065279275
115	0xbdd3ea28	-0.10347396
116	0xbcba9055	-0.022773901
117	0xbd0310cc	-0.03199844
118	0x3dc96693	0.098340176
119	0x3cf162a5	0.029465983
120	0x3dbe798d	0.09300528
121	0xbd095a86	-0.033533596
122	0x3e2ed02f	0.17071603
123	0x3de76e05	0.113002814
124	0xbd4f50bc	-0.050614104
125	0xbdb01fde	-0.08599828
126	0x3df3c475	0.119027056
127	0xbd6b6e5c	-0.057478294
128	0x3d86a397	0.06574171
129	0xbca062fe	-0.019578453
130	0xbe36bbc7	-0.17845069
131	0x3e1fd717	0.15609394
132	0xbbd9df7b	-0.0066489554
133	0xbdf7d8c6	-0.12101893
134	0xbdecb96a	-0.115588024
135	0x3c629592	0.013829606
136	0xbd11beb1	-0.035582248
137	0xbe056296	-0.13025889
138	0x3d381cad	0.044949222
139	0x3db08a2c	0.08620104
140	0x3dfc4084	0.12316993
141	0x3e375e65	0.17907102
142	0x3d73b5ff	0.059499737
143	0xbdcb46d6	-0.0992562
144	0xbdedc8de	-0.11610578
145	0xbe1c6880	-0.15274239
146	0x3d4eace9	0.05045787
147	0xbda3693b	-0.079790555
148	0xbd9874de	-0.07444166
149	0x3ce87ab8	0.02837883
150	0xbdd08d27	-0.10183173
151	0xbdf3fc63	-0.11913373
152	0xbb2fa3fe	-0.0026800628
153	0xbddbf768	-0.10740548
154	0xbe0d8dc0	-0.13823605
155	0x3d494a65	0.049143214
156	0x3d23f7ac	0.04003112
157	0x3d81c97c	0.06337258
158	0x3e0d32d1	0.13788916
159	0x3e04b197	0.1295837
160	0x3be8809d	0.00709541
161	0x3d59f32d	0.053210426
162	0x3d446cef	0.04795545
163	0xbcd5616f	-0.026047437
164	0xbd3107ca	-0.04322032
165	0xbc80db2c	-0.01572951
166	0xbc1a2ed6	-0.009410581
167	0xbdc84b8d	-0.09780035
168	0xbdf01412	-0.11722578
169	0xbd8835b7	-0.0665087
170	0xbd655702	-0.05599118
171	0x3da0ec49	0.07857568
172	0xbd813862	-0.06309582
173	0x3dc46e25	0.09591321
174	0x3cd625df	0.026141105
175	0x3d678d29	0.056531105
176	0xbda40bd7	-0.08010071
177	0x3d8549ef	0.06508242
178	0x3e29e402	0.16590884
179	0xbd533eb4	-0.05157347
180	0x3d9cfd61	0.07665516
181	0xbd45b334	-0.048266605
182	0x3c6d5023	0.014484438
183	0x3db6045e	0.08887552
184	0x3d313f48	0.04327324
185	0xbe2ac248	-0.16675675
186	0x3e07d677	0.13265406
187	0x3e61e917	0.22061573
188	0xbe3b2104	-0.18274313
189	0xbc12de60	-0.008964151
190	0xbd1361c8	-0.035981923
191	0xbda66211	-0.081241734
192	0x3d372eb9	0.044722293
193	0xbe12cdf1	-0.14336373
194	0x3dae7e46	0.085201785
195	0x3e1d766e	0.15377209
196	0x3e1d61ea	0.15369383
197	0x3e2149a7	0.15750752
198	0x3d9b7a4e	0.07591687
199	0xbd9b042b	-0.07569154
200	0xbdd5aa03	-0.10432818
201	0xbd7c3e6f	-0.06158298
202	0xbe8cd329	-0.27504852
203	0xbda7bd4f	-0.081904046
204	0xbbbc4db9	-0.00574657
205	0xbdd234f6	-0.10264008
206	0x3e47c1cf	0.19507526
207	0xbd37639c	-0.04477273
208	0x3dac6bb3	0.084189795
209	0xbd8771a1	-0.0661347
210	0x3da482c1	0.08032752
211	0x3d1b9d59	0.037991855
212	0xbe05f28a	-0.13080803
213	0x3d5042cc	0.050844952
214	0x3d565ea7	0.05233636
215	0xbdd78bef	-0.10524737
216	0x3d911783	0.07084563
217	0x3d891f4c	0.066954225
218	0x3daea43a	0.085274175
219	0xbdb8ae4c	-0.090176195
220	0xbde2f562	-0.11081959
221	0x3c1d5a65	0.009604071
222	0xbd92f89a	-0.07176323
223	0xbe2f83ec	-0.17140168
224	0xbcff3dd7	-0.031157417
225	0x3dc96f8d	0.0983573
226	0x3e07fd7c	0.1328029
227	0xbc5d26ce	-0.013498021
228	0x3c639603	0.013890746
229	0xbdad6d0a	-0.08468063
230	0xbdac42b7	-0.08411162
231	0xbdb95e81	-0.09051228
232	0xbe09386b	-0.13400428
233	0xbdb92952	-0.09041084
234	0x3da7830c	0.08179292
235	0x3d7ecedf	0.062209006
236	0xbd36af8e	-0.044601016
237	0x3e15e59f	0.14638375
238	0xbc9b4d13	-0.01895765
239	0xbd25ff6c	-0.040526792
240	0xbc80621d	-0.015671784
241	0xbe0533bb	-0.13008015
242	0x3eaa6f89	0.3328822
243	0x3c6b3d74	0.014357913
244	0xbe41fed5	-0.18944867
245	0x3daf97c9	0.085738726
246	0x3db45b1d	0.08806441
247	0xbdb1b519	-0.0867712
248	0x3c1453e4	0.009053204
249	0xbc5dbcad	-0.013533753
250	0x3bf133ca	0.00736091
251	0x3dcf97c8	0.10136372
252	0xbc51ebfe	-0.012812613
253	0xbd9d630e	-0.07684909
254	0x3dbedac1	0.09319068
255	0x3cd47ad6	0.025937479

model.cnn_input_1.3.bias f4 [8]
0	0x3d81c6b9	0.063367315
1	0x3ba224bf	0.004948228
2	0xbd893b9c	-0.06700823
3	0xbd379557	-0.044820156
4	0x3eb6a416	0.35672063
5	0x3e295df6	0.1653975
6	0xbdfe4af9	-0.12416644
7	0x3e083fc0	0.13305569

model.cnn_input_2.0.weight f4 [8]
0	0x3f771264	0.96512437
1	0x3f806edd	1.0033833
2	0x3f847062	1.0346797
3	0x3f7cce7a	0.9875256
4	0x3f840177	1.0312947
5	0x3f7e6c91	0.9938441
6	0x3f79a104	0.97511315
7	0x3f805b20	1.0027809

model.cnn_input_2.0.bias f4 [8]
0	0x3d067d9c	0.032834634
1	0xbd7979d5	-0.060907204
2	0x3936e17d	0.00017440873
3	0x3d17bb1a	0.03704367
4	0xbc91d11d	-0.017799908
5	0xbd1064f3	-0.035252523
6	0xbd62469e	-0.055243127
7	0x3d49dd6c	0.04928343

model.cnn_input_2.0.running_mean f4 [8]
0	0x3eb22ae7	0.34798357
1	0x3df5e626	0.12006788
2	0x3e29606a	0.16540685
3	0x3da62643	0.081127666
4	0x3f371f52	0.71532166
5	0x3e66cb1d	0.22538419
6	0x3e9322d1	0.287375
7	0x3e827d77	0.25486347

model.cnn_input_2.0.running_var f4 [8]
0	0x3d098c3a	0.033580996
1	0x3cce1387	0.025155796
2	0x3d1ccc85	0.038280983
3	0x3c7986fa	0.015229935
4	0x3dc1887d	0.09449861
5	0x3ccd2fbd	0.025047177
6	0x3d93994f	0.07206976
7	0x3c8ecdfc	0.017432205

model.cnn_input_2.1.weight f4 [16, 8, 5]
0	0x3e046701	0.12929918
1	0xbd814b8b	-0.06313237
2	0xbdc654b5	-0.09684125
3	0x3bb624cd	0.005558586
4	0xbca2a95c	-0.019856147
5	0x3d15990c	0.03652291
6	0xbda666aa	-0.0812505
7	0x3dc4a190	0.09601128
8	0x3e1272eb	0.1430165
9	0xbd097bd9	-0.033565376
10	0xbce37080	-0.027763605
11	0xbc6b7f20	-0.014373571
12	0xbd1a5bd5	-0.037685234
13	0x3e0a60a7	0.13513432
14	0x3d6977b6	0.05699893
15	0x3e35b097	0.17743145
16	0xbe1a7978	-0.15085399
17	0x3c2de6d2	0.010614114
18	0xbd22ecf3	-0.039776754
19	0xbddf6d18	-0.1090948
20	0xbdf9ecac	-0.12203345
21	0x3e203204	0.1564408
22	0x3e45ab71	0.19303681
23	0xbd91dc3f	-0.07122087
24	0xbd13e54a	-0.03610734
25	0xbe05dcae	-0.13072464
26	0xbe23be03	-0.15990452
27	0x3dbb3451	0.09140838
28	0x3d0cf2e5	0.03441133
29	0x3e048b80	0.1294384
30	0xbe5427b9	-0.20718278
31	0xbe23b24d	-0.15985985
32	0x3c594644	0.013261382
33	0x3c6e4ea2	0.014545115
34	0xbcee8a9f	-0.029118834
35	0x3dfb3a8c	0.12267026
36	0x3e423498	0.18965375
37	0x3db8bc2d	0.09020267
38	0x3d8e01e0	0.069339514
39	0x3d8fbef9	0.07018847
40	0x3decb9d5	0.11558882
41	0x3daacc1f	0.08339714
42	0x3dc02a08	0.09383017
43	0x3cba5a01	0.022747995
44	0xbd23ac4b	-0.039959233
45	0x3d30ded4	0.043181255
46	0xbde18864	-0.110123426
47	0x3e119779	0.14217938
48	0xbe0a7230	-0.13520122
49	0x3d8ea6b0	0.06965387
50	0xbc05a435	-0.008156826
51	0xbdcb228b	-0.09918698
52	0x3d9cdb59	0.07659025
53	0x3e16fe36	0.14745411
54	0xbdc83f07	-0.097776465
55	0x3df02ef2	0.11727704
56	0x3d013837	0.03154775
57	0xbca5df8e	-0.0202482
58	0xbd4d876c	-0.050177976
59	0x3ceacdf6	0.028662663
60	0x3d183632	0.03716106
61	0xbda1dc84	-0.07903388
62	0x3d0edde2	0.034879573
63	0x3cb16908	0.021656528
64	0xbcf37c1e	-0.02972227
65	0xbe3ac01e	-0.1823735
66	0xbda25a55	-0.07927386
67	0xbdd0fe66	-0.10204773
68	0xbe087efd	-0.13329692
69	0x3ce602ca	0.028077502
70	0xbe07eeb5	-0.13274653
71	0x3d6306df	0.055426475
72	0x3cf38836	0.029728036
73	0xbda757b5	-0.08171026
74	0x3d341a2b	0.04397027
75	0xbdce0764	-0.100600034
76	0x3d0dd45a	0.034626342
77	0x3e09d750	0.13461041
78	0xbc2c21a8	-0.010506071
79	0x3dac2017	0.08404558
80	0x3e21a35f	0.15784977
81	0xbd425dc8	-0.047452718
82	0x3d942ca4	0.07235077
83	0xbe131e8f	-0.14367126
84	0x3cc09b9e	0.023511704
85	0x3d9a14f1	0.075235255
86	0x3d2f0a97	0.04273471
87	0xbd80e0c5	-0.062928714
88	0x3e3200cc	0.17383116
89	0x3ccd97a5	0.025096724
90	0xbe0115c7	-0.12605964
91	0x3d4d8e52	0.050184555
92	0xbae89920	-0.001774583
93	0x3d42e9c1	0.047586206
94	0xbe2ba633	-0.16762619
95	0xbde19a29	-0.11015732
96	0xbdd5cdad	-0.1043962
97	0x3d94d70e	0.07267581
98	0x3cb853d6	0.022500914
99	0x3dee478e	0.11634742
100	0x3dc128cb	0.09431609
101	0xbd7e5293	-0.062090468
102	0x3e165776	0.14681801
103	0xbd9591e5	-0.07303218
104	0xbcb03bcf	-0.021512894
105	0xbd6190f6	-0.055069886
106	0x3e00b7ce	0.12570116
107	0x3dc91177	0.09817784
108	0x3d987ca4	0.07445648
109	0x3e134815	0.14382966
110	0xbd765127	-0.060135987
111	0xbde623d6	-0.11237304
112	0xbc74fd78	-0.01495301
113	0xbdbbab9a	-0.0916359
114	0x3ce205c3	0.027590638
115	0x3da4d584	0.080485374
116	0xbdba6a00	-0.09102249
117	0xbcdea1c1	-0.02717674
118	0x3ded6590	0.11591637
119	0x3dca193c	0.09868094
120	0x3d85b080	0.06527805
121	0x3e0ca3f5	0.1373442
122	0xbc267766	-0.010160303
123	0x3c88e191	0.016709121
124	0x3cc004ba	0.023439754
125	0xbcf57e0a	-0.029967327
126	0x3c8354cd	0.016031647
127	0xbd5ecf52	-0.054396935
128	0xbda46b17	-0.08028238
129	0x3bbbcd8f	0.0057312916
130	0x3c09fde4	0.008422349
131	0x3d3b190e	0.04567819
132	0xbd39bf09	-0.0453482
133	0xbd6c6499	-0.057713125
134	0x3d9e8f1b	0.07742139
135	0x3dcf0df5	0.10110084
136	0xbdd5d3d8	-0.104407966
137	0xbe4aa2de	-0.19788691
138	0xbe38fa65	-0.18064268
139	0x3d495e9b	0.04916249
140	0x3e377d46	0.17918882
141	0x3e4defff	0.20111082
142	0x3d7a1368	0.061053663
143	0x3d6f4841	0.058418516
144	0x3c899793	0.016795909
145	0xbde89ef0	-0.1135844
146	0xbd6f2315	-0.058383066
147	0xbdccbffc	-0.099975556
148	0x3dea3b79	0.11437125
149	0x3c656f46	0.01400358
150	0x3bd7156b	0.0065638325
151	0x3e55a232	0.20862654
152	0x3e19e189	0.15027441
153	0x3dfc2129	0.12311012
154	0xbd775032	-0.060379215
155	0xbdb3b877	-0.08775418
156	0xbdfa9c9e	-0.122369036
157	0xbd7e8e0f	-0.062147196
158	0x3e1dcc33	0.15409927
159	0x3d97f29d	0.07419322
160	0xbaaab7c1	-0.0013024734
161	0x3d97d570	0.07413757
162	0xbdab3081	-0.08358861
163	0x3e18298e	0.14859602
164	0xbdcdaab3	-0.10042324
165	0xbe242474	-0.16029531
166	0x3d27f639	0.0410063
167	0xbb69eb44	-0.0035693208
168	0x3e1815c9	0.1485206
169	0xbddd8913	-0.108171605
170	0xbd95f675	-0.073223986
171	0xbe1fd8b1	-0.15610005
172	0xbe3202f5	-0.1738394
173	0xbd4c193b	-0.04982875
174	0xbdce28cd	-0.10066376
175	0x3de44cf7	0.111474924
176	0xbd272e63	-0.040815722
177	0x3d966aad	0.073445655
178	0xbd565099	-0.052322958
179	0xbdc05afc	-0.09392354
180	0xbd372b26	-0.044718884
181	0xbe32dcf2	-0.17467096
182	0xbd7a50ca	-0.061112203
183	0x3cee53f6	0.02909277
184	0x3e1db92c	0.15402669
185	0xbd861c8e	-0.06548415
186	0xbd8c2a6a	-0.06844027
187	0xbe26abe0	-0.16276503
188	0xbd143efa	-0.03619287
189	0x3d3799d8	0.04482445
190	0x3e2e6381	0.17030145
191	0xbd9f6987	-0.077837996
192	0xbdb2a228	-0.08722335
193	0xbca582ea	-0.020204026
194	0x3e27e4c5	0.16395862
195	0x3e006947	0.1254016
196	0xbddbfd9d	-0.10741732
197	0x3d9352b1	0.071935065
198	0xbb856e51	-0.0040719886
199	0xbb783567	-0.0037873627
200	0xbd8394ed	-0.0642489
201	0x3bf7605a	0.007549328
202	0xbe3f4a68	-0.18680727
203	0xbd82f483	-0.06394293
204	0x3df9aa9c	0.12190744
205	0x3d476582	0.04868079
206	0x3c4a1966	0.012335157
207	0x3df1bac2	0.11803199
208	0xbd47aefa	-0.048750855
209	0x3bcbd916	0.006220947
210	0x3dae6f35	0.08517305
211	0xbbb18870	-0.005417876
212	0xbddcc962	-0.10780598
213	0x3c9cb9c2	0.019131545
214	0x3bebad1e	0.007192268
215	0x3d6a3707	0.057181384
216	0x3df2e3c7	0.11859851
217	0x3d81c438	0.06336254
218	0x3e2739c3	0.16330628
219	0xbdb85b26	-0.0900176
220	0xbde4c1a2	-0.11169745
221	0xbd146775	-0.036231477
222	0x3e1b38e9	0.15158428
223	0xbd77f494	-0.060535982
224	0xbdb8ac03	-0.09017184
225	0x3e15880e	0.14602682
226	0xbdabd6fa	-0.08390613
227	0xbba0ddfe	-0.004909276
228	0x3c8b98af	0.017040579
229	0x3d9b1102	0.07571603
230	0xbcfbdb25	-0.030744145
231	0x3def4a33	0.11684074
232	0x3b550077	0.0032501498
233	0xbe06a6de	-0.13149592
234	0x3d255557	0.04036459
235	0xbb0a5ffc	-0.002111434
236	0xba2384c4	-0.000623774
237	0xbdc89e6a	-0.0979584
238	0xbd3880b0	-0.0450446
239	0xbd95009f	-0.07275509
240	0xbd840055	-0.06445376
241	0xbdc1a726	-0.09455709
242	0x3d7ca727	0.061682846
243	0xbdc60053	-0.096680306
244	0x3c559c7a	0.013037795
245	0xbc994737	-0.018710716
246	0xbe3d3edd	-0.18481012
247	0xbe518096	-0.20459208
248	0xbe32dcad	-0.17466994
249	0xbd7a3844	-0.061088815
250	0x3e1280eb	0.14306991
251	0xbd18f5f9	-0.037343953
252	0xbe33f1ac	-0.17572659
253	0xbd799992	-0.06093747
254	0x3d8d5c6a	0.06902392
255	0xbc00c913	-0.00786044

model.cnn_input_2.1.bias f4 [16]
0	0x3d6cb94c	0.0577939
1	0x3e2161b8	0.15759933
2	0x3d4ba42a	0.049717106
3	0x3ca9fe95	0.020751277
4	0x3da1a65b	0.07893058
5	0xbe0455e6	-0.12923393
6	0x3e4e0498	0.2011894
7	0xbd144c1c	-0.036205396
8	0x3d9cd69b	0.0765812
9	0x3e091928	0.13388503
10	0x3e08e6c8	0.13369286
11	0x3d655f7d	0.055999268
12	0x3deff497	0.11716574
13	0x3ddf6763	0.10908391
14	0x3d27c0ac	0.04095523
15	0xbe083d00	-0.1330452

model.cnn_input_2.3.weight f4 [16, 16, 5]
0	0x3e132183	0.14368252
1	0xbc59dbf8	-0.013297074
2	0xbdb71586	-0.08939652
3	0x3d0f3a16	0.034967504
4	0x3c2d0999	0.01056137
5	0xbde4a218	-0.111637294
6	0x3ce2a12b	0.027664742
7	0xbd1fc54f	-0.039006528
8	0x3d7aab1b	0.061198335
9	0xbdbe9ad8	-0.09306878
10	0x3dec1ae6	0.11528568
11	0x3dda92dd	0.10672543
12	0x3da38cce	0.07985841
13	0x3e077337	0.13227545
14	0x3ddc6b08	0.10762602
15	0xbdd0d4cd	-0.101968385
16	0x3d825bd5	0.06365172
17	0xbc87c123	-0.016571587
18	0x3d06817e	0.032838337
19	0x3d3f09a3	0.04664005
20	0xbca3561f	-0.019938527
21	0xbca388d5	-0.019962708
22	0xbda2c7ae	-0.07948242
23	0x3cdf5355	0.027261415
24	0x3cc9f891	0.024654659
25	0xbd324cd9	-0.04353032
26	0x3d4e16f9	0.050314877
27	0xbd80e53b	-0.06293722
28	0x3b5ca555	0.0033667882
29	0x3ccc21ea	0.024918515
30	0x3d3f446e	0.04669612
31	0x3d64604f	0.05575591
32	0x3cf65851	0.03007141
33	0x3cadfbc4	0.021238215
34	0x3dc771ef	0.09738528
35	0x3d5a29ce	0.053262524
36	0x3d7354d8	0.059407085
37	0x3d6cf26c	0.05784838
38	0x3dd8d52a	0.10587533
39	0x3d864d08	0.06557661
40	0xbd990a06	-0.07472615
41	0xbd7b8066	-0.061401747
42	0xbd982fad	-0.074309684
43	0xbd4a7c52	-0.049434967
44	0x3c4c44c3	0.012467566
45	0x3daaa051	0.08331359
46	0x3d27a252	0.040926285
47	0x3b509d44	0.003183202
48	0x3d5714b7	0.05250999
49	0x3de3de9f	0.11126446
50	0xbbb5a775	-0.005543644
51	0x3e1b4fb1	0.15167119
52	0xbcfdefaa	-0.03099807
53	0xbd6f3967	-0.058404353
54	0xbcffcf2d	-0.031226719
55	0xbdca7182	-0.09884931
56	0x3df9e05d	0.12200997
57	0xbd5e1a9a	-0.054224588
58	0xbd8d6746	-0.069044635
59	0x3dc678fc	0.09691045
60	0xbcd6e849	-0.02623381
61	0xbcb96223	-0.022629803
62	0x3da3deed	0.08001504
63	0x3d615cec	0.055020258
64	0xbdc61a41	-0.09672976
65	0xbd97b555	-0.07407633
66	0xbda6bc34	-0.08141366
67	0x3d048cf3	0.032360982
68	0xbd9218b0	-0.07133615
69	0x3dc1385c	0.09434578
70	0x3df8b144	0.12143186
71	0xbd20818d	-0.03918605
72	0x3c859981	0.016308548
73	0xbba200ef	-0.004943959
74	0x3d69ae9c	0.057051286
75	0xbe199489	-0.14998068
76	0xbcc1944e	-0.023630287
77	0x3d024c93	0.031811308
78	0x3e0b61c1	0.13611509
79	0xbcb6284b	-0.02223601
80	0xbe1375e8	-0.14400446
81	0xbd8cc9cc	-0.06874427
82	0x3d923d2b	0.07140573
83	0x3d1e25be	0.038610213
84	0x3d3bb943	0.045830976
85	0x3dacd1a2	0.08438422
86	0x3df3afe5	0.118987836
87	0x3c5537b7	0.013013772
88	0x3d44c9b9	0.04804394
89	0xbdbc190c	-0.09184465
90	0x3d1d86d9	0.03845868
91	0x3d7dd78d	0.061973143
92	0x3da446ac	0.08021292
93	0xbd0493c0	-0.032367468
94	0x3d66f300	0.056384087
95	0x3dda53e9	0.10660536
96	0x3d9dd179	0.07705969
97	0xbd90cab2	-0.07069911
98	0x3d2a5959	0.041589115
99	0x3d3ccc8b	0.046093505
100	0xbd290379	-0.041263077
101	0x3dcb80da	0.09936686
102	0xbd9836d8	-0.074323356
103	0x3d1d41d3	0.038392853
104	0x3dc496da	0.09599085
105	0x3d8b4f02	0.06802179
106	0x3da68182	0.081301704
107	0xbe69b186	-0.22821626
108	0xbc9e97b2	-0.019359443
109	0x3df7193d	0.12065361
110	0x3db0722a	0.08615525
111	0x3da68594	0.08130947
112	0xbdd27903	-0.102769874
113	0xbdc520f1	-0.09625424
114	0xbd90f071	-0.070771106
115	0xbdad6f24	-0.08468464
116	0xbdaa1e10	-0.08306515
117	0xbe1600e9	-0.14648785
118	0xbd4730dc	-0.04863058
119	0x3dc68663	0.09693601
120	0xbde74de8	-0.11294156
121	0xbd4f8109	-0.050660167
122	0xbd3e686a	-0.046486296
123	0x3e246e48	0.16057694
124	0xbd5881dc	-0.05285822
125	0xbd58c54c	-0.052922532
126	0x3db77819	0.08958454
127	0xbdb8719a	-0.09006043
128	0x3c09cb0c	0.008410227
129	0x3d5f8b08	0.05457595
130	0x3d40c123	0.04705919
131	0x3d82f225	0.06393842
132	0xbd5944a2	-0.05304397
133	0x3da71343	0.08157971
134	0x3d1a69ea	0.037698664
135	0xbd4da6fb	-0.050208073
136	0xbdbe4b83	-0.092917465
137	0xbc0f933b	-0.00876313
138	0xbe330255	-0.17481358
139	0xbe11eb24	-0.14249855
140	0x3d847592	0.06467737
141	0xbd2920d4	-0.041291073
142	0xbd74db30	-0.059779346
143	0x3d81b981	0.0633421
144	0x3d2c8362	0.042117484
145	0xbd34cbb7	-0.04413959
146	0x3db7935f	0.08963656
147	0xbc9c3c93	-0.019071853
148	0xbe1691ea	-0.147041
149	0xbe1f00f1	-0.15527703
150	0xbcdfadb0	-0.0273045
151	0x3d045691	0.03230912
152	0xbe010590	-0.12599778
153	0xbda7da9d	-0.08195994
154	0x3d94e6d8	0.072705925
155	0xbd961d03	-0.07329752
156	0xbd0068d3	-0.03134997
157	0xbd640701	-0.055670742
158	0xbd61668f	-0.055029448
159	0x3d0350b5	0.03205939
160	0x3b7fb23f	0.0039016155
161	0x3bca553d	0.006174712
162	0xbdf90759	-0.121596046
163	0xbdc6a063	-0.0969856
164	0x3d9ab31e	0.07553695
165	0x3d84a518	0.06476802
166	0xbddc9547	-0.1077066
167	0xbd4c9d76	-0.049954854
168	0x3d7b8291	0.061403815
169	0x3e18b9fa	0.14914694
170	0x3d0557aa	0.032554306
171	0x3c91bb92	0.017789636
172	0xbc56cd91	-0.013110534
173	0xbdc9c42e	-0.098518714
174	0xbd8c6fea	-0.068572834
175	0xbda334bb	-0.07969042
176	0xbdbb2c2a	-0.09139283
177	0x3ddf0663	0.1088989
178	0x3c0c083c	0.008546885
179	0x3d32a0b3	0.043610286
180	0x3dd3866b	0.103283726
181	0xbd8bc8bf	-0.06825399
182	0xbcee77d8	-0.02910988
183	0xb8b62802	-8.685888e-05
184	0x3d037456	0.03209337
185	0x3cbc2cfd	0.02297067
186	0x3be15146	0.0068761436
187	0x3d8095d7	0.0627858
188	0x3db8849f	0.090096705
189	0xbd93757c	-0.07200143
190	0xbdf30ecf	-0.11868059
191	0x3d3fbcbe	0.046810858
192	0xbd771224	-0.060320035
193	0x3ca70f3c	0.020393007
194	0x3c27c80f	0.010240569
195	0x3c6f2393	0.014595884
196	0xbe089f67	-0.13342057
197	0xbda1bd5d	-0.07897446
198	0xbd0ce2bb	-0.034395915
199	0x3c0b64ef	0.008507951
200	0xbb7923b0	-0.0038015656
201	0x3e13d31f	0.14436005
202	0xbd481329	-0.048846398
203	0x3a8cf67f	0.0010754614
204	0xbd9430a5	-0.07235841
205	0x3d73c1a5	0.059510846
206	0xbdcf4912	-0.10121359
207	0x3d788e64	0.06068267
208	0xbd567a2a	-0.0523626
209	0x3cc6e841	0.02428067
210	0xbd4b3430	-0.049610317
211	0xbe14398d	-0.14475079
212	0xbcf314fa	-0.029673088
213	0xbd802fee	-0.06259142
214	0x3d8c1abb	0.06841036
215	0xbd925f11	-0.07147039
216	0xbc753382	-0.014965894
217	0xbdf5ceca	-0.120023325
218	0x3daf14e2	0.08548905
219	0xbd7e5ee6	-0.06210222
220	0xbd66dc74	-0.056362584
221	0xbd2e1bcc	-0.042506978
222	0x3da8bdb9	0.08239312
223	0x3c0bdc45	0.008536403
224	0x3d4777f3	0.048698377
225	0xbc22f783	-0.009946707
226	0x3d65cd33	0.056103896
227	0x3dca3477	0.09873288
228	0xbd336b15	-0.043803293
229	0x3da40b74	0.08009997
230	0x3d498ca6	0.0492064
231	0xbe115578	-0.1419276
232	0x3cfc3af8	0.030789837
233	0x3d88b6ed	0.06675515
234	0x3dca7b04	0.098867446
235	0xbc9749eb	-0.018467864
236	0xbdcca0d6	-0.099916145
237	0xbe2c6bd0	-0.16838002
238	0xbd828c67	-0.06374436
239	0xbd8c81ab	-0.0686067
240	0x3ce2bcec	0.027677976
241	0x3dbb07d7	0.09132355
242	0xbd90c37c	-0.07068536
243	0xbdcc2120	-0.099672556
244	0xbd99fdb3	-0.075190924
245	0x3d77a992	0.06046445
246	0xbd0ef7df	-0.034904357
247	0xbd856cb6	-0.065148756
248	0xbe2a9fc5	-0.1666251
249	0xbb9748be	-0.004616826
250	0x3cc435f6	0.023951512
251	0x3dab9d44	0.083796054
252	0x3d9319f8	0.071826875
253	0xbd5d0c83	-0.05396701
254	0x3d97bc82	0.07409002
255	0x3d9ad6ce	0.07560502

model.cnn_input_2.3.bias f4 [16]
0	0xbda4d75f	-0.08048891
1	0x3d2e1987	0.042504814
2	0x3ddec512	0.10877432
3	0x3d1ff37a	0.039050557
4	0x3d8e95c4	0.06962159
5	0xbcfb2de3	-0.030661529
6	0x3db2b45b	0.08725806
7	0xbd9e0500	-0.077157974
8	0x3d937370	0.07199752
9	0x3bda5adc	0.0066636633
10	0xbdd0cc77	-0.101952486
11	0xbdb4cb17	-0.08827799
12	0xbda84e91	-0.0821811
13	0x3dc44787	0.09583955
14	0xbddb6de5	-0.1071432
15	0xbdc112a9	-0.09427387

model.cnn_input_3.0.weight f4 [16]
0	0x3f80d446	1.0064781
1	0x3f6edee4	0.93308854
2	0x3f82e82d	1.0227104
3	0x3f7ecf2c	0.9953487
4	0x3f7e4f9b	0.9934022
5	0x3f817cbe	1.0116193
6	0x3f81506a	1.0102665
7	0x3f7f70b6	0.9978136
8	0x3f8010a0	1.0005074
9	0x3f80b632	1.0055602
10	0x3f854338	1.0411139
11	0x3f8670c5	1.0503165
12	0x3f777522	0.96663105
13	0x3f7d2ea5	0.988993
14	0x3f75a284	0.95951104
15	0x3f7b6be5	0.9821151

model.cnn_input_3.0.bias f4 [16]
0	0x3d08368b	0.03325514
1	0xbd2f1094	-0.04274042
2	0xbc7519c4	-0.014959756
3	0xbb85ec01	-0.0040869717
4	0xbc86f17a	-0.016472567
5	0x3d65d415	0.05611046
6	0xbcf971be	-0.030449744
7	0xbcba31ae	-0.022728767
8	0x3d8b10da	0.067903236
9	0x3cedf450	0.029047161
10	0x3aa16cec	0.0012315786
11	0xbc6e2772	-0.014535772
12	0x3bd13da8	0.006385524
13	0xbc066a7e	-0.008204101
14	0xbd197e22	-0.037473805
15	0xbcd29f10	-0.025710613

model.cnn_input_3.0.running_mean f4 [16]
0	0x3ea217ba	0.31658727
1	0x3e0dc8ac	0.13846081
2	0x3e4d2d90	0.20036912
3	0x3e567dff	0.20946501
4	0x3e3d7a71	0.18503739
5	0x3e410292	0.18848637
6	0x3e00f84b	0.12594716
7	0x3e250170	0.1611383
8	0x3ea3869f	0.31938645
9	0x3eb50ea1	0.35362723
10	0x3e361ce7	0.17784463
11	0x3e2856e4	0.16439396
12	0x3e9dcf46	0.308222
13	0x3d8591df	0.06521963
14	0x3e025d65	0.1273094
15	0x3dad9fab	0.0847772

model.cnn_input_3.0.running_var f4 [16]
0	0x3d4c2bba	0.04984639
1	0x3c97764f	0.018489031
2	0x3d5695a1	0.05238879
3	0x3d81af21	0.06332231
4	0x3cc833c6	0.02443875
5	0x3d0474ce	0.032337956
6	0x3d0352d1	0.0320614
7	0x3d3ecb12	0.04658038
8	0x3cd8e795	0.026477614
9	0x3ce40fc5	0.02783955
10	0x3d6861b9	0.05673382
11	0x3d74fb38	0.059809893
12	0x3dd255f8	0.102703035
13	0x3c6e0925	0.014528547
14	0x3cd54748	0.026034966
15	0x3ca39adc	0.019971304

model.cnn_input_3.1.weight f4 [32, 16, 5]
0	0x3de6cc7a	0.112694696
1	0x3d758169	0.05993787
2	0xbdf1e260	-0.11810756
3	0xbd1bd04a	-0.038040437
4	0xbd64a194	-0.055818155
5	0xbe127d74	-0.14305669
6	0xbd5b32a7	-0.053515103
7	0x3da2155e	0.07914232
8	0x3dd20527	0.10254889
9	0xbdb20cd6	-0.086938545
10	0x3da60613	0.08106627
11	0x3cee5c02	0.029096607
12	0xbc275b1c	-0.010214593
13	0xbbee5bd7	-0.0072741318
14	0xbdbe5c12	-0.09294905
15	0x3cc35651	0.02384487
16	0xbdbda1dc	-0.09259388
17	0xbbd91834	-0.0066251997
18	0x3dad49c8	0.08461338
19	0xbd277831	-0.040886108
20	0x3e10aa29	0.14127411
21	0xbd5c75fe	-0.053823464
22	0xbdb3b5fc	-0.08774945
23	0x3c09763d	0.008390007
24	0x3cb23def	0.021758048
25	0x3d88eb90	0.06685555
26	0xbda31c71	-0.07964409
27	0xbd3d5b39	-0.046229575
28	0xbd6db5e6	-0.0580348
29	0x3d51e4da	0.05124364
30	0x3acabc56	0.0015467505
31	0xbdad9140	-0.0847497
32	0x3dfe9ab6	0.124318525
33	0xbd922fee	-0.07138048
34	0xbd282208	-0.04104808
35	0xbda3f9ec	-0.08006653
36	0xbd401543	-0.046895277
37	0x3cef0a5b	0.029179743
38	0xbdcc96aa	-0.099896744
39	0xbc8328be	-0.016010638
40	0xbd47346a	-0.04863397
41	0xbd536889	-0.051613364
42	0xbdc89562	-0.097941175
43	0x3bc12d08	0.0058952607
44	0xbde9391b	-0.11387845
45	0xbd0fea04	-0.035135284
46	0x3d956a3c	0.07295653
47	0x3db9897a	0.09059425
48	0xbd85dcab	-0.0653623
49	0xbced53d7	-0.028970642
50	0xbd8f38a8	-0.06993228
51	0xbe1a818d	-0.15088482
52	0x3b28c374	0.0025751265
53	0xbe1926c6	-0.14956197
54	0x3d8130b5	0.06308118
55	0xbda19459	-0.07889623
56	0xbceee7e2	-0.029163305
57	0xbdc323f7	-0.09528344
58	0x3dd8e1b2	0.10589923
59	0x3b40caa6	0.0029417663
60	0xbd0cc61b	-0.034368616
61	0x3bf8ec40	0.0075965226
62	0xbdf2c2d8	-0.1185357
63	0xbdf476cd	-0.11936722
64	0x3d35c26e	0.044374876
65	0xbe00e922	-0.12588933
66	0xbb32d793	-0.0027289137
67	0x3c4301b7	0.011902264
68	0xbd3cb08e	-0.046066813
69	0xbc28eadc	-0.010309901
70	0x3d868d02	0.06569864
71	0x3d4f3730	0.05058974
72	0xbc1e6f33	-0.009670067
73	0xbb505050	-0.0031786151
74	0x3cc8fa8f	0.024533538
75	0xbd9e3ab9	-0.07726044
76	0xb9845777	-0.00025242168
77	0x3b8c60db	0.004284007
78	0xbe22a96a	-0.15884939
79	0xbe0759e4	-0.13217884
80	0xbd6fb361	-0.05852068
81	0x3d2ff441	0.042957548
82	0x3c2e4fd7	0.0106391525
83	0x3d9d4771	0.07679642
84	0xbd2b5916	-0.041833006
85	0x3d4f7c87	0.050655868
86	0x3da39051	0.079865105
87	0xbde3c06d	-0.11120687
88	0xbaf807e1	-0.0018923247
89	0x3cf4ed15	0.029898206
90	0x3d6d3595	0.057912428
91	0xbdfe0f6a	-0.12405284
92	0xbda37f23	-0.07983234
93	0xbd842edd	-0.06454251
94	0x3cfe97a9	0.031078177
95	0xbe3bef26	-0.18352947
96	0x3d7c52b9	0.061602328
97	0x3da91006	0.08255009
98	0x3dda9441	0.106728084
99	0x3d8ce215	0.06879059
100	0x3d80ec49	0.06295068
101	0xbd515dc5	-0.051114816
102	0x3d982e03	0.07430651
103	0xbdf79bc2	-0.12090255
104	0xbc987cd2	-0.018614206
105	0xbda77d24	-0.081781656
106	0xbde9dac7	-0.114186816
107	0xbca13912	-0.019680534
108	0xbdde5475	-0.10855953
109	0xbd8f8e76	-0.07009594
110	0xbd90a8bd	-0.07063434
111	0x3c92f1c7	0.017937554
112	0xbb8dbefc	-0.0043257456
113	0xbda7d2b2	-0.08194484
114	0xbd3a1e31	-0.04543895
115	0x3c24b95c	0.010053959
116	0x3e10be10	0.14135003
117	0x3ddbd549	0.1073404
118	0x3da99c73	0.082817934
119	0xbd6853f6	-0.056720696
120	0x3ceade50	0.02867046
121	0xbd25e475	-0.040501077
122	0xbda937c9	-0.08262593
123	0xbdca479c	-0.0987694
124	0xbd5ed0a1	-0.054398183
125	0x3d24cc7d	0.040234078
126	0xbc234ea9	-0.0099674845
127	0x3c7b2f2c	0.015331071
128	0x3decae86	0.11556725
129	0xbdc598b6	-0.09648268
130	0x3d8fbada	0.07018061
131	0xbd209eb5	-0.039213855
132	0x3d0430c6	0.032273076
133	0x3cc76099	0.024338054
134	0x3e0016fd	0.1250877
135	0x3d1455f4	0.036214784
136	0xbd0fc501	-0.035099987
137	0x3cd92ea7	0.026511503
138	0x3e0fb29f	0.14032982
139	0x3ccdd376	0.025125246
140	0xbd8dac4d	-0.069176294
141	0xbd9c2cc7	-0.07625728
142	0xbd2aa53a	-0.04166148
143	0xb974b818	-0.00023338234
144	0xbd1d7640	-0.03844285
145	0xbcdf4663	-0.027255243
146	0xbcff5003	-0.031166082
147	0xbdd3c123	-0.10339572
148	0xbc579e4d	-0.0131603
149	0xbe0753a1	-0.13215496
150	0x3c739fa8	0.014869608
151	0xbd44f5a1	-0.048085812
152	0x3d82d50f	0.06388294
153	0xbc0c0bd8	-0.008547746
154	0x3e0efa0a	0.1396257
155	0x3d44bace	0.048029713
156	0xbd90d395	-0.07071606
157	0x3d605af0	0.054774225
158	0xbd9c958c	-0.07645711
159	0xbcc59386	-0.024118196
160	0x3da856a6	0.08219652
161	0xbbf4e5f2	-0.0074737007
162	0x3dad5331	0.08463133
163	0x3dbe734d	0.09299336
164	0x3bc978cc	0.0061484333
165	0x3c82277d	0.01588797
166	0xbd8abeb7	-0.06774657
167	0x3d8c2bcb	0.0684429
168	0xbde556a1	-0.11198164
169	0xbe24744d	-0.1605999
170	0xbc96ae33	-0.018393612
171	0x3d362800	0.04447174
172	0x3de33bb1	0.110953696
173	0xbdd3accd	-0.103356935
174	0xbd2cf646	-0.042227052
175	0x3ca395d8	0.019968912
176	0xbdcad5fa	-0.09904094
177	0x3df313c0	0.118690014
178	0xbd372593	-0.044713568
179	0xbd0824ce	-0.033238225
180	0x3c468765	0.0121172415
181	0xbd1dea23	-0.03855337
182	0x3d74f649	0.05980519
183	0xbe05fce4	-0.13084751
184	0x3d519f01	0.05117703
185	0xbd368dcc	-0.04456882
186	0x3cd20376	0.025636416
187	0xbbd02da9	-0.0063530994
188	0x3b85930c	0.0040763672
189	0x3ce190cb	0.027534863
190	0xbc5ce0fa	-0.013481373
191	0x3d7161ed	0.05893128
192	0xbe0d148e	-0.13777372
193	0xbe40756a	-0.1879479
194	0xbe40d6e8	-0.1883198
195	0x3de5d747	0.112227015
196	0xbdcc58db	-0.09977885
197	0xbd4c8d30	-0.049939334
198	0xbd7d11a0	-0.061784387
199	0xbb861352	-0.0040916586
200	0xbd6cda2b	-0.05782525
201	0xbe0c0039	-0.1367196
202	0xbb64bcb2	-0.003490251
203	0xbc880bdb	-0.016607216
204	0x3cda1dde	0.02662557
205	0x3dba741f	0.091041796
206	0xbb2067c1	-0.0024475905
207	0x3de8c926	0.11366491
208	0xbca77133	-0.02043972
209	0x3d0096cf	0.031393822
210	0x3d8cee26	0.06881361
211	0xbda8642c	-0.08222231
212	0x3cb19401	0.02167702
213	0xbe578f46	-0.21050748
214	0xbc791186	-0.015201932
215	0x3d9e6fe3	0.077361844
216	0x3c99f06c	0.0187914
217	0x3d8936c8	0.06699902
218	0xbd912591	-0.07087243
219	0xbcd8289e	-0.026386555
220	0x3dcb8697	0.0993778
221	0x3d61d43e	0.05513405
222	0x3cdac88f	0.026706962
223	0x3a134fed	0.0005619515
224	0xbd7d3512	-0.06181819
225	0x3dbb166f	0.09135138
226	0xbe11b1a2	-0.14227918
227	0xbdaadbdd	-0.08342717
228	0x38ba7f99	8.892938e-05
229	0x3d8fd277	0.07022565
230	0x3d6f01f7	0.058351483
231	0xbc8d26b6	-0.017230373
232	0xbdb040b1	-0.08606089
233	0x3dc45c1c	0.09587881
234	0x3d923f7b	0.07141014
235	0xbe16010c	-0.14648837
236	0x3d8d4529	0.06897957
237	0xbde645d6	-0.11243789
238	0xbb1bab52	-0.0023753238
239	0x3d717a01	0.058954243
240	0x3dbcf240	0.09225893
241	0x3d8d9e6a	0.06914981
242	0xbda123ee	-0.07868181
243	0x3d361437	0.044452872
244	0x3d0f68a3	0.0350119
245	0xbd3b6ea9	-0.04575983
246	0x3d947c72	0.072502986
247	0x3da5ec98	0.08101767
248	0xbc8d2119	-0.017227696
249	0x3db2521e	0.08707069
250	0xbdecce5f	-0.115628
251	0x3d259be5	0.040431876
252	0x3de76a8c	0.11299619
253	0x3db224d3	0.0869843
254	0x3d7f44bd	0.062321413
255	0x3c0c7db3	0.008574891

model.cnn_input_3.1.bias f4 [32]
0	0xbc932d5d	-0.017965967
1	0xbe06097d	-0.13089557
2	0x3dc6165a	0.09672232
3	0x3d920fae	0.07131897
4	0x3dc1b484	0.09458259
5	0xbe0914d6	-0.13386855
6	0x3d8d4aaa	0.06899007
7	0x3c73b1fb	0.014873977
8	0xbd9b4e4d	-0.07583294
9	0x3dcbb6ed	0.09947
10	0xbd185322	-0.037188657
11	0xbc79b780	-0.015241504
12	0xbcbaa3ce	-0.022783186
13	0x3d9bbf26	0.07604818
14	0xbd348fbb	-0.044082385
15	0x3d72dd77	0.059293237
16	0xbe168aa7	-0.14701329
17	0xbda7f049	-0.08200128
18	0xbd85322f	-0.065037124
19	0xbdcace9c	-0.09902689
20	0x3c396a97	0.011316917
21	0xbdbec18d	-0.09314261
22	0xbd7126e5	-0.058874983
23	0xbdc3631f	-0.0954039
24	0xbdc61983	-0.09672835
25	0xbcfeb721	-0.031093182
26	0x3c944026	0.018096995
27	0xbdd6ba54	-0.10484758
28	0xbd84dd79	-0.06487555
29	0xbd2bfbb4	-0.04198809
30	0x3ddce627	0.107860856
31	0xbb6cf068	-0.0036154035

model.cnn_input_3.3.weight f4 [32, 32, 5]
0	0xbe1024d0	-0.14076543
1	0xbd5357b3	-0.05159731
2	0xbd96f27a	-0.073704675
3	0xbc8a46d0	-0.01687947
4	0xbc3aefb4	-0.011409689
5	0x3d1efb20	0.03881371
6	0x3cdf9e99	0.027297305
7	0xba10d8a7	-0.0005525448
8	0x3d8ff9ee	0.07030092
9	0x3d144166	0.03619518
10	0xbd219cae	-0.039456062
11	0xbd90afd5	-0.07064787
12	0xbd9f4811	-0.077774175
13	0x3cbe8a40	0.023259282
14	0x3decb69d	0.11558268
15	0xbc03511e	-0.008014945
16	0xbcb43501	-0.02199793
17	0x3d7c7fd2	0.061645336
18	0x3d78671b	0.060645204
19	0x3d807d48	0.062738955
20	0x3be8b74b	0.0071019283
21	0xbd5aeaee	-0.053446703
22	0xbd98392f	-0.07432782
23	0x3b2cb400	0.0026352406
24	0xbcd5ffb1	-0.0261229
25	0xbd6df928	-0.058098942
26	0xbc83c59e	-0.016085442
27	0xbbf389e7	-0.0074322107
28	0xbd08d994	-0.033410624
29	0x3cf4c6e9	0.029880004
30	0xbceb5572	-0.028727267
31	0x3cab4f03	0.0209117
32	0xbc384775	-0.011247505
33	0xbd2a2617	-0.04154023
34	0xb9c05b11	-0.00036688944
35	0x3ac355d0	0.0014902893
36	0x3d7238dc	0.059136257
37	0x3dc6973f	0.09696817
38	0x3d4af65c	0.049551353
39	0x3d542529	0.05179325
40	0x3daf4125	0.08557347
41	0xbcb335a6	-0.021876168
42	0xbc5cf224	-0.013485465
43	0xbc2ffce1	-0.010741443
44	0xbd8cebe8	-0.06880933
45	0xbdf9d8f8	-0.12199587
46	0xbbcb55a4	-0.0062052775
47	0x3d2894d3	0.041157555
48	0xbcbae85f	-0.022815881
49	0xbda7e41b	-0.081978045
50	0x3d684f02	0.056715973
51	0x3d124195	0.035707075
52	0x3d8439fd	0.06456373
53	0x3c1688cb	0.009187887
54	0xbbff1fe3	-0.0077857836
55	0x3d8981c2	0.067142025
56	0x3cdc7ca8	0.02691491
57	0xbccd08b7	-0.02502857
58	0xbd60fbfc	-0.05492781
59	0xbda87631	-0.08225668
60	0x3c11f9e3	0.008909675
61	0xbb5783a4	-0.003288486
62	0xbda7475c	-0.081679076
63	0xbc02c8a3	-0.007982406
64	0x3be6a84e	0.0070391065
65	0x3d1f2ddc	0.038862094
66	0xbd833321	-0.064062364
67	0x3b91b6fd	0.0044468627
68	0xbc6e7458	-0.014554106
69	0xbbac36bc	-0.0052555483
70	0xbdc3bcb7	-0.09557479
71	0xbc185e21	-0.009299786
72	0xbce7fc37	-0.028318508
73	0x3d25dfd1	0.04049665
74	0x3bb98384	0.00566143
75	0x3db13411	0.08652509
76	0x3d1a4974	0.037667707
77	0x3d155281	0.036455635
78	0xbc3fb365	-0.011700486
79	0x3d8c242e	0.06842838
80	0x3dce89df	0.100848906
81	0x3c38b66f	0.011273964
82	0x3d927aa4	0.07152298
83	0x3dbc781a	0.09202595
84	0x3d34ea6f	0.044168886
85	0xbdc24a9b	-0.09486886
86	0xbd93a810	-0.0720979
87	0x3c67e7a5	0.014154349
88	0x3d9613d8	0.07328004
89	0x3da41be3	0.080131315
90	0x3d1a5ca0	0.03768599
91	0xbc36425a	-0.011124218
92	0x3b1cc5fe	0.0023921723
93	0x3c1c94e1	0.00955698
94	0x3d176c7d	0.036968697
95	0xbdcf1bdc	-0.10112736
96	0xbcc02468	-0.02345486
97	0xbdbab474	-0.0911645
98	0xbdadeb92	-0.08492197
99	0xbdd5abdf	-0.104331724
100	0x3de63034	0.11239663
101	0x3d1e255d	0.03860985
102	0x3d042042	0.032257326
103	0xbd505af5	-0.050867993
104	0x3dd456a6	0.103680894
105	0x3a7892c4	0.0009482319
106	0xbc81b158	-0.015831634
107	0xbc8bcb50	-0.01706472
108	0x3d38ef5f	0.045150157
109	0xbd0f9abd	-0.03505968
110	0xbce370dd	-0.027763778
111	0x3cf7c673	0.030245995
112	0x3d746d9a	0.059674837
113	0xbd9f93cc	-0.07791862
114	0x3d84c285	0.06482414
115	0x3ca6576f	0.020305363
116	0xbddc62a8	-0.10761005
117	0x3d99b90d	0.07505999
118	0xbd7295cd	-0.059224892
119	0x3ab54eec	0.0013832725
120	0x3d1b3ebc	0.037901625
121	0x3c660696	0.014039656
122	0x3dfc32b1	0.12314356
123	0xbba5de47	-0.005061898
124	0xbd85fea0	-0.065427065
125	0xbd64b4ba	-0.055836417
126	0xbd42fc0a	-0.047603644
127	0xbd2b1992	-0.041772433
128	0xbd8349ae	-0.06410538
129	0x3dc0b778	0.09409994
130	0x3d59cd61	0.05317438
131	0xbe0e2918	-0.13882864
132	0x3c82af68	0.01595278
133	0x3cd328ce	0.025776293
134	0xbda7ced6	-0.08193748
135	0xbce2dfe9	-0.02769466
136	0xbcca5ed8	-0.024703428
137	0xbd173f7b	-0.036925774
138	0xbd3cfde5	-0.04614057
139	0xbc35b861	-0.011091323
140	0xbc4a23ef	-0.012337669
141	0x3d34da11	0.044153277
142	0x3bf3d72e	0.007441423
143	0xbd40bc9c	-0.047054872
144	0x3bbf0c0c	0.0058302935
145	0x3aecd3e5	0.0018068521
146	0xbd10bb63	-0.035334956
147	0xbcb1cb0c	-0.021703266
148	0x3dd58ed2	0.104276314
149	0xbbae8104	-0.0053254385
150	0x3d19cb2c	0.037547275
151	0xbdd95dc3	-0.10613587
152	0x3c4c3a8a	0.012465129
153	0x3d75b4e5	0.059986968
154	0xbce0f66f	-0.027461259
155	0xbda61174	-0.08108798
156	0xbd950b3b	-0.07277533
157	0x3d8a4a65	0.06752471
158	0x3d9467fd	0.07246397
159	0xbcb42e43	-0.021994716
160	0xbdae8392	-0.08521189
161	0xbda47893	-0.0803081
162	0xbd5cf28a	-0.05394224
163	0xbbaf27f6	-0.00534534
164	0xbd59b91d	-0.053155053
165	0xbcaddfa5	-0.021224806
166	0xbcc691fb	-0.02423953
167	0x3da4d8a0	0.080491304
168	0x3cece51a	0.028917838
169	0x3d6a4095	0.057190496
170	0xbda424f5	-0.080148615
171	0xbd7cda8b	-0.061731856
172	0xbdcecaf9	-0.10097308
173	0xbd3e4781	-0.04645491
174	0x3c697961	0.01425013
175	0x3c691b57	0.01422771
176	0x3d535166	0.0515913
177	0x3cff5037	0.03116618
178	0x3d6aab6e	0.057292394
179	0xbcd23fbc	-0.025665157
180	0x3ca77708	0.0204425
181	0x3cee0747	0.029056204
182	0xbc1e9a92	-0.009680407
183	0x3d87980b	0.06620797
184	0xbcc5c4d8	-0.024141714
185	0xbd9e2e6b	-0.07723697
186	0x3d8414fb	0.06449314
187	0xbba8f178	-0.0051557384
188	0x3d643e5e	0.05572354
189	0x3b07d798	0.002072787
190	0xbce9df2b	-0.028548798
191	0x3d911db0	0.070857406
192	0x3d4facb2	0.050701804
193	0x3d2dc007	0.04241946
194	0x3c3a2944	0.011362378
195	0xbdbced41	-0.0922494
196	0x3ca1bc04	0.019742973
197	0x3c88c40e	0.016695049
198	0xbd2ecc9f	-0.04267561
199	0x3d65ed6e	0.056134634
200	0x3d8e1013	0.0693666
201	0xbc0d3a78	-0.008619897
202	0x3dc909a0	0.09816289
203	0xbd3090cd	-0.043106843
204	0x3d3d3836	0.046196185
205	0xbd36e00d	-0.044647265
206	0xbbcba0d8	-0.0062142424
207	0xbd33ba4d	-0.043878842
208	0x3b6b7c7c	0.0035932353
209	0x3cb49ffb	0.02204894
210	0x3cea8165	0.028626153
211	0x3d8be9ab	0.06831678
212	0x3d35f543	0.044423353
213	0x3bdbde2b	0.006709834
214	0xbd87d4a4	-0.06632355
215	0x3d6f7215	0.058458406
216	0x3c0178ee	0.007902367
217	0x3c565bf2	0.013083445
218	0xbd7f82d4	-0.062380627
219	0x3bcc96a6	0.0062435446
220	0xbd4b09e5	-0.049569983
221	0x3d2fa6a8	0.042883545
222	0x3d16c175	0.03680559
223	0xbd655e29	-0.055998
224	0xbdbd3567	-0.09238701
225	0xbb34742a	-0.002753506
226	0xbd2ad6e4	-0.041708842
227	0x3c133faa	0.008987347
228	0xbc42e30e	-0.011894954
229	0x3d860af8	0.06545061
230	0xbcda1048	-0.026619092
231	0x3d18cca2	0.037304528
232	0xbb282e39	-0.0025662316
233	0xbdeb7f70	-0.11498916
234	0x3b0b4db8	0.002125604
235	0xbc91a4ed	-0.017778838
236	0xbd125feb	-0.035736006
237	0x3d6116ee	0.054953508
238	0x3cb9298e	0.022602823
239	0x3d94cbce	0.07265435
240	0x3d7f35c6	0.06230714
241	0x3d0c9817	0.03432473
242	0xbd779e24	-0.06045355
243	0xbc9cf7fc	-0.019161217
244	0x3d0f3c80	0.034969807
245	0x3baa2cb6	0.0051933182
246	0xbd2db9f7	-0.042413678
247	0xbccc4a45	-0.024937758
248	0x3cff1ccd	0.031141663
249	0xbc49338b	-0.012280355
250	0xbd82be13	-0.0638391
251	0x3c67561d	0.014119652
252	0x3d0a771c	0.033804998
253	0x3c88d099	0.01670103
254	0x3d8f589c	0.06999323
255	0xbccc85c2	-0.024966124

model.cnn_input_3.3.bias f4 [32]
0	0xbd994b5f	-0.07485079
1	0x3d3da41d	0.04629909
2	0x3dcc0af5	0.099630274
3	0x3d4c1b1b	0.049830537
4	0x3d23f2b2	0.040026374
5	0x3d5b77f8	0.053581208
6	0xbc484232	-0.012222813
7	0xbc30259e	-0.010751156
8	0xbad7494e	-0.0016425045
9	0x3b1fa0cf	0.0024357324
10	0xbcb73322	-0.02236325
11	0xbd7c231a	-0.061556913
12	0xbc80327d	-0.015649075
13	0x3c41d393	0.011830228
14	0x3d0daa35	0.03458615
15	0x3c187534	0.009305287
16	0xbdb70859	-0.08937139
17	0x3d4044f5	0.046940763
18	0x3c758635	0.014985611
19	0xbcfb9117	-0.030708833
20	0xbd873fd6	-0.066039726
21	0xbd2b3182	-0.04179526
22	0x3cfc0b0d	0.030766988
23	0xbca82ce9	-0.020529227
24	0xbd9fc705	-0.07801632
25	0xbd942fa9	-0.07235653
26	0xbcf6110b	-0.030037424
27	0x3d888faf	0.066680305
28	0x3cae823e	0.021302339
29	0x3d6eead5	0.058329422
30	0x3d8b67c8	0.06806904
31	0x3d02b4ac	0.031910583

model.upconv_2.0.weight f4 [32, 16, 6]
0	0x3da7c17b	0.081912
1	0xbded846f	-0.11597525
2	0x3db10f36	0.086454794
3	0xbd56f7a8	-0.052482277
4	0xbd38c60b	-0.045110743
5	0xbd94f8c2	-0.07274009
6	0xbc004b4f	-0.007830455
7	0xbc37fa75	-0.011229147
8	0xbc76ccc0	-0.015063465
9	0xbd9b9453	-0.0759665
10	0xbdcb7120	-0.09933686
11	0x3dc783cd	0.09741936
12	0xbd4fafd6	-0.0507048
13	0x3d505c8e	0.050869517
14	0x3d9c4469	0.07630236
15	0x3d74c74d	0.05976038
16	0xbd239503	-0.03993703
17	0xbd611dc8	-0.054960042
18	0x3d5e17ce	0.05422192
19	0x3dcbfb71	0.09960068
20	0xbd1d5430	-0.038410366
21	0xbcfa063f	-0.030520556
22	0x3d980817	0.07423418
23	0xbc4e0f6f	-0.012576922
24	0xbbccc9ec	-0.006249657
25	0xbdae0d49	-0.08498628
26	0x3c95b7fb	0.018276205
27	0x3d414aca	0.047190465
28	0x3d9ef8c9	0.07762296
29	0x3da7f41d	0.08200858
30	0xbd9ffe41	-0.07812167
31	0xbcc1222a	-0.023575861
32	0xbdb69e5e	-0.08916925
33	0xbc52c054	-0.012863237
34	0xbcd48276	-0.025941115
35	0xbd82753e	-0.063700184
36	0x3bc13a9e	0.0058968803
37	0x3db62dd1	0.088954575
38	0x3cdb8591	0.026797088
39	0xbcf36db8	-0.029715404
40	0x3d12fccf	0.03588563
41	0x3d33b34a	0.043872155
42	0xbd09bea1	-0.033629064
43	0xbda86c10	-0.08223736
44	0xbded2883	-0.115799926
45	0xbd8d957b	-0.06913277
46	0x3dee6a15	0.11641327
47	0x3d38d8e5	0.04512872
48	0xbcf4d1ef	-0.02988526
49	0x3dfb44c6	0.12268977
50	0xbd08f46a	-0.033436216
51	0x3c61cd8a	0.0137819145
52	0x3c050d72	0.008120881
53	0xbdbe61a0	-0.09295964
54	0x3df38bd1	0.11891902
55	0x3e0b3529	0.13594498
56	0x3a2fb705	0.0006702992
57	0xbc2c0231	-0.010498569
58	0x3cf0a413	0.029375112
59	0xbb44d460	-0.0030033812
60	0x3d07a8c3	0.033119928
61	0xbe1377b8	-0.14401138
62	0xbdfae30d	-0.12250338
63	0xbe2b5cdd	-0.16734643
64	0xbcf6521b	-0.030068448
65	0xbd71fd1f	-0.059079286
66	0xbc208804	-0.009798054
67	0x3d2c8dcc	0.042127416
68	0x3dac9d07	0.08428388
69	0x3adfa387	0.0017062285
70	0xbda68146	-0.08130126
71	0x3d0b7b73	0.034053277
72	0x3df3ccbf	0.119042866
73	0xbd814acf	-0.06313097
74	0x3caf2644	0.021380551
75	0xbdc3cdfd	-0.095607735
76	0xbde74b12	-0.112936154
77	0xbd023a87	-0.031794097
78	0xbb356711	-0.002767984
79	0x3cae1389	0.02124955
80	0x3da00f3d	0.078154065
81	0xbd8a7d31	-0.067621596
82	0x3dde5e6c	0.10857853
83	0x3dc279de	0.094959006
84	0x3e0a95ad	0.1353366
85	0xbc6e254c	-0.014535259
86	0x3b90fe40	0.00442484
87	0x3d629a0a	0.055322684
88	0x3d4e4896	0.050362192
89	0xbd8e0f78	-0.06936544
90	0xbe07f598	-0.1327728
91	0xbd20c910	-0.03925425
92	0xbd939d56	-0.07207744
93	0x3c247806	0.010038381
94	0xbcb372a9	-0.02190526
95	0xbd025fdd	-0.031829704
96	0xbda6595b	-0.08122512
97	0x3ce2d5d9	0.027689861
98	0x3e028590	0.12746263
99	0xbb8dd3f5	-0.0043282458
100	0x3bc9fced	0.0061641843
101	0xbdcfe4d9	-0.10151071
102	0xbc19fe81	-0.009399057
103	0xbd341adc	-0.043970928
104	0x3d85f7e8	0.06541425
105	0xbdba6fa0	-0.09103322
106	0x3d1a2098	0.03762874
107	0x3d4d9f3c	0.050200686
108	0x3d9bb653	0.07603135
109	0x3d7e7e17	0.062131967
110	0xbd8a805f	-0.06762766
111	0xbda04f6e	-0.0782765
112	0x3cbc6d65	0.023001382
113	0x3d500cbb	0.05079339
114	0x3dc2d3db	0.095130645
115	0x3d91c6f0	0.071180224
116	0xbcecd485	-0.028909931
117	0xbd7c362d	-0.061575104
118	0xbdac1d0e	-0.08403979
119	0xbd977614	-0.073955685
120	0x3dd8e704	0.10590938
121	0x3cfa8c5d	0.030584509
122	0x3d776a42	0.06040407
123	0xbda735a9	-0.08164532
124	0x3cd0c374	0.025483824
125	0xbc364c6d	-0.01112662
126	0x3bae6281	0.005321801
127	0xbe0912c3	-0.13386063
128	0x3d893ff3	0.067016505
129	0xbdb38027	-0.087646775
130	0xbccf337a	-0.0252931
131	0x3d3f1982	0.046655186
132	0x3dcfa2a4	0.10138443
133	0x3dd4c05b	0.103882514
134	0x3dad5ba3	0.08464744
135	0x3cc7fe28	0.024413183
136	0xbc79d7e4	-0.015249226
137	0x3d21449c	0.03937207
138	0xbd625d73	-0.0552649
139	0xbd271aae	-0.040796928
140	0xbd82b763	-0.063826345
141	0xbd664446	-0.056217454
142	0xbdbeb815	-0.093124546
143	0xbd2974c1	-0.04137111
144	0x3d706043	0.058685552
145	0xbdd23320	-0.102636576
146	0x3d8636a9	0.06553394
147	0xbd06852c	-0.032841846
148	0xbc06018b	-0.008179079
149	0xbd109d55	-0.035306294
150	0x3db69d08	0.0891667
151	0xba0bdf5a	-0.0005335711
152	0xbdba7997	-0.09105223
153	0xbd4479ff	-0.047967907
154	0xbc71ee82	-0.014766337
155	0x3ceb549c	0.028726868
156	0xbd829b33	-0.06377258
157	0xbdab3faa	-0.08361752
158	0xbc369973	-0.011144984
159	0x3d866906	0.065630004
160	0x3c1806ba	0.0092789475
161	0x3c8503d8	0.016237184
162	0xbd5ffe42	-0.05468584
163	0x3d58ff9b	0.05297814
164	0x3db087bf	0.086196415
165	0xbdddc478	-0.10828489
166	0xbda5e6af	-0.0810064
167	0xbdc94a7f	-0.09828662
168	0x3d0fca53	0.03510506
169	0x3d908e07	0.070583396
170	0xbdc46973	-0.09590425
171	0x3bb26219	0.005443823
172	0xbdd53395	-0.10410229
173	0xbdb682d9	-0.08911676
174	0x3d82d7be	0.06388806
175	0x3cd87dda	0.026427198
176	0xbc16fe38	-0.009215884
177	0x3d85932f	0.06522214
178	0xbd4be711	-0.04978091
179	0xbdba7603	-0.0910454
180	0x3cece278	0.028916582
181	0x3d806724	0.062696725
182	0xbdd5408f	-0.10412704
183	0xbdbbfbf9	-0.09178919
184	0x3d294223	0.04132284
185	0x3d7bae0e	0.06144529
186	0x3cd625fa	0.026141156
187	0x3c548604	0.012971405
188	0xbc5f5e32	-0.013633298
189	0xbc3c8f28	-0.0115087405
190	0xbc479ea7	-0.012183822
191	0x3bf778d6	0.0075522466
192	0x3e04131a	0.12897912
193	0x3cb20aca	0.02173366
194	0xbd6adea1	-0.05734122
195	0xbdb36189	-0.08758838
196	0x3dd39720	0.10331559
197	0x3d914080	0.070923805
198	0x3da3faf4	0.0800685
199	0xbe129872	-0.14315966
200	0x3d82f624	0.06394604
201	0xbd4a0fc9	-0.04933146
202	0xbc3e7da2	-0.011626633
203	0xbe2ceb92	-0.16886738
204	0xbd5b43ec	-0.053531572
205	0xbd810414	-0.06299606
206	0xbda38825	-0.07984952
207	0x3d50f53f	0.051015135
208	0xbdcfb5c6	-0.101420924
209	0xbd717be3	-0.05895604
210	0xbe07f4fa	-0.13277045
211	0xbdd63fed	-0.104614116
212	0xbd315eaf	-0.043303188
213	0x3d86ad0d	0.065759756
214	0xbe00c157	-0.12573753
215	0xbde5591a	-0.111986354
216	0xbd0c1375	-0.034198243
217	0xbdb5be22	-0.088741556
218	0x3d2ee89b	0.0427023
219	0x3d701733	0.058615874
220	0xb9973b3c	-0.00028845097
221	0xbdfb3b82	-0.122672096
222	0xbdad160e	-0.08451472
223	0xbd38b2d9	-0.045092437
224	0x3d406066	0.046966933
225	0x3c5dc4a6	0.013535654
226	0x3d74176c	0.05959265
227	0xbd456fe5	-0.048202414
228	0xbd94937c	-0.07254693
229	0xbd4fc429	-0.050724182
230	0x3c98f284	0.018670328
231	0x3df802ba	0.12109895
232	0xbcfb10cf	-0.030647663
233	0xbdd2fd80	-0.103022575
234	0x3be5a5a5	0.0070082718
235	0xbdbbe9c4	-0.09175447
236	0xbda56f36	-0.080778524
237	0xbd4b85e7	-0.049688246
238	0xbde56770	-0.1120137
239	0xbde28c71	-0.11061943
240	0xbde89237	-0.11356013
241	0x3da168e5	0.07881335
242	0x3cf76bdd	0.0302028
243	0x3d9814ee	0.07425867
244	0x3dcee47a	0.10102172
245	0xbda827c8	-0.08210713
246	0xbb1561de	-0.002279393
247	0xbcd5f2de	-0.026116785
248	0x3d11d219	0.035600755
249	0xbcc162f5	-0.023606757
250	0x3d998f33	0.07498016
251	0x3dd15390	0.102210164
252	0xbe14c959	-0.14529933
253	0xbcf9c3b6	-0.03048883
254	0xbc65991c	-0.014013555
255	0xbe0fc901	-0.1404152

model.upconv_2.0.bias f4 [16]
0	0x3bf9be97	0.007621597
1	0x3db94227	0.09045821
2	0xbda1bd59	-0.07897443
3	0xbd540271	-0.05176014
4	0xbd64e723	-0.05588449
5	0x3d492b2f	0.04911345
6	0x3d50a9bc	0.05094312
7	0x3d3994aa	0.045307793
8	0xbce6ce0b	-0.02817442
9	0x3d29ceb6	0.0414569
10	0x3d68ac0c	0.0568047
11	0xbd975347	-0.07388931
12	0xbd22f1ea	-0.03978149
13	0x3d2c29b0	0.042031944
14	0x3d12b094	0.03581293
15	0xba8d127b	-0.0010762954
