models/LB_UNet_5s--epoch=4-val_loss=0.54-train_loss=0.46.ckpt (torch, 268345 bytes, 121 tensors)

model.cnn_input_1.0.weight f4 [3]
0.9543347 0.80149615 1.1942307
00000000: 474f 743f da2e 4d3f 8ddc 983f

model.cnn_input_1.0.bias f4 [3]
0.0060308767 0.07527347 -0.18560956
00000000: a99e c53b fa28 9a3d 6f10 3ebe

model.cnn_input_1.0.running_mean f4 [3]
6.5426264 -0.15712796 0.25060892
00000000: 325d d140 27e6 20be d04f 803e

model.cnn_input_1.0.running_var f4 [3]
46.424026 2049.3008 0.15607163
00000000: 34b2 3942 d014 0045 3ed1 1f3e

model.cnn_input_1.1.weight f4 [8, 3, 5]
0.12014108 0.06415699 -0.16792798 0.19847879 -0.07639782 -0.053877994 -0.14158195 -0.06828067
0.07535873 -0.15178168 -0.19210258 -0.2587049 -0.21109523 0.21540095 0.1242878 -0.041418582
-0.22799873 -0.14312974 -0.09240625 0.14201145 0.14750947 -0.0072981035 -0.0969676 0.13350153
-0.05400774 0.26088867 -0.16123465 0.021696107 0.32436785 0.29784113 -0.04562172 -0.16493937
-0.029568909 -0.21863227 0.044355165 -0.15780397 0.019523423 -0.076333456 -0.123616755 -0.16225773
0.25789696 0.017677423 -0.09348593 0.16067499 0.088060945 -0.117139846 0.0020785066 0.05275111
-0.124272466 0.116939664 0.013901713 -0.07739024 0.057049673 0.063635156 0.06153869 0.2653997
0.3180344 0.19090162 -0.1700526 -0.05001078 -0.18348595 0.20855872 -0.0860009 -0.23635936
0.17641187 -0.076111495 -0.20548062 0.019785589 -0.14540121 0.059277084 -0.19708219 0.1335147
-0.0813159 0.2188489 0.26229838 -0.19582026 -0.1874559 -0.18807822 0.07898632 0.099898346
0.0732553 -0.06951629 0.026095977 0.1300792 0.010869707 0.27964076 -0.2938165 -0.2610792
-0.005981597 -0.030304141 -0.069819085 -0.08138047 -0.2335087 -0.16297944 -0.25471073 -0.11939643
-0.023970326 -0.11656172 -0.07791433 0.14571393 0.16801907 -0.22809254 -0.07140294 0.15755469
0.17001276 0.020018278 0.02063873 0.09789943 0.038993005 -0.24162184 0.1324618 0.08472275
0.25806215 0.18499027 -0.023216598 0.025324328 -0.13881657 -0.102264345 -0.07757586 -0.11256425
00000000: 870c f63d bd64 833d 50f5 2bbe 063e 4b3e
00000010: 7676 9cbd 2caf 5cbd dcfa 10be bcd6 8bbd
00000020: ae55 9a3d a86c 1bbe 8ab6 44be f874 84be
00000030: 5929 58be 1192 5c3e 9a8a fe3d 88a6 29bd
00000040: 8078 69be 9a90 12be 7d3f bdbd 736b 113e
00000050: b90c 173e ee24 efbb f396 c6bd a0b4 083e
00000060: 3837 5dbd 3393 853e b21a 25be 09bc b13c
00000070: 8b13 a63e a27e 983e d7dd 3abd dee5 28be
00000080: 7f3a f2bc 23e1 5fbe c3ad 353d 5d97 21be
00000090: 96ef 9f3c b754 9cbd c82a fdbd e426 26be
000000a0: 120b 843e 3ed0 903c 8d75 bfbd fc87 243e
000000b0: 4c59 b43d 04e7 efbd 8e37 083b 8c11 583d
000000c0: 9082 febd 107e ef3d 03c4 633c c67e 9ebd
000000d0: ebac 693d 2653 823d fe0f 7c3d 78e2 873e
000000e0: 68d5 a23e b77b 433e 4522 2ebe 1bd8 4cbd
000000f0: bee3 3bbe 6b90 553e 3d21 b0bd 3008 72be
00000100: 50a5 343e 58e0 9bbd 8369 52be 6315 a23c
00000110: 0ee4 14be 87cc 723d eacf 49be 14b8 083e
00000120: f388 a6bd ed19 603e f94b 863e 1b85 48be
00000130: 70f4 3fbe 9497 40be 94c3 a13d 8197 cc3d
00000140: e006 963d 8f5e 8ebd 3bc7 d53c 7b33 053e
00000150: db16 323c 132d 8f3e 1e6f 96be 2cac 85be
00000160: 4601 c4bb 6440 f8bc 4ffd 8ebd ceaa a6bd
00000170: e81c 6fbe 15e4 26be 7269 82be 1e86 f4bd
00000180: 6b5d c4bc e9b7 eebd 8c91 9fbd 0836 153e
00000190: 310d 2c3e 1791 69be b43b 92bd 0456 213e
000001a0: d317 2e3e 5ffd a33c 8e12 a93c 7f7f c83d
000001b0: 21b7 1f3d b76b 77be 11a4 073e 1f83 ad3d
000001c0: b920 843e 176e 3d3e bc30 bebc f774 cf3c
000001d0: ee25 0ebe f86f d1bd 18e0 9ebd 1688 e6bd

model.cnn_input_1.1.bias f4 [8]
0.15466973 0.019576503 -0.1657314 0.12197072 0.05915876 0.22787432 -0.12064874 0.30912676
00000000: be61 1e3e e75e a03c 7eb5 29be c9cb f93d
00000010: 7550 723d e357 693e b016 f7bd dd45 9e3e

model.cnn_input_1.3.weight f4 [8, 8, 5]
-0.074511856 0.011890654 0.06435508 0.04986362 -0.11412155 0.10719328 0.0006300829 -0.13196564
-0.07428014 0.06807863 0.031686563 -0.033095296 0.044394333 0.1197004 0.17680179 -0.02767782
0.04623897 0.047037404 -0.021257788 -0.094114535 0.08816979 -0.022495521 -0.12112552 0.11407041
0.07353077 -0.104579024 -0.0008454168 -0.058455646 0.17020668 0.14743698 0.03323024 -0.11480319
-0.13507445 -0.07512842 -0.06873681 0.069148034 -0.11494274 0.0052500125 -0.133623 0.12082713
0.15256827 -0.07717845 0.18122882 0.16219167 0.11947146 0.13074507 -0.01790317 0.11507194
0.038593348 0.13513806 0.019283567 -0.040011596 -0.034493648 0.06195219 0.010684487 -0.019026628
-0.048012923 -0.060160525 0.039793093 0.14369723 0.10040955 0.07678157 0.05821914 0.003812717
-0.036034226 -0.10433978 0.081849374 -0.25591102 -0.31609932 -0.14754513 0.0009319307 -0.08223776
0.053179756 -0.09172921 -0.13626054 0.10168908 0.062063385 0.10443614 -0.101751834 -0.03210636
-0.0100563755 -0.05378675 0.1054526 -0.105396405 -0.085609436 -0.05739694 -0.05061239 0.21109752
0.14045414 0.033224136 -0.0045675924 0.034218937 -0.036539424 0.02658937 -0.14222741 -0.06841109
-0.013769292 0.14443554 -0.07554998 -0.106518984 0.18360072 -0.00900935 -0.0805636 -0.02436157
0.03022064 -0.073544174 -0.116839185 -0.06902695 0.03739691 0.00416952 -0.07438211 0.22671495
-0.006243528 0.14919582 -0.04192932 -0.18466757 0.07597179 0.034402177 0.0075318627 -0.12440799
-0.06965724 -0.107250094 0.04387042 -0.17101823 0.11011844 -0.07210693 0.0049357284 0.1476273
0.21991211 0.043950103 -0.10737825 0.055320874 -0.0012203428 0.011852055 -0.028951306 0.06831392
-0.07327619 0.10705456 0.020343715 0.052408166 -0.13772838 -0.033060033 -0.031108169 0.07470672
0.12077369 -0.024740579 0.06146845 -0.10385975 -0.22488074 -0.11442377 -0.01662893 0.07658164
0.2115406 -0.005926756 0.022939041 -0.029635366 -0.06964351 -0.033201706 0.15771803 0.024888743
0.14103587 0.12578806 0.16019505 0.06428749 -0.04791501 0.059532836 0.16038561 -0.14082383
-0.12819931 0.116689675 0.0630743 -0.06826195 -0.036932524 -0.094312586 -0.08896826 0.09054257
-0.18342221 -0.08848253 -0.092113696 0.15941162 0.16275887 0.023781708 -0.08324354 0.059895255
0.10243354 0.019870246 0.11501214 0.050360706 -0.10796221 -0.095322214 0.06231381 0.027912922
0.060003478 -0.067256555 0.019547097 0.20009273 -0.04815514 0.14268294 -0.07636533 0.0058224685
0.05127804 -0.11543521 0.07882264 -0.03230567 -0.00032484095 -0.0606403 -0.016760863 0.058418065
0.07541095 -0.07924788 -0.01571804 -0.1105699 0.072878 -0.0047329585 -0.091641374 0.016389277
0.06398843 0.263413 0.22590095 0.11780598 -0.037481405 0.18863755 -0.1231814 -0.20182987
0.10288579 -0.077204324 -0.079713 -0.13599643 0.02737384 0.06750464 0.07695482 -0.027019862
0.029387325 0.07194403 0.034903392 0.15091592 -0.0016253815 0.14803028 -0.19887947 -0.008441338
-0.08948199 -0.012593279 -0.06481906 -0.019581039 -0.084108755 -0.066358075 0.17992868 0.13837518
-0.005903497 -0.07828086 -0.13180487 0.102316536 -0.071426935 -0.036189176 -0.00013404511 0.05100244
00000000: ac99 98bd 05d1 423c 99cc 833d cc3d 4c3d
00000010: 8fb8 e9bd 2688 db3d 262c 253a 0022 07be
00000020: 3020 98bd cf6c 8b3d c5c9 013d ef8e 07bd
00000030: d5d6 353d 7c25 f53d 870b 353e 98bc e2bc
00000040: 1365 3d3d 4baa 403d d024 aebc 1fbf c0bd
00000050: 5d92 b43d 8748 b8bc a810 f8bd bf9d e93d
00000060: 4d97 963d 872d d6bd f69e 5dba 306f 6fbd
00000070: a94a 2e3e b8f9 163e 6f1c 083d ef1d ebbd
00000080: f550 0abe eedc 99bd e2c5 8cbd 7c9d 8d3d
00000090: 1967 ebbd 4c08 ac3b 78d4 08be 3774 f73d
000000a0: db3a 1c3e bc0f 9ebd 0c94 393e 9315 263e
000000b0: 74ad f43d 09e2 053e aba9 92bc d6aa eb3d
000000c0: 0f14 1e3d a261 0a3e 92f8 9d3c 33e3 23bd
000000d0: 3649 0dbd 94c1 7d3d fd0d 2f3c bbdd 9bbc
000000e0: 33a9 44bd e26a 76bd 15fe 223d 5e25 133e
000000f0: 86a3 cd3d a83f 9d3d 3177 6e3d c7de 793b
00000100: a098 13bd 18b0 d5bd a5a0 a73d c506 83be
00000110: c5d7 a1be 1216 17be d04c 743a 456c a8bd
00000120: 04d3 593d 86dc bbbd e287 0bbe 5d42 d03d
00000130: 2d36 7e3d 9de2 d53d 4463 d0bd f581 03bd
00000140: 7fc3 24bc 7f4f 5cbd 88f7 d73d 12da d7bd
00000150: 0054 afbd 0e19 6bbd f04e 4fbd f329 583e
00000160: 36d3 0f3e 0816 083d beab 95bb 2829 0c3d
00000170: 5daa 15bd f3d1 d93c 10a4 11be 1d1b 8cbd
00000180: 9998 61bc e9e6 133e f3b9 9abd a026 dabd
00000190: d401 3c3e f49b 13bc 87fe a4bd ea91 c7bc
000001a0: 4791 f73c 549e 96bd 6249 efbd 005e 8dbd
000001b0: 812d 193d 78a0 883b a655 98bd f727 683e
000001c0: 8296 ccbb cac6 183e 14be 2bbd 7f19 3dbe
000001d0: 1997 9b3d 4ce9 0c3d d8cd f63b 9ec9 febd
000001e0: 74a8 8ebd f0a5 dbbd 78b1 333d 671f 2fbe
000001f0: c785 e13d ccac 93bd e4bb a13b 9c2b 173e
00000200: a430 613e 0605 343d 21e9 dbbd 2498 623d
00000210: e9f3 9fba 1f2f 423c 4a2b edbc 2be8 8b3d
00000220: d411 96bd 6c3f db3d dda7 a63c f2a9 563d
00000230: ab08 0dbe f569 07bd 8fd6 febc d6ff 983d
00000240: 3258 f73d c1ac cabc 57c6 7b3d 6cb4 d4bd
00000250: 2347 66be 0257 eabd 6539 88bc d6d6 9c3d
00000260: 199e 583e 3c35 c2bb a8ea bb3c dec5 f2bc
00000270: 42a1 8ebd 83fe 07bd d680 213e 7ae3 cb3c
00000280: b56b 103e 96ce 003e 2c0a 243e 29a9 833d
00000290: 8842 44bd b4d8 733d 203c 243e 1f34 10be
000002a0: ae46 03be fffa ee3d 192d 813d eccc 8bbd
000002b0: 8f46 17bd f526 c1bd fe34 b6bd 626e b93d
000002c0: 08d3 3bbe 5436 b5bd 1ba6 bcbd cd3c 233e
000002d0: 43aa 263e dbd1 c23c 977b aabd ba54 753d
000002e0: adc8 d13d edc6 a23c 7c8b eb3d 0747 4e3d
000002f0: 4b1b ddbd 4b38 c3bd c43c 7f3d a4a9 e43c
00000300: 35c6 753d cebd 89bd 3c21 a03c 1ce5 4c3e
00000310: 533e 45bd 7a1b 123e 6d65 9cbd 68ca be3b
00000320: ec08 523d 4c69 ecbd c46d a13d f352 04bd
00000330: 6a4f aab9 f761 78bd 144e 89bc c847 6f3d
00000340: 0e71 9a3d b64c a2bd 1ec3 80bc 7972 e2bd
00000350: 1041 953d ef16 9bbb 79ae bbbd ce42 863c
00000360: 5e0c 833d 12de 863e 9452 673e 4344 f13d
00000370: 1a86 19bd 342a 413e 8846 fcbd 7dac 4ebe
00000380: c9b5 d23d 4d1d 9ebd 9240 a3bd a642 0bbe
00000390: 1a3f e03c df3f 8a3d 7d9a 9d3d c258 ddbc
000003a0: b0bd f03c 6457 933d dcf6 0e3d b489 1a3e
000003b0: c10a d5ba 4095 173e 0fa7 4bbe 8a4d 0abc
000003c0: 5542 b7bd 0a54 4ebc dbbf 84bd 6a68 a0bc
000003d0: 3641 acbd bee6 87bd 393f 383e 39b2 0d3e
000003e0: 1f72 c1bb b751 a0bd dbf7 06be 558b d13d
000003f0: 4948 92bd 1a3b 14bd 768e 0cb9 efe7 503d

model.cnn_input_1.3.bias f4 [8]
0.10838152 -0.0230959 0.13423024 0.09475247 0.19233818 0.07159126 -0.048226893 -0.11273708
00000000: 21f7 dd3d 9d33 bdbc a773 093e 950d c23d
00000010: 4df4 443e 709e 923d 9089 45bd b3e2 e6bd

model.cnn_input_2.0.weight f4 [8]
0.9549603 1.0133818 1.0011177 1.0034429 0.9567798 0.99599284 1.0271437 0.91458136
00000000: 4778 743f 7fb6 813f a024 803f d170 803f
00000010: 85ef 743f 63f9 7e3f 7279 833f 0122 6a3f

model.cnn_input_2.0.bias f4 [8]
-0.001403514 -0.04354099 -0.009494078 -0.007216333 -0.050152622 0.020433698 0.06381519 0.0691187
00000000: 1df6 b7ba 0a58 32bd 0d8d 1bbc fd76 ecbb
00000010: d66c 4dbd 9264 a73c 8ab1 823d 1b8e 8d3d

model.cnn_input_2.0.running_mean f4 [8]
0.27896532 0.3919188 0.25376174 0.35792428 0.68877625 0.4379293 0.39023736 7.05866e-08
00000000: 8bd4 8e3e 95a9 c83e 0fed 813e da41 b73e
00000010: a453 303f 4538 e03e 31cd c73e 6595 9733

model.cnn_input_2.0.running_var f4 [8]
0.06911412 0.081018545 0.08982576 0.1800045 0.049123365 0.18048158 0.1635138 3.124483e-09
00000000: b48b 8d3d 0ded a53d 91f6 b73d 1a53 383e
00000010: 9535 493d 2ad0 383e 2970 273e 7cb6 5631

model.cnn_input_2.1.weight f4 [16, 8, 5]
-0.17834441 -0.029675495 0.04474681 -0.038539935 -0.07316189 -0.088977635 0.15429191 -0.010462656
-0.09201397 0.17145753 0.04545084 -0.048343956 -0.032289494 0.06860714 -0.1503848 -0.096826896
0.013826543 0.10099392 0.110109985 0.070775025 0.1063967 -0.14363413 -0.14868703 0.07074025
-0.007546639 0.11728408 0.08048308 0.07261239 -0.08754984 0.16234347 0.1427503 -0.06394923
0.02909322 0.10665115 -0.06996353 0.046122007 0.0082084555 0.07125243 -0.08511922 -0.10418348
0.09240373 0.095002905 0.086344555 0.019673636 0.11218668 -0.11864362 0.08024884 -0.07547678
0.16160713 -0.06452052 -0.10707964 -0.06043509 0.013985316 0.15370946 0.00047130423 0.052693553
-0.11345987 0.10145908 0.045896873 -0.025974438 -0.017984593 0.08969912 0.1651755 0.13516298
0.14001355 0.09380727 -0.045164578 0.053562596 0.15487601 0.17476484 0.100485496 -0.03527048
-0.1138845 -0.14005181 -0.089855686 0.1285663 0.027535774 0.052743755 -0.030023733 -0.13204445
-0.04889958 -0.08940407 0.1662962 -0.06518378 -0.047184758 -0.084584005 -0.11459917 -0.06693149
0.065877214 0.0026711472 -0.14699815 0.03144499 0.10780568 -0.025418242 0.06796621 -0.13104886
-0.10031774 -0.034116827 -0.02065657 -0.057268642 0.05418406 0.032548983 -0.099895805 -0.08038792
-0.006949208 -0.13649122 -0.14669281 0.12669632 0.1410192 -0.10052599 0.117308244 -0.09516687
0.19196518 0.104867294 0.02020867 0.08223438 0.0031354523 0.12404688 0.119012944 0.026483733
-0.09078166 0.028184565 0.036264304 0.12219132 0.11987991 0.072111115 0.20500611 0.20120552
0.01177824 0.11097329 -0.074268535 0.16363354 -0.055568356 0.069411226 0.078743935 -0.08586774
0.078094564 0.14951429 -0.15101144 0.084097214 -0.11392657 -0.08617583 -0.022185516 0.021720031
0.12746596 -0.06562812 0.1770057 -0.048329305 -0.0072443774 -0.06391195 0.05696622 -0.08245127
-0.10464291 0.041683428 -0.003635331 -0.059141602 0.035685 -0.058279306 -0.19328894 0.06712231
-0.07911357 -0.11397539 -0.1595574 -0.045181446 0.13470592 -0.115289666 0.122262 0.09199413
0.01338144 0.023090573 0.15559965 -0.039635655 0.11089547 -0.08912749 -0.12689877 0.18549477
-0.07658129 0.09949599 0.09619961 -0.09826598 0.09850621 -0.024978366 0.06684632 -0.17001247
-0.16567405 -0.019657766 -0.12941822 -0.13884166 0.089013204 0.016065255 0.009528431 -0.006981363
-0.10693776 0.032368988 0.034572754 0.059070542 0.091022395 -0.11358665 -0.00819539 0.006582644
-0.15227222 -0.11261835 0.045591176 -0.08543288 -0.13171291 0.068355575 -0.047163855 -0.12177219
0.114097476 -0.038513526 0.06758328 -0.08180585 0.1512916 -0.054562233 0.045669574 0.086212344
-0.008015486 0.16074356 -0.057603713 0.026423974 -0.12473135 -0.062044974 -0.08394707 0.15429029
-0.1761605 -0.05231864 0.07262519 -0.14468594 -0.042132244 -0.02709483 0.08554844 -0.0028648125
0.040720057 0.066801004 0.10855665 0.0040619364 -0.17499556 0.054989636 -0.05194053 0.1266816
0.17535351 -0.039366465 0.10915196 -0.11478105 -0.08247344 -0.09567183 -0.12316851 -0.049936563
-0.105974175 0.06177157 0.13473785 0.056317057 -0.06448598 0.09033789 0.070596725 -0.061935518
00000000: eb9f 36be 061a f3bc 6e48 373d 0ddc 1dbd
00000010: e7d5 95bd e839 b6bd b3fe 1d3e 8f6b 2bbc
00000020: d271 bcbd 9092 2f3e a92a 3a3d 5004 46bd
00000030: fd41 04bd e681 8c3d 79fe 19be 2e4d c6bd
00000040: ba88 623c e6d5 ce3d 5881 e13d 7ff2 903d
00000050: 83e6 d93d d314 13be 6a41 18be 44e0 903d
00000060: cc49 f7bb a332 f03d 50d4 a43d ceb5 943d
00000070: 554d b3bd 5e3d 263e 222d 123e d0f7 82bd
00000080: e854 ee3c eb6b da3d 0a49 8fbd 6eea 3c3d
00000090: c27c 063c cbec 913d fc52 aebd 265e d5bd
000000a0: 2b3e bd3d e290 c23d 6ad5 b03d 9b2a a13c
000000b0: 21c2 e53d 6dfb f2bd 8159 a43d 9293 9abd
000000c0: 577c 253e 5623 84bd 924c dbbd c98a 77bd
000000d0: ab22 653c 0366 1d3e 6219 f739 32d5 573d
000000e0: a65d e8bd c7c9 cf3d 5cfe 3b3d 58c8 d4bc
000000f0: 6d54 93bc 2cb4 b73d c423 293e 2a68 0a3e
00000100: b65f 0f3e 071e c03d 7efe 38bd 7464 5b3d
00000110: d197 1e3e 8ef5 323e 57cb cd3d c777 10bd
00000120: 473c e9bd be69 0fbe 4206 b8bd e2a6 033e
00000130: b492 e13c d609 583d 55f4 f5bc a936 07be
00000140: ed4a 48bd 7b19 b7bd 8d49 2a3e 137f 85bd
00000150: ce44 41bd 613a adbd f8b2 eabd 6113 89bd
00000160: a2ea 863d 6a0e 2f3b af86 16be 76cc 003d
00000170: 39c9 dc3d eb39 d0bc de31 8b3d ac31 06be
00000180: 6373 cdbd 16be 0bbd f837 a9bc 8692 6abd
00000190: 1bf0 5d3d 1552 053d 2c96 ccbd 6ca2 a4bd
000001a0: 2fb6 e3bb 5bc4 0bbe a436 16be aebc 013e
000001b0: 5667 103e 92e0 cdbd 4e3f f03d d9e6 c2bd
000001c0: 8592 443e aac4 d63d a78c a53c 806a a83d
000001d0: 297c 4d3b 4a0c fe3d 0fbd f33d 6af4 d83c
000001e0: bceb b9bd 51e3 e63c e189 143d 713f fa3d
000001f0: 9983 f53d feae 933d 1fed 513e d208 4e3e
00000200: 85f9 403c f745 e33d 1a1a 98bd 8d8f 273e
00000210: a59b 63bd 7927 8e3d 8044 a13d 6ddb afbd
00000220: 0bf0 9f3d 461a 193e bea2 1abe 293b ac3d
00000230: 5552 e9bd f47c b0bd 66be b5bc 35ee b13c
00000240: 7086 023e 0968 86bd fb40 353e f3f4 45bd
00000250: 3e62 edbb 45e4 82bd 6955 693d 36dc a8bd
00000260: 064f d6bd 3ebc 2a3d bc3e 6ebb 773e 72bd
00000270: 6f2a 123d 48b6 6ebd 89ed 45be 6c77 893d
00000280: 4c06 a2bd ee6b e9bd 0463 23be 2e10 39bd
00000290: 59f0 093e fd1c ecbd 8064 fa3d 6b67 bc3d
000002a0: d43d 5b3c 7128 bd3c 8455 1f3e ff58 22bd
000002b0: 2a1d e33d 7988 b6bd c0f1 01be 57f2 3d3e
000002c0: a7d6 9cbd 8ec4 cb3d 4d04 c53d ad3f c9bd
000002d0: a0bd c93d 6e9f ccbc b9e6 883d c017 2ebe
000002e0: 75a6 29be 5309 a1bc 3686 04be 822c 0ebe
000002f0: 8e4c b63d 489b 833c 231d 1c3c ebc3 e4bb
00000300: 2f02 dbbd 5895 043d 299c 0d3d f4f3 713d
00000310: f369 ba3d 1ea0 e8bd f545 06bc 38b3 d73b
00000320: 40ed 1bbe 73a4 e6bd d0bd 3a3d 6ff7 aebd
00000330: c0df 06be 02fe 8b3d e32e 41bd b363 f9bd
00000340: f0ab e93d 5cc0 1dbd 1a69 8a3d d389 a7bd
00000350: 2fec 1a3e a67c 5fbd 0510 3b3d 1990 b03d
00000360: 6353 03bc f699 243e dff1 6bbd 1777 d83c
00000370: 2673 ffbd df22 7ebd 71ec abbd 46fe 1d3e
00000380: 6b63 34be 124c 56bd 84bc 943d 8d28 14be
00000390: dc92 2cbd faf5 ddbc 0534 af3d 94bf 3bbb
000003a0: 13ca 263d f7ce 883d f352 de3d fe19 853b
000003b0: 0932 33be d03c 613d 98bf 54bd d2b8 013e
000003c0: df8f 333e bb3e 21bd 108b df3d 5412 ebbd
000003d0: d6e7 a8bd 98ef c3bd c63f fcbd 488a 4cbd
000003e0: fd08 d9bd 3004 7d3d b8f8 093e b7ac 663d
000003f0: 3a11 84bd 1203 b93d 0495 903d 19b0 7dbd

model.cnn_input_2.1.bias f4 [16]
0.063195564 0.12845977 0.045763496 -0.13718803 -0.1880386 0.10527223 -0.0032610653 0.08299154
-0.044747386 0.04495298 -0.10947155 -0.091093466 0.026255088 0.14946178 -0.16447686 0.131859
00000000: ad6c 813d f58a 033e 8172 3b3d 057b 0cbe
00000010: 318d 40be f898 d73d 99b7 55bb 78f7 a93d
00000020: 0949 37bd 9e20 383d 9f32 e0bd 368f babd
00000030: e914 d73c 820c 193e 9f6c 28be 0c06 073e

model.cnn_input_2.3.weight f4 [16, 16, 5]
-0.03832861 0.0045447266 -0.15533566 0.05039953 0.13648377 0.030899918 0.11866254 -0.11895621
0.005887253 0.0029631713 0.10669871 0.0945825 0.09321727 -0.024791218 0.020888181 0.047756977
0.035583314 -0.1100484 0.07098936 0.02046647 0.058758453 0.069776826 0.10646866 -0.022281304
0.07015327 0.061672367 -0.037012327 -0.06554387 0.08678817 0.0028174378 -0.008555003 -0.0005308778
0.038550835 0.06043269 -0.10022409 0.01515966 -0.0063112197 0.056995995 0.13956735 0.12829396
0.07273399 0.0064648865 0.08497352 0.0737797 0.09790005 0.012804043 -0.05573864 -0.047469165
-0.052045673 0.11790718 0.003805224 -0.11494066 0.017431516 0.028397366 0.026384044 -0.04122191
-0.07975977 -0.022268506 0.006335259 -0.07157872 0.07418053 0.09465913 -0.123829015 -0.02664674
0.015066491 0.089889325 0.016136 -0.048437607 -0.049900044 0.082379684 -0.009116909 -0.030404722
0.10801893 -0.074975416 -0.022615533 0.10954113 0.050167676 0.10765344 0.0613937 0.06876475
0.07737235 0.16258359 -0.059827287 0.08954666 0.06456612 0.051010456 -0.043965075 0.01083399
-0.017960448 0.023582125 -0.14519277 -0.10276053 -0.09495099 0.057493046 -0.020150835 -0.0001823113
0.12565851 0.073513016 0.07352406 0.046081148 0.0634039 0.013064791 -0.011598678 -0.042688716
0.0007413053 0.027426573 0.076139964 0.034570083 -0.17111602 0.0397648 -0.015444051 0.0713395
0.035281178 0.103022985 -0.091178484 -0.018284911 -0.010310209 -0.0016210077 0.0148591595 -0.05155421
0.17934205 0.05314215 -0.019357685 -0.11440305 -0.018673442 0.020769075 -0.012698831 -0.018534994
0.10173562 0.054402605 0.13170433 0.05127002 -0.04965163 0.047935124 -0.040023413 0.010060522
0.10531237 0.023766082 -0.0043004355 0.06660357 0.04471396 -0.05437826 -0.071500145 0.06316845
0.07884595 -0.083021425 0.16349143 0.08050263 0.056727123 -0.06770039 -0.08012939 -0.12927878
0.13957588 -0.051468242 0.07088566 0.11108481 0.05648995 0.11118368 0.0104325265 0.11321464
0.025696205 0.031891678 0.07742133 0.076744005 -0.06576916 0.004762119 -0.10404368 -0.037518233
-0.06394368 0.10589538 -0.05942942 -0.07584347 -0.0018130398 0.012952754 -0.105732605 -0.1303922
-0.043716185 -0.026325408 0.1621941 0.076103106 -0.044769023 0.08175715 -0.004924654 -0.016504796
0.10256597 -0.07993191 -0.080946416 0.101275764 -0.06932265 -0.093559824 0.014410519 0.010774847
-0.026805576 0.00393316 -0.0073887524 -0.009280106 -0.007556646 0.08044745 -0.04945842 0.011101411
-0.007918763 0.15921414 0.15772815 -0.062030435 0.06244867 -0.07025648 0.08167739 0.023745598
0.098738395 0.04736904 -0.00728486 0.12489333 -0.011703906 -0.10388444 -0.10013634 -0.1326367
0.046525054 0.10679411 -0.010006839 -0.09981683 -0.07477266 0.13843115 0.024566857 0.09381324
0.004636367 -0.042704098 -0.08902353 -0.060329083 -0.014673936 -0.022179125 -0.053071953 0.050648525
0.05517074 -0.048184127 -0.0193772 -0.08395176 -0.05048955 -0.059225135 -0.017325254 0.093672164
-0.12942034 -0.017144244 0.10255731 -0.066635445 0.06048515 -0.07682184 -0.07682003 -0.09560566
-0.017768458 0.037359923 -0.021775026 -0.08125111 0.096818134 0.012562499 -0.038820494 -0.025520405
00000000: 76fe 1cbd eeeb 943b 5010 1fbe bd6f 4e3d
00000010: 67c2 0b3e d321 fd3c 5905 f33d 509f f3bd
00000020: dce9 c03b c431 423b da84 da3d 78b4 c13d
00000030: b2e8 be3d f416 cbbc b11d ab3c d29c 433d
00000040: cfbf 113d 0e61 e1bd df62 913d 4ca9 a73c
00000050: b4ac 703d 27e7 8e3d 3e0c da3d 4887 b6bc
00000060: 85ac 8f3d 2a9c 7c3d 3d9a 17bd dd3b 86bd
00000070: ffbd b13d c3a4 383b 492a 0cbc 9b2a 0bba
00000080: 7be7 1d3d 4588 773d 4a42 cdbd 3960 783c
00000090: 59ce cebb a274 693d beea 0e3e 7e5f 033e
000000a0: 8ff5 943d 66d7 d33b 9906 ae3d d019 973d
000000b0: d27f c83d 0cc8 513c 334e 64bd 076f 42bd
000000c0: d82d 55bd 5279 f13d 1161 793b 0266 ebbd
000000d0: 8acc 8e3c 98a1 e83c 5a23 d83c 4ed8 28bd
000000e0: 1759 a3bd 716c b6bc 0198 cf3b dd97 92bd
000000f0: f6eb 973d a5dc c13d 119a fdbd 444a dabc
00000100: 72d9 763c e517 b83d a52f 843c 8366 46bd
00000110: fd63 4cbd aeb6 a83d 165f 15bc 5313 f9bc
00000120: 0739 dd3d b68c 99bd 3644 b9bc 1a57 e03d
00000130: 9f7c 4d3d 6879 dc3d f677 7b3d 89d4 8c3d
00000140: 6575 9e3d 507c 263e 750d 75bd 3d64 b73d
00000150: 3e3b 843d 57f0 503d b914 34bd 0c81 313c
00000160: ca21 93bc 4d2f c13c 6aad 14be 1d74 d2bd
00000170: aa75 c2bd d47d 6b3d 5d13 a5bc d12a 3fb9
00000180: a0ac 003e fe8d 963d c893 963d 96bf 3c3d
00000190: e7d9 813d b50d 563c 6208 3ebc 5dda 2ebd
000001a0: 2854 423a b1ad e03c 45ef 9b3d 5c99 0d3d
000001b0: 0a39 2fbe 6ae0 223d 0b09 7dbc 721a 923d
000001c0: ff82 103d b7fd d23d c9bb babd 3dca 95bc
000001d0: 27ec 28bc fe77 d4ba d573 733c 822a 53bd
000001e0: 71a5 373e 95ab 593d 0294 9ebc 254c eabd
000001f0: 0cf9 98bc e823 aa3c c20e 50bc b3d6 97bc
00000200: c45a d03d 44d5 5e3d 80dd 063e 8300 523d
00000210: 825f 4bbd 9f57 443d 97ef 23bd e3d4 243c
00000220: 03ae d73d 16b1 c23c abea 8cbb 7467 883d
00000230: fc25 373d bdbb 5ebd ab6e 92bd 765e 813d
00000240: fc79 a13d 2307 aabd 4c6a 273e 90de a43d
00000250: b35a 683d 81a6 8abd e11a a4bd a861 04be
00000260: fbec 0e3e 5dd0 52bd 802c 913d 6f80 e33d
00000270: 0162 673d 45b4 e33d 30ed 2a3c 14dd e73d
00000280: d980 d23c d9a0 023d 138f 9e3d f62b 9d3d
00000290: fbb1 86bd 8d0b 9c3b da14 d5bd b8ac 19bd
000002a0: e7f4 82bd addf d83d 436c 73bd d253 9bbd
000002b0: 85a3 edba ca37 543c 568a d8bd 8885 05be
000002c0: be0f 33bd 62a8 d7bc 3616 263e f2db 9b3d
000002d0: b95f 37bd 4b70 a73d fe5e a1bb 1135 87bc
000002e0: 1b0e d23d 57b3 a3bd 3cc7 a5bd ab69 cf3d
000002f0: 09f9 8dbd 4b9c bfbd 191a 6c3c fc88 303c
00000300: 5e97 dbbc bde1 803b 591d f2bb 960b 18bc
00000310: be9d f7bb a2c1 a43d ea94 4abd b1e2 353c
00000320: b3bd 01bc 0809 233e 7d83 213e a013 7ebd
00000330: 2dca 7f3d a1e2 8fbd 7a46 a73d 2186 c23c
00000340: 5b37 ca3d 0a06 423d d6b5 eebb 13c8 ff3d
00000350: bdc1 3fbc 5ec1 d4bd 4814 cdbd ead1 07be
00000360: 0e91 3e3d dfb6 da3d baf3 23bc c46c ccbd
00000370: 6922 99bd e5c0 0d3e 6f40 c93c 2821 c03d
00000380: aaec 973b 7eea 2ebd f851 b6bd a11b 77bd
00000390: f36a 70bc ffb0 b5bc fa61 59bd d474 4f3d
000003a0: b7fa 613d b85c 45bd efbc 9ebc e6ee abbd
000003b0: 21ce 4ebd 0e96 72bd b1ed 8dbc 31d7 bf3d
000003c0: c486 04be 1672 8cbc 9109 d23d 2a78 88bd
000003d0: 47bf 773d c554 9dbd d253 9dbd e6cc c3bd
000003e0: 288f 91bc b806 193d 8a61 b2bc fb66 a6bd
000003f0: 9648 c63d f1d2 4d3c 3d02 1fbd 2b10 d1bc

model.cnn_input_2.3.bias f4 [16]
0.13983555 0.10995712 -0.07296066 -0.082027026 0.11983603 -0.044144645 -0.08322477 -0.006785339
0.03396472 -0.03279522 0.14695053 -0.100881025 -0.0052836672 0.006271555 0.0070271115 -0.020376451
00000000: 0d31 0f3e 3331 e13d 666c 95bd c9fd a7bd
00000010: 986c f53d 04d1 34bd c071 aabd 8d57 debb
00000020: 971e 0b3d 4854 06bd 337a 163e b69a cebd
00000030: 9d22 adbb 9e81 cd3b af43 e63b 84ec a6bc

model.cnn_input_3.0.weight f4 [16]
1.0129584 0.9886061 1.006921 1.0157083 1.0195228 1.0208217 1.0226333 0.95628023
1.0175002 0.9351801 1.032416 1.0076982 1.01284 0.9922221 1.0304449 0.941122
00000000: 9fa8 813f 4a15 7d3f cae2 803f bb02 823f
00000010: b97f 823f 49aa 823f a6e5 823f c8ce 743f
00000020: 723d 823f f767 6f3f 3526 843f 41fc 803f
00000030: bea4 813f 4402 7e3f 9ee5 833f 5fed 703f

model.cnn_input_3.0.bias f4 [16]
0.01547639 -0.031788196 -0.011076784 -0.03761442 0.0035755127 0.008905473 0.005125167 0.03732676
-0.020802476 -0.03700242 -0.0515903 -0.02670581 -0.02599659 -0.0068346355 -0.04943215 0.014530392
00000000: af90 7d3c 5734 02bd 667b 35bc 9411 1abd
00000010: 2653 6a3b 43e8 113c 04f1 a73b f2e3 183d
00000020: f469 aabc d98f 17bd 5a50 53bd 25c6 dabc
00000030: cdf6 d4bc 14f5 dfbb 5e79 4abd e210 6e3c

model.cnn_input_3.0.running_mean f4 [16]
0.68358165 0.7259333 0.11197088 0.17741413 0.2680207 0.05846699 0.26777095 0.036572825
0.19431208 0.12306198 0.30009905 0.07224306 0.027247004 0.52708006 0.4002099 0.17046033
00000000: 35ff 2e3f c4d6 393f fd50 e53d 0dac 353e
00000010: 023a 893e 157b 6f3d 4619 893e 63cd 153d
00000020: bff9 463e eb07 fc3d 95a6 993e 2bf4 933d
00000030: 1c35 df3c b8ee 063f 50e8 cc3e 278d 2e3e

model.cnn_input_3.0.running_var f4 [16]
0.038541023 0.15865578 0.029307382 0.04989388 0.052191872 0.017395355 0.05682637 0.007289927
0.020061737 0.03929223 0.081120424 0.02061106 0.0039803386 0.15375057 0.10144624 0.016519887
00000000: 31dd 1d3d a976 223e 0916 f03c 865d 4c3d
00000010: 25c7 553d b480 8e3c c5c2 683d 57e0 ee3b
00000020: 8358 a43c e4f0 203d 7722 a63d 87d8 a83c
00000030: 806d 823b ca70 1d3e 0cc3 cf3d b754 873c

model.cnn_input_3.1.weight f4 [32, 16, 5]
-0.06221314 -0.09833867 0.07951878 -0.038589172 0.01860814 -0.12318504 -0.07517108 -0.008961288
-0.107692696 0.022201076 -0.03154792 0.059348825 0.051722582 -0.075055294 0.10429383 -0.08247158
-0.040927786 0.11697629 -0.03735521 -0.02959739 0.083358675 0.05114224 0.08665256 0.06226758
0.054086573 -0.1610583 -0.07768923 -0.053789195 -0.108635575 -0.08834124 -0.109974906 0.017557548
0.026798777 -0.07126964 0.021202499 0.06973329 -0.034578063 0.008423589 -0.08744786 0.029657232
0.014486455 0.027586274 0.09550169 -0.065472975 -0.08987541 -0.056991 0.08811179 0.03164818
0.07475191 -0.038134582 -0.11910443 0.032897316 0.001682592 0.10171029 0.017732127 0.06401508
0.05311447 0.004618207 0.026755914 -0.07792492 -0.053018633 -0.054304574 0.013383631 0.10040596
0.024411181 0.0020112933 -0.03196985 0.031118803 0.046719745 0.008753531 -0.05258405 -0.042161584
-0.12641774 -0.031840406 0.14055876 -0.044396866 0.101880945 0.09715103 0.08500059 -0.021267122
-0.06427757 0.07306719 0.07925882 -0.07337878 -0.031333357 0.020342177 0.0960082 0.101027474
0.118607625 0.03139609 -0.056166567 0.016031835 0.002504364 0.020828176 -0.009852377 0.061204012
0.03195174 -0.08132595 0.11941945 -0.035081282 0.01265864 -0.093030855 -0.11900591 0.023749568
-0.052177723 0.049447365 -0.047841974 0.031342138 -0.06747955 0.16561306 -0.08306802 -0.019283142
0.027728295 0.0977873 0.12535086 -0.07226529 0.04624179 -0.081672914 0.09424947 0.11144703
0.0124976495 -0.06682713 -0.023874555 0.021873426 -0.09331759 0.05432158 0.040381804 0.061245624
0.08987058 0.07075787 -0.010386258 0.13624392 -0.005879116 -0.015169905 0.04457971 0.06362392
-0.04492583 0.060539324 0.01786664 0.041212633 0.084298745 0.044399727 -0.04307988 -0.08512662
0.019125039 0.040223368 0.044524744 -0.05704075 0.01305639 -0.10559221 0.071496725 0.03875133
-0.041446567 0.07308608 -0.030400425 -0.07739027 0.0756621 -0.043393917 0.010954667 -0.14740203
0.040865406 -0.034209434 -0.15791754 -0.08298923 -0.023637114 0.07218301 0.07291681 -0.04238621
0.1179196 0.05522877 0.048965704 -0.00058652036 -0.06991307 0.116435826 0.06288668 0.09830708
0.05281094 -0.026490128 0.102985986 0.039477233 -0.025802435 0.08953805 -0.057549696 -0.0128935445
-0.05277598 -0.013338677 0.03156303 -0.004233673 0.11921225 0.0560756 0.062404875 0.08227421
0.016133312 0.078773506 0.043341093 -0.06383115 0.018236762 -0.0005802808 -0.028167887 0.01674844
-0.07700435 0.06358549 0.091271974 0.094433285 0.110746115 0.08502086 0.07255319 -0.012562815
0.12584737 -0.012333186 -0.120117866 0.107902594 0.07293711 -0.054386962 0.008232257 0.07451879
0.001151648 -0.0134775685 0.05481115 -0.040902685 -0.06512608 -0.008415289 0.041076146 -0.10806898
0.092610344 0.05999543 0.011232684 -0.07626959 -0.03766315 -0.03176403 0.086833425 -0.0120751085
0.16360651 0.122882694 0.112593286 0.00023334235 0.022690918 -0.018983208 -0.017336017 0.038042802
0.048855957 -0.022933088 -0.028769 -0.1168357 -0.05523064 -0.074268974 -0.09934425 0.009437475
-0.0073831496 0.007172734 -0.0471296 0.07674994 0.13163477 -0.020473061 -0.017226981 0.052701592
00000000: 35d3 7ebd c965 c9bd beda a23d ae0f 1ebd
00000010: 1970 983c 7048 fcbd 4cf3 99bd 5ed2 12bc
00000020: fd8d dcbd 08df b53c 6438 01bd c117 733d
00000030: 0fdb 533d 97b6 99bd 0198 d53d dce6 a8bd
00000040: e5a3 27bd 4491 ef3d c701 19bd 3a76 f2bc
00000050: f4b7 aa3d 877a 513d e676 b13d 4a0c 7f3d
00000060: e289 5d3d 78ec 24be 881b 9fbd 0f52 5cbd
00000070: 547c debd 41ec b4bd 863a e1bd d9d4 8f3c
00000080: 1c89 db3c d1f5 91bd ddb0 ad3c 54d0 8e3d
00000090: baa1 0dbd 1803 0a3c dd17 b3bd b9f3 f23c
000000a0: 9958 6d3c 9cfc e13c 6496 c33d b216 86bd
000000b0: 9910 b8bd 656f 69bd f473 b43d 86a1 013d
000000c0: 8817 993d 0233 1cbd 06ed f3bd 56bf 063d
000000d0: 6b8a dc3a 7c4d d03d f742 913c 571a 833d
000000e0: 8f8e 593d 5454 973b 382f db3c 1a97 9fbd
000000f0: 112a 59bd 796e 5ebd 0447 5b3c a4a1 cd3d
00000100: f5f9 c73c e7cf 033b d1f2 02bd dcec fe3c
00000110: 345d 3f3d f86a 0f3c 5f62 57bd a0b1 2cbd
00000120: a773 01be 166b 02bd a3ee 0f3e 7dd9 35bd
00000130: f5a6 d03d 1ff7 c63d ca14 ae3d 6338 aebc
00000140: f5a3 83bd 40a4 953d 7352 a23d 9d47 96bd
00000150: 6857 00bd a3a4 a63c f29f c43d 7ee7 ce3d
00000160: 8ee8 f23d 3099 003d ea0e 66bd 3255 833c
00000170: 4120 243b da9f aa3c dd6b 21bc 0fb1 7a3d
00000180: d4df 023d 388e a6bd 2f92 f43d 64b1 0fbd
00000190: 2f66 4f3c f686 bebd 5fb9 f3bd 748e c23c
000001a0: 4fb8 55bd 5289 4a3d f2f5 43bd 9d60 003d
000001b0: b832 8abd 7896 293e 911f aabd aef7 9dbc
000001c0: 7326 e33c b544 c83d fa5b 003e d3ff 93bd
000001d0: 0868 3d3d 2144 a7bd de05 c13d 573e e43d
000001e0: f1c2 4c3c aadc 88bd 9294 c3bc e62f b33c
000001f0: 4b1d bfbd 4e80 5e3d 6467 253d b1dc 7a3d
00000200: 110e b83d 81e9 903d 202b 2abc 8783 0b3e
00000210: 99a5 c0bb 318b 78bc 3799 363d 424d 823d
00000220: 2604 38bd 15f8 773d 0f5d 923c 94ce 283d
00000230: d2a4 ac3d 7ddc 353d 8774 30bd de56 aebd
00000240: 1dac 9c3c 42c1 243d 945f 363d 90a3 69bd
00000250: 78ea 553c bb40 d8bd e06c 923d b7b9 1e3d
00000260: e0c3 29bd 28ae 953d 500a f9bc ca7e 9ebd
00000270: bbf4 9a3d d2bd 31bd 347b 333c 8ff0 16be
00000280: 7c62 273d 311f 0cbd 23b5 21be 42f6 a9bd
00000290: 9fa2 c1bc b0d4 933d 6955 953d 2a9d 2dbd
000002a0: d57f f13d 9037 623d 4390 483d b7c0 19ba
000002b0: 952e 8fbd e875 ee3d bbca 803d 3955 c93d
000002c0: 4950 583d d301 d9bc 51ea d23d e1b2 213d
000002d0: a15f d3bc ba5f b73d 3bb9 6bbd 723f 53bc
000002e0: a02b 58bd 778a 5abc 3c48 013d a0ba 8abb
000002f0: 8d25 f43d 87af 653d 419c 7f3d 627f a83d
00000300: 022a 843c 0154 a13d 6e86 313d e8b9 82bd
00000310: 4365 953c fc1d 18ba 57c0 e6bc 0634 893c
00000320: 75b4 9dbd 1c39 823d cdec ba3d 3d66 c13d
00000330: dcce e23d 6b1f ae3d c496 943d 44d4 4dbc
00000340: 22de 003e 2211 4abc 5b00 f6bd 09fc dc3d
00000350: 0d60 953d ddc4 5ebd 97e0 063c 4f9d 983d
00000360: e5f2 963a 05d1 5cbc a881 603d 9389 27bd
00000370: d260 85bd 48e0 09bc 763f 283d 4553 ddbd
00000380: 7eaa bd3d c5bd 753d 4b09 383c 3b33 9cbd
00000390: ad44 1abd 001b 02bd b9d5 b13d add6 45bc
000003a0: 7788 273e eca9 fb3d 4f97 e63d 5cad 7439
000003b0: 4ee2 b93c ac82 9bbc 4304 8ebc c5d2 1b3d
000003c0: 2f1d 483d 2cde bbbc f7ac ebbc 8e47 efbd
000003d0: 8639 62bd 551a 98bd 0075 cbbd a49f 1a3c
000003e0: 59ee f1bb 4109 eb3b f80a 41bd 132f 9d3d
000003f0: 44cb 063e 1fb7 a7bc 991f 8dbc a0dd 573d

model.cnn_input_3.1.bias f4 [32]
0.03881128 0.013955012 -0.06718123 -0.08343845 0.062827274 -0.025273357 -0.038027067 -0.0113090705
0.031680796 -0.10724523 0.05391363 0.033788566 -0.07623574 0.11559671 0.041888658 0.065000385
0.013654058 0.0835151 -0.011764542 -0.070691474 0.027897695 0.059116174 0.0018637048 0.120614894
-0.05288278 -0.04376852 0.064607464 -0.06761863 -0.014961179 0.10108231 -0.04238386 -0.010393633
00000000: 94f8 1e3d 90a3 643c 5096 89bd c7e1 aabd
00000010: 96ab 803d 120a cfbc 45c2 1bbd ae49 39bc
00000020: b9c3 013d 63a3 dbbd 8ad4 5c3d e165 0a3d
00000030: 7c21 9cbd f8bd ec3d 7193 2b3d ec1e 853d
00000040: 45b5 5f3c f709 ab3d 11c0 40bc b1c6 90bd
00000050: b589 e43c cd23 723d 8e47 f43a f104 f73d
00000060: 9d9b 58bd 9f46 33bd eb50 843d a37b 8abd
00000070: bc1f 75bc 3e04 cf3d b39a 2dbd 0e4a 2abc

model.cnn_input_3.3.weight f4 [32, 32, 5]
-0.041231737 0.009247538 0.04931587 0.056322645 0.004193948 -0.03773692 -0.050216183 -0.06494673
0.03148706 0.036389142 0.023330104 0.012710128 -0.023648225 -0.07844014 -0.042624578 0.040008005
-0.07137015 0.04306266 0.09198122 0.09247309 0.076486915 -0.030720517 0.093697466 0.108643
-0.015269489 0.07294603 -0.011245083 0.05136924 -0.05309501 -0.031571534 -0.039821416 -0.08524257
0.059510678 -0.06124353 0.07638796 0.058693863 0.036884937 0.067448944 0.054342706 -0.005820359
0.04461546 0.014869608 0.07173848 0.10130438 0.011893001 -0.0594127 -0.06905152 -0.04249792
-0.030406468 -0.053077247 -0.0128202215 -0.09877589 -0.017874772 -0.11169786 -0.05636656 -0.033478107
-0.04641667 -0.044986207 0.0009958972 -0.077853344 -0.084581465 -0.06974393 -0.067916505 -0.02677386
0.037344515 0.06619256 -0.045674857 0.008508419 -0.07107315 -0.03899854 -0.044566143 0.06525269
0.047053814 -0.0100628855 -0.030831771 0.052332416 -0.078703836 0.02847731 -0.022159971 0.0013329509
0.018827055 -0.006751435 -0.0050687445 -0.010819733 0.06015308 -0.02600838 -0.0618405 0.0052011637
0.093559965 -0.02338931 -0.043192025 -0.04211556 0.099867254 0.062225375 0.01406087 -0.0654618
-0.06428912 -0.017755505 0.06450762 0.08832069 -0.08072941 0.038753923 -0.09761436 -0.037551563
0.112422995 -0.017067853 -0.052489538 -0.04561224 0.0177567 0.06458413 0.041762337 -0.049969096
-0.049953472 0.03818734 0.036156036 -0.023686942 -0.020968057 0.08775156 -0.018649206 0.010069703
0.0011381563 -0.09380315 -0.0056162174 0.031645034 0.041209925 -0.03580746 -0.026784644 -0.05632082
-0.016026393 0.06833488 -0.076852836 0.03850178 -0.09346234 -0.03601814 0.052337896 0.037509702
0.024973089 -0.06004587 -0.056778867 0.0067910827 -0.085083954 0.05707571 0.031518172 -0.059040893
-0.053948577 0.08666824 0.054809235 -0.040383853 -0.036097094 0.07141725 0.022760754 0.045996983
0.011186377 -0.02735331 -0.004078376 0.029186849 -0.09088753 -0.09720135 0.054663353 -0.07215746
0.020759586 0.039170094 0.095196426 0.009268547 -0.0730921 -0.07868328 -0.057521515 0.04469737
-0.079496235 -0.053919617 -0.010243397 -0.047160424 -0.013992387 -0.05342875 0.012540983 0.014869843
0.011854312 -0.023185888 0.07409362 0.008275814 -0.02442866 0.060874242 0.07644953 0.05394682
-0.06568776 0.01918522 0.0016701597 0.081214905 -0.047300965 0.03734855 0.04909805 0.098940514
0.06989173 -0.080239184 0.0022320333 -0.02608868 -0.070523866 -0.0032311229 -0.047411293 0.04965078
-0.09170163 0.07713145 -0.04862196 -0.089276075 0.07065303 -0.059553314 0.07179128 -0.04831363
0.06856863 0.06968666 -0.08283797 -0.01538697 -0.02435976 -0.08379741 -0.005955042 -0.07393548
0.02903272 -0.087208875 0.0112726465 -0.023308177 0.022253936 -0.07098593 0.012998888 0.018028453
-0.013935819 0.07355833 0.094516724 0.08758796 0.06053643 0.06492266 -0.046826582 0.038723305
0.0031258864 -0.07560134 -0.009893398 -0.07071751 0.02766825 0.041203126 -0.014510204 -0.014295829
-0.02319659 -0.008329997 0.035225537 -0.054226335 -0.10297223 -0.010217251 -0.025911981 0.07100221
0.036691334 -0.029032547 -0.08256915 -0.008810249 -0.03382678 0.009219877 -0.045366555 -0.022828626
00000000: 9ce2 28bd fc82 173c 70ff 493d 93b2 663d
00000010: 636d 893b 0792 1abd 7caf 4dbd cb02 85bd
00000020: 93f8 003d c80c 153d c61e bf3c 243e 503c
00000030: ecb9 c1bc 39a5 a0bd 1c97 2ebd 6fdf 233d
00000040: 832a 92bd 7962 303d a660 bc3d 8862 bd3d
00000050: 2ca5 9c3d 98a9 fbbc 75e4 bf3d 3980 de3d
00000060: e12c 7abc ba64 953d 4c3d 38bc 8d68 523d
00000070: 277a 59bd 2751 01bd c81b 23bd a893 aebd
00000080: 78c1 733d 7fda 7abd 4a71 9c3d fa68 703d
00000090: a914 173d ac22 8a3d 7596 5e3d b6b8 bebb
000000a0: b3be 363d a89f 733c a0eb 923d ac78 cf3d
000000b0: ddda 423c bb5a 73bd e26a 8dbd 4d12 2ebd
000000c0: fc16 f9bc 8767 59bd e80b 52bc 044b cabd
000000d0: 1d6e 92bc d9c1 e4bd 9fe0 66bd 5720 09bd
000000e0: 681f 3ebd 7543 38bd c488 823a 9371 9fbd
000000f0: 0c39 adbd e8d5 8ebd cf17 8bbd db54 dbbc
00000100: 90f6 183d f78f 873d 8f15 3bbd e566 0b3c
00000110: cd8e 91bd efbc 1fbd fd8a 36bd 34a3 853d
00000120: 80bb 403d cdde 24bc e992 fcbc 845a 563d
00000130: 7a2f a1bd 3f49 e93c d488 b5bc 69b6 ae3a
00000140: 323b 9a3c 243b ddbb b617 a6bb 4045 31bc
00000150: 1363 763d 870f d5bc 774c 7dbd 866e aa3b
00000160: 5e9c bf3d f09a bfbc 1fea 30bd 5e81 2cbd
00000170: 3487 cc3d 09e0 7e3d 905f 663c d610 86bd
00000180: 04aa 83bd fe73 91bc 921c 843d 7ae1 b43d
00000190: 7655 a5bd 6fbc 1e3d 0aea c7bd abcf 19bd
000001a0: 073e e63d e2d1 8bbc 45ff 56bd e6d3 3abd
000001b0: 8076 913c af44 843d fc0e 2b3d 65ac 4cbd
000001c0: 039c 4cbd 546a 1c3d 5a18 143d 1e0b c2bc
000001d0: 34c5 abbc 17b7 b33d 38c6 98bc 65fb 243c
000001e0: 302e 953a de1b c0bd 3f08 b8bb 399e 013d
000001f0: bdcb 283d d8aa 12bd 786b dbbc a9b0 66bd
00000200: c849 83bc 28f3 8b3d 0565 9dbd 0bb4 1d3d
00000210: 2f69 bfbd c287 13bd 4360 563d c6a3 193d
00000220: 5d94 cc3c a8f2 75bd f590 68bd bb87 de3b
00000230: 7f40 aebd 38c8 693d 3319 013d ddd4 71bd
00000240: 2ff9 5cbd 1e7f b13d a67f 603d 8a69 25bd
00000250: 8cda 13bd 3543 923d c374 ba3c 5567 3c3d
00000260: 1147 373c 0c14 e0bc e6a3 85bb 4219 ef3c
00000270: 3e23 babd 8011 c7bd aee6 5f3d 4ac7 93bd
00000280: 0210 aa3c d270 203d 58f6 c23d 1bdb 173c
00000290: 50b1 95bd b324 a1bd ae9b 6bbd 9714 373d
000002a0: ecce a2bd d1da 5cbd ecd3 27bc 4a2b 41bd
000002b0: 5340 65bc 1bd8 5abd b278 4d3c a4a0 733c
000002c0: 9738 423c 55f0 bdbc 65be 973d 4897 073c
000002d0: 9d1e c8bc 4557 793d 9291 9c3d 57f7 5c3d
000002e0: 4e87 86bd 532a 9d3c 43e9 da3a 0054 a63d
000002f0: a8be 41bd cbfa 183d 091b 493d 53a1 ca3d
00000300: 6523 8f3d 7154 a4bd 4e47 123b edb7 d5bc
00000310: d16e 90bd 3fc1 53bb 5832 42bd 9e5e 4b3d
00000320: 10ce bbbd 18f7 9d3d d227 47bd 60d6 b6bd
00000330: 89b2 903d 2dee 73bd 4e07 933d 83e4 45bd
00000340: b66d 8c3d e1b7 8e3d f4a6 a9bd a119 7cbc
00000350: 1f8e c7bc fa9d abbd 8322 c3bb 7c6b 97bd
00000360: 07d6 ed3c 919a b2bd e8b0 383c caf0 bebc
00000370: e34d b63c 1261 91bd 4af9 543c 68b0 933c
00000380: 1053 64bc c0a5 963d fc91 c13d 5161 b33d
00000390: 0cf5 773d 2cf6 843d 3bcd 3fbd 549c 1e3d
000003a0: acdb 4c3b e0d4 9abd eb17 22bc 58d4 90bd
000003b0: 87a8 e23c 9cc4 283d 35bc 6dbc 0e39 6abc
000003c0: c606 bebc 8a7a 08bc a748 103d 6f1c 5ebd
000003d0: 1be3 d2bd 4266 27bc 5d45 d4bc 9b69 913d
000003e0: a749 163d aad5 edbc 041a a9bd dd58 10bc
000003f0: f38d 0abd f80e 173c 48d2 39bd 1903 bbbc

model.cnn_input_3.3.bias f4 [32]
0.03174424 0.037588842 -0.026284846 -0.04079987 -0.08386796 -0.01901049 0.009673256 0.041938458
0.01903411 -0.017773928 0.018631095 -0.07778263 0.07283036 -0.017101942 0.0087123485 0.024132378
-0.0676368 -0.02055998 -0.027542606 -0.02151674 0.020883959 0.027395409 -0.079244554 0.036386896
-0.07441433 0.015079116 -0.040457897 -0.015423014 0.066798635 0.028394705 -0.05582762 0.034868926
00000000: 4006 023d c2f6 193d 5153 d7bc c41d 27bd
00000010: f7c2 abbd e3bb 9bbc 947c 1e3c a9c7 2b3d
00000020: 6ced 9b3c a19a 91bc 3da0 983c 804c 9fbd
00000030: 1528 953d 5f19 8cbc 3dbe 0e3c 44b1 c53c
00000040: 2a85 8abd 676d a8bc 08a1 e1bc e043 b0bc
00000050: d614 ab3c 566c e03c f84a a2bd 6d0a 153d
00000060: 8a66 98bd 660e 773c 2eb7 25bd cfb0 7cbc
00000070: b9cd 883d 039c e83c 81ab 64bd b8d2 0e3d

model.upconv_2.0.weight f4 [32, 16, 6]
-0.012648829 0.046338733 0.045186974 0.05833512 -0.08062105 0.07136544 -0.102089 0.03423116
-0.012256167 -0.042294234 0.080118306 0.10899096 0.047310635 -0.063136734 0.021266088 0.096637405
0.09007515 0.06783934 -0.026790125 0.024100466 0.11683589 0.014389054 -0.0002808095 -0.09582254
0.00858871 0.040925205 0.013146002 -0.05281696 0.04589648 -0.07769935 -0.016720908 0.030069623
-0.0755423 0.037203442 -0.027346727 0.053288225 -0.014281734 0.03241874 -0.11351002 -0.044529058
-0.027634764 0.11910603 0.07002833 -0.02877431 0.07975072 0.08482034 -0.014985463 -0.029693682
-0.021779114 -0.10852637 0.06189148 0.018954653 0.013287073 -0.043036543 -0.07187972 -0.023435347
0.104324676 0.09317581 0.0038477469 -0.0030306294 0.011478131 -0.025816794 -0.15341346 -0.0892654
-0.028766029 -0.056614134 0.07678523 -0.017054757 -0.10777013 0.06043807 -0.031712268 0.09802279
0.07921084 0.041844442 -0.061266247 0.1211027 0.08719004 -0.050274696 0.0046109115 0.002099419
-0.049159724 0.040584404 0.03860108 0.07290474 0.031920608 -0.018593187 0.087912925 0.06479197
0.040891305 0.087074175 -0.1233195 -0.014927746 -0.047238138 0.054775536 -0.1442897 0.0018895144
-0.053206027 -0.07622679 0.123372346 -0.031851526 -0.061150983 -0.05628713 0.042905588 -0.12156258
-0.053238947 -0.051897876 -0.10112823 -0.057686206 -0.013984657 -0.08106893 -0.1302716 0.14145994
-0.074801244 0.039105494 0.07351241 -0.06362092 0.010555869 0.038036883 0.014495077 0.016859509
0.11144098 0.054790106 -0.04570391 -0.071537405 -0.059313335 0.04356518 -0.005920036 -0.03551714
-0.009695476 -0.068223156 -0.08068052 0.027166344 0.00786508 0.02671713 -0.057505094 0.019449566
0.021261793 -0.03441036 -0.023022726 -0.032698087 -0.0069247265 -0.010938137 -0.047743183 -0.07935406
0.08035016 -0.0629612 -0.017774591 -0.024014167 0.13305755 -0.01947796 0.008306392 0.0020766107
0.071217656 -0.09561088 -0.051005095 0.057975106 -0.047633883 -0.042299043 -0.010441903 0.10811994
0.045137685 -0.025958877 -0.014435426 -0.057277236 -0.062726185 0.028314387 0.041877847 -0.039585084
-0.026492918 0.0710009 0.095137306 0.06852557 0.04126195 -0.041566525 -0.013224441 0.09909504
-0.10091294 0.03150436 0.06570838 0.053765163 0.059019174 0.009508675 0.020888604 0.07489323
-0.091547385 -0.08747072 -0.10226989 -0.01729555 0.027441856 -0.045762185 -0.1502317 0.07331659
-0.11684204 -0.05046926 0.11232025 -0.007585883 0.002490615 -0.04695545 0.07391652 -0.008098581
0.031140724 -0.03369435 -0.103255585 -0.048926927 -0.055857006 0.01270683 0.014567897 0.109592795
0.09205322 0.12225175 -0.013937154 0.008616249 0.07264212 0.004555943 -0.10106698 0.060193844
0.11973082 0.049733948 0.049285173 -0.057235602 0.054661848 0.015009352 -0.015753057 -0.032168146
-0.11401443 0.056812786 -0.008593208 0.02978746 0.09799915 0.057428945 -0.0099399965 -0.030223032
-0.0149888145 -0.020228757 -0.07314849 -0.10188254 0.03283451 0.08760204 -0.0013424759 -0.0045806137
-0.053516336 0.04993016 0.016540479 0.018133167 -0.043461315 -0.05704705 0.026637757 0.13527064
-0.018646965 0.074981116 0.07078703 -0.10400957 0.058062833 -0.06220944 0.016234348 -0.12154696
00000000: 093d 4fbc afcd 3d3d fa15 393d cff0 6e3d
00000010: a61c a5bd 0b28 923d 0a14 d1bd f935 0c3d
00000020: 17ce 48bc b83c 2dbd 1115 a43d a736 df3d
00000030: ccc8 413d d54d 81bd 3836 ae3c d5e9 c53d
00000040: 5279 b83d 5aef 8a3d f776 dbbc 576e c53c
00000050: a847 ef3d 11c0 6b3c 9d39 93b9 9c3e c4bd
00000060: a9b7 0c3c 30a1 273d 5462 573c 9956 58bd
00000070: f3fd 3b3d d620 9fbd 49fa 88bc 9254 f63c
00000080: ecb5 9abd a362 183d 3e06 e0bc c144 5a3d
00000090: effd 69bc 83c9 043d f177 e8bd 1a64 36bd
000000a0: 4d62 e2bc dded f33d 036b 8f3d 1ab8 ebbc
000000b0: 5854 a33d 49b6 ad3d 9685 75bc 2a40 f3bc
000000c0: 1d6a b2bc 1343 debd ec81 7d3d ca46 9b3c
000000d0: 06b2 593c 1647 30bd ad35 93bd 7cfb bfbc
000000e0: 2da8 d53d f6d2 be3d 7b2a 7c3b 869d 46bb
000000f0: c50e 3c3c be7d d3bc 6b18 1dbe c7d0 b6bd
00000100: bca6 ebbc 39e4 67bd 9341 9d3d 6bb6 8bbc
00000110: 96b6 dcbd e98d 773d b9e4 01bd 2cc0 c83d
00000120: 4b39 a23d 1465 2b3d 51f2 7abd b104 f83d
00000130: b190 b23d d7ec 4dbd 2117 973b 6896 093b
00000140: b55b 49bd d53b 263d 2b1c 1e3d 154f 953d
00000150: 2fbf 023d bd50 98bc b10b b43d a7b1 843d
00000160: a47d 273d f253 b23d ef8e fcbd 8193 74bc
00000170: c77c 41bd 505c 603d aec0 13be 95a9 f73a
00000180: 90ee 59bd cb1c 9cbd a4aa fc3d bf76 02bd
00000190: 7479 7abd 558d 66bd c5bd 2f3d cdf5 f8bd
000001a0: 1511 5abd de92 54bd 511c cfbd 5f48 6cbd
000001b0: e71f 65bc 7807 a6bd eb65 05be e0da 103e
000001c0: 6531 99bd 152d 203d ad8d 963d af4b 82bd
000001d0: 86f2 2c3c 90cc 1b3d c27c 6d3c f41c 8a3c
000001e0: 2b3b e43d 976b 603d 0634 3bbd 3482 92bd
000001f0: 8af2 72bd 6771 323d ddfc c1bb 6c7a 11bd
00000200: c6d9 1ebc 95b8 8bbd d43b a5bd f48b de3c
00000210: 89dc 003c e2dd da3c 768a 6bbd b254 9f3c
00000220: 362d ae3c e1f1 0cbd 289a bcbc 6eee 05bd
00000230: d1e8 e2bb df35 33bc 5b8e 43bd 6284 a2bd
00000240: a08e a43d cdf1 80bd 059c 91bc 5cb9 c4bc
00000250: 3d40 083e 3e90 9fbc 8817 083c bf17 083b
00000260: 90da 913d a3cf c3bd b8ea 50bd 4e77 6d3d
00000270: bf1b 43bd c341 2dbd 8414 2bbc fd6d dd3d
00000280: 4be2 383d b6a7 d4bc 9182 6cbc 899b 6abd
00000290: 9676 80bd 93f3 e73c 1b88 2b3d f823 22bd
000002a0: ad07 d9bc eb68 913d 59d7 c23d 2257 8c3d
000002b0: 4a02 293d a941 2abd 53ab 58bc 57f2 ca3d
000002c0: 72ab cebd b70a 013d 1d92 863d dc38 5c3d
000002d0: 17be 713d 46ca 1b3c 941e ab3c 9f61 993d
000002e0: 327d bbbd d923 b3bd e072 d1bd 66af 8dbc
000002f0: becd e03c 2171 3bbd 57d6 19be 0227 963d
00000300: e14a efbd dbb8 4ebd 2908 e63d 0093 f8bb
00000310: 9639 233b 5c54 40bd 8b61 973d e9af 04bc
00000320: d51a ff3c 1603 0abd aa77 d3bd 9a67 48bd
00000330: 51ca 64bd 4f30 503c 30ae 6e3c 3072 e03d
00000340: 6686 bc3d 205f fa3d a958 64bc 2b2b 0d3c
00000350: 64c5 943d 054a 953b 34fc cebd d28d 763d
00000360: 6f35 f53d d3b5 4b3d 40df 493d e16f 6abd
00000370: 1ae5 5f3d c9e9 753c 8e0c 81bc bfc2 03bd
00000380: 6680 e9bd 86b4 683d 87ca 0cbc d504 f43c
00000390: c7b3 c83d 9d3a 6b3d 5edb 22bc 4b96 f7bc
000003a0: a593 75bc c7b6 a5bc e0ce 95bd cba7 d0bd
000003b0: 7b7d 063d b368 b33d 04f6 afba f918 96bb
000003c0: f233 5bbd 9183 4c3d e67f 873c 028c 943c
000003d0: 7e04 32bd 2baa 69bd 6d37 da3c 6384 0a3e
000003e0: 85c1 98bc b38f 993d caf8 903d f802 d5bd
000003f0: 4bd3 6d3d 53cf 7ebd e5fd 843c 9ded f8bd

model.upconv_2.0.bias f4 [16]
0.09526305 -0.07400189 -0.08029361 -0.07939323 0.06867261 -0.028908078 -0.08846718 -0.00021174677
-0.050484158 0.022593265 0.053043116 0.06356057 0.07574336 -0.06068427 0.00576451 0.016109208
00000000: 4619 c33d 4e8e 97bd fa70 a4bd eb98 a2bd
00000010: 3aa4 8c3d a2d0 ecbc 482e b5bd 5708 5eb9
00000020: 7ac8 4ebd 8315 b93c bd43 593d 0b2c 823d
00000030: 561f 9b3d 1290 78bd 37e4 bc3b 75f7 833c

model.cnn_output_2.0.weight f4 [32]
0.9654385 0.9365537 0.9830853 1.0230395 0.97670144 0.9824798 0.9529974 0.9486216
0.96579355 0.9137444 0.93860686 0.9792109 0.94758683 1.0006995 0.94437426 1.0318588
1.0553293 0.9927613 1.0494273 1.0541508 0.9742867 0.99418736 1.0057731 0.9270873
1.0067284 0.9888692 1.0386795 1.0295551 1.0121857 1.0302097 1.0133684 1.0115504
00000000: fa26 773f fcc1 6f3f 7aab 7b3f f5f2 823f
00000010: 1b09 7a3f cc83 7b3f a3f7 733f ddd8 723f
00000020: 3f3e 773f 27eb 693f 8a48 703f 91ad 7a3f
00000030: 0d95 723f ec16 803f 83c2 713f f313 843f
00000040: 0815 873f 9b25 7e3f a253 863f 6aee 863f
00000050: da6a 793f 1083 7e3f 2cbd 803f 9855 6d3f
00000060: 7adc 803f 8826 7d3f 73f3 843f 76c8 833f
00000070: 4d8f 813f e9dd 833f 0eb6 813f 7c7a 813f

model.cnn_output_2.0.bias f4 [32]
0.0018998625 -0.028024444 0.0075999605 -0.06192307 -0.040846016 -0.079760514 -0.010596902 -0.05165048
0.03429783 0.06268876 -0.028383398 -0.04464164 -0.025754817 0.08633456 -0.05745121 -0.048700087
-0.0057663326 -0.016247815 -0.032889023 -0.026064962 -0.050814804 0.027355483 -0.016484227 0.004822725
0.013904735 0.010771506 -0.043193154 -0.016050348 -0.016500207 -0.036828328 0.003334026 0.05128265
00000000: cf04 f93a 8593 e5bc 1709 f93b 0ca3 7dbd
00000010: 274e 27bd 7b59 a3bd a19e 2dbc 748f 53bd
00000020: e27b 0c3d f762 803d 4d84 e8bc 27da 36bd
00000030: c4fb d2bc 2cd0 b03d f651 6bbd be79 47bd
00000040: 81f3 bcbb 231a 85bc a4b6 06bd 3086 d5bc
00000050: 2f23 50bd 9b18 e03c ee09 87bc f307 9e3b
00000060: b0d0 633c f87a 303c 4eeb 30bd 057c 83bc
00000070: 712b 87bc 4dd9 16bd ad7f 5a3b c20d 523d

model.cnn_output_2.0.running_mean f4 [32]
0.0503751 0.10252502 0.120425135 -0.098067276 0.32635742 0.054962173 -0.37986246 0.13939494
-0.17574199 -0.110785104 -0.03311608 -0.0137810465 0.15260081 -0.44795114 -0.10691021 -0.17666881
0.47542292 0.5390765 0.04667464 0.075455934 0.14236927 0.025753751 0.15065518 0.011280127
0.118068546 0.052303698 0.17512451 0.026577218 0.009238928 0.33284602 0.26077554 0.09529025
00000000: 1f56 4e3d a3f8 d13d 74a1 f63d 7fd7 c8bd
00000010: 5218 a73e 0420 613d 557d c2be 8cbd 0e3e
00000020: b5f5 33be 4de3 e2bd baa4 07bd e6c9 61bc
00000030: 6343 1c3e da59 e5be bdf3 dabd abe8 34be
00000040: a26a f33e eb00 0a3f e82d 3f3d a488 9a3d
00000050: 40c9 113e 88f9 d23c 5a45 1a3e 48d0 383c
00000060: eccd f13d 673c 563d d753 333e 77b8 d93c
00000070: df5e 173c cb6a aa3e 5f84 853e 8927 c33d

model.cnn_output_2.0.running_var f4 [32]
0.11402649 0.047444537 0.07956028 0.036573894 0.062197164 0.07369184 0.1274408 0.15124163
0.08206644 0.07533021 0.09421332 0.0957852 0.0480565 0.06327124 0.054035727 0.045478147
0.06641876 0.10377005 0.012238282 0.019970251 0.03233074 0.0074852407 0.03535705 0.002273244
0.015360806 0.017760811 0.04872217 0.007492571 0.0012993235 0.08950751 0.06398941 0.0125114545
00000000: b886 e93d 3455 423d 80f0 a23d 82ce 153d
00000010: 74c2 7e3d bfeb 963d d77f 023e 16df 1a3e
00000020: 7312 a83d ba46 9a3d eaf2 c03d 082b c43d
00000030: e4d6 443d 5a94 813d 9154 5d3d 4b47 3a3d
00000040: 8f06 883d 6485 d43d 1383 483c a798 a33c
00000050: 3d6d 043d c046 f53b 8ed2 103d b5fa 143b
00000060: e4ab 7b3c 1f7f 913c e690 473d 3e84 f53b
00000070: 104e aa3a b74f b73d e10c 833d d8fc 4c3c
