models/SD_CNNet_15s--epoch=4-val_loss=0.53-train_loss=0.43.ckpt (torch, 60803 bytes, 45 tensors)

model.cnn.0.weight f4 [8, 3, 5]
0	0x3edaad1c	0.42710197
1	0x3e80a69d	0.25127116
2	0x3e09377c	0.13400072
3	0xbe93ff2e	-0.28905624
4	0x3e545cc9	0.2073852
5	0xbd0d7fb8	-0.03454563
6	0xbb7a7538	-0.003821684
7	0xbd4ca364	-0.04996051
8	0x3de8e0de	0.11371015
9	0x3dd2215a	0.102602676
10	0xbe9121ae	-0.28346008
11	0x3da35736	0.079756185
12	0x3eb79e4f	0.35862967
13	0xbddb1609	-0.10697562
14	0x3e46f3af	0.19428895
15	0xbe0977a7	-0.1342455
16	0xbdfc3692	-0.12315096
17	0x3ddf8104	0.1091328
18	0x3ec47741	0.38372234
19	0x3e95298f	0.2913327
20	0xbcd89aa4	-0.026440926
21	0xbd09eb4f	-0.033671673
22	0xbc4aa4bf	-0.01236838
23	0x3d244a0c	0.04010968
24	0x3d2c4759	0.04206023
25	0x3cf0c956	0.02939288
26	0xbe9879a2	-0.29780298
27	0xbe982e8e	-0.29723018
28	0xbe8a34c2	-0.26993376
29	0x3e38af75	0.18035682
30	0x3e30f89b	0.17282335
31	0x3e7e15ea	0.24813047
32	0x3e7b3758	0.2453283
33	0xbea5e649	-0.32402256
34	0xbe642369	-0.22279133
35	0x3d1f31d1	0.038865868
36	0xbe266fc3	-0.16253571
37	0xbc87ae38	-0.016562566
38	0xbbcff686	-0.0063465266
39	0xbd21ba10	-0.039484084
40	0xbefcf209	-0.49403408
41	0x3d0ef57d	0.034902085
42	0x3e869dfc	0.26292408
43	0xbe473be9	-0.19456448
44	0xbebf2972	-0.37336308
45	0x3e5d6f3f	0.21624468
46	0xbcdbbc68	-0.026823238
47	0x3e013719	0.12618674
48	0x3ebf584f	0.37372062
49	0x3e1dcb33	0.15409546
50	0x3d08d3fd	0.033405293
51	0x3e001b72	0.1251047
52	0xbd453f5c	-0.048156127
53	0x3d1a4b4e	0.037669472
54	0xbc514491	-0.012772695
55	0xbe075a04	-0.13217932
56	0xbde04ab1	-0.10951746
57	0xbe782b84	-0.2423535
58	0xbdb8b2df	-0.09018492
59	0xbe5def69	-0.21673359
60	0xbeac1ce5	-0.33615795
61	0x3d543092	0.051804133
62	0xbe1f27cf	-0.1554253
63	0x3e2c0fa0	0.16802835
64	0xbd69a6fa	-0.057044007
65	0xbe2c896c	-0.16849297
66	0x3e30e202	0.17273715
67	0xbd8cd2ff	-0.06876182
68	0xbd884de7	-0.06655484
69	0x3e82962e	0.25505203
70	0xbe073073	-0.13202076
71	0xbe03df0d	-0.12878056
72	0xbe87df75	-0.26537672
73	0x3be4a9c6	0.0069782464
74	0xbc0a0cce	-0.008425904
75	0x3d589f90	0.052886546
76	0x3d2a9b60	0.041652083
77	0xbec7a3d6	-0.38992184
78	0xbece7272	-0.4032169
79	0xbc1a4753	-0.009416419
80	0xbd859ac1	-0.065236576
81	0xbe1702ca	-0.14747158
82	0x3d98a32c	0.074529976
83	0x3e0eb6b1	0.13936879
84	0x3e3bde44	0.18346506
85	0xbd8ea9c7	-0.06965976
86	0xbd4e76bf	-0.050406214
87	0xbd8f5934	-0.06999436
88	0xbe1e8a95	-0.15482552
89	0x3e2243a0	0.1584611
90	0x3dcaeebd	0.09908817
91	0xbde72fd4	-0.11288419
92	0x3ea5921a	0.3233803
93	0x3e69e2b1	0.22840382
94	0xbec1df88	-0.37865853
95	0xbe33f651	-0.17574431
96	0xbdd87bb7	-0.10570472
97	0x3debe269	0.11517794
98	0x3e7796d7	0.24178635
99	0x3d8df4e0	0.06931472
100	0x3bd3f29d	0.0064681307
101	0x3e8a89d4	0.2705828
102	0x3c9308cb	0.017948529
103	0x3e15cb7f	0.14628409
104	0xbc9831eb	-0.01857849
105	0xbe005fcc	-0.12536544
106	0xbe934735	-0.28765264
107	0xbeb3a158	-0.35084033
108	0xbf027510	-0.50959873
109	0xbd8f5dc8	-0.07000309
110	0x3c188e22	0.009311231
111	0x3dc27557	0.09495037
112	0xbdcf7c03	-0.10131075
113	0xbc949607	-0.018137945
114	0x3cb4ef94	0.022086896
115	0x3d78ee42	0.060774095
116	0x3e131765	0.14364393
117	0x3e232c0d	0.15934773
118	0xbdb861c5	-0.09003023
119	0x3e275ff7	0.16345201

model.cnn.0.bias f4 [8]
0	0x3cbf35da	0.023341108
1	0xbe2e6250	-0.1702969
2	0x3d027fcd	0.03186016
3	0xbc93f6fa	-0.018062104
4	0xbd842f5a	-0.06454344
5	0xbe36f389	-0.17866339
6	0x3e0ac4b9	0.13551606
7	0xbe341ea6	-0.17589816

model.cnn.1.weight f4 [8]
0	0x3f736fcc	0.95092463
1	0x3f877975	1.0583941
2	0x3f6d7775	0.927604
3	0x3f7a7186	0.97829473
4	0x3f639e5c	0.8891351
5	0x3f819754	1.0124307
6	0x3f7a3259	0.97733074
7	0x3f8abb02	1.083832

model.cnn.1.bias f4 [8]
0	0x3e20e54b	0.15712468
1	0x3e4aed10	0.19816995
2	0x3e0b0c91	0.13579012
3	0x3cd29f3a	0.02571069
4	0xbda9133a	-0.0825562
5	0xbdbb5dda	-0.0914876
6	0x3d6c01e7	0.057619
7	0xbd473625	-0.04863562

model.cnn.1.running_mean f4 [8]
0	0x4073480a	3.801272
1	0x4026c1df	2.605583
2	0x3f46e4fd	0.7769316
3	0x408df62e	4.436301
4	0xbfea7bb8	-1.8319006
5	0xc0856bd5	-4.169413
6	0x3f8fffc7	1.1249932
7	0xc0ec2fd2	-7.3808374

model.cnn.1.running_var f4 [8]
0	0x42a02952	80.0807
1	0x41c1053e	24.12756
2	0x4292e5ea	73.44905
3	0x42888917	68.26775
4	0x4396eedc	301.8661
5	0x435010a0	208.06494
6	0x438bc75c	279.5575
7	0x42d6c790	107.38977

model.cnn.3.weight f4 [16, 8, 5]
0	0x3d0f0036	0.03491231
1	0x3de98b0b	0.114034735
2	0x3da1ae48	0.0789457
3	0xbe31dd80	-0.17369652
4	0x3d3ffbc7	0.046870973
5	0xbd7f4128	-0.062317997
6	0x3d45a917	0.04825696
7	0xbe5e4ea8	-0.21709692
8	0xbd9aebb2	-0.075644866
9	0xbe12e70e	-0.14345953
10	0xbd84543e	-0.064613804
11	0xbddef6b0	-0.10886896
12	0xbb8234a3	-0.00397356
13	0xbd18144a	-0.037128724
14	0xbd1a8873	-0.037727784
15	0x3d56d18f	0.052445944
16	0xbd47541a	-0.04866419
17	0xbe39779d	-0.18112035
18	0xbd166135	-0.036713798
19	0xbdcdc8f2	-0.10048093
20	0x3d81f8da	0.06346293
21	0x3df8cf09	0.12148864
22	0xbaf587f4	-0.0018732534
23	0xbe4b6e63	-0.19866328
24	0x3dc8dc54	0.09807649
25	0x3cbb00dd	0.02282756
26	0x3c8d9c85	0.017286548
27	0x3dd2e145	0.10296873
28	0x3d89fc56	0.067375824
29	0x3dc51f73	0.09625139
30	0x3d9f4cef	0.07778346
31	0xbc35d4b5	-0.011098077
32	0xbd8e169c	-0.06937906
33	0xbd4c841e	-0.049930684
34	0x3c7a17f3	0.015264499
35	0x3d36883f	0.04456353
36	0xbd31b3fd	-0.04338454
37	0xbe03cf29	-0.12871994
38	0x3e2c1ee9	0.16808666
39	0xbdebe7a0	-0.11518788
40	0x3e4568b5	0.19278224
41	0xbe244d9c	-0.1604523
42	0x3c150327	0.00909499
43	0x3df20a59	0.1181838
44	0x3ce892a4	0.028390236
45	0x3d88d015	0.066803135
46	0x3d370a64	0.044687644
47	0xbe1a5547	-0.15071593
48	0xbdc968ff	-0.098344795
49	0xbe18e19a	-0.1492981
50	0x3e0511eb	0.12995116
51	0x3de71eab	0.11285146
52	0xbd902554	-0.0703837
53	0x3c37c011	0.011215226
54	0xba84976c	-0.0010115928
55	0x3dcf50d1	0.101228364
56	0xbe20311f	-0.15643738
57	0x3db77e46	0.089596316
58	0x3dbdc888	0.09266764
59	0xbe363de4	-0.17797047
60	0x3bf4bd8e	0.0074688857
61	0xbc9612d4	-0.018319525
62	0xbc1b615e	-0.009483663
63	0xbd358659	-0.044317577
64	0x3bb036a7	0.005377609
65	0xbde25235	-0.11050836
66	0xbde6fcbc	-0.11278674
67	0xbdb295cc	-0.08719978
68	0x3d4c97db	0.04994951
69	0xbdc9b5f4	-0.09849158
70	0xbdabe7cb	-0.083938204
71	0x3e36b420	0.1784215
72	0xbd41ea21	-0.047342423
73	0xbe33f5db	-0.17574255
74	0x3dfc6c41	0.12325335
75	0xbd647eec	-0.055785105
76	0xbd5d4533	-0.05402107
77	0x3b82f52e	0.003996513
78	0x3d6a4053	0.05719025
79	0xbca8778c	-0.020564817
80	0xbdd07e10	-0.101802945
81	0xbd2dace5	-0.042401213
82	0x3d4933ba	0.049121596
83	0x3e1802bc	0.14844793
84	0x3e39fd77	0.18163095
85	0x3db1d95a	0.08684035
86	0x3d875d9e	0.06609653
87	0xbc03f1b8	-0.008053236
88	0xbd9c1462	-0.07621075
89	0xbd8761c1	-0.06610442
90	0x3c8122b1	0.015763612
91	0xbe022377	-0.12708841
92	0xbc5eb80c	-0.013593685
93	0xbddfdc50	-0.10930693
94	0xbdf6042a	-0.12012513
95	0xbc24413d	-0.01002532
96	0xbd5d10f7	-0.053971257
97	0xbd757f57	-0.059935894
98	0xbdac2343	-0.08405163
99	0x3d77d2f5	0.06050392
100	0x3d59f1a8	0.053208977
101	0xbe3b4227	-0.18286954
102	0xbd99cc98	-0.07509726
103	0xbd7fe66c	-0.062475607
104	0xbe1e4999	-0.15457763
105	0xbe20f9bb	-0.15720265
106	0xbe280956	-0.16409811
107	0x3cde57f1	0.027141543
108	0x3d2cd26c	0.04219286
109	0xbc6bffc8	-0.014404245
110	0xbe1b4a46	-0.15165052
111	0x3dd19abc	0.10234591
112	0xbcba22a7	-0.022721602
113	0x3dc2f3df	0.09519171
114	0xbe222cbd	-0.15837379
115	0x3c20c828	0.009813346
116	0xbd2e3b76	-0.042537175
117	0xbdf5e657	-0.120068245
118	0x3ddd0e58	0.107937515
119	0x3d0407ee	0.032234125
120	0xbe2b94ac	-0.16755933
121	0x3cf16722	0.029468123
122	0x3ddef7dc	0.10887119
123	0x3c8c17d8	0.017101213
124	0x3df96f7d	0.12179468
125	0x3d5ff753	0.054679226
126	0x3c4caeaf	0.01249282
127	0x3d3b3e26	0.045713566
128	0x3d14edd0	0.03635961
129	0xbbf435f3	-0.0074527203
130	0x3b3b1e4e	0.0028551999
131	0x3dc5792d	0.09642253
132	0x3e2a82c8	0.16651452
133	0xbb824df8	-0.0039765798
134	0xbdc28386	-0.09497742
135	0xbddd18ce	-0.10795747
136	0x3e255a27	0.16147672
137	0x3d033953	0.03203709
138	0x3dba92d0	0.091100335
139	0x3dbb050d	0.09131823
140	0x3d285dec	0.041105196
141	0xbdd9992a	-0.10624917
142	0xbdf3c0c0	-0.119019985
143	0xbe1d0ea1	-0.15337612
144	0xbd36aeaa	-0.044600166
145	0xbca6ac41	-0.020345809
146	0xbda91cfd	-0.08257482
147	0xbe2c583a	-0.16830531
148	0xbdb4ba8d	-0.08824644
149	0xbb44020d	-0.002990845
150	0x3c4d161a	0.012517476
151	0xbe0b3a06	-0.13596353
152	0x3c0f692a	0.0087531
153	0x3d36471b	0.044501405
154	0xbd8821e5	-0.0664709
155	0x3dd15d09	0.10222823
156	0xbe2d798b	-0.16940896
157	0xbe087121	-0.13324405
158	0xbe488b41	-0.19584371
159	0xbe392a63	-0.18082576
160	0x3d42a44a	0.04751996
161	0x3d80ee9c	0.06295511
162	0x3ce353af	0.027749864
163	0xbd3e405d	-0.0464481
164	0xbd5937e4	-0.053031817
165	0x3d934221	0.071903475
166	0x3d5bdb44	0.053675905
167	0xbd8e2439	-0.06940503
168	0x3c306f52	0.010768728
169	0xbc57ba2f	-0.013166948
170	0x3cb7ecd5	0.022451798
171	0x3ddc1765	0.1074665
172	0xbdd36a39	-0.10322995
173	0xbd95718c	-0.07297048
174	0xbc7b879a	-0.015352154
175	0xbd74355c	-0.0596212
176	0x3c3bd872	0.011465179
177	0xbd79097c	-0.06080006
178	0x3dc07cf2	0.093988314
179	0xbb4d93df	-0.0031368656
180	0xbe2e04a9	-0.16993965
181	0xbdbf80aa	-0.093507126
182	0xbdb2f838	-0.0873875
183	0xbcdcfcba	-0.026975978
184	0xbc9eb861	-0.019375028
185	0xbc1e7a93	-0.009672779
186	0xbcc7bf65	-0.024383256
187	0x3e0a4932	0.13504484
188	0x3dea2baf	0.11434113
189	0x3dba207d	0.09088228
190	0xbdf3f666	-0.11912231
191	0xbe49ef75	-0.19720252
192	0xbd81c308	-0.063360274
193	0xbdb40459	-0.08789892
194	0xbe0c3d19	-0.13695182
195	0xbd3b7385	-0.045764465
196	0x3e1a9894	0.15097266
197	0x3e732654	0.2374509
198	0x3dc35301	0.09537316
199	0x3e2aa4be	0.16664407
200	0x3d4d5530	0.05013007
201	0xbaf00cbe	-0.0018314344
202	0xbda5691d	-0.080766894
203	0x3d88a14f	0.06671392
204	0xbcf5dc24	-0.030012198
205	0xbe2deb28	-0.16984236
206	0x3d41a367	0.047274973
207	0x3d0e9866	0.034813307
208	0x3d33fda7	0.043943074
209	0x3ce05b40	0.027387261
210	0x3d17a953	0.037026715
211	0xbdc99487	-0.098427825
212	0x3be41608	0.006960634
213	0xbcdf3053	-0.027244722
214	0xbe4c1d7c	-0.19933122
215	0xbdd65d5c	-0.10467026
216	0x3e3e0ecf	0.18560337
217	0x3dbd2a76	0.092366144
218	0xba60e02d	-0.00085783267
219	0xbd0ea647	-0.034826543
220	0xbe1dafda	-0.15399113
221	0xbe0d6eaa	-0.13811746
222	0x3dec2d11	0.11532033
223	0x3d116537	0.035496917
224	0xbd0d7e81	-0.03454447
225	0xbd254b40	-0.040354967
226	0x3de39e76	0.111142084
227	0xbcc0880a	-0.023502368
228	0x3e082a16	0.13297305
229	0xbdf620cd	-0.12017975
230	0xbd382eff	-0.044966694
231	0xbe1d12b5	-0.15339167
232	0x3db53f0a	0.08849914
233	0xbdcec68a	-0.10096462
234	0xbdba8255	-0.0910689
235	0x3cda5c3b	0.026655307
236	0x3e31e621	0.17372943
237	0x3e172474	0.1476
238	0xbe11e195	-0.14246209
239	0x3d64a30b	0.055819552
240	0x3d6005d1	0.054693047
241	0x3d692be6	0.05692663
242	0xbdc36423	-0.09540584
243	0x3e0de06f	0.13855146
244	0x3d136339	0.035983298
245	0x3da8f8a5	0.0825055
246	0x3e19e389	0.15028204
247	0x3e3b04bf	0.18263529
248	0x3d67daba	0.05660508
249	0xbdac48d1	-0.08412326
250	0xbdc6d47f	-0.09708499
251	0x3df23ef8	0.118284166
252	0x3dc7fad3	0.09764638
253	0x3e1bc1c8	0.1521064
254	0xbc539265	-0.012913321
255	0xbbcbcda2	-0.0062195817

model.cnn.3.bias f4 [16]
0	0x3d71459a	0.058904268
1	0xbd270641	-0.04077745
2	0xbdf631c6	-0.12021212
3	0x3dbbd1a8	0.09170848
4	0x3df8148a	0.121132925
5	0xbd42477b	-0.04743145
6	0xbd1da516	-0.038487516
7	0x3dfd125c	0.123570174
8	0x3df8c019	0.12146015
9	0x3dd5eca8	0.10445529
10	0xbe0231a6	-0.12714252
11	0x3dc78f9a	0.09744187
12	0xbdc83ced	-0.09777246
13	0x3df31608	0.118694365
14	0xbd10253a	-0.035191752
15	0xbd9b6de9	-0.07589323

model.cnn.4.weight f4 [16]
0	0x3f7332aa	0.9499918
1	0x3f7c63b2	0.9858962
2	0x3f7c2694	0.98496366
3	0x3f865f71	1.0497876
4	0x3f8780bf	1.0586165
5	0x3f86ba66	1.0525634
6	0x3f76f35a	0.96465075
7	0x3f815594	1.0104241
8	0x3f716000	0.9428711
9	0x3f759fe4	0.959471
10	0x3f7dc1c8	0.9912381
11	0x3f6d8fbd	0.9279745
12	0x3f6d7674	0.9275887
13	0x3f81d6e6	1.0143707
14	0x3f8e3efe	1.1112974
15	0x3f8bd579	1.0924522

model.cnn.4.bias f4 [16]
0	0xbc0753e4	-0.008259747
1	0x3c004758	0.00782951
2	0x3cce8630	0.02521047
3	0x3da7f133	0.08200302
4	0xbdba32a3	-0.090916894
5	0x3d25709f	0.040390607
6	0x3cb80634	0.022463895
7	0x3d92f802	0.0717621
8	0xbc4f587f	-0.012655376
9	0xbe07341c	-0.13203472
10	0x3df424bf	0.11921071
11	0xbe207c06	-0.15672311
12	0x3ca894a0	0.020578682
13	0x3c441fdc	0.0119704865
14	0xbd2f682f	-0.042823967
15	0xbc8a50a4	-0.016884156

model.cnn.4.running_mean f4 [16]
0	0xbe8b0fe6	-0.27160567
1	0xbe52c8bc	-0.20584387
2	0xbed459b6	-0.41474694
3	0xbdad1a97	-0.08452337
4	0x3e40ec7d	0.18840213
5	0xbde2652a	-0.11054452
6	0x3ebf2085	0.37329498
7	0x3e498aab	0.19681804
8	0x3d10d671	0.035360757
9	0x3e75b1e9	0.23993649
10	0xbd78cdd6	-0.060743175
11	0xbdcbfd2a	-0.099603966
12	0x3e8b7c1d	0.27243128
13	0xbe985abf	-0.29756734
14	0xbef4a641	-0.47783092
15	0xbd9d621b	-0.07684728

model.cnn.4.running_var f4 [16]
0	0x3e1af5ff	0.15132903
1	0x3e4e30fa	0.2013587
2	0x3e207297	0.15668713
3	0x3e8795ca	0.26481467
4	0x3d83ad00	0.064294815
5	0x3e036651	0.12832
6	0x3e0f5974	0.13998967
7	0x3d993f4e	0.074827775
8	0x3de12cc2	0.10994865
9	0x3e2658dc	0.16244835
10	0x3e284619	0.1643299
11	0x3e84d9f7	0.25947544
12	0x3e3f3044	0.18670756
13	0x3e585e86	0.21129808
14	0x3e0b22f0	0.13587546
15	0x3e2b7b68	0.16746294

model.cnn.6.weight f4 [32, 16, 5]
0	0xbdfd7a5c	-0.12376854
1	0xbd4f30d2	-0.050583668
2	0x3c0df8ab	0.008665244
3	0x3b9b6237	0.0047419327
4	0xbc0cd4c9	-0.008595654
5	0xbd06ceb1	-0.03291196
6	0x3d06f144	0.032944933
7	0x3d0bddaa	0.034146942
8	0x3ca00023	0.019531315
9	0xbcd83050	-0.026390225
10	0x3d279382	0.04091216
11	0xbc4c9d12	-0.01248862
12	0x3df22db3	0.11825123
13	0x3d347b94	0.044063166
14	0xbcac1d74	-0.021010138
15	0xbca0bc86	-0.019621145
16	0x3dfaa9ae	0.12239395
17	0x3dea3cd6	0.11437385
18	0x3c36c546	0.011155432
19	0xbdcead16	-0.10091607
20	0x3da72a5d	0.08162377
21	0x3df2c09a	0.11853142
22	0x3df7d7e7	0.12101727
23	0x3cdbe558	0.026842758
24	0x3d8c6329	0.06854851
25	0xbcd62e81	-0.026145222
26	0x3dd53ea1	0.10412336
27	0x3d7b9093	0.061417174
28	0xbc46b0ae	-0.012127085
29	0xbcaa2e31	-0.020773979
30	0xbb6a2d6b	-0.0035732638
31	0xbc820dda	-0.015875746
32	0xbdb451ce	-0.088046655
33	0xbdb4da53	-0.088307045
34	0x3d95c351	0.07312644
35	0xbd27acc8	-0.04093626
36	0x3d584418	0.052799314
37	0xbbcc7d72	-0.00624054
38	0xbd1bdc35	-0.038051803
39	0x3d4701b2	0.0485856
40	0x3b01445a	0.0019724579
41	0xbc852f6d	-0.016257966
42	0xbde86d7c	-0.113490075
43	0x3b99328d	0.0046752156
44	0xbd87b852	-0.06626953
45	0x3d8214ea	0.06351645
46	0x3cdda84a	0.027057786
47	0x3d07c158	0.03314337
48	0xbd67b0a3	-0.05656494
49	0x3dae06da	0.084974006
50	0xbdefcff9	-0.117095895
51	0x3cbd8e1f	0.023139058
52	0x3dd8f459	0.105934806
53	0xbd3e38d3	-0.04644091
54	0xbd05cd4e	-0.032666497
55	0xbcd1b991	-0.02560118
56	0xbd92d079	-0.07168669
57	0xbd5a9f7a	-0.053374745
58	0x3d0dc5d6	0.0346125
59	0x3d462251	0.04837257
60	0x3e0255a8	0.12727988
61	0x3a823c9e	0.0009936278
62	0xbc82061d	-0.015872056
63	0x3c01ee40	0.007930338
64	0xbdc065d8	-0.09394425
65	0xbdbecf66	-0.09316902
66	0x3d809ff3	0.06280508
67	0x3dba7784	0.09104827
68	0x3e03f311	0.12885691
69	0xbe24d4e0	-0.1609683
70	0xbd3df12f	-0.04637259
71	0x3cd95714	0.02653078
72	0xbdf91e52	-0.12163986
73	0xbe1b677a	-0.15176192
74	0xbded49c8	-0.11586338
75	0xbd7c0898	-0.061531633
76	0xbdb03123	-0.08603122
77	0x3d15e846	0.036598466
78	0x3d4e91cb	0.050432008
79	0xbda44e68	-0.08022767
80	0xbd2d3821	-0.042289857
81	0xbc298fc5	-0.010349219
82	0x3bcacb9c	0.006188823
83	0xbcff2df2	-0.031149838
84	0x3da8fb18	0.08251017
85	0xbd2c5db8	-0.042081565
86	0x3a90137a	0.0010992133
87	0x3d1f7c8a	0.03893713
88	0x3d8a738f	0.06760322
89	0xbd357926	-0.04430499
90	0xbd54336f	-0.051806863
91	0xbc060bff	-0.008181571
92	0x3d3145c8	0.04327944
93	0xbc7e8a4e	-0.015535904
94	0xbd149a52	-0.036279984
95	0xbda89d13	-0.082330845
96	0xbd4c5cff	-0.049893375
97	0x3c679a54	0.014135916
98	0xbc3d9508	-0.011571176
99	0x3ddbb14d	0.10727177
100	0x3dde222b	0.10846361
101	0xbc1c88cc	-0.009554099
102	0xbde49e0f	-0.1116296
103	0xbe0a074a	-0.13479343
104	0x3d9b0a88	0.07570368
105	0xbb645615	-0.0034841348
106	0x3c5aa07b	0.013343926
107	0xbde7165b	-0.11283561
108	0xbc96ac02	-0.018392567
109	0xbe1b9d6f	-0.15196775
110	0xbbe43fb0	-0.0069656
111	0xbc145c80	-0.009055257
112	0xbcb701a0	-0.022339642
113	0x3bcb5082	0.0062046656
114	0x3dc5f5ea	0.09666045
115	0x3cc79044	0.024360783
116	0xbde6195b	-0.11235305
117	0x3d5c4a08	0.05378154
118	0x3d0061a8	0.031343132
119	0x3dd74d6c	0.10512814
120	0xbd06db04	-0.032923713
121	0x3db547ae	0.088515624
122	0xbd9de9bd	-0.07710598
123	0xbd352173	-0.044221353
124	0x3de9fbff	0.114250176
125	0xbbdbb685	-0.0067051076
126	0x3d888f69	0.06667978
127	0x3dbdce37	0.09267848
128	0xbb8bd2cb	-0.004267072
129	0xbcc5f8ff	-0.024166582
130	0x3d365d03	0.044522297
131	0xbc10777d	-0.008817551
132	0xbdd7d347	-0.10538345
133	0xbe4bc4d8	-0.19899309
134	0x3dac38ec	0.084092945
135	0xbda30f17	-0.079618625
136	0x3d46b6c3	0.04851414
137	0x3c9c0974	0.019047476
138	0x3bdbc4a9	0.0067067933
139	0x3dfeb88b	0.124375425
140	0xbc90c78d	-0.017673278
141	0x3d3f105c	0.04664646
142	0x3be1a483	0.0068860664
143	0xbd3d56b5	-0.04622527
144	0xbcf6a2c4	-0.03010691
145	0x3ccc5a97	0.02494554
146	0xbc1d10cc	-0.009586524
147	0x3dc9cc03	0.09853365
148	0x3c7d537b	0.015461798
149	0xbdbb9b5b	-0.09160491
150	0x3d15497d	0.036447037
151	0xbdb73ada	-0.08946772
152	0xbdcfd2f8	-0.10147661
153	0xbe04167f	-0.12899207
154	0xbce9b25b	-0.02852743
155	0xbd8bc270	-0.068241954
156	0xbde5dcf7	-0.11223786
157	0xbd81ad82	-0.06331922
158	0xbe0ec3d7	-0.13941894
159	0x38ecd2ba	0.00011292608
160	0xbd0689cf	-0.03284627
161	0x3d992136	0.074770376
162	0x3cf75700	0.030192852
163	0x3e0ef28f	0.13959716
164	0x3dc0826e	0.093998775
165	0x3c26960c	0.01016761
166	0x3d5b48a7	0.053536084
167	0x3dbcceb7	0.09219115
168	0x3dad35f5	0.08457557
169	0x3dab73e2	0.08371712
170	0x3d6857d6	0.056724392
171	0xbc9337c1	-0.017970921
172	0x3d9a3910	0.07530415
173	0x3de54748	0.111952364
174	0xbc5e9ea3	-0.013587627
175	0xbe0809ac	-0.1328494
176	0xbdc62a3c	-0.09676024
177	0xbdd036a0	-0.10166669
178	0xbd8b5ddb	-0.06805011
179	0x3d8a44da	0.06751414
180	0xbd17bf19	-0.03704748
181	0xbcba447c	-0.022737734
182	0xbe1106e4	-0.14162785
183	0xbc281f3a	-0.010261351
184	0x3caf1caf	0.021375982
185	0xbd892689	-0.06696803
186	0xbc91807e	-0.017761465
187	0xbd145a62	-0.03621901
188	0xbbd0366b	-0.0063541434
189	0xbd33bd41	-0.04388166
190	0x3cbda634	0.02315054
191	0x3d569078	0.05238387
192	0x3d5368d0	0.05161363
193	0x3c665218	0.014057659
194	0xbdd8e461	-0.10590435
195	0xbcba7ff6	-0.022766095
196	0xbc846557	-0.016161604
197	0xbc9fdace	-0.019513514
198	0x3dcffd16	0.10155694
199	0x3c79cb16	0.015246173
200	0x3d24827e	0.04016351
201	0x3d5ca1eb	0.053865355
202	0xbe10304c	-0.14080924
203	0x3d8413a3	0.06449058
204	0x3cbdbb43	0.023160582
205	0xbcaa6103	-0.020798212
206	0x3b8b3f56	0.0042494936
207	0xb998bfb8	-0.0002913454
208	0x3928abc0	0.0001608571
209	0xbd4b5d0c	-0.049649283
210	0x3cbb5560	0.022867858
211	0xbd05d6d7	-0.03267559
212	0x3da051df	0.07828116
213	0xbbbb909b	-0.0057240254
214	0xbc90843c	-0.01764118
215	0xbcb751f7	-0.022377951
216	0x3df9484e	0.12171994
217	0x3d5af9eb	0.053460997
218	0xbdf1eb34	-0.118124396
219	0xbc2c331f	-0.010510235
220	0x3ccf7dca	0.025328536
221	0x3c48a538	0.0122464225
222	0x3c2ad99f	0.0104278615
223	0xbd1702e4	-0.03686799
224	0xbdfec8ac	-0.12440619
225	0x3e0d2972	0.13785341
226	0x3c960d87	0.018316997
227	0x3e018fb8	0.1265248
228	0x3d3b4a9a	0.045725442
229	0x3cd1b8ce	0.025600817
230	0x3d53fd7e	0.05175542
231	0xbddb23b3	-0.107001685
232	0x3cb7efc2	0.022453193
233	0xbd599957	-0.053124752
234	0x3dbfa2cc	0.09357223
235	0xbd24b765	-0.04021396
236	0xbc9e1343	-0.019296294
237	0xbde9f80c	-0.11424264
238	0x39c0b60f	0.00036756738
239	0x3d3886da	0.04505048
240	0x3dcc2be9	0.09969313
241	0xbdccdac6	-0.10002665
242	0x3cbe0497	0.023195548
243	0xbdb63281	-0.088963516
244	0xbdb86bf2	-0.09004964
245	0x3d79bb23	0.060969483
246	0x3d4d948d	0.050190497
247	0x3da73012	0.081634656
248	0xbdb667c0	-0.089065075
249	0x3e3e0773	0.18557529
250	0xbcbfbe7c	-0.02340626
251	0x3d817a62	0.06322171
252	0x3c6c74a8	0.01443211
253	0xbdd4ebab	-0.103965126
254	0x3cfa9ce5	0.030592391
255	0xbd00bbbc	-0.031429037

model.cnn.6.bias f4 [32]
0	0xbc09a841	-0.008401931
1	0x3c8e3a0d	0.017361665
2	0xbd9ff121	-0.078096636
3	0x3db179d5	0.08665816
4	0xbd2c01d1	-0.04199392
5	0xbddb9f56	-0.1072375
6	0x3d982d42	0.07430507
7	0x3dbf1c7b	0.09331604
8	0x3db32895	0.08747975
9	0x3d0762dc	0.033053264
10	0x3d1a0119	0.037598703
11	0xbc9f010f	-0.019409684
12	0x3ceee9e4	0.029164262
13	0xbdcd33b4	-0.10019627
14	0x3d14d049	0.03633145
15	0xbdd76aae	-0.105183944
16	0xbd675924	-0.056481495
17	0xbcb90002	-0.022583012
18	0x3d90616c	0.07049832
19	0xbd90c7f4	-0.07069388
20	0x3dce5409	0.10074622
21	0x3b93c1a4	0.0045091677
22	0x3d8a5e67	0.06756287
23	0x3b0da63e	0.002161398
24	0x3daa7091	0.083222516
25	0xbdea83d8	-0.114509284
26	0xbddd6072	-0.10809411
27	0xbd96ce20	-0.07363534
28	0x3d7bf7e1	0.061515693
29	0x3ca2c321	0.019868435
30	0x3dd1b44e	0.102394685
31	0x3dd53776	0.10410969

model.cnn.7.weight f4 [32]
0	0x3f8d5120	1.1040382
1	0x3f98ca3c	1.1936717
2	0x3f8fe138	1.1240606
3	0x3f91286b	1.134046
4	0x3f9d6e1c	1.2299228
5	0x3f9589a4	1.168263
6	0x3f974087	1.1816567
7	0x3f8ff799	1.1247436
8	0x3f8d8921	1.1057473
9	0x3f8c7201	1.0972291
10	0x3f9295ce	1.1451967
11	0x3f941ef0	1.1571941
12	0x3f91d815	1.1394068
13	0x3f85bedf	1.0448874
14	0x3f87d796	1.0612667
15	0x3f8f985e	1.1218374
16	0x3f92111f	1.1411475
17	0x3f92d78f	1.1472033
18	0x3f86f6a2	1.0544016
19	0x3f8e6475	1.1124407
20	0x3f892d55	1.0716959
21	0x3f84fe12	1.0390036
22	0x3f87abb2	1.0599272
23	0x3f895fa4	1.0732312
24	0x3f931024	1.1489301
25	0x3f89b374	1.075789
26	0x3f9125ca	1.1339657
27	0x3f8a8796	1.0822628
28	0x3f8b9c34	1.0907044
29	0x3f9418ab	1.1570028
30	0x3f923ecc	1.1425414
31	0x3f95cb13	1.1702598

model.cnn.7.bias f4 [32]
0	0x3d4e8dce	0.050428204
1	0x3e0533fc	0.13008112
2	0x3d74dda8	0.0597817
3	0x3d5ec7ca	0.054389752
4	0x3d899bdb	0.0671918
5	0x3ce37c28	0.027769163
6	0x3d2fa770	0.04288429
7	0x3d126823	0.035743844
8	0x3d549baa	0.051906265
9	0x3d2fdb19	0.042933557
10	0x3d01f40d	0.031726886
11	0xbc4607e6	-0.012086844
12	0x3c977c4c	0.018491887
13	0xbc626358	-0.013817631
14	0x3c119964	0.008886669
15	0x3d247d77	0.040158715
16	0xbc576429	-0.013146439
17	0x3dd605c5	0.10450319
18	0x3ad8266b	0.0016490942
19	0x3bceaee7	0.006307471
20	0x3d4691dd	0.04847895
21	0xbc2cca8d	-0.010546339
22	0xbd0c7c16	-0.034298025
23	0x3d5d8685	0.054083366
24	0x3d7e16d0	0.062033474
25	0xbc106793	-0.0088137565
26	0x3d2be467	0.04196587
27	0x3d00b1f9	0.031419728
28	0x3d2dbea4	0.042418137
29	0x3d6dab75	0.058024842
30	0x3d5e6b16	0.054301344
31	0x3c2aae6f	0.010417565

model.cnn.7.running_mean f4 [32]
0	0xbc880948	-0.016605988
1	0xbeb82801	-0.3596802
2	0x3c24f63f	0.010068475
3	0xbe79f97e	-0.2441158
4	0x3c8b4c04	0.01700402
5	0x3ef5e238	0.48024154
6	0x3e9c78f1	0.3056102
7	0xbe31a943	-0.17349724
8	0x3e878c26	0.26474112
9	0xbeb9f125	-0.3631679
10	0xbe82f14f	-0.2557473
11	0x3f004d34	0.501178
12	0x3f14bd5c	0.5810144
13	0x3d10dbbf	0.035365816
14	0xbe5ab205	-0.21356972
15	0xbe377d98	-0.17919004
16	0x3d680159	0.05664191
17	0xbf019974	-0.50624776
18	0xbd9ded39	-0.07711262
19	0xbe98f10a	-0.29871398
20	0xbe675e48	-0.22594559
21	0x3e0b32b1	0.13593556
22	0x3ee43564	0.44571984
23	0xbebc55c4	-0.36784184
24	0xbda11f16	-0.07867257
25	0xbe9ca449	-0.3059409
26	0x3d6575de	0.05602061
27	0x3d9462b3	0.07245388
28	0xbe85a803	-0.26104745
29	0xbe8d2a4c	-0.27571332
30	0xbe1893aa	-0.1490008
31	0x3ece5455	0.40298715

model.cnn.7.running_var f4 [32]
0	0x3d8ab19e	0.06772159
1	0x3da7ca21	0.0819285
2	0x3da8695e	0.08223222
3	0x3dc27cb0	0.094964385
4	0x3d343908	0.0439997
5	0x3dec91a9	0.1155122
6	0x3d606014	0.054779127
7	0x3dc1b33d	0.09458015
8	0x3dd408af	0.10353219
9	0x3e517e0c	0.2045824
10	0x3da2d9a7	0.0795167
11	0x3dcaaadf	0.09895872
12	0x3dbff5f8	0.09373087
13	0x3d25f5cb	0.04051761
14	0x3d88f4c6	0.06687312
15	0x3d3259cd	0.043542672
16	0x3d63167a	0.055441357
17	0x3da9efaa	0.082976654
18	0x3d8c803b	0.068603955
19	0x3d7b888d	0.06140952
20	0x3ee50f53	0.44738254
21	0x3d7f377c	0.062308773
22	0x3d82de17	0.063900165
23	0x3dc30b8f	0.09523689
24	0x3d56b32f	0.052416977
25	0x3d400e76	0.04688879
26	0x3da76333	0.081732176
27	0x3dbe6fa3	0.09298637
28	0x3f0111cf	0.504178
29	0x3d9de6d6	0.07710044
30	0x3dffda9e	0.1249287
31	0x3dd86492	0.10566057

model.cnn.9.weight f4 [1, 32, 5]
0	0xbcb40fdc	-0.021980219
1	0xbe0f07b3	-0.13967781
2	0xbdad61a9	-0.08465893
3	0xbe063d5d	-0.13109346
4	0xbbbb11a0	-0.005708888
5	0x3de8da78	0.113697946
6	0x3d7bb040	0.061447382
7	0x3d9f4db7	0.07778495
8	0xbe05585e	-0.1302199
9	0xbe4688f2	-0.19388178
10	0x3e1a489d	0.15066762
11	0x3e0d91db	0.1382517
12	0x3dfe006f	0.124024265
13	0x3d96980e	0.07353221
14	0x3cc337b7	0.023830278
15	0x3c12d589	0.008962044
16	0xbd39c0c9	-0.04534987
17	0xbe1f157e	-0.15535542
18	0xbdde786f	-0.10862815
19	0xbd83dc21	-0.06438471
20	0xbd0a19fb	-0.033716183
21	0xbe26867b	-0.16262238
22	0xba9dad3c	-0.0012029777
23	0x3e1576a9	0.14596047
24	0xbcbeac39	-0.023275482
25	0xbe257879	-0.16159238
26	0xbe0bb816	-0.13644442
27	0xbd771e15	-0.060331423
28	0xbe213994	-0.1574462
29	0xbc247686	-0.010038024
30	0xbe07b3bb	-0.13252155
31	0xbb5d2a5f	-0.003374718
32	0x3d40ded7	0.047087517
33	0xbcfa446b	-0.030550202
34	0xbe256d82	-0.16155055
35	0xbc3b6987	-0.011438734
36	0xbe147eb8	-0.14501464
37	0xbdf0cc82	-0.11757757
38	0x3da712f3	0.08157911
39	0xbd8efa6e	-0.069813594
40	0xbce90a33	-0.028447246
41	0xbe367c03	-0.17820744
42	0xbdc0b1a7	-0.094088845
43	0xbcafc618	-0.021456763
44	0x3d359a85	0.044336814
45	0xbd37fcfb	-0.044918995
46	0xbdd9de77	-0.10638135
47	0xbd5c12ac	-0.053728744
48	0xbe1444d1	-0.14479376
49	0xbdeab20e	-0.114597425
50	0xbc36ad07	-0.011149651
51	0x3cd297f6	0.025707226
52	0xbe25057e	-0.16115376
53	0x3d8551cb	0.065097414
54	0x3de63169	0.11239893
55	0xbe10b02b	-0.14129703
56	0xbdb44c94	-0.088036686
57	0xbdc2f737	-0.09519809
58	0x3ca3c966	0.019993495
59	0xbe3d655b	-0.18495695
60	0xbe3c40f3	-0.18384151
61	0xbc3708ba	-0.011171514
62	0xbddd21fb	-0.10797497
63	0xbe05e1ec	-0.13074464
64	0xbd8d06aa	-0.06886037
65	0xbd831224	-0.063999444
66	0x3d1f3bc4	0.038875356
67	0x3d06e3b2	0.03293199
68	0xbd70c14a	-0.058778085
69	0xbd5a949e	-0.05336439
70	0x3d4148cb	0.04718856
71	0x3d118ccd	0.03553467
72	0x3d96e883	0.07368567
73	0x3e0edd93	0.13951711
74	0x3db67dce	0.08910714
75	0x3dfdefac	0.123992294
76	0x3b4a3651	0.003085513
77	0xbd5d20b5	-0.05398627
78	0xbd8c72cb	-0.068578325
79	0x3cdca1d6	0.026932638
80	0xbda5f1da	-0.0810277
81	0x3d874a4e	0.06605969
82	0x3d9d787d	0.07688997
83	0xbe26096e	-0.16214535
84	0xbd1379e6	-0.036004923
85	0xbd8f5ab2	-0.06999721
86	0xbd0f56c8	-0.03499487
87	0xbdaddd40	-0.08489466
88	0x3db9eb32	0.09078063
89	0x3e2a46c5	0.16628559
90	0x3dc6b949	0.09703309
91	0x3d331ecf	0.043730553
92	0x3df69edd	0.120420195
93	0x3d4a56ca	0.049399175
94	0x3dca84b6	0.09888594
95	0xbd02e779	-0.03195903
96	0xbcd72a2d	-0.026265228
97	0x3c1f4057	0.00971993
98	0x3ddfdc16	0.1093065
99	0x3de0a85b	0.10969611
100	0xbded8786	-0.11598115
101	0xbe0adbbf	-0.13560389
102	0xbe17d644	-0.1482783
103	0xbde6f019	-0.11276264
104	0xbcafedad	-0.021475637
105	0xbcc64fa9	-0.024207907
106	0xbd8ca8d2	-0.068681374
107	0x3d1036cd	0.035208512
108	0xbd48305d	-0.048874248
109	0x3d2fa5fd	0.042882908
110	0xbd3ff3ad	-0.046863247
111	0xbdef68e4	-0.11689928
112	0x3cc7fe21	0.02441317
113	0x3cfcbf11	0.030852826
114	0x3d5429ee	0.0517978
115	0xbca69820	-0.02033621
116	0x3a14f70f	0.00056825666
117	0xbe01407b	-0.12622254
118	0xbd655671	-0.05599064
119	0xbdef57a1	-0.11686636
120	0xbe08fbd0	-0.13377309
121	0xbdd2669e	-0.10273479
122	0x3cbbdd50	0.022932678
123	0x3d03268e	0.03201919
124	0xbda2891b	-0.07936307
125	0x3da8fac9	0.082509585
126	0xbdb2d3a0	-0.087317705
127	0x3ddf90f7	0.10916322
128	0x3da87abf	0.08226537
129	0x3db4d282	0.08829214
130	0xbdf718a7	-0.12065249
131	0x3cf3cb52	0.029760037
132	0xbe04762b	-0.12935703
133	0x3cffde49	0.031233924
134	0xbdaea81e	-0.085281596
135	0xbe00dde2	-0.12584642
136	0xbdb9252d	-0.09040294
137	0xbd4e5efb	-0.05038355
138	0xbe0278d4	-0.12741405
139	0xbdc7b25b	-0.097508155
140	0x3c5f420d	0.013626588
141	0xbdd3eb0f	-0.10347568
142	0xbe0a2bcd	-0.13493271
143	0xbcb0d92d	-0.021587932
144	0xbdcf624b	-0.1012617
145	0xbc3f57e8	-0.011678673
146	0x3d3b05e6	0.045659922
147	0xbe284cbd	-0.16435523
148	0xbdce98f7	-0.100877695
149	0xbd0c8dfe	-0.0343151
150	0xbd42a267	-0.04751816
151	0xbd7700b7	-0.060303416
152	0xbd0a4bb6	-0.03376361
153	0x3cfff561	0.031244935
154	0xbe30c444	-0.1726237
155	0xbe42de58	-0.1903013
156	0xbe06a90c	-0.13150424
157	0xbe14efcc	-0.145446
158	0xbe12087c	-0.14261049
159	0xbe159185	-0.14606293

exp_avg f4 [8, 3, 5]
0	0x3a20e682	0.0006137864
1	0xbabcc0d0	-0.0014400724
2	0x3b1dc48e	0.0024073455
3	0x3adc25b9	0.001679591
4	0x394911f0	0.00019175536
5	0xbc814899	-0.015781688
6	0x3c4d6703	0.012536767
7	0x3a99045c	0.0011674273
8	0xbbe311c1	-0.0069296067
9	0x3b994862	0.004677818
10	0x394ed08b	0.00019723379
11	0xb7e65396	-2.745706e-05
12	0xb77c7ed5	-1.5049901e-05
13	0x391302bf	0.00014020035
14	0x3739f982	1.1084952e-05
15	0xbba343b3	-0.0049824356
16	0x3ab03fc6	0.001344674
17	0x3a3c8904	0.0007192048
18	0xbc23afd9	-0.009990656
19	0x3a205f74	0.0006117739
20	0x3d10ce7f	0.03535318
21	0xbd0aa515	-0.03384884
22	0xbcb59945	-0.022167811
23	0x3d9b855b	0.07593795
24	0xbbe67c32	-0.007033848
25	0x38882875	6.492521e-05
26	0x3a21fa95	0.0006179002
27	0x3a606866	0.00085604785
28	0x3a234f1a	0.00062297436
29	0x39670cf6	0.00022034705
30	0xba8d4e66	-0.0010780811
31	0xbb41789d	-0.0029521354
32	0xbb2f5a89	-0.0026756844
33	0x3b127fcf	0.0022354012
34	0xbab8907a	-0.0014081143
35	0xbcd4b8df	-0.02596706
36	0xbc7a4481	-0.015275122
37	0x3c96390a	0.018337745
38	0xbb4f28e1	-0.003161006
39	0xbc9e4d85	-0.019324074
40	0x399436a8	0.00028269482
41	0x38a148c2	7.6906304e-05
42	0x36fb734b	7.493805e-06
43	0x38afa755	8.375818e-05
44	0x3908eb09	0.00013057528
45	0x3b304e8f	0.0026902293
46	0x3b6b77fc	0.003592967
47	0x3aa2dccc	0.0012425422
48	0xb9ff887c	-0.0004873908
49	0x3abc2954	0.0014355578
50	0x3c89158f	0.016733913
51	0xbc1df401	-0.009640695
52	0xbad55738	-0.0016276604
53	0x3ad55e89	0.0016278784
54	0x3cb1937e	0.021676775
55	0x38a23424	7.734474e-05
56	0x39186c2f	0.00014536151
57	0x394ea218	0.00019706076
58	0x3970894d	0.00022939332
59	0x382553b9	3.941704e-05
60	0x3a75bc7d	0.0009374095
61	0x3a8c7f52	0.0010719097
62	0xb99efb9a	-0.00030323566
63	0xba807822	-0.0009801427
64	0x3980ae79	0.00024544055
65	0xbbd154e3	-0.006388293
66	0xbb66cb16	-0.0035216263
67	0x3b3b30c8	0.0028563011
68	0x3b0b8dcc	0.0021294234
69	0x3a699408	0.0008910303
70	0x37deac9b	2.6544838e-05
71	0x38aa0e48	8.108892e-05
72	0x3851f2e3	5.005569e-05
73	0x381f1b2b	3.7933856e-05
74	0x3821c5ae	3.8569495e-05
75	0x3aed6dcd	0.0018114388
76	0x3b34767b	0.002753644
77	0x3b93b0a9	0.0045071435
78	0x3b817412	0.0039506042
79	0x3b25dd57	0.002530893
80	0xbc92b48e	-0.01790836
81	0xb91d5f19	-0.00015008113
82	0xbbc2df43	-0.005947025
83	0xbb9bc1f7	-0.004753347
84	0x3c82b9ce	0.01595774
85	0x394be27e	0.00019443964
86	0x389c7b81	7.461664e-05
87	0x38dee3a6	0.00010628188
88	0x39aa3803	0.0003246666
89	0x39aee140	0.0003335569
90	0xba13c4b9	-0.0005636919
91	0x3a11a099	0.0005555242
92	0xbb0c003b	-0.0021362442
93	0xb9fbd96d	-0.00048036446
94	0x3a25c7d5	0.0006324028
95	0xbc0cadb6	-0.008586338
96	0x3c7efb8b	0.015562902
97	0xbc39beb6	-0.011336973
98	0x3c01ec8c	0.007929932
99	0x3c19977b	0.009374495
100	0xb981d666	-0.00024764537
101	0xb985a1be	-0.00025488244
102	0xb9e37b4b	-0.00043388674
103	0xba018601	-0.00049409276
104	0xb9eb7d2e	-0.0004491596
105	0x3c173ab0	0.009230301
106	0x3c1d1e69	0.00958977
107	0x3c5c78bd	0.013456521
108	0x3c54f850	0.012998655
109	0x3c3c1fe5	0.011482214
110	0xbc885e31	-0.016646476
111	0x3d9c6ed6	0.07638328
112	0xbd9b65d9	-0.07587785
113	0xbc5290c0	-0.012851894
114	0x3b20362e	0.0024446356
115	0x3a0d7cf0	0.000539734
116	0x39e54a2c	0.00043733546
117	0x3a048ec3	0.00050566735
118	0x39fd4959	0.0004831057
119	0x3a1fb1a1	0.00060918374

exp_avg_sq f4 [8, 3, 5]
0	0x3725e6fc	9.888547e-06
1	0x375b41ec	1.3068766e-05
2	0x370cec04	8.399602e-06
3	0x3713e2a2	8.81465e-06
4	0x3730631e	1.0513495e-05
5	0x3a28dcf6	0.0006441617
6	0x3a32e539	0.0006824318
7	0x3a6875e1	0.0008867663
8	0x39b03472	0.0003360841
9	0x39b046ce	0.0003362209
10	0x326943ae	1.3577774e-08
11	0x325fc2ee	1.302463e-08
12	0x3266bd05	1.343074e-08
13	0x32438262	1.13801395e-08
14	0x3243bdb6	1.1393629e-08
15	0x38950025	7.1049006e-05
16	0x388daeff	6.7559995e-05
17	0x38837c47	6.269715e-05
18	0x38b9c8b1	8.858869e-05
19	0x38ab53f9	8.1695565e-05
20	0x3bb0ea0c	0.0053989943
21	0x3bb74c09	0.005593781
22	0x3c13a782	0.009012105
23	0x3bc8b74e	0.0061253672
24	0x3b7eb542	0.0038865362
25	0x33c87222	9.3339864e-08
26	0x3423f026	1.5267923e-07
27	0x3446aaa3	1.8502264e-07
28	0x34128473	1.3645494e-07
29	0x33d0a25e	9.715289e-08
30	0x3736fdbd	1.0907123e-05
31	0x375fd60c	1.33416725e-05
32	0x372448fa	9.792153e-06
33	0x3726d1e8	9.943244e-06
34	0x370d9842	8.439705e-06
35	0x3a349fe6	0.0006890282
36	0x395603be	0.00020410024
37	0x3a631e42	0.00086638716
38	0x3acfd0a1	0.0015855023
39	0x3a794bc0	0.0009509884
40	0x326d6767	1.3818727e-08
41	0x3247fbf1	1.1640609e-08
42	0x329f130c	1.8518698e-08
43	0x323cf3e9	1.0998499e-08
44	0x321944e1	8.921433e-09
45	0x378043b0	1.5290309e-05
46	0x37691ca2	1.3894549e-05
47	0x37561dbe	1.2762319e-05
48	0x377c7ae1	1.50489805e-05
49	0x37775d1c	1.4744026e-05
50	0x3a1f9742	0.0006087908
51	0x39b810ce	0.00035107735
52	0x3a548f3e	0.0008108503
53	0x3a567653	0.0008181084
54	0x3a3a2971	0.0007101512
55	0x323feb67	1.11711875e-08
56	0x325b53ad	1.2766503e-08
57	0x32bcb48f	2.1968189e-08
58	0x32c0191b	2.2363158e-08
59	0x3274b2c7	1.42433185e-08
60	0x368ee48c	4.258536e-06
61	0x3680f87e	3.8436256e-06
62	0x3651ca61	3.1261227e-06
63	0x36668176	3.4348027e-06
64	0x367cf19f	3.7691568e-06
65	0x38b1216a	8.4462416e-05
66	0x38b9fea0	8.868915e-05
67	0x390d89bd	0.0001349812
68	0x390c9e37	0.0001341038
69	0x385ab213	5.2141095e-05
70	0x30b3237c	1.3034049e-09
71	0x312f92c3	2.5549276e-09
72	0x3100ff81	1.8771689e-09
73	0x30c29ff7	1.4160823e-09
74	0x30af26b4	1.2743926e-09
75	0x37843c00	1.5763566e-05
76	0x37809f99	1.5333108e-05
77	0x378e7864	1.698378e-05
78	0x37838d3f	1.568219e-05
79	0x37546d8f	1.2661693e-05
80	0x39cd55d6	0.000391646
81	0x39fb0c94	0.00047883822
82	0x39e707fa	0.00044065696
83	0x399f36cd	0.00030367673
84	0x399e6800	0.00030213594
85	0x34173fa9	1.408613e-07
86	0x342a73a1	1.587455e-07
87	0x342bf6a2	1.601534e-07
88	0x34222ee9	1.5104492e-07
89	0x3419f900	1.4339821e-07
90	0x36bd0193	5.632822e-06
91	0x36d84dc0	6.446353e-06
92	0x36f4382d	7.2783064e-06
93	0x36d5d227	6.3723596e-06
94	0x36cc2f14	6.0851544e-06
95	0x39265ebc	0.00015866285
96	0x39597525	0.00020738372
97	0x39724e23	0.00023108027
98	0x38e27dab	0.00010799927
99	0x3969235f	0.00022233788
100	0x33c56c41	9.1932186e-08
101	0x33d42334	9.878423e-08
102	0x33edd273	1.1074453e-07
103	0x33f534eb	1.1418327e-07
104	0x33e50658	1.06647974e-07
105	0x38aef659	8.3428524e-05
106	0x38bc1c7b	8.9698435e-05
107	0x38d48d1d	0.00010135232
108	0x38b7c798	8.763297e-05
109	0x38ab1b52	8.159004e-05
110	0x3a8da2a7	0.001080592
111	0x3afe6252	0.0019407964
112	0x3b4d6eb1	0.0031346495
113	0x3ae424e4	0.0017406014
114	0x3ad6c91f	0.0016386843
115	0x359db70c	1.1750685e-06
116	0x35aa1468	1.2671926e-06
117	0x35b2eeea	1.3331567e-06
118	0x35ab9be5	1.2785864e-06
119	0x359efb43	1.1845044e-06

exp_avg f4 [8]
0	0x2de403e1	2.5922322e-11
1	0xafbe9fa5	-3.4674233e-10
2	0xaf55e22b	-1.9452588e-10
3	0x2eaee2c2	7.952884e-11
4	0xacefe161	-6.8178106e-12
5	0xae0a994b	-3.151372e-11
6	0xae7d1b40	-5.7549743e-11
7	0xaee9926a	-1.06216216e-10

exp_avg_sq f4 [8]
0	0x1eaf71c8	1.8575905e-20
1	0x203217bf	1.5085043e-19
2	0x1eb6b640	1.9345376e-20
3	0x1ef03297	2.5431912e-20
4	0x1d4826b8	2.6489797e-21
5	0x1ece23e0	2.1825936e-20
6	0x1e3ca1ff	9.986137e-21
7	0x201c1912	1.3222009e-19

exp_avg f4 [8]
0	0xbaf62230	-0.0018778499
1	0x3ba009f9	0.0048840013
2	0x3ad6b381	0.0016380401
3	0x3b23a6e1	0.0024971294
4	0xba09a5e5	-0.00052508555
5	0x39912828	0.00027686474
6	0xbb64e56b	-0.0034926783
7	0xbb49c47b	-0.0030787278

exp_avg_sq f4 [8]
0	0x380a1745	3.2923435e-05
1	0x3863fe43	5.4357817e-05
2	0x37c22be6	2.3147044e-05
3	0x37b5272d	2.1595124e-05
4	0x376c471b	1.4083252e-05
5	0x38ef5d2a	0.00011413761
6	0x38351c1a	4.3179934e-05
7	0x38224c69	3.8694972e-05

exp_avg f4 [8]
0	0xbc170853	-0.009218293
1	0xbb1e1d65	-0.0024126407
2	0x3af4ff0a	0.001869173
3	0x3ac964a2	0.0015365074
4	0xb9d0b43e	-0.00039807142
5	0xbb8b68e7	-0.0042544487
6	0xb9b05571	-0.00033632995
7	0xbc593e3d	-0.013259468

exp_avg_sq f4 [8]
0	0x37e144a4	2.6854053e-05
1	0x3894e468	7.099734e-05
2	0x379cbfa2	1.8685885e-05
3	0x38009888	3.0659634e-05
4	0x378e3905	1.695427e-05
5	0x389aba5e	7.378006e-05
6	0x387ecc4f	6.0748596e-05
7	0x3985595f	0.00025434323

exp_avg f4 [16, 8, 5]
0	0xbbcd2b44	-0.006261261
1	0xbbe4c909	-0.006981973
2	0xbaf27449	-0.001849779
3	0xbb82774d	-0.003981507
4	0xbb744ac1	-0.0037276002
5	0xbbecccbe	-0.0072265556
6	0xbbc62438	-0.006046798
7	0xbb3b2cfb	-0.0028560746
8	0xb84fe540	-4.956615e-05
9	0xb984bb31	-0.0002531647
10	0xbb2c4e3e	-0.0026291753
11	0xbb16eab4	-0.0023028078
12	0xbafa2166	-0.001908344
13	0x38b57621	8.652756e-05
14	0xbb923d61	-0.0044628833
15	0xba5afc97	-0.0008353679
16	0xbbe2578c	-0.006907409
17	0xbb26fbf1	-0.0025479759
18	0xbbe32737	-0.006932165
19	0xbb1e4d75	-0.0024155055
20	0xbb475b3c	-0.003041937
21	0xbbc9fd87	-0.006164256
22	0xbb237a61	-0.002494477
23	0xbb16c3f6	-0.0023004985
24	0xbbb3772f	-0.0054768543
25	0xbc03316e	-0.00800739
26	0xbac29c0c	-0.0014847531
27	0xbafd39d7	-0.0019319606
28	0x38cf4f93	9.885351e-05
29	0xbb4efb23	-0.0031582795
30	0xbc00a68b	-0.007852207
31	0xbbce13f8	-0.0062890016
32	0xbb830ff4	-0.0039997045
33	0xbb0099f8	-0.0019623023
34	0xbaa4208f	-0.001252191
35	0x3a87b2c3	0.0010352958
36	0xba86a15b	-0.0010271476
37	0x3b5c2878	0.0033593457
38	0xbb5d8f08	-0.0033807177
39	0xbb83f9a4	-0.004027562
40	0xbacbd132	-0.0015550016
41	0xb9b882c6	-0.0003519265
42	0xbb2f925c	-0.0026790118
43	0xbbcb5a14	-0.0062058065
44	0xbbd2e9ea	-0.006436576
45	0xbbb7eca1	-0.005612925
46	0xbb52ac85	-0.0032146287
47	0xbb227603	-0.0024789579
48	0xbba46b07	-0.0050176415
49	0xbbe0f2c4	-0.0068648774
50	0x381911c6	3.6494595e-05
51	0xbb1287be	-0.002235874
52	0xbaaf1f96	-0.0013360854
53	0xbb468b1c	-0.0030295318
54	0xbba9a446	-0.0051770536
55	0xba814d9f	-0.0009865052
56	0xba836cfc	-0.0010026987
57	0x3a6f4056	0.0009126713
58	0xbb7984df	-0.0038073582
59	0xbb0162ae	-0.0019742656
60	0xbb0a2d6f	-0.002108421
61	0x3b405a06	0.0029350533
62	0xbb3587b8	-0.0027699303
63	0xbb2f383b	-0.0026736397
64	0xba7eeecc	-0.00097249146
65	0xba82b425	-0.00099719
66	0x3b3c7913	0.002875869
67	0xb9921a11	-0.0002786671
68	0xbb32e37b	-0.0027296233
69	0xbbf7110b	-0.0075398735
70	0x39b29aa3	0.0003406602
71	0xb986afe6	-0.00025689526
72	0x398509d1	0.0002537505
73	0xba88da8e	-0.0010441111
74	0xbbb14cde	-0.0054107746
75	0x3aba8280	0.0014229566
76	0x3b27c73f	0.0025600938
77	0x3ab356fe	0.0013682542
78	0xb9de353f	-0.0004238281
79	0x3b107dfb	0.0022047746
80	0xbb51919f	-0.0031977666
81	0xbb613eb5	-0.0034369652
82	0x3aa274c6	0.001239442
83	0xba0e9361	-0.0005438831
84	0xbb4fedd8	-0.003172746
85	0xbabb4e0d	-0.0014290229
86	0xbb53dceb	-0.0032327722
87	0x384bc893	4.858577e-05
88	0x38d2ca8b	0.00010051307
89	0xbb8fb531	-0.0043856134
90	0xba3c29fe	-0.0007177888
91	0x3a7750c1	0.00094343355
92	0xbb42f801	-0.0029749873
93	0x39e592f2	0.00043787766
94	0xba409283	-0.00073460507
95	0xba1c3c67	-0.00059599284
96	0xbb32ad70	-0.0027264021
97	0xba964acd	-0.0011466384
98	0xbb701b51	-0.0036637376
99	0xbaf426ba	-0.0018627264
100	0xbb336c9b	-0.0027377966
101	0x39d58535	0.00040725773
102	0x3b0e4457	0.0021708214
103	0xbb956e9a	-0.004560304
104	0x3a744176	0.0009317616
105	0xbb5ca767	-0.0033669116
106	0xbb0b927b	-0.0021297026
107	0x3b0f0036	0.0021820194
108	0x3b835d14	0.0040088985
109	0xba3ac74c	-0.00071250345
110	0x3a65a1e2	0.0008759779
111	0xbb9227b5	-0.0044603
112	0x3a3253f9	0.0006802674
113	0x3b3772f1	0.0027992094
114	0x3ac7f321	0.0015254953
115	0x3adaab73	0.0016683176
116	0x3af8f4c7	0.0018993848
117	0x3b1abf2b	0.002361248
118	0xbb84f583	-0.0040575876
119	0x3b3ace16	0.0028504184
120	0xb995118c	-0.00028432568
121	0x3b1cc099	0.0023918508
122	0x3aae90de	0.001331832
123	0xbb2e420a	-0.0026589655
124	0xbaf1eab8	-0.0018456792
125	0xba967266	-0.0011478185
126	0x3adc62c4	0.0016814102
127	0x3b9b08f1	0.0047312905
128	0x3ac935fc	0.0015351172
129	0xba58d7d8	-0.00082719093
130	0xba74a791	-0.00093328307
131	0xbbab9f66	-0.0052375076
132	0x3afb77cb	0.0019185481
133	0x3ad145aa	0.0015966196
134	0x3a15e0aa	0.00057173765
135	0xbb4fd8e5	-0.0031714973
136	0x3b414606	0.00294912
137	0x3b9bb91e	0.0047522923
138	0x3b4704a5	0.0030367759
139	0x3baef028	0.0053386874
140	0xba71a529	-0.0009218031
141	0xb9ebed84	-0.00044999656
142	0xbae05c1b	-0.0017117293
143	0x3a40e92b	0.00073589635
144	0xb9f9f338	-0.00047674193
145	0x39894952	0.00026185304
146	0x3ace81c5	0.0015755227
147	0x3b08395f	0.002078615
148	0x3afdcbd4	0.0019363114
149	0xbb950ccb	-0.004548644
150	0x3ad53f2a	0.0016269435
151	0xba46392d	-0.00075616204
152	0x3a92f011	0.0011210461
153	0x3ac03abd	0.0014665943
154	0xbb7a8635	-0.0038226966
155	0xbb99eee1	-0.004697666
156	0x3afcd6b8	0.0019290065
157	0x3b07ef24	0.0020741904
158	0x3b084b63	0.0020796887
159	0x3b15cd56	0.0022857985
160	0x3c6994d5	0.014256676
161	0x3b097684	0.0020975182
162	0x3b8f55a2	0.004374222
163	0x3c3880cf	0.011261179
164	0x3bc57f73	0.006027156
165	0x3bfb6901	0.0076724296
166	0x3b3d7ab4	0.0028912248
167	0x3c052fd5	0.00812908
168	0x3c5befac	0.013423841
169	0x3c224d47	0.00990612
170	0x3c23d7d7	0.010000191
171	0x3c61a3ca	0.0137719605
172	0x3984fe36	0.00025366404
173	0x3c4bdadd	0.012442318
174	0x3cad2533	0.021135902
175	0x3b8d1964	0.0043060053
176	0x3b2fad89	0.0026806316
177	0x3bf4067c	0.007447062
178	0x3c2bc719	0.01048448
179	0x3b78ae0d	0.003794554
180	0xbb52f902	-0.0032191877
181	0x3c151d9a	0.009101296
182	0x3c848d5a	0.016180683
183	0xba98720f	-0.0011630672
184	0x3b84b48a	0.0040498422
185	0x3c089ff6	0.008338919
186	0xbafe557d	-0.001940414
187	0xb95bf434	-0.0002097644
188	0x3c165a06	0.009176737
189	0x3c770ea3	0.015079173
190	0x3c2d0ec9	0.010562607
191	0x3b30e79b	0.0026993516
192	0x39c04dd5	0.00036679083
193	0x3bf732e6	0.0075439094
194	0x3c7c9af8	0.015417807
195	0xb913ab57	-0.00014082842
196	0x3b88a80e	0.0041704243
197	0x3c258912	0.010103481
198	0x3b21a062	0.0024662246
199	0xbbc87fbe	-0.0061187437
200	0x3a73f126	0.0009305648
201	0x3af58b8e	0.0018733607
202	0x3bea3e71	0.007148557
203	0x3b016b98	0.0019747969
204	0x3b4c012f	0.0031128635
205	0x3aaa292d	0.0012982242
206	0x3baa503e	0.005197554
207	0x3bbe985c	0.0058165025
208	0x3b6aaace	0.0035807374
209	0x3aaa8716	0.001301023
210	0x383faad5	4.569705e-05
211	0x3a048e62	0.0005056617
212	0xbba278b6	-0.0049582375
213	0x3ba7abb7	0.0051169056
214	0xb9697ad5	-0.0002226637
215	0x3ad5088f	0.0016253161
216	0xbb839cc0	-0.004016489
217	0x3b9781b4	0.004623616
218	0x390d70c7	0.0001348882
219	0x3c0b273f	0.008493244
220	0xbb3a7f4e	-0.0028457227
221	0x3ba4f65c	0.005034251
222	0x3b2c245e	0.0026266794
223	0xbb1452d5	-0.002263238
224	0x3bd9f7a2	0.0066518346
225	0x3b1701bd	0.0023041808
226	0x3b8e1341	0.0043357913
227	0x3b866478	0.0041013323
228	0x3bb145f7	0.005409952
229	0x3a3f8a42	0.0007306674
230	0x3af2a134	0.0018511177
231	0x3b4693e8	0.0030300561
232	0x3bad2f1e	0.005285158
233	0x3b9fe73b	0.0048798597
234	0x3b0c0f8e	0.0021371576
235	0xbaa0dc26	-0.0012272641
236	0xbb6e3502	-0.0036347513
237	0x3b9a6ef9	0.004712936
238	0xbba42d54	-0.0050102863
239	0x3b11f656	0.0022272072
240	0x3af365f4	0.0018569813
241	0x3a78cd53	0.0009491045
242	0x39aae1a2	0.00032593036
243	0x3a20e922	0.0006138255
244	0x3a6ce882	0.0009037332
245	0x3b9722ad	0.004612288
246	0x3aaec063	0.0013332482
247	0x3a98274c	0.0011608391
248	0x3a38fa13	0.0007056307
249	0x3a4513e6	0.0007517919
250	0xba641101	-0.00087000435
251	0x3b42e1f2	0.0029736725
252	0xba845301	-0.0010095538
253	0xbb2fe325	-0.002683827
254	0xbb0a8ea3	-0.0021142147
255	0x3be60e52	0.00702075
