models/SD_UNet_15s--epoch=2-val_loss=0.56-train_loss=0.53.ckpt (torch, 268281 bytes, 121 tensors)

model.cnn_input_1.0.weight f4 [3]
00000000: f52d 883f a9e7 6b3f 28b0 713f
1.0639025 0.9215036 0.9440942

model.cnn_input_1.0.bias f4 [3]
00000000: 95ba 85bb 517f 373b bf84 e6ba
-0.00408108 0.002799947 -0.0017587169

model.cnn_input_1.0.running_mean f4 [3]
00000000: 5f21 b940 ce41 99be 180b 923d
5.7853236 -0.29933017 0.07131022

model.cnn_input_1.0.running_var f4 [3]
00000000: f211 1042 3e36 1545 3f35 783d
36.017525 2387.3901 0.060597654

model.cnn_input_1.1.weight f4 [8, 3, 5]
00000000: 80c6 00be f740 55be 51a8 f7bb 0d9a 59be
00000010: 818f 3fbe d17c ffbc 1336 9f3c eeb3 4dbc
00000020: 3f51 0e3e fabb 7a3d 7bc7 0b3d e6c0 133d
00000030: d766 0abe 774f 473e 406f 273d 52e7 593d
00000040: 4c30 233e 1a94 69be edb1 2e3d b1b5 bcbd
00000050: 4c7e 393e 136e ab3d b01c 393d e619 263e
00000060: 915d 283e 2a19 04bd 5fe6 26be 9b15 ddbd
00000070: d00d 3d3e ee86 50be b3ad 593d 507e 503e
00000080: 46d6 67be e70f 03be f3b1 40be 4376 663e
00000090: f49c 333e 3d87 a9bc cd30 b53d b2f1 ad3c
000000a0: bf80 2e3e e821 0c3e be37 373e 39f0 e03d
000000b0: 34fe c73c 7c2a 81be f51f 6f3d fa0f 53be
000000c0: 0d62 a3bc 4cd2 07bd 558a e1ba e905 423e
000000d0: ffeb 90be 2ac9 053d 6a15 08be dc61 3a3e
000000e0: 3edf 0f3e c904 8d3d 9151 e83d 4a12 67bd
000000f0: b156 6c3e a524 afbc 7e2c 68bc deec 1abe
00000100: 7b9d 5cbd 011e 533e 5548 533e 2c38 083e
00000110: be28 17bb 9ec1 d5bd 53db 7abd 0fe8 c43d
00000120: 9cca 68be d0dd ee3d d237 62be c57f 963e
00000130: 770e 8c3e e4af 1f3d 953b 8bbd 29e7 aebd
00000140: a3e3 9cbd b442 2cbe 24d9 59bd 5aa6 dd3c
00000150: 5785 efbd 46c9 45be e289 383e 244e 30be
00000160: 94be 93bd 31d8 5a3e b300 e73d a415 f7bd
00000170: 2215 8dbd 7935 59be 8d12 afbd 6922 a5bc
00000180: 7184 20be 3d68 07be eda9 fd3d 114f 023e
00000190: 2057 11bd 3e92 063d 4586 f03d 6c01 73be
000001a0: 21f0 993c ae25 bd3c 8d01 4ebe cc3a 8c3e
000001b0: 561d 853d 66c4 c43d 965e b6bc 2166 0fbe
000001c0: c398 83be c455 cfbc 7ffe c5bc e73a e7bd
000001d0: fe84 163d a7cf 32bc 83d0 743e 7555 0f3e
-0.12575722 -0.20825563 -0.0075579067 -0.21250172 -0.18707086 -0.031187447 0.019434964 -0.012555106
0.1389818 0.061214425 0.034125786 0.036072634 -0.13515793 0.19463907 0.04087758 0.05319912
0.15936393 -0.22810403 0.042650152 -0.092143424 0.18114585 0.08370604 0.045193374 0.16220817
0.16441943 -0.03225056 -0.16298817 -0.107951365 0.184623 -0.20363972 0.053144168 0.20360684
-0.22640333 -0.12799035 -0.18817882 0.22506051 0.17540342 -0.02069437 0.08847199 0.021233413
0.170413 0.13684809 0.17892358 0.10983319 0.024413206 -0.25227726 0.058380086 -0.20611563
-0.019944215 -0.03315954 -0.0017207364 0.18947567 -0.2830505 0.032662548 -0.13289419 0.18201393
0.14050004 0.06885678 0.113436826 -0.056413926 0.23079945 -0.021379778 -0.014170764 -0.1512942
-0.053861123 0.20616914 0.20633061 0.13302678 -0.0023065056 -0.1043732 -0.06124432 0.09614574
-0.2273354 0.11663401 -0.22091606 0.29394355 0.27354786 0.0389861 -0.06798474 -0.08540184
-0.07660606 -0.1682232 -0.053185597 0.027056862 -0.116953544 -0.19315061 0.18021348 -0.17217308
-0.07214084 0.21371533 0.1127943 -0.120646745 -0.068887964 -0.21211804 -0.0854846 -0.02015801
-0.15675522 -0.13223357 0.123859264 0.12725474 -0.03548348 0.03285431 0.1174436 -0.23731011
0.01879126 0.023089256 -0.20117779 0.27388608 0.06499736 0.096077725 -0.022261899 -0.14003803
-0.25702485 -0.02530945 -0.024169205 -0.112905316 0.036747925 -0.010913766 0.23907666 0.13997443

model.cnn_input_1.1.bias f4 [8]
00000000: abb4 00be add6 1f3d 0b0a 21be b6dd 58bc
00000010: 7f4b bdbd a7bd 573e 584c 323e 4c08 2f3e
-0.1256892 0.03902309 -0.15726487 -0.013236454 -0.09242915 0.2106844 0.17411935 0.17093009

model.cnn_input_1.3.weight f4 [8, 8, 5]
00000000: ba8f b1bd 587b 8abd 0026 293d 9c9f 84bd
00000010: 18c5 96bd 134d 2f3d 204a 48be d2c0 083e
00000020: b1ec 693d 0c5d cc3d 36d9 f23d 7ab2 053d
00000030: bf6f 783d 8569 943c 3b69 a6bd 073d 0c3e
00000040: d83b 0c3d 0c4b 913d 36d0 dd3d fc52 f63d
00000050: 682b afbd 6161 2d3b 6fcc d9bd 9073 59be
00000060: 3552 b23c 985f 05be 6967 cf3d b6dd 25be
00000070: 028b a13d 5df6 b43d 2f02 1e3e 33d6 073e
00000080: e7fc 13bd ad79 803c 3577 babd 9ed9 14be
00000090: a036 14be 8fc2 193e cdea 77bd ec8e c53d
000000a0: 15d8 0c3d c2ea 13be 7698 bf3c 9383 543d
000000b0: 4142 3cbd 750b 533d ab83 833d c224 d2bd
000000c0: 9cbe 7a3d 6f4c 99bc 791f 01be 8733 aebc
000000d0: 0214 dfbb 5c26 7c3c ad7b 16be d7ac e23d
000000e0: 5112 34bd 48fb 03be 7bea ecbd 9515 b7bd
000000f0: 08b6 2dbd 400e 00be 11b1 e53d fcd8 0e3c
00000100: ab8c d9bd 0c0c 883d 58d5 f0bd fb11 ba3c
00000110: c93d ee3d b975 1f3e e6aa 20bd 9c64 ee3d
00000120: edd9 1c3d c728 d4bd 8079 60bd 107a c8bd
00000130: a470 33bd 8fba 94bd c04f 493d 2677 f63d
00000140: 479a 04be a81a 0abd 8ade 4dbd 8337 5f3d
00000150: e645 56bd 328c 3b3c 4f29 243e aff8 47bd
00000160: d5c9 b2bd 3c1b 8a3d f401 a6bd eb6f db3d
00000170: 53a4 683c c428 9a3d db07 ab3d 25d2 2abe
00000180: 52fa d0bc 7008 a0bd 4d46 b23d f37c d8bd
00000190: a81e 063e c32d de3d d4a7 ac3c 8ae6 913d
000001a0: c202 c1bd 9dda 27bc 6e42 cabc d138 a73d
000001b0: 777c c2bd 590f 53bd 1d2c 453e 1fee fd3d
000001c0: 7a53 263e 3d2f 413c 33e6 123e 7c09 e7bc
000001d0: 665b 22be 37c2 7e3d 5720 813d 3012 a3bd
000001e0: 08cb 603d 958b 253e 84a0 cc3c 8fe4 2b3d
000001f0: 7dbb c23c fd4b b0bc c304 8ebc 2ec7 c5bc
00000200: 69f0 563c c3d5 ae3d d308 dfbd 7536 743d
00000210: c42e 02bd d240 a5ba 88d6 bc3d 95fe 713d
00000220: c4ab a03d d6ee 11bd daa1 9dbd 1889 15bd
00000230: 5366 6abd a972 5f3d 18a5 5f3d 2a04 3a3d
00000240: 6303 febd 737b b3bb be6a 2fbe 9ac3 e6bd
00000250: 6ee6 d33a 637f bd3d 57b3 303d 150c 0b3e
00000260: eec0 15bd 1500 b83d 3bf2 f2bd 718a cdbb
00000270: 18fe f23d 0a18 833d dacd 203e 0c97 e23c
00000280: 3b79 3e3e ddc6 3dbd b795 c03c 846f bbbd
00000290: 4842 123e ae1d 4cbd ed75 413d cfdc 523d
000002a0: 2bee 58bc a81e d03d ada0 fbbd 7d39 4c3d
000002b0: d2d9 7b3d 8ce7 17bd d505 cdbd 3c94 703d
000002c0: 32e6 893d 5f15 2e3e afce 4f3c 075a 383e
000002d0: 66be 363d 5a86 2e3e dc8c ccbd 7b8e ebbc
000002e0: 75f4 ce3c cb23 ea3d eff1 84bc f7c5 c6bc
000002f0: 01ae 82bd 7e26 9eba 0754 f43d 1d41 333e
00000300: 427b b5bd 3181 183e 873a 5abd faed 553c
00000310: 970e d7bd 5f3b bc3d 81d7 583d 845a 613d
00000320: a370 313e 48b7 2c3e 6b87 503d 494a ac3d
00000330: d328 acbd 8a58 bfbd baf2 063e 3d59 133e
00000340: 454b 1a3c 3b08 f03c 3872 63bd d51c ce3d
00000350: 35b2 e2bd 1bf7 cd3c 3003 9f3d 0f2e 66bd
00000360: 0ad4 953d 3ebb d53d a871 fe3d eba6 a6bd
00000370: 7b9f 62bd 0275 1ebd 8a5b 19bd 26a3 7fbb
00000380: d9a3 1abe de5d e6bc a425 713d 57b5 773d
00000390: 766e 0c3e f88e f8bc 8213 d13d 9805 5b3e
000003a0: 781e 543e 5372 7e3d c38e 803d cae5 41be
000003b0: 5c56 4bbd a33f 4c3d 4b7a e53c b702 46be
000003c0: 9583 25be e546 83bd e42b eabd 3ca0 843d
000003d0: 015b cabb 4a16 05be cc6f c0bd 8494 893d
000003e0: ed17 3e3e 5510 033e 0277 0e3c 5771 2c3e
000003f0: 60ba 403e f6c0 e63d 7ffb debd a11b 263e
-0.08669992 -0.06761807 0.041296005 -0.064757556 -0.073618114 0.042798113 -0.19559526 0.13354805
0.057110492 0.09978685 0.11857836 0.03264091 0.060653444 0.018116722 -0.0812554 0.13695155
0.03423676 0.07094392 0.10830729 0.12027547 -0.08553201 0.0026455747 -0.10634696 -0.2123549
0.021767715 -0.13024747 0.10127146 -0.16197857 0.07887842 0.088360526 0.1543052 0.13265304
-0.03612986 0.01568302 -0.09104768 -0.1453614 -0.14473963 0.15015624 -0.060526658 0.09646401
0.03438576 -0.14445022 0.023388129 0.05188329 -0.045961622 0.0515246 0.06421598 -0.10260917
0.061216936 -0.018713204 -0.12609662 -0.021264805 -0.006807805 0.015390005 -0.14695616 0.11068123
-0.04396278 -0.12888825 -0.11568161 -0.08939663 -0.042409927 -0.12505436 0.11215413 0.008718725
-0.106225334 0.06642923 -0.11759442 0.022713652 0.11632878 0.15572251 -0.03922548 0.116402835
0.038293768 -0.1035934 -0.05480337 -0.097889066 -0.043808594 -0.07262146 0.04914832 0.120344445
-0.12949477 -0.033716828 -0.050261058 0.0544963 -0.052312754 0.011446999 0.16031383 -0.048821148
-0.08729903 0.06743476 -0.08105841 0.10714706 0.014199334 0.07527307 0.08351108 -0.16681726
-0.025509987 -0.07814109 0.08704815 -0.10570707 0.13097632 0.10848572 0.02107612 0.0712405
-0.09424354 -0.010244993 -0.02468988 0.08165134 -0.09496396 -0.05152831 0.19255109 0.123989336
0.16242781 0.011791048 0.14345627 -0.028202765 -0.15855178 0.062196936 0.063049965 -0.07962453
0.054881126 0.16166528 0.024978884 0.041966017 0.023771042 -0.021520609 -0.017336255 -0.024142828
0.013118842 0.085368656 -0.10890355 0.059622247 -0.03178288 -0.0012607819 0.09220606 0.05908068
0.07845262 -0.035628162 -0.07696886 -0.036507696 -0.05722649 0.054552708 0.054600805 0.045414127
-0.1240299 -0.005477363 -0.17130563 -0.11267777 0.0016166696 0.09252813 0.04313978 0.13578828
-0.036560945 0.08984391 -0.11862608 -0.006272607 0.11864871 0.064010695 0.15703526 0.027659915
0.18600933 -0.04633223 0.02350889 -0.09152129 0.14283097 -0.049832992 0.047231603 0.05148011
-0.013240377 0.10162097 -0.12286506 0.049859513 0.061487027 -0.037086055 -0.10010878 0.058735117
0.067333594 0.1700034 0.012683555 0.18003093 0.04461517 0.17043439 -0.09987804 -0.028754463
0.02526305 0.11432608 -0.016228644 -0.024264319 -0.06380845 -0.0012065915 0.119300894 0.17505307
-0.088614 0.14893033 -0.053278472 0.013057226 -0.1050083 0.09191012 0.052939896 0.055017963
0.17328124 0.16866791 0.050910395 0.08412606 -0.08406224 -0.09343059 0.1317853 0.1438951
0.00941736 0.0293008 -0.05552885 0.10064093 -0.110691465 0.025142243 0.0776428 -0.05619627
0.07315834 0.10436104 0.12424022 -0.08137306 -0.055327874 -0.038685806 -0.037440814 -0.0039007156
-0.15101565 -0.028120931 0.058873788 0.060475674 0.13714013 -0.03034161 0.10208799 0.21388853
0.20714748 0.062120747 0.0627723 -0.18935314 -0.049642906 0.049865376 0.028012415 -0.19336973
-0.16163476 -0.064100064 -0.11434153 0.06475875 -0.0061753993 -0.12996784 -0.093963236 0.0671778
0.18563814 0.12799199 0.008695366 0.1684011 0.18821096 0.11267273 -0.10887813 0.16221477

model.cnn_input_1.3.bias f4 [8]
00000000: 5318 3c3d 24cf 333e bed3 b03b cac2 d6bc
00000010: ee9c d8bd dc46 283e 472d 233e 0ea7 313d
0.045921635 0.17559487 0.0053963354 -0.02621593 -0.10576807 0.1643328 0.1593524 0.043372206

model.cnn_input_2.0.weight f4 [8]
00000000: 3c83 7d3f defb 813f 6352 803f 355e 7e3f
00000010: 0e3e 7e3f c307 763f 4717 7e3f 149b 823f
0.9902837 1.0154989 1.0025142 0.993625 0.9931344 0.96105593 0.9925427 1.0203576

model.cnn_input_2.0.bias f4 [8]
00000000: 1ac8 cf3b 2fcd ae3c 3b94 143d 7e54 2abd
00000010: 34a6 03bd bb5d 8bbc 043a a3bc 7470 4bbc
0.0063409926 0.021338074 0.036274176 -0.041584484 -0.032140926 -0.017012468 -0.019925125 -0.012416948

model.cnn_input_2.0.running_mean f4 [8]
00000000: 9c50 703e 91e7 583e 4e5b 4b3e 362b 4d3e
00000010: 70d8 9b3e d71b 173f abde 0c3f 4cb3 923e
0.2346825 0.21182086 0.19859049 0.20036015 0.30438566 0.59026855 0.55027264 0.28652418

model.cnn_input_2.0.running_var f4 [8]
00000000: 26ad 4d3d e12a bc3c bb7d 053d e4f2 fa3c
00000010: 69e4 a23d a03a b63d d154 c33d a7e5 4d3d
0.050213955 0.022969665 0.03259061 0.030633397 0.07953722 0.088979006 0.09537662 0.05026784

model.cnn_input_2.1.weight f4 [16, 8, 5]
00000000: b3d6 35bd 00a8 003e f127 d8bd cea3 cbbd
00000010: 62ba 0bbd cf5b 8c3d 6e13 093e d5dd 1a3e
00000020: 12c6 94b9 43db 2bbd bd95 be3d b1bc 0ebe
00000030: bee5 10be 58b2 0fbe 7a9d cfbd 2387 083e
00000040: 903a e8bc b3ed 72bd 4489 033d c507 09be
00000050: 51e6 8abd 2093 5f3c 0361 87bd 9c92 16bd
00000060: 8a70 afbd b3ff af3d 1053 083e 4398 f33d
00000070: da08 e7bd bb08 ce3d c729 203e 049d 0cbd
00000080: c87a bdbc 50f8 133e fc56 883d bcea 00be
00000090: f228 033e ee86 26be f1fd f33c 7817 f3bd
000000a0: 9fec f53d 51cb 893d ba9d b5bd 1bcc a1bc
000000b0: f0c2 473b 3fec 18be 249d 203d e5e9 9fbd
000000c0: 53fd d53c 673f 13be b6bc a2bd ea4a 833b
000000d0: 5fc8 08be 82e6 d73d 720c 86bc 11f2 fd3d
000000e0: fdc7 e0bd 07cf febd d6ca f0bd 04b5 433d
000000f0: 3122 91bd 8646 af3b 8845 2cbe 1c1a dfbd
00000100: ce4d 69bb 302f 023e 882b 8e3d 7557 cbbc
00000110: bbbe 2abd c8b6 e2bd 074b 82bd b74c be3d
00000120: 2720 37bd 01dd 03bc 833d c63d 7d2e 073e
00000130: 1cd3 e2bd da62 84bd a6d9 773d a7f1 043c
00000140: cd87 75bd 1b1f c73d 482c b8bd 9824 49bd
00000150: 30c3 a03c 5939 113e 7172 b53d 5e54 c9bd
00000160: 30ed d9bd 9375 e8bc ead9 78bd cb52 133e
00000170: 529e d73d 8b41 063e 8552 9b3d 25c0 0abe
00000180: 0117 553c cab9 a3bd 0204 183e 4a10 0b3e
00000190: d671 6e3d b9a0 12be 689d aebd 721c 17be
000001a0: f814 08be cb8b 053e 45bf e1bd 8860 983c
000001b0: 0d8c d43d 9643 703d 5953 37bd ef15 483d
000001c0: bf00 c5bc f235 193d 3795 703d 3801 c0bc
000001d0: e756 5abd f0da ab3d 4fde c83d 2c02 b03d
000001e0: c348 023e 5759 2cbe 25b1 84bd 3ef5 aabd
000001f0: 37b8 b73d 85b2 2ebe 12d3 1f3d 7e3c c3bc
00000200: a828 07bd 6490 19be 63ba cf3d 94cb c63d
00000210: 6f1c fcbc 7b37 13be 9525 bcbd 7f68 173e
00000220: 736e 8cbd 071f 1dbe 6cc1 7fbd 5f6f cfbd
00000230: 469d a53d 6c04 ff3c d733 c2bc 6c11 cebc
00000240: 6cf4 17bd c46b 8d3d ecd2 47bd 2048 cebd
00000250: ade1 4e3d a5a5 d6bd 1a3e 8dbd 91bb 173e
00000260: 96a7 ab3d bdab c23d 1b76 bfbd 40bc afbd
00000270: 90a4 7ebb 38ef 84bd bf45 74bc 3462 3abd
00000280: dd84 bdbd f289 6b3d afe0 163d d3c4 e33d
00000290: 2076 0abe b15b a8bd af97 47bd 348e b5bd
000002a0: 8753 01be 9cb6 273d 6c08 de3d f744 75bb
000002b0: 7ec9 b83d f8d0 10bd 8e4c 21be c084 0dbe
000002c0: 7456 623c 5882 0abe 58d4 8d3c 7e2e 0e3e
000002d0: e633 053e 87ec a23d 5949 803d 5b1c 023c
000002e0: adff a13d 541c fd3b b5ac 7bbd 24ad 1ebd
000002f0: 1156 2c3e 2e8d 8a3c 151e ed3d 8fe7 af3c
00000300: 7c78 a83d 9eb6 10be 4a2f 443d 6866 1a3e
00000310: 3f1a 173d ab38 e93b cdb7 d23d 8a7f ef3c
00000320: 265e a53d 2832 c53c 68c0 1a3d e3b2 16be
00000330: 78b7 30bc c801 1abe df56 4e3d 1dde e43d
00000340: ca23 b2bd baef 943c 7736 14be e870 093e
00000350: 3bbf c7bc 144f e4bd eac9 333d 2e68 cf3d
00000360: 0ecf 1f3d ad10 05be ec92 d6bd 58e5 e13d
00000370: 909d 153e d12e 4c3d 8b44 03be 713f 1cbe
00000380: 7c3a c23d 761c e93d d0c7 0a3d 9867 11be
00000390: 2c32 9ebc 7747 753d b724 0c3e ac1d e33d
000003a0: 4eef dcbd 779a 6abd e715 f93d 20ef 913c
000003b0: 0e3e 1d3e 68af 80bc e727 88bd ca59 e8bc
000003c0: 1efb d9bd 6d4d 0e3e e7fb 26be 20ed 8e3c
000003d0: afb5 0bbe 514b bd3d 36da 01bd 746c ffbd
000003e0: 8e6f d2bd 9cd9 003e b3d5 77bd 05eb cabc
000003f0: 8921 013a 64a6 c03d cbbc 15be c301 c6bd
-0.044394206 0.12564087 -0.10554493 -0.09943353 -0.034113295 0.068534486 0.13386318 0.15123685
-0.00028376334 -0.04195715 0.09305904 -0.13939168 -0.1415014 -0.14032876 -0.10137458 0.133328
-0.028348237 -0.05930872 0.03211333 -0.1338187 -0.067822106 0.013645917 -0.066103004 -0.03676091
-0.08566387 0.08593693 0.13312936 0.11894276 -0.11280985 0.10060259 0.15640937 -0.03432943
-0.023129836 0.14450192 0.06657216 -0.12589544 0.12808588 -0.16262409 0.029784175 -0.11869711
0.120080225 0.06728233 -0.088679746 -0.019750645 0.0030481182 -0.1493387 0.03921236 -0.07808284
0.026121771 -0.14379655 -0.0794615 0.004006733 -0.13357686 0.10542013 -0.016363356 0.12399686
-0.10975645 -0.12441831 -0.11757438 0.04778005 -0.070865996 0.005348983 -0.16823399 -0.10893652
-0.0035599354 0.12713313 0.06941897 -0.024821976 -0.0416858 -0.11070019 -0.063619666 0.09291976
-0.044708397 -0.008048297 0.09679701 0.13201328 -0.11075422 -0.06464167 0.0605103 0.008114255
-0.059943963 0.0972273 -0.08992821 -0.049107164 0.019624323 0.14182033 0.088597186 -0.09830545
-0.10640943 -0.028376376 -0.060754694 0.14387052 0.10528244 0.1311094 0.07584099 -0.1354986
0.013005973 -0.07994421 0.14845279 0.13580433 0.05821403 -0.14319123 -0.085261166 -0.14756945
-0.13289249 0.13041608 -0.1102281 0.018600717 0.10378275 0.058658205 -0.04475722 0.048849043
-0.024048207 0.037404962 0.058736052 -0.023438081 -0.053305533 0.083913684 0.09808027 0.08594164
0.12723069 -0.16830955 -0.064791 -0.083475575 0.08970683 -0.17060287 0.03901965 -0.023832556
-0.032997757 -0.14996487 0.10142972 0.09706798 -0.030775277 -0.14376633 -0.09186856 0.14785956
-0.06857004 -0.15343867 -0.06244032 -0.10128664 0.08086638 0.031130038 -0.02370636 -0.025154792
-0.037098333 0.0690532 -0.048785135 -0.100723505 0.05050819 -0.10480813 -0.068966106 0.14817645
0.08381574 0.09505413 -0.09348699 -0.08580828 -0.003885541 -0.0649094 -0.014909207 -0.04550381
-0.09253857 0.0575046 0.03683537 0.111215256 -0.13521624 -0.08220614 -0.04872864 -0.08865014
-0.1262952 0.040945634 0.1084145 -0.003742514 0.090228066 -0.035355538 -0.1575186 -0.13820171
0.013814557 -0.13526285 0.017313167 0.13884923 0.13008079 0.0795527 0.0626399 0.007941331
0.079100944 0.0077243242 -0.061444003 -0.03873934 0.16829707 0.016913023 0.11578003 0.02147272
0.082261056 -0.14132163 0.04789666 0.15078127 0.036890265 0.007117351 0.102889635 0.02923562
0.08074598 0.024071768 0.03778115 -0.14716677 -0.01078593 -0.15039742 0.050375815 0.11175177
-0.086982325 0.018180717 -0.14473902 0.13421977 -0.024383178 -0.111478955 0.043893732 0.101272926
0.039015822 -0.12994643 -0.10477242 0.11030072 0.14610887 0.049849335 -0.12819116 -0.15258576
0.09483811 0.113823816 0.033881962 -0.14199674 -0.019311033 0.059882607 0.1368588 0.11089644
-0.10787831 -0.057276215 0.12162381 0.017814219 0.15355703 -0.01570864 -0.06648236 -0.028363127
-0.106436 0.13896723 -0.1630703 0.017447054 -0.13643526 0.09242881 -0.031702243 -0.12471858
-0.102751836 0.12583011 -0.060506534 -0.02477027 0.00049259566 0.094067365 -0.146228 -0.09668305

model.cnn_input_2.1.bias f4 [16]
00000000: bac9 8fbd c50d aebd e73c bcbc ce4b c53d
00000010: a73c 753d 3c3c b3bd 2d32 de3c 8246 0fbc
00000020: 5bd3 41bd 1053 8b3d 9892 7fbd f767 683d
00000030: 09d5 7abd 72a8 5fbc a964 acbd 1b03 6d3d
-0.07020898 -0.0849872 -0.02297826 0.09633599 0.059872296 -0.08751723 0.027123535 -0.008744838
-0.047320705 0.06802952 -0.062395662 0.056739774 -0.061238322 -0.013651 -0.08417637 0.05786429

model.cnn_input_2.3.weight f4 [16, 16, 5]
00000000: fd6b fe3d a112 993d dd41 b8bd 242c 30bd
00000010: 8def 95bc 7d52 033e 07eb 11bd 955f a5bd
00000020: 912f dfbc 6828 c7bd 8dcf b53c 90e8 813d
00000030: 0f7c 713d 32ca 1f3c 584e 833d 14c7 39bc
00000040: 3cbe c5bc 81b5 cb3d b592 b83c 0383 893c
00000050: 261d b43d aa83 de3d fb61 53bd 2399 973d
00000060: 79c0 c63d 485a 96bd ca2e 9cbd 5583 973d
00000070: f21c dc3c 033e 99bd 4fcb d43c 0c94 74bc
00000080: 146f cb3d f608 193e 5fab 0f3e d9d6 8cbd
00000090: a66a 153d 9740 a3bd 3935 64bd 2343 3abb
000000a0: a212 f03d 71af 093e 9912 e9bd e3b4 093d
000000b0: 3c39 113d 99b9 b03d 217c d93d 778b 2d3d
000000c0: aafe b7bd 8c25 93bc d218 043d 328c b13d
000000d0: 6a56 b4bd 970e 6cbd afc2 3bbd b45c 9abd
000000e0: 7f40 0fbd 2ed9 ef3c 95a9 56bd 20da d73d
000000f0: a715 45bd 8341 083c 0f0c f33c 1eb0 42bd
00000100: ea51 9b3d 5941 17bc 9019 833a 3266 a7bd
00000110: 43c2 e73d db8b 89bd db5c d5bd 1ec8 f83c
00000120: 47c4 333d b0c6 9c3c 5370 d33d ff23 8bbd
00000130: 8352 2dbd 3c76 a33b fc83 cc3d 0868 823d
00000140: 8130 9cbd 6dc1 b43d ef4d 82bd 1dc0 d7bd
00000150: d50d 3b3c e70b 893d 0eab 34be b34f 3fbd
00000160: dd60 f13b 90e6 dabd 3428 abbd 0d69 0d3d
00000170: e3a8 b23c d070 cebc 3769 84bc 7324 ecbd
00000180: fa22 7fbd 5f32 a93c b0d2 6cbd 0e51 8fbd
00000190: 792b 95bd b8b2 933d de03 c53d 1050 cb3d
000001a0: 2c26 1fbd 3559 90bd 6bbd 91bb 7b5e 673d
000001b0: 58c6 c33c 09c7 a73d cf04 91bd cfe3 8abd
000001c0: 72c3 823c 48fc 8b3d b951 1b3c 1cab a8bb
000001d0: f1a7 263d d9b2 cfbd 0691 a03d 9d7b a9bc
000001e0: c27a b5bc 1f35 cd3d f47a 95bd 30b2 dbbd
000001f0: 33c6 103d b40e c23b 1351 40bc 7fb5 f33c
00000200: d39c 97bd cae7 043c af99 31bb ace7 333d
00000210: a53b 8e3d 1ef0 a73d da1f a9bd a400 99bd
00000220: 385d 123c 482b 20be bbdd 69bb ab7a 97bd
00000230: 70a1 6dbd 5c3e c0bc bdf5 863d 0813 99bd
00000240: 69d3 e9bd 341f a9bd c718 88bd 708b 78bc
00000250: 3ee4 b3bd 0554 dabc 771f 3f3d fb2d cfbc
00000260: dff9 99bd c3fb 62bd 2f2b 25bd a749 dbbc
00000270: 220f 83bd c8e0 3fbb 5bf8 773d 3698 babd
00000280: 820e 9b3c 29fe c63c 3637 ac3d 0d99 a1bd
00000290: b942 14bd 5d2c 1f3d a4cb e9bd be61 723d
000002a0: 4e5a 523d 6903 203d 095b 3bbc 9b21 203c
000002b0: 067c fdbc cd8f 3c3d 3f9b eb3c 017e d0bd
000002c0: 5659 ae3b d4f3 023d d1c2 a3bc 6860 b93d
000002d0: a0e3 d53b baa6 01be bb16 52bc 3890 de3d
000002e0: 17a2 94bd 2787 edbc ce79 863b b706 18be
000002f0: 476d 9e3b 4957 eabc bd73 9fbd ca18 9dbd
00000300: d6b2 0cbe 309a 2abd d38e 8bbc 1923 43bb
00000310: e571 003e c8e0 a6bd 22a7 e73d 91e7 c03d
00000320: 90e3 7a3c 868e 53bb 5a28 b43d 606f 06be
00000330: 233f 233d 1bf2 9e3d 9d03 b73d 26b6 1bbd
00000340: ff71 d43c 41d4 0cbc eb06 503d 6c1e f73d
00000350: 045a 193e a022 9dbb 2de7 b93d d910 f3bc
00000360: bea2 8ebd 33d9 0cbd 6fa6 5abd 2d3e 5e3d
00000370: e16c a13d 9ddc 30bd da58 49bd 87f2 7fbd
00000380: 28d2 013e b71b 513d 50f5 94bd a868 2abd
00000390: 1dcb cc3c 8cf6 ac3d 145c 5abc 2a28 6cbd
000003a0: 6e06 623c 3eac e1bd 7ada 93bc ba4e 9e39
000003b0: 22bc 9abd b469 633d 57f8 843b db4d c7bc
000003c0: cbff e4bc a200 383b 03b2 d33d 4d24 c73c
000003d0: 1356 993d 1ec8 293d 7747 b8bd fad0 b5bb
000003e0: 72f2 233c 5e0b fa3d 1835 afbc 3c4f 763c
000003f0: 0c9d 43bd bf29 663d 4bb4 74bd afc2 4bbd
0.12422941 0.07474256 -0.089969374 -0.043010846 -0.018302703 0.12824436 -0.03562453 -0.080748715
-0.027244361 -0.09724504 0.022193694 0.06343186 0.058956202 0.009752797 0.06411427 -0.011338968
-0.024138562 0.099467285 0.022530893 0.016786104 0.08794622 0.10864957 -0.051607113 0.074022554
0.0970468 -0.073414385 -0.07626112 0.073980965 0.026869271 -0.07482531 0.025975851 -0.014927875
0.09933296 0.14944825 0.14030217 -0.068769164 0.03647866 -0.07971304 -0.05571482 -0.0028421364
0.11722304 0.13445832 -0.113805 0.033619773 0.035454974 0.0862915 0.10619379 0.042369332
-0.0898412 -0.01796224 0.032250233 0.08669318 -0.08805545 -0.0576311 -0.04583996 -0.07537213
-0.034973618 0.029278364 -0.05240782 0.10539651 -0.048116352 0.0083164 0.029668836 -0.04753124
0.07583983 -0.009231889 0.0010002125 -0.08173789 0.11316349 -0.067161284 -0.104181014 0.03036886
0.043888357 0.01913771 0.103241585 -0.06793975 -0.042315017 0.00498846 0.099861115 0.06367499
-0.07626439 0.088259555 -0.06362521 -0.105346896 0.011416872 0.06691723 -0.17643377 -0.046706866
0.0073662833 -0.106885076 -0.083572775 0.034524012 0.021809047 -0.025200278 -0.016163452 -0.1153039
-0.062289216 0.020653902 -0.057818115 -0.06997882 -0.072836824 0.07211822 0.09619878 0.0992738
-0.038854763 -0.07048265 -0.004447629 0.056486588 0.023898289 0.0819226 -0.07080995 -0.06781732
0.015962336 0.06835228 0.009479933 -0.005147351 0.040687505 -0.10141534 0.07840161 -0.020688826
-0.022153262 0.10019898 -0.07298842 -0.10727346 0.035345268 0.005922163 -0.01173808 0.02974963
-0.07402959 0.008111903 -0.002709966 0.04392211 0.0694497 0.082000956 -0.08258028 -0.07470825
0.008933358 -0.1564151 -0.003568514 -0.07396444 -0.058015287 -0.023467235 0.065898396 -0.07474333
-0.114172764 -0.08257905 -0.06645351 -0.015169963 -0.08783768 -0.026651392 0.046660867 -0.02529048
-0.07518362 -0.05541588 -0.040324386 -0.026768519 -0.06399371 -0.0029278267 0.060539585 -0.09111063
0.018927816 0.024291115 0.08408968 -0.0789052 -0.036196444 0.038860667 -0.114157945 0.059175245
0.051355653 0.039065752 -0.011435279 0.009773637 -0.030942928 0.046035577 0.02876055 -0.10180283
0.0053207083 0.031970814 -0.019990357 0.09051591 0.006527379 -0.12661257 -0.012822802 0.10867351
-0.07257479 -0.02899511 0.0041038757 -0.14846312 0.004834804 -0.028606074 -0.07785747 -0.07670744
-0.13740095 -0.04165095 -0.017035877 -0.0029775559 0.12543447 -0.08148342 0.11311175 0.09419168
0.015313044 -0.0032280996 0.08796759 -0.13128424 0.039855134 0.07761022 0.08936236 -0.038015507
0.025933264 -0.008595527 0.050787847 0.120663494 0.14975744 -0.0047953874 0.090772964 -0.02967112
-0.06964634 -0.034386825 -0.05338138 0.054258514 0.07882095 -0.043179143 -0.049157 -0.06248715
0.12677824 0.05105182 -0.07273352 -0.041603714 0.024999196 0.084454626 -0.013327617 -0.05765549
0.013795478 -0.11019181 -0.018048514 0.00030194764 -0.07555415 0.05552073 0.0040579247 -0.024329117
-0.027954003 0.002807655 0.103366874 0.024309302 0.074871205 0.041450612 -0.08998006 -0.0055485936
0.010006534 0.12209199 -0.021387622 0.015033539 -0.047757193 0.056192156 -0.059742253 -0.04974621

model.cnn_input_2.3.bias f4 [16]
00000000: 7361 c73c 9c86 85bd 7af2 6ebd 8778 473d
00000010: 6486 413d 68e2 8a39 f7f0 a738 fe2f 7b3d
00000020: af7b 8abd d222 6bbc 76a1 123e abbd 2ebd
00000030: d0bc c5bd 5a27 453d 6f16 e23d 4a5a 493d
0.02433846 -0.06519815 -0.058336712 0.04869893 0.047247306 0.00026490097 8.008064e-05 0.061325066
-0.06761872 -0.0143515635 0.14319405 -0.04266135 -0.09655154 0.04813323 0.11039435 0.049158372

model.cnn_input_3.0.weight f4 [16]
00000000: 59f1 7c3f 2051 7b3f 1e75 773f 1280 803f
00000010: 2e4e 7d3f 0a37 7c3f 133d 813f 023b 853f
00000020: 3f50 853f 77b5 7a3f 201f 813f 527f 713f
00000030: 3c40 803f bd2d 7b3f 7af5 783f 0679 823f
0.9880577 0.9817066 0.9666308 1.0039084 0.9894742 0.9852148 1.0096763 1.0408633
1.0415114 0.97933143 1.0087624 0.943349 1.0019603 0.98116666 0.9724957 1.0193183

model.cnn_input_3.0.bias f4 [16]
00000000: a6ef ebba 85a3 7c3c 2c38 823c f3ae cb3c
00000010: ab05 0e3b 73fc a63c 7998 79bb 6a53 91bc
00000020: 9ad9 fcbb c985 703c 8d24 7c3c eca4 d0bc
00000030: be7c 07bc 94a8 faba 72f1 c83c 6f3d 26bc
-0.0018000498 0.0154198455 0.015895925 0.024863696 0.002167086 0.020384049 -0.0038085266 -0.01773997
-0.00771637 0.014680334 0.015389574 -0.025469266 -0.008269487 -0.0019123727 0.024529193 -0.010146483

model.cnn_input_3.0.running_mean f4 [16]
00000000: e62c d43e 67bd 773c b752 7c3d 0267 383e
00000010: 8552 ff3d be8b 583d 79e3 3b3d 8c21 a03d
00000020: dd14 9a3e b1d5 963d 36eb ea3d 7cba eb3e
00000030: d32a 633c feb6 5b3e d65d 883d d205 853d
0.41440505 0.015120841 0.06160232 0.18008044 0.12466911 0.052867644 0.04587123 0.078188986
0.30094042 0.07364977 0.11470644 0.46040714 0.013865191 0.21456525 0.06658523 0.06495251

model.cnn_input_3.0.running_var f4 [16]
00000000: 0311 273d d9ba fb3a 8c13 593c eef3 873c
00000010: b39b 453c 77ee 013c 789a f73b ab90 3e3c
00000020: 04f8 ca3c 8b41 733c ad44 7e3c 1e9a 943d
00000030: 81cd 353b dd67 173d 6928 693c f019 403c
0.040787708 0.0019205465 0.013249289 0.016595807 0.012061047 0.00793039 0.007556256 0.011631171
0.024776466 0.01484717 0.015519303 0.07255958 0.0027740898 0.036964286 0.014230826 0.011724934

model.cnn_input_3.1.weight f4 [32, 16, 5]
00000000: 5c69 dfbc 805d 4b3d 2d2e ab3d 63e3 8f3c
00000010: f167 9fbd 4e9e 9e3c 2ba2 203d 0918 2e3d
00000020: f2e8 2c3d 8d70 253d 63ae 8abc a8ce 3b3c
00000030: 3644 8d3c f7cd ba3d 9034 37bd f8a0 dc3d
00000040: eb9a 6a3d c7e6 5ebd 3a04 c7bd 7476 263d
00000050: 1575 d7bd 9cfc 153d 4ae5 f6bc ba84 f0bd
00000060: 9da6 5c3d 420b 983c de6c 73bc 8e13 86bd
00000070: 1e7a de3c d91e 5a3d 653f 1fbe e35d 0e3d
00000080: e373 88bd 48f1 5a3d c1b8 a3bc 2826 f9ba
00000090: 2764 d5bd 34ec 09be 520c 13bd 9486 95bd
000000a0: 1885 3fbd b131 1cbd 6871 d03b eb3b 393c
000000b0: 69d8 eabc eeb7 e1bd ac96 b53d c72e c6bd
000000c0: fcd7 52bd 0261 c5bd f19e a0bd 110d 663d
000000d0: aa2c d2bd f0d7 513d 6467 dcbd 3b92 1fbe
000000e0: f7da 50bb 2d55 353b 1401 77bd b604 46bd
000000f0: b33d 23be ad2e e53a b263 02be 0c43 cbbd
00000100: 9291 a73d 3c33 383c 00a3 a1ba efc7 86bd
00000110: 9a66 893d e1b7 e63d f367 143d d050 7e3d
00000120: 7003 afbd 2249 62bd 5a98 9f3c af55 31be
00000130: 0aad 07be 4ccc 98bc 5662 fd3c e052 f2bd
00000140: 78bc c5bd 2e81 cd3d de65 6b3a 988e 2b3d
00000150: cddf 853d 7cdb 4cbd 54cb 0f3d 3026 c73d
00000160: 50a6 463d 3a43 153c b50f cbbc 924a 99bd
00000170: b859 afbd a0e0 2cbd 2644 573d dace 09be
00000180: 8e38 e5bc b78d f33c eaa3 b33d 892a c33d
00000190: 6d44 b43c 32c2 023e 3bb2 4e3d cc1a 19bb
000001a0: 4bc0 963d 82f1 3eba fc3c d9bd ab3b 3b3c
000001b0: 83b0 5d3b c29e bb3d 6055 09be 2fc7 c7bd
000001c0: fd53 e8bd 1287 4dbd 15d1 ad3d 4154 f43d
000001d0: 5f21 f43d baf8 72bd 4f74 afbb 7af6 853c
000001e0: 6c65 a9bd d30d f0bc e01a 303b 1291 3dbd
000001f0: f0f1 123d 7503 213b 0d05 923c 9b9e bebd
00000200: 1e3d 8dbc 7c53 84bc fd21 65bd bb3a 83bd
00000210: 64f0 2bbd 58f5 cebc 8b4d 09bd bcde 76bd
00000220: 7c6b 663d 6de7 7dbd 3767 ecbb 27ae b7bb
00000230: 770a 47bd 893a aa3d a9c4 a9bd 01b6 5b3d
00000240: 913a 443d 72df 673c 14f8 b33c a58d 0e3d
00000250: 4c30 2bbc 949e 9a3c 4414 9e3d 1610 c43b
00000260: ce67 0fbc ef53 45bd f579 e2bd 77f1 bdbd
00000270: 53e1 90bd 3dcc 88bc 535c a3bd e07e b6bc
00000280: 0f2f d5bd 0a8d 27bd c7fe 81bd bec3 28bd
00000290: 25e8 573d 3511 19bd ac47 09bd 0d23 483d
000002a0: 29d7 b53d 5011 55bd 6299 98bd 2d8b 283c
000002b0: 21ab 19bd ad95 7f3d 83e9 493d c949 8d3d
000002c0: 8bcd 263d b341 b83d 1a73 e6bc 0e1b b53d
000002d0: 1c06 8ebd 4a21 20bd 9f62 d23d 9cc4 96bd
000002e0: 8d72 31bb 6254 c8bd 6ede 86bd 9b3e ce3d
000002f0: 85d2 26bd 8d01 b73d e3e5 20bd 3124 a1bd
00000300: db3b 85bc fffb df3d 3947 153d 4f93 bbbd
00000310: 98be 0fbb 60c9 5dbd 93f9 c7bc bedb b6bd
00000320: cbb3 87bd 24bc 8b3d f66a 1bbd 1b6a 9abd
00000330: 69ae 84bd 6632 993d be32 d03d ea17 853c
00000340: b0b7 bbbc 02c0 85bd f9cd c83d d373 6fbd
00000350: 25d3 abbd 4334 8fbd d006 dfbc 6c14 363d
00000360: a577 bfb9 114b 973d 35da a2bc 7857 843d
00000370: 133a d4bc 4af7 2e3c 14c6 123b 9bf0 2cbd
00000380: 47d0 febc 9d02 a13d 3727 023c 014a 2a3d
00000390: 7d9a 8fbc d755 5c3d 3432 4cbd 7de7 a93d
000003a0: cf78 ab3d 74c8 9d3d ce5c 66bd 7159 ac3d
000003b0: ad4c c13d 11cb 95bd 21c3 92bd 3cbb e03d
000003c0: d0c0 523d fb30 afbd 7877 48bc 1506 a3bc
000003d0: 652b 46bd ee84 713d 97a7 de3d d76c aebd
000003e0: 344d c1bc e109 7aba b03b 02bd db80 3fbd
000003f0: 8eba 963d b59e 62bd 4f79 5c3d f4df d9bc
-0.027271919 0.049649715 0.08358417 0.017564481 -0.07783497 0.019362595 0.039217155 0.04250339
0.04221434 0.04039054 -0.016928857 0.011462845 0.01724444 0.09121316 -0.044727862 0.1077289
0.057276648 -0.054419305 -0.09717603 0.04064031 -0.105203785 0.03661786 -0.03013863 -0.117440656
0.053869832 0.018560056 -0.014857499 -0.065466985 0.02715784 0.053252075 -0.15551527 0.034757506
-0.06662729 0.05345276 -0.019985558 -0.0019008564 -0.10419493 -0.1346901 -0.03590042 -0.07301059
-0.046757787 -0.038133327 0.0063611753 0.011305789 -0.028667646 -0.1102141 0.08866629 -0.09676891
-0.05147551 -0.096376434 -0.07842816 0.056164805 -0.10262425 0.051231325 -0.10761908 -0.15583126
-0.0031868794 0.0027669177 -0.060303763 -0.048344336 -0.15941505 0.0017485224 -0.12733343 -0.099248976
0.08182062 0.011242684 -0.0012331903 -0.06581103 0.06709023 0.11265541 0.036231946 0.062088788
-0.085455775 -0.055245526 0.019481827 -0.17317842 -0.13249603 -0.018652104 0.03093068 -0.118322134
-0.09655088 0.10034405 0.0008979718 0.041884035 0.06536827 -0.050014004 0.03510602 0.097240806
0.04849845 0.009110266 -0.024787763 -0.07484926 -0.08562034 -0.042206407 0.052555226 -0.13457814
-0.027981069 0.02973066 0.087714985 0.09529597 0.022005284 0.12769392 0.050462943 -0.002336192
0.07360896 -0.0007283912 -0.10607335 0.0114278 0.0033827133 0.0916114 -0.13411474 -0.09754788
-0.113441445 -0.05017764 0.08487145 0.11930133 0.119204275 -0.059319235 -0.0053544412 0.01635288
-0.08271298 -0.029303467 0.0026871487 -0.046280928 0.03587526 0.002456871 0.017824674 -0.09307595
-0.017241057 -0.01615309 -0.055940617 -0.06407686 -0.0419773 -0.025263473 -0.033521216 -0.06027101
0.05625485 -0.061988283 -0.0072144526 -0.0056054774 -0.048593964 0.08311946 -0.08289463 0.05364037
0.047907416 0.014152395 0.021968879 0.03480305 -0.010448527 0.018874444 0.07718709 0.005983363
-0.008752776 -0.04817575 -0.11058418 -0.092745714 -0.07074227 -0.01669895 -0.07976594 -0.022277296
-0.10409366 -0.04090599 -0.06347423 -0.0412023 0.052711625 -0.037369926 -0.033515617 0.048861552
0.08878929 -0.052018464 -0.074511304 0.010287088 -0.037516717 0.0623986 0.04929496 0.06898839
0.040723365 0.08996906 -0.028131057 0.08843051 -0.06934759 -0.039094247 0.10272717 -0.07361719
-0.0027076334 -0.0978172 -0.06585394 0.10070535 -0.04072811 0.08935843 -0.039281737 -0.07868231
-0.016263893 0.10936736 0.036444876 -0.09158956 -0.002193367 -0.054147124 -0.024410998 -0.08928631
-0.0662609 0.06822994 -0.037943803 -0.07539769 -0.064785786 0.07480316 0.10165928 0.016246755
-0.022914737 -0.06530763 0.09804911 -0.058460068 -0.08389882 -0.0699239 -0.027224928 0.04445307
-0.000365195 0.07387365 -0.01987944 0.06461996 -0.025906598 0.0106790755 0.0022395896 -0.042221647
-0.031105174 0.078618266 0.00794392 0.041574482 -0.01752972 0.0537928 -0.049852565 0.08296106
0.08372652 0.07704249 -0.05624085 0.08415497 0.09438453 -0.073141225 -0.07166124 0.10973212
0.05145341 -0.08554264 -0.012235515 -0.019900361 -0.048381228 0.058964662 0.10871809 -0.08516853
-0.023596384 -0.0009538215 -0.031795204 -0.046753746 0.07359801 -0.055327136 0.053826626 -0.026596047

model.cnn_input_3.1.bias f4 [32]
00000000: 3edf 2ebd ec73 d7bd 705d 85bd d480 d03c
00000010: f8ec 333c 794a 2e3d d61a 0c3d d3ac 96bd
00000020: a7c8 3fbd f639 89bd ac60 fd3c 7549 10bd
00000030: 8558 4f3d 28a8 013e 1c4a 22bc d79b 503d
00000040: bd6d c63b 9b15 54bd f20b b63c f984 afbc
00000050: a391 a2bb d934 b43d 9621 d3bd d833 f9bd
00000060: 00a2 9ebd c64d aabd 0e1c c6bd 469b fb3c
00000070: d97a 0d3c 147f 103c 9436 14bd 2e58 99bc
-0.04269337 -0.10520157 -0.065119624 0.025452055 0.010981791 0.04255149 0.03420528 -0.07357182
-0.046822216 -0.06700508 0.030929886 -0.035226304 0.05062153 0.12661803 -0.009905364 0.05092987
0.0060555623 -0.051778417 0.022222493 -0.021425711 -0.004961209 0.087991424 -0.103091404 -0.121680915
-0.07745743 -0.08315615 -0.0967332 0.030713689 0.008635246 0.00881936 -0.036184862 -0.018718805

model.cnn_input_3.3.weight f4 [32, 32, 5]
00000000: 8383 973d b7c0 623d 4e68 6ebd be2a 51bd
00000010: ab19 a23d 2282 2e3c 7582 653d c537 ac3c
00000020: 5557 c7bb 6559 b8bc f12d eabb 885a 46bd
00000030: d885 ad3d 1fb9 9fbd e4e5 83bd c65a ebbc
00000040: 67c0 02bd 2110 2cbd 3662 08bd 769e 8dbb
00000050: 1a05 6a3c 3c00 0abd 476c 313d 301f 69bd
00000060: 0326 7a3c a99a 1bbd 7ade 07bd d7cb 1cbc
00000070: 740d 913d 234a 63bd 01bf 19bd b8bc 8cbd
00000080: 1511 69bd 2096 9a3c 7d8f 41bc 22fc 493d
00000090: 79c2 b23c d441 7a3d 1ba1 79bd 1908 9c3d
000000a0: 49e4 e23c 55c5 06bd 6865 28bd ce83 c5ba
000000b0: 8a40 5c3d bb52 e5bc 33d8 593c 29e0 1bbd
000000c0: 38e5 013d a286 a0bb 87ff 36bd c516 c43c
000000d0: 76fe bb3d 0025 34bd 8489 7fbd 3d96 9c3a
000000e0: 3e64 bc3c 234f 25bd 86d9 753d f6e8 0b3e
000000f0: 6d43 3d3d bd0b b93d cd8b 78bd 64db b43c
00000100: 1e18 8b3d af75 b3bd fa3a be3c b6ab a43d
00000110: e82e 453d 544a 27bd 98ea 9e3d f8ad 8e3d
00000120: 5f76 81bc dc8c 153d 80ea a33a 9048 113d
00000130: 6540 fabc 1dbb 163c 6325 653d 987e 80bd
00000140: d47a cf3d 4377 603d 9438 ebbb a2e2 913c
00000150: a4c1 2ebd e788 0fbd 609d 8c3d 66a6 123d
00000160: 6c52 0e3d b240 06bc 3966 fc3c fe4f 933d
00000170: 804c 0abd 3e86 5cbd a09b d43c d5a7 b03d
00000180: a7ff 503d a180 dabc 6ddb c43d 7684 0abb
00000190: ac4e a03c d5cf b5bd 0050 953d 8adc 8a3d
000001a0: 0385 73bb 2a6a 38bc b23e 4e3d cd6d fdbb
000001b0: f95f 533d 05ce 99bd 2767 4abc 94a6 953d
000001c0: 56ec 09bd df4b edbd bad9 95bd b5bb 893d
000001d0: a0b1 92bb e3e8 fcbc d29a 493c 7274 59bc
000001e0: 3a99 5c3d d38c d63c 6d39 34bd 2584 94bd
000001f0: 76ff a23a 9c06 223d 0e5c 573c 1edc 0b3d
00000200: 9deb 48bd 816c db3c 9d60 a23d 190b 14bd
00000210: 5cf4 38bd 504c 0bbd 18c7 1ebd 8d5c 753d
00000220: 2639 0c3d 3904 a6bd 8341 5ebd bd79 e93c
00000230: 95d6 5a3c 5ccf 7e3c b308 613d 6a52 f83d
00000240: 2286 663d 0d57 9abd 1654 ed3b f482 1bbc
00000250: c11a aebd 3972 cabd 4026 d03c 6ac4 f63b
00000260: d183 8abb ba0e f8bd 9f10 313d d4a2 09bd
00000270: 99cc 51bd ede3 bfbd 2456 4e3d c443 c2bc
00000280: b779 743d f14a 40bd 99de 9f3d 0812 a93d
00000290: 69d0 82bd 704f b53d e892 a33d dd70 b73d
000002a0: d19f 2ebd 7ca1 d93b 2622 793d 3f07 323d
000002b0: 27fd 98bd 488f bebd f6c1 08be 8e51 383d
000002c0: 00bc be3c 7336 58bc 727f a5bc afd9 0ebd
000002d0: 865f 1d3c f527 0cbd f96e 2fbd cb88 653d
000002e0: c6f6 503d ab65 0dbd b20b 51bd 414a 06bd
000002f0: e6a4 97bd e1ce 833d be97 2fbd d6d1 05bd
00000300: d7e2 43bd f650 243d 6b31 f7bc accf 093d
00000310: 10ee 14bb 39d1 17bd 6b43 c23d b7c6 ff3a
00000320: f55a 11bc e3bb 3b3d 4fe9 683d ba5e 84bc
00000330: ea53 613d c345 21bd 313d 4d3c 4a7b 4dbd
00000340: dad1 11bd 1c4b bf3d c0f1 743d a113 283d
00000350: 6ea6 4ebd df3f 45bc 32c8 c0bb 82eb 1fbd
00000360: 9559 473d 4fdc 62bc 566c debc b16f bd3b
00000370: cd4a 8fbd 801d fabc e217 f6bc 8bfa 59bd
00000380: 4f92 59bb 3f04 d23d 1993 b33d fb81 cb3d
00000390: b8fd a53c af66 2ebc fe47 2a3d e35f cabc
000003a0: fb41 a5bd 293c 103d 69a2 fd3c f9c0 c2bd
000003b0: 018e 0ebd 563a bf3c 8016 a9bc bf83 40bc
000003c0: f857 ecba 5d20 7abd de44 a1bb 2425 81bc
000003d0: 8a65 473d 9f55 403d c7f3 52bd 18a3 c53d
000003e0: 5ef0 88bd f8f8 7f3d bd1a bbbd e444 7b3a
000003f0: 67ff b0bd d606 a43d 4c9a b9bc 3504 8fbc
0.07398131 0.05535957 -0.05820494 -0.051066153 0.07915052 0.010651143 0.056032617 0.021022687
-0.006083409 -0.022503564 -0.00714659 -0.04842618 0.08472794 -0.07798981 -0.064403325 -0.028729808
-0.03192177 -0.04200757 -0.033296786 -0.0043218685 0.014283443 -0.03369163 0.043316152 -0.05691451
0.015267852 -0.037989292 -0.033171155 -0.009570084 0.07082644 -0.055490624 -0.03753567 -0.06871933
-0.056901056 0.018870413 -0.011813995 0.04931272 0.021821247 0.061097935 -0.060944658 0.07618732
0.027696745 -0.032903034 -0.041112334 -0.0015069188 0.053772487 -0.02799355 0.013296175 -0.038055573
0.03171274 -0.004898862 -0.044677284 0.023936639 0.09179394 -0.0439806 -0.062387004 0.001194663
0.022997018 -0.040358674 0.0600219 0.13663086 0.04620688 0.09035442 -0.0606802 0.02207727
0.06791709 -0.08762681 0.023221482 0.08040564 0.048140436 -0.04084237 0.07759589 0.06966776
-0.015803514 0.036511287 0.00125058 0.03546959 -0.030548284 0.009199885 0.055943858 -0.06274146
0.101308495 0.054801237 -0.0071783755 0.017808262 -0.04266514 -0.03504267 0.068659544 0.03580322
0.034746572 -0.0081941355 0.030810462 0.07192992 -0.033764362 -0.05383896 0.025953114 0.086257614
0.05102506 -0.026672663 0.09612165 -0.0021136082 0.019568764 -0.088775314 0.072906494 0.06780346
-0.0037158139 -0.01125578 0.05035276 -0.0077340365 0.0516052 -0.07509998 -0.012353695 0.07307163
-0.033672653 -0.11586737 -0.07316919 0.067252554 -0.004476741 -0.030872768 0.012304978 -0.013272392
0.053857066 0.026190197 -0.044000078 -0.07251767 0.0012435752 0.039557084 0.013144506 0.034145467
-0.049052823 0.026785137 0.07928584 -0.036143396 -0.045154914 -0.034008324 -0.03876409 0.059902716
0.03423419 -0.08106274 -0.054261696 0.028500432 0.013356824 0.015552368 0.054939937 0.12125094
0.056280263 -0.07536135 0.00724269 -0.009491671 -0.08501197 -0.098850675 0.025408864 0.0075307386
-0.0042271395 -0.12112184 0.04322874 -0.03360255 -0.05122051 -0.09369645 0.05037512 -0.023713954
0.05968639 -0.04694647 0.07806129 0.08255392 -0.06387407 0.08853042 0.079870045 0.08957074
-0.04263288 0.006641565 0.060823582 0.04346394 -0.0747016 -0.093046725 -0.1335524 0.04499965
0.023283005 -0.013196575 -0.020202372 -0.034875568 0.009605294 -0.034217793 -0.04283044 0.05603866
0.05101659 -0.034520786 -0.051036544 -0.032785658 -0.07404499 0.064359434 -0.042869322 -0.03267082
-0.047823753 0.040116273 -0.030174932 0.033645317 -0.0022724904 -0.037064765 0.09485515 0.0019514178
-0.0088717835 0.04583348 0.056863125 -0.01615845 0.055011667 -0.03937317 0.012526796 -0.050166406
-0.03560052 0.09340498 0.059800863 0.041034345 -0.05045169 -0.012039154 -0.00588324 -0.039042957
0.048669416 -0.013846471 -0.027151268 0.005781137 -0.06996689 -0.030531645 -0.030040685 -0.053217452
-0.003319878 0.10254716 0.08768291 0.09936901 0.020262584 -0.010644599 0.041572563 -0.024703925
-0.080692254 0.035213623 0.030961232 -0.09509463 -0.034803394 0.023343246 -0.020640612 -0.011750161
-0.0018031588 -0.06106602 -0.0049215397 -0.01576478 0.04868082 0.046956655 -0.051502015 0.09650248
-0.066864714 0.062493294 -0.09135959 0.00095851556 -0.08642464 0.08009116 -0.022656582 -0.01745806

model.cnn_input_3.3.bias f4 [32]
00000000: 89ff f2bc 9221 c2bc aa54 68bd 2ca4 2e3d
00000010: 5c77 bb3d 621f aabd 5619 0fbd 2705 18bb
00000020: e05a 5cbd 3ce3 dfbc ffab 753d 6388 8f3b
00000030: db68 593b 8505 a13c 9022 82bc 41f5 42bc
00000040: 64e0 febb 945a ed3c 6e36 42bd 59ee 6c3c
00000050: d570 92bd c94a 9bbd cd66 7bbd 2c95 1f3d
00000060: 34f2 31bd 19f0 a9bd 8251 22bd f0cd fd3a
00000070: 0b10 80bc d5a8 32bd abf1 8e3d 4bb6 42bb
-0.029662864 -0.023697648 -0.056721367 0.042637035 0.09153625 -0.08306767 -0.03493627 -0.002319643
-0.053797603 -0.027330033 0.05997848 0.0043802722 0.003317407 0.019655952 -0.015885621 -0.011899293
-0.0077782143 0.028973855 -0.04741519 0.014461123 -0.07150427 -0.075826235 -0.061377335 0.03896062
-0.043443874 -0.08297748 -0.039628513 0.0019363742 -0.01563265 -0.043618042 0.06979688 -0.0029710706

model.upconv_2.0.weight f4 [32, 16, 6]
00000000: 63fa 6fbd bf30 c5bd 5b90 6d3d 162b 793d
00000010: 1044 2b3d f7ac a33c fbd7 51bd 70b7 2ebd
00000020: 894a ca39 6823 cc3b 33fb 3dbd 9324 223d
00000030: feb5 a1bc 7649 10bc 5e18 2539 bd60 e1bd
00000040: 45b0 adbd d633 8a3c 1ff0 e33c e939 c1bd
00000050: c5ae 99bd 410c 0c3a c7a9 6b3d 2f00 0e3d
00000060: 55ae 62bd 5628 cc3d 41f7 053d ce0b 9dbd
00000070: 66c9 7c3d 5bf9 01bd a12f 5abd 19a1 b0bd
00000080: 4bc3 bbbd 78eb 71bc a99d d33d 3765 e63c
00000090: 3ac9 df3a 71df bfbd 5af2 ac3d ceeb dd3d
000000a0: 3bbf f13d 37e0 88bd caab 20bd 8055 15bd
000000b0: aab9 d9bd b9c4 28bd 84b9 76bd ad94 453d
000000c0: b827 333d 55d6 5aba 12fe 5ebd 696c fd3c
000000d0: a757 afbc 94d1 a1bd 476e 5b3b bc29 bd3d
000000e0: 2b5c 9abd b77f 82bd 9ddc 4cbc b22a c6bb
000000f0: 3622 26bd 8686 2f3d 4097 37bd d554 3cbd
00000100: 4dd1 67bd 487b eb3c 0d0e 1cbd 7a38 a2bc
00000110: d7ff 333d aee6 a73d 6410 513d eb0a 62bc
00000120: 4e10 243d 06b4 64bd 2f4e a4b9 e9d5 bab9
00000130: 8c7e d2bc 889b b6bd 3000 123e 7289 f13d
00000140: a28a 7b3d fe52 17bd 7901 433c 5614 38bd
00000150: 0082 1cbd ce02 2ebd c22f e5bd f45d 94bd
00000160: 414f 8e3c fb8d f13d 33ff 3e3d 8f95 bd3d
00000170: 169d 1ebc aaa4 813c 339e a83c 18ca edbd
00000180: 3f8c 413d 660d 1c3e 8f82 b5bc ddc9 613d
00000190: e11a f4bc 1c88 6a3c c683 403d 8efc a2bd
000001a0: 5eb2 e93d 1da1 cf3d 5bc5 3b3d 5b8d 1bbc
000001b0: a927 1b3d cd10 08bd 1bd7 153c de0e 8abd
000001c0: f400 25bc 79e8 19bc 46bd a6ba a111 b7bd
000001d0: 91c0 363c 9a9c 7e3d f591 54bd 0d4e 8b3d
000001e0: d244 97bd 38c0 67bd 6b1a 793c f679 9c3d
000001f0: 192d 9b3d 6c15 c6bd d961 92bd 10a5 153e
00000200: aab7 113e 695c ac3d 6891 a73d 9bfb 93bd
00000210: 05e3 ba3c d572 c23c 0fde 903d 2b15 123c
00000220: 81c4 9e3c a1d5 bdbd 9e8e 2dbd 81fa a1bc
00000230: 3442 3e3c a065 c5bb 1eac c93c e1c3 be3c
00000240: b7c3 183c f0b3 bcbd bcfb 1c3c 4abc 0ebb
00000250: 2217 a2bd 064c e9bd ddcf 823c 34cd f2bb
00000260: 9fb7 13bd 8f69 003e 0628 d93d 12f1 803c
00000270: e98f bf3c 5d12 73bd f982 7e3b e9b3 5b3c
00000280: d12c a3bd 9ff6 d43d bf11 00be f94e dd3c
00000290: bf8f 9b3d c8c1 4a3c 953e a6bc 22f0 c7bb
000002a0: 80a4 c3ba 2ba7 eebc d2a7 4b3c 51f1 d8bb
000002b0: b78f 703c 2185 d23d d920 16be 5612 443d
000002c0: 68a8 153d 433f 08bd 1059 b53d 8179 d4bd
000002d0: 6a3b b7bd bfa5 78bd 2764 09bd 258a 873d
000002e0: 7a23 ca3d 4422 13bd 3d08 f43d b66d 50bd
000002f0: 1d65 95bd bd36 e33d d428 94bd 4343 603c
00000300: f660 d03d fdbb 8ebd 056c 163d 6a8d 663c
00000310: 525b 0f3d f759 9dbd f514 a43c f98c 823d
00000320: 162f c53d 475b 71bd 85c1 b83d 3791 d5bc
00000330: 0879 443d 371c 3d3d ec41 75bd 0b3e 38bd
00000340: 1953 1d3d 755a 823c 7b57 d9bc 914c 1dbb
00000350: 09ee ef3d c9d7 673d ddd6 4f3d 9922 debc
00000360: 41f8 8abd 834e 1e3d f1ee 733c f386 a5bd
00000370: 7e4f 1d3d 62d5 fcbc e33d 9f3d f19f 2f3d
00000380: fa24 6a3c b716 783d 94e2 9d3d 6fe7 8abd
00000390: 1a82 963d 41c0 9e3d 463b 643d 9425 e63c
000003a0: 27e1 d0bc 69bf 0a3d 9fe7 56bc 702b c2bd
000003b0: e41e 85bc 9f1b 89bd b4f2 0fbd b1aa 4c3d
000003c0: 86a6 cdb9 d541 653d 5ef7 053d f142 a9bd
000003d0: c7b5 7dbd 6153 77bc dab1 3fbd 09d0 a23d
000003e0: 5271 bd3b 8a9b 40bd 3c78 4a3c 2917 9fbc
000003f0: 6084 c0bc 64f8 03bd f18b 88bd 31a7 163d
-0.058588397 -0.09628438 0.057998996 0.060832106 0.041812956 0.019979937 -0.051231366 -0.04265541
0.00038583975 0.0062298067 -0.04638214 0.03958566 -0.019740101 -0.008806577 0.00015744704 -0.110047795
-0.08480886 0.01687042 0.02782446 -0.094348736 -0.07504038 0.0005342402 0.05753496 0.034668144
-0.055342037 0.09968631 0.032706503 -0.07668267 0.061715506 -0.031731945 -0.05326808 -0.08624477
-0.091681086 -0.014765613 0.10332806 0.028124435 0.001707352 -0.0936879 0.084446624 0.10835992
0.118040524 -0.066833906 -0.03922633 -0.036458492 -0.10631116 -0.041203234 -0.060235515 0.04823749
0.04373905 -0.0008347978 -0.05444152 0.030935483 -0.0214041 -0.07901302 0.0033482478 0.09236476
-0.07537111 -0.06372016 -0.01250377 -0.00604757 -0.04055997 0.0428529 -0.044821978 -0.04597934
-0.05659609 0.028745309 -0.038099337 -0.01980232 0.04394516 0.081982955 0.051041022 -0.013796548
0.04005461 -0.055835746 -0.0003133877 -0.0003563606 -0.025695108 -0.08916384 0.14257884 0.11793794
0.061411507 -0.036944382 0.011902207 -0.04494127 -0.038209915 -0.042483144 -0.1119075 -0.07244483
0.017371776 0.11794659 0.046630096 0.09257042 -0.009681007 0.015825588 0.020583248 -0.11610812
0.04725289 0.15239486 -0.022156982 0.055124152 -0.029797973 0.014314678 0.04700067 -0.07958327
0.11410974 0.10138152 0.04584251 -0.009494151 0.03787962 -0.033219147 0.009145523 -0.06741117
-0.010071028 -0.009393805 -0.0012721203 -0.08938909 0.01115431 0.062161066 -0.051897008 0.068019964
-0.07386173 -0.0565798 0.015204052 0.0764045 0.07576961 -0.09672055 -0.07147569 0.14613748
0.14230219 0.08416063 0.08182031 -0.07225724 0.02281333 0.023736397 0.07073604 0.00891618
0.01938081 -0.09269262 -0.04237234 -0.01977277 0.011612464 -0.0060240775 0.024618205 0.023286762
0.009324006 -0.09214008 0.0095815025 -0.002177971 -0.079145685 -0.113914534 0.015968258 -0.007409716
-0.036063787 0.12540267 0.10603337 0.015739951 0.023384051 -0.059343684 0.003883539 0.013409593
-0.079675324 0.10398602 -0.1250677 0.027015196 0.07595777 0.012375303 -0.020293513 -0.006101624
-0.0014926344 -0.029132446 0.012430148 -0.006620564 0.014682702 0.102792986 -0.14660968 0.04786905
0.036537558 -0.033263456 0.08854878 -0.103747375 -0.08946879 -0.060704943 -0.03354278 0.06618146
0.09870048 -0.03592135 0.11915634 -0.05088588 -0.072946765 0.11094425 -0.0723435 0.013687911
0.10174744 -0.0696945 0.03672411 0.014071802 0.0349992 -0.07683175 0.020029524 0.06374545
0.096281216 -0.05892494 0.09021286 -0.02607022 0.047966987 0.046169486 -0.05987732 -0.044981044
0.038409326 0.015912274 -0.026530972 -0.0024001936 0.117153235 0.056602273 0.05074202 -0.027116107
-0.06785632 0.038649093 0.014888511 -0.0808238 0.038405888 -0.030863468 0.07775476 0.04287714
0.014291042 0.060568538 0.07709232 -0.06782424 0.07349034 0.07751513 0.05572059 0.02809409
-0.025497986 0.03387395 -0.013116746 -0.09480941 -0.016250081 -0.066947214 -0.03514357 0.04996747
-0.00039224717 0.055970985 0.03270661 -0.08264721 -0.061940935 -0.015095563 -0.04680047 0.07949836
0.005781331 -0.047023334 0.012357768 -0.019420223 -0.023500621 -0.032219306 -0.06667317 0.03678054

model.upconv_2.0.bias f4 [16]
00000000: da7b c83b 303b 93bd 574d d7bb a853 aabd
00000010: f016 e43c ec81 b93d c284 123d 0a71 333c
00000020: 15b9 d9bc 4433 cbbd 72c7 ca3d a17f 72bb
00000030: f379 c5bd fe3f 543c b469 b93d 6de4 703d
0.00611828 -0.071890235 -0.006570499 -0.083167374 0.027842969 0.09057984 0.03577114 0.010952244
-0.026577512 -0.099218875 0.099013224 -0.0037002342 -0.096424006 0.01295471 0.090533644 0.058811594

model.cnn_output_2.0.weight f4 [32]
00000000: 5b71 823f 5190 7f3f 4f68 803f 33c0 7d3f
00000010: 5f03 793f 6856 773f 2ab9 793f b7e0 813f
00000020: 3d80 803f 5cd8 7c3f 69a5 803f 3376 7d3f
00000030: d286 763f 46b9 7e3f 4562 793f e0fe 7d3f
00000040: d62a 7d3f b008 7b3f 5b24 7d3f 7b0a 823f
00000050: 40b5 813f f875 853f d8e4 7c3f a683 843f
00000060: 5f4b 843f 5989 733f 3e6a 833f 712d 7c3f
00000070: 22ae 813f c065 803f d374 7d3f 5a9a 7f3f
1.0190843 0.99829584 1.0031832 0.991214 0.9727077 0.9661622 0.9754816 1.0146703
1.0039135 0.9876764 1.0050479 0.9900848 0.9629947 0.99501455 0.9741557 0.99217033
0.9889349 0.9806013 0.988836 1.0159448 1.0133438 1.0426626 0.9878669 1.0352676
1.0335501 0.9513145 1.0266798 0.9850684 1.0131266 1.0031052 0.99006385 0.99844897

model.cnn_output_2.0.bias f4 [32]
00000000: 4533 eabb c9c9 99bc 07ad a73c 42d5 823c
00000010: 5eb2 89bd 6bb1 ddba 48e7 8abc f290 bf3c
00000020: 9bcf 853a 7b1b acbc 09ec f1bc 2711 683c
00000030: cd1b 3bbc 6cdd 5ebc d7e1 9c3c 89d9 2a3c
00000040: b09d 2d3c 6f04 973c e43a 01bb f26f 303c
00000050: 909d ce3b 4e53 423a 321d 9dbb 328c 7cbc
00000060: bd3d d8bc 722b 043d 917d d33b de04 58bb
00000070: 8b6f 21bc d60b a4bb b17f aa3c 44f5 94bb
-0.007147225 -0.018772976 0.020468248 0.01597083 -0.06723474 -0.0016913837 -0.016955987 0.023384545
0.0010208966 -0.021009197 -0.029531496 0.014164246 -0.011420202 -0.013602596 0.019150658 0.010427841
0.010596678 0.018434731 -0.001971894 0.010768877 0.006305404 0.0007412926 -0.00479474 -0.015414285
-0.026396627 0.032267995 0.0064541777 -0.0032961885 -0.009853254 -0.0050062938 0.020812841 -0.0045458395

model.cnn_output_2.0.running_mean f4 [32]
00000000: de75 c93d 53bb b0bd c5d0 cabd 1009 fdbd
00000010: 7179 973d 5b43 f63d 17b2 ab3d ec49 3ebb
00000020: 5be1 ba3c ef69 023b 0c0c 1d3e 3f8c c13d
00000030: 248c dabd db93 38bd 738d 1fbc 1a18 c03d
00000040: fc40 8e3e e99e 9a3b b475 df3c e386 c43d
00000050: 8ea7 663d e9b4 9c3c d4b5 af3c 15de 503d
00000060: 41f4 3d3e 6a8d 083d 519f 673d 174c ac3e
00000070: 2b33 db3b ffac 0e3e fe6e 163d 3ac4 dc3c
0.098369345 -0.08629479 -0.09903101 -0.12355244 0.0739621 0.12024566 0.08383577 -0.002903576
0.022812536 0.0019899567 0.15336627 0.09450578 -0.10671261 -0.04506288 -0.009738314 0.09379597
0.27783954 0.0047186506 0.027277805 0.0959604 0.056312136 0.019129233 0.021449007 0.050993044
0.18550207 0.033337988 0.05654842 0.33651802 0.0066894493 0.1393318 0.036726944 0.026949037

model.cnn_output_2.0.running_var f4 [32]
00000000: 74d8 c53c 76c8 ca3c 3fa6 8b3c a294 983c
00000010: 2b3c 8d3c 8ff4 293c 488b ee3c 2b53 0f3c
00000020: f67d 793c bd32 413c d737 c43c 6909 0c3d
00000030: 5ed2 493c 4139 953c 8def 8c3c bd72 8e3c
00000040: 4476 263d 3395 1a3a 269a c23b 7bef 403c
00000050: 9732 da3b 1fb5 3e3b a9e4 583b 45c1 ed3b
00000060: caa3 bb3c 630d e83b 4d18 0a3c 86eb 7c3d
00000070: 7d86 a43a 9469 cc3c c1da 0e3c ddbc 9b3b
0.024151064 0.02475379 0.017047046 0.018625561 0.017240604 0.010373249 0.029119149 0.008747856
0.015227785 0.011791882 0.023952408 0.03418866 0.012318222 0.018215777 0.01720407 0.017388696
0.04064013 0.0005896866 0.005938786 0.011775847 0.006658863 0.0029099656 0.0033095276 0.0072557055
0.02290525 0.007081674 0.008428645 0.06174805 0.0012552288 0.024952687 0.008719147 0.004752739
