models/SV_CNNet_30s--epoch=19-val_loss=1.47-train_loss=1.55.ckpt (torch, 60675 bytes, 45 tensors)

model.cnn.0.weight f4 [8, 3, 5]
0	0xbe339790	-0.17538285
1	0xbcf5606d	-0.029953206
2	0x3d8082b3	0.06274929
3	0xbc9661d1	-0.01835719
4	0xbe2429fa	-0.16031638
5	0xbe5aec63	-0.21379237
6	0x3e3e36af	0.18575548
7	0x3d81e2d5	0.06342093
8	0xbd3b21a4	-0.04568638
9	0x3e8df85e	0.27728552
10	0x3e35fd1c	0.17772335
11	0x3e3b4caf	0.18290971
12	0x3e56a564	0.20961529
13	0x3e9e65fd	0.30937186
14	0x3da273f5	0.07932273
15	0xbe642f3b	-0.22283642
16	0xbe54cf3c	-0.20782179
17	0xbe5a8521	-0.21339847
18	0xbe904683	-0.28178796
19	0xbe57807c	-0.21045107
20	0xbd459b62	-0.048243888
21	0xbdc6e4fd	-0.09711645
22	0x3e313b73	0.17307834
23	0x3c4fdebe	0.012687383
24	0x3c4a8f65	0.0123632895
25	0x3e9cf1df	0.30653283
26	0xbd8815b5	-0.06644765
27	0x3e596e66	0.2123352
28	0x3e110e0f	0.14165519
29	0xbdb411a9	-0.08792431
30	0xbe690be9	-0.2275845
31	0x3d3d697a	0.04624317
32	0xba2c0609	-0.00065621786
33	0x3de4cb6d	0.11171613
34	0xbb315f28	-0.0027064774
35	0x3db5061a	0.088390544
36	0x3e9c6697	0.3054702
37	0xbe1206e4	-0.14260441
38	0xbdb5ee62	-0.088833585
39	0x3b051507	0.0020306723
40	0x3ec0dce0	0.37668514
41	0x3e98f29b	0.29872593
42	0x3e34c7a7	0.17654286
43	0xbde47d17	-0.111566715
44	0xbdf79630	-0.12089193
45	0xbcbab74d	-0.022792483
46	0xbea27df0	-0.31736708
47	0x3e459f91	0.19299151
48	0xbe73d58f	-0.23811935
49	0xbccd4ad2	-0.025060091
50	0x3e5d9099	0.21637191
51	0x3dc56bb0	0.096396804
52	0x3e2578a8	0.16159308
53	0xbd065c04	-0.032802597
54	0x3e7b07f4	0.24514753
55	0x3e4de7c0	0.20107937
56	0x3e888e95	0.2667128
57	0x3df5bde9	0.11999113
58	0x3e89ba8d	0.2690014
59	0xbe1ce482	-0.15321544
60	0x3e449c26	0.19200191
61	0xbe94bada	-0.29048806
62	0xbdf2658e	-0.11835776
63	0x3dff591e	0.1246817
64	0x3dbc25e3	0.09186914
65	0xbe80550c	-0.25064886
66	0xbd9f0f97	-0.077666454
67	0x3e25e610	0.16201043
68	0xbda36636	-0.079784796
69	0xbe04a680	-0.1295414
70	0x3d799941	0.06093717
71	0x3e21da8c	0.15806025
72	0x3d99dc6a	0.07512744
73	0x3e2d118d	0.16901226
74	0xbe42a049	-0.19006456
75	0xbdd993b1	-0.10623873
76	0x3d821fbb	0.06353708
77	0xbe534bef	-0.20634435
78	0x3e0b6a0f	0.13614677
79	0xbcaccb9f	-0.021093188
80	0xbb467758	-0.0030283537
81	0x3df177cf	0.1179043
82	0xbe107f83	-0.14111142
83	0xbda4c3c0	-0.08045149
84	0xbe61c973	-0.22049503
85	0x3c6c5ea7	0.014426864
86	0x3eacdbef	0.33761546
87	0xbd8583aa	-0.065192536
88	0x3df1ddbb	0.1180987
89	0xbd79cee4	-0.060988322
90	0x3e570704	0.2099877
91	0xbe52a13e	-0.20569322
92	0x3e39a258	0.18128335
93	0xbe431044	-0.19049174
94	0x3d654da6	0.055982254
95	0x3e1ccc08	0.15312207
96	0x3d855553	0.06510415
97	0x3e3f152c	0.1866042
98	0xbdaada7b	-0.08342453
99	0xbe89a556	-0.26883954
100	0x3e7d5ce1	0.24742462
101	0x3e7e5561	0.24837257
102	0x3dc8a1eb	0.097965084
103	0x3e8a2ae0	0.26985836
104	0xbdcdb883	-0.100449584
105	0x3ccc9fc8	0.024978533
106	0xbe251d24	-0.16124398
107	0xbeb43521	-0.35196784
108	0xbe5812a8	-0.21100867
109	0x3db66768	0.08906442
110	0x3ae334a3	0.0017334413
111	0xbd4dfeea	-0.050291933
112	0xbe56cd3f	-0.20976733
113	0x3e0389e6	0.12845573
114	0xbd279ff3	-0.040924024
115	0x3d5a7bb1	0.053340618
116	0x3e87f4dc	0.26554
117	0x3e0587bb	0.13040058
118	0xbcfc63c0	-0.030809283
119	0x3b32b144	0.0027266303

model.cnn.0.bias f4 [8]
0	0x3e43b9a3	0.19113784
1	0x3daffdb4	0.08593312
2	0x3e54ef89	0.207945
3	0xbe390206	-0.18067178
4	0x3e156be5	0.1459194
5	0x3e2b38ce	0.16720888
6	0xbc668eeb	-0.01407216
7	0x3dd4d20c	0.10391626

model.cnn.1.weight f4 [8]
0	0x3f82a27b	1.0205835
1	0x3f8442c5	1.0332876
2	0x3f7cd716	0.98765695
3	0x3f6f9cc3	0.93598574
4	0x3f741971	0.9535132
5	0x3f7fecfa	0.9997097
6	0x3f796d05	0.97431976
7	0x3f82ae6f	1.0209483

model.cnn.1.bias f4 [8]
0	0xbc3f05e2	-0.011659117
1	0x3e029ed3	0.12755899
2	0xbc8c3167	-0.0171134
3	0xbbd85907	-0.0066024098
4	0xbc67099c	-0.014101412
5	0x3c201716	0.009771129
6	0xbd0f1ac6	-0.034937643
7	0x3df55636	0.11979334

model.cnn.1.running_mean f4 [8]
0	0xc029401a	-2.6445374
1	0xc1272e1e	-10.448759
2	0xbe731f89	-0.23742498
3	0xc083adb3	-4.1149535
4	0x3e7ecb3b	0.24882214
5	0xbf581604	-0.84408593
6	0x3ee338ca	0.44379264
7	0xc0ae66be	-5.450042

model.cnn.1.running_var f4 [8]
0	0x440c0ec3	560.23065
1	0x4348212e	200.12961
2	0x43e32794	454.3092
3	0x43ee5239	476.64236
4	0x43c851fc	400.6405
5	0x4395cb52	299.58844
6	0x43ecd6b6	473.67743
7	0x43895e24	274.73547

model.cnn.3.weight f4 [16, 8, 5]
0	0xbda6571a	-0.08122082
1	0xbc1742ba	-0.009232217
2	0x380a2a6e	3.294128e-05
3	0xbdfea3f9	-0.12433619
4	0x3bf98508	0.0076147355
5	0xbafab2bf	-0.0019126757
6	0xbbe982b7	-0.007126178
7	0xbdac51f2	-0.08414067
8	0xbe15a828	-0.14614928
9	0xbc31f204	-0.010860924
10	0x3bc516a7	0.0060146633
11	0xbcf4e4cc	-0.029894255
12	0xbdd16d4c	-0.10225925
13	0xbe20938f	-0.15681289
14	0xbd35816d	-0.044312883
15	0x3d0a45f7	0.03375813
16	0xbb7f9b6e	-0.0039002555
17	0xbdb9137b	-0.09036919
18	0x3d253ed5	0.040343124
19	0xbd022604	-0.031774536
20	0xbde253b2	-0.1105112
21	0x3dc163b1	0.09442843
22	0x3cd2c150	0.025726944
23	0x3c37293b	0.011179264
24	0x3dca6e45	0.098843135
25	0xbb95043a	-0.004547623
26	0x3dc650ee	0.09683405
27	0x3d07a382	0.033114918
28	0xbe3fba89	-0.18723501
29	0x3db4a22b	0.088199936
30	0xbdd66cda	-0.104699805
31	0xbd0c5cdf	-0.034268256
32	0xbe1362e3	-0.14393191
33	0xbda9ee03	-0.0829735
34	0xbd97c63b	-0.07410856
35	0x3d847fcf	0.0646969
36	0x3dd38c75	0.103295244
37	0x3cd4c957	0.025974913
38	0xbe43329c	-0.19062275
39	0x3ddec142	0.10876705
40	0x3c639468	0.013890363
41	0x3bb8d59b	0.005640698
42	0x3db92f4b	0.090422235
43	0x3e29b43e	0.16572663
44	0x3de1e8d5	0.11030737
45	0xbd836055	-0.06414858
46	0xbd65c7f1	-0.056098882
47	0xbc05dbdf	-0.008170097
48	0x3dbf521b	0.09341832
49	0x3d519e8f	0.051176604
50	0xbe040c8b	-0.1289541
51	0x3d42496d	0.047433306
52	0x3ddbda6e	0.107350215
53	0xbcb6c8c7	-0.022312535
54	0xbde1d90a	-0.11027725
55	0xbd68cd56	-0.05683645
56	0x3d8d26be	0.06892155
57	0x3d946a80	0.07246876
58	0x3d8685f2	0.06568517
59	0x3dfeb9a6	0.124377534
60	0x3da35a5c	0.07976219
61	0xbe3b2435	-0.1827553
62	0xbdd48f23	-0.10378864
63	0xbcff83e5	-0.031190822
64	0xbdb1047b	-0.08643433
65	0xbd9f807e	-0.0778818
66	0xbd4a6d71	-0.049420778
67	0x3d6ac585	0.057317276
68	0xbd86c264	-0.06580046
69	0x3d841279	0.06448836
70	0x3bee2a94	0.0072682593
71	0x3d094089	0.03350881
72	0xbe0cd9d6	-0.13754973
73	0x3c6450be	0.013935266
74	0x3d5f0197	0.054444876
75	0xbd3a4df1	-0.045484487
76	0x3d976872	0.07392968
77	0xbd8a8105	-0.0676289
78	0x3d7a2c9b	0.061077695
79	0xbdc6cdd9	-0.09707231
80	0xbdc42a59	-0.0957839
81	0xbe23a064	-0.15979153
82	0x3d4e4e33	0.050367545
83	0x3dd00c3f	0.10158586
84	0x3d6a2eed	0.05717366
85	0x3d05ad6a	0.032636084
86	0x3c8cb29a	0.017175008
87	0x3dcc8d1e	0.099878535
88	0xbcec6085	-0.028854618
89	0x3e09877e	0.13430592
90	0x3d8a4cb5	0.06752912
91	0xbdc399c7	-0.09550815
92	0xbe25bd26	-0.16185436
93	0xbd8978cb	-0.067124926
94	0x3d32d80d	0.043663073
95	0x3d5bd956	0.053674065
96	0x3cd3ddcf	0.025862603
97	0xbc52287f	-0.012827038
98	0x3e27264e	0.16323206
99	0x3c3b957c	0.011449214
100	0x3c4ac73f	0.0123766055
101	0xbe5168ff	-0.20450209
102	0xbe2c2b9d	-0.16813512
103	0xbd619924	-0.055077687
104	0xbd5823e2	-0.052768596
105	0x3ca17cb1	0.019712778
106	0xbd407ed8	-0.046995968
107	0xbd76acc1	-0.060223345
108	0x3dd6170f	0.10453617
109	0x3d5f6342	0.05453802
110	0x3dcba961	0.09944416
111	0x3daae98d	0.083453275
112	0x3df2d00c	0.11856088
113	0x3cb98492	0.022646222
114	0xbe273539	-0.16328897
115	0x3de6012b	0.112306915
116	0x3def603f	0.11688279
117	0x3c20cf9c	0.009815123
118	0x3bc78147	0.006088409
119	0x3dec7e0d	0.1154748
120	0xbe3c5f75	-0.18395789
121	0x3d6a66bc	0.05722688
122	0x3ddf17a8	0.10893184
123	0x3dc49be8	0.09600049
124	0xbda1e8b0	-0.0790571
125	0x3e020510	0.12697244
126	0xbdcc0d4c	-0.09963474
127	0x3e0be838	0.13662803
128	0x3dd21570	0.10257995
129	0xbb7bd269	-0.0038424975
130	0x3dc94bb5	0.09828893
131	0xbe4434f6	-0.19160828
132	0xbc37d488	-0.011220105
133	0xbdb57d46	-0.08861785
134	0x3d7f7649	0.062368665
135	0x3d2d3244	0.042284265
136	0x3ce15cf4	0.027510144
137	0x3d991fc4	0.07476762
138	0x3dc45d89	0.09588153
139	0xbdb2214b	-0.086977564
140	0xbe0faaa6	-0.14029941
141	0x3e087978	0.13327587
142	0x3d4ed14b	0.050492566
143	0xbca550b2	-0.02018008
144	0x3e02fa18	0.12790716
145	0xbc6b9ff7	-0.0143814
146	0x3deaa4ab	0.11457189
147	0x3dd783d0	0.10523188
148	0xbe2f3594	-0.17110282
149	0xbe105a4f	-0.1409695
150	0x3ddaa3f5	0.106758036
151	0x3d83fd72	0.06444825
152	0xbe32f6bd	-0.17476936
153	0xbd0889ef	-0.03333467
154	0xbd824141	-0.063601024
155	0xbe010ec4	-0.12603289
156	0x3cf09965	0.02937002
157	0x3e1d42e7	0.15357552
158	0xbd4135b9	-0.047170375
159	0x3e1b7efc	0.1518516
160	0xbd17402d	-0.036926437
161	0xbdbd988c	-0.09257612
162	0x3c0ec610	0.008714214
163	0xbd3e2b53	-0.046428036
164	0xbd244fd9	-0.04011521
165	0xbd3d1b23	-0.046168458
166	0xbdfc4d92	-0.12319483
167	0xbddb08db	-0.106950484
168	0xbddba4bf	-0.10724782
169	0xbd931fe9	-0.07183821
170	0xbdf11615	-0.1177179
171	0xbd9ec4f6	-0.07752411
172	0xbdbf83f1	-0.09351338
173	0x3aa1bc9f	0.0012339539
174	0x3dabfcae	0.08397804
175	0xbdf7879b	-0.120864116
176	0x3de6992f	0.11259686
177	0x3d34e242	0.04416109
178	0x3de5b5fb	0.11216351
179	0xbdb86c2a	-0.09005006
180	0x3c79c862	0.015245529
181	0xbd6c0714	-0.057623938
182	0x3cea6b08	0.02861549
183	0xbe290ee4	-0.16509587
184	0xbcb25f0c	-0.021773838
185	0xbd899cdb	-0.06719371
186	0xbd3492ff	-0.0440855
187	0xbcdcc850	-0.026950985
188	0xbe1b9e4a	-0.15197101
189	0xbdb91429	-0.09037048
190	0x3c194804	0.009355549
191	0x3e0c3e57	0.13695656
192	0x3d9222c5	0.07135538
193	0x3da51666	0.08060913
194	0xbc874ba9	-0.01651557
195	0x3e016f99	0.12640227
196	0x3dea2e46	0.11434607
197	0xbd51c5ab	-0.0512139
198	0xbe346390	-0.17616105
199	0x3d43a11f	0.04776108
200	0x3916c0f9	0.00014377003
201	0x3d15a90c	0.03653817
202	0xbdd40d2f	-0.10354077
203	0x3e0fe7fb	0.14053337
204	0x3de12219	0.10992832
205	0x3be0c6ce	0.006859637
206	0xbd96dbbd	-0.073661305
207	0x3e0c632b	0.13709705
208	0x3ca486dc	0.020083837
209	0x3d30f70a	0.043204345
210	0xbe0cd051	-0.13751341
211	0xbda453eb	-0.080238186
212	0x3e0ac142	0.13550285
213	0xbdce752a	-0.10080941
214	0x3df14fdd	0.11782811
215	0x3d844fcf	0.06460535
216	0x3e2a3837	0.16623007
217	0xbcb80793	-0.02246455
218	0xbd93d5a8	-0.07218486
219	0xbd5a517a	-0.05330036
220	0xbbe5c6d6	-0.0070122285
221	0x3e31fb70	0.17381072
222	0xbd52758e	-0.05138164
223	0x3d8b2af4	0.06795302
224	0x3da2a8af	0.0794233
225	0x3d2e1ce1	0.04250801
226	0xbe0123e9	-0.12611355
227	0xbdd05d04	-0.10173991
228	0x3e193b54	0.14964038
229	0x3db2c2ad	0.08728538
230	0x3d1f2c6b	0.03886072
231	0xbbdbcaeb	-0.0067075393
232	0x3d1c63d7	0.038181152
233	0x3d34eafc	0.04416941
234	0xbd9c8cee	-0.07644068
235	0x3dfe7e0d	0.12426386
236	0x3e3521ee	0.17688724
237	0xbd1f9c2d	-0.0389673
238	0xbd909a9a	-0.07060738
239	0x3e167db2	0.14696386
240	0x3d9a3d75	0.07531253
241	0xbe436e6a	-0.19085088
242	0xbcbe9a90	-0.02326706
243	0x3d8505db	0.064952575
244	0x3def2084	0.11676124
245	0x3dab7f66	0.08373909
246	0xbcf20b13	-0.029546296
247	0x3d0b512f	0.03401297
248	0x3e252c4c	0.16130179
249	0x3e04bea4	0.12963349
250	0xbccaabc1	-0.024740102
251	0x3da04d8b	0.0782729
252	0xbbcc2ec2	-0.00623116
253	0x3daeb262	0.085301176
254	0xbdea7ab4	-0.11449185
255	0x3dbda67c	0.0926027

model.cnn.3.bias f4 [16]
0	0xbd3f0a0b	-0.046640437
1	0xbb18bc4f	-0.00233056
2	0x3c039669	0.008031466
3	0xbd9e6f75	-0.077361025
4	0x3dd4e75e	0.10395692
5	0xbd893172	-0.06698884
6	0xbdf94ac3	-0.12172463
7	0xbdc0e6d1	-0.09419025
8	0x3d342449	0.043979917
9	0xbdf2ba17	-0.118519
10	0x3d7c92e0	0.06166351
11	0xbbfe6daf	-0.00776454
12	0x3d00de66	0.031462096
13	0xbd5b15a5	-0.05348744
14	0x3de32a79	0.110920854
15	0xbdedc12c	-0.1160911

model.cnn.4.weight f4 [16]
0	0x3f7f10ed	0.996352
1	0x3f7b305d	0.9812067
2	0x3f7484fb	0.9551541
3	0x3f7ee071	0.9956122
4	0x3f821e49	1.0165492
5	0x3f80aaf9	1.0052177
6	0x3f779c95	0.967233
7	0x3f80e8a9	1.0071002
8	0x3f754bc2	0.9581872
9	0x3f78fdcc	0.97262263
10	0x3f89f8fd	1.077911
11	0x3f7a61b1	0.97805315
12	0x3f8bb71c	1.0915256
13	0x3f770a02	0.96499646
14	0x3f7a6098	0.9780364
15	0x3f896bba	1.0736

model.cnn.4.bias f4 [16]
0	0x3d8698a3	0.06572082
1	0x3cf102ec	0.029420339
2	0x3c329b46	0.010901278
3	0x3cf415cc	0.02979555
4	0x3cb0aae4	0.021565862
5	0x3d44ed3b	0.048077803
6	0x3d35efe4	0.04441823
7	0x3c810ed6	0.015754145
8	0xbd1368b0	-0.03598851
9	0xbcc0a71d	-0.023517186
10	0x3d11ec39	0.03562567
11	0x3c3a3a8d	0.011366499
12	0x3cd7eb0d	0.026357198
13	0x3d14f066	0.036362074
14	0xbc247cd0	-0.010039523
15	0xbb4ac0d7	-0.0030937695

model.cnn.4.running_mean f4 [16]
0	0xbeb5c790	-0.35503817
1	0x3cb342c4	0.021882422
2	0x3e1fe7c1	0.15615751
3	0x3da4c59d	0.08045504
4	0xbe778d08	-0.24174893
5	0x3e868541	0.2627354
6	0xbe07b5cc	-0.13252944
7	0xbe10d760	-0.14144659
8	0xbd4498be	-0.04799723
9	0xbe7dc017	-0.24780308
10	0xbd8aac8d	-0.06771193
11	0xbccb23a1	-0.024797263
12	0xbe8ca4c8	-0.27469468
13	0xbe769d14	-0.24083358
14	0x3dc5fde7	0.09667569
15	0xbf18ac4f	-0.5963792

model.cnn.4.running_var f4 [16]
0	0x3e415e9d	0.18883748
1	0x3de6f4e9	0.11277182
2	0x3dcd5dec	0.1002768
3	0x3e20dda1	0.15709545
4	0x3e2e450d	0.17018528
5	0x3e372f9d	0.17889257
6	0x3daa18e5	0.083055295
7	0x3e652dbf	0.22380732
8	0x3e3ed46a	0.18635717
9	0x3de561cc	0.11200294
10	0x3ddd3afa	0.108022645
11	0x3e22f724	0.15914589
12	0x3e1e91c7	0.15485297
13	0x3e4fcc51	0.20292784
14	0x3e4f86fa	0.20266333
15	0x3e98f879	0.2987707

model.cnn.6.weight f4 [32, 16, 5]
0	0x3d21e20c	0.039522216
1	0xbdcafcd0	-0.099115014
2	0xbdc18143	-0.09448483
3	0x3d8cf991	0.068835385
4	0xbdcd329f	-0.10019421
5	0xbdff4c6c	-0.12465748
6	0x3d6acd4b	0.05732469
7	0xbb9eac9e	-0.004842355
8	0xbd01e5f4	-0.03171344
9	0x3d54285f	0.051796313
10	0x3d922343	0.07135632
11	0xbdd474ef	-0.10373866
12	0x3d4576cc	0.048208997
13	0xbd395fd1	-0.045257393
14	0xbd2eea9c	-0.04270421
15	0xbdc2acf6	-0.09505646
16	0xbd4e9fdc	-0.050445423
17	0x3bd66abc	0.0065434854
18	0xbdb5d450	-0.08878386
19	0xbd654458	-0.05597338
20	0xbe18e68d	-0.14931698
21	0xbcdc83c5	-0.026918301
22	0xbd04dce6	-0.032437228
23	0x3d70b709	0.058768306
24	0xbced902c	-0.02899941
25	0xbc26463f	-0.010148584
26	0x3c84e2d4	0.016221441
27	0xbd289fc3	-0.041167986
28	0x3d242ff9	0.040084813
29	0xbd45dfb4	-0.048309043
30	0x3cc7b972	0.02438042
31	0xbbe2c192	-0.006920048
32	0x3d1a7ba9	0.037715588
33	0x3cd6b1a9	0.026207762
34	0xbdc18f98	-0.094512165
35	0xbd6b9bef	-0.057521757
36	0x3d38120d	0.04493909
37	0xbde53df3	-0.111934565
38	0xbb97e8cd	-0.0046359063
39	0xbd1f6f11	-0.03892428
40	0x3db407f3	0.08790579
41	0x3b9fd2bd	0.004877417
42	0x3db26b9a	0.087119296
43	0xbd6c8e53	-0.05775292
44	0xbd24b257	-0.04020914
45	0x3b980998	0.0046398155
46	0xbd098d01	-0.033581737
47	0x3c908100	0.017639637
48	0xbd0216c1	-0.03175998
49	0x3d534bd4	0.051585987
50	0x3cdbba34	0.026822187
51	0x3d4b697d	0.04966115
52	0xbdbe6ec0	-0.09298468
53	0xbcaf02ef	-0.021363704
54	0xbe19ccfc	-0.15019602
55	0xbdaa644e	-0.08319913
56	0x3d9d63d8	0.07685059
57	0x3d953c34	0.072868735
58	0x3d02f3eb	0.0319709
59	0xbce996c1	-0.028514268
60	0x3d1d30f0	0.03837675
61	0xbdb8b7bf	-0.09019422
62	0xbdd98d09	-0.106226034
63	0xbe362eec	-0.17791337
64	0x3c60bf46	0.013717478
65	0x3d8842cc	0.066533655
66	0xbd2d6e1a	-0.04234133
67	0x3bb6e820	0.0055818707
68	0xbc88c80f	-0.016696958
69	0xbddfec0c	-0.10933694
70	0x3d7622bd	0.060091723
71	0xbd889faa	-0.066710785
72	0xbc1fc8b3	-0.00975244
73	0x3e1d6b03	0.15372853
74	0x3d852e76	0.06503002
75	0x3c9b1a62	0.018933479
76	0x3bdeec68	0.006803084
77	0xbdfee31a	-0.1244566
78	0xbc62a4de	-0.013833253
79	0xbda2633c	-0.07929084
80	0xbdd44443	-0.103645824
81	0xbdbcfbba	-0.092277005
82	0xbd31c3ef	-0.043399747
83	0xbd1b1b06	-0.03786757
84	0xbceba1e2	-0.028763715
85	0xbd65d79f	-0.056113835
86	0x3d0daa1d	0.03458606
87	0xbd28551d	-0.041096795
88	0x3cbf7701	0.023372175
89	0x3b63eb2e	0.003477763
90	0xbb8d93ef	-0.0043206136
91	0xbd7ca62a	-0.061681904
92	0xbda68124	-0.081301
93	0x3cda56ff	0.026652811
94	0x3d88e379	0.06684012
95	0x3d9321e3	0.07184198
96	0xbd4955f9	-0.049154256
97	0xbcf0b578	-0.029383406
98	0x3c9c8682	0.019107107
99	0xbd1f0104	-0.038819328
100	0xbcd5a965	-0.02608175
101	0xbe07de0c	-0.13268298
102	0xbe05d5a0	-0.13069773
103	0x3c920012	0.0178223
104	0xbd032b89	-0.03202394
105	0x3d3be905	0.04587652
106	0xbdf048d9	-0.117326446
107	0xbd822bbc	-0.06355998
108	0xbc6fe8e2	-0.014642926
109	0x3c9c54e4	0.019083448
110	0x3d977630	0.07395589
111	0xbd0833bd	-0.033252466
112	0x3c511fc5	0.012763922
113	0xbdd81936	-0.105516836
114	0xbcd22891	-0.02565411
115	0xbd0798d1	-0.03310472
116	0xbd81d016	-0.06338517
117	0x3d72c432	0.059269138
118	0xbdba4ce2	-0.090966955
119	0xbde8f082	-0.11373998
120	0x3bc7fb95	0.006102989
121	0x3db14fd3	0.086578034
122	0x3da711fb	0.081577264
123	0x3d0d18d4	0.034447506
124	0xbdf2212f	-0.118227355
125	0xbc8eeb3e	-0.017446157
126	0xbcdc1fd2	-0.026870642
127	0x3cbfa81a	0.023395587
128	0xbd14e56f	-0.036351617
129	0xbdb6a0b7	-0.08917373
130	0xbdf0cf24	-0.11758259
131	0xbdb88a31	-0.09010733
132	0xbcce1246	-0.025155198
133	0xbd943465	-0.07236556
134	0xbdeb1630	-0.11478841
135	0xbcf25fe0	-0.029586732
136	0xbd434aaf	-0.047678646
137	0xbc1ea37e	-0.009682534
138	0xbd9a890e	-0.07545672
139	0x3d3f9924	0.046776906
140	0x3d5fe506	0.054661773
141	0xbd6bb967	-0.05754986
142	0xbe11345f	-0.14180134
143	0xbe194099	-0.14966048
144	0xbe3a3bc8	-0.18186867
145	0x3d5c9a14	0.053857878
146	0xbd8c47f6	-0.06849663
147	0x3b749d33	0.0037325143
148	0xbda8fbfe	-0.08251189
149	0xbd72ccca	-0.059277333
150	0x3c4a57a2	0.012349995
151	0xbcd4e6fd	-0.02598905
152	0x3c3a5bfb	0.011374469
153	0x3d09d67b	0.03365181
154	0xbdd5520e	-0.10416041
155	0xbdb8806d	-0.0900887
156	0xbddc0385	-0.10742859
157	0x3dacbc3f	0.084343426
158	0xbd183008	-0.03715518
159	0x3da75e0f	0.08172237
160	0xbd8296b5	-0.06376401
161	0xbd9768a4	-0.073930055
162	0x3d10b7e7	0.035331633
163	0xbd1c434c	-0.038150117
164	0xbdbaeea2	-0.09127547
165	0x3c048d63	0.00809035
166	0x3d68ab04	0.05680372
167	0xba7c2bb3	-0.0009619549
168	0x3d838a29	0.06422836
169	0x3d1610d0	0.036637127
170	0x3d7e76f8	0.062125176
171	0xbd96a344	-0.07355359
172	0xbdd6787c	-0.10472199
173	0xbd5f3644	-0.05449511
174	0x3d8e9e60	0.069638014
175	0xbca484ca	-0.02008285
176	0x3da364df	0.07978224
177	0xbddd269e	-0.10798381
178	0x3db79215	0.0896341
179	0xbd9bdf82	-0.0761099
180	0xbd4c99fc	-0.04995154
181	0xbdc279f1	-0.09495915
182	0xbd18b27f	-0.037279602
183	0xbe0aaf82	-0.13543513
184	0xbdc7e813	-0.097610615
185	0xbdafb729	-0.08579857
186	0x3cbff824	0.023433752
187	0x3ccbc137	0.024872405
188	0x3da981e8	0.08276731
189	0x3de3dd73	0.111262225
190	0x3d32f5d7	0.043691482
191	0xbdb26a8a	-0.08711727
192	0xbde42841	-0.1114049
193	0x3d16e3c5	0.03683831
194	0x3c7bba48	0.015364237
195	0x3d1b62d8	0.03793606
196	0x3cd708de	0.026249345
197	0xbb19902d	-0.0023431883
198	0x3d1604f9	0.036625836
199	0xbda21518	-0.079141796
200	0xbdbe892a	-0.09303506
201	0x3da6d58e	0.08146201
202	0xbd1a2ced	-0.0376405
203	0x3dbf7226	0.09347944
204	0x3c07a2af	0.008278533
205	0x3d11cd68	0.03559628
206	0xbc5cd2f0	-0.013478026
207	0xbc0d1328	-0.008610524
208	0xbd6d470a	-0.057929076
209	0xbda6abcd	-0.08138237
210	0xbdff21c4	-0.12457612
211	0xbd01c521	-0.031682137
212	0x3d97321d	0.07382605
213	0xbdcffe3f	-0.101559155
214	0xbd89f91d	-0.06736968
215	0x3db244dc	0.0870454
216	0x3c76b3bc	0.0150575
217	0x3c925ff8	0.017868027
218	0xbd72b0b3	-0.059250545
219	0x3de337ae	0.110946044
220	0x3d75ab89	0.05997804
221	0xbdf7e36a	-0.12103923
222	0xbdca91cc	-0.0989109
223	0xbdfc3e34	-0.12316552
224	0xbdea9e3f	-0.11455964
225	0xbc2bf4db	-0.01049539
226	0xbde6123c	-0.11233947
227	0xbd4a75e0	-0.04942882
228	0x3d86e86d	0.065873004
229	0xbd942d63	-0.07235219
230	0x3d5e50fb	0.054276448
231	0xbd9455a9	-0.07242901
232	0x3bfcc636	0.0077140583
233	0xbdc2191f	-0.09477448
234	0x3bb7a0d8	0.005603891
235	0xbe0dee38	-0.13860404
236	0xbdeb0751	-0.11476005
237	0xbd038a83	-0.032114517
238	0x3c75f4e6	0.015012002
239	0xbe2974ee	-0.16548511
240	0x3c85920c	0.016304992
241	0xbcaecebf	-0.021338819
242	0x3d0097ac	0.031394646
243	0x3c642156	0.0139239635
244	0xbe09d195	-0.13458855
245	0xbdd347f1	-0.10316456
246	0xbc00906a	-0.007846931
247	0x3dc543f6	0.09632103
248	0x3d456fd4	0.04820235
249	0xbc1602e5	-0.009155964
250	0x3dc37d65	0.095454015
251	0x3cb57255	0.022149244
252	0xbb61dc53	-0.00344636
253	0x3dd8b0ac	0.105805725
254	0xbcfd4ed3	-0.030921375
255	0x3dc1d7c0	0.09464979

model.cnn.6.bias f4 [32]
0	0x3dc505a1	0.09620214
1	0xbd530851	-0.051521603
2	0xbdaa1a15	-0.08305756
3	0xbb24059b	-0.0025027755
4	0x3d8917eb	0.06694015
5	0xbdc60da4	-0.096705705
6	0x3dc14620	0.094372034
7	0x3c06642f	0.008202597
8	0xbdce71cc	-0.10080299
9	0xbafbfcff	-0.0019225179
10	0x3d28c962	0.04120768
11	0x3d4d04ba	0.050053336
12	0x3d1a97f1	0.03774256
13	0x3c30f4b6	0.010800531
14	0x3d16f070	0.036850393
15	0x3d2ef8f0	0.042717874
16	0xbd00d95b	-0.031457286
17	0x3c739fda	0.014869655
18	0xbd1dcdab	-0.03852622
19	0x3dacda14	0.084400326
20	0x3cf09d51	0.02937189
21	0xbdc24fcf	-0.094878785
22	0xbc711b15	-0.0147159295
23	0xbd66cbfd	-0.056346882
24	0xbdda5b23	-0.10661914
25	0xbbc28990	-0.005936809
26	0x3d97a20b	0.07403954
27	0xbdd63353	-0.10459008
28	0xbcb006f5	-0.021487692
29	0xbd87b346	-0.066259906
30	0xbd82bec7	-0.06384044
31	0x3d931169	0.07181055

model.cnn.7.weight f4 [32]
0	0x3f87e35a	1.0616257
1	0x3f805790	1.0026722
2	0x3f84fc06	1.0389411
3	0x3f85184e	1.0398042
4	0x3f82fbaf	1.0233058
5	0x3f849163	1.0356869
6	0x3f888adf	1.066738
7	0x3f842449	1.0323573
8	0x3f7f321a	0.99685824
9	0x3f7c75ff	0.9861755
10	0x3f85d393	1.0455192
11	0x3f83097b	1.0237268
12	0x3f846841	1.0344316
13	0x3f833f7c	1.0253749
14	0x3f840a14	1.0315576
15	0x3f817f56	1.0116985
16	0x3f7d3f6f	0.98924917
17	0x3f7eea7b	0.9957654
18	0x3f7b68e7	0.98206943
19	0x3f84a5e0	1.0363121
20	0x3f7f3ef9	0.99705464
21	0x3f83e632	1.0304625
22	0x3f81d55f	1.0143241
23	0x3f806a6c	1.0032477
24	0x3f7b6630	0.982028
25	0x3f88214e	1.0635164
26	0x3f7ea66e	0.994727
27	0x3f7e71b0	0.99392223
28	0x3f7cf55e	0.988119
29	0x3f7edae0	0.99552727
30	0x3f8687c9	1.0510188
31	0x3f8412b7	1.0318211

model.cnn.7.bias f4 [32]
0	0x3d60478e	0.05475574
1	0xbbdec4f2	-0.00679838
2	0x3d4f4307	0.05060103
3	0x3d6f9ceb	0.058499258
4	0x3d0f09a0	0.03492129
5	0x3d495721	0.04915536
6	0x3d661ab7	0.05617782
7	0x3d34a240	0.044100046
8	0x3b500a38	0.0031744372
9	0xbc940879	-0.018070446
10	0x3d43dbff	0.047817226
11	0x3cd39b84	0.025830992
12	0x3d4f6abf	0.05063891
13	0x3cd485e9	0.02594276
14	0x3d2438cc	0.04009323
15	0x3c172673	0.009225476
16	0xbc79cf21	-0.015247137
17	0xbc901950	-0.017590195
18	0xbc97aa3b	-0.01851379
19	0x3d2e7625	0.04259314
20	0xbc293366	-0.010327196
21	0x3d23a179	0.039948914
22	0x3c893581	0.016749145
23	0xbc3f4c82	-0.011675956
24	0xbca044e5	-0.019564101
25	0x3d403946	0.04692962
26	0xbba8294d	-0.0051318766
27	0xbc35f11e	-0.01110485
28	0xbc2d5c05	-0.010581021
29	0xbc5b5090	-0.013385907
30	0x3d1765f9	0.036962483
31	0x3d31808e	0.04333549

model.cnn.7.running_mean f4 [32]
0	0xbef3bd2d	-0.47605267
1	0xbf7cea1a	-0.9879471
2	0xbf4de481	-0.80426794
3	0xbea26f5f	-0.31725594
4	0x3e3c15f3	0.18367748
5	0xbec919d1	-0.3927751
6	0xbeaa2847	-0.33233854
7	0xbed21e25	-0.41038623
8	0xbeaae06f	-0.33374354
9	0xbe1756f8	-0.1477927
10	0xbec14f29	-0.37755707
11	0x3e4a7da3	0.19774489
12	0xbe3f355b	-0.18672697
13	0x3d6211b5	0.055192668
14	0xbe9b3761	-0.30315688
15	0x3d4872cc	0.048937604
16	0xbddc311e	-0.10751556
17	0xbe1c16db	-0.15243094
18	0xbe401317	-0.18757282
19	0x3cacd40d	0.021097207
20	0xbd96bad7	-0.073598556
21	0xbd326509	-0.043553386
22	0xbec96862	-0.3933745
23	0xbd81eb9a	-0.063437656
24	0xbeeb918f	-0.4600949
25	0xbf3ca76d	-0.7369297
26	0xbb3d428d	-0.0028878779
27	0xbf17329c	-0.590616
28	0xbdc2c9ee	-0.09511171
29	0xbe2b0f75	-0.16705115
30	0xbf24e0c6	-0.6440548
31	0xbcb0738f	-0.021539478

model.cnn.7.running_var f4 [32]
0	0x3d96d265	0.07364348
1	0x3e053bbe	0.13011071
2	0x3eac094f	0.33600852
3	0x3e6d7642	0.23189643
4	0x3e3a0ece	0.1816971
5	0x3df4dd2d	0.119562484
6	0x3d6d301e	0.057907216
7	0x3db49ed6	0.08819358
8	0x3d57c7b1	0.052680675
9	0x3e68e7a2	0.22744611
10	0x3d9afc2a	0.07567628
11	0x3ea6bc6f	0.32565638
12	0x3e15a3c2	0.1461325
13	0x3ea638a8	0.324651
14	0x3dbdc35f	0.0926578
15	0x3dcfb22c	0.101414055
16	0x3e84f1c8	0.25965714
17	0x3eb6421a	0.35597306
18	0x3e04f65e	0.12984607
19	0x3e8564e3	0.26053533
20	0x3e662b7f	0.2247753
21	0x3e3d56ea	0.18490186
22	0x3d8c109d	0.06839106
23	0x3e97d747	0.2965643
24	0x3d787d4a	0.06066636
25	0x3d70951a	0.058735944
26	0x3ed63554	0.4183756
27	0x3dea959e	0.114543185
28	0x3dc15fa6	0.094420716
29	0x3dceb4f1	0.100931056
30	0x3dca6b2f	0.09883725
31	0x3e012425	0.12611444

model.cnn.9.weight f4 [1, 32, 5]
0	0xbd1d3a76	-0.03838583
1	0x3ddd28a3	0.107987665
2	0x3dd02b80	0.10164547
3	0x3c86bc6b	0.016447267
4	0x3b742b2b	0.0037257175
5	0xbca692a1	-0.02033359
6	0x3c401422	0.01172355
7	0x3cff7264	0.031182475
8	0x3d45b604	0.048269287
9	0x3d2298da	0.03969655
10	0x3de145fb	0.10999676
11	0x3d820003	0.063476585
12	0x3dcf81e4	0.101321965
13	0xbb51c9f3	-0.003201124
14	0x3ba99ca4	0.0051761437
15	0x3c0d699a	0.008631134
16	0xbc156d92	-0.009120362
17	0xbc269531	-0.010167406
18	0x3d8f67b2	0.070022
19	0x3dce4558	0.1007182
20	0xbd4a2d4c	-0.049359605
21	0x3da5a128	0.08087379
22	0x3dafe149	0.085878916
23	0xbd04e54d	-0.03244524
24	0x3db8508b	0.08999737
25	0x3dd35b48	0.10320145
26	0xbcfc91b0	-0.030831188
27	0x3d6af8b2	0.05736608
28	0x3b89d239	0.0042059687
29	0x3dc22331	0.094793685
30	0x3d309f32	0.04312057
31	0xbd1a4d19	-0.037671182
32	0x3d9be4d4	0.07612005
33	0x3da9840e	0.082771406
34	0xbca0d441	-0.01963246
35	0xbc2d1c3c	-0.010565814
36	0x3d5fe8ea	0.054665484
37	0x3db568e9	0.08857901
38	0x3db2d932	0.08732833
39	0x3d49c89a	0.049263574
40	0x3d84b991	0.064807065
41	0xbc15971e	-0.009130267
42	0x3c88812e	0.01666316
43	0x3d41b597	0.04729232
44	0xbd446bfb	-0.04795454
45	0xbd89cc20	-0.06728387
46	0xbcdd4594	-0.027010716
47	0xbd601e8c	-0.05471663
48	0x3dac2546	0.08405547
49	0xbd225578	-0.03963229
50	0x3d574c41	0.052562956
51	0x3de90a9a	0.11378975
52	0x3d9c6032	0.07635535
53	0x3da65b87	0.08122926
54	0x3db24d0b	0.08706101
55	0xbbf41fe2	-0.00745009
56	0xbca16a3b	-0.019703975
57	0x3cb209d5	0.021733204
58	0xbd96ecea	-0.073694065
59	0xbdcbc172	-0.09949006
60	0xbd04a684	-0.032385364
61	0x3dd4aaf9	0.10384173
62	0x3d866392	0.0656196
63	0xbcf5160d	-0.029917741
64	0x3d8786cc	0.06617507
65	0x3c8c84bb	0.017153135
66	0x3bfe573f	0.0077618654
67	0xbd62b749	-0.055350576
68	0xbdaf46aa	-0.085584
69	0xbda74581	-0.08167554
70	0x3d899ad2	0.06718983
71	0x3dd79cc0	0.105279446
72	0x3d866cc9	0.06563718
73	0x3d20ea6f	0.039286073
74	0x3d1d4702	0.038397796
75	0x3d908ea7	0.07058459
76	0x3c926c80	0.017874002
77	0xbd0743ca	-0.033023633
78	0xbd04bf1d	-0.032408822
79	0x3db91a4a	0.09038217
80	0xbd8396af	-0.06425225
81	0xbc192694	-0.009347577
82	0x3a582f99	0.00082468387
83	0xbd88c7f9	-0.06678767
84	0xbbf498d1	-0.007464506
85	0xbd91f278	-0.07126325
86	0xbcbe78e7	-0.02325101
87	0xbdac11d4	-0.08401838
88	0xbd612d8b	-0.054975074
89	0x3d8362ca	0.06415327
90	0xbcd44a72	-0.025914405
91	0x3d2a48dd	0.041573394
92	0xbca57a24	-0.020199843
93	0x3cf94bb8	0.030431613
94	0xbd35a78d	-0.044349242
95	0x3b2ef9e0	0.002669923
96	0xbd294651	-0.041326825
97	0x3c1bcd46	0.00950939
98	0x3da9dace	0.08293687
99	0x3d3d412b	0.046204727
100	0xbd954623	-0.07288768
101	0x3d938e36	0.07204859
102	0xbd8c3b27	-0.0684722
103	0xbd32dea6	-0.043669365
104	0xbd9b01ca	-0.075687006
105	0x3da15c8e	0.078789815
106	0x3d4cd42e	0.050007038
107	0x3aa5b830	0.0012643393
108	0x3db21331	0.08695067
109	0x3d297795	0.041373808
110	0xbcf73ec2	-0.030181292
111	0x3d3c13e4	0.045917407
112	0x3d4c213b	0.04983638
113	0xbd15012f	-0.036378082
114	0x3d9d1102	0.076692596
115	0xbd8f703e	-0.070038304
116	0xbd8988e9	-0.06715567
117	0xbda5e925	-0.081011094
118	0x3cf0a2eb	0.02937456
119	0xbdadd998	-0.08488768
120	0x3c529484	0.012852792
121	0xbbee6fd6	-0.0072765155
122	0x3c974ca4	0.018469162
123	0xbd06757d	-0.03282689
124	0x3b3859c5	0.0028129679
125	0x3d01972d	0.031638313
126	0xbc2e18de	-0.010626046
127	0x3ddfe469	0.10932238
128	0x3b8b5fc0	0.0042533576
129	0x3dbb9879	0.09159941
130	0x3d3c17b7	0.045921054
131	0x3c9775af	0.018488733
132	0xbd4554b7	-0.048176493
133	0xbd96ff3b	-0.073729
134	0xbd624bde	-0.055248134
135	0x3c6b36c0	0.014356315
136	0xbd183e4d	-0.03716879
137	0x3d280a10	0.04102522
138	0x3dd1fbfb	0.102531396
139	0xbd3be2d7	-0.04587063
140	0x3d8ea7ef	0.069656245
141	0x3d30f334	0.043200687
142	0xbd417708	-0.047232658
143	0xbd555141	-0.052079443
144	0x3d8b50af	0.068024985
145	0xbd195eed	-0.037444044
146	0xba10e7b9	-0.00055276934
147	0xbda04982	-0.078265205
148	0x3d92138b	0.07132634
149	0xbcc2d418	-0.023782775
150	0xbd016d59	-0.031598423
151	0x3d5f0170	0.05444473
152	0x3dedc107	0.11609083
153	0x3d23c689	0.03998426
154	0xbd2aa936	-0.04166528
155	0x3d1ec62f	0.03876322
156	0x3d774d94	0.06037672
157	0x3d927f72	0.071532145
158	0x3b4d3a0d	0.0031315119
159	0x3ca86530	0.020556062

exp_avg f4 [8, 3, 5]
0	0x3add97a2	0.0016906152
1	0x3b03d7a2	0.002011754
2	0x3b3bcda8	0.0028656516
3	0x3add2e85	0.0016874826
4	0x3a1d2ded	0.0005995918
5	0xbb9e228a	-0.0048258947
6	0x3c0840e4	0.008316252
7	0x3c2a3707	0.010389096
8	0x3c16a161	0.009193749
9	0xbc192397	-0.009346864
10	0xb829cd21	-4.048378e-05
11	0xb8b13cf6	-8.4513726e-05
12	0xb87d4528	-6.0384307e-05
13	0xb8affdeb	-8.391946e-05
14	0xb8406452	-4.5869798e-05
15	0xbb952286	-0.0045512347
16	0x3c300587	0.010743505
17	0x3ce883a1	0.028383078
18	0x3ca6317d	0.02028727
19	0x3c0b3c47	0.008498258
20	0xbcfecc0a	-0.031103153
21	0xbcfa412f	-0.03054866
22	0x3d423c5a	0.047420837
23	0x3c74793c	0.014921483
24	0x3ccdc3d3	0.02511779
25	0xba2519a1	-0.00062980695
26	0xba48d320	-0.00076608546
27	0xba84998a	-0.0010116559
28	0xba2fd0b1	-0.00067068177
29	0xb9887745	-0.00026028804
30	0x3bcb959a	0.0062129023
31	0x3c14ac8e	0.009074343
32	0x3b9d8d9a	0.00480814
33	0x398f7387	0.0002736116
34	0xbabb897b	-0.001430794
35	0x3b877dca	0.0041348683
36	0x3b28e11a	0.0025768937
37	0x3b397ae7	0.0028302015
38	0xba34fe97	-0.0006904392
39	0xbbd3dc74	-0.006465489
40	0xb91bfbaf	-0.00014875711
41	0xb81a257f	-3.6751382e-05
42	0x373cc6c7	1.1251955e-05
43	0x38486460	4.7777197e-05
44	0x3849590a	4.800506e-05
45	0x3b311da7	0.002702573
46	0x3b758bca	0.0037467354
47	0xb88967c5	-6.551998e-05
48	0x3b80c81d	0.0039301054
49	0x3b5567b7	0.003256304
50	0x3982fdcd	0.00024984629
51	0xbc4bab6e	-0.012431009
52	0x3bc9215d	0.0061380104
53	0xbc68f2fc	-0.014218088
54	0x3bfed19f	0.0077764536
55	0xb92733a7	-0.00015945603
56	0xb89b3179	-7.400191e-05
57	0xb91a6f30	-0.00014728005
58	0xb90ade7b	-0.00013243586
59	0xb88dbd1c	-6.758628e-05
60	0x3a89c89a	0.0010512054
61	0x3b5d96bc	0.0033811769
62	0x3a611654	0.0008586396
63	0xba1f772f	-0.00060831284
64	0x39c32cb6	0.0003722661
65	0xba98d35c	-0.001165967
66	0x3a1f88ba	0.00060857425
67	0x390971e7	0.0001310777
68	0xbafa0ec8	-0.0019077891
69	0xbb653cfa	-0.0034978972
70	0xb78df787	-1.6923774e-05
71	0x373ac560	1.1132419e-05
72	0x38553111	5.0828854e-05
73	0xb654eb4d	-3.1727425e-06
74	0xb7b356a6	-2.1378812e-05
75	0x39f039b5	0.00045819362
76	0x3b7fba12	0.0039020819
77	0x3be9fc08	0.00714064
78	0x3b93dcf9	0.004512426
79	0x3ab48abd	0.0013774257
80	0x38bb6ef6	8.937523e-05
81	0xba33e9b8	-0.0006863135
82	0xbb545aac	-0.0032402677
83	0x3b97ab62	0.0046285847
84	0xbb397975	-0.0028301154
85	0xb8ed49ee	-0.00011314811
86	0xb903f8f9	-0.00012585883
87	0xb8654f2c	-5.467159e-05
88	0xb813b085	-3.5211928e-05
89	0xb8a95e1b	-8.0760765e-05
90	0xba6e7911	-0.000909702
91	0xba40b818	-0.0007351651
92	0x39594ebb	0.00020724062
93	0x3b009c90	0.0019624569
94	0x3aa381dc	0.0012474614
95	0x3bc0aa83	0.0058797016
96	0xbb5281fb	-0.0032120931
97	0x3ac891ed	0.0015302278
98	0xba7c0fb7	-0.0009615379
99	0x3b4b9ab6	0.0031067557
100	0x370f526f	8.542657e-06
101	0xb68beeaf	-4.1703092e-06
102	0xb7ac9746	-2.057444e-05
103	0x372bc0ce	1.0237285e-05
104	0x3790dc2f	1.7268669e-05
105	0x3921037f	0.00015355459
106	0x3c9b6329	0.018968182
107	0x3d05fe14	0.03271301
108	0x3cab2cac	0.020895325
109	0x3bcb89c0	0.0062114894
110	0xbb14077a	-0.0022587464
111	0xbcfef0a9	-0.031120615
112	0xbd4a476a	-0.049384512
113	0x3d17d2aa	0.03706614
114	0xbbac1d06	-0.0052524833
115	0xba4485d6	-0.000749675
116	0xba4dfa58	-0.00078574335
117	0xba21af8c	-0.0006167821
118	0xb95591a3	-0.00020367517
119	0xb9898090	-0.00026226463

exp_avg_sq f4 [8, 3, 5]
0	0x365c2888	3.2806147e-06
1	0x36a75bc0	4.987669e-06
2	0x370c98ce	8.380228e-06
3	0x370d05fa	8.405646e-06
4	0x36cdc6c8	6.1326173e-06
5	0x3944b4a9	0.00018759318
6	0x38d98525	0.000103721664
7	0x38e32a2d	0.00010832059
8	0x38212618	3.842087e-05
9	0x39c2a2c0	0.00037123822
10	0x30cfbc0a	1.5114676e-09
11	0x317a7bca	3.6450154e-09
12	0x314f1a15	3.013729e-09
13	0x314bc309	2.9651253e-09
14	0x30d547e7	1.5518226e-09
15	0x36e12ba1	6.7106016e-06
16	0x37e9f2aa	2.7888764e-05
17	0x3890b0dd	6.8993984e-05
18	0x38747e6a	5.8291866e-05
19	0x38198448	3.660124e-05
20	0x3978c11a	0.00023723059
21	0x390fd0bb	0.00013715301
22	0x3902cbae	0.00012473643
23	0x3988b5b4	0.0002607532
24	0x39a78105	0.0003194885
25	0x330ff885	3.352081e-08
26	0x334703c7	4.6336734e-08
27	0x338e6030	6.629887e-08
28	0x331930a6	3.5667334e-08
29	0x32514cc6	1.2182857e-08
30	0x375cc523	1.3158921e-05
31	0x379effa0	1.8954102e-05
32	0x371e8665	9.448825e-06
33	0x36c1377a	5.7583065e-06
34	0x3730f442	1.0547288e-05
35	0x384336be	4.6542606e-05
36	0x37f3e31b	2.9073612e-05
37	0x389825ab	7.254941e-05
38	0x38985604	7.2639465e-05
39	0x38ad2f25	8.258064e-05
40	0x312f8d62	2.5546218e-09
41	0x301c56b0	5.687566e-10
42	0x2f637163	2.0685813e-10
43	0x30d0bb85	1.5187288e-09
44	0x30a917e2	1.2303156e-09
45	0x364d5f00	3.0602678e-06
46	0x369d94f5	4.6963055e-06
47	0x35e508b0	1.7064358e-06
48	0x37069efa	8.024037e-06
49	0x3721f8f6	9.6543135e-06
50	0x3a26965d	0.00063548033
51	0x39a4c2e7	0.0003142573
52	0x38cce491	9.770052e-05
53	0x3a329dce	0.0006813676
54	0x3a424296	0.0007410435
55	0x318fa323	4.1803943e-09
56	0x315f55c1	3.2499516e-09
57	0x31e65a61	6.704156e-09
58	0x32276381	9.743304e-09
59	0x31702014	3.494283e-09
60	0x365a040d	3.248689e-06
61	0x36e0d539	6.7005426e-06
62	0x36aecddb	5.209569e-06
63	0x36f95dd6	7.431702e-06
64	0x3730b380	1.0532211e-05
65	0x38baac70	8.90129e-05
66	0x390f652f	0.00013675237
67	0x3835cece	4.3346365e-05
68	0x385d4096	5.2750656e-05
69	0x386e831e	5.6865734e-05
70	0x311132fa	2.1129254e-09
71	0x30a438cd	1.1948714e-09
72	0x3108b7f5	1.9895172e-09
73	0x3139ef41	2.7057043e-09
74	0x3110561c	2.1003705e-09
75	0x37471f19	1.1868565e-05
76	0x378930d6	1.6354414e-05
77	0x37caecb1	2.4190495e-05
78	0x37b80ae9	2.193959e-05
79	0x37e9caa2	2.7870123e-05
80	0x39bb2337	0.00035693657
81	0x3986b592	0.00025693752
82	0x3906451f	0.00012804985
83	0x3969e06a	0.00022304212
84	0x3910e623	0.00013818643
85	0x320036c2	7.463031e-09
86	0x31f45153	7.11058e-09
87	0x31b72326	5.329997e-09
88	0x322f84dc	1.0216549e-08
89	0x3172aa1f	3.5312337e-09
90	0x36293070	2.5211157e-06
91	0x367d5628	3.7750087e-06
92	0x36990aea	4.561026e-06
93	0x363b6de1	2.792913e-06
94	0x361ad996	2.307444e-06
95	0x386ef836	5.6974786e-05
96	0x37c0a4a2	2.2964847e-05
97	0x387cd447	6.027918e-05
98	0x380a1b1f	3.2927022e-05
99	0x390d5177	0.00013477156
100	0x30829036	9.499732e-10
101	0x305178cd	7.6205425e-10
102	0x3086a8ca	9.797756e-10
103	0x3038118a	6.6963735e-10
104	0x30019f92	4.715669e-10
105	0x3725349e	9.847017e-06
106	0x37f76220	2.9490388e-05
107	0x389b8c88	7.417152e-05
108	0x385cba97	5.2625863e-05
109	0x3801bb67	3.093053e-05
110	0x392ab099	0.00016278251
111	0x39cffbe7	0.000396698
112	0x3911d7ac	0.00013908622
113	0x39a1d6f5	0.00030868468
114	0x3989f88d	0.0002631586
115	0x32fc6810	2.9383983e-08
116	0x330dad10	3.298652e-08
117	0x32d82977	2.5164566e-08
118	0x320586af	7.772242e-09
119	0x320d2b06	8.217063e-09

exp_avg f4 [8]
0	0x2d6dfb37	1.3527671e-11
1	0x2f86d886	2.4528307e-10
2	0x2dbb5b58	2.1300003e-11
3	0x2dbdae5d	2.1564245e-11
4	0xacb6ea9c	-5.198798e-12
5	0xad8ce142	-1.6016192e-11
6	0xadbbfb2c	-2.1370981e-11
7	0xae804678	-5.833284e-11

exp_avg_sq f4 [8]
0	0x1c89872e	9.100843e-22
1	0x1e2c12fe	9.109532e-21
2	0x1c8d6013	9.355432e-22
3	0x1d29ab71	2.2455597e-21
4	0x1c547e85	7.030844e-22
5	0x1d4b040a	2.6868914e-21
6	0x1c2a8e6b	5.6432353e-22
7	0x1db1bb05	4.7044884e-21

exp_avg f4 [8]
0	0x3b1d41cf	0.0023995524
1	0xb9f90f67	-0.00047504457
2	0x3b669bfe	0.0035188193
3	0x3bba604d	0.0056877495
4	0x3b394d13	0.00282747
5	0x3b137076	0.0022497452
6	0xba990f4e	-0.0011677535
7	0xbb8ecdc7	-0.0043580267

exp_avg_sq f4 [8]
0	0x37a7b0d0	1.9990286e-05
1	0x396006a7	0.00021364783
2	0x36ddd31a	6.6108887e-06
3	0x38910c32	6.91641e-05
4	0x37a66be1	1.9838977e-05
5	0x3780c9f1	1.5352825e-05
6	0x38aefbbc	8.343856e-05
7	0x388eacd5	6.80328e-05

exp_avg f4 [8]
0	0x3b304ac1	0.0026900026
1	0xbd66aaf2	-0.05631537
2	0xbc0982e6	-0.008393025
3	0xbc0c9540	-0.008580506
4	0xba6d2b2f	-0.00090472674
5	0xbbd3d6d8	-0.0064648204
6	0x3af0afed	0.0018362977
7	0xbd0de031	-0.034637634

exp_avg_sq f4 [8]
0	0x36e836d6	6.9205225e-06
1	0x39b0de92	0.00033735164
2	0x37e73767	2.7563145e-05
3	0x37c0de24	2.2991626e-05
4	0x36a9e59e	5.0633234e-06
5	0x37c8314d	2.3864815e-05
6	0x379e7150	1.8887833e-05
7	0x38879701	6.465428e-05

exp_avg f4 [16, 8, 5]
0	0x39e4e54e	0.00043658394
1	0xbbaac652	-0.00521163
2	0x3b0df525	0.002166101
3	0xbab4ad3f	-0.0013784542
4	0xba6ce6a5	-0.0009037054
5	0xbbc6f783	-0.006071986
6	0x3bb0a738	0.005391028
7	0x39d543ed	0.00040677135
8	0xbb94c4df	-0.0045400704
9	0x3ac50c1e	0.0015033518
10	0x3b5a0958	0.003326973
11	0xbb019385	-0.0019771766
12	0x3b19577f	0.00233981
13	0x3b4616f4	0.0030226083
14	0x396b155a	0.000224193
15	0x3a8c6f8d	0.0010714397
16	0x3b08a583	0.0020850606
17	0xba7bccce	-0.00096054084
18	0x3b62721b	0.0034552875
19	0xb9be5f54	-0.0003631065
20	0xbb99e18b	-0.0046960763
21	0x3a2d4a9e	0.0006610545
22	0x3b0acd7f	0.0021179614
23	0xbb49b3e2	-0.0030777385
24	0x3a5b3398	0.0008361875
25	0x3ae363c4	0.0017348458
26	0xba62717e	-0.00086381275
27	0x3b9b3815	0.00473691
28	0x3b4a8b2a	0.0030905702
29	0x3b577db2	0.0032881317
30	0x3a9d63eb	0.0012007927
31	0x3b8ce5e1	0.0042998646
32	0x3b35dbb4	0.0027749361
33	0xba959b47	-0.0011414074
34	0x3a7845b6	0.0009470837
35	0x3b6ff4de	0.0036614458
36	0xbb145eec	-0.0022639586
37	0x3b83f0e8	0.004026521
38	0x3bd0a18f	0.0063669155
39	0x3be00bfc	0.006837366
40	0xba86bf4e	-0.0010280402
41	0x3b0c3075	0.0021391187
42	0xba61f25c	-0.0008619183
43	0xbad7bc09	-0.0016459237
44	0x3b7198fc	0.0036864867
45	0xba3229fb	-0.0006796417
46	0xbb208bd0	-0.0024497397
47	0xbb9c6ed2	-0.004773953
48	0xba48b382	-0.0007656143
49	0xbaa1cbdc	-0.001234408
50	0x3aa56e20	0.0012621321
51	0x3a67f0d7	0.00088478386
52	0xbaa3e4ba	-0.0012504079
53	0xbb1fa5f7	-0.0024360397
54	0x3b3fdf4b	0.002927738
55	0x3b068fb3	0.0020532429
56	0x3a87aa8a	0.0010350507
57	0x3ae2147a	0.0017248534
58	0xb8ae91fc	-8.324158e-05
59	0x3b17645e	0.0023100595
60	0x37c462b1	2.3410978e-05
61	0xb98cfef8	-0.00026892847
62	0xb989fe3e	-0.00026320101
63	0xba157cbc	-0.0005702486
64	0x393967c0	0.00017681625
65	0x381d8109	3.755189e-05
66	0x38f6709f	0.000117511714
67	0x38f553ac	0.000116980955
68	0x3aeae562	0.0017921145
69	0x3b0517df	0.0020308418
70	0xb851057a	-4.9834583e-05
71	0xba87f190	-0.0010371674
72	0xba400c99	-0.0007326096
73	0x3a225994	0.0006193158
74	0x3b5658e1	0.0032706785
75	0xba76a218	-0.0009408309
76	0xbb84d268	-0.0040534027
77	0x39a1b822	0.00030845503
78	0xbb0bfdc3	-0.002136097
79	0xb959ef5f	-0.00020783905
80	0x3bb3ed1a	0.005490911
81	0x3b018619	0.0019763766
82	0x3b006ab7	0.0019594857
83	0x3bc5e66f	0.0060394327
84	0x3b41878d	0.0029530257
85	0xbbcaad54	-0.006185213
86	0xbc157a77	-0.009123436
87	0xbbd04cfa	-0.0063568326
88	0xbb36a85e	-0.002787135
89	0xbb937e86	-0.0045011668
90	0x3c119da3	0.008887681
91	0x3b155823	0.002278813
92	0x3aae35dc	0.0013291198
93	0x3b271239	0.002549304
94	0x3b7b3a7e	0.0038334425
95	0x3b6bc351	0.0035974572
96	0x3aaf477f	0.0013372748
97	0x3b0c4931	0.002140593
98	0x3bbaff0c	0.0057066735
99	0x3b113ebf	0.0022162644
100	0x3abf8b25	0.0014613612
101	0x39ecc811	0.0004516249
102	0x3ba9e9af	0.005185328
103	0x3b11170d	0.0022138983
104	0xbb13b163	-0.002253615
105	0x3b99273f	0.004673868
106	0x3b1dadb4	0.0024059834
107	0x3ac72dee	0.0015196183
108	0xbb068251	-0.0020524452
109	0x3b67fa90	0.003539715
110	0x3b58b079	0.003306417
111	0x3b41ebb9	0.0029589965
112	0x3b4dc6fd	0.0031399124
113	0x39cab967	0.00038666578
114	0x3b4ceca1	0.0031268972
115	0xbaf0c16f	-0.0018368195
116	0x3ab0875a	0.0013468072
117	0xbb089087	-0.0020838098
118	0xbb4c0114	-0.0031128572
119	0x3b4ad7b3	0.003095132
120	0x38e082d6	0.000107055224
121	0x3b4b4060	0.0031013712
122	0x3a372eef	0.00069878896
123	0xbb20837e	-0.0024492438
124	0x3a9e005e	0.0012054553
125	0x3a51c3cd	0.0008001894
126	0xbb0c49b4	-0.0021406235
127	0xbb2fb7f1	-0.0026812518
128	0x3b044509	0.002018275
129	0xba6a1615	-0.0008929682
130	0x3a13f07f	0.00056434417
131	0x3a702bf3	0.00091618224
132	0xbb96e87d	-0.0046053515
133	0x39c89867	0.0003826052
134	0x3b6fdfb7	0.003660185
135	0x3b074970	0.0020643137
136	0x3a536d98	0.0008065342
137	0x3ae84a2a	0.0017722298
138	0x39ba5678	0.0003554111
139	0x3abdebdc	0.0014489847
140	0x3a89d56c	0.0010515875
141	0x3a399a16	0.00070801505
142	0xbade7af8	-0.0016973903
143	0x3ac252aa	0.0014825661
144	0x3b0b2553	0.0021231964
145	0x39bfe4ee	0.00036600925
146	0x3a0e34b9	0.00054247264
147	0xba4bb48b	-0.00077707384
148	0x3a2fb99a	0.0006703377
149	0x3b18f957	0.0023341978
150	0x3b3b0a12	0.0028539938
151	0xbb93b55e	-0.0045077046
152	0x3a46a1e9	0.0007577227
153	0x3b74a36a	0.0037328848
154	0x3b27a01c	0.002557761
155	0xbabab2eb	-0.0014243996
156	0xbb4795e4	-0.0030454332
157	0x3b194679	0.0023387952
158	0xba934727	-0.0011236415
159	0xba8faab2	-0.0010960905
160	0xbbc4c26c	-0.006004622
161	0xbba43ce3	-0.005012141
162	0xbb8df5d5	-0.004332284
163	0x3a13186b	0.00056112435
164	0x3a94a294	0.0011339956
165	0xbacb5e4c	-0.0015515774
166	0x3bb2dfc8	0.0054588057
167	0x3af41cc1	0.0018624292
168	0x3c288e77	0.0102878725
169	0x3b639593	0.0034726604
170	0xbb9e0dfd	-0.004823445
171	0xba5a6c9c	-0.0008332224
172	0xbae7f949	-0.0017698194
173	0xbc152b1d	-0.009104517
174	0xbb29cbfe	-0.0025908942
175	0xbb1a5755	-0.002355059
176	0x3b058923	0.002037593
177	0xbbadcb43	-0.0053037717
178	0x3b0369d8	0.0020052101
179	0xbbc408f4	-0.0059825126
180	0xbb8bd3c6	-0.0042671887
181	0xbbaa48bd	-0.0051966594
182	0x399028b3	0.00027496144
183	0xbac81c8c	-0.0015267297
184	0xbac81ab4	-0.0015266747
185	0xbab7778f	-0.0013997423
186	0xbabbf7f7	-0.0014340867
187	0x3b906d71	0.0044075777
188	0xbbcb5217	-0.006204854
189	0x3adb6f3d	0.0016741526
190	0x3b55e418	0.0032637175
191	0x3a3ae56a	0.0007129522
192	0xbb77f2fa	-0.0037834034
193	0xbc02f3a9	-0.007992663
194	0xbbeb227e	-0.0071757426
195	0x3aaece3f	0.0013336613
196	0x3b2c427c	0.0026284745
197	0x3c6d4b43	0.014483276
198	0x3bc3d491	0.0059762676
199	0x3c1a4d26	0.009417808
200	0xbac96e43	-0.0015367944
201	0x3b0c82ab	0.002144019
202	0x3b15da5b	0.0022865746
203	0x3b9aa910	0.004719861
204	0x3b79e5eb	0.0038131427
205	0xbbde35ca	-0.0067813145
206	0xbbf2da9b	-0.0074113137
207	0xbb52332f	-0.0032073965
208	0xbb9224a8	-0.004459936
209	0xbb9c95ad	-0.004778585
210	0x3b6eda3d	0.0036445998
211	0x39999c86	0.00029299053
212	0x3a944c5d	0.0011314262
213	0x3abf1d5b	0.0014580892
214	0x3b202ced	0.002444084
215	0xbb05dd11	-0.0020425955
216	0xbaf25ce3	-0.0018490817
217	0x389f3244	7.5910735e-05
218	0x3b9255cf	0.0044657956
219	0x3b0b35ad	0.002124171
220	0x3b236726	0.0024933307
221	0x3a5c7ef3	0.0008411251
222	0x3b7c1d78	0.0038469713
223	0x3b5fc200	0.0034142733
224	0x3b1798a7	0.002313176
225	0x3a6099af	0.00085678225
226	0x3ac850a1	0.0015282818
227	0x3ab4a500	0.0013782084
228	0x3902b317	0.00012464482
229	0x3ab9eee9	0.0014185581
230	0x394bb70d	0.0001942778
231	0x39093e6e	0.00013088595
232	0x3ae11cde	0.0017174741
233	0x3a8f4323	0.0010930042
234	0x3a82c14d	0.0009975821
235	0xbb209bd3	-0.002450694
236	0x38ab5d0e	8.171248e-05
237	0xbaf5f9bb	-0.0018766442
238	0xbaa0a21c	-0.0012255344
239	0xb96a3689	-0.00022336295
240	0xba7f6b14	-0.0009743434
241	0x3b9a4407	0.0047078165
242	0x3a8007fb	0.0009768003
243	0x3aebb935	0.0017984273
244	0x396a4df7	0.00022345023
245	0x3b0e9497	0.0021756047
246	0x3b04954b	0.0020230587
247	0x3aef792f	0.0018270368
248	0x3b0a5c47	0.002111213
249	0xbb38be7c	-0.002818971
250	0x3a417859	0.0007380299
251	0x3b2f4a1d	0.0026747056
252	0xba0d899f	-0.000539923
253	0x3b262583	0.0025351949
254	0x3b087e81	0.0020827355
255	0x3bfe8c56	0.007768194
