models/SV_CNNet_5s--epoch=12-val_loss=0.49-train_loss=0.48.ckpt (torch, 60675 bytes, 45 tensors)

model.cnn.0.weight f4 [8, 3, 5]
00000000: b41c 27be d18a aebe 705c 65bd 3129 2a3e
00000010: 4a07 b5bd a02a ecbd ac6b adbd fcff cabc
00000020: 9d5e db3c 1b0f 103d 7140 853e 0f86 6abe
00000030: a0ba 30bf 2598 53bb 2609 483f 5df9 0fbd
00000040: 2699 72be 8d67 b0be 4990 aebe 3a56 68be
00000050: 97f2 8ebd 3795 fe3d b876 c3bd 8adc 413e
00000060: 9c44 f53d 7953 523e 2cd8 133f 2a7d a23e
00000070: a954 b03e 03f3 8a3e c68e 79be 7bcf 333e
00000080: 39d2 abbc 60ac 6b3d 5ae9 653e f8fb 9a3e
00000090: 5f97 a73c ddb8 d23c ab96 8e3c 3a67 f13d
000000a0: 30a8 e9bd 8695 c9bd dfce c93e ba0a 953e
000000b0: f7ee 253f c6ac ac3e 6998 9a3e 4eb4 5abe
000000c0: 15c4 873c f1fd e8bb c600 55bd 13e3 17bd
000000d0: 1eb1 d2bd 20c0 623d eee7 283e 1757 7e3d
000000e0: a1eb 5b3e 845f f43e 004c 373e cf54 9fbe
000000f0: 8046 8abe 9098 c7be 788b 14bc cd66 12be
00000100: bec1 29be f8e1 443d 68b9 a0bd 6f17 83bd
00000110: bb17 1ebc 8410 9cbd dcff bbbe c6ad 7cbf
00000120: a16f c2be b270 b3be dce0 58be c8d8 ab3d
00000130: 63e1 0b3e f4dd c53d 12b1 183d 4f79 8abe
00000140: d936 5e3d 7cba 31be 5c4a 88be 0e4b 40be
00000150: 49a8 ecbc ecc6 353e e0be 2f3f b338 f33e
00000160: 5ece 023f cef8 093f 9b12 fbbd e558 9e3d
00000170: 9659 503e 0ea0 e7bd 94d6 593e 54d1 a4bd
00000180: 19b5 2f3e 4b47 4ebe cc26 1dbe 3629 933c
00000190: d9ab 963d 9708 fabe e444 8dbe 4b6c edbe
000001a0: 449a 15bf 1662 543c b048 a2b8 d020 4dbd
000001b0: 6660 5bbd f9a5 1dbc e279 3b3b 33a2 03bb
000001c0: 24de 85ba 6a95 bb3b 4a26 0cbc fd6e 0fbd
000001d0: b16b 393f be77 673f 6cc9 733f f2c9 b33e
-0.16319543 -0.34090284 -0.05599636 0.16617276 -0.08839281 -0.115315676 -0.084678024 -0.024780266
0.026778514 0.035170656 0.26025727 -0.22902702 -0.6903477 -0.003228673 0.7813896 -0.03514992
-0.23691234 -0.34454003 -0.34094456 -0.22689143 -0.06979864 0.12430804 -0.09544128 0.18931785
0.11975977 0.20539655 0.5775173 0.31736118 0.3443959 0.27138528 -0.2437087 0.17559616
-0.020974265 0.057537436 0.22452298 0.30270362 0.020457922 0.025722915 0.017405828 0.11787267
-0.11409032 -0.098429725 0.39415643 0.29109746 0.64817756 0.33725566 0.30194405 -0.21357843
0.016572991 -0.0071103503 -0.05200269 -0.03708179 -0.10287689 0.055359006 0.16494724 0.062094774
0.21476604 0.47729123 0.17900085 -0.3111939 -0.27006912 -0.38983583 -0.009066455 -0.14297028
-0.16577813 0.048067063 -0.078478634 -0.06400954 -0.0096492125 -0.076203376 -0.36718643 -0.9870266
-0.3797579 -0.35046917 -0.21179527 0.08390957 0.13660197 0.09661475 0.037278242 -0.27045676
0.054251526 -0.17356294 -0.26619232 -0.18778631 -0.028888838 0.17751664 0.6865063 0.47504196
0.5109614 0.5389527 -0.12259408 0.07731799 0.20346674 -0.11309825 0.21273261 -0.08047739
0.17158927 -0.20144384 -0.15346831 0.017963987 0.07356996 -0.4883468 -0.27591622 -0.46371683
-0.58438516 0.012962839 -7.738301e-05 -0.05008012 -0.05355873 -0.0096220905 0.0028606583 -0.0020085692
-0.0010213298 0.0057245987 -0.008554051 -0.035017956 0.7242995 0.9041709 0.9522922 0.3511501

model.cnn.0.bias f4 [8]
00000000: d291 5d3e 66db 7e3e a140 953d 75e5 bfbd
00000010: d54f 22be b7b0 6cbe 5494 dcbd 0c89 943d
0.21637657 0.24888381 0.072877176 -0.09369937 -0.15850766 -0.23114286 -0.10770479 0.07252702

model.cnn.1.weight f4 [8]
00000000: bdb4 823f dfc9 783f 4f23 6b3f 8354 763f
00000010: 27fb 863f cf75 7a3f b312 7d3f 74e2 8a3f
1.0211407 0.9718303 0.9185075 0.96222705 1.0545396 0.9783601 0.9885666 1.0850358

model.cnn.1.bias f4 [8]
00000000: 4499 c03d c42f d2bd a705 05bd d76f 67bd
00000010: bf44 ce3c ed5e 84bd edff ab3a d3e9 bc3d
0.09404233 -0.10263017 -0.032476094 -0.056503143 0.025179265 -0.06463418 0.0013122536 0.09224286

model.cnn.1.running_mean f4 [8]
00000000: 316c 9dc0 bca4 4ac1 c788 1740 6d27 8b40
00000010: 1d74 2ac1 83bb 713f 8190 2e40 dcff 9cbf
-4.919457 -12.665218 2.3677232 4.3485627 -10.653348 0.94426745 2.7275698 -1.2265582

model.cnn.1.running_var f4 [8]
00000000: 671f 2f42 15b7 0e43 540b 2443 620d 9842
00000010: af2a 3d42 94c4 7e43 03ee 1943 7033 1d3f
43.780666 142.71516 164.04425 76.02614 47.291683 254.76788 153.92973 0.6140661

model.cnn.3.weight f4 [16, 8, 5]
00000000: 6b03 983d df9e 02be ca52 2cbe 39ae 423d
00000010: 9579 3abc 3f1e 30be 858b c5bd 3405 e7bd
00000020: 1c61 10bd 3503 2b3e ee73 0abe 0768 d2bc
00000030: 463f 5dbe 29b3 293d 032f 113c f379 83be
00000040: 697c 7cbd 33b8 083c fab5 3e3d 5f65 0ebe
00000050: 745b 33be 5104 103d 0d8e 4b3c f22c 1d3d
00000060: 188a 25be 5e28 d23d 74ad 25be 50cb a3bd
00000070: f450 863d d000 acbd f857 bb3d d89a 5fbd
00000080: 011e 8cbd be4c 7dbd 31a3 fa3d 0aaf c5bc
00000090: ce3e 073e 8ded 06be 49d5 a4bd 32ce 8ebd
000000a0: 613f c53c 9714 a1bd 2625 8f3d d371 393c
000000b0: 91d9 e93d 11cd b0bd 0a1c 94bb eb41 49be
000000c0: 174e 1ebd 71fa 03be 80ba 223c cd95 4c3d
000000d0: af3a 83bc 85c1 30bd 915c 03be b501 67bd
000000e0: 1f3d 673d 47c7 8fbd 91fe 8abd 35d0 93bb
000000f0: 5825 2e3e 9fe0 10be e2f1 53bd 38a2 4ebd
00000100: 4061 e6bc 96fa 923d 3f9b cdbd 81ad cd3d
00000110: aa6b 3ebd f170 15be 246a 143e 3c20 9c3d
00000120: bc34 313e 9851 42bd 010b 5a3c 2019 95bc
00000130: 367d a1bd 4e1f c0bd c270 db3c 705f fabd
00000140: c620 863d cfbb 31be ce68 3dbe cc84 a33d
00000150: 6965 76bd e941 92bd 53e2 cebc 220b cfbc
00000160: 5ea8 cdbc 4d05 04bd bc8a 2fbe 6277 1bbd
00000170: 4d67 f2bd f956 31bc 62ae 29be b573 5dbe
00000180: 63a5 47be 345d 093d cb1e 5c3e 64b0 a23d
00000190: b55a 3e3b 8c17 b53b f75b 573d 0050 d0bd
000001a0: 9494 08be bea7 f8bc 1136 03be ad80 53bc
000001b0: 526e cdbd 5537 b4bd 39f4 0a3e 3e53 cabb
000001c0: e94e 343e 9406 47bb 44bd ec3a 5dc2 e83d
000001d0: d915 b33d ca8a 1d3d 8d93 10be 46a4 a13d
000001e0: 2faa e03d dcf1 6dbc a4ca 903d db46 17be
000001f0: c3c1 aabd 13bd 08be d61e 25be 61c5 90bd
00000200: 8df5 e73d 3927 18bd a474 c4bd ecc0 8fbc
00000210: 3978 a73d 4252 3ebd d84f a7bd cbb5 e3bc
00000220: 32cb 4ebd 7b7a e33d 2f08 193e c2b9 043e
00000230: 2239 243e 6150 083e 70e3 af3c 8429 c33c
00000240: 9f32 e7bb d9b8 b9bc 85e6 543e b3fa d53d
00000250: cfed b23d ac65 413d 17c1 f5bd 2d57 3cbe
00000260: 0d87 8bbd 9fb0 823d 15a0 293c b60d 09be
00000270: 8542 3fbe cd8a dcbd 3f7a 683d 24c6 2cbc
00000280: c22f 03be dcfd 48bd 2944 14bc db4d f4bd
00000290: 0c90 9bbd 6c97 6c3d f4a6 9b3c 246e 543e
000002a0: 4de6 02be 5e7c 30bd baca af3d 3785 a6bc
000002b0: eb03 1c3e 30cd ebbd 0467 e93c 8c8e 1dbe
000002c0: 0502 053e 386a d0bc 6e59 1a3c 30a2 703d
000002d0: 42f7 b3ba 09f9 ed3b 7716 afbd eeb9 9ebd
000002e0: 4040 96bc f91c a3bd 8610 cb3c 8f78 4f3e
000002f0: 01b8 3e3e 31ed 353d 2c20 b2bc 5b05 313e
00000300: c42a 8dbc e38e 9c3d 766b ccbc 014c 553d
00000310: 2acf d33d be3a 193c 7ee2 693b 7507 e6bc
00000320: 924d 4b3e 2349 3e3e efc5 4abd 4452 7a3d
00000330: 430c 0cbd 37ea 8dbd 68a4 3ebd 4a38 eabd
00000340: 92ab 973d a663 3dbd 4f45 153e 0a44 183c
00000350: 1962 95bc 2fcd 7d3d 86d0 4cbd 0472 e1bb
00000360: a8d9 92bd 17b0 a03c e67a f53d 3409 87bd
00000370: d59a 24bd 2d81 29be 1250 1b3e 8fd6 21be
00000380: 5c81 05be 5fee 92bd e3ec 203d 3f06 72bd
00000390: 4190 f43d dfbe af3d f945 8a3d 9985 8dbd
000003a0: 06bc 03be ce3e c2bc 120b 1fbe 4f97 04bb
000003b0: 2522 bdbd 9a10 503e 4495 b73c 3ffa e53c
000003c0: ab68 c53d 5e3a fb3b 1438 233d df69 04bc
000003d0: 4220 cf3c 1dca 5cbd e7c0 a6bd 9512 1c3e
000003e0: 6687 453d 58b0 6c3e ba52 94bd 0dc4 98bd
000003f0: 015d d53d c316 8dbd 87ab b03d eee2 b13c
0.07422527 -0.12755917 -0.16828457 0.047529433 -0.0113815265 -0.17199038 -0.09645752 -0.11280289
-0.03524886 0.16700442 -0.13520786 -0.02568437 -0.21606168 0.041430626 0.008861306 -0.25678977
-0.061642084 0.008344698 0.046560265 -0.13905858 -0.17515355 0.035160366 0.012424004 0.03837294
-0.1616596 0.10261606 -0.16179448 -0.07997763 0.06558409 -0.083985925 0.09147638 -0.05459103
-0.0684166 -0.061840765 0.122381575 -0.024131317 0.13207552 -0.13176556 -0.080484934 -0.069729224
0.024078073 -0.07865255 0.069895074 0.011318642 0.114184506 -0.08632863 -0.004519944 -0.19654052
-0.03864869 -0.12888505 0.00993216 0.04994755 -0.016019193 -0.043153305 -0.1282828 -0.056398112
0.056454774 -0.07020431 -0.06786836 -0.004510904 0.17006433 -0.14148186 -0.05174435 -0.050447673
-0.028122544 0.07176702 -0.100393765 0.10042859 -0.046489395 -0.14593865 0.14493614 0.07623336
0.17305273 -0.047441095 0.013308288 -0.018200457 -0.0788521 -0.09380971 0.026787166 -0.122252345
0.0654922 -0.173568 -0.18497011 0.07984313 -0.060155306 -0.071414776 -0.025254404 -0.025273863
-0.025104698 -0.032231618 -0.17142767 -0.03795565 -0.11836109 -0.010823959 -0.16570428 -0.2162617
-0.19496684 0.03353615 0.21496122 0.079438 0.0029045765 0.0055264886 0.05257794 -0.10171509
-0.13337928 -0.030353423 -0.12813593 -0.012909097 -0.100308076 -0.08799616 0.13569726 -0.006174474
0.17608227 -0.003036891 0.0018061777 0.11365197 0.087444015 0.038462438 -0.14118786 0.07892661
0.1096996 -0.014522996 0.07069901 -0.14773123 -0.08337738 -0.13353376 -0.16125044 -0.07068897
0.11326132 -0.03714678 -0.0959256 -0.017548047 0.081772275 -0.046465166 -0.08169526 -0.027796647
-0.05048675 0.11107346 0.14944528 0.12961486 0.1603742 0.13311912 0.021470755 0.023823507
-0.007055595 -0.02267115 0.20791061 0.10448208 0.08736765 0.047216102 -0.119997196 -0.1839263
-0.06812868 0.06381344 0.010353108 -0.13384137 -0.18677719 -0.10768662 0.056757208 -0.010545287
-0.12811187 -0.049070224 -0.009049454 -0.11928912 -0.07595834 0.057761595 0.019000508 0.2074514
-0.12783165 -0.043087356 0.08583589 -0.020327194 0.1523587 -0.11513746 0.028491504 -0.15386409
0.12989052 -0.025441274 0.009420736 0.058748424 -0.0013730305 0.0072623533 -0.08549207 -0.07750307
-0.018341184 -0.079645105 0.024788152 0.20260833 0.1862488 0.044415656 -0.021743856 0.17287199
-0.017232306 0.07644441 -0.024953585 0.052074436 0.10342248 0.009352384 0.0035687978 -0.028079728
0.1985381 0.18582587 -0.04950517 0.06111361 -0.03419138 -0.069294386 -0.04654351 -0.114365175
0.07405771 -0.04623761 0.1457722 0.0092935655 -0.018235253 0.061963256 -0.05000355 -0.006880047
-0.07170421 0.019615216 0.11986332 -0.06593552 -0.04018672 -0.16553183 0.15167263 -0.15804504
-0.13037628 -0.07174372 0.039288413 -0.059087988 0.11941577 0.08581328 0.067516275 -0.06910247
-0.12864694 -0.023711588 -0.15531567 -0.0020231789 -0.09235028 0.20318833 0.022410043 0.028073428
0.096391045 0.00766687 0.039848402 -0.008081882 0.025283936 -0.053903688 -0.08142262 0.15241463
0.04822483 0.23114145 -0.07242341 -0.07459269 0.1041813 -0.06889107 0.08626466 0.021714654

model.cnn.3.bias f4 [16]
00000000: 04cb e2bd f1d4 0bbe 2757 02be 468b 2c3d
00000010: f89d dfbd ad9e 8dbc 2445 a73d 7b01 ccbd
00000020: 9c3c b9bc e813 d6bd fb24 cf3c 4716 823d
00000030: 7a48 68bc 12cd 5bbd 6dea 483d 943b 01be
-0.110738784 -0.1365545 -0.12728558 0.04212501 -0.10918802 -0.017287577 0.081674844 -0.0996122
-0.022611909 -0.104530156 0.025286188 0.06351905 -0.014177436 -0.053662367 0.04905169 -0.12620384

model.cnn.4.weight f4 [16]
00000000: 1914 893f 435c 863f d48f 873f 8bae 793f
00000010: 2e9d 623f 2b36 823f 2892 753f 02b7 723f
00000020: 6ff2 773f ac5f 743f 4ecc 7d3f 4fcf 873f
00000030: 6158 783f 448b 843f 3f01 7e3f fe1a 8c3f
1.0709258 1.0496906 1.0590768 0.97531956 0.8852109 1.0172781 0.9592614 0.948105
0.968543 0.95458484 0.9913987 1.061014 0.97009856 1.0355 0.9922065 1.0945737

model.cnn.4.bias f4 [16]
00000000: 5c9e bf3d 538f c43d ed36 943d dcfc 7d3a
00000010: 2da5 32be 392f 0bbd 3e6a 2fbe f584 33be
00000020: 34aa 1ebe 16fa 25be c667 043b e62c 433e
00000030: 0b71 84bd 4210 2abe 4594 6f3d 2718 633d
0.093563765 0.095976494 0.07237039 0.0009688863 -0.17445822 -0.033980582 -0.17130372 -0.17531188
-0.15494615 -0.16208681 0.0020203455 0.19060096 -0.06466874 -0.16607764 0.05849101 0.055442955

model.cnn.4.running_mean f4 [16]
00000000: 15d9 20bf 04e9 b2be 80c0 d0be 2f89 41bb
00000010: 6b5a bbbc 0ade 90bb 1dd1 f53e 3fcd a0bd
00000020: eeb0 5abd 0147 653e e978 603d 8d0f 4bbe
00000030: 98fd 0c3e b5a8 ce3d fccd c9bd 932b a5be
-0.6283124 -0.34943402 -0.40771866 -0.002953123 -0.022870263 -0.0044210004 0.48011103 -0.078516476
-0.05339139 0.22390367 0.05480281 -0.19830151 0.13768613 0.10090772 -0.098537415 -0.32259807

model.cnn.4.running_var f4 [16]
00000000: 88cd a63e 0fbe 503e eaaa 803e 2fa9 343e
00000010: 557b ad3d fb91 b63d c248 c93e ef31 753d
00000020: 72c3 453e 9a32 1c3e 6cdf 123e 5713 1a3e
00000030: 4af0 213e fe23 fb3d 2946 663e 2c1f 193e
0.32578683 0.20385002 0.25130397 0.17642663 0.08470789 0.08914562 0.39313322 0.059862074
0.19312838 0.15253678 0.14343041 0.1504644 0.15814319 0.12262724 0.22487701 0.14953297

model.cnn.6.weight f4 [32, 16, 5]
00000000: aea7 0cbe 7967 133c 702b cb3c c7f0 dc3c
00000010: 5c53 1c3e f3fa 6ebd 205b 1abe ebbd 5abd
00000020: c73e 903d 1b04 17bc e579 233c 016f 013e
00000030: 8a17 aa3d 8946 d7bd cc1f ccbc 9e22 b1bd
00000040: ce69 103d 5f71 c1bc fd49 683b db02 bf3c
00000050: 990e 81bc c3bc 09bd 6682 a03d c317 d93c
00000060: a406 b6bc 3104 46be 48d3 c6bd 428c 36bd
00000070: b8ed 973c e6ae ff3c 7dd1 96bd ad76 11bc
00000080: 394c 023b c2b9 4dbd 99a6 643d 76ab c33c
00000090: c852 1b3d ce83 3abc d03d db3b b144 88bc
000000a0: e998 2f3d 8171 d43d 6c92 723a 21ec 05bd
000000b0: ad76 043c 1675 3bbe ec40 a3bc f3ad 5dbc
000000c0: 15c5 19bc 56d2 04bd eb8f 2e3e 7e16 44bd
000000d0: 2f64 033a 3ba0 f3bc b1f9 85bd f984 ebbd
000000e0: 3d54 27be 2cbe 0cbd 29bb e23c 6387 f2bd
000000f0: 8e8b 453e 634e 7bbc 0991 92bc e4c6 a8bd
00000100: e17d 5a3c 645c ce3a d8b8 1c3d 5bce cbbb
00000110: a7c0 17bd aace b33c ef99 f73d b8a6 4f3c
00000120: 15d7 7abd c240 f8bc f8d9 9d3d 5c5e e83d
00000130: 8509 40bc c5e8 69bd 050f a0bd a239 7e3d
00000140: dd7b 473d a11c 01be a0ee 9ebc 823e 70bd
00000150: c9e8 b2bb a7b9 023e df3a 3fbd 7bff 00bd
00000160: b6fb a5bb b5fe 003e 3d22 d2bd 0d69 2cbd
00000170: a4a3 aa3c 49b8 623b e335 1a3d c2a8 7abb
00000180: c0a3 543b 9d00 c1bd cb74 55bd ccb1 d0bc
00000190: 2844 913a 580c e5bd 0d91 a23d 78b1 e63d
000001a0: 7b97 b63d e915 eebd 7cd8 02be cfdd 94bd
000001b0: ddce 8dbd 830b 62bc fa37 be3d bc2b 4abc
000001c0: 6b8a 81bd e61c 963d 9e34 b73d cf7c abbd
000001d0: 0b03 193c a536 6c3d 9fb5 583c bf5e 47bc
000001e0: 0302 a13c 7638 56bb ce96 0bbd 6c5b 693c
000001f0: 9855 a03d aa06 aabd f822 aebd 49c5 04be
00000200: 79df 18bd 240f 56bd 14bd 063c 1624 703d
00000210: f471 55bc 0bce 2fbd 0a3b ca3c 71dd e9b9
00000220: 5b59 c5bd e631 c9bd e5b6 45bd 3bf6 89bd
00000230: 5d82 223d 318a 303d a84f ab3d e2c6 17bd
00000240: cd28 2dbe 2a96 6e3c 7ec8 6abd e930 35be
00000250: 66d8 a33d 014d 613c cbad c93d 977a fcbd
00000260: a1a0 b3b9 ab96 0a3e 9cf5 363d d418 0c3e
00000270: e9c7 983c ba0c 943d 5446 4a3d 91df 6fbd
00000280: b1d5 303d 167f b4bc 1a3f 02bc 6c4d ebbc
00000290: 932c 16bd a8fb 53bd 5558 50be a647 bfbc
000002a0: 8fa0 be3d e52e d13d a43b c93d 7e5a 52bd
000002b0: c061 ad3d de7a b63d bb31 a53d e1fb 99bd
000002c0: 003e cebc acad ff3b 77c0 44bd 3ffd 74bd
000002d0: 0074 67bd a4f8 fdbb 310b 043e 94e1 45bd
000002e0: 5170 d7bb 13ab 15bd 83d9 11bd fd34 c2bd
000002f0: 5933 af3d 2968 9a3d eba0 a4bd e07d 99bc
00000300: 89f3 323c 08d1 223c 22e5 a9bd edb4 e1bd
00000310: 4aac a9bd 61da 3dbd fbb2 383d 8699 d6bd
00000320: 1870 d6bd a340 05bd 77ca cfbc 2335 163e
00000330: a18e af3d 4618 8dbd fc4c c03d 2d82 a23d
00000340: 9cdd 293d 17e3 cbbc 7105 ddbd 1f77 723d
00000350: 2177 563d 7296 eb3d 1ea9 ab3c 6433 cebd
00000360: fba5 f03d d124 19be e567 76bd d33e bbbd
00000370: f658 e7bb 1101 3c3e 6157 ffbc 6280 aabd
00000380: a176 a03c 70aa 2f3c ee5c 8ebd 5954 193d
00000390: 01bf c43d 953d 19bc 677c f2bd 7010 9bbc
000003a0: b0cd da3c 17b7 c2bc 6aee 8ebc e390 dbbc
000003b0: 8c3b 04be 456e 9e3c 79ee ccbd 5f89 c6bd
000003c0: 0d61 8ebd 2801 77bd 0e09 b8bc 6206 b13a
000003d0: 5339 54bd 01a3 043d d222 66bc 35a5 abbc
000003e0: 6511 e9bc a017 083e adb0 0b3e bd83 e8bc
000003f0: 28cc 633d 3a9b 243d aafd ae3d b27c 6d3d
-0.1373584 0.008996838 0.024800986 0.02697028 0.15266174 -0.058344793 -0.15073824 -0.053403776
0.07043224 -0.009217287 0.009977792 0.12640001 0.08305271 -0.105115004 -0.024917506 -0.08649181
0.035257153 -0.02361363 0.003544449 0.023316791 -0.015754031 -0.033627283 0.078373715 0.026500588
-0.022219963 -0.19337536 -0.097082675 -0.044567354 0.01854597 0.031211328 -0.073641755 -0.008878392
0.0019881858 -0.05022598 0.055822942 0.02388547 0.037920743 -0.011383964 0.0066907182 -0.016634317
0.042870436 0.10373212 0.0009253386 -0.032695893 0.008084935 -0.18306383 -0.019928418 -0.013530242
-0.009385367 -0.032427154 0.17047088 -0.047873013 0.0005012182 -0.02973949 -0.065417655 -0.11499972
-0.16340728 -0.03436105 0.027677136 -0.11842229 0.19291517 -0.015338513 -0.017891424 -0.082410604
0.013335676 0.0015744087 0.03826222 -0.006219668 -0.037048962 0.021949131 0.120899074 0.012674026
-0.061240274 -0.030304316 0.0770759 0.113461226 -0.01172102 -0.057106752 -0.07815365 0.06206668
0.04870211 -0.12608577 -0.019400895 -0.058653362 -0.005459879 0.12766133 -0.046687003 -0.031493645
-0.0050654067 0.12597163 -0.10260437 -0.04209237 0.020829983 0.0034594706 0.037649047 -0.003824756
0.0032446235 -0.09423945 -0.052113336 -0.025475405 0.0011082934 -0.11183995 0.079378225 0.11264318
0.08915611 -0.11625273 -0.12777895 -0.07268869 -0.06924222 -0.01379669 0.092880204 -0.012339529
-0.06325229 0.07329731 0.08945583 -0.08373415 0.009339104 0.0576693 0.013226896 -0.012168585
0.01965428 -0.0032687462 -0.034079365 0.014242988 0.07828826 -0.08302052 -0.085027635 -0.12965883
-0.037322495 -0.052260533 0.008223791 0.058628164 -0.013027657 -0.042921107 0.024686355 -0.0004460621
-0.09636184 -0.098239705 -0.048270125 -0.06736418 0.039675105 0.04310054 0.083648026 -0.037054904
-0.16910096 0.014562169 -0.05732011 -0.17694439 0.08000259 0.013751269 0.098476015 -0.1232807
-0.00034261218 0.13534038 0.044667825 0.13681346 0.018650012 0.0722899 0.049383476 -0.05856282
0.043172542 -0.022033256 -0.007949615 -0.028723441 -0.036663603 -0.05175367 -0.20346196 -0.023349594
0.09307968 0.102140225 0.09825829 -0.05135583 0.0846591 0.08910154 0.08066126 -0.07518745
-0.025176048 0.0078026857 -0.04803511 -0.059811827 -0.05650711 -0.0077505875 0.12894894 -0.04831083
-0.0065746685 -0.036540102 -0.035607826 -0.09482763 0.08554716 0.07539398 -0.08038505 -0.01873678
0.010922321 0.009937532 -0.08295657 -0.11020837 -0.08284815 -0.04635084 0.045092564 -0.10478501
-0.10470599 -0.032532346 -0.025365097 0.14668708 0.08572126 -0.068893954 0.093896836 0.07934985
0.04147111 -0.024888558 -0.107920535 0.059195634 0.052359704 0.115033045 0.020954665 -0.10068396
0.11750408 -0.1495545 -0.060157675 -0.09142842 -0.0070601655 0.18359782 -0.031169595 -0.08325268
0.019587817 0.010721788 -0.06951319 0.037433956 0.096067436 -0.009353061 -0.11840134 -0.018928736
0.026709408 -0.023768945 -0.017447669 -0.026802486 -0.1291334 0.01933969 -0.100064225 -0.0969417
-0.06952105 -0.060303837 -0.022465255 0.001350593 -0.05181248 0.032382015 -0.014046388 -0.0209528
-0.028450677 0.13290262 0.13641615 -0.02838313 0.05561462 0.040187098 0.08544476 0.057980247

model.cnn.6.bias f4 [32]
00000000: a8c5 97bd d1ee edbc 0b11 853d b0af dbbd
00000010: 4f76 2abd 5bf9 d3bc c0b0 103d 4088 72bb
00000020: 0671 96bc 0644 6abd 0390 36bc 6084 d9bd
00000030: 43c0 b13d 1cd9 643d fbee 2fbd 5a73 bfbd
00000040: 8356 953d 6c9d b13d f7a6 d3bd 3694 893d
00000050: 7683 403d 377f 873c 3ee5 bcbd a1f8 e2bd
00000060: c192 bdbd c9e1 333c 5f26 463c 930d adbd
00000070: 0743 343b d5cf 0abd 0a69 663b 16ff 003d
-0.07410747 -0.02904454 0.06497391 -0.10726869 -0.041616734 -0.025875738 0.035324812 -0.003700748
-0.01836444 -0.05719378 -0.0111427335 -0.10620952 0.08679249 0.055871114 -0.04295252 -0.093481734
0.072918914 0.08672604 -0.103345804 0.06717722 0.04700037 0.016540153 -0.09223412 -0.110825785
-0.09256507 0.010979124 0.012094109 -0.08449855 0.0027505772 -0.03388961 0.0035157823 0.03149327

model.cnn.7.weight f4 [32]
00000000: 89ee b03f 7806 a53f d36f 8d3f 6659 9d3f
00000010: ba5f ad3f 4671 a53f e542 9d3f ba46 9e3f
00000020: 606e 903f 8412 8f3f b29a ac3f 3d38 9a3f
00000030: 0722 a43f 2140 913f 5454 903f 8332 973f
00000040: 73e7 913f e9f1 903f b3c1 933f cf66 a73f
00000050: ca74 a73f a7ae 973f 8da5 a43f 8f27 983f
00000060: 357c 9c3f 0a87 963f e0c7 a23f 6d2c ae3f
00000070: 2f5c 963f 1889 953f 12dd a43f bf9b 933f
1.3822795 1.2892599 1.1049751 1.2292907 1.3544838 1.2925193 1.228604 1.2365334
1.1283684 1.1177526 1.3484709 1.2048413 1.2822884 1.1347696 1.1275735 1.181229
1.1398758 1.1323825 1.1543487 1.307825 1.3082516 1.1850175 1.2863022 1.1887072
1.2225405 1.1759961 1.2717247 1.3607308 1.1746882 1.1682463 1.2879965 1.1531905

model.cnn.7.bias f4 [32]
00000000: e0a3 473e 1d63 203d 2d02 0bba 9691 093e
00000010: 407b 793d f93b 213d 69dd 683d d58c 0f3e
00000020: c0c6 b5bd 53e2 0f3d cb1c 303e 3a16 143e
00000030: a56f ecbd bc70 fe3c ad89 043e 3e7a df3d
00000040: fb37 da3d 0532 f139 f598 fc3d 7fd2 553d
00000050: 0b47 143e c197 3bbc 6de6 253e d3f7 103e
00000060: 446d f63d 53e1 a83d 1783 383e b342 3a3e
00000070: 9050 003e f447 99bc f0e6 21bd 4644 e8bc
0.19496107 0.03915702 -0.00053027534 0.13434443 0.060908556 0.039363835 0.05685178 0.14018567
-0.08875799 0.03512795 0.17198484 0.14461604 -0.11544732 0.031059615 0.12943144 0.10911988
0.10655209 0.0004600437 0.12333862 0.052202698 0.14480226 -0.011449755 0.16201182 0.14157037
0.120325595 0.08246102 0.18018757 0.18189506 0.12530732 -0.018711068 -0.03952688 -0.028352868

model.cnn.7.running_mean f4 [32]
00000000: bb29 afbe b12b 94be 8382 65be 12f8 dabe
00000010: 431c d33e 89c5 1c3f 1e35 09bf 3b21 03bf
00000020: 684d 563d ca36 07be ce81 2f3e 8d36 983d
00000030: ba0e 3abc 6df1 8cbe a790 2b3d f460 11bf
00000040: daaa 6cbd c430 ac3b 9f3c 0ebd 83ff 04be
00000050: 1dd0 96be 8859 5abe 80fc 4cbd 90b5 a7be
00000060: ecaa 9cbe d51f 03bf e393 5cbe 1f2b 3fbe
00000070: ddaa e2bd 251c 57be fab3 253f 5158 093e
-0.34211525 -0.28939584 -0.22413068 -0.42767388 0.412325 0.61238915 -0.53596675 -0.5122258
0.052319914 -0.13204494 0.1713936 0.0743228 -0.01135605 -0.27527943 0.041885998 -0.56788564
-0.057780124 0.0052548368 -0.03472578 -0.12988095 -0.29455653 -0.21323216 -0.05004549 -0.3275571
-0.30599153 -0.51220447 -0.2154079 -0.18668793 -0.11067746 -0.2100683 0.6472775 0.13412596

model.cnn.7.running_var f4 [32]
00000000: 0b9f 9d3d 8d51 423d 1c4b c93d e0b4 ca3d
00000010: b60e a83d 89e4 c33d a7d8 c03d c057 ed3d
00000020: 44be d13d b71b ae3d cb08 a53d a2e9 013e
00000030: 63ad 5f3d 2565 e53d ffd4 673e f9d4 0a3e
00000040: 62dd 7c3e bafc d53d 8820 873e 5391 823d
00000050: 9cc4 9b3d efe3 633d 0d61 473e a244 4c3e
00000060: aa91 1e3e 20f4 c83d 9f31 ed3d 2419 bb3d
00000070: a945 993e 7016 9e3d c2cf 983d 2e72 633d
0.07696351 0.047441054 0.09828779 0.098977804 0.08205931 0.09565074 0.09416323 0.115890026
0.102413684 0.0850138 0.08058318 0.1268678 0.054608714 0.112009324 0.22639845 0.13557805
0.24693826 0.104485944 0.26392007 0.06375375 0.0760586 0.055637296 0.19470616 0.19948056
0.15485254 0.09812188 0.1158173 0.091356546 0.2993596 0.07719123 0.07461502 0.055528812

model.cnn.9.weight f4 [1, 32, 5]
00000000: 9faf 623e 22e3 263e 98c7 d5bc e3d1 2bbe
00000010: 42eb bebc b944 5c3e f872 05be 01e4 98bd
00000020: 103e e5bd b0b3 463d 11e9 f03d f4c7 a93d
00000030: 55c6 23bd 6c04 1b3e c3a5 8c3d e20d fabc
00000040: c0d9 f8bd 2f11 50be 701f 33be 5335 0bbe
00000050: 99bd a8bc 3147 11be 21ae 8d3d d551 5ebe
00000060: 61d6 29be 36e9 b4bd 9543 4d3a c661 27be
00000070: 81c9 32be e739 37be c26b 9ebd 9eba 373e
00000080: f7df 393e 35b2 693d e96a b5bd ee3d 20be
00000090: 6cbc 42be 8c63 2dbe 4fb5 1dbe d0cc 7a3d
000000a0: f9d0 adbd 4583 1c3d dbf6 d0bc 7a6b 5f3d
000000b0: b13f f83d b8b1 72bc 2b88 a4bb 3645 be3d
000000c0: c63f b33d c6fd 143e ca3c 92be 69e8 a0bd
000000d0: 46d2 363d 19cb 85bd 4a46 45be 151f 6dbd
000000e0: 1533 dfbd fda0 033e 23d5 02bd 906c 0abe
000000f0: 8a78 bebd 656a 9ebb 27ea 683d e37a 83bd
00000100: 0b74 513e 0d35 503d 2934 273e 50ac 4b3e
00000110: 4290 b73c 4eef 923c b711 d6bd ca04 08be
00000120: 57b3 10be 45e8 17bd 3365 b5bd 1a42 0abe
00000130: 1902 10be d4f9 1bbe 81bd 25be 32a0 ecbd
00000140: d7ea 2dbe 6f67 20be 510e 08bc 6009 d7bd
00000150: 11fb 1bbe 0980 81bd 9f91 69bd eb6c 8d3d
00000160: 3938 a7bb 5cdc a53d fb9a ddbd e943 22be
00000170: f80b 36be 53f5 83bd ae3d 10be 5d31 a4be
00000180: 3177 a1bd 1320 233e a973 013e 82e5 5b3d
00000190: 9afc 61be 7b42 a9bd ea14 a1bd e8ea 1bbe
000001a0: 4349 4bbe a98d b2bd ccf1 3ebd d754 523e
000001b0: 043d 513e 050b 723d 9efd 1bbe f420 f0bc
000001c0: b16f e8bd 63b2 26be f9a3 04be 94b2 09bd
000001d0: 5063 f5bd 6a50 23be 0e86 40be 3abd a7bc
000001e0: 578e 5bbe cdb8 25be e5e4 16be 31e9 89bd
000001f0: 8117 e2bd 5aee b93d ed3a 733e 1298 0d3e
00000200: 1c2c fd3d 5d7a b43d 0dd1 60be 39bb fabd
00000210: 66b4 bcbd de42 e8bd 9b7c ebbc 60ce 7abe
00000220: eee7 c2bd 385f 36be c26f 883c 21c8 f1bd
00000230: 7923 0abe b784 f5bd 6962 e2bd 98e1 e5bd
00000240: 6a04 28bd 725d 423e b717 e9bc 98e0 dcbd
00000250: 0759 fa3d a791 e93d 0473 d3bd 4159 fa3d
00000260: 342e 723d 0ee4 f53c 0573 37be 4f30 e7bc
00000270: f4de cd3d 4a99 ebbc a5c7 79bd 9860 353e
0.22137307 0.16297582 -0.02609615 -0.16779284 -0.023305539 0.2151059 -0.13032138 -0.07465363
-0.11193478 0.048511207 0.11763204 0.08290091 -0.039984066 0.15138406 0.06867554 -0.030524198
-0.121509075 -0.20319055 -0.17492461 -0.1359456 -0.02059822 -0.14187314 0.06917978 -0.21710904
-0.16585685 -0.08833544 0.00078302 -0.16345891 -0.1745968 -0.17893182 -0.07735397 0.17942283
0.18151842 0.057054717 -0.08858282 -0.15648624 -0.1901719 -0.16932505 -0.15401195 0.06123048
-0.08487124 0.038211126 -0.025508335 0.054545857 0.12121523 -0.014812879 -0.0050211153 0.09290545
0.08752398 0.14549932 -0.28562003 -0.07856829 0.044634126 -0.065328784 -0.19265094 -0.05789097
-0.10898415 0.12854381 -0.031941544 -0.13517976 -0.09300335 -0.0048344606 0.05686393 -0.06419923
0.20454423 0.050831843 0.16328491 0.19889951 0.022407655 0.017936375 -0.104525976 -0.13283077
-0.14130913 -0.037086744 -0.08857193 -0.13501778 -0.140633 -0.1523202 -0.16185571 -0.11553992
-0.16984116 -0.15664457 -0.008304195 -0.10499835 -0.15232493 -0.06323249 -0.05702364 0.0690554
-0.005103138 0.08098671 -0.10820576 -0.15846218 -0.17778003 -0.06443276 -0.14086029 -0.3206891
-0.07884062 0.15930204 0.12641777 0.053685673 -0.22069016 -0.08264633 -0.07865317 -0.15226328
-0.19852166 -0.08718426 -0.046617314 0.20540176 0.20433432 0.05909254 -0.15233466 -0.029312588
-0.113494284 -0.16278987 -0.12953176 -0.03361757 -0.11981833 -0.15948644 -0.18801138 -0.020475972
-0.21441017 -0.16183777 -0.14735754 -0.06733931 -0.11039639 0.09078665 0.23752947 0.13827541
0.12361929 0.088124014 -0.21954747 -0.12242741 -0.09214096 -0.11340879 -0.02874594 -0.24492788
-0.09516893 -0.1780976 0.016654853 -0.1180575 -0.13490094 -0.11988204 -0.110539265 -0.11224669
-0.041019835 0.18980959 -0.02845369 -0.10785025 0.12224012 0.11404734 -0.10324672 0.12224055
0.059126094 0.030015972 -0.1791497 -0.028221278 0.100522906 -0.028759617 -0.06098141 0.17712629

exp_avg f4 [8, 3, 5]
00000000: 8dbc 5dba 29a3 163a 7c56 363b 3e10 3d39
00000010: 1af8 1cba 0741 05bb 4fd9 913c 9552 123d
00000020: 123a 413d 9cc5 f13c cda8 4339 bb71 f039
00000030: 7e0c 9939 a804 94b8 4f54 5ab9 7630 993a
00000040: 4341 1739 db3b e53a 2094 963a 59be 94b8
00000050: 8193 3bbc 3efb 3fbc e871 a9bc c439 39bb
00000060: 25a9 ab3a 7c1b 3db8 bfea ddb8 2817 f237
00000070: 3663 ad38 f0b4 9238 00e1 983a 57fb ef3a
00000080: 281e 803a 1edf df3a 7032 393a fee0 bbbb
00000090: 48cc 563c a3b6 133b 1382 2d3c 08ee f63b
000000a0: 19db 8038 ef0d 5b38 bd36 1fb8 44eb 80b8
000000b0: ab0e 1eb9 f7ca 4ebb fb84 08bb 9cd6 03b9
000000c0: a817 30ba 4603 6739 4e7d 083c 725a fd3c
000000d0: 497a 473c 26a1 813c 5908 a83c f033 1d39
000000e0: e702 cfb8 f60d 17b9 b116 bbb8 00fd 23b8
000000f0: d3b9 d43a 9a45 993b 163e f03b 0e3a b93a
00000100: 0e0c 6eba 49e5 043d 7062 e43c d8b1 c6bc
00000110: 7283 41bd d390 8dbc 8cec f839 aa7b 2a3a
00000120: f473 4038 4bca 9fb9 a5eb 4cb9 1c37 25bb
00000130: c8be 42bb fd29 14bb 08ea 6bba a0d6 833a
00000140: 685d 253c 1524 0fbb 1b4e 0a3b 1700 51bb
00000150: 1834 1ebc 49ee 16b6 d70a b9b8 96ff 0fb9
00000160: b5f3 14b9 bf3a b6b8 4cbd 3c3a 450f 44b9
00000170: a499 4c3a 6c58 033a b7af fdba cc5e cd3b
00000180: c182 62bb b56e 3cba bb38 05bc dfc4 0b3c
00000190: f185 3ab8 47c2 31b7 5b34 a8b6 2910 6f38
000001a0: 7275 4c39 9f64 55bc c574 33bd 6a68 54bd
000001b0: 83df cbbc d786 983b 3db9 1abd d2ac 76be
000001c0: 6870 c3be c3a8 97bd bfd4 6b3d 7145 593a
000001d0: 5969 a7bb 09c3 16bc 161b fb3a a5b1 4d3b
-0.0008458577 0.00057463587 0.0027822545 0.00018030495 -0.0005987898 -0.0020332949 0.017803816 0.035723288
0.04717452 0.029513173 0.00018659532 0.00045861103 0.00029191741 -7.058057e-05 -0.00020821507 0.0011687416
0.00014424794 0.0017489152 0.0011488236 -7.092645e-05 -0.011448742 -0.011717616 -0.020684198 -0.002826319
0.0013096674 -4.508671e-05 -0.00010581826 2.8859431e-05 8.267762e-05 6.995525e-05 0.0011663735 0.0018309158
0.0009774612 0.0017080044 0.0007064706 -0.0057336083 0.013110228 0.002253928 0.010590094 0.0075356998
6.144326e-05 5.2226645e-05 -3.7959533e-05 -6.147337e-05 -0.00015073518 -0.0031554082 -0.0020831216 -0.00012573082
-0.0006717392 0.00022031096 0.008330656 0.030926917 0.012175151 0.015823912 0.020511793 0.00014992035
-9.87107e-05 -0.00014405683 -8.9210815e-05 -3.9097853e-05 0.0016229696 0.0046774866 0.00733162 0.0014131682
-0.0009080776 0.032445226 0.02787897 -0.024254724 -0.047244497 -0.017280972 0.00047478487 0.0006503413
4.5884357e-05 -0.00030477563 -0.0001954274 -0.002520985 -0.0029715765 -0.0022608035 -0.0008999412 0.001005847
0.010093071 -0.0021841575 0.0021103683 -0.0031890923 -0.009655975 -2.2490442e-06 -8.8235065e-05 -0.00013732756
-0.00014205168 -8.6893786e-05 0.00071998383 -0.00018697705 0.00078048767 0.00050104293 -0.0019354735 0.006267404
-0.0034562799 -0.00071881275 -0.008131201 0.008530824 -4.44706e-05 -1.0595256e-05 -5.012885e-06 5.699709e-05
0.00019498708 -0.013024478 -0.043812532 -0.05185739 -0.024886852 0.004654746 -0.037774313 -0.24089363
-0.38171697 -0.074052356 0.057575937 0.00082882406 -0.005108994 -0.009201773 0.0019157853 0.0031386402

exp_avg_sq f4 [8, 3, 5]
00000000: db7b 4238 8904 1538 97bb 1338 4b23 0538
00000010: 0747 0538 bba2 823a 9793 a33a 4c3e 1c3b
00000020: 13e0 043b cb30 f83a f633 3133 1ef8 f133
00000030: 57d3 1734 b9f6 ec32 16c3 4934 d7ee 1237
00000040: d176 3e37 977d 8437 bbba 5037 a90c 3337
00000050: ea4b d439 fe01 003a 2a3f 233a f1f4 9b39
00000060: d5ff bf39 fa55 f933 e399 a734 d7ab 8a34
00000070: 0979 ac33 6a73 5533 d82e 9d37 8297 7537
00000080: ea63 8537 70a1 9137 6488 a637 ac84 be38
00000090: a9ff 8b39 5a46 a739 90a1 a039 c4f0 6f39
000000a0: d801 f231 add6 3a32 2108 be32 8426 6133
000000b0: 64f4 f333 a53c 0337 0319 d836 11fb eb36
000000c0: 4d79 1037 ba42 e336 1429 103a c9bc 053a
000000d0: 1fec 193a e733 0b3a 4d6d 9a39 b6aa 0c32
000000e0: 959f 1933 7057 9233 9634 5b32 c903 c932
000000f0: 4106 8338 a543 7a38 564c 8638 fe03 8238
00000100: 915d 8c38 01ba b03b afa1 313b 6587 173b
00000110: 3e76 503b 6a75 023b fd33 d633 fd1a 1435
00000120: 9813 ee34 9631 7034 e374 0934 fa5c a137
00000130: ac83 8237 b50e 7f37 7b61 5337 f2e4 5e37
00000140: 8115 333a 5eb0 b539 e496 ee38 c3f0 5439
00000150: 2528 c339 0418 6132 09c8 9f33 65c8 5534
00000160: 0b49 9334 c7e8 4b34 4338 c837 38aa bf37
00000170: 67be b337 92ea a737 f9c0 c837 ecfb 063a
00000180: 82d6 083a 1cae 7439 e4b7 6f39 deb1 e839
00000190: 3d23 3932 6aa9 d132 afc3 6d33 e186 aa33
000001a0: be69 6433 e1b1 bd3a c167 ad3a 3019 923a
000001b0: 4135 4f3a 9acc 8e3a 981d 9b3e 93fe 6b3e
000001c0: 33ce 833e 65db 663e 0410 153e 9303 7035
000001d0: 4c23 2c37 a2c1 fe37 6a7e 1837 01f9 1936
4.6368554e-05 3.5528592e-05 3.5222238e-05 3.174254e-05 3.177582e-05 0.000996671 0.0012479898 0.0023840843
0.002027516 0.001893544 4.1258282e-08 1.1267569e-07 1.4139856e-07 2.7586212e-08 1.8790556e-07 8.757887e-06
1.1352547e-05 1.5794109e-05 1.2441243e-05 1.0672179e-05 0.0004049235 0.00048831094 0.0006227369 0.000297464
0.0003662097 1.1610605e-07 3.121814e-07 2.5829533e-07 8.03139e-08 4.9697896e-08 1.8737672e-05 1.4638414e-05
1.5901362e-05 1.7360522e-05 1.9852254e-05 9.084618e-05 0.00026702628 0.00031905138 0.00030637952 0.00022882508
7.0433366e-09 1.08754366e-08 2.2122608e-08 5.2421925e-08 1.1360024e-07 7.822328e-06 6.4402134e-06 7.0327737e-06
8.611311e-06 6.772895e-06 0.0005499285 0.00051016785 0.00058716716 0.0005310163 0.00029454604 8.187888e-09
3.5768227e-08 6.8145596e-08 1.2759434e-08 2.3401201e-08 6.247732e-05 5.9667644e-05 6.4038366e-05 6.199627e-05
6.693148e-05 0.005393267 0.0027104428 0.0023121473 0.003180876 0.001990641 9.974608e-08 5.517357e-07
4.434521e-07 2.2369781e-07 1.2801642e-07 1.9235991e-05 1.5558522e-05 1.5202609e-05 1.25992765e-05 1.3285537e-05
0.00068315124 0.00034654414 0.0001137683 0.00020307586 0.00037223208 1.3102184e-08 7.440401e-08 1.9910074e-07
2.743403e-07 1.8990532e-07 2.3868057e-05 2.2848239e-05 2.1427126e-05 2.0017182e-05 2.3931718e-05 0.00051492336
0.00052199524 0.00023334514 0.00022861321 0.0004438301 1.07764295e-08 2.4407843e-08 5.5358836e-08 7.940776e-08
5.318156e-08 0.0014472568 0.0013229774 0.0011146422 0.0007904359 0.0010894716 0.30296016 0.23046331
0.25743255 0.2254463 0.1455689 8.941217e-07 1.0260217e-05 3.0369327e-05 9.089339e-06 2.2943716e-06

exp_avg f4 [8]
00000000: cf67 e22e 53e5 4c2e d722 a92e 609c b02d
00000010: ecfe 7e2f 6dac 062e f183 802e 9060 a6b0
1.029573e-10 4.658791e-11 7.691419e-11 2.0078328e-11 2.3191732e-10 3.0621217e-11 5.8442036e-11 -1.2105534e-09

exp_avg_sq f4 [8]
00000000: dbea 781f cd69 671e 97fd 851e daba 351e
00000010: c442 8b1f 02ef 691e e3bc 861e 8718 0022
5.271031e-20 1.2250917e-20 1.4186805e-20 9.6207e-21 5.8979244e-20 1.2384343e-20 1.4265924e-20 1.736022e-18

exp_avg f4 [8]
00000000: ede2 d6ba cbd5 8fbb d436 de3a 2e16 433b
00000010: e699 b3bb 0290 c63a a930 553b 875a 3b3b
-0.0016394533 -0.0043895 0.0016953596 0.0029767859 -0.0054809926 0.0015149119 0.0032530224 0.0028587894

exp_avg_sq f4 [8]
00000000: a18f 9638 639f 2a38 aff3 2138 27a3 2838
00000010: f1ec ef38 ab68 5a39 bf19 e838 5a5e a138
7.17931e-05 4.06796e-05 3.861234e-05 4.020627e-05 0.00011440542 0.00020829092 0.00011067418 7.6946526e-05

exp_avg f4 [8]
00000000: 4b90 77bb 1f6a 35ba 9f14 ad3b 1326 063b
00000010: a5d2 fa3a 2b96 d2b9 452a 7e3b d8fd caba
-0.0037775214 -0.00069204153 0.0052819992 0.0020469471 0.0019136263 -0.00040166205 0.0038782519 -0.0015487028

exp_avg_sq f4 [8]
00000000: 583a e137 5547 c537 ac88 8338 2ea9 a837
00000010: 96e6 4838 4d58 8738 dd6b ea37 df78 2f38
2.6849259e-05 2.3517447e-05 6.272024e-05 2.0105941e-05 4.7898466e-05 6.453749e-05 2.7945202e-05 4.183582e-05

exp_avg f4 [16, 8, 5]
00000000: 75be e03a 5f5f 6c3a 76ee 8fba 4d6a 09bb
00000010: 2fe9 10bb b187 42bb d1bb 3fba 40b6 dcba
00000020: 956a 7f3a 6c19 233b bccb 21bb 7746 d0bb
00000030: 8f79 5339 e103 19ba 1de9 a139 3cfb ffb9
00000040: eb20 9f3a 4c79 dc3a 8ee3 f63a ab82 9c3b
00000050: 1807 8f3a 53e0 4cba be31 073b 82a4 173a
00000060: 3790 273b a244 d339 d088 2338 5738 d63a
00000070: 0a21 be3b 1ea7 cf3b f340 3abb 6148 fe3a
00000080: d54e 0aba 9a06 7c3b 5f47 0a3b c256 02bb
00000090: 05c8 92ba 469b 313a 77a9 3bba d46c e83a
000000a0: 3522 ff39 9072 a8bb 9326 87bb 1768 4a3b
000000b0: b453 c23b 1924 afb9 d1bd bbba 614e e33a
000000c0: 0c19 023b c198 8c3a cbfb 8c3b 8d94 c73a
000000d0: 404e 833b 4020 5239 a5e8 baba b1b8 85ba
000000e0: 15be aeb9 591a 183b 53af d13b ea02 b03a
000000f0: f9d8 8cba 5e71 d33a 3338 3f3b 6771 3b3b
00000100: 81a8 bbb9 2d2b f8ba b07d 35b9 7740 c23b
00000110: 1469 4e3b bc05 803a e978 9bba 8770 423b
00000120: 6bd3 ed3a 6e29 343a d917 4aba 1252 3c3b
00000130: 11f9 193b 983a 473b b7f5 573b 217f 07bb
00000140: 7c8d a83b 009a 453b 4536 06ba cc1e 1abb
00000150: b062 43ba ad32 90b8 8efc 90ba f6b3 cbba
00000160: 0d7b f739 2df1 0a3b 9beb ab3a ec3e 9739
00000170: b448 913a fb53 443b 8ae4 5aba 9083 0e3b
00000180: 10e1 103a de11 2d3b 4e1f 723b 5e0d dd3b
00000190: bd5b 3abb 35c1 21ba 7412 90ba 907b 4cbb
000001a0: bff8 01ba 5bca 113b aeed 0e3b 1960 733a
000001b0: edc3 1f3b 5faa 903b 43d5 f63a 4b93 183a
000001c0: dd02 5c3a eb45 283a a0d9 26ba 8084 b9ba
000001d0: 0d85 52bb d1a8 0c3a fcc7 1f3b f25a 6b3b
000001e0: 9c54 e73a 8a78 2d37 5ddf 03bb 90a9 463b
000001f0: 10e9 f73b eb5e 8dba 4260 1bbb e794 48bb
00000200: 6515 afbb e57b efbb 8ff0 3cbb 5c31 53ba
00000210: df6d 3ebb f156 25bb 6f94 2abb abfc b2ba
00000220: f635 6ebb 57fd 16bb eb56 bbbb 3eda 83bb
00000230: 81cd 353b f511 233c 9c88 fb3b 8b18 f33b
00000240: 6507 413a c56a 0ebb 253b 5e3a ef27 063b
00000250: 38bc 653a 6fa1 87bb 997a 813a e1b2 bf3a
00000260: 5994 803b 0325 743a a00d 7bbb 9e78 223b
00000270: b93d 043b 5dcc 82bb a580 bfbb 7ae3 1cbc
00000280: 136c 983b c679 903b dac8 933b b125 993b
00000290: a82e 1cba 1a87 16bb 2575 da3b 1424 2c3b
000002a0: 68f1 4c3a 8030 3c3b bae8 b6bb 2b1f e5b9
000002b0: 386a a7bb 4921 2bbb aac5 563a 7a12 3fb9
000002c0: 18c5 cd3b a664 383a 7523 06bb c147 34bb
000002d0: 5cac ba3a e5b0 d93b 0db2 0a3c 70dc 0d3b
000002e0: 0658 333a b4f8 733a 9a3b 503b a0ff fc3a
000002f0: 5427 f639 4af6 ae3a c54a 3f3b e815 e53a
00000300: 50ac 0fbb 10df 9239 578f e93a 9c0d 493b
00000310: 318a d83b b53c 1e3c 5280 6c3a 115e b8b9
00000320: 87a5 b9ba b5c6 cdbb fec9 10bc 8717 02bc
00000330: d88b 653a 50c8 eb3b 06cb 153b f1c5 e03a
00000340: b6cd ce3b 4b3e 273b 89ee 2ebb 29f3 573b
00000350: 8449 f73a 857e 163c 31e1 f13b 93c3 fe3b
00000360: 49ce d6ba 40cf b7bb 8aa7 223b afb8 2fba
00000370: 2c76 20bc 7171 f0bb f711 febb 384e 63bb
00000380: b962 aebb 286d d2bb 1916 35bc 1b16 e7bb
00000390: 956d 49bb 8a85 e0bb dcec 79bb fd4d bebb
000003a0: 2090 4ebb a023 07ba e6bf 49bb 2112 62bb
000003b0: 1310 d83b 1e1d d2ba 2a5a d0b9 b9ee 8a3b
000003c0: 0c44 91bb fb55 04bb 08a6 67b9 91b6 afb9
000003d0: 994e 023b 647c 70b9 4578 7abb ece5 81bb
000003e0: c835 33ba bc53 4339 a731 4a3b 94b1 143b
000003f0: 0c80 aaba be56 4a3a 5aba 19bb 6eb8 93ba
0.0017146604 0.0009016897 -0.0010981101 -0.0020967901 -0.0022111645 -0.002968293 -0.00073140586 -0.0016838983
0.000974336 0.0024886979 -0.0024688086 -0.0063560563 0.00020167812 -0.0005837065 0.00030881996 -0.00048824574
0.0012140548 0.0016820817 0.0018836127 0.004776319 0.0010912148 -0.00078154093 0.0020629014 0.00057847064
0.0025568136 0.00040296192 3.8989645e-05 0.0016343695 0.0058022784 0.0063370606 -0.002842006 0.0019400233
-0.0005276029 0.0038456083 0.002109967 -0.0019888137 -0.0011198526 0.00067751517 -0.0007158736 0.0017732629
0.00048662876 -0.00514061 -0.0041244715 0.0030884796 0.0059303883 -0.00033405496 -0.0014323537 0.0017342084
0.0019851355 0.0010726677 0.004302477 0.0015226767 0.004007131 0.00020039175 -0.0014260007 -0.0010202137
-0.00033329488 0.0023209064 0.006399074 0.0013428603 -0.0010745815 0.0016131809 0.0029177784 0.0028601529
-0.00035792965 -0.0018933766 -0.00017308327 0.005928095 0.0031495737 0.0009767334 -0.0011861596 0.0029669122
0.0018144673 0.00068726286 -0.0007709242 0.002873544 0.0023494402 0.0030399915 0.0032952854 -0.002067514
0.0051438194 0.0030151606 -0.0005119781 -0.0023516892 -0.0007453365 -6.875894e-05 -0.0011061595 -0.0015541303
0.0004720319 0.002120088 0.001311648 0.00028847845 0.0011084289 0.0029957283 -0.0008350095 0.0021745898
0.0005526701 0.0026408355 0.0036944929 0.0067459783 -0.0028436028 -0.00061704527 -0.0010991828 -0.0031201579
-0.00049580255 0.0022245857 0.0021809149 0.0009284034 0.0024378255 0.004414841 0.0018831867 0.0005820288
0.00083927606 0.000641911 -0.0006364826 -0.0014153868 -0.0032122761 0.0005365732 0.0024380675 0.0035912362
0.0017649117 1.0339669e-05 -0.0020122149 0.003031347 0.007565625 -0.0010785734 -0.0023708497 -0.003060633
-0.0053431266 -0.0073084706 -0.0028829908 -0.00080563664 -0.0029057187 -0.0025228823 -0.0026028415 -0.0013655623
-0.0036348081 -0.0023039186 -0.0057171485 -0.004023819 0.0027740898 0.009953012 0.007676197 0.0074186972
0.00073634676 -0.002173112 0.0008477441 0.002047058 0.00087637035 -0.0041391174 0.0009878456 0.0014625454
0.0039239344 0.00093133765 -0.0038307682 0.0024791132 0.002017839 -0.003991647 -0.005844193 -0.009575719
0.0046515553 0.004409048 0.0045100274 0.0046736826 -0.000595788 -0.002296871 0.0066667967 0.0026266621
0.0007817955 0.0028715432 -0.0055819424 -0.00043701506 -0.005109098 -0.0026112369 0.00081929064 -0.00018222062
0.006279599 0.0007034041 -0.0020467911 -0.002750859 0.0014242041 0.006643402 0.008465302 0.0021646284
0.00068414246 0.0009306774 0.0031773807 0.0019302256 0.00046950078 0.0013348546 0.0029188853 0.0017477842
-0.0021922775 0.00028013485 0.0017819208 0.0030678278 0.0066082706 0.009658028 0.0009021807 -0.000351653
-0.0014163711 -0.0062797912 -0.008837221 -0.00794018 0.0008756495 0.00719551 0.0022856607 0.0017148835
0.0063111437 0.0025519307 -0.002669247 0.0032951331 0.0018866514 0.009185438 0.0073815812 0.007774779
-0.0016388382 -0.005609423 0.00248191 -0.000670324 -0.009793799 -0.007337742 -0.0077536064 -0.0034684073
-0.0053218273 -0.006421704 -0.011052632 -0.0070521957 -0.0030735482 -0.0068518566 -0.0038135564 -0.005807637
-0.003151901 -0.000515515 -0.0030784546 -0.003449567 0.006593713 -0.0016030406 -0.0003974003 0.0042398837
-0.0044331606 -0.002019285 -0.00022091728 -0.00033514624 0.0019883274 -0.00022934523 -0.003821866 -0.0039641764
-0.0006836322 0.00018627843 0.003085235 0.0022688853 -0.0013008132 0.0007718614 -0.0023457021 -0.0011270174

exp_avg_sq f4 [16, 8, 5]
00000000: c691 cf37 3ed7 0f37 86f0 2737 5572 fc37
00000010: 17c7 0e38 3e09 0937 26e3 ea36 1066 cb36
00000020: be03 a337 9c41 7438 b02b b136 de2b 8d37
00000030: b962 f936 7bc8 8137 6cef 5937 2084 9236
00000040: 30fb db36 3bd1 ec36 ff72 0a38 783d 1a38
00000050: a48c e736 9e9e 9f37 c663 0638 49a1 b837
00000060: d1a4 6237 dd61 ad36 8501 5137 a4d3 d737
00000070: 779e 0438 f5ff f537 4ee1 2d37 5a26 0b37
00000080: fbac 5137 d952 7737 bd30 f137 e9a7 ea36
00000090: 5f46 9137 cd68 ef37 9500 7937 a9d5 6637
000000a0: 4dec 1f39 738a 5339 14d6 a639 59bc d639
000000b0: 58a9 ab39 c918 ed37 b67f 2d38 d1a5 8938
000000c0: 9be9 2738 3c60 4138 ff4d 2c38 e08f 1538
000000d0: 714a 1938 4b73 7537 d926 0137 7cb8 7b37
000000e0: 0601 2e38 3418 af38 8460 6938 0351 5338
000000f0: 17e0 c239 c7e3 9c39 ac8b 9d39 eb4e 6f39
00000100: 2ac4 8538 6209 5f39 931f 9d39 2568 9739
00000110: fd0c 1139 0796 5738 93f7 0539 a9d8 3f39
00000120: 2e7f 1339 2f73 c137 d57f 2b38 eac1 8539
00000130: 9ecf d638 ee16 cf38 8d77 c638 0410 5338
00000140: 1060 d238 f765 3438 4fb1 0239 127b df39
00000150: 7aad fb39 58a9 8938 86d4 d437 a3d7 ba38
00000160: efaf 2839 17a8 3c39 646f 9237 b33f 4738
00000170: 8a44 4038 bab0 8038 2d4e 3f37 5139 3537
00000180: 031b f236 f78d 8338 7381 5739 ef31 d038
00000190: 4739 3d39 58c2 8d39 47ea b439 8125 8839
000001a0: 708d 1339 88a3 4f38 a7a9 3639 05a1 aa39
000001b0: 5bd8 4939 614b 3338 c520 8338 02ba 1539
000001c0: 3132 5439 70c7 5238 3046 9237 8d43 a039
000001d0: 6772 7639 a936 4039 33da 0739 54d2 7c39
000001e0: 8423 f338 2819 d038 0f20 f238 bdf8 0b39
000001f0: bd1f 3539 3125 0938 018d f037 8f7f 5738
00000200: a40b ae38 60cb a938 e6eb 0b38 5c83 bf37
00000210: a4db da37 fc68 da37 2ba6 9937 602f ad37
00000220: aef3 d737 342a 4b38 4565 6638 63ef 8238
00000230: f7ae 0b39 8d6b 1539 0ff3 2c39 30eb 5f39
00000240: 1a1c 3339 4a55 b038 00e3 e038 eb76 1939
00000250: b7d2 2e39 ab09 4539 9cdd 5e38 541c 8038
00000260: 1238 a238 5e8b 7338 eb7e b438 be0e f238
00000270: 47e8 0939 ffd9 0c39 6249 4e39 79cf 3239
00000280: 88ef d337 c14e fa37 10ae 2e38 5996 a138
00000290: a7df bb38 e23c 3138 118f a938 17bb 6538
000002a0: 8a09 0138 d916 3838 59c3 4a38 28c2 3938
000002b0: 18c9 3538 b23a ef37 3cf5 2338 3040 a537
000002c0: 50ef 5838 5b69 eb37 c244 9e37 d79d df37
000002d0: 30e8 7538 e989 8838 3aab b938 4e94 a938
000002e0: b060 8838 7020 c737 2d83 4238 a42c 8538
000002f0: 000e 8938 7df4 5938 bc95 d737 d88d 5838
00000300: e275 5538 8ff0 3238 71a9 5f38 a863 8538
00000310: 043f 8738 f2b7 ab38 d36a 8a38 6f06 2338
00000320: 4450 8f39 a504 b639 6704 ab39 b75a 9239
00000330: b999 1139 a32b 0939 b26c 6539 5d6e 2539
00000340: 4baf 5439 8e3a 6b39 2d9f 1139 88e4 df38
00000350: 5323 1939 81cb ff38 1661 0c39 5345 1c39
00000360: bedf 3f39 144c fc38 7fa4 3239 dead ec38
00000370: fa27 8939 0e02 7739 da3a 8d39 3928 e038
00000380: ddff 5839 bcfb 8039 4cc1 4539 e23c 0039
00000390: 75bd ea38 bea4 1439 e667 d938 55c7 0439
000003a0: b853 3738 af6e f038 44ec 0739 7a02 1739
000003b0: ad6d 2739 a123 9e39 f952 1a39 f07f a439
000003c0: 3d9f 6138 f892 7538 5b0e 6f38 7b94 5338
000003d0: 3d86 6138 9cb7 6038 3542 8b38 b142 8938
000003e0: 651e 6838 579c 6738 476f d837 a975 0b38
000003f0: 013e 2e38 0d2e 7a38 6842 1f38 58e0 bc37
2.4744204e-05 8.573579e-06 1.0009977e-05 3.0093981e-05 3.4040855e-05 8.167988e-06 7.000187e-06 6.061753e-06
1.9432857e-05 5.8235237e-05 5.280097e-06 1.6828937e-05 7.432271e-06 1.5471354e-05 1.2989953e-05 4.3665204e-06
6.5559507e-06 7.0577057e-06 3.3008862e-05 3.677371e-05 6.900709e-06 1.9028139e-05 3.204101e-05 2.2009614e-05
1.3509024e-05 5.1671946e-06 1.2457725e-05 2.572855e-05 3.1618834e-05 2.9325465e-05 1.0364061e-05 8.293975e-06
1.2497646e-05 1.4741637e-05 2.8752134e-05 6.9932908e-06 1.7318116e-05 2.8539822e-05 1.4841692e-05 1.3758815e-05
0.0001525145 0.00020174104 0.00031821488 0.0004095759 0.00032741833 2.8264143e-05 4.1365354e-05 6.563555e-05
4.0033465e-05 4.610441e-05 4.1080635e-05 3.5658362e-05 3.654737e-05 1.4629982e-05 7.698044e-06 1.5003719e-05
4.1485786e-05 8.3491585e-05 5.5641416e-05 5.038177e-05 0.00037169523 0.00029924346 0.00030049437 0.00022822215
6.3784726e-05 0.00021270433 0.00029968898 0.00028878558 0.00013833116 5.139972e-05 0.00012776097 0.00018295892
0.0001406639 2.306103e-05 4.088863e-05 0.00025512214 0.00010242987 9.8748e-05 9.463644e-05 5.0321236e-05
0.00010031473 4.3010306e-05 0.00012463819 0.0004262557 0.000480037 6.564212e-05 2.5371333e-05 8.9093366e-05
0.00016087269 0.00017991695 1.7456427e-05 4.750462e-05 4.58402e-05 6.1364335e-05 1.1402689e-05 1.0801786e-05
7.2153066e-06 6.27301e-05 0.00020552221 9.927514e-05 0.00018045782 0.00027038413 0.00034506826 0.00025967884
0.00014071702 4.9504946e-05 0.00017420073 0.00032544896 0.00019249452 4.2747128e-05 6.2526706e-05 0.0001427904
0.00020236593 5.0253642e-05 1.743724e-05 0.00030567907 0.00023503006 0.0001833091 0.00012955889 0.00024110946
0.00011593758 9.9228986e-05 0.000115454306 0.00013348735 0.00017273329 3.2697983e-05 2.867589e-05 5.1378793e-05
8.299135e-05 8.0964295e-05 3.335988e-05 2.2830143e-05 2.6089903e-05 2.6036512e-05 1.83164e-05 2.0645268e-05
2.574347e-05 4.8438276e-05 5.4930588e-05 6.243472e-05 0.00013321252 0.00014249813 0.00016493745 0.00021354551
0.00017081239 8.40822e-05 0.000107234344 0.00014635517 0.0001667243 0.00018790986 5.3135314e-05 6.108792e-05
7.735206e-05 5.806551e-05 8.606709e-05 0.00011542205 0.00013151868 0.0001343265 0.00019673028 0.00017052692
2.52647e-05 2.9838995e-05 4.164694e-05 7.705083e-05 8.958513e-05 4.225679e-05 8.085196e-05 5.4772096e-05
3.076488e-05 4.3890297e-05 4.8342485e-05 4.428826e-05 4.3341046e-05 2.8518352e-05 3.909062e-05 1.9699422e-05
5.172129e-05 2.8063243e-05 1.8867086e-05 2.6657171e-05 5.8628793e-05 6.510673e-05 8.853381e-05 8.086172e-05
6.502995e-05 2.3737754e-05 4.637537e-05 6.350249e-05 6.535277e-05 5.196453e-05 2.5699723e-05 5.1630515e-05
5.0892944e-05 4.2662545e-05 5.3325148e-05 6.3604966e-05 6.449039e-05 8.188178e-05 6.60025e-05 3.886822e-05
0.00027334888 0.00034717206 0.00032618942 0.00027914878 0.00013885544 0.00013081594 0.00021879634 0.0001577674
0.00020283197 0.0002243316 0.00013887575 0.00010676036 0.00014604376 0.00012197253 0.00013387608 0.00014903145
0.0001829853 0.00012030467 0.00017036682 0.00011285742 0.0002616046 0.00023556521 0.00026937464 0.000106886444
0.00020694682 0.0002460162 0.00018859393 0.00012229712 0.000111932786 0.00014175751 0.00010366719 0.00012662758
4.370857e-05 0.00011464708 0.00012962619 0.00014401405 0.00015967218 0.00030162654 0.00014717494 0.00031375838
5.3792483e-05 5.8549427e-05 5.699541e-05 5.0444603e-05 5.37692e-05 5.357676e-05 6.6403685e-05 6.545091e-05
5.5341417e-05 5.5220295e-05 2.5801024e-05 3.3249762e-05 4.154258e-05 5.9647533e-05 3.79704e-05 2.2515815e-05

exp_avg f4 [16]
00000000: e6de 6caf 6908 5430 9e8b 60b0 0c87 982d
00000010: 2aff 342f cb62 19b1 b203 a7b0 bbc7 4030
00000020: ac51 f72f bda8 c030 4839 ccb0 0e41 0f30
00000030: 4e40 58b0 9a89 15b0 0089 682f 396d b7b0
-2.1543264e-10 7.71371e-10 -8.1689133e-10 1.7340372e-11 1.6461557e-10 -2.2320588e-09 -1.21519e-09 7.0133027e-10
4.498707e-10 1.4017797e-09 -1.4859234e-09 5.2115545e-10 -7.8671725e-10 -5.440143e-10 2.1148949e-10 -1.3346045e-09

exp_avg_sq f4 [16]
00000000: edf7 4422 bb1a cb22 93cc f622 37c4 9b22
00000010: 84e1 2822 fd1f 5223 1602 9a22 fa19 eb22
00000020: bee2 5821 ce8f 2322 5825 6122 df4b 8022
00000030: 20e6 2f22 0484 cb23 61fe 1922 02bd 0223
2.6694204e-18 5.5051562e-18 6.6895035e-18 4.2220585e-18 2.2887633e-18 1.1390897e-17 4.1743992e-18 6.372438e-18
7.348374e-19 2.2166749e-18 3.0512956e-18 3.47748e-18 2.383875e-18 2.2065215e-17 2.0870034e-18 7.087338e-18

exp_avg f4 [16]
00000000: bade 5a3a 6a51 c0ba 6058 9cba 5bc8 8ebb
00000010: e3ba c93a 5af8 433a 4adf 6abb b68c baba
00000020: 9c66 393a 3a10 7237 66af ce39 5d2c c739
00000030: 7275 a73a 8b9c 833a 2042 103b 1efd a43a
0.0008349229 -0.0014672701 -0.0011928193 -0.0043573803 0.001539078 0.0007475667 -0.0035838657 -0.0014232609
0.000707248 1.4428102e-05 0.00039422064 0.0003798929 0.001277609 0.001004116 0.002201207 0.0012587642

exp_avg_sq f4 [16]
00000000: d71e 3038 1824 4c37 d446 5737 109e fb37
00000010: d84d 3437 b53e a337 e609 7e39 ea23 3c38
00000020: 73d7 0c37 0b33 9537 868c f737 8a96 0837
00000030: f0a7 ea37 9119 ff38 f567 5c37 d3ba 1f37
4.199039e-05 1.2167751e-05 1.283149e-05 2.9995135e-05 1.07469605e-05 1.9460314e-05 0.00024227015 4.485614e-05
8.394813e-06 1.7785953e-05 2.951013e-05 8.141282e-06 2.7973176e-05 0.0001216411 1.3137226e-05 9.520637e-06

exp_avg f4 [16]
00000000: df13 9a3b 6cd7 e73a 2737 123b 3d3a d1ba
00000010: 8efc d9b8 ee7d 1d3a 15ac 493a d7cb 84ba
00000020: e2ac a83a 4f71 a63a eb26 e139 87f3 b239
00000030: cc69 0bba 818a 89bb 66ab 44b9 fd24 093b
0.004702076 0.0017688102 0.0022310705 -0.0015962791 -0.00010394408 0.00060078397 0.0007693184 -0.001013155
0.0012868906 0.0012698564 0.0004294434 0.00034132248 -0.0005318194 -0.004197419 -0.00018755867 0.0020926588

exp_avg_sq f4 [16]
00000000: 9dc0 e338 ed2c 0a38 ffda 9038 2ca8 d237
00000010: f99f 8c36 dd0a 3d37 53c4 8a38 8f42 6437
00000020: 00df 9836 83cf da36 a63a 1f37 efe8 cb37
00000030: 8b9c 4137 290b 9e38 6316 5f37 be46 0438
0.000108600805 3.2943604e-05 6.907246e-05 2.5112262e-05 4.1909484e-06 1.1267807e-05 6.616921e-05 1.3605356e-05
4.5559136e-06 6.521064e-06 9.490794e-06 2.4307954e-05 1.1540144e-05 7.536106e-05 1.3297048e-05 3.1537136e-05
