models/SV_CNNet_15s--epoch=19-val_loss=0.86-train_loss=0.89.ckpt (torch, 60675 bytes, 45 tensors)

model.cnn.0.weight f4 [8, 3, 5]
0	0xbc9cb7ec	-0.01913067
1	0x3d53aca4	0.051678315
2	0xbeec0905	-0.4610063
3	0x3d85deee	0.06536661
4	0xbe9562ce	-0.29176944
5	0xbbd8ac65	-0.006612348
6	0x3c88d641	0.016703727
7	0x3cd624da	0.02614062
8	0xbbc6ff7f	-0.006072938
9	0x3a64add1	0.00087234104
10	0x3ea1b4ef	0.31583354
11	0x3e721bd8	0.23643434
12	0xbe8572f2	-0.2606426
13	0x3f0f89d6	0.56069696
14	0xbf0c2a11	-0.5475169
15	0x3ca0391f	0.019558487
16	0xbe2cc587	-0.16872226
17	0x3e96b619	0.29435804
18	0x3e2fb4be	0.17158791
19	0xbec5820e	-0.38575786
20	0x3d047556	0.032338463
21	0xbd1d72ea	-0.03843967
22	0xbc2050ed	-0.009784919
23	0xbc2b92c3	-0.010472002
24	0xbd05e8a1	-0.032692555
25	0xbc8000e7	-0.01562543
26	0xbe93a812	-0.28839165
27	0xbe9c43da	-0.30520517
28	0x3e8fc287	0.280781
29	0xbe0ff072	-0.14056566
30	0x3d83dd12	0.0643865
31	0xbebd84b7	-0.37015316
32	0x3d8c2214	0.068424374
33	0xbe75ac85	-0.23991592
34	0xbea8d74c	-0.32976758
35	0xbd90f9d3	-0.070789
36	0xbe349a1f	-0.17636918
37	0x3e0aa55f	0.13539647
38	0x3db0ced1	0.08633197
39	0x3cbef5a7	0.023310496
40	0x3df808b0	0.12111032
41	0x3df3c833	0.11903419
42	0x3d1329ea	0.035928644
43	0x3ef337d7	0.4750354
44	0xbc300f7a	-0.010745877
45	0xbe3439d3	-0.17600183
46	0xbd5eea3f	-0.054422613
47	0xbeff1fa8	-0.4982884
48	0xbec76b77	-0.38949177
49	0xbc0ff173	-0.008785593
50	0x3cb176ff	0.021663187
51	0xbd9d872c	-0.076917976
52	0xbcd81b7e	-0.026380297
53	0xbd1acee2	-0.037794955
54	0x3d6c3e1c	0.05767642
55	0x3e5e1b4d	0.21690102
56	0x3eed0dea	0.46299678
57	0x3e38b598	0.18038023
58	0x3ea10145	0.3144628
59	0xbea94a2d	-0.33064404
60	0x3e1d2f87	0.15350161
61	0xbead55c8	-0.33854508
62	0xbe1bc7e7	-0.15212975
63	0xbdfffe31	-0.12499655
64	0x3e80bd07	0.25144216
65	0x3e311e10	0.17296624
66	0xbe72773c	-0.23678297
67	0x3e4745a2	0.19460157
68	0xbdd61985	-0.10454086
69	0xbe43a9c4	-0.19107729
70	0x3edbe777	0.4295003
71	0x3dca4904	0.09877208
72	0x3e24708c	0.16058558
73	0xbe8c520c	-0.27406347
74	0x3e688bfa	0.22709647
75	0xbeaeaa16	-0.3411414
76	0xbddcbe3f	-0.10778474
77	0x3d135172	0.035966344
78	0xb8d2f160	-0.0001005854
79	0xbe0ddb0f	-0.13853095
80	0xbe2d8ff0	-0.16949439
81	0xbe3bfc0c	-0.18357867
82	0x3dc11471	0.09427727
83	0xbe06df5e	-0.13171145
84	0xbada24f8	-0.0016643098
85	0x3eaf9ce6	0.34299392
86	0x3cff81b4	0.031189777
87	0x3e475619	0.19466437
88	0xbb70c6ac	-0.0036739511
89	0x3e8081c9	0.25099018
90	0x3e742156	0.23840842
91	0x3ea79878	0.32733512
92	0xbe52e774	-0.20596105
93	0x3cbf9341	0.023385646
94	0xbdbae368	-0.091254056
95	0x3df44cc8	0.11928707
96	0x3e5fe8bf	0.2186613
97	0x3ca3c406	0.019990932
98	0x3b60aba2	0.0034281989
99	0xbe0f4e15	-0.1399463
100	0xbe8a7c47	-0.2704794
101	0x3cea19af	0.0285767
102	0x3b96a972	0.004597836
103	0x3d95c6f1	0.07313336
104	0x3e49edb5	0.19719584
105	0x3e665e49	0.22496904
106	0xbe835fe1	-0.25659087
107	0xbe9e8790	-0.309628
108	0xbea94ea4	-0.3306781
109	0x3e87bd71	0.2651172
110	0xbdb0520a	-0.08609398
111	0x3d3a2f0e	0.04545503
112	0x3e267527	0.16255628
113	0xbd99916c	-0.0749844
114	0x3d0bc2de	0.034121387
115	0x3e9be514	0.3044821
116	0x3e6e9c00	0.23301697
117	0x3eff5a9a	0.4987381
118	0xbe3bde76	-0.18346581
119	0x3a0a7c53	0.0005282808

model.cnn.0.bias f4 [8]
0	0xbdb0ccae	-0.086327896
1	0xbd138aa6	-0.036020897
2	0x3e2ccd46	0.1687518
3	0x3d9cc4b4	0.07654706
4	0x3dcc190c	0.09965715
5	0xbe225aad	-0.15854903
6	0x3da92695	0.08259312
7	0x3e48f873	0.19626026

model.cnn.1.weight f4 [8]
0	0x3f8a7180	1.0815887
1	0x3f757c32	0.9589263
2	0x3f80ccaa	1.0062459
3	0x3f843b01	1.0330507
4	0x3f82f05e	1.0229604
5	0x3f829b1d	1.0203587
6	0x3f6c8798	0.923944
7	0x3f7d800d	0.99023515

model.cnn.1.bias f4 [8]
0	0x3dbaac05	0.09114841
1	0x3e320023	0.17382865
2	0x3dfcecf2	0.12349881
3	0x3dee0fe0	0.11624122
4	0x3cce7656	0.025202911
5	0xbd0dd01a	-0.03462229
6	0xbd2a9188	-0.041642696
7	0x3d8028c8	0.062577784

model.cnn.1.running_mean f4 [8]
0	0xc0dfa3f7	-6.9887652
1	0xbedbe359	-0.4294689
2	0xc0fcf849	-7.9053082
3	0xc13d8369	-11.844583
4	0xc01792e6	-2.368341
5	0xc0aca164	-5.394701
6	0x402e16eb	2.7201488
7	0xc092fbf8	-4.593258

model.cnn.1.running_var f4 [8]
0	0x4133a8f4	11.228748
1	0x415ddbe2	13.866182
2	0x433ebf4d	190.74727
3	0x426381b3	56.87666
4	0x43ef0e3e	478.11127
5	0x4383183f	262.18942
6	0x436d2393	237.13896
7	0x430082de	128.5112

model.cnn.3.weight f4 [16, 8, 5]
0	0x3dbfd9c8	0.0936771
1	0xbe31b962	-0.17355874
2	0x3dea33eb	0.11435684
3	0xbe1b4c78	-0.1516589
4	0x3ca96d79	0.020682083
5	0x3e0594c7	0.13045035
6	0x3d88b884	0.066758186
7	0xbd802e28	-0.062588036
8	0xbe15030f	-0.14551948
9	0xbda85c37	-0.082207136
10	0x3dfdb421	0.123878725
11	0xbd8845bc	-0.06653926
12	0xbc4cdf43	-0.012504402
13	0x3d03a94b	0.032143872
14	0x3d9db9a8	0.07701427
15	0xbd9dc875	-0.0770425
16	0xbba81f05	-0.005130651
17	0x3cbea4b2	0.023271892
18	0x3d865337	0.06558841
19	0x3d6b468f	0.057440337
20	0xbd6726b1	-0.056433383
21	0x3cf14dfc	0.029456131
22	0xbd341e1a	-0.04397402
23	0xbe2c32bb	-0.16816227
24	0xbe2ac3b3	-0.16676216
25	0xbe0fa642	-0.14028266
26	0xbc48dfb6	-0.012260368
27	0xbdab6fba	-0.083709195
28	0xbd50232a	-0.050814785
29	0x3b95bbab	0.004569491
30	0xbe095ba2	-0.13413861
31	0xbd573426	-0.052539967
32	0xbcd63b2a	-0.026151258
33	0x3dcff5b4	0.10154286
34	0xbe24a7b4	-0.16079599
35	0x3d958f55	0.07302729
36	0x3cf29e50	0.029616505
37	0x3d7ad535	0.061238486
38	0x3ab052fa	0.0013452463
39	0xbd1f11cb	-0.038835328
40	0xbe0ffdaf	-0.14061616
41	0x3ca2b459	0.019861387
42	0xbe62e9b5	-0.22159465
43	0xbc76891a	-0.015047336
44	0xbcbec157	-0.023285551
45	0x3d87af49	0.0662523
46	0x3dc8904b	0.09793147
47	0x3d71e802	0.05905915
48	0xbdbc5ff6	-0.091979906
49	0x3daf064b	0.08546122
50	0xbcb3f3ee	-0.0219669
51	0xbd77ca6c	-0.06049578
52	0xbc9c13af	-0.019052355
53	0x3cef9bcb	0.029249093
54	0x3d8997a0	0.06718373
55	0xbe390684	-0.18068892
56	0x3cdafc1e	0.026731547
57	0xbe4127dd	-0.18862863
58	0xbdd014df	-0.10160231
59	0x3dd04793	0.10169902
60	0x3dacfc17	0.0844652
61	0xbe042458	-0.12904489
62	0xbd4aa3e0	-0.04947269
63	0xbe2a7e6b	-0.16649787
64	0xbdec5d46	-0.11541228
65	0xbdd85e8f	-0.105649106
66	0xbd21cf66	-0.03950443
67	0xbc7ed213	-0.015553015
68	0xbdf2b372	-0.11850633
69	0x3cf63243	0.030053264
70	0x3d80dd27	0.062921815
71	0xbd8f22ef	-0.06989085
72	0x3d88ca2c	0.06679186
73	0x3dacf4f6	0.0844516
74	0xbd1ee281	-0.03879023
75	0x3e0f2aef	0.13981222
76	0x3d379607	0.04482081
77	0xbca1f73f	-0.019771216
78	0xbdaa48b1	-0.08314646
79	0x3e1a18b7	0.1504849
80	0x3e0db19a	0.13837281
81	0xbd841abf	-0.06450414
82	0x3e0382f0	0.12842917
83	0xbcc90aca	-0.024541277
84	0xbcdb8025	-0.026794503
85	0x3e4ec2a8	0.20191443
86	0x3cf45928	0.02982767
87	0xbdea2c6c	-0.11434254
88	0x3df2dcec	0.11858544
89	0x3d6bfef9	0.057616208
90	0x3d4e529f	0.050371762
91	0x3dc230c3	0.09481957
92	0xbe0927bc	-0.13394064
93	0xbc89a157	-0.016800566
94	0xbd90b44d	-0.0706564
95	0xbdc27285	-0.09494499
96	0xbbe4924d	-0.006975448
97	0x3e4b4cad	0.19853468
98	0x3d2767d3	0.0408705
99	0x3daac0c1	0.08337546
100	0xbe0256dd	-0.12728448
101	0xbd70cacd	-0.058787156
102	0x3d155bd2	0.03646452
103	0x3ceb5fa2	0.028732125
104	0xbcee9aab	-0.029126486
105	0x3d28682f	0.041114982
106	0xbdb3dd2a	-0.08782418
107	0xbd935c1d	-0.071953036
108	0x3c35f2fb	0.011105294
109	0xbd91a083	-0.07110693
110	0xbdea680d	-0.11445627
111	0xbccb5c39	-0.024824249
112	0xbd7d1c2b	-0.06179444
113	0xbda84779	-0.08216757
114	0xbc755f79	-0.014976376
115	0xbe398559	-0.18117274
116	0xbdd5ecae	-0.10445534
117	0x3d0850d1	0.033280198
118	0x3e46a8b8	0.19400299
119	0x3ce849e5	0.028355548
120	0xbe1276a5	-0.14303072
121	0x3e417a36	0.18894276
122	0xbcb683df	-0.022279678
123	0x3e3094b2	0.17244223
124	0x3d5546cf	0.05206948
125	0x3e356dca	0.17717662
126	0xbcd68021	-0.026184143
127	0xbdc5ba16	-0.09654634
128	0xbc1ea81a	-0.009683633
129	0xbd7839c7	-0.060601976
130	0x3e0d163a	0.1377801
131	0x3e14c4fb	0.14528267
132	0x3cdbed49	0.026846545
133	0x3c0d331e	0.008618144
134	0x3bd1ab80	0.006398618
135	0x3e112243	0.14173226
136	0xbdfc49ee	-0.123187885
137	0xbc97197d	-0.018444771
138	0x3da075df	0.07834982
139	0xbd8374f6	-0.06418793
140	0xbd2061de	-0.039155833
141	0xbdf2f63d	-0.118633725
142	0xbdb588fb	-0.088640176
143	0x3e3ce827	0.18447934
144	0xbc78f0ec	-0.015194159
145	0xbe381f84	-0.17980772
146	0xbd9e51e7	-0.077304654
147	0x3dc6c8e7	0.09706288
148	0xbdd12f04	-0.10214046
149	0xbd85b7cb	-0.06529196
150	0xbe0022ad	-0.12513228
151	0x3bce7d1d	0.0063015358
152	0xbdc8f9bd	-0.09813259
153	0xbda47b8c	-0.08031377
154	0xbcfe52bc	-0.03104531
155	0xbd0cfc5c	-0.034420356
156	0x3d36aad8	0.044596523
157	0x3e15c3be	0.14625451
158	0xbbed726f	-0.0072463076
159	0xbcd2ecc1	-0.025747659
160	0xbde5d658	-0.112225235
161	0x3e1cfab2	0.15330008
162	0xbe11fad0	-0.14255834
163	0x3c3ba833	0.011453676
164	0xbd315de9	-0.04330245
165	0xbe168712	-0.14699963
166	0x3d965b9c	0.07341692
167	0xbdbbc773	-0.09168901
168	0x3ce342d0	0.02774182
169	0xbe1dc258	-0.15406168
170	0xbd7ea44c	-0.062168404
171	0xbd044354	-0.03229077
172	0xbe59d25f	-0.21271656
173	0x3dcd07b5	0.100112356
174	0xbdaf8eaf	-0.085721366
175	0xbe0fb7cc	-0.14034957
176	0xbd7f1eb2	-0.062285133
177	0x3a593b0b	0.0008286691
178	0x3e1e3014	0.15448028
179	0x3d9d267e	0.076733574
180	0xbd91eb29	-0.07124931
181	0xbcedb178	-0.029015288
182	0x3cac20c0	0.02101171
183	0x3d5a7d2a	0.053342022
184	0x3d808baf	0.062766425
185	0xbc3d4f69	-0.011554577
186	0xbbb75f66	-0.005596089
187	0x3da6c91a	0.08143826
188	0xbd8a192d	-0.06743083
189	0x3de09814	0.109665066
190	0xbdabc49a	-0.08387108
191	0xbd4239e7	-0.0474185
192	0x3d298cd3	0.041394066
193	0x3da23f55	0.07922236
194	0x3db0dc44	0.08635762
195	0x3dd1c0e8	0.10241872
196	0xbd95590c	-0.07292375
197	0xbd37beaa	-0.044859566
198	0x3e065575	0.13118537
199	0x3e07e674	0.13271505
200	0x3e22bb3b	0.15891735
201	0xbe190702	-0.1494408
202	0x3c9ca88e	0.019123342
203	0xbd31593b	-0.043297987
204	0xbd83b5f8	-0.06431192
205	0xbd9ced20	-0.076624155
206	0x3d7db4f0	0.061940134
207	0x3c949bff	0.018140791
208	0x3dbf5a88	0.09343439
209	0xbdec6681	-0.115429886
210	0xbd6cd9c1	-0.057824854
211	0xbc908d85	-0.017645607
212	0xbe130a0f	-0.14359306
213	0x3cde124a	0.02710833
214	0x3dbc1272	0.09183206
215	0xbb251581	-0.002518982
216	0x3d76c6ee	0.060248308
217	0xbe3354ef	-0.17512868
218	0x3d899d93	0.06719508
219	0xbcb98caa	-0.022650082
220	0x3cd95715	0.026530782
221	0x3ace3554	0.0015732446
222	0xbda4f86c	-0.08055195
223	0x3e0fddf2	0.14049509
224	0xbddd2f2c	-0.10800013
225	0xbdb813fa	-0.08988185
226	0x3da47e96	0.08031957
227	0xbe441960	-0.19150305
228	0xbdbe4981	-0.092913635
229	0xbe2494b5	-0.16072352
230	0x3db95174	0.09048739
231	0x3d6f2845	0.058388013
232	0x3d34e5f8	0.044164628
233	0x3d4bb449	0.04973248
234	0x3d8d323d	0.06894348
235	0xba1c4dc4	-0.0005962516
236	0xbe27669e	-0.16347739
237	0x39c3af43	0.00037323878
238	0xbd9ad017	-0.07559221
239	0x3e0198b3	0.12655906
240	0xbc47e747	-0.012201137
241	0xbd58ee20	-0.05296147
242	0x3d7b9906	0.06142523
243	0xbdea340f	-0.11435711
244	0x3dc76ea6	0.097379014
245	0x3e055285	0.1301976
246	0x3daff660	0.08591914
247	0xbceaff6b	-0.028686246
248	0xbd0247cf	-0.031806763
249	0x3dab5626	0.08366041
250	0xbdcd5891	-0.10026658
251	0xbe1c1e0b	-0.15245835
252	0x3d9a70c1	0.07541037
253	0xbd914ee6	-0.07095127
254	0x3a24a258	0.00062802946
255	0x3c1fa6a2	0.009744318

model.cnn.3.bias f4 [16]
0	0x3d902830	0.07038915
1	0x3e1c8e9c	0.15288776
2	0xbcfba39e	-0.030717667
3	0xbdc2885c	-0.09498665
4	0x3da4f5e9	0.08054716
5	0x3ddc651c	0.107614726
6	0xbd4f4bb4	-0.050609306
7	0x3e045c02	0.12925723
8	0xbe106fdc	-0.14105171
9	0xbe1ad33d	-0.15119644
10	0x3b9c1b02	0.004763962
11	0xbc6163cf	-0.013756706
12	0x3d22af80	0.03971815
13	0xbe14b685	-0.1452275
14	0xbe09fbab	-0.1347491
15	0x3cdd199b	0.026989749

model.cnn.4.weight f4 [16]
0	0x3f7a9e6d	0.9789799
1	0x3f8d2dd4	1.1029611
2	0x3f8b329a	1.0874817
3	0x3f7a61a3	0.9780523
4	0x3f7c8d08	0.98652697
5	0x3f7ed438	0.9954257
6	0x3f7f38b8	0.9969592
7	0x3f7c0dd1	0.9845858
8	0x3f7d712f	0.9900083
9	0x3f7731d9	0.96560436
10	0x3f86cb8a	1.0530865
11	0x3f7a26fc	0.97715735
12	0x3f8a588d	1.0808274
13	0x3f7e312f	0.992938
14	0x3f6c2408	0.9224248
15	0x3f809b02	1.0047305

model.cnn.4.bias f4 [16]
0	0x3c884337	0.016633613
1	0x3e1830a6	0.14862308
2	0x3d7b713e	0.061387293
3	0xbd51e272	-0.051241346
4	0x3d16d029	0.03681961
5	0xbcec0182	-0.028809313
6	0x3d9db53b	0.077005826
7	0xbb0f5125	-0.0021868434
8	0x3d754b65	0.059886355
9	0x3b159756	0.00228258
10	0x3dd14a53	0.10219254
11	0xbd297ff5	-0.041381795
12	0x3e22a6fb	0.1588401
13	0xbc7f558d	-0.015584362
14	0xbcd24809	-0.025669115
15	0xbd1533c3	-0.036426317

model.cnn.4.running_mean f4 [16]
0	0xbe3ac25f	-0.18238209
1	0xbe30ae87	-0.17254077
2	0xb9f281e7	-0.00046254622
3	0xbcee9fdc	-0.029128961
4	0xbce6116d	-0.028084481
5	0xbde08d48	-0.10964447
6	0xbde59ebc	-0.11211917
7	0x3e607a84	0.21921736
8	0xbe0a2ac0	-0.1349287
9	0xbec39cc5	-0.38205543
10	0xbf1b86dc	-0.60752654
11	0xbe8e7733	-0.27825317
12	0xbeb2e439	-0.34939745
13	0xbe57ea8a	-0.21085563
14	0xbed30edc	-0.41222274
15	0x3e4315bb	0.19051258

model.cnn.4.running_var f4 [16]
0	0x3df64380	0.12024593
1	0x3e6b473a	0.2297639
2	0x3d62c87d	0.05536698
3	0x3e420f8d	0.18951245
4	0x3df771b2	0.120822325
5	0x3e624eb9	0.22100343
6	0x3de9b8fc	0.11412236
7	0x3e0715e2	0.13191941
8	0x3d92de91	0.071713574
9	0x3e851d32	0.25998837
10	0x3f1a767d	0.6033705
11	0x3e9f3abb	0.31099495
12	0x3e80c79c	0.2515229
13	0x3d952528	0.072824776
14	0x3ea91aa2	0.33028132
15	0x3dcc132c	0.09964594

model.cnn.6.weight f4 [32, 16, 5]
0	0xbe044ff4	-0.12921125
1	0xbde2e312	-0.110784665
2	0xb9ecedd9	-0.00045190638
3	0x3d60aacf	0.054850396
4	0xbb4875bf	-0.003058776
5	0x3dea4e4d	0.11440716
6	0xbc97aabb	-0.018514028
7	0x3da948be	0.082658276
8	0x3d42e7a9	0.04758421
9	0x3d5efa1b	0.054437738
10	0xbdd2996e	-0.10283171
11	0xbdca1110	-0.09866536
12	0x3d825d42	0.06365444
13	0x3d842a0e	0.06453334
14	0xbdb52752	-0.088453904
15	0xbd86a6ac	-0.06574759
16	0xbd04d69e	-0.032431237
17	0xbc1aff76	-0.009460321
18	0xbd596a70	-0.053080022
19	0x3d06ab09	0.032877956
20	0x3bbc9ae6	0.00575577
21	0x3db7ed3b	0.08980795
22	0x3d2a967e	0.041647427
23	0xbcfe9cfc	-0.031080715
24	0x3d78102a	0.06056229
25	0xbde1b486	-0.1102076
26	0x3d80868d	0.062756635
27	0xbc82f347	-0.015985144
28	0xbc17bfe7	-0.009262062
29	0xbdaff522	-0.08591677
30	0x3c065a2e	0.008200211
31	0xbde5154a	-0.11185701
32	0x3d62a3e3	0.055332076
33	0xbd76e3d7	-0.06027588
34	0xbdb4b29a	-0.08823128
35	0x3c9cad97	0.019125743
36	0xbda5173f	-0.080610745
37	0xbd98b2de	-0.07455991
38	0xbdbfe446	-0.093697116
39	0x3d1fa80c	0.03897862
40	0xbdf544ff	-0.119760506
41	0x3d612a82	0.05497218
42	0xbd18bf3e	-0.037291758
43	0xbd1d41cc	-0.038392827
44	0xbe0b9933	-0.1363266
45	0x3c64bbe5	0.013960813
46	0xbd70b6d1	-0.058768097
47	0xbd5ad3ad	-0.053424526
48	0x3c68a047	0.014198369
49	0xbd4ded1b	-0.05027495
50	0xbdbb8ae8	-0.09157354
51	0x3ca8c6ea	0.020602662
52	0xbccb4f82	-0.024818186
53	0x3dec8da9	0.11550457
54	0x3c998087	0.018738044
55	0x3da8351e	0.08213256
56	0xbd8199f7	-0.063281946
57	0xbd1f1c88	-0.03884557
58	0x3b9f20c1	0.0048561995
59	0x3d51cc9a	0.051220514
60	0x3de2aef6	0.110685274
61	0x3ce6d3d1	0.028177174
62	0x3dd632a3	0.10458877
63	0x3db75cd4	0.089532524
64	0x3d9b95e1	0.075969465
65	0xbbead619	-0.0071666357
66	0x3d1a1e29	0.03762642
67	0xbd7d0190	-0.06176907
68	0x3d235059	0.039871547
69	0xbd73f016	-0.059555136
70	0xbd61976e	-0.055076055
71	0x3d09455c	0.033513412
72	0x3c95d570	0.018290251
73	0x3d8a1ae2	0.06743409
74	0xbd0c5cf4	-0.034268335
75	0xbc8fc393	-0.017549312
76	0xbd97e717	-0.07417124
77	0x3d6f13e2	0.05836857
78	0xbdfc4620	-0.12318063
79	0x3d0854cf	0.033284005
80	0x3dae1896	0.08500783
81	0xbc30cd8a	-0.010791192
82	0x3cbc770f	0.02300599
83	0xbba8772d	-0.00514116
84	0x3cc5c814	0.024143256
85	0xbd8bded1	-0.06829608
86	0x3e059d4f	0.1304829
87	0xbdf98852	-0.12184204
88	0x3dca34ac	0.098733276
89	0xbd6939e8	-0.05693999
90	0x3d0af36f	0.033923563
91	0xbd89de2f	-0.06731831
92	0x3d6c31b3	0.057664584
93	0xbddd364e	-0.108013734
94	0x3d387db6	0.045041762
95	0xbb40a69e	-0.0029396187
96	0xbd14cb6d	-0.036326814
97	0x3dfc098d	0.12306509
98	0xbcd06182	-0.02543712
99	0x3d696620	0.05698216
100	0xbd17300c	-0.036911055
101	0x3cfaf958	0.030636474
102	0xbca2c9ac	-0.019871555
103	0x3cdb0cfa	0.026739586
104	0xbe01909a	-0.12652817
105	0x3dbef9c0	0.0932498
106	0x3d899d50	0.06719458
107	0xbd8d26e6	-0.06892185
108	0xbd469320	-0.048480153
109	0xbdc02ae9	-0.093831845
110	0x3de0f733	0.109846495
111	0xbda416a0	-0.08012128
112	0x3c71743e	0.014737187
113	0xbd4a2e51	-0.049360577
114	0xbd6caea8	-0.057783753
115	0xbdb377bb	-0.08763071
116	0x3ce863ff	0.028367994
117	0x3d14e3bc	0.036349997
118	0x3ba8da43	0.005152972
119	0xbd98cfd8	-0.07461518
120	0x3d07020b	0.032960933
121	0x3dcb1e4f	0.0991789
122	0x3ce0b80e	0.027431514
123	0x3dd1a6c6	0.10236888
124	0xbd829844	-0.063766986
125	0xbc9b4d19	-0.018957661
126	0xbd38baef	-0.04510015
127	0xbd69725f	-0.05699384
128	0xbc974c4a	-0.018468995
129	0xbdedd63b	-0.11613127
130	0xbc58d80c	-0.013235103
131	0xbd11e090	-0.03561455
132	0xbd310bd5	-0.043224175
133	0xbdbf3e41	-0.09338046
134	0x3d975c8c	0.07390699
135	0xbb3fc5a1	-0.0029262083
136	0xbc8749ce	-0.016514685
137	0x3c673607	0.014112002
138	0x3d22fb27	0.0397903
139	0xbdc64b47	-0.09682327
140	0xbc2a55e2	-0.010396453
141	0xbdac883e	-0.08424424
142	0xbd17cb4b	-0.03705911
143	0x3d8b2b58	0.067953765
144	0xbcdd7f71	-0.027038308
145	0xbcc5a9ff	-0.024128912
146	0x3d35b052	0.044357605
147	0xbcd0089a	-0.025394727
148	0x3c9d1208	0.019173637
149	0xbdbe6b7f	-0.09297847
150	0x3dc18a4a	0.09450205
151	0x3d3844fb	0.04498766
152	0x3b018dc2	0.0019768332
153	0xbd47f415	-0.04881676
154	0xbd5973eb	-0.053089064
155	0x3d1a0bc6	0.037608884
156	0xbd57a241	-0.05264497
157	0x3cd8894b	0.026432654
158	0xbd958280	-0.073002815
159	0xbc35fac8	-0.011107154
160	0xbdd529d5	-0.104083695
161	0xbdea0f7c	-0.11428735
162	0x3d735dce	0.05941563
163	0x3d8e0c82	0.069359794
164	0xbdd9813f	-0.10620355
165	0x3d5ff159	0.054673526
166	0x3dd6597f	0.10466289
167	0x3cae540c	0.021280311
168	0xbd3bc494	-0.04584177
169	0xbb3b24d2	-0.0028555882
170	0x3c00126a	0.00781689
171	0xbd1a48fd	-0.037667263
172	0xbde12a52	-0.109944
173	0xbd05326a	-0.03251878
174	0xbd8d937c	-0.06912896
175	0x3b1698c8	0.0022979248
176	0xbd3b4f7d	-0.045730103
177	0xbd9fb5f1	-0.077983744
178	0xbd4c710c	-0.049912497
179	0x3d883f7b	0.06652733
180	0xbd93292c	-0.07185587
181	0xbd9b9015	-0.07595841
182	0xbddcb194	-0.10776058
183	0xbc73721a	-0.014858747
184	0x3d8ef30b	0.069799505
185	0xbdc549bb	-0.096332036
186	0x3d318477	0.04333922
187	0x3d0512b6	0.032488547
188	0x3cdd2d65	0.026999185
189	0x3e0c6bad	0.1371295
190	0xbb5d453b	-0.0033763188
191	0xbdb5c5b0	-0.088755965
192	0xbda6c1ec	-0.081424564
193	0xbd82310a	-0.0635701
194	0xbde2e80b	-0.11079415
195	0x3bed935b	0.007250232
196	0x3d0a0d0f	0.03370386
197	0xbe02ea76	-0.12784752
198	0x3cdf81f4	0.027283646
199	0x3d6fb860	0.058525443
200	0xbd75c5cf	-0.060003098
201	0xbccc34e4	-0.024927564
202	0xbe1c95df	-0.15291546
203	0x3d5ffdd1	0.054685418
204	0x3daf91d2	0.08572735
205	0xbdb741bf	-0.08948087
206	0xbbcd2559	-0.0062605557
207	0xbd0e2e5f	-0.03471219
208	0xbd347a41	-0.044061903
209	0xbd615d38	-0.05502054
210	0x3cf83319	0.030297803
211	0xbd067e4d	-0.032835294
212	0x3d5f4d76	0.054517232
213	0xbdceb270	-0.10092628
214	0xbd2c73fe	-0.042102806
215	0xbd8e6208	-0.06952292
216	0xbdea2f56	-0.1143481
217	0xbd7a94c9	-0.06117705
218	0x3d3fbe15	0.046812136
219	0xbde3c34b	-0.111212336
220	0xbd12a0a1	-0.03579772
221	0xbd868ee9	-0.06570227
222	0xba2760ba	-0.0006384958
223	0x3d01a844	0.03165461
224	0xbd2c5df6	-0.042081796
225	0xbda18912	-0.07887472
226	0xbdc02d99	-0.09383697
227	0xbdbc1cb4	-0.09185162
228	0xbd6086d8	-0.054816097
229	0x3d80ade1	0.06283165
230	0x3dbc95fb	0.09208294
231	0xbdca9a33	-0.098926924
232	0xbd0924d2	-0.03348238
233	0x3d8a29ed	0.06746278
234	0xbd6c4fed	-0.05769341
235	0x3c8eed12	0.017447028
236	0xbd88302f	-0.06649815
237	0xbd9f5f05	-0.077817954
238	0xbda73953	-0.081652306
239	0xbd8392f3	-0.06424513
240	0xbd0ce02e	-0.034393482
241	0xbcd62f08	-0.026145473
242	0xbdb382a9	-0.08765156
243	0x3d996591	0.074900754
244	0x3cb0ef53	0.021598494
245	0xbc5a0d99	-0.013308906
246	0x3b6801c7	0.003540145
247	0xbe6da857	-0.23208748
248	0xbe1945ce	-0.14968035
249	0xbccbdb78	-0.024884924
250	0xbe0698ea	-0.1314427
251	0x3d9cc1ac	0.076541275
252	0x3c534511	0.012894885
253	0x3d290d0a	0.0412722
254	0xbdb8785a	-0.0900733
255	0x3d888d39	0.06667561

model.cnn.6.bias f4 [32]
0	0xbd17857b	-0.03699253
1	0xbd5e2d32	-0.05424232
2	0xbc3e6b9d	-0.011622337
3	0xbdc16414	-0.094429165
4	0xbcd46900	-0.025928974
5	0x3d4f26bd	0.050574053
6	0xbdbf676a	-0.093458965
7	0x3c8bf571	0.017084809
8	0x3cd5c1cb	0.026093384
9	0xbdc2252d	-0.09479747
10	0xbcb4968f	-0.022044448
11	0x3dd1c745	0.10243086
12	0xbc868476	-0.016420584
13	0xbd3a2474	-0.04544492
14	0x3dc401f2	0.095706835
15	0xbdc48edc	-0.09597561
16	0xbc3c7dac	-0.011504572
17	0xbc660c10	-0.014040962
18	0x3d25c500	0.040471077
19	0x3d8296f5	0.06376449
20	0x3d9bb8e6	0.07603626
21	0x3d476df6	0.04868885
22	0x3ced5373	0.028970456
23	0x3d43d771	0.047812883
24	0xbdb026ba	-0.086011365
25	0x3cdd8e94	0.027045526
26	0x3c1894e9	0.009312847
27	0xbdda0a7c	-0.10646531
28	0xbc9b27aa	-0.018939812
29	0xbdd4ed95	-0.10396878
30	0xbdb4eb0c	-0.08833894
31	0xbd78889a	-0.06067715

model.cnn.7.weight f4 [32]
0	0x3f81f7ee	1.0153787
1	0x3f911229	1.1333667
2	0x3f9608a8	1.1721392
3	0x3f85b0bd	1.0444561
4	0x3f92bf0a	1.146455
5	0x3f861f44	1.0478292
6	0x3f883b55	1.0643107
7	0x3f966124	1.1748395
8	0x3f8bb0b5	1.0913302
9	0x3f826695	1.0187556
10	0x3f8feeee	1.124479
11	0x3f9b3a64	1.2127194
12	0x3f942bd8	1.157588
13	0x3f80c333	1.005957
14	0x3f873f39	1.0566169
15	0x3f8430cc	1.0327392
16	0x3f911168	1.1333437
17	0x3f9e3e17	1.2362698
18	0x3fa893fa	1.3170159
19	0x3f8aa204	1.0830693
20	0x3f803fdf	1.0019492
21	0x3f87d523	1.0611919
22	0x3f906860	1.1281853
23	0x3f8a9f0f	1.0829791
24	0x3f98e5c0	1.1945114
25	0x3f857ff9	1.0429679
26	0x3f8b932b	1.0904287
27	0x3f9572f5	1.1675707
28	0x3f8f5e3b	1.1200632
29	0x3f828117	1.0195645
30	0x3f83479a	1.0256226
31	0x3f969154	1.1763101

model.cnn.7.bias f4 [32]
0	0x3d1bc825	0.03803267
1	0x3d22d1cd	0.039750863
2	0x3e4308a3	0.19046263
3	0x3d49bd14	0.049252585
4	0xbbad8724	-0.005295651
5	0x3ceb6803	0.02873612
6	0x3d06100f	0.03273016
7	0x3de3d665	0.11124877
8	0x3c300562	0.010743471
9	0x3d11d846	0.035606645
10	0x3d2dcdc1	0.04243255
11	0x3e386735	0.1800812
12	0x3c8e93e6	0.017404508
13	0x3cb54d08	0.022131458
14	0x3db18c9c	0.08669397
15	0x3cdbbcc0	0.026823401
16	0x3e13f184	0.144476
17	0x3d147e4a	0.03625325
18	0x3e53a229	0.20667328
19	0x3c8ea292	0.017411504
20	0x3c70031e	0.014649181
21	0x3d1b4685	0.03790905
22	0x3e19ee74	0.15032369
23	0x3d239031	0.039932434
24	0x3e40ba47	0.18821059
25	0x3d8d9867	0.06913834
26	0x3d2cf154	0.042222336
27	0x3e29efdf	0.1659541
28	0xbd245177	-0.040116753
29	0x3ccb0902	0.024784569
30	0x3cfe8dcd	0.031073475
31	0x3d8243f0	0.06360614

model.cnn.7.running_mean f4 [32]
0	0xbdd66e05	-0.10470203
1	0xbe95c9d9	-0.2925556
2	0xbf3f2746	-0.746693
3	0xbf470e10	-0.7775583
4	0xbe0127e4	-0.12612873
5	0xbd439479	-0.047749016
6	0xbeb83d2f	-0.3598418
7	0x3f0ae522	0.5425588
8	0xbde2ed29	-0.11080391
9	0xbeb03776	-0.34417313
10	0xbf18075d	-0.59386235
11	0xbe784d74	-0.24248296
12	0xbed5c7dd	-0.41754046
13	0xbef73830	-0.48285055
14	0xbe8ab4b0	-0.2709098
15	0xbf74fe7a	-0.957008
16	0xbed875fb	-0.42277512
17	0xbd6d15b3	-0.057882022
18	0x3eba469a	0.3638199
19	0xbd0fbcc2	-0.035092123
20	0xbe418c6f	-0.18901227
21	0xbf0ed495	-0.55793124
22	0xbeea3d2f	-0.45749804
23	0xbeee8887	-0.46588537
24	0xbf22407b	-0.6337964
25	0xbec0db15	-0.37667146
26	0xbdfc5dec	-0.12322602
27	0xbf2403da	-0.64068377
28	0xbdafa964	-0.085772306
29	0xbf0a725b	-0.5408074
30	0xbf039b3f	-0.5140876
31	0xbf0883a3	-0.5332586

model.cnn.7.running_var f4 [32]
0	0x3e8f3a7e	0.27974313
1	0x3da37ba7	0.07982569
2	0x3e342f24	0.17596108
3	0x3dbf598c	0.093432516
4	0x3d8f6484	0.07001594
5	0x3d82ba4c	0.063831896
6	0x3dce716a	0.10080226
7	0x3dbbfb82	0.09178831
8	0x3d899155	0.06717173
9	0x3e26a084	0.1627217
10	0x3dae406f	0.085083835
11	0x3dee8c14	0.116478115
12	0x3dab3e12	0.08361448
13	0x3e3b1e84	0.1827336
14	0x3e3ad7d6	0.18246397
15	0x3dff8468	0.12476426
16	0x3e65876e	0.22414944
17	0x3d70fa27	0.058832314
18	0x3daffc35	0.085930265
19	0x3db0cbe5	0.0863264
20	0x3dfef6f1	0.12449444
21	0x3de608e8	0.112321675
22	0x3de9087d	0.11378572
23	0x3dcb2b23	0.09920337
24	0x3eac60a5	0.33667484
25	0x3eed1f58	0.46312976
26	0x3d8a26bf	0.067456715
27	0x3e13f122	0.14447454
28	0x3d753c61	0.059872035
29	0x3e1981a0	0.14990854
30	0x3dbc3c93	0.09191241
31	0x3d87c4ef	0.06629359

model.cnn.9.weight f4 [1, 32, 5]
0	0xbd9d83b6	-0.076911375
1	0x3cda0649	0.026614325
2	0xbd42c9d0	-0.047555745
3	0xbd3f20ce	-0.046662144
4	0xbd75799d	-0.059930433
5	0x3ce798e8	0.028271154
6	0x3e174d02	0.1477547
7	0x3d229246	0.03969028
8	0x3de31de4	0.110896856
9	0xbdc5ad5d	-0.09652207
10	0xbc1257f6	-0.008932104
11	0xbe0d570d	-0.13802738
12	0xbe1a1c67	-0.15049897
13	0xbe0e8553	-0.13918047
14	0xbdbb3301	-0.091405876
15	0xbcaf3170	-0.021385878
16	0x3d56c260	0.052431464
17	0x3da025fc	0.07819745
18	0x3c927aea	0.017880876
19	0x3d0ab712	0.033865996
20	0x3d2474c1	0.040150408
21	0xba8ba42f	-0.0010653789
22	0xbdbe7a7c	-0.09300706
23	0x3da1ebaa	0.079062775
24	0x3cc919ee	0.024548497
25	0x3cef0f6a	0.029182155
26	0x3dc7d233	0.09756889
27	0xbd4708ac	-0.048592255
28	0x3cd3ba45	0.025845656
29	0x3d9fc639	0.0780148
30	0x3d248479	0.0401654
31	0x3dd0cc5b	0.10195228
32	0xbd7f9aef	-0.062403616
33	0x3d9d185d	0.076706626
34	0x3d8ba482	0.06818487
35	0xbe1065d8	-0.1410135
36	0xbe18ae9a	-0.14910355
37	0xbc2984be	-0.01034659
38	0xbdb1d79a	-0.08683701
39	0xbe2032e1	-0.15644409
40	0x3d64a3a8	0.055820137
41	0xbda88828	-0.08229095
42	0xbd7988aa	-0.06092135
43	0x3da99679	0.082806535
44	0x3dc7f7e3	0.097640775
45	0x3da0b247	0.07846504
46	0x3b81028f	0.0039370726
47	0x3dc7dc93	0.09758868
48	0x3cfd906f	0.03095266
49	0xbd5c2563	-0.053746592
50	0x3cd0d5fd	0.025492663
51	0x3ce29ae7	0.027661754
52	0x3dd4f8b6	0.10399
53	0x3da3b7cd	0.079940416
54	0xbc9840f5	-0.018585661
55	0x3d634c2c	0.055492565
56	0xbdea40ea	-0.114381626
57	0x3b93aecc	0.0045069214
58	0xbe357513	-0.17720442
59	0xbd60d5b9	-0.05489132
60	0x3d0ed808	0.034873992
61	0xbd10cf2b	-0.03535382
62	0x3daf0595	0.085459866
63	0x3d35d785	0.04439499
64	0xbd7862f0	-0.06064123
65	0xbd9bd6cc	-0.07609329
66	0xbd1bd47a	-0.03804443
67	0xbd7e449c	-0.06207715
68	0xbd56bd3e	-0.05242657
69	0x3d250576	0.04028841
70	0xbdad67a1	-0.08467031
71	0x3b22dcd5	0.0024850864
72	0xbd9945b2	-0.074839965
73	0xbdce86be	-0.10084294
74	0xbcbbfc69	-0.022947507
75	0x3d26d69a	0.040732004
76	0x3d2ae409	0.041721378
77	0x3daab557	0.08335369
78	0x3d58410e	0.052796416
79	0x3b3aa9af	0.0028482487
80	0xbda589d3	-0.080829285
81	0xbd8fe7bc	-0.07026622
82	0xbe1a68ef	-0.15079091
83	0xbd53487f	-0.05158281
84	0xbdb00909	-0.08595473
85	0xbda896e0	-0.08231902
86	0x3ddb8a7f	0.107197754
87	0xbda525bc	-0.08063838
88	0x3e59b9bd	0.2126226
89	0x3dc81818	0.097702205
90	0xbe5cb75c	-0.21554321
91	0xbe075780	-0.13216972
92	0xbc6739ce	-0.014112903
93	0xbd25a589	-0.04044107
94	0xbdd722b0	-0.10504663
95	0x3da45984	0.08024886
96	0x3c1f6b55	0.00973018
97	0x3d0f897c	0.035043225
98	0xbd9a80e8	-0.07544118
99	0x3db5aed5	0.08871237
100	0xbc1d8f66	-0.009616708
101	0x3d2e0890	0.042488635
102	0xbc8f1618	-0.01746659
103	0xbda17478	-0.07883543
104	0xbcaad4c1	-0.020853402
105	0x3ca0b88e	0.019619253
106	0x3d63fa4d	0.055658627
107	0x3dd7e72d	0.1054214
108	0x3ded9c0d	0.1160203
109	0xbd8805ee	-0.06641756
110	0xbe0241a8	-0.12720358
111	0xbbfa99ff	-0.0076477523
112	0xbe24815a	-0.16064969
113	0xbe1fb63d	-0.15596862
114	0xbda2c837	-0.07948344
115	0xbd70f7a6	-0.058829926
116	0xbbdccdab	-0.0067383847
117	0x3de0735c	0.10959503
118	0x3d940066	0.072266385
119	0x3d92dbdd	0.07170842
120	0xbe26f886	-0.16305742
121	0xbd8345a4	-0.06409767
122	0xbe5e2d4b	-0.21696965
123	0xbe575463	-0.21028285
124	0xbe20b575	-0.1569422
125	0xbd472a00	-0.04862404
126	0xbd58b7e7	-0.052909758
127	0xbdc76d56	-0.09737651
128	0xbda16ede	-0.07882474
129	0xbd9728df	-0.073808424
130	0xbd7dd301	-0.061968807
131	0x3ce22c45	0.027609
132	0x3d67a323	0.056552064
133	0xbb851aef	-0.0040620486
134	0x3d8c4ac8	0.06850201
135	0xbe2cded2	-0.16881874
136	0xbe29d55c	-0.16585296
137	0xbdcb1b6b	-0.09917339
138	0xbdf7649a	-0.12079735
139	0xbe3208fb	-0.17386238
140	0x3db4c8c6	0.08827357
141	0x3d8e78b3	0.06956615
142	0xbda20c7e	-0.07912539
143	0x3cfc395f	0.030789075
144	0x3ccd0037	0.025024517
145	0x3d9c851d	0.07642577
146	0x3d60e3fc	0.054904923
147	0x3d72b12d	0.059251
148	0x3cc5d116	0.024147552
149	0x3dab5c9d	0.08367274
150	0xbcf01d11	-0.029310735
151	0x3dc09c33	0.09404793
152	0x3d1a2cba	0.03764031
153	0x3d8464ca	0.064645365
154	0x3d94d760	0.07267642
155	0xbd09bd63	-0.03362788
156	0x3e078429	0.13234009
157	0x3d72d511	0.059285227
158	0xbd35369e	-0.04424154
159	0x3d886e3e	0.06661652

exp_avg f4 [8, 3, 5]
0	0xbbd47bf0	-0.006484501
1	0x3b81ceea	0.0039614337
2	0xbb7235f0	-0.0036958419
3	0x3c0501bc	0.008118089
4	0xbc692db1	-0.014232085
5	0xbcbdd447	-0.02317251
6	0xbdc6ee60	-0.09713435
7	0xbd0cb717	-0.034354296
8	0xbb2be1f8	-0.0026227217
9	0xbe4058a3	-0.18783812
10	0x38c5b5ed	9.427578e-05
11	0xbbad5304	-0.0052894372
12	0x3aae5382	0.0013300034
13	0xbbba8869	-0.005692531
14	0x3abe4f70	0.0014519524
15	0xbab0b10c	-0.0013480498
16	0xbb3cb11f	-0.0028792096
17	0xbc0a7d15	-0.008452673
18	0xb9696503	-0.00022258241
19	0xbbe5f2b8	-0.0070174597
20	0xbb52dad5	-0.003217389
21	0xbc1bc638	-0.009507708
22	0xba89dd9a	-0.0010518313
23	0x3c069306	0.008213764
24	0xbc1ab53f	-0.0094426265
25	0xb9b1ea4b	-0.00033934633
26	0x3ad2ca7a	0.0016082071
27	0x3a7f6766	0.00097428856
28	0xbb4abe4e	-0.0030936184
29	0x37e267d8	2.6989655e-05
30	0x36a56ddf	4.930174e-06
31	0xba06195f	-0.0005115475
32	0xba1297d4	-0.0005592082
33	0x3ab5b32f	0.0013862605
34	0x360cb830	2.0968837e-06
35	0xbb8d59e1	-0.004313693
36	0xbb58aff6	-0.0033063865
37	0x3b560b9c	0.0032660728
38	0xbc748b6f	-0.014925822
39	0x3b813075	0.003942544
40	0x378cb0a3	1.6771553e-05
41	0x394d3b1f	0.00019572348
42	0xb84fab53	-4.9512204e-05
43	0xb9478c13	-0.000190303
44	0xb82c99cd	-4.1151234e-05
45	0xbc1b92b3	-0.009495425
46	0xbc3650de	-0.011127679
47	0x3ba136d6	0.004919867
48	0x3a3c9962	0.00071944867
49	0xbbe6ad2d	-0.007039687
50	0xbc001cb1	-0.007819341
51	0xbd3aa3b4	-0.045566276
52	0xba76d107	-0.0009415303
53	0xbbf8257b	-0.0075728274
54	0xbd2c6a1c	-0.04209338
55	0x393f3e29	0.00018238336
56	0xbb0df2ee	-0.002165969
57	0xba9b5892	-0.0011851958
58	0x392cf7e8	0.0001649555
59	0x3a2e20bf	0.0006642453
60	0xbada5603	-0.0016657714
61	0xb952852a	-0.00020076768
62	0x39fde53a	0.00048426708
63	0xba7fb530	-0.0009754477
64	0xbadcded2	-0.0016851074
65	0x3a5ebc5a	0.00084966945
66	0xbaa76bcd	-0.0012773216
67	0xbbf3f854	-0.0074453745
68	0xbaa41d97	-0.0012521025
69	0xbc0a7c91	-0.0084525505
70	0xb9b5683f	-0.0003460068
71	0xb99906ae	-0.0002918741
72	0xb99a004a	-0.00029373384
73	0x38d6b6f8	0.00010238396
74	0xb800ac9d	-3.0678337e-05
75	0xba56e449	-0.0008197469
76	0xba4b855b	-0.0007763707
77	0xba3cbab3	-0.0007199451
78	0xbb1cb205	-0.002390982
79	0xb988dda3	-0.00026105074
80	0xbc00547d	-0.007832644
81	0x3be3dcfb	0.006953833
82	0xbb01200b	-0.0019702937
83	0x3b027150	0.0019903965
84	0x3bd5946b	0.006517937
85	0xb8ba0a1b	-8.8710534e-05
86	0x3903e64b	0.00012578924
87	0x390cf9a5	0.0001344444
88	0x38602d45	5.3447922e-05
89	0xb843510d	-4.6567107e-05
90	0xba276646	-0.00063857844
91	0xbb393c5a	-0.0028264732
92	0xbb0b5d9d	-0.0021265515
93	0xba5d5c7a	-0.0008444261
94	0xb9da9695	-0.00041692393
95	0xbc206745	-0.009790246
96	0x3c00ca9a	0.007860804
97	0x3ae21070	0.001724733
98	0x3bfce2fc	0.0077174883
99	0x380164ee	3.0849995e-05
100	0x3941132b	0.00018413055
101	0xb8191fb7	-3.650758e-05
102	0xb95f7e59	-0.00021314005
103	0x381e2b51	3.7710477e-05
104	0xb7e21ad8	-2.69538e-05
105	0xba95a0ac	-0.0011415682
106	0xba066f6b	-0.0005128297
107	0x3aaee755	0.0013344089
108	0x3b088cc1	0.002083585
109	0xbad0a287	-0.0015917578
110	0xbc039ebd	-0.008033452
111	0x3ca8e4c8	0.020616904
112	0x3c0b707c	0.008510705
113	0x3af8a5c0	0.0018970296
114	0xbca3df29	-0.020003872
115	0xba17acf4	-0.0005785965
116	0xba25ff0d	-0.0006332256
117	0xba4a8dd7	-0.0007726824
118	0x38d63616	0.000102143895
119	0x38fc3e7b	0.00012027934

exp_avg_sq f4 [8, 3, 5]
0	0x39014bbf	0.00012330616
1	0x38899135	6.559716e-05
2	0x3909b30c	0.00013132038
3	0x38819e12	6.180642e-05
4	0x38c24972	9.264321e-05
5	0x3c42424a	0.011856625
6	0x3c37f05f	0.0112267425
7	0x3c2e76a6	0.010648405
8	0x3c49a8b0	0.012308285
9	0x3c682084	0.014167909
10	0x3350bdd6	4.860143e-08
11	0x3646e6cd	2.9638643e-06
12	0x3509d34a	5.1343943e-07
13	0x36a1e399	4.8246698e-06
14	0x349119e3	2.702719e-07
15	0x381401f2	3.528776e-05
16	0x380988bc	3.279069e-05
17	0x37c3c65f	2.3338185e-05
18	0x37f21555	2.8858582e-05
19	0x388b4a75	6.641905e-05
20	0x3b5d0d08	0.003372969
21	0x3b38359d	0.0028108128
22	0x3b3d14ca	0.0028851503
23	0x3b4c21c9	0.0031148067
24	0x3b2bcdef	0.0026215275
25	0x32b53092	2.109326e-08
26	0x349bc8e0	2.9017156e-07
27	0x34740d34	2.2729074e-07
28	0x351dd51d	5.879718e-07
29	0x332a0a2e	3.9590468e-08
30	0x361fbd14	2.3802904e-06
31	0x36c1c4a4	5.77474e-06
32	0x36600047	3.3378763e-06
33	0x361702dd	2.250242e-06
34	0x36ac6301	5.137525e-06
35	0x392e8a10	0.00016645365
36	0x38c92c0e	9.592633e-05
37	0x39270601	0.00015928598
38	0x38fce948	0.000120597484
39	0x392343bd	0.00015570126
40	0x327203b3	1.4087095e-08
41	0x3224f311	9.601323e-09
42	0x31ba957e	5.4303078e-09
43	0x330a71ee	3.2234247e-08
44	0x30957d8d	1.087686e-09
45	0x37d58f1b	2.5458217e-05
46	0x37e0f730	2.6817987e-05
47	0x389c254a	7.445605e-05
48	0x37c84a14	2.3876353e-05
49	0x384d0c48	4.8887247e-05
50	0x3a7a14b6	0.00095398293
51	0x3a76e175	0.0009417751
52	0x3ab25131	0.0013604519
53	0x3ad304f7	0.0016099502
54	0x3abeeeaa	0.0014566977
55	0x32c8cf50	2.337734e-08
56	0x3506a0c3	5.015283e-07
57	0x343e7bc9	1.7740162e-07
58	0x32dbc432	2.5584175e-08
59	0x3323b19b	3.8112926e-08
60	0x35cfbae4	1.5477094e-06
61	0x36bce976	5.630015e-06
62	0x36b646ee	5.43228e-06
63	0x36975844	4.510426e-06
64	0x36a67b1e	4.9615182e-06
65	0x3899e585	7.33836e-05
66	0x38c68b5d	9.467334e-05
67	0x38b6061f	8.6795764e-05
68	0x387a79de	5.9718142e-05
69	0x38d607fe	0.00010205804
70	0x32e0c5a7	2.6166914e-08
71	0x3285cca6	1.5576301e-08
72	0x32b21279	2.0730328e-08
73	0x31049cf2	1.9297741e-09
74	0x30e7fa53	1.6878609e-09
75	0x35c605b8	1.4753814e-06
76	0x36987d9d	4.5445763e-06
77	0x355f110f	8.30988e-07
78	0x36c8cea9	5.984523e-06
79	0x3601f701	1.9366273e-06
80	0x3871937e	5.759624e-05
81	0x382fa78d	4.1879295e-05
82	0x3883148d	6.250395e-05
83	0x3880603e	6.121442e-05
84	0x38aebcd3	8.332138e-05
85	0x31d22b7d	6.1167484e-09
86	0x3111fbe3	2.1243458e-09
87	0x32201bc1	9.319536e-09
88	0x306466d3	8.309204e-10
89	0x319cd0d8	4.5639403e-09
90	0x3695cd08	4.464415e-06
91	0x37041f06	7.875036e-06
92	0x37133427	8.774025e-06
93	0x3722338c	9.667954e-06
94	0x37219594	9.631174e-06
95	0x38bd3acd	9.023175e-05
96	0x38912227	6.9205e-05
97	0x38fef0f8	0.00012156548
98	0x3913cd23	0.00014095432
99	0x390646a6	0.00012805554
100	0x31daf6b8	6.3726837e-09
101	0x325ebdd2	1.2965261e-08
102	0x322b8e32	9.9858415e-09
103	0x31b52714	5.272236e-09
104	0x31bb7ff6	5.4569638e-09
105	0x368db131	4.2227553e-06
106	0x36af1156	5.2174246e-06
107	0x36d25f0f	6.269554e-06
108	0x373bb756	1.1188755e-05
109	0x372f4cdf	1.0448711e-05
110	0x39da8df5	0.00041685966
111	0x39f0fc08	0.00045964145
112	0x3977cd77	0.00023632297
113	0x39fa4d5e	0.0004774136
114	0x39cbab06	0.000388466
115	0x338e8339	6.6362595e-08
116	0x331bb8f6	3.625697e-08
117	0x33bc069d	8.755635e-08
118	0x32a73a9d	1.9468013e-08
119	0x3206613a	7.821933e-09

exp_avg f4 [8]
0	0x2ead1e3a	7.8724985e-11
1	0x2f4c4bec	1.8580665e-10
2	0x2e40ff4e	4.3882502e-11
3	0x2e4c1706	4.640468e-11
4	0x2d558186	1.2136408e-11
5	0x2da0be3c	1.8274375e-11
6	0xad5a8f46	-1.2423678e-11
7	0x2eabacc9	7.8068725e-11

exp_avg_sq f4 [8]
0	0x20a00c6a	2.711327e-19
1	0x1f9e2b89	6.6987626e-20
2	0x1da36952	4.325464e-21
3	0x1f3fd4a3	4.0621712e-20
4	0x1d517488	2.7721165e-21
5	0x1d041682	1.748169e-21
6	0x1d2da31b	2.2980683e-21
7	0x1e0fd71b	7.61484e-21

exp_avg f4 [8]
0	0xba800437	-0.0009766881
1	0x3b4b55d6	0.0031026504
2	0x3b89365e	0.0041873893
3	0xbbab60ca	-0.005230044
4	0xba7308bb	-0.00092710153
5	0x3afd0d44	0.0019306322
6	0xbac60284	-0.0015106951
7	0x396a5d51	0.00022350742

exp_avg_sq f4 [8]
0	0x37ea17b1	2.7906006e-05
1	0x37bc0116	2.2411852e-05
2	0x3764df8e	1.3641909e-05
3	0x37eed427	2.8470602e-05
4	0x378b5b73	1.6612676e-05
5	0x36f5bccc	7.323548e-06
6	0x37a75ace	1.9950236e-05
7	0x37b0c5b6	2.1072901e-05

exp_avg f4 [8]
0	0x3bee8e3a	0.0072801383
1	0xbc08e448	-0.008355208
2	0x3958ec29	0.00020687342
3	0xba1b6f36	-0.00059293525
4	0x3b1f18b9	0.002427621
5	0x3ad445d9	0.0016195133
6	0xbaa85669	-0.0012843135
7	0x3a40c781	0.0007353947

exp_avg_sq f4 [8]
0	0x38849567	6.322079e-05
1	0x383f81ba	4.5658766e-05
2	0x37140d17	8.824535e-06
3	0x38a20b6e	7.726891e-05
4	0x370d06ff	8.405884e-06
5	0x36afde8c	5.2413143e-06
6	0x3715715b	8.907485e-06
7	0x375a0c2f	1.2996649e-05

exp_avg f4 [16, 8, 5]
0	0xbc1a62ff	-0.009423017
1	0xbbbf0a87	-0.0058301124
2	0xbc23cd7e	-0.009997724
3	0xbc127402	-0.008938791
4	0xbc6ee01d	-0.0145798
5	0xbaf5741d	-0.0018726621
6	0xbb88f174	-0.004179174
7	0xbb46d366	-0.0030338406
8	0xbba279f7	-0.004958387
9	0xbb9b8e12	-0.0047471607
10	0xbb9385c4	-0.00450203
11	0xbbc52b21	-0.0060171043
12	0xbb63c7ee	-0.0034756619
13	0xbbce8245	-0.0063021504
14	0xbc7cc083	-0.015426758
15	0xbb0ce219	-0.002149707
16	0xbbca6443	-0.006176503
17	0xbc30973b	-0.010778244
18	0xbb74f581	-0.0037377777
19	0xbaf45881	-0.0018642099
20	0x3aa8860f	0.0012857335
21	0xbbb0ca58	-0.005395215
22	0xbad3c45c	-0.0016156542
23	0x3b24af96	0.0025129071
24	0xbae0f0ec	-0.0017161644
25	0xbb19bcbb	-0.002345844
26	0xbafb5f73	-0.0019178226
27	0xbb890ccd	-0.004182434
28	0x39827456	0.0002488221
29	0xbbb2bbba	-0.0054545077
30	0xbb71480d	-0.0036816627
31	0xbbd1e13e	-0.006405025
32	0xbc0ca8b3	-0.008585143
33	0xbb87b576	-0.004141505
34	0xba13cdd7	-0.00056382775
35	0xbbc7a58d	-0.0060927332
36	0xbbb12905	-0.0054065012
37	0xbbcf1e51	-0.0063207527
38	0x3a795613	0.0009511422
39	0xbc3b7654	-0.011441786
40	0x3bc2f3bb	0.005949465
41	0x3c50fecd	0.012756062
42	0x3bdb3cc3	0.006690593
43	0x3b3f36e9	0.0029177016
44	0x3c572998	0.013132475
45	0x3940d9f1	0.00018391736
46	0x3ad12fb7	0.0015959655
47	0x3b8d5982	0.0043136487
48	0x3ba03f80	0.0048903823
49	0x3b89082f	0.0041818838
50	0xb9864c44	-0.00025615294
51	0x3b295943	0.0025840558
52	0x3b7220d9	0.0036945848
53	0x3bcf3719	0.006323707
54	0x3c4c33cc	0.012463521
55	0xbb70c138	-0.003673626
56	0xbb5c4d48	-0.00336154
57	0x3be2c6ab	0.0069206557
58	0x3ba6f162	0.005094693
59	0x3abad740	0.0014254823
60	0xbb1771d4	-0.0023108618
61	0x3b03e203	0.0020123727
62	0xbb5a79d8	-0.0033336785
63	0x3b4556fe	0.0030111666
64	0x3b93b5c3	0.0045077517
65	0xba77e18d	-0.0009455912
66	0xba897072	-0.0010485782
67	0x3a0fc097	0.0005483715
68	0x3a5d53be	0.00084429595
69	0x3b94fb37	0.0045465487
70	0x3bb22e81	0.0054376726
71	0x3bfff774	0.007811481
72	0x3c3d8024	0.011566196
73	0x3bfdc021	0.007743851
74	0x3b969894	0.0045958254
75	0x3b681918	0.0035415348
76	0x3c194789	0.009355434
77	0x3bef3f73	0.007301265
78	0x395f08d6	0.00021270229
79	0x3c0b4f64	0.008502815
80	0x3c790153	0.01519807
81	0xbb815258	-0.0039465837
82	0xbc6c3384	-0.014416579
83	0x3c2a7608	0.010404117
84	0xbbd3c1f8	-0.006462332
85	0xbbe6bf12	-0.0070418203
86	0xbbe2bc05	-0.0069193863
87	0x3b1cd121	0.0023928361
88	0xba032650	-0.00050029624
89	0xbb9be963	-0.0047580465
90	0x3b82bd56	0.0039898558
91	0x39a48d2a	0.00031385693
92	0xbb8fab49	-0.0043844325
93	0xbbbf07f3	-0.005829805
94	0xbc61bd6c	-0.013778072
95	0x3910ce75	0.00013809821
96	0xbaeacfdd	-0.0017914731
97	0xbc751900	-0.014959574
98	0x3b965e15	0.004588852
99	0x3bb5688d	0.005536145
100	0x3c484573	0.012223589
101	0xbbdc9a37	-0.006732251
102	0xbbc19abc	-0.0059083384
103	0x3c1f5d2e	0.009726806
104	0xbc82ca3c	-0.015965573
105	0x3bcc8ad1	0.006242134
106	0x3b62cf0c	0.0034608273
107	0xbbbade9d	-0.005702807
108	0x39dba8f8	0.00041896827
109	0xbbcbef7a	-0.006223616
110	0xba0fe912	-0.0005489747
111	0xbc033aac	-0.008009594
112	0x388d162a	6.727532e-05
113	0x3a1f2ab8	0.0006071734
114	0xba362af8	-0.0006949152
115	0xba9e7796	-0.0012090083
116	0x3b73946d	0.0037167326
117	0xbc59dcba	-0.013297254
118	0x3c29e3a4	0.010369215
119	0xbc418970	-0.011812553
120	0x3b3d08cc	0.0028844355
121	0x3ad318c8	0.0016105408
122	0xb9dff3ca	-0.00042715512
123	0x38fac510	0.00011957635
124	0x3b5d0070	0.0033722185
125	0xbb50988e	-0.003182921
126	0x364353e8	2.9106104e-06
127	0x3b0ac26a	0.0021173009
128	0x3af331b1	0.0018554238
129	0x39caf2bf	0.00038709302
130	0x3a8d80c2	0.0010795819
131	0x3aaa612c	0.001299893
132	0x3b87fe49	0.004150186
133	0x3b8778a7	0.004134256
134	0x3afcd2d1	0.0019288902
135	0x3b94bb5a	0.0045389356
136	0x3aa82f08	0.0012831399
137	0x3ab773cf	0.0013996306
138	0x37cc4022	2.434856e-05
139	0x39afab96	0.00033506443
140	0xb983a10c	-0.00025106256
141	0xba113e8e	-0.00055406324
142	0x3a71c151	0.0009222227
143	0x39735414	0.00023205607
144	0x38a014cc	7.633268e-05
145	0x3ac90f7e	0.00153397
146	0xbae9c300	-0.0017834604
147	0x3a92725f	0.0011173001
148	0x3b1ad174	0.002362338
149	0x3a905512	0.0011011681
150	0xb98b698f	-0.00026590793
151	0x3a438bb4	0.0007459477
152	0xba31654a	-0.00067671074
153	0x3b20fcab	0.0024564664
154	0x3b3c66ed	0.0028747872
155	0x3b6d82b3	0.0036241233
156	0x3aaba715	0.0013096059
157	0x3b103699	0.00220052
158	0x3ad402f5	0.0016175198
159	0x3bba23b5	0.005680526
160	0xbb2eec45	-0.002669112
161	0xb7dcf52a	-2.6340207e-05
162	0xba72b7b3	-0.00092589407
163	0xbb05a5d6	-0.0020393035
164	0xbbe5ea27	-0.0070164385
165	0x3a12cac4	0.00055996724
166	0xb9bab12f	-0.00035608697
167	0xbb832a39	-0.004002836
168	0xb8e901f3	-0.00011110669
169	0x3aaf2ba7	0.001336445
170	0xbb59c237	-0.0033227333
171	0xbaa631d0	-0.001267964
172	0xba89e613	-0.0010520838
173	0xba5400c7	-0.0008087274
174	0xbbb2b23b	-0.0054533756
175	0x382dcc29	4.1436553e-05
176	0x3b2b34f3	0.002612409
177	0xba13ff74	-0.00056456705
178	0xbbafcbd6	-0.0053648753
179	0x3a7190be	0.00092149887
180	0xbafe0b63	-0.0019382056
181	0x3a72a9f3	0.0009256892
182	0xba5a5fff	-0.00083303446
183	0xbac440a5	-0.0014972879
184	0xbad76dd4	-0.001643593
185	0xbbc3a23a	-0.0059702666
186	0xbab3f6ba	-0.0013730146
187	0x39ed2a3b	0.00045235627
188	0xbb14b398	-0.0022690054
189	0x3a8a862d	0.0010568552
190	0xba0ea12b	-0.0005440886
191	0xbb48c575	-0.0030635272
192	0xbbbb8edd	-0.0057238177
193	0xbbd5549c	-0.0065103304
194	0xbb32fbc1	-0.0027310702
195	0xbab56a9c	-0.0013840976
196	0xbb0d7d7e	-0.0021589692
197	0xb9c1ee37	-0.00036989313
198	0xbb04a9be	-0.0020242776
199	0xba903940	-0.001100339
200	0x3ad89e6a	0.0016526703
201	0xba18cc9e	-0.000582883
202	0x3b98508a	0.004648273
203	0x3b741924	0.003724643
204	0x3b8fd630	0.004389547
205	0x3b7ad2d8	0.0038272645
206	0x3b62cc12	0.0034606499
207	0xbab82034	-0.0014047683
208	0xbb1f76e5	-0.0024332341
209	0xbae9aaf8	-0.0017827442
210	0x39dc3dc9	0.00042007703
211	0x39ad1460	0.00033012312
212	0x3aa72544	0.0012752195
213	0x3bb05c92	0.005382129
214	0x3b9cf255	0.0047896304
215	0xba346c0d	-0.0006882556
216	0x39f3bb37	0.00046488058
217	0x3bc02fae	0.005865059
218	0x3ba72a52	0.0051014805
219	0xbb311be4	-0.002702468
220	0xba12a3b3	-0.0005593851
221	0xb9df8d39	-0.00042639094
222	0xba8d3b91	-0.0010775198
223	0xbb4e240a	-0.0031454586
224	0x3b3afef5	0.0028533314
225	0x398c1471	0.0002671811
226	0x39cd69ff	0.0003917962
227	0x3a700a50	0.000915681
228	0x3a494db8	0.00076791225
229	0x3a43f455	0.0007475068
230	0x3bb1a943	0.005421789
231	0x3b28551b	0.0025685492
232	0x3b26cbd6	0.0025451086
233	0x39aaffae	0.00032615423
234	0x3af1ddd1	0.0018452947
235	0xbacfb261	-0.0015846008
236	0xba2c5b14	-0.0006574851
237	0x39e6b4b8	0.00044003665
238	0x3b17ce9c	0.002316392
239	0x3af8fdff	0.0018996595
240	0xb980897d	-0.000245165
241	0x3aa748b8	0.0012762761
242	0xbb60e910	-0.0034318604
243	0xbaee5a72	-0.0018184914
244	0x3774d3a5	1.4592811e-05
245	0xbabcccac	-0.0014404259
246	0x3a1175a0	0.00055488385
247	0x39eae057	0.00044799104
248	0xbb54a982	-0.0032449667
249	0x3b01b012	0.0019788784
250	0x39373b65	0.00017474366
251	0x3a8e3e58	0.001085232
252	0x3b1736b8	0.0023073386
253	0xbb6e4987	-0.0036359744
254	0xbab61742	-0.0013892429
255	0x3b0c3630	0.0021394603
