models/SV_UNet_5s--epoch=4-val_loss=0.45-train_loss=0.48.ckpt (torch, 268153 bytes, 121 tensors)

model.cnn_input_1.0.weight f4 [3]
0	0x3f7c7d50	0.9862871
1	0x3f6b8aae	0.92008483
2	0x3f8e00b2	1.1093962

model.cnn_input_1.0.bias f4 [3]
0	0x3d3936dc	0.045218334
1	0x3c67e492	0.0141536165
2	0xbc01c8e9	-0.007921436

model.cnn_input_1.0.running_mean f4 [3]
0	0x41389a17	11.53762
1	0xbe540f69	-0.20709004
2	0x3cba1cfb	0.022718897

model.cnn_input_1.0.running_var f4 [3]
0	0x41a13cee	20.15475
1	0x44cabd56	1621.9167
2	0x3c6d698a	0.0144904945

model.cnn_input_1.1.weight f4 [8, 3, 5]
0	0x3de3ab87	0.111167006
1	0x3e0a4190	0.13501573
2	0xbe4a6236	-0.19764027
3	0x3e247940	0.16061878
4	0xbbb9d805	-0.0056715035
5	0x3e7747e8	0.24148524
6	0x3d729d52	0.059232064
7	0xbd718dbb	-0.058973055
8	0x3d0a1b85	0.03371765
9	0xbe1a6a30	-0.1507957
10	0x3e049ac3	0.12949662
11	0xbe72bcda	-0.23704854
12	0x3d80393c	0.062609166
13	0xbbb025e7	-0.005375612
14	0x3dae23d2	0.08502926
15	0xbe408dd8	-0.18804109
16	0x3e387235	0.18012317
17	0xbd02de2b	-0.031950157
18	0xbd569e4d	-0.05239706
19	0xbe37d8ea	-0.1795384
20	0xbe83064f	-0.2559075
21	0x3e82b20d	0.25526467
22	0xbe15e064	-0.1463638
23	0xbe4b8662	-0.19875482
24	0xbe1780b3	-0.14795189
25	0x3db66df0	0.08907688
26	0x3e5f3e97	0.2180122
27	0xbe4bd282	-0.19904521
28	0xbe6d63b4	-0.23182565
29	0x3d987fff	0.07446288
30	0xbe148149	-0.14502443
31	0x3e2311c1	0.15924741
32	0xbe987837	-0.29779217
33	0x3e5ae82e	0.21377632
34	0x3e2d8112	0.16943768
35	0xbd996d31	-0.0749153
36	0x3e26d984	0.16293913
37	0x3dfee1b7	0.124453954
38	0x3c0b758a	0.00851191
39	0x3d8ef768	0.06980783
40	0x3e98d0ac	0.29846704
41	0x3e794ac9	0.24344935
42	0xbe7bd0f9	-0.24591435
43	0xbe7a179f	-0.24423073
44	0xbe11a0df	-0.14221524
45	0x3e1a1f4a	0.15050998
46	0xbe2f08d9	-0.17093219
47	0xbda456da	-0.08024378
48	0x3a98198e	0.0011604296
49	0xbd8e6568	-0.069529355
50	0x3c9e1d7e	0.019301172
51	0x3cdd3e53	0.027007258
52	0xbde88adb	-0.113546096
53	0x3c9d7a40	0.019223332
54	0xbd06bbd9	-0.03289399
55	0x3e86c784	0.26324093
56	0x3ebd877b	0.37017426
57	0x3e037344	0.12836939
58	0x3d4fda78	0.050745457
59	0x3e026435	0.12733538
60	0xbd361c8b	-0.044460814
61	0x3a58133f	0.0008242614
62	0x3deab14f	0.114596
63	0x3d9e3b0c	0.07726106
64	0xbcf472bb	-0.029839864
65	0x3d68fab4	0.056879714
66	0x3ea0946d	0.3136324
67	0xbdac65a7	-0.08417826
68	0x3df8719a	0.12131043
69	0xbe187fe0	-0.1489253
70	0x3df796d4	0.12089315
71	0xbe8cfa74	-0.2753483
72	0xbd1b7def	-0.037961897
73	0xbd3daa9d	-0.046305288
74	0x3d55b83d	0.052177656
75	0xbd9f9eac	-0.07793936
76	0xbe82319f	-0.25428483
77	0x3be7270a	0.0070542144
78	0x3d8024a1	0.062569864
79	0xbd960f78	-0.07327169
80	0x3c21c1ed	0.009872896
81	0xbdffa914	-0.12483421
82	0xbdd2c8b3	-0.102921866
83	0x3e1435e1	0.14473678
84	0x3dc7d1d4	0.097568184
85	0xbe133067	-0.14373933
86	0xbe072153	-0.13196306
87	0xbeaf2a13	-0.34211788
88	0xbe2bb72d	-0.16769095
89	0xbe36c1ac	-0.17847317
90	0x3e9393aa	0.28823596
91	0x3e5ab0bc	0.21356481
92	0x3e0eeb5a	0.13956967
93	0xbd004921	-0.03131974
94	0xba8f68cb	-0.0010941265
95	0xbe255619	-0.16146125
96	0x3dd269fb	0.102741204
97	0x3b54155e	0.0032361369
98	0x3ce4867b	0.027896157
99	0xbe023043	-0.12713723
100	0x3d996ed4	0.07491842
101	0x3d692dfa	0.056928612
102	0xbe9c673f	-0.3054752
103	0xbe4f379f	-0.20236062
104	0xbe75f59d	-0.24019475
105	0xbdf9bdc5	-0.12194399
106	0xbe8f255a	-0.27958184
107	0x3be3d31f	0.006952658
108	0x3e804e98	0.25059962
109	0x3e31d4b5	0.17366298
110	0xbe4f9a0d	-0.2027361
111	0x3e413a36	0.18869862
112	0xbc981166	-0.018562984
113	0x3da40787	0.08009248
114	0xbe1d0e83	-0.15337567
115	0x3db0d78c	0.08634862
116	0xbe28c2d9	-0.16480578
117	0x3e80d794	0.25164473
118	0x3e34db33	0.17661743
119	0xbe13a7f0	-0.14419532

model.cnn_input_1.1.bias f4 [8]
0	0x3e068cab	0.13139598
1	0xbdf4dac0	-0.11955786
2	0xbe0079e8	-0.12546504
3	0x3e1dc08b	0.1540548
4	0xbdf40d39	-0.119165845
5	0x3e9c8ac6	0.30574626
6	0x3d3270ea	0.043564714
7	0xbdcf67cc	-0.101272196

model.cnn_input_1.3.weight f4 [8, 8, 5]
0	0x3e21e2eb	0.15809219
1	0x3db909a0	0.09035039
2	0xbdcbf67f	-0.09959125
3	0x3d4d9e34	0.050199702
4	0xbda0c693	-0.07850375
5	0xbd8b051a	-0.067880824
6	0x3d85c06f	0.065308444
7	0xbd8355f3	-0.06412878
8	0xbc8ec732	-0.017428968
9	0xbdda234a	-0.10651262
10	0xbe052c86	-0.13005266
11	0x3e4c3fc6	0.19946203
12	0x3e29553c	0.1653642
13	0x3d925582	0.071452156
14	0x3d63ab43	0.05558325
15	0xbdff470f	-0.12464725
16	0x3e0b5cb5	0.13609584
17	0x3e1497da	0.14511052
18	0xbc465186	-0.012104398
19	0xbc6d88b3	-0.014497924
20	0x3cbf5f0f	0.023360757
21	0x3d727b68	0.05919972
22	0x3d6def4d	0.058089543
23	0xbc1cb053	-0.009563523
24	0xbc849fa4	-0.016189404
25	0xbe57460c	-0.21022815
26	0x3d22dae8	0.039759547
27	0x3dcda80c	0.10041818
28	0x3e17f623	0.14839987
29	0xbd44eb0a	-0.048075713
30	0xbe36ef30	-0.1786468
31	0x3d8610cf	0.06546175
32	0xbdc0866f	-0.09400641
33	0x3d8faa11	0.070148595
34	0xbd397c21	-0.045284394
35	0x3e02cfc6	0.12774572
36	0xbd647842	-0.05577875
37	0x3d59ddd0	0.053190053
38	0x3d3958b8	0.045250624
39	0xbb262948	-0.0025354195
40	0xbc44eb19	-0.012018942
41	0x3d481a31	0.048853103
42	0x3d55caa5	0.05219521
43	0x3dd3d0e0	0.10342574
44	0x3d505422	0.050861485
45	0x3dbac467	0.09119492
46	0x3bfb2e12	0.007665404
47	0x3cbe2774	0.023212172
48	0xbdde4b99	-0.10854263
49	0x3d5fc46a	0.054630674
50	0x3d2f3831	0.042778198
51	0x3d92e9bc	0.071734875
52	0xbdf186c4	-0.11793283
53	0x3ddc583b	0.10759016
54	0x3e4d0186	0.20020112
55	0x3d15e181	0.03659201
56	0x3e015d8b	0.1263334
57	0xbd9ead74	-0.07747927
58	0x3e47e019	0.1951908
59	0x3db53af6	0.088491365
60	0xbcad333a	-0.02114259
61	0xbe2a5a8a	-0.166361
62	0x3cf3cf20	0.02976185
63	0x3e0f0a40	0.13968754
64	0x3d1483ef	0.036258634
65	0xbd7bcad7	-0.06147274
66	0x3d86245c	0.06549904
67	0xbd8717c4	-0.0659633
68	0xbe0a778f	-0.1352217
69	0x3d386e91	0.04502732
70	0x3c2ed3ab	0.010670583
71	0xbe6aea5a	-0.2294096
72	0xbe09eb7f	-0.13468741
73	0x3dac8e9c	0.08425638
74	0xbe1b58e1	-0.15170623
75	0x3d84c481	0.06482793
76	0xbd76fd1e	-0.060299985
77	0x3d05c7b6	0.032661162
78	0x3e3c8423	0.18409781
79	0x3e1573fe	0.14595029
80	0x3d7963d2	0.06088621
81	0xbcdf368e	-0.027247693
82	0x3df94c76	0.12172787
83	0xbcecf14f	-0.028923659
84	0x3d5c5da1	0.05380023
85	0x3c50c16f	0.012741431
86	0xbe1a300f	-0.15057395
87	0x3db63971	0.08897675
88	0xbd041301	-0.032244686
89	0x3cdcaa96	0.02693681
90	0xbd10be2b	-0.03533761
91	0xbb6cfbad	-0.0036160753
92	0xbd87eea7	-0.06637316
93	0xbcd6242c	-0.026140295
94	0xbdac1097	-0.08401602
95	0xbe597486	-0.21235856
96	0x3dbe2aa9	0.092854805
97	0xbe0b322f	-0.13593362
98	0xbe2901e9	-0.16504635
99	0xbcfbad13	-0.030722177
100	0x3dcc34cc	0.09971008
101	0xbd8abd4b	-0.06774386
102	0x3d918c30	0.07106817
103	0xbdc07801	-0.09397889
104	0x3e071d7b	0.1319484
105	0x3ddbfded	0.10741792
106	0x3b9e69fb	0.004834411
107	0x3dd54079	0.10412688
108	0x3d949909	0.07255752
109	0x3df7a6fd	0.12092397
110	0xbcc202f8	-0.023683056
111	0x3da63f39	0.081175275
112	0x3e09ecfb	0.13469307
113	0x3d008a4f	0.0313819
114	0xbd5e8936	-0.054330073
115	0xbdc0a0a2	-0.09405638
116	0xbd4ff801	-0.050773624
117	0xbe4df81f	-0.20114182
118	0x3d0169f0	0.03159517
119	0xbd106ba3	-0.0352589
120	0x3d1accaa	0.03779284
121	0x3e13d929	0.14438309
122	0xbe24ffe2	-0.16113237
123	0xbc9e1a12	-0.01929954
124	0x3d88741f	0.06662773
125	0xbdc76092	-0.09735216
126	0xbdb94412	-0.090461865
127	0x3d014eaa	0.03156916
128	0xbd7c7d5b	-0.061642986
129	0xbd31c5e0	-0.0434016
130	0xbd1c2740	-0.03812337
131	0x3d7d55e5	0.061849494
132	0x3d292413	0.04129417
133	0x3e4d0924	0.20023018
134	0x3e4e70aa	0.20160165
135	0xbe45b525	-0.19307382
136	0xbe439cdf	-0.1910281
137	0x3e3a3c1f	0.18186997
138	0x3e30f036	0.17279133
139	0x3d313284	0.043261066
140	0x3e1347fc	0.14382929
141	0xbd39207c	-0.045196995
142	0x3d1d63e9	0.03842536
143	0x3e085423	0.13313346
144	0xbd52dc6c	-0.051479742
145	0xbe1ff13c	-0.15619367
146	0x3cd76dca	0.026297469
147	0x3dbbc606	0.09168629
148	0x3da95570	0.08268249
149	0xbd4437d4	-0.047904804
150	0xbcc124bb	-0.023577085
151	0x3db00313	0.08594336
152	0xbe52a9f3	-0.20572643
153	0xbdc83d8f	-0.09777366
154	0xbdbcd47e	-0.09220217
155	0x3d0bbc73	0.034115266
156	0x3d99ec0d	0.07515726
157	0x3c9db636	0.019251924
158	0x3cc376bf	0.023860333
159	0x3df7d6ba	0.12101503
160	0x3d8b28f3	0.0679492
161	0x3e252c41	0.16130163
162	0xbd8fbcee	-0.07018457
163	0x3d6cb957	0.05779394
164	0xbdd43f08	-0.10363585
165	0xbd99bf56	-0.075071976
166	0x3d100306	0.035159133
167	0x3ce36280	0.02775693
168	0xbdac33cf	-0.08408319
169	0xbbab2555	-0.005222956
170	0xbd760325	-0.060061593
171	0x3b409fd5	0.0029392142
172	0x3d834cd9	0.06411142
173	0x3e0d11df	0.13776349
174	0x3c24cc25	0.0100584375
175	0x3bb29b88	0.0054506697
176	0xbe5ca876	-0.21548638
177	0xbd8c7c88	-0.0685969
178	0x3d82b0df	0.06381392
179	0x3e0e2c88	0.13884175
180	0x3cc00369	0.023439126
181	0x3bb287ad	0.0054483027
182	0xbe5015b9	-0.20320787
183	0xbddbb2e0	-0.10727477
184	0xbd9fa200	-0.07794571
185	0x3e109790	0.14120317
186	0x3e08df4e	0.13366434
187	0x3b47361e	0.0030397247
188	0xbd1d04d6	-0.03833469
189	0xbc267f25	-0.01016215
190	0x3d915d80	0.07097912
191	0xbd163851	-0.0366748
192	0x3dffc217	0.124881916
193	0x3cee9974	0.029125907
194	0x3d6880c9	0.056763444
195	0xbd3ceb80	-0.046123028
196	0x3d55f577	0.052236047
197	0x3de57404	0.11203769
198	0xbdfa5c12	-0.12224592
199	0x3d5c5581	0.05379248
200	0x3da662f9	0.08124346
201	0xbc58b918	-0.013227724
202	0x3e19ab49	0.15006746
203	0x3d596d97	0.05308303
204	0x3d3d32ec	0.04619114
205	0x3e196042	0.14978126
206	0x3d5cdf4c	0.05392389
207	0x3de252a6	0.1105092
208	0x3d422d40	0.047406435
209	0x3d92908e	0.07156478
210	0x3cece341	0.028916957
211	0x3e2d7100	0.16937637
212	0xbdba06cb	-0.09083327
213	0xbe1b9caa	-0.15196481
214	0xbd930321	-0.07178331
215	0x3e1f0779	0.15530194
216	0xbdee3b80	-0.116324425
217	0x3c8d7ebd	0.017272348
218	0xbd9edd75	-0.07757083
219	0x3e80085f	0.25006387
220	0xbd532ec1	-0.05155826
221	0xbbf8a905	-0.007588508
222	0x3c440a7e	0.011965392
223	0xbdc66a83	-0.09688284
224	0xbd8d6bb3	-0.069053076
225	0x3cee77e1	0.029109897
226	0xbd976520	-0.07392335
227	0x3d6fb801	0.05852509
228	0xbd971236	-0.0737652
229	0x3c546a73	0.012964833
230	0xbd79559a	-0.06087265
231	0x3da8edae	0.08248459
232	0xbdb2fcc3	-0.08739617
233	0xbcbad085	-0.022804508
234	0x3dd8a85e	0.105789885
235	0x3cc42576	0.023943644
236	0xbdd09e6c	-0.101864666
237	0xbcef1e09	-0.029189127
238	0x3d1d3fde	0.038390987
239	0x3dfc433a	0.1231751
240	0xbdb9dca4	-0.09075287
241	0xbd839e62	-0.064266935
242	0x3d144bfa	0.03620527
243	0x3d1dabc9	0.038493905
244	0x3d35addf	0.04435527
245	0xbc8783c6	-0.016542327
246	0x3b6001a1	0.0034180658
247	0x3dc32279	0.095280595
248	0x3d96568e	0.07340728
249	0xbd3853dc	-0.04500185
250	0x3d96af41	0.07357646
251	0xbe0fa5d6	-0.14028105
252	0xbe342549	-0.17592348
253	0xbd19672b	-0.037451904
254	0x3dc37ac1	0.09544898
255	0x3d90f1ba	0.07077356

model.cnn_input_1.3.bias f4 [8]
0	0xbdc43bd0	-0.09581721
1	0xbca799cc	-0.020459078
2	0x3d9407d0	0.072280526
3	0x3d3c7c4a	0.04601697
4	0x3e66ef47	0.22552215
5	0x3ce8632d	0.028367603
6	0x3e06cd8f	0.13164352
7	0x3caf7770	0.021419257

model.cnn_input_2.0.weight f4 [8]
0	0x3f867e80	1.0507355
1	0x3f80fa36	1.0076358
2	0x3f82166b	1.0163091
3	0x3f82c4dd	1.0216328
4	0x3f73a2b8	0.95170164
5	0x3f758f3d	0.9592169
6	0x3f7370f8	0.9509425
7	0x3f7facf4	0.9987328

model.cnn_input_2.0.bias f4 [8]
0	0x3c1538d7	0.00910779
1	0x3c4ce52b	0.01250581
2	0xbd4a2dc6	-0.04936006
3	0xbb0f9f54	-0.0021915035
4	0xbbbbe709	-0.0057343286
5	0x3c5eb907	0.013593919
6	0x3c1c6cc9	0.009547421
7	0xbd0a03e9	-0.033695135

model.cnn_input_2.0.running_mean f4 [8]
0	0x3e58c19c	0.21167606
1	0x3e8b938a	0.27261
2	0x3ea58ed0	0.3233552
3	0x3e88ff98	0.26757503
4	0x3f0748bf	0.52845377
5	0x3ea01e0c	0.31272924
6	0x3e72dfea	0.23718229
7	0x3e9bcb44	0.30428517

model.cnn_input_2.0.running_var f4 [8]
0	0x3e46c868	0.19412386
1	0x3e96ac39	0.2942827
2	0x3c814e55	0.015784422
3	0x3e7c2740	0.24624348
4	0x3ccc76eb	0.024959048
5	0x3df00e68	0.11721498
6	0x3e24fea6	0.16112766
7	0x3de380a0	0.11108518

model.cnn_input_2.1.weight f4 [16, 8, 5]
0	0x3e2206a7	0.1582285
1	0x3d9c2229	0.07623703
2	0x3d9a32ac	0.07529196
3	0x3dafc4ff	0.08582496
4	0x3d873845	0.066025294
5	0xbdfb264d	-0.12263165
6	0xbd29c267	-0.041445162
7	0xbd662b35	-0.05619355
8	0xbc446799	-0.01198759
9	0x3c4c0e4e	0.012454582
10	0x3d298ee5	0.04139604
11	0x3e082737	0.1329621
12	0x3ce47456	0.027887505
13	0x3dce6318	0.100774944
14	0xbd58d8ea	-0.05294124
15	0xbcb24d98	-0.021765515
16	0x3e1bb9f1	0.1520765
17	0x3dd98ec4	0.106229335
18	0x3e1d0d7e	0.15337178
19	0x3db71cd9	0.08941049
20	0x3e374059	0.1789564
21	0xbe09c5b8	-0.1345433
22	0xbdd603d3	-0.10449948
23	0x3e0a8789	0.13528265
24	0xbc1ea00f	-0.009681716
25	0x3adf6208	0.0017042765
26	0x3dedaabc	0.116048306
27	0x3decd89f	0.11564755
28	0xbd1f1c7d	-0.038845528
29	0x3def87cf	0.11695825
30	0xbc3b76a2	-0.0114418585
31	0xbd408f59	-0.047011707
32	0x3e10bb5d	0.14133973
33	0x3e0aac3f	0.13542269
34	0x3c5131bc	0.012768205
35	0x3d841332	0.06448974
36	0xbdf10ca2	-0.11769988
37	0x3d9bcda5	0.07607583
38	0x3dcd5938	0.10026783
39	0x3d22d7f8	0.039756745
40	0x3c8af9be	0.01696479
41	0xbe05f9d7	-0.13083588
42	0x3dd78e17	0.10525148
43	0x3e1c0287	0.15235339
44	0x3b5e7dde	0.0033949534
45	0xbc8c729e	-0.017144497
46	0x3dd5345d	0.10410378
47	0x3e1cfc30	0.15330577
48	0xbc0c0009	-0.00854493
49	0xbd638e8b	-0.05555586
50	0xbdcbdec1	-0.09954596
51	0xbd4f77b6	-0.050651275
52	0x3d1e8429	0.038700256
53	0xbdc10d5e	-0.09426378
54	0xbd3bfb95	-0.045894224
55	0xbd5db02a	-0.05412308
56	0xbd27f15d	-0.041001666
57	0xbd1ba69a	-0.03800068
58	0x3e060b61	0.13090278
59	0x3c862128	0.016373232
60	0x3c6ebc91	0.014571325
61	0x3e1d9f48	0.15392792
62	0x3b965bb8	0.0045885704
63	0xbd85ee6d	-0.06539617
64	0xbdc6bbfd	-0.09703825
65	0x3dc87660	0.09788203
66	0xbd1d5528	-0.03841129
67	0x3dbaee67	0.09127503
68	0x3d5fbe26	0.0546247
69	0x3d6a1949	0.05715302
70	0x3d98ec59	0.07466955
71	0xbcd97340	-0.026544213
72	0xbdb67691	-0.089093335
73	0xbe00fc35	-0.1259621
74	0xbdc62fc4	-0.09677079
75	0x3da3181f	0.07963585
76	0xbd25e4ee	-0.040501527
77	0xbd090fb4	-0.03346224
78	0xbdcfdc8c	-0.10149488
79	0xbcecd0fa	-0.028908242
80	0x3db86c5c	0.09005043
81	0xbdeb791e	-0.11497711
82	0xbe51e11e	-0.20496032
83	0xbd95d479	-0.073159166
84	0xbdb6e475	-0.089302935
85	0xbe1b8e75	-0.15191062
86	0x3d8c65ec	0.068553776
87	0xbd9402ca	-0.072270945
88	0xbdbd5a2e	-0.09245716
89	0x3dc56332	0.09638061
90	0xbe1af270	-0.15131545
91	0xbde06cb7	-0.10958236
92	0x3d0137db	0.03154741
93	0xbd1c1abb	-0.03811143
94	0x3d975629	0.073894806
95	0xbd0dd708	-0.034628898
96	0xbe400634	-0.18752366
97	0x3c7e0c8c	0.015505921
98	0x3befa186	0.0073129563
99	0xbe2fbfea	-0.17163053
100	0x3e286c4b	0.1644756
101	0xbdacc7cc	-0.08436546
102	0xbe096218	-0.13416326
103	0xbe0b1afb	-0.13584511
104	0xbd36283d	-0.044471968
105	0xbddf3ae8	-0.10899907
106	0xbe1b4ed8	-0.15166795
107	0xbcf48898	-0.02985029
108	0xbd9775a1	-0.07395483
109	0x3e2fcbbf	0.17167567
110	0xbc4ec66e	-0.0126205515
111	0xbd3e73a7	-0.046497013
112	0xbe055a54	-0.13022739
113	0x3dd82aba	0.105550244
114	0xbc6ada43	-0.014334264
115	0x3ba08921	0.0048991595
116	0xbc050d4f	-0.008120849
117	0x3e01d513	0.12678938
118	0xbd8d0f5d	-0.06887696
119	0xbd42a71c	-0.04752265
120	0xbd307d4e	-0.04308825
121	0x3dad680e	0.084671125
122	0x3df5d07a	0.120026544
123	0xbd70e86e	-0.058815412
124	0x3dceeb8f	0.10103523
125	0xbca0ff6a	-0.01965304
126	0x3c9c97de	0.019115385
127	0xbe3290d9	-0.17438067
128	0x3bf5bd8b	0.007499402
129	0x3e0158d3	0.1263154
130	0x3d9130c5	0.0708938
131	0xbdbf4b21	-0.093405016
132	0x3da684f1	0.08130825
133	0xbe0c74e1	-0.13716461
134	0xbdf722a8	-0.12067157
135	0x3d3d866a	0.046270765
136	0x3c482c30	0.012217566
137	0x3b57ab68	0.0032908563
138	0xb9a08526	-0.0003061678
139	0xbd9a9e26	-0.07549696
140	0xbd9895d0	-0.074504495
141	0xbd365d96	-0.044522844
142	0x3cdf5797	0.027263446
143	0xbe3b9ca9	-0.1832148
144	0x3d93d782	0.07218839
145	0xbb51dca3	-0.003202238
146	0x3d8e07a8	0.06935054
147	0xbe1d0d36	-0.15337071
148	0x3d6e0bd7	0.05811676
149	0xbe282916	-0.16421923
150	0x3d0fb3bc	0.035083517
151	0x3dc5f7f4	0.09666434
152	0x3d086edf	0.03330886
153	0xbdcb99de	-0.09941457
154	0x3d5d7a11	0.05407149
155	0xbdd59f49	-0.10430772
156	0xbda5a2d4	-0.080876976
157	0x3dd81d0b	0.105524145
158	0xbe14a44c	-0.145158
159	0x3e2a4ac1	0.16630079
160	0xbdcb6054	-0.099304825
161	0x3d962089	0.07330424
162	0xbd34a6ef	-0.044104513
163	0xbd32b682	-0.043631084
164	0xbd56368a	-0.052298106
165	0xbc2e0ee5	-0.010623668
166	0x3d413285	0.04716732
167	0xbe4b1521	-0.19832279
168	0x3e0cb5bf	0.13741206
169	0x3e0c6d68	0.1371361
170	0xbddc05da	-0.107433036
171	0x3d8ccba0	0.06874776
172	0x3dabf163	0.0839565
173	0xba2a529f	-0.0006497297
174	0xbe2b224f	-0.16712306
175	0xbd3e0f27	-0.04640117
176	0xbdebf237	-0.11520808
177	0xbd6e12e4	-0.058123484
178	0xbe31d120	-0.17364931
179	0x3d9332ec	0.07187447
180	0xbd44d193	-0.048051428
181	0xbdad35c7	-0.08457523
182	0x3e33184c	0.17489737
183	0xbccd6c2e	-0.025075998
184	0xbcfd102f	-0.030891506
185	0xbd8505c5	-0.06495241
186	0xbdc81ef6	-0.0977153
187	0xbe130bbe	-0.14359948
188	0xbacf50a0	-0.0015816875
189	0xbd4fca18	-0.05072984
190	0x3e162dd1	0.14665915
191	0xbd94feff	-0.07275199
192	0x3dc07ce0	0.09398818
193	0xbc98914d	-0.018623972
194	0xbde4a898	-0.11164969
195	0x3dfd95c5	0.12382082
196	0xbd89540f	-0.06705486
197	0x3d812623	0.06306102
198	0x3e038d66	0.12846908
199	0xbd8ca691	-0.068677075
200	0xba6d9581	-0.00090631103
201	0xbdb5691d	-0.088579394
202	0xbd4edbd4	-0.050502613
203	0x3cf1eb92	0.029531274
204	0x3ddbc4d3	0.107309006
205	0x3d81d66d	0.063397266
206	0xbde5e930	-0.112261176
207	0x3dc46197	0.09588926
208	0xbc1d8bb7	-0.00961583
209	0xbde2a901	-0.11067391
210	0x3e2f48ec	0.17117661
211	0x3d5e6068	0.05429116
212	0xbd9af505	-0.07566265
213	0xbe1b77a7	-0.15182362
214	0x3c6ce873	0.014459717
215	0xbe131c86	-0.1436635
216	0x3d218eb7	0.039442744
217	0x3dee5154	0.11636606
218	0xbda8afe9	-0.08236677
219	0xbc6f343e	-0.014599858
220	0xbe1ef7c9	-0.1552421
221	0xbd99c59a	-0.07508393
222	0x3db60411	0.08887494
223	0xbd6c7b4a	-0.057734765
224	0xbd34b472	-0.0441174
225	0xbe022347	-0.1270877
226	0x3dd9d5c5	0.106364764
227	0x3dd16111	0.10223592
228	0x3c80246b	0.015642365
229	0xbdaf8c1c	-0.085716456
230	0xbe00e83b	-0.12588589
231	0xbd5144d4	-0.05109103
232	0x3e37ac3a	0.17936793
233	0x3e075fb6	0.13220105
234	0xbdcbf664	-0.09959105
235	0xbd9604ba	-0.0732512
236	0x3d67db27	0.056605484
237	0xbe21dd8f	-0.15807174
238	0xbd9fed4a	-0.07808931
239	0xbd214e37	-0.039381232
240	0x3b1af0a9	0.002364198
241	0x3e106c4c	0.14103812
242	0x3c7a6d1f	0.015284806
243	0xb9a47d5f	-0.00031373926
244	0xbd2c726d	-0.042101312
245	0xbcdad349	-0.026712077
246	0x3c8c24e3	0.017107433
247	0xbd88c33c	-0.06677863
248	0xbd9a9e6c	-0.07549748
249	0xbdb64a14	-0.08900848
250	0xbd3ae6d2	-0.045630284
251	0xbe074b5c	-0.13212341
252	0xbe1cb780	-0.15304375
253	0xbdca3cde	-0.09874891
254	0x3d80f1da	0.062961295
255	0x3d165df8	0.03671071

model.cnn_input_2.1.bias f4 [16]
0	0x3cb9bfb5	0.02267442
1	0x3d090caa	0.033459343
2	0x3e308371	0.17237641
3	0x3d498112	0.049195357
4	0x3de4d3b7	0.11173194
5	0xbde54f50	-0.11196768
6	0x3d9a9633	0.075481795
7	0x3e10336f	0.1408212
8	0x3e00c2b5	0.12574275
9	0x3e29e9fc	0.16593164
10	0x3b48eac3	0.0030657507
11	0x3d429072	0.047501035
12	0x3dca9853	0.09892335
13	0xbb7fffee	-0.0039062458
14	0xbc53af22	-0.012920173
15	0xbe3d55f0	-0.18489814

model.cnn_input_2.3.weight f4 [16, 16, 5]
0	0xbd485d30	-0.048916996
1	0x3d77f946	0.06054046
2	0xbd2027d9	-0.0391005
3	0x3da91f87	0.082579665
4	0xbbfafdd2	-0.0076596523
5	0xbdc046a4	-0.09388474
6	0x3d402475	0.046909768
7	0xbdcfea6a	-0.10152133
8	0xbd299b9e	-0.041408174
9	0x3d508dca	0.05091647
10	0x3cff78b6	0.03118549
11	0x3c857b85	0.01629425
12	0xbd5de34d	-0.05417185
13	0x3dd453db	0.10367557
14	0x3d6030fa	0.054734208
15	0x3e218cba	0.15776339
16	0x3dbe22e8	0.092840016
17	0x3db3e15c	0.08783218
18	0x3dd81e01	0.10552598
19	0xbcc3a7fe	-0.023883816
20	0x3bdea1dd	0.006794198
21	0xbd3c29cb	-0.045938294
22	0x3d10f185	0.03538658
23	0x3d02b7ab	0.03191344
24	0xbd211ddc	-0.039335117
25	0xbd80e7f8	-0.062942445
26	0x3d2c054f	0.04199725
27	0x3d232b61	0.03983629
28	0x3b60be56	0.0034293137
29	0xbd8cd318	-0.068762004
30	0xbd1f3ca6	-0.0388762
31	0x3d976b93	0.07393565
32	0x3dab199f	0.08354496
33	0x3d365969	0.044518862
34	0xbd2df5a0	-0.042470574
35	0xbb89e6ca	-0.0042084204
36	0xbcd36c92	-0.025808606
37	0x3db9d73b	0.09074255
38	0x3bde9ab4	0.0067933444
39	0xbd40d9bd	-0.04708265
40	0xbd894077	-0.06701749
41	0xbda934ef	-0.082620494
42	0x3d15435f	0.036441203
43	0x3c775f78	0.015098445
44	0x3dc28b79	0.094992585
45	0xbb920d5f	-0.0044571604
46	0x3d2cade1	0.04215801
47	0x3a05be72	0.0005101926
48	0xbde90293	-0.11377444
49	0xbc4e977f	-0.012609362
50	0xbdcad66b	-0.09904178
51	0xbd853444	-0.065041095
52	0x3d8fc634	0.07020226
53	0xbd085ca7	-0.033291485
54	0x3c22ad8c	0.009929072
55	0x3dd3320f	0.10312282
56	0x3db777ab	0.08958372
57	0xbd750475	-0.059818704
58	0x3dd493b0	0.10379732
59	0xbbfec750	-0.0077752247
60	0x3d8fcb2d	0.070211746
61	0xbd9017fa	-0.07035823
62	0xbdeaef6c	-0.11471447
63	0x3bf80c8d	0.0075698555
64	0x3dd88b83	0.10573485
65	0xbd498583	-0.049199592
66	0x3dbc7b1c	0.09203169
67	0xbdb9e875	-0.09077541
68	0xbd1931e2	-0.037401088
69	0x3d650d53	0.05592091
70	0xbd2a2890	-0.04154259
71	0xbdaef6c4	-0.085431606
72	0x3da6137a	0.081091836
73	0xbdc8a7bf	-0.0979762
74	0xbd980139	-0.07422108
75	0x3d968cdd	0.07351086
76	0x3cba90cb	0.02277412
77	0xbc57d6af	-0.013173743
78	0x3d5b9e5e	0.053617828
79	0x3dfddcf8	0.12395662
80	0x3d355df1	0.044279043
81	0xbdf87d6b	-0.121332966
82	0x3da7c62b	0.081920944
83	0x3d29b243	0.04142977
84	0xbd6dfeab	-0.0581042
85	0xbd0cc13f	-0.03436398
86	0xbd775e7f	-0.060392853
87	0xbd8e4d52	-0.069483414
88	0x3cc1163b	0.02357017
89	0x3d803b93	0.06261363
90	0xbc966be1	-0.018361988
91	0xbd893b05	-0.0670071
92	0x3d0a27b6	0.033729278
93	0x3a3b1e1b	0.000713797
94	0xbd907b46	-0.070547625
95	0x3d6e6993	0.058206152
96	0x3dbf438c	0.093390554
97	0xbda605b6	-0.08106558
98	0xbcd0e41a	-0.025499392
99	0x3cebed07	0.028799547
100	0xbc629fe5	-0.013832067
101	0xbd560c9a	-0.05225811
102	0x3cc5ec19	0.024160432
103	0xbcef7fbb	-0.029235711
104	0x3cfb152b	0.030649742
105	0xbd6ab652	-0.05730278
106	0x3df97ccb	0.121820055
107	0xbd016326	-0.031588696
108	0xbdde9f62	-0.108702436
109	0x3df14f3b	0.1178269
110	0x3c94c376	0.01815961
111	0xbcec9d98	-0.02888374
112	0x3dae1cb4	0.085015684
113	0xbcd9ae1c	-0.02657228
114	0xbcc3b440	-0.02388966
115	0xbd399efb	-0.04531763
116	0x3db363a7	0.087592416
117	0x3e0d8528	0.13820326
118	0xbd8397d1	-0.06425441
119	0xbd22509d	-0.03962766
120	0xbe06d1ab	-0.1316592
121	0xbd694ed7	-0.056959953
122	0xbdcd2e97	-0.10018652
123	0x3d62c99e	0.05536806
124	0xbc70e2ad	-0.014702481
125	0x3c526382	0.012841107
126	0xbcd63c61	-0.026151838
127	0x3d2236f6	0.039603196
128	0xbcb57011	-0.022148164
129	0x3da61e27	0.0811122
130	0x3bd7f028	0.006589908
131	0xbc99edb4	-0.018790103
132	0x3d7cddd9	0.061735008
133	0xbd5fe335	-0.05466004
134	0xbde5fc9b	-0.11229821
135	0xbe0106be	-0.12600228
136	0xbdce955b	-0.10087081
137	0xb9ce1e3f	-0.00039313917
138	0x3d6b8e3d	0.057508696
139	0xbcec199b	-0.028820803
140	0xbe23c246	-0.15992078
141	0xbda967b1	-0.08271731
142	0xbdbd7b4c	-0.09252033
143	0xbd1e31a5	-0.038621563
144	0xbda78808	-0.08180243
145	0xbd8f1d43	-0.06988003
146	0xbd53c766	-0.051703833
147	0x3d6e0b8f	0.058116492
148	0x3d40f6cb	0.04711036
149	0xbd48f016	-0.04905709
150	0x3db2b740	0.087263584
151	0x3d975ee2	0.07391144
152	0x3daf2b23	0.085531496
153	0xbd8fd8ed	-0.07023797
154	0xbc3dabcc	-0.011576604
155	0x3d6b0770	0.05738014
156	0xbdfb4a86	-0.122700736
157	0xbdb46fad	-0.08810363
158	0x3b4ce73f	0.0031265763
159	0x3d7b1696	0.061300837
160	0xbd8bc6f6	-0.06825058
161	0x3d91b71c	0.071150035
162	0x3d6952db	0.056963783
163	0xbde7a9f2	-0.11311711
164	0xbcb229bb	-0.021748414
165	0x3d1a10e1	0.037613753
166	0x3d844895	0.064591564
167	0xbc1cea81	-0.009577394
168	0x3db879c0	0.09007597
169	0x3cf860e3	0.030319637
170	0xbd3b08a2	-0.04566253
171	0x3d3d1523	0.046162736
172	0xbe0284e4	-0.12746006
173	0x3baf9df5	0.005359406
174	0x3ce1476d	0.027499879
175	0x3ba41dbf	0.005008429
176	0xbb618576	-0.0034411824
177	0x3d318a9d	0.043345083
178	0x3dc11923	0.094286226
179	0x3d6085cc	0.0548151
180	0x3d159c8f	0.03652626
181	0x3bf525f8	0.007481333
182	0x3d9e1d8c	0.07720479
183	0x3e2524e4	0.16127354
184	0xbd8b0d62	-0.06789662
185	0x3dcccaa5	0.09999589
186	0xbd34fed2	-0.044188328
187	0x3da8236d	0.08209882
188	0xbd55e549	-0.052220616
189	0x3d1a5e23	0.037687432
190	0x3c26374c	0.01014502
191	0x3d8f3530	0.069925666
192	0x3d86ffd8	0.06591767
193	0x3df573c3	0.119849704
194	0x3da91b61	0.08257175
195	0xbd2f1688	-0.042746097
196	0xbc722a46	-0.014780587
197	0xbc81ee2a	-0.015860636
198	0x3e168632	0.14699629
199	0x3d39fa23	0.045404565
200	0xbc124252	-0.008926945
201	0xbce23fcd	-0.027618313
202	0x3db09146	0.08621459
203	0x3d3dbecc	0.046324536
204	0xbd680ad5	-0.056650955
205	0xbdcf387b	-0.10118195
206	0xbd7028d7	-0.058632698
207	0x3d1d93a4	0.03847088
208	0xbd3b6e7f	-0.045759674
209	0x3d7dce98	0.0619646
210	0xbdf14ce6	-0.11782245
211	0xbc2b925e	-0.010471908
212	0xbdad34de	-0.08457349
213	0x3d243209	0.04008678
214	0xbd09338f	-0.033496436
215	0x3cc3d12b	0.02390345
216	0x3cb7c9e7	0.022435142
217	0xbd98f51b	-0.07468625
218	0xbd2680bb	-0.04065011
219	0x3d914bc0	0.07094526
220	0xbe197e43	-0.14989571
221	0x3dc021d8	0.09381455
222	0x3d50f547	0.051015165
223	0xbaeb2a3d	-0.0017941665
224	0x3d47043a	0.048588015
225	0x3ac79f89	0.001523004
226	0x3dab8cf7	0.08376496
227	0xbd631f77	-0.05544993
228	0xbcf7ffda	-0.030273367
229	0x3d323e2f	0.043516334
230	0xbdae24de	-0.085031256
231	0x3cdedf74	0.02720616
232	0x3d345742	0.044028528
233	0x3d0cf4b5	0.03441306
234	0x3d6142d3	0.05499537
235	0xbd0232e2	-0.031786807
236	0xbd26dd47	-0.04073837
237	0x3a95a1b7	0.0011415993
238	0x3da560ba	0.0807509
239	0xbcfdb10e	-0.030968215
240	0x3c6a45b2	0.014298843
241	0xbc79b1b0	-0.015240118
242	0xbd1d3764	-0.038382903
243	0xbd7deedd	-0.061995376
244	0xbde23741	-0.11045695
245	0xbd833122	-0.06405856
246	0xbc927c7c	-0.017881624
247	0xbcae8a58	-0.021306202
248	0xbbc3fce0	-0.005981073
249	0x3c9dba1b	0.019253781
250	0xbd4b65fd	-0.04965781
251	0xbde81718	-0.1133253
252	0x3d7da3fb	0.061923962
253	0xbd7610b4	-0.060074523
254	0xbc827428	-0.015924528
255	0x3d14d9a0	0.036340356

model.cnn_input_2.3.bias f4 [16]
0	0x3e0ce265	0.13758238
1	0x3d6c7d57	0.05773672
2	0x3d0d837b	0.034549218
3	0x3d03a868	0.032143027
4	0xbad83053	-0.0016493894
5	0x3dc165c7	0.094432406
6	0x3ce2076a	0.027591426
7	0x3d9d37d5	0.07676665
8	0xbc9f28c7	-0.019428624
9	0xbbad2dd1	-0.0052850028
10	0x3da75a0d	0.08171473
11	0xbd95059b	-0.0727646
12	0x3dfc08dc	0.12306377
13	0x3d43cad2	0.047800846
14	0x3da69fb7	0.08135932
15	0x3d2d923d	0.04237579

model.cnn_input_3.0.weight f4 [16]
0	0x3f814480	1.009903
1	0x3f7d9bcc	0.9906585
2	0x3f83c27e	1.0293729
3	0x3f843995	1.0330073
4	0x3f8227cd	1.0168396
5	0x3f7de2a7	0.9917397
6	0x3f80f04d	1.0073334
7	0x3f807692	1.0036185
8	0x3f7af726	0.9803337
9	0x3f7c72b1	0.98612505
10	0x3f76415f	0.961935
11	0x3f7f2a57	0.9967398
12	0x3f81ff34	1.0156007
13	0x3f7d7de8	0.9902024
14	0x3f7a5465	0.97785026
15	0x3f7f98e4	0.9984267

model.cnn_input_3.0.bias f4 [16]
0	0x3b49f957	0.0030818784
1	0x3ce7a7e2	0.028278295
2	0xbbfa7bc7	-0.00764415
3	0x3b9f0ad5	0.004853586
4	0xbb67895e	-0.003532968
5	0xbd0988b6	-0.033577643
6	0xbcf60579	-0.030031906
7	0xbc884573	-0.016634678
8	0x3c032010	0.00800325
9	0xbcb4ac26	-0.022054743
10	0x3c5bb581	0.013409973
11	0x3aba3129	0.0014205325
12	0xbc81b719	-0.015834378
13	0x3b999b4b	0.004687702
14	0xbaf44c05	-0.0018638378
15	0x3c0a5f1e	0.008445529

model.cnn_input_3.0.running_mean f4 [16]
0	0x3ea9bc84	0.33151639
1	0x3d9d1976	0.07670872
2	0x3ea701e9	0.32618645
3	0x3cbee34c	0.023301743
4	0x3d3b8f51	0.045790974
5	0x3e5a72a2	0.21332791
6	0x3e5e2a6d	0.21695872
7	0x3e59079f	0.21194313
8	0x3d88c821	0.066787966
9	0x3ea117ce	0.31463474
10	0x3dc6445b	0.096810065
11	0x3d944777	0.07240193
12	0x3ef38c6a	0.47568065
13	0x3dc8fa52	0.0981337
14	0x3e2e4f52	0.17022446
15	0x3db709dc	0.089374274

model.cnn_input_3.0.running_var f4 [16]
0	0x3c5ba3af	0.013405724
1	0x3ca8dcad	0.020613039
2	0x3df1b0fe	0.11801337
3	0x3ba3e4f3	0.005001658
4	0x3c1e509d	0.009662774
5	0x3e344a76	0.1760653
6	0x3d4d8896	0.050179087
7	0x3c90c306	0.01767112
8	0x3cf7c4a7	0.030245138
9	0x3dc25959	0.09489698
10	0x3cdee8c5	0.027210603
11	0x3d2baa4d	0.04191046
12	0x3dde0f85	0.10842804
13	0x3d37b76f	0.04485267
14	0x3c67b88c	0.0141431205
15	0x3ca046d2	0.01956502

model.cnn_input_3.1.weight f4 [32, 16, 5]
0	0x3bbddfab	0.0057944856
1	0xbd403c85	-0.046932716
2	0xbd89a75c	-0.067213744
3	0xbcd571b6	-0.026055198
4	0x3df3d3d0	0.119056344
5	0xbda57869	-0.08079607
6	0xbda685eb	-0.081310116
7	0x3d6c2d9d	0.057660688
8	0xbd18d0aa	-0.037308373
9	0x3d88946e	0.06668936
10	0xbde9588e	-0.113938436
11	0x3d86bc49	0.06578881
12	0xbc6affb7	-0.014343194
13	0x3d53ba7f	0.05169153
14	0xbd488b16	-0.048960768
15	0xbd890cc9	-0.06691892
16	0x3d8cda67	0.068775944
17	0x3db76d88	0.08956438
18	0xbd308d86	-0.043103717
19	0xbd8d7dbf	-0.0690875
20	0x3ca51fbe	0.020156737
21	0xbcf80bed	-0.030279124
22	0x3de2b1a9	0.11069042
23	0x3d89399c	0.06700441
24	0xbd58903f	-0.05287194
25	0xbcc072ea	-0.023492295
26	0x3d967c2f	0.07347905
27	0xbdfb86b6	-0.122815534
28	0x3ca905b3	0.0206326
29	0x3d2df03a	0.042465426
30	0xbdc28997	-0.094988994
31	0xbdb0f276	-0.08639996
32	0xbe02a9e4	-0.1276012
33	0x3dead744	0.1146684
34	0x3d9bb600	0.07603073
35	0xbe1aba03	-0.1511002
36	0xbc5a406b	-0.0133210225
37	0xbb9dcbb0	-0.004815541
38	0x3d81b829	0.06333954
39	0xbd0d0412	-0.03442771
40	0x3dc262a5	0.09491471
41	0x3dcc83a5	0.09986047
42	0x3daa7d0f	0.08324634
43	0xbc95eeca	-0.01830234
44	0xbd211dd2	-0.03933508
45	0xbc84a7d9	-0.016193317
46	0xbcfee7d4	-0.031116404
47	0x3b0b5b36	0.0021264083
48	0x3d7db829	0.061943207
49	0x3c95f560	0.01830548
50	0xbdc4d3db	-0.09610721
51	0xbd6894b6	-0.056782447
52	0x3db1bd72	0.08678712
53	0x3da9fa12	0.0829965
54	0xbd414be9	-0.047191534
55	0x3db9a9cc	0.09065589
56	0x3de2dba6	0.11077051
57	0xbde9045a	-0.11377783
58	0x3d8c50d6	0.06851356
59	0xbdc7e049	-0.09759576
60	0xbcb349e4	-0.02188582
61	0xbd33c24d	-0.04388647
62	0xbc8ca4c9	-0.01716842
63	0xbd6f5b33	-0.058436584
64	0xbe034e84	-0.1282292
65	0xbd82123f	-0.063511364
66	0x3cf8629d	0.03032046
67	0x3d526313	0.051364016
68	0x3d3d5881	0.046226982
69	0x3d881d29	0.06646187
70	0xbd51c40b	-0.05121235
71	0xbd23665e	-0.039892547
72	0xbd74705c	-0.059677467
73	0x3db884d9	0.09009714
74	0x3c6a5f60	0.014304966
75	0xbc84aedf	-0.016196666
76	0x3d85040c	0.064949125
77	0x3db715d9	0.08939714
78	0x3cebda2c	0.028790556
79	0x3da6eb2a	0.08150323
80	0x3cdfed03	0.027334696
81	0xbd6f45df	-0.058416244
82	0xbde0f99d	-0.1098511
83	0xbde53f3f	-0.11193704
84	0xbdc6228b	-0.09674557
85	0xbd974f75	-0.07388202
86	0x3dc1d85e	0.09465097
87	0x3d841926	0.06450109
88	0xbde2094d	-0.1103693
89	0x3ce10b05	0.027471075
90	0xbd193264	-0.037401572
91	0x3d02f37e	0.031970493
92	0x3d13f220	0.03611958
93	0x3bd7ee8d	0.0065897168
94	0xbd697585	-0.05699684
95	0x3d8e0d49	0.06936128
96	0xbd3c1e16	-0.04592713
97	0xbd7c4a34	-0.061594203
98	0xbd648ca3	-0.055798184
99	0x3d9d5693	0.07682528
100	0xbd459056	-0.048233353
101	0x3d9b7372	0.07590379
102	0x3d2cc2aa	0.042177834
103	0xbd9c24f8	-0.07624239
104	0x3d4223bf	0.04739737
105	0xbce29d0c	-0.027662776
106	0x3da49f54	0.08038202
107	0xbd53d8cd	-0.05172043
108	0x3d8edc00	0.069755554
109	0xbc9d13aa	-0.019174416
110	0xbd657280	-0.0560174
111	0x3dbfa6bd	0.09357975
112	0xbcb16e66	-0.021659087
113	0x3cc4c5c9	0.024020093
114	0xbd7f4c35	-0.062328536
115	0xbba2ffa6	-0.0049743233
116	0xbc9f673b	-0.019458404
117	0x3d8b3ba7	0.06798487
118	0xbd5887b8	-0.052863806
119	0xbd0eec66	-0.034893416
120	0xbde0bbc1	-0.10973311
121	0xbd5b5ded	-0.05355637
122	0xbd4de2ab	-0.050264996
123	0xbddf3340	-0.10898447
124	0x3d4c15b4	0.049825385
125	0x3d811ab8	0.06303924
126	0x3dc59299	0.09647102
127	0x3daf0cc4	0.08547357
128	0xbd8d39ef	-0.068958156
129	0x3d5504b2	0.05200643
130	0x3cbfe374	0.023423888
131	0xbd4752f3	-0.04866309
132	0xbcb75e3f	-0.022383807
133	0x3d843d25	0.06456975
134	0x3d8b69c0	0.068072796
135	0xbdf6380a	-0.12022407
136	0x3d4dac3f	0.050213095
137	0x3b6ec898	0.003643548
138	0x3db777be	0.08958386
139	0xbd8fde03	-0.07024767
140	0x3d7d38cd	0.061821748
141	0x3da034f9	0.07822604
142	0xbd3d0692	-0.046148844
143	0x3d4273c2	0.047473677
144	0x3c1c27b3	0.009530949
145	0x3d37b7b9	0.044852946
146	0x3d93de13	0.07220092
147	0xbd865619	-0.065593906
148	0x3d8300f2	0.06396665
149	0xbd9ac44a	-0.075569704
150	0x3df63c04	0.12023166
151	0x3d96933c	0.073523015
152	0x3d392e35	0.045210082
153	0xbdab55a5	-0.08365945
154	0xbdd81e25	-0.105526246
155	0xbd7e94b7	-0.062153544
156	0xbc9c9442	-0.019113664
157	0xba7494dc	-0.0009330043
158	0x3c1e2b42	0.009653868
159	0x3d917202	0.071018234
160	0xbc4d0528	-0.012513436
161	0x3caa7d06	0.020811569
162	0xbbd8c968	-0.0066158064
163	0x3daeb07f	0.08529758
164	0x3d9677f5	0.07347099
165	0x3de9c5f7	0.11414712
166	0x3cfdf1d6	0.030999105
167	0x3cb0fd28	0.02160509
168	0x3ca55baf	0.02018532
169	0xbdd032a9	-0.10165913
170	0x3dff7391	0.124732144
171	0xbbb6a958	-0.0055743866
172	0xbe0c12aa	-0.13678995
173	0xbbb5a1e1	-0.005542979
174	0x3d503036	0.050827228
175	0xbc8826f1	-0.016620131
176	0xbd7436f2	-0.059622712
177	0xbd3f13bf	-0.04664969
178	0xbd65222c	-0.055940792
179	0xbdb71aa5	-0.08940629
180	0xbd9c626c	-0.0763596
181	0x3df205e2	0.11817528
182	0x3d925185	0.07144455
183	0x3cb08fe2	0.021552984
184	0xbe01d7f3	-0.12680034
185	0xbdc3a4ae	-0.095528945
186	0xbc732407	-0.014840133
187	0x3ddc3322	0.1075194
188	0x3d78b620	0.060720563
189	0xbd6c0566	-0.057622336
190	0x3daf4759	0.0855853
191	0xbbd73e75	-0.0065687248
192	0xbd62b867	-0.05535164
193	0xbdc01fdc	-0.09381077
194	0xbda30200	-0.07959366
195	0x3d5a4002	0.0532837
196	0x3dafb2d9	0.08579034
197	0xbd8d9519	-0.06913204
198	0x3ace6b3a	0.0015748509
199	0xbd1d6e18	-0.03843507
200	0x3cb255b0	0.021769375
201	0xbda54752	-0.08070244
202	0x3cf46733	0.029834365
203	0x3ddda1f4	0.10821906
204	0xbbc625bf	-0.00604698
205	0x3d2f82f2	0.04284949
206	0xbdc2a9e9	-0.09505064
207	0x3d86c23b	0.06580015
208	0x3d83cc05	0.06435398
209	0xbd165d87	-0.03671029
210	0xbca60e0f	-0.020270376
211	0xbdaa8d62	-0.08327748
212	0xbe11dba5	-0.14243944
213	0xbd538119	-0.05163679
214	0x3b84457e	0.0040366044
215	0xbdc29fb3	-0.095031165
216	0x3d724734	0.059149936
217	0x3c546228	0.012962855
218	0xbce854f1	-0.028360816
219	0x3df7f661	0.1210754
220	0xbca10956	-0.019657772
221	0x3d27a356	0.040927254
222	0x3bc8066e	0.006104282
223	0x3ca21c7c	0.019788973
224	0xbbd7eaca	-0.0065892683
225	0x3caf4bbf	0.021398423
226	0xbdcf6b21	-0.10127855
227	0x3d31f771	0.04344887
228	0xbd8d27ba	-0.06892343
229	0x3da351fd	0.079746224
230	0x3b28b467	0.0025742294
231	0x3c575997	0.0131439185
232	0x3d96dc02	0.07366182
233	0xbd9cb21d	-0.0765116
234	0x3df24c6e	0.11830984
235	0xbc68b8e1	-0.014204235
236	0xbd9e6110	-0.07733357
237	0xbd3c79ee	-0.04601472
238	0xbd0beddc	-0.034162387
239	0xbd5693c0	-0.052387
240	0x3d010cc9	0.031506334
241	0x3d6c5be2	0.057704814
242	0x3df5b8e4	0.11998156
243	0x3dd188d2	0.102311745
244	0xbd4a86ed	-0.04944508
245	0x3d7d3b14	0.06182392
246	0xbd416622	-0.047216542
247	0xbaad061e	-0.0013200676
248	0xbe0b9fc0	-0.13635159
249	0xbd639f93	-0.055572104
250	0x3d306b28	0.043070942
251	0xbd09e8f0	-0.033669412
252	0x3ddbad32	0.10726394
253	0x3d93466a	0.07191165
254	0x3dd82ec8	0.10555798
255	0x3dd3df88	0.103453696

model.cnn_input_3.1.bias f4 [32]
0	0x3d939a2d	0.07207141
1	0xbde9330b	-0.11386689
2	0x3d7b1f0f	0.061308917
3	0x3d64e1b7	0.05587932
4	0xbc235a68	-0.009970285
5	0x3da16ff2	0.0788268
6	0xbd500bd9	-0.05079255
7	0x3d0d3697	0.03447589
8	0xbb2b83ef	-0.0026171168
9	0xbdd9376c	-0.10606274
10	0xbde655b1	-0.11246813
11	0xbd2868d6	-0.041115604
12	0x3c686947	0.014185256
13	0xbdc65a33	-0.09685173
14	0x3e14b753	0.14523058
15	0x3d77780f	0.06041723
16	0x3d28d798	0.04122123
17	0xbdfa82a6	-0.122319505
18	0xbd4987c3	-0.049201738
19	0xbbafd803	-0.005366327
20	0x3d72fe9b	0.059324842
21	0xbdab0d42	-0.08352138
22	0xbd2798d9	-0.04091725
23	0xbdbab19d	-0.09115908
24	0x3d18667a	0.037207104
25	0x3e0b6188	0.13611424
26	0xbdb6c77a	-0.08924766
27	0x3cc859b7	0.024456842
28	0xbbb4c504	-0.00551665
29	0xbc4d00bb	-0.012512381
30	0xbd25f227	-0.040514138
31	0x3dc79a27	0.09746199

model.cnn_input_3.3.weight f4 [32, 32, 5]
0	0x3c331dc4	0.01093239
1	0xbcf715b3	-0.030161714
2	0x3b0f18cb	0.0021834846
3	0xbcf6116a	-0.0300376
4	0x3d845263	0.064610265
5	0xbd03c298	-0.032168
6	0xbd4faa8c	-0.050699756
7	0xbc352291	-0.011055605
8	0xbd6d9b22	-0.058009274
9	0x3d9626d5	0.07331625
10	0x3c280d0a	0.010257015
11	0x3afdf199	0.001937437
12	0xbd75a96c	-0.059976026
13	0xbcdb9b39	-0.026807414
14	0x3d7d8ad0	0.06189996
15	0xbdeab7fc	-0.114608735
16	0xbc1b69b5	-0.009485652
17	0xbbd104a4	-0.006378727
18	0xbd1a5b86	-0.03768494
19	0x3cb827ea	0.02247997
20	0xbbd75d8d	-0.0065724314
21	0xbdbe3799	-0.09287948
22	0xbc99ac3d	-0.018758887
23	0xbd6c5e71	-0.057707254
24	0x3d36ffd3	0.044677567
25	0x3db55319	0.0885374
26	0x3d7a3a62	0.061090834
27	0xbd75ef7e	-0.06004285
28	0xbd668276	-0.05627676
29	0xbc076946	-0.008264845
30	0x3cab364c	0.020899914
31	0xbc333efa	-0.010940308
32	0xbd29effa	-0.041488625
33	0xbdd9a7e6	-0.10627727
34	0xbd4c4a46	-0.04987552
35	0x3d013a23	0.031549584
36	0xbcf12871	-0.02943823
37	0xbcb720da	-0.022354532
38	0x3c8965a9	0.016772108
39	0x3a939e3e	0.001126237
40	0x3cf27d5a	0.029600788
41	0xbcf3e69b	-0.029773047
42	0x3d8312b4	0.06400052
43	0xbba306cd	-0.004975176
44	0x3ddbedae	0.10738693
45	0x3ceca761	0.028888406
46	0xbdac7305	-0.08420376
47	0xbdab813a	-0.083742574
48	0x3bd1d321	0.0064033424
49	0x3d5b46a6	0.053534172
50	0x3be35eae	0.006938777
51	0xbd6a3183	-0.057176124
52	0xba5e1c29	-0.0008472824
53	0xbd8ff821	-0.07029749
54	0xbc50c4d1	-0.012742237
55	0x3d3a0dda	0.045423366
56	0x3cd8df19	0.026473569
57	0xbddd8549	-0.10816438
58	0xbd931132	-0.07181014
59	0xbd0f358d	-0.03496318
60	0x3c147360	0.009060711
61	0xbb1066c5	-0.0022033912
62	0x3ce9443b	0.028474918
63	0x3d4b881e	0.04969036
64	0x3cf41834	0.029796697
65	0x3d39d29d	0.045366872
66	0xbc197cf0	-0.009368166
67	0xbd6b4bba	-0.057445265
68	0xbd932d67	-0.07186394
69	0xbda66529	-0.081247635
70	0x3da9d2c6	0.08292155
71	0xbd228ed3	-0.03968699
72	0x3d88a69d	0.06672404
73	0x3d969920	0.07353425
74	0x3d89bad4	0.06725088
75	0x3d9c2823	0.07624843
76	0xbd1b436e	-0.037906103
77	0x3cb98bb6	0.022649627
78	0x3d9e73cc	0.0773693
79	0xbacbb3a5	-0.0015541209
80	0xbd34911f	-0.04408371
81	0x3de8f58e	0.11374961
82	0x3d359c00	0.044338226
83	0x3c11c587	0.008897192
84	0xbc95a897	-0.018268866
85	0x3ced5cb8	0.028974876
86	0xbd11a889	-0.03556112
87	0xbda85dda	-0.08221026
88	0x3d2144b7	0.039372172
89	0x3c9e8df6	0.019354802
90	0xbd29a7ff	-0.04141998
91	0x3c548203	0.01297045
92	0xbda0e8b7	-0.07856887
93	0xbcca10d6	-0.024666231
94	0xbcb07197	-0.021538539
95	0xbdb15dab	-0.08660444
96	0xbc86b1a6	-0.016442131
97	0xbbe7cb47	-0.007073793
98	0x3d1035a9	0.035207424
99	0x3cae4f54	0.021278061
100	0x3d50ca73	0.05097432
101	0xbc73de42	-0.014884533
102	0xbc941241	-0.01807511
103	0xbd03fbfe	-0.03222274
104	0xbcc06b27	-0.023488594
105	0x3dbe91d6	0.0930516
106	0x3cf3005f	0.029663263
107	0x3cac4754	0.021030106
108	0xbbf98891	-0.007615157
109	0xbdb1430b	-0.086553656
110	0xbc01e638	-0.007928424
111	0xbc95a9d8	-0.018269464
112	0x3d8039ca	0.062610224
113	0x3d74f5f8	0.059804887
114	0xbd819e0a	-0.06328972
115	0x3d7c692f	0.06162375
116	0x3d9bdf7a	0.07610984
117	0x3d865395	0.06558911
118	0x3d3a3a19	0.045465562
119	0x3cff2371	0.03114483
120	0x3cec902b	0.028877338
121	0xbd656f59	-0.056014393
122	0x3d87c774	0.066298395
123	0xbd4ead30	-0.050458133
124	0x3c5d1b3a	0.013495261
125	0xbca8d1ee	-0.020607915
126	0xbbd00ee0	-0.0063494295
127	0xbd093cd3	-0.033505272
128	0x3dae927a	0.08524032
129	0x3da9ad42	0.082849994
130	0xbcacfb05	-0.02111579
131	0xbb572203	-0.003282667
132	0x3d8904f4	0.06690398
133	0xbd9221c0	-0.071353436
134	0x3d005b55	0.0313371
135	0x3d7d9dad	0.06191795
136	0x3d4de5fe	0.050268166
137	0xb9c2d359	-0.0003716003
138	0x3d2f7268	0.042833716
139	0xbd118aee	-0.035532884
140	0x3daed5e5	0.08536891
141	0x3cbdda67	0.023175431
142	0xbd0b28aa	-0.033974327
143	0x3d8c6559	0.06855268
144	0xbd82de7a	-0.0639009
145	0xbc9c1957	-0.019055052
146	0xbcd614f7	-0.026133044
147	0xbcea47e3	-0.028598731
148	0xbd611858	-0.054954857
149	0x3d24be06	0.040220283
150	0x3d45c915	0.04828747
151	0x3d9351cf	0.07193338
152	0x3c3793f1	0.011204706
153	0xbd11f205	-0.0356312
154	0xbcd2b0fd	-0.02571916
155	0xbcd53fde	-0.02603143
156	0xbbc4b521	-0.0060030376
157	0x3d483541	0.048878912
158	0xbcbd5044	-0.023109563
159	0xbcb5670e	-0.022143867
160	0x3d70b1aa	0.058763184
161	0x3d3e968c	0.04653029
162	0x3d45ff9f	0.048339482
163	0xbddba1b7	-0.10724204
164	0xbd2ce1d9	-0.042207573
165	0xbadbff8e	-0.0016784535
166	0xbb0c9bd6	-0.002145519
167	0xbc30d810	-0.010793701
168	0xbc751a9a	-0.014959956
169	0x3daccb85	0.08437256
170	0xbca84a38	-0.020543203
171	0x3c96d57d	0.018412346
172	0x3d7c6320	0.06161797
173	0x3db4af1d	0.08822463
174	0x3ce336ec	0.02773615
175	0x3d9130ae	0.07089363
176	0xbccad148	-0.024757996
177	0xbd386a3a	-0.04502318
178	0xbd48ff89	-0.049071822
179	0x3d23989a	0.039940454
180	0xbd8005e9	-0.06251127
181	0x3c9b47f9	0.018955218
182	0xbd64369f	-0.055716153
183	0xbc938fd9	-0.018012928
184	0x3cdbc5d0	0.026827723
185	0x3d293a87	0.04131558
186	0xbcdbe983	-0.026844746
187	0xbd630f34	-0.05543442
188	0xbd41c222	-0.04730428
189	0x3dcc9cbd	0.09990833
190	0x3d6824d9	0.056675766
191	0xbda301c7	-0.079593234
192	0x3d93a165	0.07208518
193	0x3d9b8dae	0.07595383
194	0x3db683e8	0.08911878
195	0xbcb8b6cf	-0.022548107
196	0x3d0bd549	0.03413895
197	0xbc6f13d1	-0.014592127
198	0xbd93997b	-0.072070085
199	0xbc6e2962	-0.014536234
200	0x3d5b65d6	0.053563915
201	0xbd3744ef	-0.044743475
202	0xbc6cec28	-0.014460601
203	0xbb8755c9	-0.0041300994
204	0x3d7ed69f	0.062216397
205	0x3dae9b3b	0.085257016
206	0xbd9cb206	-0.07651143
207	0xbdc0e57e	-0.09418772
208	0x3d43a22f	0.047762092
209	0xbd1451f7	-0.03621098
210	0xbd4f37f4	-0.05059047
211	0x3cca6d4a	0.024710316
212	0x3ccc51b9	0.024941312
213	0x369d30c5	4.684642e-06
214	0x3d2c3551	0.042043034
215	0x3c828656	0.015933197
216	0x3d7e83d8	0.062137455
217	0xbc9f46db	-0.019442966
218	0xbbf8c32a	-0.0075916247
219	0x3ca3a8d6	0.019977968
220	0xbc37d6f9	-0.011220687
221	0x3cbc453c	0.022982232
222	0xbcbb4224	-0.022858687
223	0x3d1939cb	0.03740863
224	0x3d6239eb	0.055231016
225	0xbc4cfa81	-0.012510897
226	0xbd4cff95	-0.05004843
227	0xbdaee4d5	-0.0853974
228	0xbbbd862c	-0.005783817
229	0x3db7e9d2	0.089801446
230	0x3dc14f66	0.09438972
231	0x3dabc789	0.08387668
232	0x3da773f7	0.081764154
233	0x3da1d2df	0.079015486
234	0xbd100606	-0.035161994
235	0x3d82bf73	0.06384172
236	0x3a9cec69	0.0011972311
237	0xbc5cd91f	-0.0134795
238	0x3ca7a382	0.020463709
239	0xbc51a3e7	-0.012795425
240	0x3abfbb78	0.0014628014
241	0x3da55cb8	0.08074325
242	0x3d361013	0.044448923
243	0x3d6abeb4	0.057310775
244	0xbd4c00cc	-0.049805447
245	0xbd412263	-0.047151934
246	0x3d84a251	0.06476272
247	0xbc50c2cc	-0.012741756
248	0xbcf24af2	-0.029576752
249	0xbca6fe96	-0.020385068
250	0xbc1a1bd7	-0.009406052
251	0xbd3a1d0f	-0.04543787
252	0xbd9fa9bc	-0.07796046
253	0x3d3945b8	0.045232505
254	0x3d82a70f	0.0637952
255	0x3bdd37ac	0.0067510214

model.cnn_input_3.3.bias f4 [32]
0	0x3dd06822	0.10176112
1	0x3d61586c	0.055015966
2	0x3bd38e07	0.00645614
3	0xbd4a8bf1	-0.049449865
4	0x3d21569c	0.039389238
5	0xbcc74d36	-0.02432881
6	0xbd04b847	-0.032402303
7	0xbd42abba	-0.047527052
8	0x3afd57b4	0.0019328506
9	0xbc060213	-0.0081792055
10	0x3d14f865	0.0363697
11	0xbab72bfb	-0.0013974899
12	0x3da5677c	0.08076379
13	0x39ea1179	0.00044644976
14	0x3dadb083	0.084809326
15	0xbd94a61a	-0.07258244
16	0xbdca881f	-0.09889244
17	0x3c7f4184	0.015579585
18	0xbd10a73d	-0.03531574
19	0xbc77f204	-0.015133385
20	0xbbbca646	-0.005757126
21	0xbcf7b334	-0.030236818
22	0x3d238521	0.039921883
23	0xbc391929	-0.011297503
24	0xbd08c509	-0.033391032
25	0xbdd408fa	-0.10353275
26	0x3c2755f4	0.010213364
27	0x3db5d87b	0.08879181
28	0x3c68b188	0.014202483
29	0x3d6a16b6	0.057150565
30	0xbd0f5763	-0.034995448
31	0xbdb5189a	-0.08842583

model.upconv_2.0.weight f4 [32, 16, 6]
0	0x3db1b0ad	0.08676276
1	0x3cba6ba7	0.02275641
2	0x3d1f1f2e	0.038848095
3	0x3c8cd07e	0.01718926
4	0x3d775220	0.060381055
5	0x3d350207	0.044191387
6	0x3c3ed1df	0.011646717
7	0x3e126b61	0.14298774
8	0xbd587af1	-0.05285162
9	0x3d4b8868	0.049690634
10	0x3b4bff1c	0.0031127399
11	0xbd09b1be	-0.033616774
12	0xbd156360	-0.036471725
13	0xbdf0d330	-0.11759031
14	0xbdff9c6a	-0.124810055
15	0x3d92e11c	0.071718425
16	0xbc7892e4	-0.01517174
17	0xbdb91f01	-0.09039117
18	0x3c77a8f3	0.015115964
19	0x3b019810	0.0019774474
20	0xbceadee7	-0.028670741
21	0x3dac6d7e	0.084193215
22	0x3d0b58df	0.0340203
23	0xbcc0abaa	-0.023519356
24	0xbd697c9f	-0.057003614
25	0xbd480e59	-0.048841808
26	0xbdd05e0d	-0.10174189
27	0x3d9b78c0	0.075913906
28	0x3d4ad5df	0.04952037
29	0xbd4b8f31	-0.049697105
30	0xba91e6dd	-0.0011131425
31	0xbd276ec8	-0.040877134
32	0xbca79acd	-0.020459557
33	0x3d0e857d	0.034795273
34	0xbdd5def4	-0.104429156
35	0x3df10167	0.117678456
36	0xbd2d9759	-0.042380664
37	0x3db25c37	0.08708995
38	0x3c65dea2	0.014030131
39	0x3d34d796	0.04415091
40	0xbdc873df	-0.09787726
41	0xbd2e69cd	-0.04258137
42	0xbdf162aa	-0.11786397
43	0x3d393553	0.04521687
44	0xbce37cb5	-0.027769426
45	0x3d88f2a6	0.066869065
46	0xbdd5a71e	-0.10432266
47	0xbd50a7f9	-0.05094144
48	0x3cb3f87a	0.021969069
49	0x3df913da	0.121619895
50	0x3db6214f	0.08893072
51	0x3d20eed5	0.039290268
52	0x3ddd61b2	0.108096495
53	0x3d672f98	0.056441873
54	0xbd77a193	-0.060456824
55	0xbd971805	-0.07377628
56	0x3d23c890	0.039986193
57	0x3df0badc	0.117543906
58	0xbd883f42	-0.066526905
59	0x3deaa83b	0.11457869
60	0xbd26c17d	-0.04071187
61	0xbd1f7e9d	-0.038939107
62	0x3dbec9e3	0.093158506
63	0xbd5240ea	-0.051331438
64	0xbd15093d	-0.036385763
65	0x3d3b2dc4	0.045697942
66	0xbd1d13f6	-0.038349114
67	0xbda3c30b	-0.07996186
68	0xbda4a6d9	-0.08039636
69	0x3c110f18	0.008853696
70	0xbdec5746	-0.115400836
71	0x3d2ee3d4	0.042697743
72	0x3d44a413	0.048008036
73	0xbcef580f	-0.029216794
74	0xbc3c5f2f	-0.011497303
75	0x3c495cce	0.012290193
76	0x3caff800	0.02148056
77	0x3df4b749	0.11949021
78	0xbd74bc72	-0.059750028
79	0xbd200199	-0.039064024
80	0xbc6705b9	-0.0141004855
81	0x3c2f8182	0.010712029
82	0xbc9c3f00	-0.01907301
83	0x3d83499c	0.06410524
84	0xbdabcc0f	-0.083885305
85	0xbbb58e63	-0.0055406555
86	0xbc88df70	-0.016708106
87	0xbd2d8826	-0.04236617
88	0xbd68b10e	-0.056809478
89	0x3cc09692	0.023509298
90	0x3ddf4c4c	0.10903224
91	0x3d2d08f6	0.042244874
92	0xbcb24379	-0.02176069
93	0x3c563246	0.01307351
94	0xbcb2f245	-0.021844039
95	0x3da9d8a4	0.08293274
96	0xbc55c87e	-0.013048289
97	0x3d586d08	0.052838355
98	0x3d8193b4	0.06327
99	0x3da9a873	0.08284082
100	0x3dbd0dcd	0.09231148
101	0x3d977684	0.07395652
102	0xbd05e486	-0.03268864
103	0x3e0447ef	0.12918065
104	0x3bb6d6d1	0.0055798073
105	0x3d9a9a68	0.07548982
106	0xbc97e599	-0.018542098
107	0xbcd46148	-0.025925294
108	0xbce8b76a	-0.028407771
109	0xbd2217b4	-0.039573386
110	0x3d0a844d	0.033817578
111	0x3c85a6cf	0.016314892
112	0xbcc6b698	-0.02425699
113	0x3dc6a8ce	0.09700166
114	0xbd8fc9b5	-0.070208944
115	0x3c821158	0.01587741
116	0x3e0f1933	0.13974456
117	0x3c555c11	0.013022439
118	0x3c995fa3	0.018722361
119	0x3d48d032	0.049026676
120	0x3d48dd46	0.049039148
121	0xbcc36b7f	-0.02385497
122	0xbd9ae2f3	-0.075628184
123	0x3d81563f	0.06315278
124	0x3c6a1617	0.014287493
125	0xbc40ac46	-0.011759823
126	0xbd998b1c	-0.07497236
127	0x3de2d259	0.11075277
128	0xbd015fd2	-0.031585522
129	0x3cf2ed1d	0.02965408
130	0xbc0b3b74	-0.008498061
131	0x3d285b55	0.041102726
132	0x3c95a365	0.01826639
133	0x3dca48f7	0.09877198
134	0x3ce83e60	0.028350055
135	0xbdadd05e	-0.084870085
136	0xbd92d410	-0.07169354
137	0xbd0b16b8	-0.033957213
138	0x3c5fa056	0.013649067
139	0x3d8b3deb	0.06798919
140	0xbd99243f	-0.074776165
141	0x3d3514b4	0.044209197
142	0xbc26bcdf	-0.010176866
143	0x3c1dcf77	0.009631983
144	0xbccf5ac2	-0.025311831
145	0x3dc77d44	0.097406894
146	0x3ca82f7b	0.020530453
147	0x3ca4562f	0.020060627
148	0x3de864d2	0.11347355
149	0x3c0e264a	0.008676121
150	0xbc1fdbb3	-0.00975697
151	0x3c6dff5f	0.014526217
152	0x3df47b4e	0.11937581
153	0x3df337ba	0.118758634
154	0xbdc812a1	-0.09769178
155	0xbd94685f	-0.0724647
156	0x3def8495	0.1169521
157	0x3d71befb	0.059020024
158	0x3c32ea59	0.010920131
159	0x3cda824e	0.026673462
160	0x3dce2af6	0.10066788
161	0xbcfff9e5	-0.031247089
162	0x3c2d40e6	0.010574555
163	0xbd10cb8b	-0.035350364
164	0x3d2d38a0	0.04229033
165	0xbda93cf9	-0.08263583
166	0xbd7f13bd	-0.062274683
167	0x3d4d9fab	0.0502011
168	0xbd417426	-0.04722991
169	0x3dd10885	0.10206703
170	0x3d775d47	0.06039169
171	0x3d8e56de	0.06950162
172	0xbc341a27	-0.010992563
173	0x3d390b76	0.045176946
174	0x3de3014f	0.11084234
175	0xbe0bae14	-0.13640624
176	0xbd512387	-0.051059272
177	0xbb873f1e	-0.004127397
178	0xbd0f718f	-0.035020407
179	0x3d869440	0.06571245
180	0xbb697e77	-0.0035628357
181	0x3d812f53	0.063078545
182	0xbd9c1d1e	-0.07622741
183	0xbdf6e3b9	-0.120551534
184	0x3cfce6ef	0.030871836
185	0x3cb5b05d	0.022178823
186	0x3db2a4ad	0.08722816
187	0x3da4b927	0.080431275
188	0xbd342936	-0.043984614
189	0x3d0050c9	0.031327043
190	0xbc001012	-0.007816331
191	0x3bde72eb	0.0067886016
192	0xbd201a86	-0.039087795
193	0x3c843a94	0.016141213
194	0xbd7b6c09	-0.061382327
195	0x3ddc6456	0.10761325
196	0xbc6d51e0	-0.014484853
197	0xbdc823fa	-0.09772487
198	0x3bf82529	0.007572789
199	0x3d815111	0.0631429
200	0x3d9ec5d5	0.07752577
201	0x3d873db6	0.06603567
202	0x3d287cb4	0.04113455
203	0xbca739e5	-0.020413348
204	0xbd36dfed	-0.044647146
205	0x3c018418	0.007905029
206	0xbd0db3c5	-0.03459527
207	0x3d12d3f7	0.035846677
208	0x3d97293d	0.073809125
209	0x3dcc12fb	0.09964558
210	0xbb463d7c	-0.003024905
211	0xbd92c3b3	-0.07166233
212	0xbd5a484d	-0.053291608
213	0xbd02e694	-0.031958178
214	0xbd795ba7	-0.060878422
215	0x3dfe7376	0.12424366
216	0x3d2a365e	0.041555755
217	0x3da9f970	0.082995296
218	0x3c813599	0.015772628
219	0xbcdf2601	-0.027239801
220	0x3cea34c7	0.02858962
221	0xbe158583	-0.14601712
222	0xbd40a301	-0.047030453
223	0xbdbffe3f	-0.093746655
224	0x3cc1f531	0.023676487
225	0x3c8377a4	0.01604826
226	0xbb304c3f	-0.0026900915
227	0xbdb6f980	-0.08934307
228	0xbd84cfbd	-0.064849354
229	0x3d37bc35	0.044857223
230	0x3d537814	0.051628187
231	0x3c4ed12e	0.0126231145
232	0x3c33227a	0.010933513
233	0xbdb98c94	-0.09060016
234	0x3bd23bde	0.006415828
235	0xbd97c56e	-0.074107036
236	0x3d12248c	0.035679385
237	0xbcf7f409	-0.030267732
238	0x3db3d20f	0.087803
239	0x3dc00741	0.093763836
240	0xba715073	-0.0009205408
241	0x3dc463b2	0.09589328
242	0xbcfe0767	-0.03100939
243	0x3dabb704	0.08384517
244	0x3dad109b	0.08450433
245	0xbb25dd42	-0.0025308882
246	0x3d627d87	0.055295493
247	0xbd5d7ccc	-0.054074094
248	0xbd68c945	-0.05683257
249	0xbcb50101	-0.022095205
250	0x3e19ddf7	0.15026079
251	0x3d5165d6	0.05112251
252	0xbd71553b	-0.058919173
253	0xbc897901	-0.016781332
254	0x3da83026	0.082123086
255	0xbd3ed65b	-0.046591144

model.upconv_2.0.bias f4 [16]
0	0x3d9ae5ea	0.07563384
1	0x3b926a0f	0.0044682096
2	0x3db35f13	0.08758368
3	0xbc706f69	-0.014675
4	0xbd12e3fb	-0.03586195
5	0xbbdc56f2	-0.006724232
6	0xbcda4372	-0.026643489
7	0xbd812088	-0.06305033
8	0x3dc9c040	0.09851122
9	0x3d8132cf	0.06308519
10	0xbd8d3778	-0.068953454
11	0x3dc2b5b3	0.095073126
12	0xbd877002	-0.06613161
13	0xbd4930cf	-0.049118813
14	0xbc31884d	-0.010835719
15	0x3ca264d8	0.019823477
