models/SV_UNet_15s--epoch=6-val_loss=0.79-train_loss=0.87.ckpt (torch, 268153 bytes, 121 tensors)

model.cnn_input_1.0.weight f4 [3]
000000 dc 91 68 3f cf a4 65 3f 4e ab 8b 3f
       0.90847564 0.897046 1.0911653

model.cnn_input_1.0.bias f4 [3]
000000 8e 64 9f 3d 94 4f ab bd 62 16 b3 3d
       0.07782851 -0.08364788 0.087445036

model.cnn_input_1.0.running_mean f4 [3]
000000 e9 47 2d 41 8d 81 06 bf 23 4a cc 3c
       10.830056 -0.5254143 0.024937695

model.cnn_input_1.0.running_var f4 [3]
000000 c1 74 a7 41 b6 e5 3f 45 67 5d 0b 3c
       20.932009 3070.357 0.008506156

model.cnn_input_1.1.weight f4 [8, 3, 5]
000000 3f cf ae bd 87 b9 a3 3d 63 c3 10 3e 57 68 c0 bd
       -0.08535623 0.07994371 0.14137034 -0.09394901
000010 6d 65 d8 3d 09 04 7e 3b fe e1 1b be 95 b2 eb bc
       0.105662204 0.003875973 -0.15222928 -0.028771678
000020 0b d6 91 3d 8d 7b 2e 3e 3a 0c 6b be 49 7d 6a be
       0.071209036 0.17039318 -0.22953883 -0.22899355
000030 0a 3c 55 be e7 4d 01 bd 9d f8 e8 bd ab d6 38 3e
       -0.20823684 -0.031568434 -0.11375544 0.1805064
000040 d7 63 17 3e 8f 5e 9e 3d ab 57 3d bd 01 80 e0 3d
       0.1478418 0.07732879 -0.046226185 0.10961915
000050 37 b3 d0 bd d6 23 02 be 07 49 b8 3d 95 79 34 bc
       -0.101904325 -0.12708983 0.08998304 -0.011015316
000060 c9 68 a1 ba 15 91 53 3e 34 57 0d be 8b 26 27 3e
       -0.0012314554 0.20660813 -0.13802797 0.16323297
000070 4c 67 ba be 82 d2 84 3e 5f d5 15 3c 28 c1 b1 3a
       -0.36406934 0.25941855 0.00914511 0.0013561593
000080 2f 6b 35 3e d6 7b 68 3e 24 7f 0c 3e d3 b7 79 bd
       0.17716669 0.2270349 0.13720375 -0.060966324
000090 f8 95 19 3e c8 f6 0a be a5 a3 f0 3d 7a d5 aa 3d
       0.14998615 -0.13570702 0.11749963 0.08341499
0000a0 ed 5b 88 be 78 89 0a 3e 0e 74 92 be 9f d3 0e be
       -0.26632634 0.13529003 -0.28604168 -0.13947915
0000b0 a1 f7 cb 3d 09 7f 8d be f3 6a 32 be ce 3b 50 bd
       0.09959341 -0.27635983 -0.1742361 -0.050838284
0000c0 0a de f1 3d 50 38 05 3d 8d e0 e0 3b 1a 10 12 be
       0.11809929 0.032524407 0.006862706 -0.14263955
0000d0 55 7c a2 3c 32 24 10 3c f9 88 58 bd a4 6a 4b be
       0.019834677 0.008797692 -0.052865002 -0.19864899
0000e0 af 72 22 bb 49 be 90 be 0d 59 41 bc c4 28 bf bd
       -0.0024787595 -0.28270176 -0.0118010165 -0.09333947
0000f0 14 51 21 3e 16 f4 d6 3d f0 bd 89 be 9a 49 0b be
       0.15753585 0.104957744 -0.26902723 -0.13602296
000100 e3 2f 25 3e eb 69 82 bd 48 19 37 be 42 42 3e be
       0.16131549 -0.063678585 -0.17880738 -0.18579963
000110 57 0c b6 bd d6 0d b3 3d a7 24 47 3e 60 24 15 3e
       -0.088890724 0.08742873 0.19447576 0.14564657
000120 bb 8c 4b be 73 24 19 be 29 35 23 3c cd 22 65 bc
       -0.19877903 -0.1495531 0.009961405 -0.013985348
000130 96 46 63 3e b3 df c5 3d 1c 9d 47 3d 7e 14 09 bd
       0.22194895 0.09661808 0.048733816 -0.03346681
000140 1b 45 38 3e 22 6b e0 bd b0 f6 7b 3d 3d 69 20 3e
       0.17995112 -0.10957934 0.061514556 0.15665145
000150 9f 26 28 bb fb 17 63 be f2 01 6d bd 94 a8 04 bd
       -0.0025657786 -0.22177117 -0.057863183 -0.03238733
000160 2c 01 6f 3d d1 9f 4e be 4c c9 61 bd 72 2b ce 3d
       0.058350727 -0.20178153 -0.055123612 0.1006688
000170 e6 6a 97 bd 76 c2 a2 3c fa 96 31 3d 19 6b 80 3d
       -0.07393436 0.019868117 0.043356873 0.06270427
000180 bd f0 02 be c5 b3 07 bc e7 a1 4c bc 66 a7 2a 3e
       -0.12787147 -0.0082826065 -0.012489772 0.1666542
000190 80 1e 6f bc a6 ca 99 3e 76 69 97 be c2 24 83 3e
       -0.014594674 0.3003742 -0.29572648 0.2561398
0001a0 35 9f db b9 00 71 61 be 2c 3c 39 be eb a4 be 3d
       -0.00041889554 -0.22015762 -0.1808936 0.09308799
0001b0 23 f6 02 3e 08 42 f5 bc 37 b5 bc bd 43 49 2d bd
       0.12789206 -0.029938713 -0.092142515 -0.042306196
0001c0 e1 e9 c2 3d 50 71 e8 3b 27 c7 8b bd 04 7b 82 3e
       0.09517265 0.007093586 -0.06825095 0.25484478
0001d0 a1 6c 68 3e 29 0e 34 bd 43 53 31 3e 9c a1 11 3b
       0.22697689 -0.043958817 0.17316918 0.002222157

model.cnn_input_1.1.bias f4 [8]
000000 da 67 3a 3d 51 fc 87 3e cb 27 3b 3e 2a 11 a6 3d
       0.045509197 0.2655969 0.18276899 0.081087425
000010 b3 88 a5 bd 7a 28 09 bc 31 76 62 bb b7 5c 5c 3e
       -0.08082714 -0.008371467 -0.003455531 0.21519743

model.cnn_input_1.3.weight f4 [8, 8, 5]
000000 75 68 4d b8 e1 ae fd bd 10 a0 94 bd ce a5 98 bd
       -4.8973092e-05 -0.12386871 -0.07257092 -0.074535
000010 d0 da e1 3d 28 57 a5 3d 13 6c 8d 3d ab 89 c6 bd
       0.11028063 0.08073264 0.06905379 -0.09694227
000020 ea de 84 bd 26 79 cf 3a fe 0f 0c be 27 c4 90 3d
       -0.0648783 0.0015828952 -0.13677976 0.07068663
000030 53 c3 80 bd 7d 40 2e be 0e 30 fe 3d a9 83 84 3c
       -0.06287255 -0.17016788 0.124115095 0.016176062
000040 71 de ae 3d 88 aa ac bd ab 23 16 be 24 fb 51 bb
       0.08538521 -0.08430964 -0.14662044 -0.003204056
000050 64 83 69 bd 92 3c 41 bd b7 fb 34 3d f4 e2 ea bc
       -0.05701007 -0.047176905 0.044185366 -0.028672673
000060 a5 f7 15 3c 8e 14 e3 3d 43 26 7b bd 00 d1 0f bb
       0.009153281 0.11087905 -0.061315786 -0.0021944642
000070 26 2a 18 3e fe 81 88 3d 40 93 bb 3c 30 b1 a9 3d
       0.14859828 0.06665419 0.022897363 0.08285749
000080 07 33 4d 3e ac fa 78 bd f1 cc 3d 3d 4a 52 d1 bc
       0.20038997 -0.060785934 0.046338025 -0.025551934
000090 25 ff a1 3d f3 89 b0 3c b4 9f 4c 3e d8 3d 53 bd
       0.07909993 0.021550154 0.19982797 -0.05157265
0000a0 1e 67 6d bd cd 1e dd 3d e9 70 f4 3d d3 ae 02 3e
       -0.05795967 0.107968904 0.119355984 0.12762003
0000b0 c3 85 91 3d bc f3 6d 3d 4f 4f b7 bd 35 ed 9d bc
       0.07105591 0.05809377 -0.08950674 -0.019278148
0000c0 2b 25 41 3d 3c a8 ae 3d 56 78 41 bc ff 85 88 bd
       0.047154587 0.08528182 -0.0118084755 -0.06666183
0000d0 8c a8 4b bd 8a 58 ec bd aa ff 7c 3c a5 bf 30 3e
       -0.049721286 -0.11540325 0.015441814 0.17260607
0000e0 3b a3 bd 3b 50 61 d6 bd 6f 59 2b 3e 99 b2 31 3d
       0.005787281 -0.1046778 0.16733335 0.043383215
0000f0 5b 24 aa bc e6 c1 15 be 9d 07 41 bd 98 01 eb bc
       -0.020769289 -0.14624748 -0.0471264 -0.028687283
000100 56 df 8b bd c5 f5 ac bb 5c 09 2b 3e a4 8f 7d bd
       -0.06829707 -0.0052783214 0.16702789 -0.061904564
000110 29 fa a6 3d ea f5 b0 bb 28 cd 3f be 56 1c 3f be
       0.08153183 -0.005400409 -0.18730605 -0.18663153
000120 78 43 12 bc 74 35 1d be e6 b0 17 be 80 6f 80 bd
       -0.008927219 -0.15352422 -0.14813575 -0.06271267
000130 4e 25 fd bd f2 96 10 3d 35 20 0a be 70 14 03 be
       -0.12360631 0.035300203 -0.13488849 -0.12800765
000140 e0 15 6a bd c4 42 99 3d d5 05 2e 3d bb 8a 9c 3d
       -0.057149768 0.07483438 0.04248603 0.07643648
000150 e4 1a c0 3c 05 32 a2 bd 03 24 b6 bd 6d a2 41 3e
       0.023450322 -0.07919697 -0.088935874 0.18909617
000160 49 16 ce bd 2b 1a 1f 3e 5d 22 eb bd b9 34 83 bd
       -0.10062844 0.15537326 -0.11481164 -0.064065404
000170 cf 10 03 3e 52 a3 a7 bc 16 72 cc 3d b2 50 26 3d
       0.1279938 -0.02046362 0.09982698 0.0406043
000180 61 29 67 bd 25 ec ec 3b b0 c9 c8 bc 6f 9e b0 3d
       -0.056435946 0.007230299 -0.024510235 0.08623969
000190 65 6e bd 3d ea c7 0e 3e 88 e1 af bd dd a2 3b 3d
       0.09249572 0.13943449 -0.085879385 0.045809615
0001a0 99 95 93 3d 6e 67 fa bc f4 c2 c7 ba df dd f6 bd
       0.07206268 -0.030566897 -0.0015240596 -0.12054037
0001b0 42 7c f0 bc 63 ad 9a bd b3 c4 3d 3e a6 5f 8e 3c
       -0.029356126 -0.07552602 0.18532066 0.017379593
0001c0 c7 b3 1a 3e 64 8c 81 3d 78 4e dd bd e8 5f ca 3d
       0.15107642 0.063256055 -0.10805982 0.09881574
0001d0 61 bd 9e 3d 5c a8 43 3c 49 d6 c2 3d f8 f6 e8 3d
       0.07750965 0.0119419955 0.09513528 0.113752306
0001e0 4c 1d 22 be cd 90 bd bd 69 b2 d9 bd 67 4e b2 bc
       -0.15831488 -0.09256134 -0.10629732 -0.0217659
0001f0 33 60 88 bb 02 56 93 bc aa 9d 1a be a5 75 44 3e
       -0.0041618585 -0.017985348 -0.15099207 0.19185503
000200 73 a0 9f bd cc 61 78 bd 42 7c 6c 3d 03 bd 32 bd
       -0.07794275 -0.06064014 0.05773569 -0.043637287
000210 70 99 6a bd da 04 83 bd 4c f2 5a bc 26 6d a1 bd
       -0.057275236 -0.0639741 -0.013363432 -0.078821465
000220 6a d7 f9 bc b8 d4 57 3d d8 20 8e 3d 13 ad 00 be
       -0.030498225 0.0526931 0.06939858 -0.12566023
000230 1d 35 0a 3e b1 96 3c bd df 73 af bc 54 3d d0 3d
       0.13496824 -0.046042148 -0.021417556 0.101679474
000240 02 fc d7 bc c0 4c b1 bd 8b c3 22 3e 51 06 ce 3b
       -0.026365284 -0.08657217 0.15894906 0.006287374
000250 34 90 1b 3e 4f 1d c1 bd 63 f5 1d 3e 66 10 5a 3d
       0.15191728 -0.09429418 0.15425639 0.053238295
000260 81 32 2e 3d 08 30 4b 3d 33 34 cd 3d 52 2e 78 bc
       0.042528633 0.049606353 0.10019722 -0.015147762
000270 b8 d7 8d 3d 45 25 b9 bd cf a5 2b 3c ab bf 4c bd
       0.06925911 -0.09040312 0.010476544 -0.049987476
000280 a3 13 cb bd f7 0b 47 ba ca 8e 6c bc e1 a9 39 3d
       -0.09915855 -0.00075930305 -0.01443834 0.045328025
000290 60 df 13 bc 6b 11 33 be e7 7a 03 3e 84 0b 12 be
       -0.009025425 -0.17487113 0.12839852 -0.14262205
0002a0 74 61 72 bd fb 5a 6f be 75 36 03 3d 3c 3d 73 3d
       -0.05917497 -0.2337455 0.032034356 0.05938457
0002b0 27 c5 59 3d 47 94 9f bd d2 4f 31 3d 62 9a 0c 3e
       0.053166535 -0.077919535 0.043289013 0.13730767
0002c0 4e ba ff 3c 1e 66 c5 3d ee a3 5f bd 7d 54 0f 3d
       0.031216767 0.09638618 -0.054599695 0.034992684
0002d0 a6 5f 00 3d 7b 43 4d 3a a5 77 78 3d 5a ac df 3d
       0.031341217 0.0007830185 0.060660977 0.10921545
0002e0 9c 20 40 bd e8 70 3b 3e 1d de 95 3d ae 1d f3 3b
       -0.0469061 0.18304789 0.07317755 0.0074193096
0002f0 34 31 51 3d 3b 0e dd 3d 11 45 fd 3d 7b f6 5f bc
       0.051072314 0.1079373 0.12366689 -0.013669605
000300 ef 9e fc 3c 7f bc 43 be 44 51 2c 3d 89 8c 84 bd
       0.030837504 -0.19114874 0.04206969 -0.064721175
000310 fe 11 e9 bd 27 ab 63 3c 6b e5 b0 bc 29 a4 ba 3d
       -0.11380385 0.013895786 -0.02159377 0.09113342
000320 dd 7e b8 3c 33 82 98 3d fb 10 81 bd f7 51 1b be
       0.02252143 0.074467085 -0.06302067 -0.15167986
000330 dc ff 8e bd 74 33 85 3d 64 ab d6 3d b5 44 18 bd
       -0.06982395 0.065039545 0.10481909 -0.0371749
000340 7f c9 ab bd e2 5c e8 3c d2 b4 9b 3d 93 92 38 3e
       -0.08388042 0.028364602 0.07602848 0.18024664
000350 6f 98 21 3e 38 14 88 3d ed ea 85 3d 76 49 65 bd
       0.15780805 0.066444814 0.06538949 -0.05597826
000360 26 26 96 bd aa 94 7d 3d ab 69 b5 bd 12 97 41 bc
       -0.07331495 0.061909355 -0.08858045 -0.011815803
000370 24 5a 7f 3c 23 b9 8f bb 19 47 a5 3d 77 fe d5 3d
       0.015585456 -0.0043860837 0.080702014 0.10448926
000380 a9 a0 ce bd ed c2 8c bd 64 19 d3 3d fb c4 39 3e
       -0.10089237 -0.06873117 0.10307577 0.18141548
000390 57 2e 12 3d 74 95 48 3d e4 64 f2 3d cf 08 45 bd
       0.035688724 0.048970655 0.118356496 -0.048104104
0003a0 6b 68 8c 3c b2 a4 90 bd 7f c5 55 3d 6b 35 a6 bd
       0.017139634 -0.07062663 0.0521903 -0.081156574
0003b0 c3 e9 02 be 52 15 b1 bd 23 4a 31 be 14 81 44 3d
       -0.12784486 -0.08646645 -0.17313437 0.04797466
0003c0 a3 0c 11 bc e2 6e be bc 1f 9b 07 bd ec dc 9e bd
       -0.0088531105 -0.023246232 -0.03310692 -0.07756981
0003d0 5a f4 ec 3d 3a 17 31 3e fe aa dc bd 9e 1b e4 bb
       0.11570044 0.17294016 -0.10774802 -0.0069613
0003e0 e3 31 ac bd 42 5f 55 3b 2f 43 a4 3d f7 b6 85 bd
       -0.08407953 0.0032557999 0.08020627 -0.065290384
0003f0 34 b4 4a bd 7a e6 5a 3e da 6e 81 bd 5c b6 0a 3e
       -0.04948826 0.21376982 -0.063199714 0.13546127

model.cnn_input_1.3.bias f4 [8]
000000 f0 30 e9 3d 45 ea 2a 3e b0 dc e8 bc ce db 32 3e
       0.11386287 0.16690929 -0.028425545 0.17466661
000010 c4 f9 fd 3d 22 87 5f 3e 03 2e 10 bc 1a 47 a7 3d
       0.12401155 0.21828893 -0.008800033 0.081678584

model.cnn_input_2.0.weight f4 [8]
000000 fd 50 86 3f 5e 26 79 3f 39 9d 7f 3f c1 18 83 3f
       1.0493466 0.9732417 0.9984928 1.0241929
000010 1c 80 78 3f 62 f9 75 3f a0 fa 76 3f a8 32 87 3f
       0.9707048 0.9608365 0.96476173 1.0562334

model.cnn_input_2.0.bias f4 [8]
000000 d0 e8 48 3d c0 f8 fc bb 9d a9 35 bc b9 ca c3 3c
       0.049050152 -0.007720083 -0.011087802 0.023900377
000010 ba 6f 23 bd ad 23 88 3d 52 2a 11 bd 5f 10 42 3d
       -0.039901473 0.066474296 -0.03544075 0.047378894

model.cnn_input_2.0.running_mean f4 [8]
000000 81 df 8b 3e 16 52 31 3e d8 ee b7 3e 77 50 63 3e
       0.27318957 0.1731647 0.3592441 0.22198664
000010 48 3a 68 3e 2c a6 f7 3e c9 ba ca 3d 8b 8a 81 3e
       0.22678483 0.48368967 0.09898908 0.25301012

model.cnn_input_2.0.running_var f4 [8]
000000 0b 6e b4 3d 7c 0b 36 3c 24 f2 19 3e ab f8 84 3d
       0.088100515 0.0111111365 0.15033776 0.06492742
000010 74 5b 37 3d 3b a2 7b 3d 2f 03 cf 3c 14 30 1a 3e
       0.04476495 0.061434012 0.025270073 0.15057403

model.cnn_input_2.1.weight f4 [16, 8, 5]
000000 cf 2c de bd c8 18 9b 3d 53 d1 32 be cd bf 26 be
       -0.1084839 0.07573086 -0.17462663 -0.16284104
000010 bd 26 8d 3c 06 ff ea 3c 25 61 87 3d b1 76 16 3e
       0.017230386 0.028686058 0.06610326 0.14693715
000020 21 8f 59 bd 32 37 84 bd 21 24 91 bd f8 0a 9c 3d
       -0.053115014 -0.0645584 -0.07086969 0.076192796
000030 d5 bb e4 bd 4b 84 08 3d 0b 6b de 3d 53 fd 25 3e
       -0.111686386 0.03332929 0.108602606 0.16209917
000040 1d 78 d7 3d fd c6 97 bd 46 ed 6f bc 46 90 9f bb
       0.10520957 -0.07411001 -0.014643973 -0.0048694937
000050 6d 98 fc bc 05 18 ec 3d f9 88 87 3d 84 59 84 3d
       -0.030834401 0.11528019 0.06617922 0.06462386
000060 f9 87 08 3e f5 af 8c 3d a0 ec 18 3b 81 41 cb bd
       0.1333312 0.06869499 0.00233344 -0.09924603
000070 29 7d 7b 3d 01 68 27 bd d0 5d a9 3c 43 4b 17 bd
       0.06139866 -0.04087067 0.020674616 -0.03693701
000080 de e5 62 bd 75 3f b5 3d 05 62 c9 bd d2 fc 0e 3e
       -0.055395 0.08849994 -0.09833149 0.13963631
000090 bc 40 1d be ac 28 bd bd 93 bf 87 bb d1 d7 3e bd
       -0.15356725 -0.09236273 -0.0041427105 -0.046592537
0000a0 e8 11 06 3e fd 7a dc 3c f2 88 11 3e bb 4f a7 3d
       0.13092768 0.026914114 0.14212397 0.08169504
0000b0 66 e7 5d bd 50 06 a0 3d ab 06 0c be b6 26 ba bc
       -0.054175757 0.07813704 -0.13674419 -0.022723537
0000c0 1a 27 23 bc a2 b8 e4 bd 48 09 99 bd 94 0c 8b 3c
       -0.009958053 -0.111680284 -0.074724734 0.016973771
0000d0 18 26 64 bb f8 c0 1d be 56 c3 53 3d 6f 19 2c bd
       -0.0034812745 -0.15405643 0.05169996 -0.042016443
0000e0 6a 35 9a 3d 83 b0 21 3d 81 d9 ba 3d 4d b7 98 3d
       0.07529719 0.039474975 0.09123517 0.07456837
0000f0 36 09 a8 bd c8 8b 10 be 0b 3c 86 3d a2 87 8a 3d
       -0.08204882 -0.14115822 0.06554421 0.06764151
000100 8a bc 38 bd fc 6f 81 3d f4 5e 06 3d 66 24 60 3d
       -0.04510168 0.063201874 0.032805398 0.054722212
000110 72 41 da bc e9 cf f3 bd c4 1a 1d be 0f 55 ab 3d
       -0.026642535 -0.1190489 -0.15342242 0.08365833
000120 69 a9 98 3c f7 8b 98 3d 36 d6 13 be 1f 0d d7 3c
       0.018635469 0.07448571 -0.14437184 0.026251374
000130 3f 33 93 bb 7b 86 c6 bd 7b 9d 4b 3d 32 d5 9f 3d
       -0.004492193 -0.09693619 0.049710732 0.07804336
000140 f6 3b 7f 3d ad 36 5a 3c 31 8d ad 3d 93 37 10 3d
       0.062313043 0.0133187 0.08474196 0.03520925
000150 03 38 15 be 97 8b 89 bd 8f 36 8b 3c c7 fa ec 3c
       -0.14572148 -0.06716078 0.016993789 0.028928174
000160 24 7d 5f 3d 9e 21 3f 3c ef 6b 26 3d 34 a2 c1 3d
       0.054562703 0.01166573 0.040630277 0.09454766
000170 af c4 28 3e 86 11 ed 3d 71 8b d4 3d d7 02 ac bd
       0.16481279 0.11575608 0.10378159 -0.08398979
000180 02 d4 80 bd 44 23 4e bd 7d 13 e8 3c 46 10 40 bc
       -0.06290437 -0.0503266 0.028329605 -0.01172263
000190 4f fe a7 bd b6 9b 0e 3e ac 16 9a 3d 31 16 17 be
       -0.082028024 0.13926587 0.075238556 -0.14754559
0001a0 25 e5 aa 3d 47 57 c9 bd b8 d2 fd 3c 0a 4b d3 bd
       0.08344487 -0.098311 0.030984268 -0.10317047
0001b0 f2 eb 57 bd d9 81 ab 3d 19 d5 94 bd 1f af 22 3e
       -0.05271525 0.08374376 -0.07267208 0.15887116
0001c0 30 c2 9c 3d fe 1d 93 3d 19 01 13 bc 4e 5e f2 3d
       0.07654226 0.07183455 -0.00897243 0.118343934
0001d0 39 68 e4 3d 37 d6 dd 3d 92 56 b7 bd bb 79 58 bd
       0.111526914 0.10831874 -0.08952059 -0.052850466
0001e0 72 cb 1e be fc fd 4b 3d 29 a5 55 3d 61 2f 91 3d
       -0.15507296 0.049802765 0.052159462 0.07089115
0001f0 31 cb 1f be f9 9f 42 3d 44 ff fd bd 07 1c 0c 3e
       -0.15604855 0.047515843 -0.12402204 0.13682567
000200 96 ac c3 bd ba 40 73 3c 97 86 0a be d2 28 5b bd
       -0.095544025 0.014846975 -0.13527904 -0.053505726
000210 c2 28 ce bb 11 53 64 bd 6d 65 47 3d d9 dc 90 3d
       -0.00629148 -0.05574328 0.04868071 0.07073373
000220 3f 63 81 bd 1d be a9 3d 3c 8d 27 be c8 1b f5 bd
       -0.06317758 0.08288214 -0.1636247 -0.119681895
000230 33 fa 86 3c 64 9b 2c 3d b3 0d 9c 3d 7e 0a 4e 3c
       0.016476726 0.04214038 0.076198004 0.012575744
000240 a6 15 22 3b 28 48 ff bc 8c bd 99 bc 08 98 00 be
       0.0024732142 -0.031162336 -0.01876714 -0.12557995
000250 ad 57 c1 3d e4 46 10 be 15 48 fd 3d 95 93 5f 3d
       0.09440551 -0.14089543 0.12367264 0.054584105
000260 b1 86 6d 3d 28 f1 12 bd d4 0b cc bd 81 cb 34 be
       0.05798978 -0.035874516 -0.099631935 -0.17655756
000270 18 05 d5 3d ce fc ce bc 06 40 43 bd a2 ed b8 bc
       0.10401362 -0.025267031 -0.04766848 -0.02257425
000280 4f d9 88 3c 83 1e 33 be 80 d1 48 3b 5d f3 3c 3c
       0.016705183 -0.17492108 0.003064245 0.011532632
000290 14 c1 b0 bc 90 90 84 bd 19 19 a2 3d 37 c0 18 3d
       -0.021576442 -0.064728856 0.07914943 0.037292685
0002a0 87 52 b3 3d 1f fc 0d be 07 69 1a be 66 51 24 be
       0.08755975 -0.13865708 -0.15079127 -0.16046676
0002b0 c2 b1 14 be 3b bd 03 3e 0d a2 d1 bd 76 3a 18 be
       -0.14520934 0.12865154 -0.10235987 -0.14866051
0002c0 d1 82 10 be 21 ab a1 3d 36 93 02 be bc c2 df 3d
       -0.14112402 0.078939684 -0.12751469 0.109258145
0002d0 42 cc e5 bd 03 20 9d 3c e5 d7 d0 3c 70 60 fd bd
       -0.112206 0.019180303 0.025493572 -0.123719096
0002e0 21 f6 20 3e 61 33 fa 3d 60 21 c5 3d c6 e2 98 3d
       0.1571889 0.12216831 0.096255064 0.074651286
0002f0 25 95 4a bd b3 59 8a 3d 0a 1b 1a bd 09 32 65 3d
       -0.04945864 0.0675539 -0.037623443 0.05595592
000300 c6 24 31 3b 11 6b 1f 3e 91 1c d8 bd ce 75 8c 3d
       0.0027029975 0.15568186 -0.105523236 0.06858407
000310 7f 11 2c be 66 af 48 bc 65 3d 03 3e 24 3e df 3d
       -0.16803549 -0.0122488495 0.12816389 0.10900524
000320 12 9c 09 3e 4a a8 10 be a5 e7 da 3d 3f 88 29 3e
       0.13438442 -0.14126697 0.10688714 0.1655588
000330 43 b3 aa 3d e5 ae 8f bc 5b f0 55 3d c7 13 f8 3d
       0.08334973 -0.01753945 0.052231174 0.12113147
000340 a0 15 9f bd 79 9d dc 3d e0 6c 09 be 98 14 dd 3c
       -0.077677965 0.10772223 -0.13420439 0.026987359
000350 6e 29 ce bd db d2 e5 3d 85 4e 4d bd 2d 2a e1 3c
       -0.10066496 0.11221858 -0.05012371 0.027485931
000360 ce 32 7d bd c5 14 c2 3d 8d 7a 1e 3e bc 34 99 3d
       -0.06181603 0.09476618 0.15476437 0.074807614
000370 34 16 b4 3c f0 64 0f 3e e2 0d 3b 3d ee 17 c6 bd
       0.021983244 0.14003348 0.045667537 -0.09672533
000380 12 bf 22 bd 43 76 0c 3d a3 ed cf 3d a1 9a 4d 3a
       -0.039733 0.03429247 0.101527475 0.0007843171
000390 fa 5d 0b 3c 68 5f a4 ba f8 9e f8 bc a2 c6 b7 bd
       0.0085062925 -0.001254064 -0.03034924 -0.08973433
0003a0 ef 15 46 be 49 a0 a7 bd 83 49 e9 bd 4f 68 79 3d
       -0.19344305 -0.08184869 -0.113909744 0.060890492
0003b0 56 f7 14 3e 1b 1e 0e be fe 78 28 3e 40 99 a6 3d
       0.14547476 -0.13878672 0.16452405 0.08134699
0003c0 58 0d 0b 3d 0d 38 34 bb ab 16 88 3d 3b e0 cc 3c
       0.033948272 -0.002749923 0.066449486 0.025009265
0003d0 e2 48 1c 3e c2 fb ec 3d fc c0 59 bc db 0c 41 3d
       0.15262178 0.115714565 -0.01329064 0.0471314
0003e0 e2 ed d3 bd b7 07 63 bd 95 f8 e4 3d ae 08 8a 3d
       -0.10348107 -0.05542728 0.11180226 0.06739937
0003f0 c8 f0 ea 3d 9d 39 af 3d e9 87 ec bd 71 ce ec bc
       0.11471707 0.08555911 -0.1154936 -0.028907033

model.cnn_input_2.1.bias f4 [16]
000000 dc d0 3e 3d 9f 6e 6e 3d c7 ff b5 bd cf 33 13 be
       0.046585903 0.058210965 -0.08886676 -0.14375232
000010 fa 55 f7 3d 91 c0 b6 3d 86 69 da 3d 9b 06 cb bd
       0.120769456 0.08923448 0.10664658 -0.09913369
000020 18 66 0f 3e d8 94 c2 3d 25 10 82 3d 46 06 87 bc
       0.1400379 0.09501046 0.063507356 -0.016482484
000030 78 c4 3e 3d 24 38 e6 bd b6 3c 84 bd 5d 54 c6 bd
       0.046574086 -0.11241177 -0.06456892 -0.0968406

model.cnn_input_2.3.weight f4 [16, 16, 5]
000000 d2 b7 df 3d d1 b6 22 bd db 16 16 3b 9a e4 6e 3d
       0.10923733 -0.03972513 0.0022901807 0.05832348
000010 f1 e7 35 3e c1 f9 75 3d f9 7a b6 3c c5 e2 95 3d
       0.1776426 0.060052637 0.022275435 0.073186435
000020 87 15 94 3d 6d 7e be bd 45 89 42 bd 2f 81 dd 3d
       0.072306685 -0.093014576 -0.04749419 0.108156554
000030 74 a4 b0 3c ed 0e dd bd 97 dc e8 bd 5e 12 80 3d
       0.021562792 -0.107938625 -0.11370199 0.06253503
000040 e1 f1 25 3d 37 de 8e 3b 4a 82 2a 3d 1f b9 e9 3d
       0.040513877 0.004359986 0.04162816 0.11412262
000050 e1 db 5f 3d 8e c3 c2 bd 12 c8 9b bd b7 c1 d0 bc
       0.054653052 -0.09509955 -0.0760652 -0.025482995
000060 30 e0 67 3c a1 a3 eb 3d 75 36 8e 3d 9d 92 c2 bd
       0.014152572 0.11505819 0.069439806 -0.095006205
000070 3e 96 18 bb 10 5b d7 3d 70 0d d8 bd 2f 75 71 bd
       -0.002328291 0.10515416 -0.10549438 -0.058949646
000080 00 6b a7 3d 0d a9 97 3d 00 17 f0 3d c3 a0 74 bd
       0.081747055 0.07405291 0.11723137 -0.059723627
000090 67 d5 5f 3d df 85 c9 bd a8 35 a3 3d 89 01 a2 3d
       0.054646876 -0.09839987 0.079692185 0.07910449
0000a0 3c f8 58 bd 4c 68 99 3d 15 a7 91 bd 01 2a de 3b
       -0.05297111 0.07490596 -0.071119465 0.0067799096
0000b0 0a bd 4e 3d 37 c5 ff 3d 52 85 92 3d 26 12 67 bd
       0.05047325 0.124887876 0.07154335 -0.056413792
0000c0 0b 17 97 3d d7 52 81 bd 1f ca 84 bd 3d 6a 82 bd
       0.07377442 -0.063146286 -0.06483864 -0.063679196
0000d0 3b dd 82 3d 75 43 f0 3a 9d 75 7c bd ec ea e6 3b
       0.063898526 0.0018330651 -0.061635602 0.007047048
0000e0 20 2e df bc 11 53 57 b9 da 73 da bb 22 87 09 3d
       -0.027243674 -0.00020534942 -0.0066666426 0.03357614
0000f0 a8 76 82 bd d5 67 ac 3c d9 08 b5 bd cc e7 b5 bd
       -0.06370288 0.021045605 -0.08839578 -0.08882102
000100 10 fb d2 3c 9e 10 ae 3d 32 a3 f1 bc 48 66 78 3d
       0.025754482 0.08499263 -0.029496763 0.060644418
000110 81 56 02 be 19 cb d3 bd bc 17 dc 3c dc fc cb bd
       -0.12728311 -0.10341472 0.026866786 -0.099603385
000120 bb 7f a7 bd 36 e3 9b bd cd 59 ab bd 74 5f 1d bd
       -0.081786595 -0.076116964 -0.083667375 -0.03842111
000130 11 36 b8 bd e8 83 01 bd e8 42 7a 3d d1 49 88 3d
       -0.08994687 -0.031619936 0.061098963 0.06654704
000140 0a a4 36 bd cd f8 eb bc 07 df 44 3a ef 14 e5 bc
       -0.044590034 -0.02880516 0.00075100403 -0.027964083
000150 c0 d9 c0 3d f4 fd 61 3c 09 fc 81 3d 47 ba de bb
       0.094165325 0.013793457 0.063469 -0.0067971083
000160 12 52 6a 3c 3b c3 e1 3c 54 83 cd 3b a1 70 33 3d
       0.014301794 0.027558913 0.006271759 0.043808583
000170 08 ba 24 3d c2 76 88 bd 29 4d cc 3d 2f b3 a6 bd
       0.040216476 -0.06663276 0.09975655 -0.08139645
000180 22 60 5a 3d d2 93 91 bd e8 35 e5 bc 97 e0 87 bb
       0.053314336 -0.071082726 -0.027979806 -0.0041466462
000190 94 ae a9 3d 82 78 f7 bd 81 39 15 3d b2 db 66 bd
       0.08285251 -0.12083532 0.036431793 -0.05636186
0001a0 58 6c bd bd 1a 55 9c bb a1 b6 23 3e 6c 8d 75 bd
       -0.092491806 -0.004770887 0.15987636 -0.059949324
0001b0 12 40 15 3e 30 e3 f3 3c bd cf d4 3c 84 12 e8 3d
       0.14575222 0.029771417 0.025977964 0.113316566
0001c0 b8 cd 85 3d 08 ed 99 bd dc bd c2 bd 9c 3f 5d bd
       0.06533378 -0.07515913 -0.09508869 -0.05401574
0001d0 2a 8d e7 3c ca 41 95 3d 29 a9 d4 bd 98 4e b5 3d
       0.028265554 0.07287939 -0.10383827 0.08852881
0001e0 62 eb 3d 3c 03 4d ac bd 7a bf c9 bd 91 08 3c bd
       0.011591764 -0.08413126 -0.098509744 -0.045906607
0001f0 c2 27 d8 3d 44 85 4a bd 63 a1 ce 3b ed 80 98 bd
       0.10554458 -0.0494435 0.00630586 -0.07446466
000200 98 bb 5f bd 23 e0 80 bc 84 2e cc bd 08 1b f9 3c
       -0.054622263 -0.015731877 -0.0996981 0.030408397
000210 e2 60 cb 3d f1 a0 ce 3d f1 0c b7 3d a3 7e 06 3e
       0.09930588 0.10089291 0.08938015 0.13134246
000220 2a c3 89 3d 54 dd 94 3d 99 62 bf 3d c2 62 b1 bd
       0.06726678 0.072687775 0.09344978 -0.08661415
000230 79 02 d3 bd 8e bf 02 3d bb 53 19 bd 10 ab 1c 3d
       -0.10303206 0.031920962 -0.037433367 0.038249075
000240 65 23 d7 3d f3 89 dc 3d f2 fd c8 3c c3 87 b4 bd
       0.10504798 0.10768499 0.024535153 -0.08814957
000250 b2 9a 02 bd 4e 5a e8 bd 7a ac 7b 3d df 83 56 3d
       -0.03188581 -0.11345349 0.061443783 0.052371856
000260 56 7b 2c bb e7 b2 c6 3d 77 69 80 bd 90 0b 9c 3c
       -0.002631863 0.09702092 -0.06270116 0.019048482
000270 bd 76 90 bb 4d 3b ab 3d 87 09 b1 bd 3b 2f 36 3c
       -0.004408686 0.0836092 -0.08644395 0.011119659
000280 d2 df 97 3b ff 1a 95 3c d6 d5 a9 3c 58 53 67 3d
       0.0046348358 0.01820135 0.020731848 0.056475967
000290 76 c9 0b 3d 97 d8 9b 3d 1d 9f b9 bd ce fa 28 3d
       0.034127675 0.076096706 -0.090635516 0.04125481
0002a0 70 c7 c6 bc 91 b8 eb bd 58 44 c7 3d 02 02 b0 3d
       -0.024265021 -0.115098126 0.097298324 0.08594133
0002b0 be ad c0 bd 55 38 b4 3d 70 25 db bc ad ab 6b bd
       -0.09408139 0.08799807 -0.02675125 -0.05753677
0002c0 c9 d2 81 bd 88 ce a8 bd cf 29 3e bd 0f 60 1e 3d
       -0.06339032 -0.08242518 -0.04642659 0.038665827
0002d0 70 34 f8 bc c1 66 4f 3d 3b df e7 3d 78 6a b3 bc
       -0.030298442 0.050635103 0.11321875 -0.021901354
0002e0 c1 a7 19 3e 2b 7d 1e 3d 77 e2 18 3d c1 e9 8c 3c
       0.150054 0.03869359 0.03732535 0.017201306
0002f0 78 2c c3 3d ce d2 52 3d 3b c8 ac 3d 6d bf 3d 3d
       0.09529966 0.05147057 0.084366284 0.046325136
000300 74 94 01 3d 85 a4 98 3d c2 88 d1 3d f3 e7 c7 bd
       0.031635717 0.074532546 0.102311626 -0.09761038
000310 e9 41 81 bd bf e4 ce bd 92 e0 a8 3c 98 37 c2 bd
       -0.063113995 -0.101022236 0.020614896 -0.0948326
000320 60 79 b1 3d f6 1a b1 3d 3e bf ca 3d 3c 3b ee 3c
       0.086657286 0.086477205 0.09899758 0.02908098
000330 09 6f 54 bd 25 d4 2b bd 9c 9b c7 bd db 13 c0 bd
       -0.051863704 -0.041950364 -0.09746477 -0.09378787
000340 22 ce bd bd e1 73 dd bd 9c 76 fe 3c 3e e1 80 bd
       -0.09267832 -0.10813118 0.031062417 -0.062929615
000350 5e f1 ec ba b2 fd e9 bc 09 8a b6 3d f0 dc e9 3d
       -0.0018077304 -0.028563354 0.08913047 0.114190936
000360 ae 08 f3 3d e0 3c 24 bc 97 eb e2 3b 6e 43 e5 3d
       0.1186689 -0.010024279 0.006925057 0.11194502
000370 08 46 e0 bb 43 f8 0d bd cc 39 b9 3d 91 38 62 3d
       -0.006844286 -0.03466059 0.09044227 0.055229727
000380 f5 03 b5 3d 01 c3 24 bd 32 6a b2 bd 84 61 77 bd
       0.08838645 -0.040225033 -0.087116614 -0.060395733
000390 2c 52 de 3d b9 ca 83 3d 27 12 17 3d 79 d1 b1 3d
       0.10855517 0.06435151 0.036882546 0.08682532
0003a0 dd 4d c0 3d ac 2b 64 bc cd 11 d8 bd 55 7e 6b 3d
       0.09389851 -0.013926428 -0.1055027 0.057493526
0003b0 e2 43 61 3d f5 88 7b 3d 30 6b 84 bd d4 6d 1d 3d
       0.05499638 0.06140991 -0.06465757 0.03843482
0003c0 82 ab ac 3c 6d 94 de bb a3 13 b4 3c 48 b1 80 ba
       0.021077875 -0.006792596 0.02198202 -0.0009818459
0003d0 81 ae c2 bd be ed 90 bc 3c d4 a4 3c ed 7c 56 bd
       -0.0950594 -0.01769149 0.020120732 -0.052365232
0003e0 a8 21 13 3d 56 c4 e0 bd 21 f9 d3 bc 0b 16 56 3c
       0.03592077 -0.10974948 -0.02587563 0.013066779
0003f0 9d 35 71 3d a8 4a b4 bd bc 62 1b bd d7 e9 b6 bc
       0.05888902 -0.08803302 -0.037935957 -0.0223283

model.cnn_input_2.3.bias f4 [16]
000000 4e 32 47 3d f8 13 74 3d 7e 6c a2 bd ee 0f 04 bd
       0.04863196 0.059589356 -0.079308495 -0.032241754
000010 d8 81 66 bd 96 0a 11 3d ca 1a 1f 3c 2f 63 a4 bc
       -0.056276172 0.035410486 0.009710977 -0.020066826
000020 f9 fc 3b 3d 39 17 d6 3c f9 d2 17 bd d9 b3 c1 3d
       0.04589555 0.02613412 -0.037066434 0.09458131
000030 bf 5b a0 3c 55 d3 a8 3d 77 34 42 3d ed 1c 77 3d
       0.019574998 0.082434334 0.047413316 0.06033032

model.cnn_input_3.0.weight f4 [16]
000000 b0 2a 81 3f 34 85 82 3f c1 25 78 3f df 6b 7f 3f
       1.0091152 1.01969 0.9693261 0.99773973
000010 46 52 82 3f 2c 42 80 3f 2f a9 7d 3f b5 50 81 3f
       1.0181358 1.0020194 0.9908628 1.0102755
000020 8c 08 78 3f ea 9a 81 3f 0e c4 80 3f d7 35 81 3f
       0.9688804 1.0125401 1.0059831 1.0094556
000030 3d 07 80 3f 8d f1 80 3f 5b 76 7b 3f 5f 53 81 3f
       1.0002209 1.0073715 0.9822747 1.0103568

model.cnn_input_3.0.bias f4 [16]
000000 c3 8d 00 3b c3 97 0a bc 56 d8 c2 bb c5 63 87 bc
       0.0019615747 -0.008459034 -0.0059461994 -0.016527066
000010 88 b2 04 3b 73 07 55 3a b0 f9 b8 3b ec 6e c2 bb
       0.0020248014 0.0008126415 0.0056449994 -0.005933633
000020 ba 2e 62 b9 ae 87 5f 3c 88 30 a8 bc a8 7e 9e bb
       -0.00021570447 0.013643188 -0.020530954 -0.004836876
000030 18 d0 60 3b 64 a4 5f 3c 60 cc 29 3c 91 91 c4 b9
       0.003430372 0.013650034 0.010363668 -0.0003749249

model.cnn_input_3.0.running_mean f4 [16]
000000 a5 79 ed 3d c1 6f 8c 3e ef 5b f8 3e ce 39 80 3c
       0.115954675 0.2742901 0.4850764 0.015652563
000010 7a 59 73 3e e7 0c 51 3c ae 02 ed 3e 39 5b a2 3d
       0.23764601 0.012759424 0.46291107 0.079275556
000020 20 22 5a 3e 5b 99 8d 3d bc af 93 3e 95 9e 03 3e
       0.2130208 0.06914016 0.28845012 0.12853463
000030 10 19 85 3e 43 5c 5a 3e e0 c8 c5 3e b7 44 e5 3e
       0.25995684 0.21324258 0.38629818 0.44778988

model.cnn_input_3.0.running_var f4 [16]
000000 7c 8d b0 3c 7f 6d 0f 3e 37 c3 92 3d d8 26 59 3b
       0.02155184 0.14006613 0.071661405 0.0033134725
000010 e1 b0 05 3d a7 2a d8 3a 70 1a 5f 3d 8e 6b 7e 3c
       0.032639388 0.0016492204 0.054468572 0.015528573
000020 60 36 c6 3d cc 8f 6c 3c 9b a9 bb 3c f9 9d b4 3c
       0.0967834 0.014438581 0.022908023 0.022047983
000030 4d 80 c3 3d d4 c8 dd 3c 3e b6 54 3d cf 21 ea 3c
       0.09545956 0.027073301 0.051931612 0.028580574

model.cnn_input_3.1.weight f4 [32, 16, 5]
000000 26 ec 6b 3d 99 09 4d bd de 49 eb bd 28 1c b6 3d
       0.057598256 -0.05005798 -0.114886984 0.08892089
000010 20 7b 78 bc 7e c8 70 bd a2 94 be bd 29 25 87 3d
       -0.015166074 -0.058784954 -0.09305693 0.065988846
000020 cf e1 ad bd 5b 9c ca 3c 6a 40 60 3d b7 17 b3 3d
       -0.08490335 0.02473276 0.05474893 0.087447576
000030 7f 26 5e 3d 3b f0 81 3d 16 e0 2b 3c a2 38 03 3e
       0.05423593 0.063446485 0.010490438 0.12814572
000040 25 f8 bb 3c e1 6b dd 3d d2 11 90 3d 5d 94 a5 3d
       0.022945473 0.10811592 0.07034649 0.08084939
000050 09 df 3e 3c 7f 72 e8 3d b9 f4 c0 3a 6f a4 8b 3d
       0.011649855 0.113499634 0.001472137 0.068184726
000060 06 b6 a1 bd d8 59 d3 bd 6e 0f 2d bd be fa 92 3c
       -0.07896046 -0.10319871 -0.042251043 0.017941829
000070 67 52 de bd c4 9a cb bd f3 34 40 bd e7 cf 88 bd
       -0.10855561 -0.099416286 -0.046925496 -0.06680279
000080 20 85 a6 bd 1d e9 b3 3b be 8f e2 bc 98 91 c7 bd
       -0.0813086 0.0054904358 -0.027656432 -0.09744567
000090 3b 51 20 bd b5 dc bb 3d 29 33 bd 3d 88 81 bb 3d
       -0.039139967 0.09172956 0.09238274 0.091555655
0000a0 4d 25 1c bd 36 6b ab 3c 5a 7c 99 3c b5 10 45 bc
       -0.03812151 0.020925146 0.018736053 -0.012027909
0000b0 fd df c2 bd bd 76 5f bc 2d c5 33 bc cc c2 4c 3d
       -0.095153786 -0.013639149 -0.010972303 0.04999046
0000c0 ee 4a a3 bd 9b 5e 66 bd f1 01 cc 3d f2 da a1 bd
       -0.07973276 -0.056242567 0.09961308 -0.07903089
0000d0 8e ed 9e bd d0 14 50 bc 5d 89 2e bd 3c a0 c5 3d
       -0.07760154 -0.012700275 -0.04261147 0.09649703
0000e0 ab 49 93 3b a9 74 5d bd 69 d8 91 bd 70 df f8 3d
       0.004494866 -0.054066334 -0.07121355 0.12151992
0000f0 08 16 1a 3d 50 f9 26 bd 9e ee 02 3d e4 37 34 bd
       0.037618667 -0.040765107 0.031965844 -0.043998614
000100 ee 97 ad bd d3 56 d1 bd b9 e6 ba bb 59 e2 9f 3c
       -0.08476244 -0.102216385 -0.005703774 0.01951711
000110 49 df 23 3d 28 c1 0b bd 2d aa 15 bd 2a d4 86 3c
       0.040007863 -0.034119755 -0.036539245 0.01645859
000120 05 dc 8e bd 04 81 a8 bd cb 26 a0 bd 0b 4e 0b 3d
       -0.06975559 -0.08227733 -0.07819899 0.034009974
000130 de c7 e8 bc 9b b8 8a 3d 56 65 4b bd 51 fb d8 3d
       -0.028415617 0.06773492 -0.04965719 0.1059481
000140 bd e5 94 bd d2 9f 87 3d 15 ba 8f 3d 9d 5d 38 3d
       -0.072703816 0.0662228 0.07017914 0.04501115
000150 51 2f 7c bc ff 7c 0e bd 38 2e d8 3d ba 4e 94 3d
       -0.0153921405 -0.034787174 0.105556905 0.072415784
000160 11 90 c5 bb 36 d0 5d bd 80 20 9f bc cd 1f 2d 3c
       -0.006029137 -0.054153644 -0.019424677 0.010566664
000170 14 91 e5 3c 16 e4 18 3d 23 b9 91 3d c9 c0 db 3d
       0.02802328 0.037326895 0.0711539 0.1073013
000180 0a 03 d5 bc 59 19 69 3d 87 d1 43 3d 00 1b b0 3c
       -0.026002426 0.05690894 0.047807243 0.02149725
000190 40 e5 a8 3d 21 e0 6e 3c 4b 51 19 bd 3f ef a0 3d
       0.08246851 0.014579804 -0.037431043 0.078581326
0001a0 8c 87 e9 bc 57 76 4d bd b0 e1 d3 3d 28 62 a5 bd
       -0.028507017 -0.050161686 0.10345781 -0.080753624
0001b0 89 b3 dc bd 52 1d 0b 3c 1e 25 5f bd 8f 07 3f bd
       -0.10776431 0.008490877 -0.054478757 -0.046638068
0001c0 8a 15 ce 3d 02 b3 df bd 1b a8 94 3b 64 93 26 bd
       0.10062702 -0.10922815 0.0045366413 -0.040667906
0001d0 84 11 85 bd e5 c6 7b 3d d1 5b 23 bd 38 6e c8 bd
       -0.064974815 0.061468977 -0.039882485 -0.097866476
0001e0 c1 f7 c5 bd 68 08 50 3b b7 95 b8 bd 84 9f a4 3d
       -0.09666396 0.0031743292 -0.09012931 0.08038238
0001f0 43 c7 d4 bd 30 e1 c3 3c b3 82 73 bc 96 0d 3b 3d
       -0.10389569 0.023911089 -0.014862704 0.045667253
000200 92 15 b3 3d 7f 54 8b 3c e1 7f b3 3d bb 5d 94 bd
       0.087443486 0.017008064 0.08764625 -0.0724444
000210 0b 29 e3 bd 18 2a b0 bd 12 ec 4e bd 52 74 da bb
       -0.11091813 -0.08601779 -0.050518103 -0.0066666985
000220 d3 69 b9 3d c8 cf 7e 3c 94 99 c7 3c c6 40 19 3e
       0.090533875 0.015552469 0.024365224 0.14966115
000230 d8 40 98 3d d6 57 34 bd f9 bf af 3d e5 c3 70 bd
       0.07434243 -0.04402908 0.08581538 -0.05878057
000240 0e 6a 95 3d 23 56 59 bd 19 21 bf bc 68 7b 51 3d
       0.07295619 -0.053060662 -0.023331212 0.05114308
000250 f2 52 a8 3d 41 71 46 3d 37 fe ea bb 16 b9 38 bc
       0.082189456 0.04844785 -0.007171418 -0.011274597
000260 0b dd 8c bd 46 2a e7 bc ec 0e b3 bd 04 63 04 bc
       -0.06878098 -0.0282184 -0.087430805 -0.008080248
000270 6c c0 cd 3d 6c 05 b4 bd f6 6d cd 3c ed 10 dc bd
       0.10046467 -0.08790097 0.025076848 -0.10745416
000280 77 0f 61 bd 91 93 ce bd 04 ca a9 bc c2 5b 9c 3d
       -0.05494639 -0.1008674 -0.020726211 0.07634689
000290 15 cc c9 bc 45 d4 cb bb 86 a9 62 3d d5 81 77 bd
       -0.024633447 -0.006220373 0.05533745 -0.06042655
0002a0 ce 7e 8d 3d 4f ac b6 bd 40 5b 85 bc 4f de 10 3d
       0.06908952 -0.08919584 -0.016278863 0.03536826
0002b0 37 69 c5 bd 01 07 c1 bd 0d 87 b3 3d a5 d9 a3 bc
       -0.09639209 -0.09425164 0.08765993 -0.020001242
0002c0 90 5c 8e bd 39 a0 e5 bd 61 46 37 3d bf 0b 82 3a
       -0.06951249 -0.11212201 0.044744853 0.0009921713
0002d0 c4 af b5 bd e5 75 a8 3d 76 6c 5c 3d c6 47 ae bd
       -0.08871415 0.082256116 0.053814374 -0.085097834
0002e0 bf 84 42 3d aa 74 6b bd 45 76 a4 3d ce 76 cd bd
       0.047489878 -0.057484306 0.080303706 -0.10032426
0002f0 b9 56 56 ba 14 c1 a7 3d 44 a7 78 bd e1 84 9c 3d
       -0.0008176375 0.081911236 -0.060706392 0.07642532
000300 9a 57 9e 3d 21 4c e3 bd 4d f1 a2 3c 75 e1 9e bd
       0.077315524 -0.11098505 0.019890452 -0.07757846
000310 71 bb c1 bd 97 1c 05 3c 98 3b a6 3d 53 9e 94 bd
       -0.0945958 0.008124492 0.08116835 -0.072567604
000320 96 e9 b4 bd 27 ea a4 3d 16 4f ed bd 8d 73 ed 3b
       -0.088336155 0.080524735 -0.1158735 0.0072464407
000330 9b 63 aa bd 49 76 ac 3d 65 be 67 bd 3c 3d e0 3b
       -0.083197795 0.084209986 -0.05657806 0.006843237
000340 e8 4b 94 37 2b b0 c6 3d cd f4 91 bd f2 23 6c bd
       1.7678321e-05 0.0970157 -0.0712677 -0.057651468
000350 0b be 8b bd 7e a8 78 bd a3 9c e5 3d 98 78 d6 bd
       -0.06823357 -0.06070756 0.11211517 -0.1047222
000360 cb 04 83 bc 23 53 40 3d b8 a6 ba 3d 42 82 82 3b
       -0.015993496 0.046954285 0.0911383 0.003982813
000370 f9 ed a6 3d 9a 83 d2 bd aa 0b a3 bd 64 d1 ca bc
       0.081508584 -0.10279007 -0.07961209 -0.024758048
000380 ac a5 ac 3d 27 b4 8e 3d 50 23 aa 3d 37 71 ab 3c
       0.08430037 0.06967955 0.083075166 0.020928008
000390 fa 80 c7 bd 56 28 30 3d 9c 58 47 bd 09 49 99 3d
       -0.09741397 0.043007217 -0.04866849 0.074846335
0003a0 59 fb a6 bd 92 48 a5 3d 23 ce 02 be 3e 44 67 3d
       -0.081534095 0.08070482 -0.12773947 0.056461565
0003b0 7e 87 d3 3b 86 14 96 bc b3 9c 9d bd f2 d3 2e bc
       0.006455361 -0.018320333 -0.07695904 -0.010670649
0003c0 b9 d5 07 bd 1a 01 d7 3c 1c d0 fe 3d 32 32 8c 3d
       -0.033162806 0.026245642 0.124420375 0.068455115
0003d0 04 98 79 3d 63 4a 7f bb 12 31 60 3d f6 7d 83 bd
       0.06093599 -0.003895425 0.054734297 -0.064205095
0003e0 3d 17 42 3d 30 df cd 3d b7 a7 62 bd 4c 43 4c bd
       0.047385443 0.10052335 -0.055335727 -0.049868867
0003f0 2c 2b d7 bd cb e7 86 bd 84 ea 89 bd f5 48 bd 3d
       -0.10506281 -0.0658718 -0.067341834 0.09242431

model.cnn_input_3.1.bias f4 [32]
000000 10 f0 3d bd 18 8f 98 bc 18 cd 22 3d 3d 24 04 3e
       -0.04637152 -0.01862292 0.039746374 0.12904449
000010 df 2a fa 3d ab 68 ee 3c 29 c8 07 3c 53 2a e2 3d
       0.12215208 0.029102644 0.008287468 0.11043229
000020 78 9b b9 3d b4 f7 a9 3b 7c 9c 8b bc ed b3 ae bc
       0.090628564 0.005186999 -0.017042391 -0.02132603
000030 de bc b3 3d 71 f9 d6 bd b1 33 df 3c 1c c7 d0 3d
       0.08776258 -0.10496796 0.027246328 0.10194227
000040 1f d6 f8 3c 0a e3 9a 3d 95 ae a1 bd 1b fd 15 bd
       0.030375538 0.075628355 -0.07894627 -0.036618333
000050 c1 3e cb 3d c7 d8 74 bd 4b 73 06 be c6 63 8e 3c
       0.09924079 -0.059777047 -0.13129918 0.01738156
000060 e8 a6 d9 3d bd 9e 2e 3d da 4a 7c 3c e3 3a 39 3d
       0.10627538 0.042631853 0.015398705 0.045222174
000070 ac 82 6c 3d be 42 60 bd 2a fa ea bd ab ec b1 bc
       0.057741806 -0.05475115 -0.11473496 -0.021719297

model.cnn_input_3.3.weight f4 [32, 32, 5]
000000 63 2c e9 3c fa 69 ee 3c 21 48 87 3d e0 d3 8c bd
       0.028463548 0.029103268 0.06605554 -0.068763494
000010 58 e1 91 bc 29 ab 9f bd d9 b7 df bc a3 bf 6a bd
       -0.017807648 -0.07796318 -0.027309345 -0.057311665
000020 78 cb 72 3d e1 00 68 3d 72 39 63 bd 19 64 62 3d
       0.059276074 0.056641463 -0.055474706 0.05527124
000030 c2 6c 00 bc 2b 9e 7e bc 9c 66 db 3c f7 1c 80 bd
       -0.00783843 -0.01554064 0.026782326 -0.062555246
000040 00 e2 14 bd 15 37 c0 bd 5f c9 31 3d c6 86 0a 3d
       -0.036348343 -0.09385506 0.043404933 0.033819936
000050 9e c2 48 3d 91 1b 19 3d 65 96 35 bc b5 e1 4e bb
       0.049013726 0.037379805 -0.01108322 -0.0031567637
000060 51 a7 02 3d 33 65 dd 3c 60 0a 58 bd a3 33 a4 bc
       0.031897847 0.027025795 -0.05274427 -0.020044154
000070 e2 37 91 bc e3 8e 73 3d 4e f6 92 3c 67 18 38 bd
       -0.017726842 0.05946244 0.017939713 -0.044945147
000080 9a f8 68 3d 86 81 10 3d cd 68 ad 3d fa a7 d0 3c
       0.05687771 0.035279773 0.08467255 0.025470722
000090 f8 78 b0 bd fa 9e 19 bd 99 5c 60 3d 04 52 b2 bb
       -0.08616823 -0.037505127 0.054775808 -0.005441906
0000a0 74 c2 03 bd 7b c0 81 bc bd 55 b7 bc 71 52 4f 3b
       -0.032167867 -0.015838852 -0.02237975 0.0031634832
0000b0 21 62 00 39 50 23 58 3d b1 04 ba bc 0e fb 21 bd
       0.00012243587 0.05276805 -0.022707315 -0.039546065
0000c0 80 b0 8a 3d 9a 48 03 3d 5c 77 32 3d 1f 13 94 bc
       0.06771946 0.03205166 0.04357086 -0.018075524
0000d0 53 3c 59 bb 56 03 8f 3d 8e ec d0 3c 8d 26 92 3d
       -0.0033147528 0.06983058 0.025503423 0.07136259
0000e0 d2 4e 12 bd c3 4a f2 3c af b0 d3 3b 97 6d 03 3d
       -0.0357197 0.029576665 0.0064602713 0.032086935
0000f0 67 78 0c bb 51 7a f0 3c d1 77 50 bd 8d ed 98 bc
       -0.002143407 0.0293552 -0.050895516 -0.01866796
000100 14 b9 97 bd 04 77 90 bc ad 2a 8b 3d ea 63 b6 3c
       -0.07408348 -0.017634876 0.06795249 0.02226444
000110 f5 14 70 bd b1 92 1f 3d 2d 92 65 bd 11 c9 61 3c
       -0.058613736 0.038958255 -0.056047607 0.013780848
000120 10 bf 76 bd cf 44 aa bc 51 5d 05 bb 1c a5 b0 3c
       -0.060240805 -0.020784764 -0.002034981 0.021563105
000130 d5 3e a0 bd da 59 9e bd 65 09 c3 ba 6a 4b 47 3c
       -0.07824484 -0.077319816 -0.0014880119 0.012163976
000140 16 16 6a 3d e9 fe ec bc c3 7a ac bd be 9d 2a 3d
       0.05714997 -0.028930144 -0.084218524 0.04165434
000150 a1 4a b6 3d 1a 94 87 3d a1 22 77 bc 43 69 a9 bd
       0.08900953 0.06620045 -0.01508394 -0.0827203
000160 9c 6d 87 bd ef 4c 0f bc 10 b3 23 bb 77 65 d2 bd
       -0.06612703 -0.00874637 -0.0024978556 -0.10273259
000170 3f 8b f2 3b c5 28 a8 bc 3f 3c 9b 3c 42 53 09 3d
       0.0074018533 -0.020527253 0.018949626 0.033526666
000180 f2 9a 6b 3d 95 68 4d 3d 3a 22 b9 3a db 4c dd bc
       0.057520814 0.050148565 0.001412458 -0.027014187
000190 ef 07 88 bd d0 66 92 3b fd 1e 84 3d 16 18 53 3d
       -0.06642138 0.0044678226 0.06451223 0.051536642
0001a0 fd 3d 07 3d 87 2d 1a 3d df 0a ac bb 65 ef 4d 3d
       0.0330181 0.037641075 -0.0052503194 0.050277133
0001b0 54 6f 42 bd 8d c5 45 3d f1 7d 91 bc a9 c9 f1 3c
       -0.047469452 0.048284102 -0.017760249 0.029515104
0001c0 34 05 2e 3d ad 2f b2 bd ae ac 90 3b 08 c2 bd 3c
       0.04248543 -0.087005 0.0044151163 0.02316381
0001d0 17 8a 05 bd 36 44 84 bb 7c d7 69 3c 94 f6 ab 3d
       -0.032602396 -0.0040364517 0.014272567 0.083966404
0001e0 da 6e 36 bc 23 45 81 3d 64 50 27 3d b9 aa 80 bc
       -0.0111348275 0.06312015 0.04084815 -0.015706407
0001f0 27 ac 3d bd 3f 22 34 bd 9f 00 a9 bd 97 09 83 bd
       -0.046306755 -0.043977972 -0.082520716 -0.063983135
000200 98 19 a1 bd 0a 11 9c 3d d4 fe 2e 3d ca f3 e1 3c
       -0.0786621 0.076204374 0.04272349 0.027582068
000210 d7 6e 6d bb bf ad 85 bc 38 9d 67 3d 4c db e3 3c
       -0.0036229396 -0.0163182 0.05654642 0.02781453
000220 3d 2a 0c bc 07 d8 78 3d f0 90 ec bc 63 cb 5c bd
       -0.008554992 0.060752895 -0.028877705 -0.053904902
000230 60 46 9b bb c6 4f fa 3b e0 26 e4 3c d2 98 d6 3c
       -0.004738614 0.0076389043 0.027850568 0.026195917
000240 99 c7 35 bd c1 ec b2 bd 2e 93 a5 3d ba ab 0c 3d
       -0.044379804 -0.087365635 0.08084713 0.03434346
000250 04 ed 3a bd 4a e4 7b bd 85 02 54 bd e5 bd bf bb
       -0.045636192 -0.06149701 -0.051760215 -0.0058514946
000260 80 0b 7c bc d4 fb 07 3a 6a 42 70 bd b4 e5 b3 3d
       -0.015383601 0.00051873666 -0.058657087 0.08784047
000270 a0 2e 3c bd 82 71 9e 3d 96 19 8a 3d 11 3b d2 3c
       -0.045942903 0.07736494 0.067431614 0.02566293
000280 3a e8 91 bd 54 46 10 bd 84 8e 90 bc 20 c1 d2 ba
       -0.07124372 -0.03522332 -0.017646082 -0.0016079284
000290 ae ba 98 3d ac 50 3e 3c 73 f5 3c 3d 5d af 4b bd
       0.07457481 0.011615913 0.046132516 -0.049727786
0002a0 51 43 cc bc 57 7e a5 ba 32 23 9d bc cd b2 c0 bd
       -0.024934443 -0.0012626153 -0.019181821 -0.094091035
0002b0 ed 12 8a 3d c2 04 4e 3d a2 73 ac bb 7d ba 9e 3d
       0.06741891 0.050297506 -0.005262808 0.077504136
0002c0 a8 b0 ec 3c 88 25 46 bd 9b bd f7 3d 01 2a 14 bd
       0.02889283 -0.048375636 0.12096711 -0.03617287
0002d0 36 15 a8 bb 32 a8 2c 3d af 59 57 bd f6 78 85 bd
       -0.0051294817 0.04215259 -0.052575763 -0.06517212
0002e0 74 84 a3 bc 2a ab 3d 3d 06 52 94 bd 62 8b 82 bd
       -0.01996062 0.046305813 -0.07242207 -0.063742414
0002f0 73 d1 1a 3d 93 60 2d 3d 10 25 a4 3c 4c 2e d9 3c
       0.037797403 0.04232843 0.020037204 0.026511334
000300 70 a9 3c bd 32 4d 91 3d c2 f3 9a bc d4 d8 56 bd
       -0.046060026 0.07094802 -0.01891506 -0.052452877
000310 46 ea 36 3d ff 43 a3 3b 86 81 6e bb cf 87 4e bd
       0.044657014 0.004982471 -0.003639312 -0.050422486
000320 6e 88 96 bd e4 81 bb bd 05 dc 34 3d 12 ff 99 bd
       -0.07350241 -0.09155634 0.04415514 -0.07519354
000330 cc d1 0f bd 69 9c bc 3b ab 78 99 bd db 08 a6 3c
       -0.035112187 0.00575595 -0.07493719 0.020267894
000340 78 68 8a 3c 29 8e 86 bd 9b 59 2f 3d f9 af 1c bd
       0.016895518 -0.06570084 0.042810064 -0.038253758
000350 30 7b ee bc 1f 4a 9a bd f9 f2 02 b9 1f c4 d2 bc
       -0.029111475 -0.07533669 -0.0001248828 -0.025728283
000360 1a 60 5d bc 4d 11 85 3d f9 98 4b bd b6 bf a7 3d
       -0.013511682 0.064974405 -0.049706433 0.08190863
000370 fe c7 c8 bc b9 4b e3 bc 7e 31 65 3d d9 c6 d8 3c
       -0.024509426 -0.027746068 0.055955403 0.026462005
000380 30 ed b7 bd 17 c8 e9 3c a8 f3 a0 bc e3 92 3f 3d
       -0.08980787 0.028537793 -0.019647434 0.04677094
000390 cb d0 af bc 81 07 22 bd fb 78 64 3d a2 57 48 bd
       -0.021461865 -0.039557938 0.05577944 -0.0489117
0003a0 a6 83 ae bd 26 34 91 ba 9b e5 c2 bd 28 44 12 3d
       -0.08521204 -0.0011078164 -0.0951645 0.03570953
0003b0 1d 3d 61 3d 48 86 47 3d dd 50 b5 3d 19 a1 9c 3d
       0.054989923 0.048712045 0.08853314 0.076479144
0003c0 bb 01 70 bc 7f 1a 91 bd 06 3a 76 bd 8e ca b7 bd
       -0.01464885 -0.07085132 -0.06011393 -0.08974181
0003d0 9f 26 7c 3d a1 87 96 bc f6 9c 2c 3d c9 91 84 3d
       0.06156027 -0.01837522 0.042141877 0.06473119
0003e0 d8 3c 6d bd 14 8f 59 bb d6 ef a8 bd 86 9a 85 3d
       -0.057919353 -0.0033196853 -0.0824887 0.06523614
0003f0 99 5e f8 bc c2 e8 81 bd f5 fd 21 bd 2a c6 c0 3c
       -0.030318545 -0.06343223 -0.039548833 0.023531992

model.cnn_input_3.3.bias f4 [32]
000000 fb 21 fd 3c a4 c5 8e 3d 17 09 33 bc 64 66 fb bc
       0.030899992 0.06971291 -0.01092746 -0.030688472
000010 13 c8 82 3d a3 f5 9d 3c 22 a7 29 bc 4f 27 7f bd
       0.063858174 0.019282168 -0.010354789 -0.062293347
000020 30 67 16 3d e6 78 4b bd d4 de 8f bc 4a 4b 89 bd
       0.0367195 -0.049675845 -0.017562307 -0.067038134
000030 12 76 32 bc 78 23 8f 3c 95 9a 8a 3c c7 80 75 bc
       -0.010892408 0.017472968 0.016919414 -0.014984316
000040 d8 66 8f bc 80 6e 24 3d d9 1e 72 bd ab 62 8d 3d
       -0.017505094 0.040144444 -0.05911145 0.06903585
000050 1a 46 36 3d 08 e4 94 bd cf 90 1c bd 84 b2 7f bd
       0.044500448 -0.07270056 -0.038224038 -0.062426105
000060 ca 04 05 bd 84 b5 53 bd aa 8f 9d bc c6 46 31 bd
       -0.03247527 -0.05168678 -0.019233543 -0.043280385
000070 4d 13 fd 3b f9 78 1f bd 8d 09 f7 3c 0c e3 d8 3c
       0.007723248 -0.038933728 0.030155921 0.026475452
