models/SV_UNet_30s--epoch=18-val_loss=1.10-train_loss=1.12.ckpt (torch, 268153 bytes, 121 tensors)

model.cnn_input_1.0.weight f4 [3]
0	0x3f72f9f3	0.9491264
1	0x3f67bfec	0.90527225
2	0x3f8f18f5	1.1179491

model.cnn_input_1.0.bias f4 [3]
0	0xbdc3dc5a	-0.09563513
1	0xbd1cc57c	-0.038274273
2	0x3db54f51	0.08853019

model.cnn_input_1.0.running_mean f4 [3]
0	0x41216309	10.0866785
1	0xbf0b0466	-0.54303586
2	0x3cd55619	0.026042031

model.cnn_input_1.0.running_var f4 [3]
0	0x41b1842d	22.189539
1	0x45620e16	3616.8804
2	0x3ba38337	0.0049900073

model.cnn_input_1.1.weight f4 [8, 3, 5]
0	0x3c736ab4	0.014856983
1	0x3e7f46d6	0.24929366
2	0xbe948479	-0.2900732
3	0x3d28b835	0.0411913
4	0x3e076eaa	0.13225809
5	0x3b679aea	0.0035340139
6	0xbd986e1c	-0.07442877
7	0xbd30f94b	-0.043206494
8	0xbc01d794	-0.007924933
9	0xbd3d8588	-0.046269923
10	0x3d4dc24c	0.050234124
11	0x3dd43f17	0.10363596
12	0xbd903035	-0.07040445
13	0x3d9c772c	0.07639918
14	0xbd719cea	-0.058987536
15	0xbde53144	-0.11191037
16	0x3d046662	0.032324202
17	0x3d3ba32a	0.045809902
18	0xbdf9b027	-0.121918015
19	0x3e1dd365	0.15412672
20	0xbe181e62	-0.1485534
21	0x3c83a3f6	0.016069394
22	0x3d71d515	0.0590411
23	0xbda202ca	-0.07910688
24	0xbe199671	-0.14998795
25	0x3c869d4d	0.016432429
26	0x3e5564a8	0.20839179
27	0x3dbd3a42	0.092396274
28	0xbde06571	-0.109568484
29	0x3e061fa4	0.13098007
30	0xbca50d17	-0.020147843
31	0x3e4eab01	0.2018242
32	0xbe6c4e9b	-0.2307686
33	0xbe7217ae	-0.23641846
34	0x3e4a81e7	0.19776116
35	0xbdeb9e88	-0.11504847
36	0xbe1a0e6e	-0.15044567
37	0x3d90f2b5	0.07077543
38	0x3e22e527	0.15907727
39	0xbe266c51	-0.16252257
40	0xbe1c5418	-0.15266454
41	0xbeaefaf6	-0.34175843
42	0xbea3de26	-0.32005423
43	0xbddebe60	-0.10876155
44	0xbe700cca	-0.23442379
45	0xbe1980ed	-0.14990588
46	0x3d78f7bc	0.060783133
47	0xbe6f97f8	-0.23397815
48	0xbe9d09fc	-0.3067168
49	0x3cdac730	0.026706308
50	0xbe1983dc	-0.14991707
51	0x3e0c6838	0.13711631
52	0x3d671ce1	0.056424025
53	0xbceb42b9	-0.02871834
54	0x3c8aeb94	0.016958036
55	0x3e9c04d1	0.30472425
56	0xbd9cfdc4	-0.076655895
57	0x3e1f6d99	0.15569152
58	0xbdc81bf2	-0.09770955
59	0x3e1911ab	0.14948146
60	0x3dbbd7aa	0.09171994
61	0xbc59cef5	-0.013293971
62	0xbe07ba2a	-0.1325461
63	0x3e62247e	0.22084233
64	0xbe7958ae	-0.24350235
65	0x3e2c1249	0.1680385
66	0xbe44ece8	-0.19230998
67	0xbe3fe31d	-0.1873898
68	0xbe64c207	-0.2233964
69	0x3ca79c06	0.02046014
70	0x3e07cda7	0.13262044
71	0x3dfb974f	0.12284719
72	0xbd7e8d31	-0.06214637
73	0xbdf35dfc	-0.118831605
74	0xbe003d69	-0.12523426
75	0x3e0cf2db	0.13764517
76	0x3e0431f9	0.12909688
77	0x3e1db816	0.15402254
78	0x3dff496a	0.124651745
79	0x3deae056	0.1146857
80	0xbe2f7b94	-0.17136985
81	0x3cd5c651	0.026095541
82	0xbd64d544	-0.05586745
83	0x3b9484ae	0.004532418
84	0xbc5fc122	-0.013656886
85	0xbe98a6bb	-0.29814705
86	0x3e0c6ad6	0.1371263
87	0x3e4a56b0	0.19759631
88	0xbe87133b	-0.2638186
89	0x3d48d6bb	0.049032908
90	0x3d18e930	0.03733176
91	0xbdfd53dc	-0.123695105
92	0xbe15849c	-0.14601368
93	0xbe03408e	-0.12817594
94	0x3e3e5c12	0.1858981
95	0x3bd042c0	0.0063556135
96	0x3e7007a7	0.23440419
97	0xbdde74d2	-0.108621255
98	0x3e813c1e	0.25241178
99	0xbe58afba	-0.21160784
100	0x3e5c5827	0.21518002
101	0x3e977258	0.29579425
102	0x3de499ff	0.11162185
103	0x3e84597c	0.2584952
104	0x3cabc97b	0.020970097
105	0xbe205ad7	-0.15659653
106	0xbe2ddd19	-0.16978873
107	0x3a47ddc4	0.0007624293
108	0xbea0b014	-0.31384337
109	0x3da54b24	0.080709726
110	0xbe176e36	-0.14788136
111	0x3e2e6f4c	0.17034644
112	0xbe068756	-0.13137564
113	0x3d1c4723	0.03815378
114	0xbd6f1644	-0.058370844
115	0xbe81045d	-0.2519864
116	0xbd87aba8	-0.06624538
117	0x3e87d4be	0.26529497
118	0xbdc81b7e	-0.09770869
119	0xbb20d1d9	-0.0024539141

model.cnn_input_1.1.bias f4 [8]
0	0x3b63be36	0.0034750826
1	0x3da3b054	0.07992616
2	0x3c95bb62	0.018277828
3	0x3d47d8eb	0.048790853
4	0xbe2bd754	-0.1678136
5	0x3d3d7814	0.046257094
6	0xbdd20896	-0.10255544
7	0x3c0d1278	0.00861036

model.cnn_input_1.3.weight f4 [8, 8, 5]
0	0x3c6622b8	0.0140463635
1	0x3e3cbabe	0.18430611
2	0xbcd3ad0d	-0.025839353
3	0xbd20595c	-0.03914772
4	0x3e1afa43	0.1513453
5	0x3e31b4ba	0.17354098
6	0x3e42a614	0.19008666
7	0x3c8c84d7	0.017153187
8	0x3e35e301	0.17762376
9	0xbdb8a20a	-0.090152815
10	0xbd954dc1	-0.07290221
11	0x3db15db9	0.08660454
12	0xbdecfa5c	-0.1157119
13	0xbb61947d	-0.0034420781
14	0xbe14901f	-0.14508103
15	0x3dbab3ce	0.09116326
16	0xbc821cc2	-0.015882853
17	0x3ce54d02	0.027990822
18	0xbc52d543	-0.012868228
19	0xbd38a6ee	-0.04508107
20	0x3c3e9492	0.011632102
21	0xbdd69cb4	-0.104791075
22	0x3da0c411	0.07849897
23	0xbd198f8d	-0.037490416
24	0x3d20659a	0.039159395
25	0xbd40ced8	-0.04707226
26	0x3d1ea2fd	0.038729656
27	0xbe2f6ace	-0.17130587
28	0x3d192c69	0.03739587
29	0xbb3f04ee	-0.0029147225
30	0x3ddb2e58	0.10702199
31	0xbd88b64a	-0.06675394
32	0x3e13325d	0.14374681
33	0x3e1b65d2	0.1517556
34	0xbb1ab12d	-0.002360414
35	0x3dd2f543	0.10300686
36	0x3d076c15	0.03306206
37	0xbddd4920	-0.10804963
38	0x3d838315	0.06421486
39	0x3e1088e4	0.1411472
40	0xbe13f6c9	-0.1444961
41	0x3d6fe303	0.058566105
42	0x3e1123ab	0.14173763
43	0xbe19e903	-0.15030293
44	0xbd987527	-0.0744422
45	0xbd846e5e	-0.06466363
46	0x3c5fb5d9	0.013654196
47	0x3d4bf64a	0.049795426
48	0xbdcdc368	-0.100470364
49	0xbe11d6fb	-0.14242165
50	0x3b3a380b	0.0028414752
51	0xbe1a0f7d	-0.15044971
52	0xbdbba940	-0.09163141
53	0xbca5c053	-0.020233309
54	0xbe148248	-0.14502823
55	0xbcf1d4d0	-0.029520422
56	0xbc1191a8	-0.008884825
57	0x3d5210cd	0.051285554
58	0xbd9e51da	-0.07730456
59	0x3de0087f	0.109391205
60	0xbe31251b	-0.17299311
61	0x3d80d43e	0.06290482
62	0x3dc4a16a	0.096011
63	0xbe097624	-0.13423973
64	0xbdb5c0e9	-0.08874685
65	0xbd5ca261	-0.053865794
66	0xbcac87a9	-0.021060782
67	0x3d7e1f5e	0.062041633
68	0x3de163b8	0.11005348
69	0xbc8a11c4	-0.016854174
70	0x3c33ae67	0.010966874
71	0xbdd80918	-0.105486095
72	0xbdc3b316	-0.09555642
73	0xbc435037	-0.01192098
74	0xbd82910e	-0.06375323
75	0xbb8f3917	-0.0043708193
76	0x3dc380a8	0.095460236
77	0xbd6d4df2	-0.057935663
78	0xbd54dbb6	-0.051967345
79	0xbd9e3859	-0.07725591
80	0x3c6f4c6f	0.0146056255
81	0xbc619058	-0.013767324
82	0x3e26b9c2	0.16281798
83	0x3e3fe084	0.1873799
84	0xbde3ae88	-0.111172736
85	0x3c37939e	0.011204628
86	0xbc8ce20f	-0.017197637
87	0xbd4a5cbb	-0.04940484
88	0x3d004b56	0.031321846
89	0x3d93c4e4	0.07215288
90	0xbe3c6bf4	-0.18400556
91	0xbd9ea751	-0.07746757
92	0xbc946092	-0.018112455
93	0xbe300a4c	-0.17191428
94	0xbe34d93f	-0.17660998
95	0xbe25d8be	-0.16195962
96	0xbd06c3aa	-0.032901444
97	0x3c682fcb	0.014171551
98	0x3e258759	0.16164912
99	0x3daff902	0.08592416
100	0xbd361b3a	-0.04445956
101	0x3cf1bed3	0.029509937
102	0x3d896422	0.06708552
103	0x3de24c7f	0.11049747
104	0xbbce43e0	-0.0062947124
105	0xbdb8564e	-0.09000836
106	0xbdea7792	-0.114485875
107	0x3de9bdfe	0.11413191
108	0xbe0d0ca8	-0.13774359
109	0xbe042880	-0.12906075
110	0x3c97e0b4	0.018539764
111	0x3dd3f95a	0.103502944
112	0xbd86b819	-0.065780826
113	0xbd2096f6	-0.039206468
114	0x3db2681a	0.08711262
115	0x3d83a8dc	0.06428692
116	0x3e1588f4	0.14603025
117	0x3e128f53	0.14312486
118	0xbdd54d44	-0.10415128
119	0xbd276acd	-0.040873338
120	0xbd996fd3	-0.07492032
121	0x3abf117d	0.0014577355
122	0xbcd37eb1	-0.025817247
123	0x3e5196cf	0.20467685
124	0x3e27ae4f	0.16375087
125	0xbd1796dc	-0.037009105
126	0x3ccb8dc0	0.024847865
127	0xbaec45ae	-0.0018026137
128	0x3dcb9f57	0.09942501
129	0x3dd87d09	0.105707236
130	0xbd3a1529	-0.045430336
131	0x3dd6f352	0.104956284
132	0xbd36a625	-0.04459204
133	0xbe41e23d	-0.1893396
134	0xbdeececf	-0.11660539
135	0x3e1a5ea1	0.1507516
136	0xbe1ae584	-0.15126616
137	0x3e0e2cf9	0.13884343
138	0xbd71fc65	-0.059078593
139	0x3df9604c	0.1217657
140	0x3d3c783f	0.046013113
141	0xbcbe16d2	-0.023204241
142	0xbc79e7ad	-0.01525299
143	0x3c8ec919	0.017429875
144	0x3e123c4b	0.14280812
145	0xbd9c76a8	-0.076398194
146	0xbe2bcfc7	-0.1677848
147	0x3cb8986f	0.022533624
148	0x3db1c910	0.08680928
149	0xbd8c8589	-0.06861407
150	0x3d568582	0.052373417
151	0xbd5de06e	-0.05416911
152	0x3db718c3	0.0894027
153	0x3cd073f4	0.025445916
154	0xbd19ba1e	-0.03753101
155	0xbdfc5c72	-0.1232232
156	0xbd79dd4f	-0.061002072
157	0x3dceb780	0.100935936
158	0xbc8a720a	-0.016900081
159	0xbdffbe48	-0.12487465
160	0x3d864594	0.0655624
161	0xbcef425e	-0.029206451
162	0xbd5b9b98	-0.053615183
163	0x3c8fa469	0.017534452
164	0xbd104bbf	-0.035228487
165	0x3d503f8f	0.050841864
166	0xbdfd2181	-0.12359906
167	0xbc35a88a	-0.011087546
168	0xbc226550	-0.00991185
169	0xbaf9b2cf	-0.0019050481
170	0x3d748182	0.05969382
171	0x3e04a320	0.12952852
172	0x3d8a482b	0.06752046
173	0x3d9ef620	0.07761788
174	0x3e580a99	0.21097793
175	0x3e280c3c	0.16410917
176	0x3af8bc66	0.0018977046
177	0x3dd8571b	0.10563489
178	0x3e14ccbf	0.1453123
179	0x3da42b35	0.080160536
180	0xbd92419f	-0.071414225
181	0xbd6cd60c	-0.05782132
182	0x3d397127	0.045273926
183	0xbd7ca5e2	-0.061681636
184	0x3e07df7e	0.13268849
185	0xbbf5b936	-0.0074988855
186	0x3c96ce31	0.018408867
187	0x3c2b86ea	0.010469178
188	0xbdd74618	-0.10511416
189	0x3dc669f9	0.096881814
190	0xbd3695e2	-0.044576533
191	0x3e436c2e	0.19084236
192	0x3e09a36b	0.13441245
193	0xbd2cf9c5	-0.042230386
194	0xbda6bda4	-0.0814164
195	0x3e421ade	0.18955562
196	0xbddcc192	-0.10779108
197	0x3df17409	0.1178971
198	0xbd32031e	-0.043460004
199	0xbd6fff1b	-0.058592897
200	0xbd1d542c	-0.03841035
201	0xbe082144	-0.1329394
202	0x3ba85450	0.005137004
203	0x3d60a083	0.054840576
204	0xbc2c28b9	-0.010507756
205	0xbe1ecc4c	-0.1550762
206	0x3d96dbfa	0.07366176
207	0x3d067a71	0.032831613
208	0xbc0f8f03	-0.008762124
209	0x3db7f67f	0.08982562
210	0xbbe9c989	-0.0071346206
211	0x3dc2788f	0.09495651
212	0xbd1e5167	-0.03865185
213	0x3d676569	0.056493197
214	0x3dbe27eb	0.092849575
215	0xbd742dd3	-0.059614014
216	0x3de83c80	0.113396645
217	0xbe45ac20	-0.19303942
218	0x3e39bf02	0.1813927
219	0xbc7ab147	-0.015301055
220	0x3e1448a7	0.1448084
221	0x3d4de005	0.05026247
222	0x3dd74bce	0.105125055
223	0xbd76bc13	-0.060237955
224	0x3decdce8	0.11565572
225	0x3dc1d538	0.094644964
226	0x3db694a6	0.08915071
227	0xbd556615	-0.052099306
228	0xbcf68e59	-0.030097174
229	0x3da43aa5	0.08018998
230	0x3d9c759e	0.07639621
231	0xbd93665c	-0.07197258
232	0x3e212ad5	0.15738995
233	0x3dc516fa	0.09623523
234	0xbc0f0c65	-0.008730982
235	0xbd895055	-0.06704775
236	0x3d6fc855	0.05854066
237	0xbdce8539	-0.10084004
238	0x3de5747b	0.112038575
239	0x3ddbde65	0.10735778
240	0xbdad7997	-0.08470457
241	0x3db91ad2	0.09038319
242	0xbbdf0e33	-0.0068071126
243	0xbd9dc6b8	-0.07703918
244	0xbe356297	-0.1771339
245	0xbd925533	-0.07145157
246	0x3d9f235d	0.07770417
247	0xbd852661	-0.06501461
248	0x3e058ec0	0.13042736
249	0xbcbdb4af	-0.023157446
250	0x3c3ef493	0.011654991
251	0xbd355b63	-0.044276606
252	0xbdb3ce55	-0.08779589
253	0xbd98fb0b	-0.07469758
254	0x3d2d8552	0.042363472
255	0xbd3d0336	-0.04614564

model.cnn_input_1.3.bias f4 [8]
0	0x3d37437f	0.044742104
1	0xbdf5a60b	-0.11994561
2	0x3e13e6a1	0.14443447
3	0x3ceeabdd	0.029134685
4	0xbd30d1ba	-0.04316876
5	0x3de9b68e	0.11411773
6	0x3c570453	0.01312359
7	0x3dd6ccfb	0.10488316

model.cnn_input_2.0.weight f4 [8]
0	0x3f81c804	1.0139165
1	0x3f6c5fa5	0.9233344
2	0x3f803581	1.0016328
3	0x3f850827	1.0393113
4	0x3f7b0ddc	0.9806802
5	0x3f7cdd12	0.98774827
6	0x3f7e98ed	0.99452096
7	0x3f829295	1.0200983

model.cnn_input_2.0.bias f4 [8]
0	0x3d19634c	0.037448213
1	0xbb3e5f2e	-0.002904843
2	0x3a4b52dc	0.00077561825
3	0x3c8eace0	0.017416418
4	0xbbda1d39	-0.0066563156
5	0xbc360e2e	-0.011111779
6	0x3cec83ef	0.028871505
7	0x3d4e0327	0.050295975

model.cnn_input_2.0.running_mean f4 [8]
0	0x3ed3ffc6	0.41406077
1	0x3922422a	0.00015474172
2	0x3e93481f	0.28765962
3	0x3e90c541	0.28275493
4	0x3f023c53	0.508733
5	0x3f16b0a9	0.5886331
6	0x3e8f8d53	0.2803751
7	0x3ee9243c	0.45535457

model.cnn_input_2.0.running_var f4 [8]
0	0x3e896ca9	0.26840714
1	0x37436240	1.1645781e-05
2	0x3e01ef9e	0.12689063
3	0x3e2dab77	0.1695994
4	0x3e5b1a24	0.2139669
5	0x3e569bba	0.20957842
6	0x3db775de	0.08958028
7	0x3ea784ee	0.32718605

model.cnn_input_2.1.weight f4 [16, 8, 5]
0	0x3e079b5c	0.13242859
1	0xbb12e3a8	-0.0022413526
2	0xbda350e7	-0.07974415
3	0xbe09ab97	-0.13444363
4	0x3d8746ee	0.06605326
5	0xbd701e6b	-0.05862276
6	0xbd89d897	-0.06730764
7	0xbd2795d1	-0.04091436
8	0xbcb82278	-0.022477373
9	0xbb4b5466	-0.0031025647
10	0xbd5c5868	-0.05379525
11	0x3c9ea03f	0.01936352
12	0x3d595ee9	0.05306903
13	0xbdbbf680	-0.091778755
14	0x3d2a66e2	0.041602023
15	0x3e06d1a4	0.13165909
16	0xbda12b87	-0.0786963
17	0x3deabb48	0.11461502
18	0xbbec8fcb	-0.00721929
19	0x3c37254d	0.011178327
20	0xbe04af5e	-0.12957522
21	0x3dcdc2bc	0.10046908
22	0xbd139215	-0.036027987
23	0x3e31133e	0.17292497
24	0xbc96b696	-0.01839761
25	0x3df1b81c	0.11802694
26	0xbc9ac77b	-0.018893948
27	0xbdc59f2a	-0.09649499
28	0x3e506e68	0.20354617
29	0x3d6e1011	0.05812079
30	0xbd95e859	-0.073197074
31	0xbcbf77c3	-0.023372537
32	0xbd176d4f	-0.03696948
33	0xbd8418e8	-0.06450063
34	0xbda5e833	-0.08100929
35	0x3c5d8dbd	0.013522563
36	0x3d42b4b2	0.047535606
37	0xbe0b9ce1	-0.13634063
38	0xbe07a465	-0.13246305
39	0xbd99eef2	-0.07516278
40	0x3d0ac7e6	0.033882044
41	0xbddc23ad	-0.10748992
42	0xbd65ccab	-0.05610339
43	0x3c52a54e	0.0128567945
44	0xbdcdec48	-0.10054833
45	0x3cf2781d	0.02959829
46	0x3cc7d49e	0.024393376
47	0xbd0945d3	-0.033513855
48	0xbe16a0d4	-0.14709789
49	0xbd40cd40	-0.04707074
50	0xbce64f15	-0.028113881
51	0x3d93d7a6	0.07218866
52	0xbe16036f	-0.14649747
53	0xbd1486d5	-0.0362614
54	0xbd96870e	-0.073499784
55	0x3e05908a	0.13043419
56	0x3a981b8e	0.0011604892
57	0xbdfdcb05	-0.123922385
58	0x3de80c0c	0.11330423
59	0x3e163fd6	0.14672789
60	0x3d3e1ba9	0.046413098
61	0x3db8a593	0.09015956
62	0xbd2e6b5f	-0.042582866
63	0xbdc46ee9	-0.09591467
64	0xbcdb1b1d	-0.026746327
65	0x3dc3b19f	0.09555363
66	0x3d525812	0.05135352
67	0x3dc5ff26	0.09667806
68	0x3c9608c1	0.018314721
69	0x3e0c70e7	0.13714944
70	0xbdc29131	-0.09500349
71	0xbe11eea0	-0.14251184
72	0xbb8f85aa	-0.0043799477
73	0xbdb55785	-0.08854584
74	0xbd872e3c	-0.066006154
75	0xbc8cddbf	-0.01719558
76	0x3ce55009	0.027992265
77	0xbaa95e21	-0.0012921729
78	0xbe2365df	-0.1595683
79	0xbdd95b30	-0.10613096
80	0xbc067443	-0.00820643
81	0xbda70c31	-0.08156622
82	0x3ddb29dd	0.10701344
83	0x3cc78908	0.024357334
84	0x3db28553	0.08716836
85	0x3e2ef103	0.17084126
86	0xbdf75190	-0.12076104
87	0x3dc07eea	0.09399207
88	0x3d00949c	0.031391725
89	0x3e146181	0.1449032
90	0x3df75422	0.12076594
91	0xbd09fa13	-0.033685755
92	0xbce9ca1e	-0.02853876
93	0x3d6eb8a5	0.05828156
94	0xbd5d6319	-0.054049585
95	0x3df22a03	0.11824419
96	0xbda81a6c	-0.082081646
97	0xbd4d089c	-0.05005704
98	0xbd22b040	-0.039718866
99	0x3cc6b3fe	0.024255749
100	0xbd86a125	-0.06573705
101	0xbc84e095	-0.01622037
102	0x3d84a13a	0.06476064
103	0x3e04e59a	0.12978211
104	0xbe28f59e	-0.16499946
105	0x3db43f7d	0.08801172
106	0x3dd66794	0.10468975
107	0x3d840548	0.0644632
108	0xbd926df5	-0.07149879
109	0xbd62c2f2	-0.055361696
110	0x3e1f17d7	0.15536438
111	0x3d26d967	0.040734675
112	0xbda457b5	-0.08024541
113	0xbd3c47b8	-0.045966834
114	0xbe1a6be2	-0.15080217
115	0xbd8d43e8	-0.06897718
116	0xbe203b3d	-0.15647598
117	0xbdc07e96	-0.09399144
118	0x3de28a51	0.11061538
119	0x3e044ae6	0.12919196
120	0xbc24c355	-0.010056336
121	0xbdf22ce3	-0.11824968
122	0x3d9a509c	0.07534906
123	0x3dad0fe8	0.084502995
124	0x3dfaf3c7	0.12253528
125	0xbdfbb341	-0.12290049
126	0x3dfe84ec	0.124276966
127	0xbc8256a9	-0.015910463
128	0x3c15bf93	0.009139913
129	0x3c85adb8	0.016318187
130	0xbd672752	-0.056433983
131	0x3ddc6e9a	0.10763283
132	0x3db18dca	0.08669622
133	0xba4eb70e	-0.00078855536
134	0x3a0555f1	0.00050863536
135	0x3d8f5174	0.06997958
136	0xbc87e5e3	-0.01658911
137	0x3a87ef6a	0.0010371034
138	0x3c477409	0.012173661
139	0xbdb4803a	-0.0881352
140	0x3dd0e042	0.10199024
141	0xbd9d7e1e	-0.076900706
142	0x3da0cdbc	0.07851741
143	0xbd96f9b2	-0.07371844
144	0xbd91c0f5	-0.07116882
145	0x3e3116a7	0.17293797
146	0x3d9bb3b0	0.07602632
147	0x3db9f553	0.09079995
148	0xbdbc2d86	-0.091883704
149	0x3df6610f	0.12030231
150	0x3ddce5a7	0.1078599
151	0xbd76ad7e	-0.06022405
152	0x3da7f378	0.08200735
153	0x3de44a2b	0.11146959
154	0xbde094fd	-0.10965917
155	0x3da2d49b	0.079507075
156	0x3d9f2258	0.077702224
157	0x3ceb42d8	0.028718397
158	0x3df269ec	0.11836609
159	0x3d183d1c	0.037167653
160	0xbc9d06ec	-0.01916834
161	0xbd340d7b	-0.04395817
162	0xbe12cef5	-0.1433676
163	0xbd492c2b	-0.049114387
164	0x3d769976	0.060204946
165	0x3d337442	0.043812044
166	0x3c3bdaec	0.011465769
167	0xbcb91be1	-0.022596302
168	0x3c21750e	0.009854568
169	0xbe05b8ec	-0.13058823
170	0x3cb671bc	0.02227103
171	0xbda190f6	-0.07888977
172	0xbe25261c	-0.16127819
173	0xbe06c058	-0.13159311
174	0x3c24f024	0.01006702
175	0x3dd1ae8a	0.10238369
176	0x3cd9b9fc	0.026577942
177	0xbe0eb25c	-0.13935226
178	0x3dec4a97	0.115376644
179	0xbd5f8241	-0.05456758
180	0x3d021481	0.031757835
181	0xbc9c180b	-0.019054433
182	0xbda0bbd7	-0.078483276
183	0x3daf21f1	0.08551396
184	0xbcf918f6	-0.03040741
185	0x3dff10c2	0.12454368
186	0xbcc0c99e	-0.023533639
187	0xbddf3487	-0.10898691
188	0xbd8007ed	-0.06251512
189	0x3e19e1a1	0.15027477
190	0x3d6e01ef	0.058107313
191	0xbd546185	-0.051850814
192	0xbd9ed091	-0.07754625
193	0x3df823a5	0.12116174
194	0x3e0a25d5	0.13490994
195	0xbd552ac8	-0.052042753
196	0x3dec9a8a	0.115529135
197	0xbdbf4dfe	-0.09341048
198	0xbdb2e452	-0.08734955
199	0x3dd29b61	0.102835424
200	0x3c7b77d8	0.015348397
201	0x3d28a681	0.041174415
202	0xbdbfec3e	-0.093712315
203	0xbdae3e23	-0.085079454
204	0x3aa84d76	0.0012840468
205	0xbd6b713e	-0.057481043
206	0xbe154350	-0.14576459
207	0x3d81172a	0.06303246
208	0xbdaacfb2	-0.08340396
209	0x3dce7a3e	0.100819096
210	0xbdd8aa48	-0.105793536
211	0x3cd482c4	0.02594126
212	0xbdd364e3	-0.10321977
213	0x3da1e424	0.079048425
214	0x3d8f3fa2	0.06994559
215	0x3da6e98e	0.08150016
216	0xbdcee078	-0.10101408
217	0xbdc35ea6	-0.09539537
218	0x3df21ef7	0.11822312
219	0x3c6e800f	0.014556899
220	0x3def4d0c	0.116846174
221	0xbdbadf68	-0.091246426
222	0xbd95e366	-0.073187634
223	0x3b9ae86a	0.004727413
224	0x3dad6ead	0.08468375
225	0x3be0b06c	0.0068569686
226	0x3e2c1994	0.16806632
227	0x3df6645a	0.12030859
228	0x3d819b1f	0.06328415
229	0xbddfb0fe	-0.109224305
230	0x3e10dc73	0.14146595
231	0xbdf5792d	-0.11986003
232	0x3e22049a	0.15822068
233	0xbde4fa24	-0.11180523
234	0x3dbc5953	0.09196725
235	0x3dc760fa	0.09735294
236	0x3d96b158	0.073580444
237	0x3d4e96e1	0.050436858
238	0x3e238e2c	0.15972203
239	0x3bfb4654	0.007668296
240	0xbb9942aa	-0.0046771364
241	0x3c3e5a02	0.011618139
242	0x3d999b0f	0.07500278
243	0x3c7587f6	0.014986029
244	0xbe1037f5	-0.14083846
245	0xbe1af2b2	-0.15131643
246	0x3e0ac230	0.13550639
247	0xbe0475f1	-0.12935616
248	0xbca9b903	-0.020718103
249	0x3dbd1a54	0.09233537
250	0xbc8fa0ed	-0.01753279
251	0xbd3122f5	-0.04324623
252	0xbdc83ff0	-0.0977782
253	0x3c38f8ed	0.011289817
254	0x3d44f4d1	0.048085038
255	0xbc771f64	-0.015083168

model.cnn_input_2.1.bias f4 [16]
0	0x3db98750	0.09059012
1	0xbde6a042	-0.112610355
2	0xbde29de9	-0.11065275
3	0xbce86088	-0.028366342
4	0x3e0542da	0.13013783
5	0x3cfd4bc9	0.030919926
6	0xbd4d48d9	-0.0501183
7	0x3e38c5bb	0.18044178
8	0xbde0cf1e	-0.109770045
9	0xbe487fea	-0.19580045
10	0xbd99584a	-0.07487543
11	0xbde3c349	-0.11121232
12	0xbe0939be	-0.13400933
13	0x3d59f259	0.053209636
14	0x3d7e9924	0.062157765
15	0x3c4d02c9	0.012512871

model.cnn_input_2.3.weight f4 [16, 16, 5]
0	0x3d89997b	0.06718727
1	0xbd8a7d6a	-0.06762202
2	0x3c5eddb0	0.013602659
3	0xbcca41f4	-0.024689652
4	0xbcea58f4	-0.02860687
5	0x3d0ed203	0.03486825
6	0xbc9ee950	-0.019398361
7	0xbb819fb1	-0.0039558043
8	0xbd835ea8	-0.064145386
9	0xbdd6b129	-0.10483009
10	0xbdac9ac7	-0.08427959
11	0x3d707090	0.058701098
12	0x3de57952	0.11204781
13	0xbca75c98	-0.020429894
14	0xbd9aa781	-0.0755148
15	0xbd315a65	-0.043299098
16	0x3b41b6cd	0.002955842
17	0xbd337b4b	-0.043818753
18	0xbd9d1f76	-0.07672016
19	0x3d25f59a	0.040517427
20	0xbd4b3b11	-0.049616877
21	0xbd73174c	-0.05934839
22	0xbce809c3	-0.028324967
23	0xbdd4a882	-0.10383703
24	0xbdd436ef	-0.1036204
25	0x3d037350	0.032092392
26	0x3d83311b	0.064058505
27	0x3d886c94	0.06661335
28	0xbdd3bf59	-0.10339231
29	0x3d5346ac	0.05158107
30	0x3da3185f	0.07963633
31	0x3db2542a	0.08707459
32	0x3cd363a9	0.025804358
33	0xbde82a32	-0.11336173
34	0x3c324c6a	0.010882476
35	0xbd2e6f40	-0.042586565
36	0xbd421f4d	-0.047393132
37	0xbd41fbdf	-0.047359344
38	0xbd86ee61	-0.06588436
39	0xbcd685ac	-0.026186787
40	0x3d5bd11c	0.05366622
41	0x3d10f518	0.03538999
42	0xbcfc85d3	-0.030825531
43	0xbd93042b	-0.07178529
44	0xbdb22f5f	-0.087004416
45	0xbd38f886	-0.045158885
46	0xbca88f2f	-0.020576088
47	0xbdff2797	-0.12458723
48	0x3dabb53a	0.083841756
49	0xbca94ffb	-0.02066802
50	0x3ca76b2e	0.02043685
51	0xbda060dc	-0.078309745
52	0x3d114c78	0.035473317
53	0x3e059742	0.13045982
54	0xbc9eb417	-0.019372983
55	0xbcd2f7ab	-0.025752863
56	0xbc5ce88b	-0.013483177
57	0xbda41f7c	-0.08013818
58	0x3b2d2bfa	0.0026423917
59	0xb9b4bcf3	-0.00034473054
60	0x3c902e15	0.017600099
61	0xbcc9ca71	-0.024632664
62	0xbc81d71c	-0.015849642
63	0xbcce7b11	-0.025205167
64	0xbca36d4b	-0.019949576
65	0xbdcf4c39	-0.1012196
66	0xbdce2ea6	-0.10067491
67	0x3d705282	0.058672436
68	0x3dd30677	0.103039674
69	0x3bffaf26	0.0078028617
70	0xbd4dabe1	-0.050212745
71	0xbc551836	-0.013006261
72	0xbb9eb7c1	-0.0048436825
73	0x3db239ea	0.087024525
74	0xbcb137fa	-0.021633137
75	0x3cd4e739	0.025989162
76	0xbdaba828	-0.08381683
77	0x3de9e3f1	0.114204295
78	0x3d324491	0.04352242
79	0x3cb37a4c	0.021908902
80	0xbc82690e	-0.015919235
81	0x3d5030bf	0.050827738
82	0xbdf94bfa	-0.121726945
83	0xbda85695	-0.08219639
84	0xbd2ae787	-0.041724708
85	0xbd7b6c12	-0.06138236
86	0xbd1798e4	-0.037011042
87	0xbdbb553a	-0.09147115
88	0x3d539999	0.051660154
89	0xbc1119c3	-0.00885624
90	0x3e03aeaf	0.12859605
91	0xbb50f10f	-0.0031881963
92	0x3d9459e8	0.07243711
93	0x3cbff5c7	0.023432625
94	0xbd913c04	-0.07091525
95	0x3ca305bb	0.019900193
96	0xbd3d3ad9	-0.0461987
97	0xbb06de26	-0.0020579188
98	0xbda1a236	-0.078922674
99	0xbdd14507	-0.10218244
100	0x3d769235	0.060198028
101	0x3dc7765e	0.097393736
102	0xbd242eed	-0.040083814
103	0xbcf70a1c	-0.030156188
104	0x3d486885	0.048927803
105	0xbd2934ce	-0.041310124
106	0x3d8b925f	0.068150274
107	0x3d725b4e	0.059169106
108	0xbd07d487	-0.033161666
109	0xbc8fe4ca	-0.01756515
110	0x3da986a6	0.08277635
111	0xbd4ca866	-0.049965285
112	0xbd0fa7a3	-0.03507198
113	0xbca7aeae	-0.020469036
114	0xbde0c92f	-0.10975873
115	0x3d54da25	0.05196585
116	0xb926260f	-0.00015845172
117	0x3d816500	0.06318092
118	0x3d6da0b4	0.058014587
119	0xbe1caaf1	-0.15299584
120	0xbd76119f	-0.0600754
121	0x3d972d21	0.073816545
122	0x3d1b44a9	0.037907276
123	0xbd7cd1b0	-0.06172341
124	0xbdcfbe21	-0.10143686
125	0x3ccd679e	0.025073823
126	0x3d7e681c	0.062111005
127	0x3ae24b40	0.0017264858
128	0xbcecaed1	-0.028891953
129	0xbba08103	-0.004898192
130	0xbcb4fe15	-0.022093812
131	0xbd786a8d	-0.06064849
132	0xbdb73268	-0.08945161
133	0xbd775492	-0.060383387
134	0xbda0ba03	-0.07847979
135	0xbe1cebbe	-0.15324304
136	0x3cf852dd	0.03031295
137	0x3c9796bf	0.018504499
138	0xbd544309	-0.051821742
139	0xbcc5f0d4	-0.024162687
140	0xbce77d5f	-0.028258024
141	0x3c0a479e	0.008439926
142	0xbd21a01a	-0.039459325
143	0x3df8bf4c	0.12145862
144	0xbd48abf5	-0.048992116
145	0x3dd968ae	0.10615669
146	0xbcf5dd2e	-0.030012693
147	0x3de8177d	0.11332605
148	0x3d0a6d50	0.033795655
149	0xbbafc6cd	-0.005364275
150	0xbda42e33	-0.08016624
151	0x3da919c4	0.082568675
152	0xbd3d3636	-0.046194278
153	0x3cc08f61	0.023505868
154	0x3d47459c	0.04865037
155	0xbdd9489a	-0.10609551
156	0x3b8b5fbc	0.004253356
157	0xbd5df3f2	-0.054187723
158	0xbd8ecb9a	-0.06972428
159	0xbdb4b5a0	-0.08823705
160	0x3d862e46	0.06551795
161	0x3dabdfd0	0.08392298
162	0x3c782119	0.01514461
163	0xbd833220	-0.06406045
164	0x3d9725de	0.073802695
165	0xbdf2d02f	-0.11856114
166	0xbdd0b0fc	-0.10190007
167	0xbde2de36	-0.110775396
168	0xbd5c7d2a	-0.053830303
169	0xbd9ced6a	-0.07662471
170	0xbdfdf385	-0.12399963
171	0xbd235744	-0.039878145
172	0x3d2d217e	0.04226827
173	0x3ddd19f4	0.10795966
174	0xbd9a0081	-0.07519627
175	0xbd12077b	-0.035651665
176	0xbce27058	-0.02764146
177	0xbcc7aa56	-0.024373215
178	0xbd8e2ca2	-0.06942107
179	0x3cd382cc	0.025819205
180	0xbdb179fb	-0.08665844
181	0x3d0a4858	0.0337604
182	0xbe093050	-0.13397336
183	0xbdaa9a51	-0.08330215
184	0x3d6d8eb6	0.057997428
185	0x3d7e3baf	0.062068637
186	0xbcf3c9c0	-0.029759288
187	0xbc8e1c3e	-0.017347451
188	0x3da783aa	0.0817941
189	0x3df8ceb7	0.12148803
190	0xbd9990ca	-0.074983194
191	0xbe2fb648	-0.17159379
192	0xbd8c4f18	-0.068510234
193	0xbe0f1547	-0.1397296
194	0xbc67097d	-0.014101383
195	0x3ce6ffe1	0.028198184
196	0xbbec31d1	-0.007208087
197	0x3dde3bb6	0.10851233
198	0x3d79ed5a	0.06101737
199	0x3d91168a	0.07084377
200	0x3d380feb	0.044937056
201	0x3cd4b4b2	0.025965068
202	0xbd4f2b04	-0.050578132
203	0xbd2c4515	-0.04205807
204	0x3d9a4a9f	0.07533764
205	0x3c255202	0.010090353
206	0x3dc8b5bc	0.09800288
207	0xbbf0bef8	-0.007346984
208	0xbd1e91f1	-0.0387134
209	0xbcc39262	-0.023873512
210	0x3d6de39a	0.058078386
211	0x3d88e179	0.066836305
212	0xbdfa1c46	-0.12212424
213	0xbce40ee6	-0.027839135
214	0xbc4a02ae	-0.01232974
215	0x3cca5939	0.024700748
216	0xbe05478e	-0.13015577
217	0x3d4f19f8	0.050561875
218	0xbd537f75	-0.051635224
219	0xbdd4f4fa	-0.10398288
220	0x3d72bae8	0.05926028
221	0x3d43d341	0.04780889
222	0xbda12053	-0.078674935
223	0x3daf2b6c	0.08553204
224	0xbd6cda67	-0.057825472
225	0xbd52ca24	-0.051462308
226	0x3d1700c4	0.036865965
227	0xbdcf8317	-0.10132425
228	0xbba8d3e4	-0.0051522125
229	0xbdc695d1	-0.09696544
230	0xbaafc1f2	-0.0013409241
231	0xbcb744e9	-0.022371726
232	0xbdedfee7	-0.116208844
233	0x3d46642c	0.048435375
234	0xbd584d98	-0.052808374
235	0x3bc948d4	0.006142715
236	0xbd82791c	-0.06370756
237	0xbd47bbcd	-0.048763085
238	0x3dc3d151	0.09561408
239	0xbd3141a8	-0.043275505
240	0x3dacf26e	0.08444677
241	0xbbfea0fc	-0.0077706557
242	0xbdbf65e3	-0.09345605
243	0x3c321c24	0.010870967
244	0xbd820322	-0.06348254
245	0xbc389229	-0.011265316
246	0x38d49036	0.00010135809
247	0xbd70aa11	-0.058755938
248	0xbd21f1d0	-0.03953725
249	0xbdb2b0bf	-0.08725118
250	0xbdab9804	-0.08378604
251	0x3d429250	0.047502816
252	0x3d8b960d	0.06815729
253	0xbcfe391b	-0.03103309
254	0xbd67876f	-0.056525644
255	0x3d87d39f	0.066321604

model.cnn_input_2.3.bias f4 [16]
0	0xbdf9e53d	-0.12201927
1	0x3da61543	0.08109524
2	0x3c87f5ca	0.016596694
3	0x3d9e1e4b	0.07720622
4	0xbd737713	-0.05943973
5	0xbbd882e6	-0.006607401
6	0xbb442fe7	-0.0029935779
7	0x3d84b37b	0.06479546
8	0x3db90ad9	0.09035272
9	0x3db4595b	0.08806106
10	0x3d8c39c8	0.068469584
11	0xbbaab910	-0.0052100495
12	0xbdaac944	-0.083391696
13	0xbd2fa35e	-0.04288041
14	0x3c44ecba	0.012019331
15	0xbde7239e	-0.1128609

model.cnn_input_3.0.weight f4 [16]
0	0x3f771e85	0.96530944
1	0x3f7ff42f	0.9998197
2	0x3f80dfaa	1.0068257
3	0x3f802d46	1.0013816
4	0x3f82b19f	1.0210456
5	0x3f81c6b2	1.0138762
6	0x3f7d746d	0.99005777
7	0x3f81e3d1	1.0147649
8	0x3f7d60cd	0.9897583
9	0x3f8071e1	1.0034753
10	0x3f79ce0f	0.97580045
11	0x3f857313	1.0425743
12	0x3f7c7eb9	0.98630863
13	0x3f7985ea	0.9746996
14	0x3f80b3b2	1.0054839
15	0x3f7f1aae	0.99650085

model.cnn_input_3.0.bias f4 [16]
0	0x3c0a61a9	0.008446136
1	0x3b251c3f	0.0025193838
2	0x3cd6fe27	0.026244236
3	0x3bede172	0.007259541
4	0xbc85f806	-0.016353618
5	0xbcb2360e	-0.02175429
6	0x3cb34541	0.021883609
7	0x3c87e205	0.016587267
8	0x3bbd7a9b	0.005782438
9	0xbc02f55b	-0.007993068
10	0x3ba8c4b3	0.0051504015
11	0xbcf3b869	-0.02975102
12	0x3c59a573	0.013284075
13	0xbb29705d	-0.0025854327
14	0xbb7b5163	-0.003834807
15	0xbc23c752	-0.009996252

model.cnn_input_3.0.running_mean f4 [16]
0	0x3b37da8d	0.002805385
1	0x3ddc1374	0.10745898
2	0x3e35f177	0.17767893
3	0x3e1d2693	0.15346746
4	0x3e7e6d63	0.24846415
5	0x3dc0c839	0.094131894
6	0x351a780c	5.754416e-07
7	0x3e2319e5	0.15927847
8	0x3df9dfba	0.122008756
9	0x3e239910	0.15976357
10	0x3df4ae82	0.11947347
11	0x3eabd8c6	0.33563823
12	0x3db60644	0.08887914
13	0x3d19de02	0.03756524
14	0x3e62af15	0.22137101
15	0x3d44b4c9	0.048023973

model.cnn_input_3.0.running_var f4 [16]
0	0x3ae38408	0.0017358074
1	0x3bc879fd	0.0061180578
2	0x3db3abc7	0.08772998
3	0x3c90fb72	0.017698023
4	0x3d967c6b	0.073479496
5	0x3bdc4dc6	0.0067231385
6	0x35631ad1	8.460311e-07
7	0x3d69b9df	0.057062026
8	0x3c66ccd9	0.014086925
9	0x3c1c255b	0.009530391
10	0x3d117dde	0.035520427
11	0x3d273368	0.04082051
12	0x3c0a56bc	0.008443531
13	0x3c292bc5	0.010325377
14	0x3db0c4fb	0.08631321
15	0x3b63e51a	0.0034774006

model.cnn_input_3.1.weight f4 [32, 16, 5]
0	0x3d4f91b6	0.05067607
1	0xbd930d91	-0.07180322
2	0xbd666288	-0.05624631
3	0xbd1cb88e	-0.038261943
4	0xbd8c6788	-0.068556845
5	0xbd66f5a5	-0.05638661
6	0xbd8acdfd	-0.067775704
7	0x3dc2e146	0.09515624
8	0x3d128796	0.035773836
9	0xbc9d4c9c	-0.01920157
10	0x3c5a7d29	0.013335505
11	0x3d0721ee	0.032991342
12	0x3dcba9d0	0.099444985
13	0x3d1062ca	0.035250463
14	0xbc975aa7	-0.018475844
15	0x3ccbdeec	0.02488657
16	0xbd26a323	-0.040682923
17	0xbdb89c4a	-0.09014185
18	0x3d8109c1	0.063006885
19	0x3d15b580	0.036550045
20	0xbc110999	-0.008852386
21	0xbd373bb3	-0.044734668
22	0xbd8953bb	-0.067054234
23	0xbdca46f5	-0.09876815
24	0x3d9d5ba4	0.07683495
25	0x3b9ea4ca	0.0048414217
26	0xbc7950e4	-0.01521704
27	0x3d096c38	0.03355047
28	0x3df0f33b	0.117651425
29	0xbc639cf0	-0.013892397
30	0x3d4ad47b	0.049519043
31	0xbd790731	-0.060797874
32	0xbda554ee	-0.0807284
33	0xbda88e4a	-0.082302645
34	0xb9a37243	-0.00031174914
35	0x3c1717d1	0.009221987
36	0x3dc1b6fb	0.09458729
37	0xbbb1b0cc	-0.005422687
38	0xbc998a2f	-0.018742649
39	0x3db9388f	0.09043991
40	0xbdb207bf	-0.08692884
41	0x3da5b72e	0.080915794
42	0xbd56b55c	-0.05241905
43	0xbdd495d7	-0.10380142
44	0xbd9216c5	-0.07133249
45	0x3cf021e7	0.02931304
46	0xbd1733cf	-0.036914643
47	0x3b5d5135	0.0033770327
48	0x3d60aec1	0.05485416
49	0xbcb5e198	-0.022202298
50	0x3cfcf7de	0.030879911
51	0x3cfc5c41	0.030805709
52	0x3d9b6cad	0.07589088
53	0xbd18635b	-0.037204128
54	0x3dbf6dd5	0.09347121
55	0x3df98508	0.12183577
56	0xbd90ffcc	-0.070800394
57	0x3d806c2a	0.06270631
58	0x3d7b0591	0.061284605
59	0x3e015fda	0.1263422
60	0xbd3e3813	-0.046440195
61	0xbc179bb4	-0.009253431
62	0xbd808942	-0.0627618
63	0x3e065276	0.13117394
64	0xbdcd01a5	-0.10010079
65	0x3e0a405e	0.13501117
66	0x3d5123b9	0.05105946
67	0xbdc91ca4	-0.09819916
68	0x3dc7e77d	0.0976095
69	0xbd9f2e0d	-0.07772455
70	0x3d082f49	0.03324822
71	0xbd9e5524	-0.07731083
72	0xbd9d77c0	-0.07688856
73	0xbd929b7d	-0.07158563
74	0xbd280836	-0.041023456
75	0xbd5de564	-0.054173842
76	0x3dc86721	0.09785295
77	0x3a6c974b	0.000902523
78	0x3d7574ca	0.05992583
79	0x3e1a2ca9	0.15056099
80	0xbc17339a	-0.009228611
81	0xbd0adb87	-0.033900764
82	0xbdd0f894	-0.102036625
83	0xbdba750f	-0.091043584
84	0xbdd2d99a	-0.102954105
85	0x3b84aedd	0.0040491656
86	0xbda5a0fe	-0.080873474
87	0xbd7890fa	-0.060685135
88	0x3d185e65	0.037199397
89	0xbdc0eaf4	-0.09419814
90	0x3d6f75c1	0.05846191
91	0xbc1b9af9	-0.009497398
92	0x3db61d9b	0.088923655
93	0x3d8f649a	0.0700161
94	0x3d5a8dd5	0.053357918
95	0xbc4e0b0f	-0.012575879
96	0xbe0a94df	-0.13533352
97	0x3cb78711	0.022403272
98	0x3cfb5b9d	0.030683333
99	0x3d3a9dc9	0.045560632
100	0x3b75e1c9	0.0037518612
101	0xbe0c52d3	-0.1370347
102	0xbdeed799	-0.11662216
103	0x3d309c79	0.043117974
104	0xbd450fa6	-0.048110627
105	0x3ddca952	0.10774483
106	0x3d96232b	0.073309265
107	0x3d62789e	0.05529081
108	0xbad11ec3	-0.0015954602
109	0x3c82966b	0.015940866
110	0x3d18977e	0.03725385
111	0x3c9f86f4	0.01947353
112	0x3d3e5328	0.046466023
113	0x3abb67fe	0.001429796
114	0x3d8a2abf	0.067464344
115	0xbc16a684	-0.009194974
116	0xbda23ced	-0.07921777
117	0xbda1fec8	-0.07909924
118	0xbdd25dbd	-0.102717854
119	0x3cfecdff	0.031104086
120	0xbd51e75c	-0.051246032
121	0xbdc07d19	-0.093988605
122	0xbdb8148b	-0.08988293
123	0xbdc7aa86	-0.09749322
124	0xbdff466a	-0.12464602
125	0x3c582709	0.0131929
126	0x3d1a9866	0.037742995
127	0xbd2396bf	-0.039938685
128	0x3dad8b69	0.08473856
129	0x3ddcbf90	0.10778725
130	0xbd04dc36	-0.032436572
131	0x3d21524a	0.039385118
132	0x3d8aaeec	0.06771645
133	0xbd1e7382	-0.038684376
134	0xbc39d467	-0.011342145
135	0x3e002601	0.12514497
136	0xbd9249ea	-0.07143004
137	0x3d57d9b1	0.05269784
138	0x3c5e6d3e	0.01357585
139	0x3d2e27ba	0.042518355
140	0xbd92eb70	-0.071738124
141	0xbd6191c9	-0.055070672
142	0xbbbeb5e4	-0.005820023
143	0x3d8b02ca	0.06787641
144	0xbd2f1351	-0.04274303
145	0xbd57f535	-0.052724082
146	0x3d71d08b	0.059036773
147	0xbd0179a4	-0.031610146
148	0xbbd6f974	-0.006560499
149	0xbd8cdf4e	-0.068785295
150	0x3d3b8b14	0.045786932
151	0xbdf121ff	-0.11774062
152	0xbdc380de	-0.09546064
153	0x3d9be4a7	0.07611971
154	0x3d2246c7	0.03961828
155	0x3d558570	0.05212921
156	0xbd0a9b66	-0.033839606
157	0xbcc41a71	-0.02393839
158	0x3d8042d8	0.062627494
159	0x3da38167	0.07983666
160	0x3dc1358b	0.09434041
161	0xbd49f1cc	-0.04930286
162	0xbdd7db59	-0.10539884
163	0x3dc9d72e	0.098554954
164	0xbdad4cb7	-0.08461898
165	0x3d5d069e	0.05396139
166	0x3def4233	0.116825484
167	0xbd49aadc	-0.04923521
168	0x3c314027	0.010818518
169	0xbd86b566	-0.06577568
170	0xbd80d19f	-0.06289982
171	0x3dd1a7d8	0.10237092
172	0x3d96e505	0.07367901
173	0xbde19fb8	-0.11016792
174	0xbdd5993d	-0.104296185
175	0x3d06eb06	0.03293898
176	0x3d6d608a	0.057953395
177	0x3cb9fa00	0.022702217
178	0x3d9de3c2	0.07709457
179	0x3c8a3848	0.01687254
180	0xbd6f2b4f	-0.05839091
181	0x3d16975f	0.036765452
182	0xbd8ffa73	-0.07030191
183	0xbda0a78e	-0.078444585
184	0x3d88bf1f	0.066770785
185	0xbce28678	-0.02765201
186	0xbd763557	-0.060109463
187	0xbc7c189f	-0.0153867295
188	0x3d6a53db	0.057208877
189	0xbda857fd	-0.082199074
190	0xbdbd48ce	-0.09242402
191	0x3c31120b	0.010807524
192	0x3c2a39f4	0.010389794
193	0x3cb42571	0.02199051
194	0x3c249bd2	0.010046916
195	0x3bb24900	0.005440831
196	0xbcaa33e8	-0.020776704
197	0x3d86de20	0.06585336
198	0x3d0cbf09	0.034361873
199	0xbc67e9cf	-0.014154865
200	0xbcba4f8c	-0.022743009
201	0x3d883f59	0.066527076
202	0x3c8d7dd5	0.017271915
203	0xbd07ba23	-0.0331365
204	0x3d8ee5b4	0.06977406
205	0xbd70bbc2	-0.05877281
206	0xbdfd15fb	-0.12357708
207	0x3d89042c	0.06690249
208	0xbd0df523	-0.03465761
209	0xbbc81076	-0.006105478
210	0xbdafb179	-0.08578772
211	0x3cbc686d	0.022999013
212	0xbd41d70c	-0.047324225
213	0x3df3d59b	0.119059764
214	0x3dc16549	0.09443147
215	0xbc102b7c	-0.00879943
216	0xbcf1b244	-0.029503949
217	0x3afe794d	0.0019414813
218	0xbe1a7aa9	-0.15085854
219	0xbded7b9b	-0.115958415
220	0x3d4aeb4b	0.0495408
221	0xbdb16511	-0.08661855
222	0x3be9e79f	0.007138207
223	0xbbd4d2dc	-0.006494863
224	0x3daffb48	0.0859285
225	0x3d41968c	0.047262713
226	0xbd714987	-0.05890801
227	0x3d7e01e5	0.062013526
228	0xbd094c0a	-0.033519782
229	0xbd4aaadf	-0.04947936
230	0xbcc6ed4f	-0.02428308
231	0x3d6c556c	0.057698652
232	0xbd60959f	-0.05483019
233	0xbdc80154	-0.09765878
234	0xbdaac31f	-0.08337998
235	0x3ccdcff1	0.025123568
236	0xbdf62127	-0.12018042
237	0xbd6adc8b	-0.057339232
238	0x3d8d6e45	0.06905798
239	0xbce7cbb8	-0.028295383
240	0xbbe573d4	-0.007002333
241	0x3bf25b48	0.0073961355
242	0xbb82812f	-0.003982685
243	0x3dc5315a	0.09628554
244	0xbd9bb253	-0.07602372
245	0x3cd67b52	0.02618185
246	0xbc048e56	-0.008090576
247	0x3be21043	0.006898911
248	0xbc155809	-0.0091152275
249	0xbd9b626c	-0.07587132
250	0x3aa08859	0.0012247666
251	0xbda50dae	-0.0805925
252	0xbca85362	-0.020547573
253	0x3d5315b3	0.051534366
254	0x3db3bb20	0.08775926
255	0xbd532fce	-0.051559262

model.cnn_input_3.1.bias f4 [32]
0	0xbdbdaac3	-0.09261086
1	0x3d79afa7	0.06095853
2	0x3dbd55f5	0.09244911
3	0x3d087749	0.033316884
4	0xbcbf11b3	-0.02332387
5	0x3da15939	0.07878346
6	0x3db09ecd	0.08624039
7	0xbda04bc5	-0.07826952
8	0xbd22398a	-0.039605655
9	0xbd6af8ca	-0.05736617
10	0x3d824819	0.06361408
11	0xbd1812c1	-0.03712726
12	0x3d45c06d	0.048279215
13	0x3d997ef8	0.074949205
14	0xbd107b57	-0.035273876
15	0x3d6bef67	0.05760136
16	0xbde6d4c2	-0.11271049
17	0xbd825bef	-0.06365191
18	0x3d017091	0.031601492
19	0x3d9a12a2	0.07523085
20	0x3d67b75b	0.056571346
21	0xbdb9798e	-0.09056388
22	0xbc937835	-0.018001655
23	0x3d79f1ef	0.06102174
24	0x3d8676bb	0.06565615
25	0xbd89a064	-0.06720045
26	0xbd76fe95	-0.060301382
27	0x3d04dac7	0.032435205
28	0x3d6e3764	0.058158293
29	0x3d97a489	0.074044295
30	0xbd11c485	-0.035587806
31	0x3d76cb66	0.06025257

model.cnn_input_3.3.weight f4 [32, 32, 5]
0	0x3d52fb3e	0.051509134
1	0x3cfe4940	0.031040788
2	0xbc0e92ba	-0.0087019745
3	0xbc6f75ce	-0.014615489
4	0x3d375415	0.04475792
5	0x3c2fbd22	0.010726245
6	0x3d458bf6	0.04822918
7	0x3d41a785	0.0472789
8	0xbd2f4427	-0.042789605
9	0xbd87ee4b	-0.06637248
10	0xbb6f205a	-0.003648779
11	0xbd9aac50	-0.07552397
12	0xbcd2e333	-0.025743103
13	0x3d2957cb	0.04134349
14	0x3d6d7654	0.057974175
15	0x3c8b8150	0.017029434
16	0xbdbdae7a	-0.092617944
17	0xbcc1a326	-0.023637366
18	0xbbf77586	-0.0075518517
19	0xbcec660c	-0.028857253
20	0xbbddae20	-0.006765142
21	0x3c0a4681	0.008439661
22	0xbd728103	-0.059205066
23	0xbd7221f2	-0.059114404
24	0xbdb779a3	-0.08958747
25	0xbb9c9c45	-0.004779371
26	0xbd03268c	-0.032019183
27	0x3d1e50ba	0.038651206
28	0xbcd14708	-0.025546566
29	0xbacf1ee2	-0.001580205
30	0xbd6318cb	-0.055443566
31	0xbcea19e0	-0.028576791
32	0x3da4e024	0.08050564
33	0x3b907c6b	0.004409363
34	0x3d2864ff	0.041111942
35	0xbd5b8def	-0.053602155
36	0xbcea0694	-0.02856759
37	0x3da87412	0.08225264
38	0x3d78725f	0.060655948
39	0xbcd748ca	-0.026279826
40	0xbd8fd07a	-0.070221856
41	0xbd999562	-0.07499196
42	0xbd116256	-0.03549417
43	0xbd7fcb92	-0.06245
44	0x3c58f0f5	0.013241042
45	0xbd813df6	-0.06310646
46	0x3cf59748	0.029979363
47	0x3d3897a9	0.04506651
48	0x3cf2e09d	0.02964812
49	0xbd02941c	-0.03187953
50	0xbca2bea2	-0.019866291
51	0xba605af1	-0.0008558473
52	0xbd54fb7c	-0.051997647
53	0x3cf41cec	0.029798947
54	0xbd404a6f	-0.046945985
55	0xbd0aa43d	-0.033848036
56	0xbca956b8	-0.020671234
57	0x3b9a630c	0.0047115143
58	0xbd38e966	-0.04514446
59	0xbd78bcbe	-0.060726874
60	0x3d4f233b	0.050570708
61	0xbd8765b7	-0.066111974
62	0xbcef57e5	-0.029216716
63	0xbd085969	-0.033288393
64	0xbc61a9c4	-0.013773385
65	0x3caa03bb	0.020753732
66	0xbd817628	-0.06321365
67	0xbd1a5f92	-0.0376888
68	0xbc8d613d	-0.01725828
69	0xbcba4b21	-0.022740902
70	0x3d64acf8	0.05582902
71	0x3ce3efe1	0.027824344
72	0xbd87d6a1	-0.06632734
73	0x3b35e13a	0.0027752654
74	0x3d3bf83b	0.045891028
75	0x3dadd909	0.08488662
76	0xbcf5565d	-0.029948408
77	0x3d8ac696	0.067761585
78	0x3d71b943	0.05901457
79	0x3ba498cc	0.0050230976
80	0x3d82ea6e	0.0639237
81	0x3b93e109	0.0045129103
82	0x3d759c41	0.05996347
83	0xbd1ac54e	-0.03778582
84	0x3dcbee98	0.099576175
85	0xbd7623c8	-0.060092717
86	0x3d1dadee	0.03849595
87	0xbc51e474	-0.012810815
88	0x3c9cc6b3	0.019137716
89	0x3d9706c5	0.07374338
90	0x3d45955a	0.048238136
91	0xbd420fd7	-0.047378387
92	0xbc5a012f	-0.013305946
93	0x39001182	0.00012213553
94	0xbb535727	-0.0032247992
95	0xbcc9d5c9	-0.024638074
96	0xbd61daa5	-0.055140156
97	0x3d157882	0.03649188
98	0xbc84e105	-0.016220579
99	0xbd949f58	-0.07256955
100	0xbdae84a4	-0.08521393
101	0xbce99ab6	-0.028516155
102	0xbd9aad45	-0.0755258
103	0x3d032c6e	0.032024793
104	0xbd3a2225	-0.04544272
105	0x3c1b4a59	0.009478175
106	0x3c656480	0.014001012
107	0x3dae0bb4	0.08498326
108	0x3c272ecf	0.010204031
109	0xbd571f39	-0.05252001
110	0x3d808185	0.06274704
111	0x3a1f15f2	0.0006068639
112	0x3c7e08af	0.015505
113	0xbd7087de	-0.058723323
114	0xbd1afee3	-0.037840735
115	0x3d88cedf	0.066800825
116	0xbd863f6c	-0.065550655
117	0xbd73474c	-0.059394166
118	0xbd42d9e7	-0.04757109
119	0x3d9dc330	0.07703245
120	0xbc705f6c	-0.014671188
121	0xbd8dba14	-0.06920257
122	0xbcbedf04	-0.023299702
123	0x3d2fd97b	0.042932015
124	0xbd958e1a	-0.07302494
125	0xbcea33df	-0.028589187
126	0xbd664c5d	-0.05622517
127	0xbddf6758	-0.10908383
128	0xbcfd46eb	-0.030917605
129	0xbdb9901f	-0.09060692
130	0x3d1e3c27	0.038631584
131	0x3d410475	0.04712339
132	0xbd4380db	-0.047730308
133	0xbcc4e184	-0.024033315
134	0x3dfb193e	0.12260674
135	0xbd835858	-0.064133346
136	0xbd8656ec	-0.06559548
137	0xbdb0302c	-0.08602938
138	0x3d0d6e42	0.03452898
139	0xbd68bd32	-0.056821056
140	0xbd4f6b7e	-0.050639622
141	0x3ce0b0b9	0.027428018
142	0xbd4d5d2d	-0.050137687
143	0xbdc00085	-0.09375099
144	0x3d067205	0.03282358
145	0xbc58e7a2	-0.013238819
146	0xbd2dcd9d	-0.042432416
147	0xbd5ebacb	-0.05437736
148	0x3d3e41d7	0.04644951
149	0xbd167927	-0.036736634
150	0x3d54de51	0.05196983
151	0xbc52a169	-0.012855866
152	0xbd31e639	-0.043432448
153	0xbb8abebd	-0.0042341636
154	0xbd1f2ed6	-0.038863026
155	0x3d42f3b3	0.04759569
156	0x3caa1087	0.020759834
157	0xbd5645f9	-0.052312825
158	0xbd8107fe	-0.063003525
159	0xbd3ae895	-0.045631964
160	0xbd980f81	-0.07424832
161	0xbdc41c0c	-0.09575662
162	0xbd9158b9	-0.07097001
163	0xbd51fe5c	-0.051267967
164	0xbcee26fa	-0.02907132
165	0x3d389363	0.045062434
166	0xbd1338b2	-0.03594274
167	0xbd2fbdf3	-0.04290576
168	0xbc4aed94	-0.012385745
169	0xbd4209ed	-0.047372747
170	0x3d773034	0.060348704
171	0xbd589d4b	-0.05288438
172	0x3d504995	0.050851423
173	0x3d523d5e	0.051328056
174	0x3d842f9e	0.06454395
175	0x3da37471	0.07981194
176	0xbd89a49b	-0.06720849
177	0xbd3d96e7	-0.04628649
178	0xbd5409e2	-0.051767237
179	0xbd2e7fb0	-0.04260224
180	0xbd758dc2	-0.059949644
181	0x3d951e41	0.07281161
182	0x3cafaf11	0.021445783
183	0x3d232853	0.039833378
184	0x3d2f72df	0.04283416
185	0x3d338390	0.04382664
186	0xbd8ba2e9	-0.06818182
187	0xbd07b80b	-0.0331345
188	0x3d148244	0.036257043
189	0x3c877696	0.016536038
190	0xbdaf28a6	-0.08552675
191	0xbdb9aaac	-0.09065756
192	0xbb231f25	-0.002489039
193	0xbd42f2ab	-0.047594707
194	0x3b8877f5	0.0041646906
195	0xbd1c3a24	-0.038141385
196	0xbd3912ba	-0.045183875
197	0x3d73216e	0.059358053
198	0x3d463d99	0.048398588
199	0xbd7a8080	-0.061157703
200	0xbd2a4ac4	-0.04157521
201	0xbb75ad08	-0.0037487168
202	0xbd79482e	-0.06085985
203	0x3d7a20c8	0.06106642
204	0xbc89bc46	-0.016813409
205	0x3d10f85c	0.035393104
206	0xbd1e12d5	-0.03859218
207	0x3d34bb7c	0.04412411
208	0x3db3583c	0.08757064
209	0xbb555efc	-0.0032557836
210	0xbd640ffa	-0.0556793
211	0xbd2ea19c	-0.04263459
212	0xbd1af063	-0.037826907
213	0xba53809f	-0.0008068177
214	0x3d1a52e3	0.037676703
215	0x3cd3fe5c	0.025878124
216	0x3cc51edb	0.024062565
217	0xbbfaa4ac	-0.007649025
218	0x3db11dfb	0.086482964
219	0xbb0ab89f	-0.0021167172
220	0xbd5b1842	-0.05348993
221	0xbcf72673	-0.030169701
222	0xbd2a8532	-0.04163093
223	0x3db4deb0	0.08831537
224	0x3d34a9c3	0.04410721
225	0x3d716cf4	0.058941796
226	0x3d86c6ba	0.06580873
227	0x3d83776d	0.06419263
228	0xbc8f29aa	-0.017475922
229	0x3d775199	0.060380552
230	0xbd18894d	-0.037240315
231	0xbc6b5611	-0.014363782
232	0x3d8b95db	0.06815692
233	0x3c47ba05	0.012190347
234	0x3cf56dd7	0.029959602
235	0xbd291789	-0.04128221
236	0x3d9df027	0.07711821
237	0x3c254c0e	0.010088934
238	0xbdb9e2de	-0.090764746
239	0x3d10de9e	0.035368554
240	0xbb6a5d2e	-0.0035761106
241	0x3bdb52fe	0.006693243
242	0xbc51bcde	-0.012801377
243	0x3da696d0	0.08134234
244	0x3d2699e5	0.04067411
245	0xbd194885	-0.037422676
246	0xbd981395	-0.0742561
247	0xbd408d22	-0.047009595
248	0x3d7a7149	0.061143193
249	0xbddbafb0	-0.10726869
250	0x3d52f59a	0.051503755
251	0x3ca5c165	0.02023382
252	0xbd34a5bc	-0.04410337
253	0xbd919388	-0.071082175
254	0xbd813017	-0.063080005
255	0xbcec5b6e	-0.02885219

model.cnn_input_3.3.bias f4 [32]
0	0x3b413c08	0.0029485244
1	0xbd5b9106	-0.053605102
2	0xbcd0343d	-0.025415534
3	0x3d7d174a	0.06178979
4	0xbcde21d3	-0.027115738
5	0x3d009eda	0.031401493
6	0xbd3acaf3	-0.045603704
7	0x3d81cec7	0.06338268
8	0xbce6bd41	-0.028166415
9	0xbd4a9433	-0.04945774
10	0xbd7fb31e	-0.06242668
11	0x3d5ec6b0	0.054388702
12	0x3dacf625	0.08445386
13	0xbcb84efa	-0.022498596
14	0x3d8631fc	0.065525025
15	0xbcd775d6	-0.026301306
16	0xbd7ae1a2	-0.061250336
17	0x3cdb0973	0.026737904
18	0x3c7a7480	0.015286565
19	0x3d1fbe0f	0.038999613
20	0xbcba99c1	-0.022778394
21	0xbc068262	-0.008209797
22	0xbb89110f	-0.0041829417
23	0x3d30e4e5	0.04318704
24	0xbc362c82	-0.01111901
25	0x3d1c55fa	0.03816793
26	0x3d70a005	0.058746357
27	0x3dc3b146	0.095552966
28	0xbd600077	-0.054687943
29	0xbd3ca636	-0.04605695
30	0xbd3987b4	-0.045295432
31	0x3d460ede	0.048354022

model.upconv_2.0.weight f4 [32, 16, 6]
0	0xbcd1e7f3	-0.025623297
1	0xbd9b3117	-0.075777225
2	0x3c4e400e	0.012588514
3	0xbd50d452	-0.050983734
4	0xbe072127	-0.1319624
5	0xbe018c2f	-0.12651132
6	0xbcf50518	-0.029909655
7	0x3d4becb8	0.0497863
8	0x3de2137e	0.11038874
9	0xbd19c025	-0.03753676
10	0x3d8e476e	0.06947218
11	0xbd0f3c12	-0.034969397
12	0xbd60136c	-0.054706022
13	0x3d9a542a	0.07535584
14	0x3d63dc6a	0.055630125
15	0xbcdfd06e	-0.027321067
16	0xbd9bd9f2	-0.07609929
17	0xbc3a0164	-0.011352871
18	0xbd4fa195	-0.050691206
19	0x3c501d46	0.012702292
20	0x3d5507a7	0.05200925
21	0xbd9ac799	-0.075576015
22	0xbd431b33	-0.04763336
23	0x3d5f68ac	0.054543182
24	0xbba76015	-0.0051078894
25	0xbbae6bcd	-0.0053229094
26	0x3c32ae0c	0.010905754
27	0x3d24e660	0.040258765
28	0x3da083b4	0.078376204
29	0xbdd38f70	-0.10330093
30	0xbd03bfc9	-0.032165322
31	0x3d46314e	0.048386864
32	0xbdde185b	-0.10844489
33	0x3d77dd36	0.060513698
34	0xbd8541f9	-0.06506724
35	0x3d13f3a5	0.03612103
36	0x3de179fa	0.11009593
37	0xbda4cdf8	-0.08047098
38	0x3c1efec8	0.009704299
39	0x3da4edc5	0.080531634
40	0xbdd27726	-0.10276632
41	0x3dc5edee	0.09664522
42	0x3c058e36	0.0081515815
43	0xbd764a96	-0.060129724
44	0x3d35c77b	0.044379693
45	0xbca88222	-0.020569865
46	0x3d65aedc	0.056074962
47	0xbd90ab2c	-0.070638984
48	0x3c109670	0.00882493
49	0xbdbf8161	-0.09350849
50	0x3da7bfee	0.081909046
51	0xbc68ebab	-0.014216344
52	0xbb8e631f	-0.0043453122
53	0xbc830d40	-0.015997529
54	0xbcbecdcb	-0.02329149
55	0xbdf3bbba	-0.119010404
56	0xbd5433a4	-0.05180706
57	0x3d8e6b6e	0.06954084
58	0xbd199faf	-0.0375058
59	0x3c678260	0.014130205
60	0x3a880bb8	0.0010379469
61	0x3ba39f8a	0.004993384
62	0x3da35372	0.079749
63	0x3d9835a9	0.0743211
64	0x3da9bfad	0.082885124
65	0x3dcb3af3	0.09923353
66	0xbb2c097e	-0.0026250775
67	0x3ce5ab67	0.028035833
68	0xbcc07e84	-0.023497827
69	0x3d0379bb	0.032098513
70	0xbdd97f16	-0.10619943
71	0xbd3198ff	-0.0433588
72	0xbd9de126	-0.07708959
73	0x3c04473f	0.008073627
74	0x3ce34218	0.027741477
75	0x3cb1ec59	0.021719145
76	0x3d05700b	0.032577556
77	0x3da321b4	0.07965413
78	0x3d4916e6	0.049094103
79	0xbd3bfced	-0.045895506
80	0xbdccbe21	-0.09997202
81	0xbc0efa71	-0.008726702
82	0xbd84b9cc	-0.064807504
83	0x3d994f61	0.074858434
84	0x3bfdb40a	0.0077424096
85	0xbc7117ea	-0.014715174
86	0xbbe9b5d1	-0.00713227
87	0xbb5f0457	-0.0034029686
88	0xbd89acbf	-0.06722402
89	0x3dc5466e	0.09632574
90	0x3becbf34	0.0072249416
91	0xbddd82d7	-0.10815971
92	0xbcb8e0a4	-0.022568054
93	0x3d6a9fc7	0.05728128
94	0xbd388029	-0.045044098
95	0x3dc16ba3	0.09444358
96	0x3db82026	0.08990507
97	0x3db5b483	0.088723205
98	0xbd9f09c1	-0.07765532
99	0xbd0ada4c	-0.03389959
100	0x3ddf5232	0.109043494
101	0x3d313c14	0.043270186
102	0xbdcc0706	-0.09962277
103	0xbd9fc86e	-0.07801901
104	0xbde024db	-0.109445296
105	0x3d3e01a2	0.046388276
106	0x3afb0445	0.0019151053
107	0xbc66c199	-0.014084243
108	0xbd09827b	-0.0335717
109	0x3db1047e	0.08643435
110	0xbd7d4208	-0.06183055
111	0xbd5133aa	-0.05107466
112	0x3c8b6bab	0.017019114
113	0x3d04ab7a	0.032390095
114	0xbdc1ac08	-0.094566405
115	0x3d2a4bcf	0.041576203
116	0xbdb0563a	-0.086101964
117	0xbddabe4c	-0.106808275
118	0x3c128790	0.008943453
119	0x3cb2c2a6	0.021821331
120	0x3d4dd581	0.05025244
121	0x3d9d36ad	0.07676444
122	0xbdb6a6dc	-0.08918545
123	0x3c1d0c0e	0.009585394
124	0xbd7a0c88	-0.061047107
125	0xbcccd2ba	-0.025002826
126	0x3c4df72a	0.012571136
127	0x3d8b8618	0.06812686
128	0xbcfbf94d	-0.030758524
129	0x3d55b51b	0.05217467
130	0x3df3410d	0.11877642
131	0x3db3c67a	0.08778091
132	0x3c68cbf2	0.014208781
133	0xbd24e307	-0.040255573
134	0x3d4c90b3	0.049942683
135	0x3d2454ee	0.040120058
136	0x3d9de6da	0.07710047
137	0x3cd528d8	0.026020452
138	0xbdb5ee86	-0.08883385
139	0x3d93facd	0.07225571
140	0x3cc20ebb	0.023688665
141	0xbd538fe2	-0.05165089
142	0xbda2177e	-0.07914637
143	0x3c4087f2	0.011751162
144	0x3d8fd303	0.07022669
145	0x3ca5a794	0.020221509
146	0x3b9a9e3d	0.0047185705
147	0x3c786bfd	0.015162465
148	0x3df6fd9f	0.12060093
149	0xbcd245e5	-0.025668094
150	0xbcf40d93	-0.029791629
151	0xbcaa2fb8	-0.020774707
152	0x3dce01b2	0.10058917
153	0x3d22d774	0.039756253
154	0x3df1f4f4	0.11814299
155	0x3d6e7140	0.058213472
156	0xbd854ed9	-0.065091796
157	0x3d576c32	0.052593417
158	0x3d52c260	0.0514549
159	0x3cc96642	0.024584893
160	0x3da16499	0.078805156
161	0xbd947bdf	-0.07250189
162	0xbd9b11a2	-0.075717226
163	0xbd43c280	-0.04779291
164	0x3dbee24c	0.093205065
165	0x3b81c582	0.0039603123
166	0xbd1d5ec2	-0.038420446
167	0x3d7385f6	0.059453927
168	0xbcb16c9f	-0.02165824
169	0x3c828981	0.015934708
170	0xbdad6a59	-0.0846755
171	0xbc9ed8ca	-0.019390482
172	0xbdabf26e	-0.08395849
173	0x3cc70e07	0.024298681
174	0xbd1844af	-0.037174877
175	0xbdd29b7d	-0.10283563
176	0xbd5438be	-0.051811926
177	0x3c179e15	0.009253998
178	0x3d363e7a	0.044493176
179	0x3d895ea6	0.06707506
180	0xbd5ab2b1	-0.05339307
181	0xbda906da	-0.0825326
182	0xbd4b1ed5	-0.04958995
183	0xbc86bcbe	-0.016447421
184	0xbd62451f	-0.0552417
185	0xbd90e7ba	-0.07075448
186	0x3d946407	0.07245641
187	0x3d93d77d	0.072188355
188	0xbd79a62d	-0.060949493
189	0xbc9b33e0	-0.018945634
190	0xbd58386e	-0.05278819
191	0x3c4ee7af	0.01262848
192	0xbd14abd7	-0.03629669
193	0xbd31a537	-0.04337045
194	0xbe053adb	-0.13010733
195	0xbd2fa62e	-0.04288309
196	0xbd8a8bee	-0.06764971
197	0x3d01eaed	0.031718183
198	0x3c57fe37	0.013183168
199	0x3dcbf272	0.09958352
200	0xbc78e7c0	-0.015191972
201	0xbd8d46e4	-0.06898287
202	0xbd94573c	-0.07243201
203	0x3d6ce2bf	0.05783343
204	0x3d715a39	0.058923934
205	0xbdab600d	-0.083679296
206	0x3d63e37f	0.05563688
207	0x3cdf21dd	0.027237827
208	0xbd525e56	-0.051359497
209	0x3b9f8388	0.0048679747
210	0xbd1f1f6a	-0.03884832
211	0xbd29ac8d	-0.041424323
212	0xbcdd741c	-0.027032904
213	0x3b0d25d2	0.0021537435
214	0xbd2b68b6	-0.041847907
215	0xbdb431bd	-0.08798549
216	0x3cfaa18d	0.030594612
217	0x3c8c2400	0.01710701
218	0xbcf52d00	-0.029928684
219	0x3dd77302	0.10519983
220	0x3d1b5ff4	0.037933305
221	0x3c8fc672	0.01755068
222	0x3d802945	0.062578715
223	0x3ceea13c	0.029129617
224	0xbcd12bec	-0.025533639
225	0x3dc77ef0	0.09741008
226	0x3da5496b	0.08070644
227	0x3d814e8f	0.06313812
228	0x3d8300d8	0.06396645
229	0xbca8f9e0	-0.020626962
230	0xbd5906b2	-0.0529849
231	0xbc726f4b	-0.014797042
232	0xbda04433	-0.07825508
233	0x3bee3672	0.007269674
234	0xbdc0e3ca	-0.09418447
235	0xbd86c837	-0.06581157
236	0xbbdc0840	-0.0067148507
237	0xbd17c4d6	-0.03705295
238	0xbd777c3d	-0.060421217
239	0xbd95f6a8	-0.073224366
240	0x3d23d998	0.040002435
241	0x3cd6ac4a	0.0262052
242	0xbd0eef87	-0.0348964
243	0xbc6cdb6d	-0.014456612
244	0x3d32a14c	0.043610856
245	0xbda43ba4	-0.08019188
246	0x3d44a2af	0.04800671
247	0xbd0f62d4	-0.03500636
248	0xbc7bbd29	-0.0153649235
249	0xbd9a2000	-0.07525635
250	0x3db6a8bc	0.08918902
251	0xbd5a8096	-0.053345285
252	0x3ce6128b	0.028085014
253	0xbdd9ccb9	-0.10634751
254	0x3d76898e	0.060189776
255	0x3cd29110	0.025703937

model.upconv_2.0.bias f4 [16]
0	0x3dae9f32	0.08526458
1	0xbd33e8d9	-0.043923233
2	0x3d33e79e	0.04392206
3	0xbd81127a	-0.06302352
4	0x3c9c7555	0.019098917
5	0x3caf25ff	0.021380423
6	0xbd87b385	-0.066260375
7	0x3cec28f5	0.028828124
8	0xbc777c80	-0.015105367
9	0xbbdb6389	-0.006695215
10	0xbd48b44d	-0.049000073
11	0x3d876e4f	0.066128366
12	0xbd9d5446	-0.076820895
13	0x3c61873e	0.013765154
14	0xbd4c1a8b	-0.04983
15	0x3d12434b	0.035708707
